mountaincar_cl_project/mountaincar_cl/runs/periodic/egp/seed_0/online_stream_model.pth (torch, 536437 bytes, 8 tensors)

network.0.weight f4 [256, 2]
00000000: 24eb 5d3e 5a9b 07bf 2070 24bd dc89 03be
00000010: 772e cebe 74b1 283e 12f7 4e3f d415 a03f
00000020: 502b bf3e 97c0 7d3f c07b f5bd 9a35 b2be
00000030: d42e a2be 0244 0240 3b59 a23e 1db1 313f
00000040: 5daa c53e e1ce ff3f c2ce 603d 9897 2b40
00000050: 9d99 1abe f769 5040 c2dd efbe 9a7b fa3e
00000060: c5fa e73e 7ddf bb3d 626d f53e 61b8 2c3f
00000070: 22e5 373f fe6a 7ec0 85d4 87bd 262e b4c0
00000080: 77ab 86be 6ede 24bf fa55 d7be ab7b cd3f
00000090: 5d74 8d3e 6ee8 9d3e 603e 263c 7215 1540
000000a0: 3bce 43bf 7495 973e 6ba4 cd3b b9f0 1640
000000b0: 70a8 c53d 023e a8be 28fb 8c3d 4018 c73c
000000c0: aeb9 b23e c3fd 063f c535 243c 9ec1 1740
000000d0: 907a 613c 7069 0b40 464c 813c 59af 1940
000000e0: 92b0 6b3f 6023 76bf e21d 2a3f 0611 1540
000000f0: f712 673f 7915 8dbe 1577 97bd 19ce b63f
00000100: 7112 a33d 1613 653d cf42 96be 6fc3 173f
00000110: 08db 8f3e 0223 0140 37ad 98be aa11 ce3e
00000120: 3213 9ebe ae19 3d40 0056 14bc e4a0 873e
00000130: 92b0 f23e abc5 023f 1f0a 1b3f 7c9a 8ebe
00000140: d9d6 81be edf1 0fbf 9815 4abe 1850 5040
00000150: 5666 99be 54ea 47be 7c02 903e e9ed 1d40
00000160: 1619 aa3e 20dc a33d 5592 e6be 008b 0c40
00000170: 4df3 213d c8d3 2e40 57bf 923e dcc2 823e
00000180: 1fac 0a3f 386b fcbd 7089 263f 9bf2 c1be
00000190: 4210 9bbd 4f6b 0dc0 1c3e cdbe 5fb7 2e40
000001a0: 0c78 7dbe ce0e 1b40 b5d6 093f 9633 f33e
000001b0: ab04 72bc d406 3c40 ebb3 fd3e 706a 8640
000001c0: a278 483f cc18 963f 610e b03e 5ae2 753f
000001d0: 70c8 4ebe af93 053f 273b 233f e06e 1b3d
000001e0: e040 fc3c 76c2 e83e 0a1d 96bc 6c2e 6240
000001f0: 1fba 9fbe 67c2 9bc0 2e07 913e 1e90 dbbe
00000200: 0ac7 853e 607e 19bd 5852 943d d94e cfbe
00000210: c502 1b3f 7475 7abe 9461 083e 5ebc 1dbf
00000220: f0e9 893d c054 cebc e551 183e 7bbe 4440
00000230: a978 2b3d ceba cc3f a121 833f 3d9c 43bf
00000240: 18a7 683d 080c 3140 62f0 de3e f8b1 57be
00000250: c4cf d0bd cdb9 07c0 e16e 103e a822 5a40
00000260: 0486 40be 8f12 6c3f 783f b73e 3c7f 0340
00000270: bf7c d1be 0d5c cfbe 635a 223f 55ba 133f
00000280: 51ac 0dbf d937 a5bf 00a2 9c3a 20dd c4be
00000290: 02e0 27bf a1d1 ae3e 5234 b2be c68d be3e
000002a0: c2ce e53e 4ba8 95be 704b 9abe c0b8 c03d
000002b0: 88be 07bf 0344 00bf 62bb 9a3d 4de8 35c0
000002c0: a0dc fdbd 8e05 b93e 20d1 8ebd 1c70 3ebe
000002d0: fc37 3f3d f7a8 5140 8b7e 5d3d 12b8 4240
000002e0: 2822 51be 2657 babf fc15 90be 981b 4540
000002f0: 8575 00bf adea 19bf 832f 8ebe bb07 94bf
00000300: 855e c5be c83d 1740 4140 123f ada3 a73f
00000310: e6ff a23e 7451 8abe 57d7 033f 00b2 9d3c
00000320: a493 223e fab1 fa3e be20 e63d c124 0e40
00000330: 565f cf3e 4d9a 89be c5a1 ea3e 8000 0c40
00000340: 0f17 013d 3f41 3f40 4022 81bd ada5 97be
00000350: e443 d33c 816f 05c0 f017 163f d094 57be
00000360: ae26 c03e 419f cabe 3a5f 11bf 497a 25c0
00000370: dcc9 17bf b178 52bf 9cbf 433f 8498 c43f
00000380: c0da ef3e 29c0 fc3f a5ad a9be 98e3 ef3d
00000390: 4077 153f 10bf a1bd 141c 71be de88 bd3e
000003a0: 66ac e8be 0a74 783f d022 a2be 6075 dc3c
000003b0: e18e b5be 6f94 43c0 e844 d4be 0ed4 65be
000003c0: 5943 2fbf ae0a 23c0 cebf 21be 249f 393f
000003d0: 8ddb 2d3d 13ed 3b40 7267 c53c faaa 5a40
000003e0: 9ed5 d13e f9b7 023f c990 e0be 3ac1 c23e
000003f0: 366f e63e 8f12 de3f ade2 a43d 1cdd 3940
0.2167173 -0.5297142 -0.040145993 -0.12845558 -0.40269825 0.16473943 0.8084575 1.2506661
0.37337732 0.99121994 -0.11986494 -0.3480652 -0.31676352 2.0354009 0.31708702 0.6941088
0.3860654 1.998501 0.05488468 2.6811275 -0.15097661 3.2564676 -0.46848875 0.48922426
0.4530851 0.091734864 0.47935015 0.6746884 0.71834004 -3.9752803 -0.06632332 -5.6306334
-0.26302692 -0.644019 -0.42057782 1.6053365 0.2762784 0.30841392 0.010146707 2.329434
-0.7648656 0.2960621 0.0062757037 2.3584425 0.096512675 -0.32859808 0.06883842 0.024303555
0.34907287 0.5273096 0.010022585 2.3711925 0.013762131 2.1783104 0.01578344 2.4013274
0.920663 -0.9614773 0.6645185 2.329164 0.90263313 -0.27555445 -0.0739576 1.4281646
0.07962502 0.055926405 -0.29347846 0.59282583 0.28096795 2.0177617 -0.29819652 0.40247852
-0.3087402 2.9546924 -0.009053707 0.26489937 0.47400337 0.5108287 0.6056232 -0.27852237
-0.25359228 -0.56228524 -0.197348 3.2548885 -0.2996089 -0.19522983 0.28126895 2.467646
0.33222264 0.0800097 -0.45033517 2.195984 0.03953867 2.731676 0.28661606 0.2553929
0.54168886 -0.12325138 0.65053463 -0.37880406 -0.0757146 -2.2096746 -0.40086448 2.729942
-0.24752825 2.4227786 0.5384324 0.47500294 -0.014771621 2.9379168 0.4955133 4.200493
0.7830907 1.1726317 0.3438597 0.9604851 -0.20193648 0.5217847 0.63762134 0.037947536
0.030792654 0.45460862 -0.018324394 3.5340834 -0.31196687 -4.8674808 0.2832579 -0.4288339
0.26128417 -0.037474036 0.07242268 -0.40489843 0.605511 -0.24458867 0.13318473 -0.6161555
0.06734073 -0.025186896 0.1487499 3.074126 0.041863117 1.5994508 1.0244638 -0.76410276
0.056799978 2.7663593 0.43542773 -0.21063983 -0.10195878 -2.1207154 0.14104797 3.4083652
-0.18801123 0.9221582 0.3579061 2.0546408 -0.40915486 -0.40499917 0.6341917 0.57706195
-0.5534106 -1.2907668 0.0011950135 -0.38449955 -0.65576184 0.3414431 -0.34805542 0.3721754
0.44884306 -0.2922996 -0.3013568 0.09410238 -0.530251 -0.5010378 0.07555272 -2.8423035
-0.123955965 0.3613705 -0.06973481 -0.18597454 0.04668425 3.2759378 0.05407576 3.0424848
-0.20423186 -1.4557846 -0.28141773 3.0798092 -0.5017932 -0.6012371 -0.27770624 -1.1564859
-0.38548675 2.3631458 0.57129294 1.3096825 0.3183586 -0.2701527 0.5150046 0.019249916
0.15876633 0.4896391 0.11236714 2.2209933 0.40502423 -0.26875535 0.45826545 2.1875305
0.03151613 2.9883573 -0.06305361 -0.29618588 0.025789209 -2.0849307 0.58630276 -0.21052861
0.3752951 -0.39574626 -0.5678593 -2.5855887 -0.5929239 -0.8221541 0.7646425 1.5359044
0.4684658 1.9746143 -0.33140293 0.11713332 0.58385086 -0.078977704 -0.23545867 0.37018484
-0.4544403 0.9705206 -0.31667185 0.026911438 -0.3546057 -3.0559347 -0.4145882 -0.22444174
-0.6846214 -2.5475268 -0.15795824 0.72508454 0.042445708 2.9363449 0.024097178 3.4166856
0.4098329 0.5106197 -0.43860462 0.38038045 0.45006722 1.7349414 0.080510475 2.9041204

network.0.bias f4 [256]
00000000: a605 e5be 5482 00bf bf66 a0be da77 45be
00000010: d6a3 5d3d 0e2c 88be ca96 f9bd caf5 9ebd
00000020: 2fc7 013e f91a 373c f3b3 6abd f21b d2be
00000030: f659 0abe a24d f5be e5df 963e e0ac 04bd
00000040: 5102 d3be c082 e2be ac7f 2dbe afd5 a1bb
00000050: a90f 12bf fc01 8dbc 8e46 b1be 046e 09be
00000060: d8c8 32bf ace3 d73a c667 19be b961 173c
00000070: 96d6 e03e f8de b43d 90ec 9e3d b8fb a9bc
00000080: 9932 2fbd 20c2 e1be 701d 303d dd21 21bf
00000090: e7aa f9bd 148f 6bbe 8cd8 e2be d70d b8be
000000a0: 383a acbe 34f8 6dbd cb15 20bf 2bf6 1e3d
000000b0: fd4f 30bf 53df 25be afc9 c63b cc9e 7e3d
000000c0: 88eb 9cbe cecd 863e d542 62be 9754 1bbe
000000d0: 361d c2bd b759 0dbf 576d fd3a a3ae 643e
000000e0: 5df8 af3e 9b36 d93d d354 23bf 9142 6e3d
000000f0: 944d 5bbe ad52 08bd 9c66 47be 83a9 a1be
00000100: b2b3 63be c1fa 23bf 754d 883e c030 0abe
00000110: b07a 1abe 10f2 6ebd bf21 ecbc dbbd 9d3e
00000120: 5a92 46bd 18c2 a1be ae04 83be c99c 5abd
00000130: 694d 73be 3ce2 d23c 2304 1ebf 7619 1ebf
00000140: 72dd dfbe 3cb4 c8be 02a4 23bf e92d 1abf
00000150: af59 2fbf 89eb 04bf 0f3a 2fbf cf4f 8bbc
00000160: 641d 17bf 949a 2abe 98e7 bc3b 7b6e 62bd
00000170: 0cd4 14be 9bcc dfbd 1f77 04bf 6bc0 80be
00000180: 726d 10be fe42 9ebb 4666 73be 48c9 d7be
00000190: f235 16bf 6c21 ad3c 328a 26bf 8c82 923d
000001a0: d5b2 e13b 7e8f 20bf 8e15 9b3b d429 783e
000001b0: 0d2e 00bf 8e7d 81be 4bbe 14bf 56ed ab3e
000001c0: 5b88 3d3d cb36 dcbe 42d8 793d 4036 07bf
000001d0: 9b67 0cbf f864 03bf 866d cfbe 7398 01bf
000001e0: 0388 9abe bfd9 47be a1a7 4e3b 5050 01bb
000001f0: b316 b2be f11b 09bf c774 d2bd 53ae a83c
00000200: 7c7b 08bf eb64 22bf 03f6 b6be 8c70 50bd
00000210: 773d aabe 60c6 eb3d 8777 2cbd 08de 33bc
00000220: 6cc6 9bbe db6c 6abd abc0 9fbe 1e20 54bd
00000230: 1661 c83e ff43 173d 299d 32bf 306b 7cbd
00000240: a62b 6abe 0738 a73e 2c2f 56be 4e59 56be
00000250: 0691 8fbe 5ee0 683d a5f1 183c 08bb febe
00000260: 7f90 0b3e b76a 9a3d 7d05 92be 9a0f 01be
00000270: a18b 3abd ec9e 8a3e 50af 24be 464b 163d
00000280: 755c 2bbe 9ca3 fd3c 89c3 0cbe 654e c13e
00000290: d774 d03b e3d7 09bf aa92 15bf 30c0 17bf
000002a0: 94c2 ebbe a3cd 2cbf 0a85 e0bd 1feb bd3e
000002b0: add6 033d 97d9 913e b2df efbe 966a ccbe
000002c0: 16d3 2ebf 2aa8 2dbd d5b5 44bd 4c59 dfbd
000002d0: 5dbf 1d3d a60c 85be 288a 1e3d 9dca 11bf
000002e0: 42bc 21bf e907 9cbe 391b 1fbf 769d 63be
000002f0: 0a7c 8a3c 440f 4f3e 2abf 32be 3867 a13d
00000300: 3c9f fdbe 0af0 bebd d4f0 2abd a05f 7cbe
00000310: ec25 18bd cc81 76bd 0cd7 8ebb fa49 04be
00000320: 268d 923d 5dc4 1fbf c25a 9dbe 2262 e5bd
00000330: 3d75 52bd f7d9 a23e fb40 7dbd c45b 19bf
00000340: 8000 453d 5fb8 33bf 8438 c23b fa94 78be
00000350: 6de2 a8be a2d7 14bd 64b4 7ebe e128 9abe
00000360: 30dd 23bf 56f3 d4be 85a5 a7bd 802a edbd
00000370: 11fc 22bf 8a89 0abf a8da 03bc f8b7 8e3d
00000380: b285 30bf b932 ecbe d24c 27bf 82e6 e33d
00000390: 7691 06bf 0627 31be 4598 793c 91b5 3bbd
000003a0: 27c8 1cbe 502c 1cbc c8e8 083d 861e 94be
000003b0: a530 b9bc 9782 16be 102b 283e 14c1 543d
000003c0: 6738 6cbd d91f 27bf cafb 423e 384e 2cbf
000003d0: 30e1 6cbd 15b8 a0be 5dda 843d be74 0cbe
000003e0: cf27 8c3d 324d 0cbf 9eff 0a3d 2f16 393e
000003f0: 34d1 24bf dbb8 2dbf 55bb 1fbe d8be a7be
-0.44730872 -0.50198865 -0.3132839 -0.19284001 0.054111324 -0.2659611 -0.12186964 -0.07761724
0.12673639 0.011175864 -0.05730052 -0.41036946 -0.1351088 -0.47910792 0.29467693 -0.03239143
-0.41212705 -0.4424038 -0.16943234 -0.004938803 -0.57055146 -0.01721286 -0.3462414 -0.13420874
-0.69837713 0.001647105 -0.14980993 0.0092396075 0.43913716 0.088315904 0.077599645 -0.020749912
-0.042772863 -0.44093418 0.042996824 -0.62942296 -0.121908 -0.23003799 -0.44305837 -0.3594806
-0.33638167 -0.058098033 -0.62533253 0.038808983 -0.6887205 -0.16198473 0.006066523 0.06216316
-0.30648446 0.26328892 -0.22095807 -0.15168987 -0.09478228 -0.5521502 0.0019334954 0.22332244
0.34369174 0.10606118 -0.63801306 0.05816895 -0.21416312 -0.03328197 -0.19472736 -0.3157464
-0.22236517 -0.64054495 0.26621595 -0.13495159 -0.15085864 -0.058336318 -0.028824685 0.3080891
-0.048479415 -0.31593394 -0.25589508 -0.05337218 -0.23759998 0.025742643 -0.6172506 -0.617576
-0.43723637 -0.39200008 -0.6392213 -0.60226303 -0.6849622 -0.519219 -0.68447965 -0.01700583
-0.5902922 -0.1666053 0.005764913 -0.055281144 -0.14534014 -0.10927697 -0.51744264 -0.25146803
-0.1410425 -0.0048297634 -0.23769483 -0.42145753 -0.58676064 0.0211341 -0.6505462 0.07153806
0.0068877735 -0.6271895 0.004732794 0.24234706 -0.5007027 -0.25291103 -0.58102864 0.3357951
0.046272617 -0.43010554 0.060997255 -0.52817154 -0.5484559 -0.5132594 -0.40513247 -0.50623244
-0.30181894 -0.19516657 0.003153302 -0.0019731708 -0.34782943 -0.5355826 -0.1027618 0.020590937
-0.5331342 -0.6343524 -0.35734567 -0.050888583 -0.3325002 0.115124464 -0.042106178 -0.010978229
-0.3042482 -0.05723272 -0.31201681 -0.05178844 0.3913657 0.03693008 -0.6977106 -0.06162566
-0.22868213 0.32659933 -0.20916432 -0.20932505 -0.28040332 0.0568546 0.009334956 -0.4975207
0.1362934 0.075398855 -0.28519812 -0.12603608 -0.045543317 0.27074373 -0.16082501 0.03669288
-0.16734488 0.030961804 -0.13746466 0.37755123 0.0063615846 -0.5384504 -0.58426917 -0.5927763
-0.4604689 -0.67501277 -0.10962875 0.37093446 0.032187153 0.2848632 -0.46850353 -0.3992507
-0.6829084 -0.042396702 -0.04802497 -0.10905704 0.038512576 -0.25986212 0.038705975 -0.5694979
-0.63177884 -0.30474785 -0.62150913 -0.22228035 0.01690485 0.20220667 -0.17455736 0.078810155
-0.4953555 -0.093231276 -0.041733578 -0.24645853 -0.03714554 -0.060182378 -0.0043591317 -0.12918845
0.07155828 -0.62409 -0.30733305 -0.11200358 -0.05138134 0.3180692 -0.06182955 -0.5990565
0.04809618 -0.702032 0.0059271473 -0.2427558 -0.3298525 -0.036338456 -0.24873501 -0.30109313
-0.6400938 -0.415919 -0.08185867 -0.11580372 -0.6366587 -0.5411612 -0.008047737 0.06968683
-0.68954 -0.46132448 -0.65351593 0.1112795 -0.52565706 -0.17300043 0.015234058 -0.045827452
-0.15310727 -0.009532049 0.033425122 -0.28929538 -0.022606203 -0.14698254 0.16422677 0.051941946
-0.057670977 -0.6528297 0.19041362 -0.6730685 -0.057831943 -0.31390443 0.06486962 -0.13716409
0.068435304 -0.5480529 0.03393518 0.18074869 -0.6438172 -0.6786019 -0.15598805 -0.3276279

network.3.weight f4 [256, 256]
00000000: 80e0 a43c b051 d03b a2ac 843d f851 fcbc
00000010: ac0e 0a3d b46e 8abc 5b1e 8dbb 4e02 0bbd
00000020: 22f9 eeb9 9de0 a9be f360 8dbd 0a7b 003c
00000030: f845 b13c b095 673d 59c1 84bf ea9f cbbf
00000040: 9025 0fbc 1954 c03d c85a 503d d630 58bd
00000050: 1192 4d3d e32c 3dbd 3008 39bd f847 4bbc
00000060: d0df 363c f519 e63c 2c95 ecbf 1131 debd
00000070: 48e8 f0be 8d62 a4bd 2c67 453d 2bba d4bc
00000080: 38ba 643c 243b 793d 438d 06bd 38b0 04bc
00000090: a577 0dbe 5450 683d 3ce1 b43c e048 c63b
000000a0: 6c44 a63c 3055 e0bd 6088 893c 75e4 93bb
000000b0: be03 693d 0c94 39bd 8b09 b6bd 0696 4ebd
000000c0: c0cd c03b 28da 8dbe 3d29 19bf e354 2cbd
000000d0: b66b a5bd c2ac 7dbd 9e0b 253c 3253 38bf
000000e0: 54db 93be 3aec 27bd 0065 29bc f07f 9abd
000000f0: f08e d4bb b941 a3be 7750 81be d01b 6ebd
00000100: aca9 18bd 565d 45bd b8a2 0abf 8062 75bc
00000110: c29d 7b3d 8887 09bf 0b5b 1f3d 1f55 d7bd
00000120: eae4 cb3c ec13 593d 1a1b fabe 0787 eebd
00000130: 6ef1 0a3c ce88 36bd 9451 673d d6fe 7f3d
00000140: a005 893e 70d0 15bd 94e2 53bd aafc 433d
00000150: 2029 a53b 38b5 6e3d f6c2 073d 20b1 88bf
00000160: aec3 463d 6077 b0bc 8ff2 a9be 0fa3 9abe
00000170: 54e9 043b a7e5 bfbd eea7 83bd a76a 093d
00000180: b17d 77bd a42a acbc 1a9a 1f3d 88d2 b53c
00000190: e89d 1fbd 484c 1dbe a253 3abd 283d 473c
000001a0: c3aa 11bf b035 983b 29eb e1be bbc7 4bbe
000001b0: ee95 79bd b77e 323d d331 6ebc d0a0 04bf
000001c0: ef9b bcbc 2c4a 66bd f8fd 30bd 0078 ef3a
000001d0: 8df7 1f3e 1446 ddbc ef9b 71be da76 bdbb
000001e0: d66a ad3a 17ed 993d f94f c1be a43d 893d
000001f0: c028 efbc 582d 22bd 6e44 62bd 6705 dfbd
00000200: 2c37 7bbd 6854 073d a439 aa3c 6595 0abe
00000210: 80b3 063a 0893 cdbc fd8a 053e a9d7 d23b
00000220: 22ec 64bc 6d42 043e b29a 28bd 35a6 0dbe
00000230: 1c6e e9be 4cb9 d1be 02f4 66bd 5023 d23c
00000240: 8044 75bd 2abe 8ebe 5fe2 c53c 7624 353d
00000250: 8834 60be 377d 8abf 4969 17bf 2c12 45bd
00000260: d37f 11bf c350 9bbf 00e5 59ba c4a9 29bd
00000270: d25a 38bd 08cb 24bf c880 6fbd 043e f83c
00000280: 39ac 3b3d 0136 20bd cd6d acbd 71d2 32bf
00000290: 6e11 1cbf d4c2 993c 44f3 663d e8d8 0a3d
000002a0: 9e3b 7b3d 5884 82bc 77d4 19bd 452c 12bf
000002b0: 17a1 1f3e 9634 1bbf 0090 b8b7 5830 013c
000002c0: ca4f 543d 4b02 02bd dfd0 bbbc d0a4 383d
000002d0: b008 b3bb c885 d1bc 8503 c0be c65f 5c3d
000002e0: 4c8c 9d3c ecf8 44bd ea93 223d 44b8 1bbd
000002f0: bff8 bdbf f8de c3be 8958 c03e 4742 5f3d
00000300: 0252 993d e761 07bc 48bf 4abd a0fb 09bb
00000310: 301a d8bb f0c6 a6bd 4df2 b03c 98f0 a2bc
00000320: c5e0 adbf 2cf7 f7bc b28d 5c3d 91ad 0abd
00000330: f85a f3bd b6f9 9bbe 0149 bdbd 2ec3 4a3d
00000340: a396 14be 7860 fbbc 70eb 53be 3c74 29bd
00000350: 3a59 203d dc9c c7bc f0e1 adbc de09 22bd
00000360: 7a49 5ebd a6d0 6ebd 293e 40bd 9c05 06bd
00000370: 28e2 4cbd 904e 0d3c 6b0e b0bd 34ba c9bf
00000380: c4e0 b73c c04a 0abd 1421 5dbd c627 3b3d
00000390: 604c e03c 574a 4fbe 5dbf 95bd af92 b43c
000003a0: 69c6 efbc cc42 ccbe da03 f63c 84cb 263d
000003b0: b1a6 63bc 7ae2 20bd 67b9 af3d 4478 16bd
000003c0: 7281 a1bd 80b2 ce3c 8fb4 2fbf 00ec 743b
000003d0: 732c 03be d7ea a7be bdd9 fabd 306c 00bd
000003e0: 9b92 05be 5e79 4fbd 5f9c eebd 7007 973c
000003f0: 508a fc3c 68d4 dfbc 408b 723b a989 97ba
0.020126581 0.006357394 0.064782396 -0.030800804 0.0337054 -0.01689849 -0.004306597 -0.033937745
-0.00045580516 -0.3317918 -0.06903257 0.007841835 0.021639809 0.056539237 -1.0371505 -1.5908177
-0.008736983 0.0939104 0.050867826 -0.05278095 0.050188128 -0.046185385 -0.045173824 -0.012407295
0.0111617595 0.02808855 -1.8483024 -0.108492024 -0.47052217 -0.080266096 0.048194095 -0.025967678
0.013960414 0.060847417 -0.03284956 -0.008098654 -0.13815172 0.056717232 0.022080056 0.006051168
0.020296298 -0.10953748 0.016788661 -0.004513318 0.056888334 -0.045307204 -0.08888539 -0.050436042
0.0058839023 -0.27705503 -0.5982855 -0.04207314 -0.08077185 -0.061932333 0.010073571 -0.72001946
-0.28878272 -0.040996768 -0.010339022 -0.075439334 -0.006486766 -0.3188608 -0.25256702 -0.058131993
-0.037271187 -0.048184715 -0.5415454 -0.0149770975 0.061429746 -0.5372243 0.038905185 -0.105142824
0.024889428 0.052997515 -0.48848802 -0.11646848 0.008480413 -0.04456406 0.056474283 0.06249889
0.26762104 -0.036575735 -0.051729754 0.04784838 0.005040303 0.058278292 0.033144914 -1.0679054
0.04852646 -0.021541297 -0.3319287 -0.3020253 0.0020280676 -0.093699746 -0.064285144 0.033548977
-0.060422603 -0.021016426 0.038965322 0.022195116 -0.03896895 -0.1536113 -0.045489915 0.012160577
-0.56901187 0.004645072 -0.44124725 -0.1990041 -0.060934 0.043577876 -0.014538246 -0.5180788
-0.023023574 -0.05622308 -0.043210953 0.0018270016 0.15621777 -0.027010955 -0.2359464 -0.0057819905
0.0013230692 0.075159244 -0.37756327 0.0670121 -0.029194236 -0.039594024 -0.05524104 -0.10889702
-0.061331913 0.03303948 0.020779438 -0.13533552 0.0005138442 -0.025094524 0.13041301 0.0064344
-0.013972314 0.12915964 -0.041163154 -0.13832934 -0.4559182 -0.40961683 -0.056385048 0.025651604
-0.05987978 -0.2787946 0.024155794 0.044224225 -0.21895039 -1.0819463 -0.5914503 -0.048113033
-0.5683567 -1.2134022 -0.0008312017 -0.041421667 -0.045008488 -0.643723 -0.058472425 0.030303009
0.04581854 -0.039114002 -0.0841938 -0.6985236 -0.60964096 0.01876966 0.05638434 0.033898264
0.061336152 -0.015932247 -0.037556138 -0.570988 0.15588795 -0.60627115 -2.2001565e-05 0.007885061
0.051833905 -0.031740468 -0.022926746 0.045079052 -0.005463682 -0.025576487 -0.37502685 0.053802274
0.019231938 -0.048088953 0.039691843 -0.038017526 -1.4841536 -0.3825605 0.37567547 0.054506566
0.07486345 -0.008263088 -0.049498826 -0.0021054521 -0.0065949187 -0.08143413 0.021599913 -0.019890115
-1.3584219 -0.030269228 0.05384607 -0.033856932 -0.11882585 -0.30463952 -0.0924244 0.049502544
-0.14510588 -0.030685648 -0.20695281 -0.041370615 0.039147593 -0.024366789 -0.0212259 -0.03956019
-0.05426929 -0.05830445 -0.04693428 -0.032720193 -0.050020367 0.008624688 -0.085965 -1.575995
0.022446044 -0.033762693 -0.053986624 0.045692228 0.027380168 -0.20243202 -0.0731189 0.0220426
-0.029269414 -0.39894712 0.030031133 0.04072143 -0.013894723 -0.039278485 0.085802846 -0.036735788
-0.07886018 0.0252316 -0.68634886 0.0037372112 -0.12809925 -0.32796356 -0.122485615 -0.031353176
-0.13044207 -0.050652854 -0.11650919 0.018436164 0.030827671 -0.027322963 0.003700927 -0.0011561412

network.3.bias f4 [256]
00000000: 6ad7 9d3d f444 2d3e e7f8 2f3e 695d 363e
00000010: 338d 71bd a767 5ebd 44e6 5fbd 7096 323e
00000020: 819d 393e 7824 103e 528e 213e bae4 16bc
00000030: 22f3 273e aed8 c7bc e989 2a3e 7844 043e
00000040: 1b7a ec3d cef8 2c3e 163c 593e c5bf 223e
00000050: 38ff 1b3e 8731 533e 98c8 5f3d a2f7 263e
00000060: d390 4b3e 6b9e 093e f961 3ebe c6c2 35bc
00000070: 56ca a13d d9b2 b4bc 27fb 0cbd 4fdf 2c3e
00000080: 8846 113e c386 b4bd 6e47 d23d ecc0 2c3e
00000090: e906 443e 10f2 77bd 296e 0e3e 33a8 20bd
000000a0: f3b7 8abd 714a 193e 5029 183e 67d8 183e
000000b0: 58c5 0c3e 2e9f 403e 4e4a 56bd 0393 063e
000000c0: 115d 9bbd 468a 0d3e f8a9 f73d 6eb8 7ebd
000000d0: b3e9 1abd 1dcb 3d3e 459f 243e 0e46 213e
000000e0: 2d0c 3ebd ec02 3fbd 5aca 58bc a855 4e3e
000000f0: 5d4d 183e 0f1e 43bd 2412 023e 962b 093e
00000100: aba3 213e 4f31 52bd 721b 3d3e eb6a 5cbc
00000110: 6f9b 0a3e 2239 c6bc 03c7 f33d bc10 843d
00000120: 25db 483e 5aaf 393e beff 193e d8a9 ae3d
00000130: 8bf8 373e afe5 30bd fe93 5bbd 6879 223e
00000140: d4bc 143e fdfb 98bd c6d3 20bc 6375 443e
00000150: 3788 403e a626 223e 7f5c 183e c23f 2a3e
00000160: 9b33 f73d 952b f4ba d51a 61bd 8c7a 173e
00000170: ca3e 153e 17c3 9abc 47e0 3fbd dd38 38bd
00000180: 50ec 523e ca68 323e d277 013e afe4 f03d
00000190: ab12 0fbc 5547 ca3d 61cc 2e3e c6c2 f83d
000001a0: 3700 1d3e 0156 173e 8f68 0abd 32e3 5dbc
000001b0: 44a9 fe3d 6e18 1f3e 16c4 2d3d 5ee2 8bbc
000001c0: b2dc 433e 5e52 073e 7cd8 023e 9f6f 363e
000001d0: 6ada 103e 659c 7cbd cb5e babb f4a7 cf3d
000001e0: 0a7d 513e f49f 2d3e 76d8 0e3e b60c 5cbd
000001f0: 1241 403e 84b5 853d f1ad 433e d45f 273e
00000200: 25c2 463e 4744 91bd 0e37 79bd 3dcb 483e
00000210: 1a12 103e a31f fd3d 9055 11bd 4600 5dbd
00000220: 2c49 443e d1a7 0f3e 5a2a 073e abd6 3b3e
00000230: 287f ccbe 9006 0dbd 8c4f 093e 0cfa 8abc
00000240: a602 283e b74c 123e addc 9fbd 613f 483e
00000250: 77ea 2f3e 50b5 2d3e 10a4 04bd 6139 243e
00000260: ebb2 71bd 20c8 62bd 5c11 03be 662e 3e3d
00000270: c6b4 57bd 7758 9cbc dd24 243e f27c c03d
00000280: 5098 1a3e 8588 92bd 2351 57bc d1fe 293e
00000290: ce4b 0b3e f4f9 103e 5fe7 91bd c17e 183e
000002a0: 6274 e33d 003e e4bc e16e 5bbd d5a3 f03d
000002b0: 6c64 583e 8dff 053e 2e52 383e bd6f 073e
000002c0: e65e 6dbd e762 4c3e af19 033e 248d 013e
000002d0: 57e9 463e 0425 3c3e d0b5 533e 47e3 87bc
000002e0: 66b6 40bd a597 343e 332c 7abc 6b28 1b3e
000002f0: 5870 213e a0a0 abbc 0fed 1e3e 078f 5abc
00000300: fc51 fcbc b382 1fbc acd3 1c3e 7821 aebd
00000310: 0db5 093e 2ac9 46bd 69a5 243e 97e0 58bd
00000320: fcc4 403e 8751 e53a e3ec 64bd 62c6 263e
00000330: 629f 013e 67eb 5b3e 81f0 3a3e acc9 2c3e
00000340: e8df 1b3e e343 0e3e 0e62 203e 7c69 38bd
00000350: 7f3f 0c3e 6cc3 173e 64e0 c33d f66c c0bc
00000360: 742e d0bc 2c28 53bd 44b0 963d b782 44bb
00000370: b49f 203e 15f1 debc c704 163e 7b9c 233e
00000380: af78 1d3e 6ada fdbc 9841 273e a1a9 f5bc
00000390: cfa0 06bc 1c85 3a3e 203f 3c3e 3fd0 2d3e
000003a0: b1d0 423e fb4d 1f3e 55ec 3cbb 4d23 d33d
000003b0: a5ce 2cbd ac46 42bc 996d 2c3e 1199 bb3c
000003c0: 096e d7bc 2be0 043e 4efd e63d 6e07 1b3e
000003d0: 49b7 2e3e 8cd3 20bc a1ee 84bd 008a 353e
000003e0: 2963 7abd 9f35 09bb 802a 363e 03ef 353d
000003f0: a8ef c33d 4ca1 3a3e 1944 9cbd 8bc1 153e
0.077071026 0.16920835 0.17184792 0.1780907 -0.05897255 -0.05429807 -0.054662958 0.174402
0.18126489 0.14076412 0.15776947 -0.009209806 0.16401342 -0.024395313 0.16654171 0.12916744
0.11546727 0.16891786 0.21214327 0.15893467 0.15234077 0.20624362 0.05463466 0.16305402
0.19879465 0.13439338 -0.18592061 -0.011093801 0.07899921 -0.022057937 -0.034419205 0.1688206
0.14187062 -0.08814766 0.102675304 0.16870469 0.19143261 -0.060533583 0.1390921 -0.039222907
-0.06773367 0.14969803 0.1485951 0.14926301 0.13747156 0.18810722 -0.052316956 0.13142018
-0.075861104 0.13822278 0.12092966 -0.062187605 -0.03782053 0.18534513 0.16076382 0.1574938
-0.04639833 -0.046633646 -0.013231838 0.20149863 0.14873262 -0.047636088 0.12702233 0.13395533
0.1578509 -0.051316556 0.18467501 -0.013453226 0.13535856 -0.024197165 0.11903193 0.06448504
0.19614847 0.18133298 0.15038964 0.08528489 0.17965905 -0.043187793 -0.053607933 0.15866625
0.14525157 -0.07469938 -0.009816116 0.19185404 0.18801962 0.15835056 0.14879034 0.16625884
0.1207039 -0.0018628711 -0.05495723 0.14792842 0.14574733 -0.018891854 -0.046844747 -0.044976104
0.20597959 0.17422786 0.12643364 0.11762368 -0.008732478 0.09876887 0.17070152 0.12146525
0.15332113 0.14778902 -0.03379112 -0.013542937 0.124346286 0.15536663 0.04242333 -0.017075714
0.19127157 0.13215014 0.12777895 0.17816018 0.14145818 -0.061672587 -0.0056875697 0.101394564
0.20457855 0.16955549 0.13949761 -0.05372306 0.18774822 0.06528762 0.19109322 0.1634515
0.19409998 -0.07093101 -0.06084352 0.19608779 0.14069405 0.1235955 -0.03548199 -0.05395534
0.19168538 0.1402886 0.1319975 0.18343608 -0.39940763 -0.034430087 0.13409251 -0.016964935
0.1640726 0.14287077 -0.078057624 0.19555427 0.17179285 0.16963696 -0.032383025 0.16037513
-0.05900852 -0.055366635 -0.12799591 0.046430968 -0.052662633 -0.019085152 0.16029687 0.093988314
0.15097165 -0.07154945 -0.013141903 0.16601111 0.13603136 0.1415785 -0.07124209 0.14892103
0.11106183 -0.027861595 -0.05357254 0.117499985 0.21132058 0.13085766 0.18000099 0.13226219
-0.05795183 0.19959603 0.12802766 0.12651497 0.1942495 0.18373495 0.20674825 -0.016587866
-0.04704895 0.17635973 -0.015269327 0.15152137 0.15765512 -0.020950615 0.15520118 -0.013339764
-0.030800812 -0.009735751 0.15315121 -0.085024774 0.13447972 -0.04853169 0.16078724 -0.05294856
0.18825144 0.001749561 -0.055889975 0.16286615 0.12658456 0.21476518 0.18255807 0.16873807
0.15222132 0.13893084 0.15662405 -0.045022473 0.13696097 0.14820641 0.095642835 -0.023489457
-0.025412776 -0.051551983 0.07357839 -0.0029985139 0.15685922 -0.027214566 0.1465026 0.15977661
0.15378068 -0.030987937 0.16333616 -0.029988112 -0.008217051 0.1821484 0.18383455 0.16973971
0.19024922 0.15557091 -0.0028827388 0.103094675 -0.04218926 -0.01185767 0.16838683 0.022900136
-0.026297586 0.12976138 0.11278783 0.15139553 0.17062105 -0.009816062 -0.06490827 0.17728424
-0.061129723 -0.0020936502 0.1778965 0.044417392 0.09567195 0.18225592 -0.07630176 0.14624612

network.6.weight f4 [256, 256]
00000000: 82e0 4b3f fc93 7f3d 2359 31bd 3d76 9c3d
00000010: e221 cd3d 70d5 043e 68a6 e43b 89d5 573d
00000020: b951 a03c b1bf e23d b8ba 35bd 6854 5abd
00000030: 3029 0c3d 883b da3b fe4f cc39 758a 273c
00000040: b647 9339 302f ff3c 6216 3c3d eec0 8c3d
00000050: 643d fc3a 5f18 003d bb04 19be e12e b3bb
00000060: 4489 053d 272f 8cbc e2d4 1c3e f33b 4a3d
00000070: 17b4 363d deb4 7c3d a17f 243d aa0a 8d3d
00000080: 77f5 fcbc 09ca db3c be34 b2be 3719 313c
00000090: 736c 163d 6832 7fbc 119e d53c 80bd e53b
000000a0: 6386 383d a78b e1bb 3140 ac3d 736a 973d
000000b0: f95d 5b3d f658 033d c091 e3ba bc68 033d
000000c0: edf6 1d3d 7307 b53c 20b4 a5be 4ffb c0bc
000000d0: a245 053d 93dc 0e3d e4fb 363d 81a3 8b3d
000000e0: 1c70 493e 4abe 913c a0e6 723d 0285 443d
000000f0: f659 153d 6ccf ca3c 5d0b 573d 2339 f739
00000100: 02b5 e13c 0665 80bd 9ddc cb3c 83be eb3c
00000110: 1dd0 a93d 0bcd 4f3c 657c 0c3f f1b4 233d
00000120: 3b83 a53d 667a 1f3d 56d5 a33d 6daf 813d
00000130: a1d3 013d 0a61 1a3d 082d b5bb 8b84 9d3b
00000140: 4b5d dabc 1ab5 213d 72a1 1dbc e6f4 7e3d
00000150: bef7 1b3d 3a0e 1b3e 308f 4c3d 779f 5dbd
00000160: 2a2a 9e3d fce1 1f3c 2884 00bd f450 60be
00000170: 582b 66be 975c 81bc aa8e 063e f459 553b
00000180: 9b3c 163d 8305 1ebc 14b0 043d a01a dcbc
00000190: bf7d 513c 03a3 b83d 39c0 73bc 3d83 743e
000001a0: 8c48 343c 68d7 f33b 2191 733d c4ad b0bc
000001b0: 3252 383c ae32 103d a54b cbbc 61b1 0c3d
000001c0: 15ce e1bc 5317 1dbd 8c69 db3c 542b 643c
000001d0: 0fe0 8a3d ef14 7b3c 92aa 9c3d 7e69 143c
000001e0: aefa 563c 4e04 4bbc d85e b83c 26cf 923d
000001f0: d21b 1b3d 2479 b53d 6183 6c3d 131a 093e
00000200: fe2e 2e3c 8ede b9bc 2302 06bc 67b1 393d
00000210: 5929 85be fb8e e1be 9de1 9ebc 1022 433d
00000220: 4f46 f83d 56e7 02bd 6852 98bc 9432 1d3e
00000230: 5068 503e 4827 82bc 9f3b 623d a6b5 7bbd
00000240: f3e2 0f3d b060 423d c968 4b3d 3158 553d
00000250: 1c64 8b3d 0580 373d 4ed5 13bd 5ac8 f53a
00000260: 6c4a cabc 6cad 52bd 61dd 5b3e 1a87 babc
00000270: ae98 033e 6772 41bd 5f1d 4bbd c1f6 8f3d
00000280: ebf0 d43b 31d2 16bb fe1b 7c3c b9b3 43bd
00000290: be94 31bc e555 95bc df1a 373d 4c4e a73d
000002a0: 8f2a 2e3b 572a 5cbc 5e9d 3bbd 4bd4 7abc
000002b0: a95d fbbc 947d 96be b2c4 473d e8df b33d
000002c0: ea90 9fbb e3a9 153d 077b b93c 1450 4c3d
000002d0: afd2 953d f44f 4f3d becd 913c 5ba5 6c3c
000002e0: c418 bf3b 13fa 0f3e 78f0 bdbc 5ea1 9b3d
000002f0: 1e4c 803d e425 49bd e010 153e fde3 c3bc
00000300: d356 133d 14c2 333d d7fc 1d3d 72bf 2a3d
00000310: 4494 02bc 2a1a 143e ff87 c63d 36e0 543d
00000320: 5c25 2c3d 8317 96bd 4ea8 03bd 649e 333d
00000330: 1c20 c4bd ea91 bc3d 9133 64bc 97a4 92bc
00000340: c715 a93c 10e1 d6bc 7eef 3e3d 1463 f4bc
00000350: 661c 603c c8b0 903c a4af f73b 40ce bebc
00000360: db40 e13c 8d95 b5bb 6974 81bd 6b3b 423d
00000370: c90c 743d 5d86 9abc 7e93 0b3d 708d 0f3d
00000380: e20b ae3c c150 513d 55d7 663d fa14 46bc
00000390: dd1c 6b3b ee19 70bc 9a72 88bb 9edf a13d
000003a0: 7d2b 7c3d 50d0 95bc 9c10 de3b 4a13 ba3c
000003b0: dde8 743d fa5b 1abc d206 443d 2ae0 473d
000003c0: 64b7 513d f024 303c 77e9 2c3c ff97 693d
000003d0: 851a 6f3d ffdf 96bc d998 92bc bb4b 8f3d
000003e0: a393 01bc 7f54 093d b630 143d e779 26b8
000003f0: 4bee c6bb f571 0fbc 9a03 ddbb 80ee 453a
0.79639447 0.06239699 -0.043297898 0.0763974 0.10016228 0.12972045 0.006977845 0.052693877
0.019570218 0.110717185 -0.044367522 -0.053303152 0.034218967 0.0066599287 0.0003896951 0.010225882
0.00028091454 0.03115043 0.045919783 0.06872736 0.001924437 0.031273242 -0.14943211 -0.005468235
0.03260161 -0.017112328 0.15315583 0.04937358 0.04460534 0.061695926 0.04016078 0.068868
-0.030878766 0.026829736 -0.34805864 0.010809234 0.03672452 -0.015575983 0.026076348 0.0070111156
0.045050036 -0.006883103 0.08410681 0.073933505 0.053556416 0.03206726 -0.0017362162 0.032082304
0.038565565 0.022098279 -0.32363987 -0.023557333 0.03253711 0.034878325 0.044673815 0.06818295
0.19671673 0.017790932 0.059301972 0.04797841 0.036462747 0.02475711 0.05250107 0.0004715408
0.027552132 -0.06269269 0.02488547 0.028777367 0.082916476 0.012683163 0.5487731 0.03996748
0.08081671 0.038935088 0.07999675 0.06332288 0.031695966 0.0376902 -0.00552905 0.00480706
-0.026655814 0.039479353 -0.009621011 0.062245272 0.038078062 0.15142146 0.04994124 -0.054107156
0.07722886 0.009758469 -0.031376034 -0.21905881 -0.22477472 -0.01579122 0.1314036 0.0032554837
0.03667889 -0.009644869 0.032394484 -0.026868165 0.012786328 0.09015467 -0.014877372 0.23878188
0.011003625 0.00744145 0.059464578 -0.021567233 0.011250066 0.035204582 -0.024816344 0.03434885
-0.027564088 -0.03835232 0.026783727 0.013926346 0.06781017 0.015324815 0.07649721 0.009058354
0.01312129 -0.012391163 0.022506163 0.07168417 0.03786833 0.08860996 0.05774248 0.13388853
0.010631321 -0.02268913 -0.00817922 0.0453352 -0.26008108 -0.44054398 -0.01939469 0.047639906
0.12122785 -0.0319589 -0.018593982 0.15351325 0.20352292 -0.015887871 0.05523264 -0.06145253
0.035128545 0.04745549 0.049660478 0.05208606 0.06806204 0.044799823 -0.036092095 0.0018751726
-0.02469369 -0.05143492 0.21471168 -0.0227695 0.12851211 -0.047228243 -0.049588557 0.070294864
0.006498446 -0.0023013467 0.015387533 -0.04777882 -0.010838686 -0.018229434 0.04470336 0.08169231
0.002657566 -0.013437829 -0.045804374 -0.015309404 -0.03068431 -0.29392684 0.048771568 0.08782941
-0.00486957 0.03653897 0.022641672 0.049881056 0.07315575 0.05061336 0.0177983 0.014443721
0.0058318097 0.1406024 -0.023185953 0.07599138 0.06264518 -0.0491084 0.14557219 -0.023912424
0.035971474 0.04388626 0.038571205 0.041686483 -0.00796992 0.14463106 0.09693908 0.051971637
0.042027816 -0.07328703 -0.03214293 0.043852225 -0.09576437 0.092075184 -0.01392831 -0.017900748
0.020640267 -0.026230365 0.046615116 -0.0298324 0.013678646 0.01766242 0.00755878 -0.023291707
0.027496746 -0.0055415095 -0.063210316 0.047419947 0.059582505 -0.018862898 0.034076206 0.035046995
0.0212459 0.051102404 0.0563577 -0.012089962 0.0035875358 -0.01465462 -0.004164052 0.0790398
0.06156491 -0.018287808 0.0067768823 0.022714276 0.05979239 -0.009421343 0.047858067 0.048797764
0.051200286 0.010750994 0.010553709 0.05702972 0.0583749 -0.018417357 -0.017895149 0.06996866
-0.0079087345 0.033527847 0.036179267 -3.9691015e-05 -0.006070887 -0.008755197 -0.006744814 0.0007550493

network.6.bias f4 [256]
00000000: 19aa 0640 d2a8 0640 e08d 52bd ec88 0b40
00000010: 5f8f 5cbc 191f e03c 0c4c 26bd a1fb 0440
00000020: 69b3 0a3e e52c 0440 4c45 0940 09e2 0840
00000030: 1c6c 0640 071a a7bc d160 0740 9448 c93d
00000040: e6c1 e33f 40ec f8bc 9d8a 50bd f335 0840
00000050: 7cb2 0740 99ac 883d b848 f6bc 7d8c 3fbd
00000060: 8f03 b3bc 6f65 293e be81 0640 5ef4 0840
00000070: ee0d 0340 ca60 80bd f9f8 933e 1b40 88bd
00000080: b0f2 563d 98af 5b3d 6704 0540 89be 0840
00000090: 6f65 d9bc 9519 95bd 3717 823b c3d8 77bd
000000a0: de1c 1ebd 1d57 0540 14da 0440 ae48 ab3d
000000b0: 9ccc 88bd 0ebf 0b40 1806 0b40 5861 0b40
000000c0: e322 0840 5ee5 a9bd 60b5 0b40 a126 12bd
000000d0: 8adf 133d f4bd 0840 43fb 6abd 9fac 0340
000000e0: 9c59 12bc 20c8 203e 17dc 0440 2d09 e63d
000000f0: 3295 0840 8b8d 073e a9e1 e53d bf75 0740
00000100: 4a86 0840 1547 273d 7d56 a0bd 6d08 0640
00000110: 3cd3 0940 3118 0a40 66d7 92bd 2a84 0840
00000120: 55ee 0640 8b30 0b40 d04b 6dbd 9e7c 0abd
00000130: 5918 0a40 2a65 5ebd f8f1 91bd 2596 81bd
00000140: aada 7abd 11cf 553e dd0a 0840 72fe 59bd
00000150: b3cb 0b40 74e2 3dbd dc21 8ebd f7fd 0340
00000160: ca9c 97bd 9a38 0b40 94a0 0c40 5a2d 953d
00000170: 464a 24bd 3842 963d 16e1 96bc ec26 a6bc
00000180: 635b 0540 59f6 91bc 02d6 7e3d d06e 0b40
00000190: 919a 0740 f887 5cbd 978b 0540 0636 0d40
000001a0: 3aec fd3d cb2c 04bd 294b 0740 7774 0b40
000001b0: a997 74bd 797e 8ebd 031d 0b40 babe 0340
000001c0: 762d 0a40 5cb1 2d3e 65b7 b0bd 91ad 0740
000001d0: 025b 0640 7454 0a40 7c63 35bd 2f5b 2bbd
000001e0: 50a7 23bd b364 0b40 bc7b 3abd d540 0a40
000001f0: 79fc 0640 3e3a 0240 5614 a3bd 6754 0240
00000200: b923 233e 3bbe 0640 3f1a 0640 a013 25bd
00000210: 75da b53d f609 853e e50c 053d 3ee1 2c3d
00000220: 99d2 743d 3e01 e2bb f89b 5abd 2edf 2dbc
00000230: 49b9 2bbc 83fe c53d 9943 0940 a472 0740
00000240: 2384 79bd b3b8 0640 2be5 333d c6b8 683e
00000250: 64ed 0b40 4c2e 0940 f9d8 0940 2ed7 0340
00000260: 0e25 4abd 580d 2abd 086a 0440 21dd 333e
00000270: 07de 92bd 20dd 0940 b55c 0b40 783b 8cbd
00000280: 328a 0040 ceaa 0740 bbf5 71bd abc9 0840
00000290: b04b 0740 407e 0740 7b38 0640 69f2 0540
000002a0: fca1 9bbd 6136 0abd 2a32 ae3d 9eec 2e3e
000002b0: 5d8a 0540 950f 0740 9ad6 0540 e593 02bc
000002c0: dfd8 0440 9f57 0640 fe38 8abc 8c2e 43bd
000002d0: e660 0ebd d01e 7dbd 1d83 0440 7c06 6e3e
000002e0: d9b5 0740 f863 9e3d 744a bc3c 0caf 0740
000002f0: 6f4f 0340 4f90 27bd be2f c33d 77cf 0440
00000300: e59a e53d 16e4 f83c d442 1e3d 70fc 76bd
00000310: 2423 563e 6890 0840 9a37 d5bc d2d9 8abd
00000320: 0557 97bd f82f 4bbd 6c51 293e 8676 273e
00000330: 6d55 af3d 8939 213e b2af e5bc 293a 123f
00000340: 5e19 b2bc 08ef 0840 0a18 0740 9e9e 0b40
00000350: 6b2f afbd 1cef 0540 0116 2dbc e6a8 0940
00000360: 9ccb 5fbd 205d 0840 5acd 0c40 7958 96bc
00000370: 4f98 a1bd 3905 1d3e 3e4a 103f ada6 8d3d
00000380: 7ce6 0940 a8a9 0740 b452 5cbd 3449 0c40
00000390: 19f4 65bd d671 af3d eb19 1a3e ff85 7ebd
000003a0: dec3 0640 71d6 0240 54fd 4dbd 5441 b3bd
000003b0: 1760 0640 2e62 0c40 22d0 0740 2830 543d
000003c0: 9f09 2a3e 22cc 0840 732c 0740 b62f 2d3e
000003d0: fac1 a03f cfe4 983d 837b 0940 fa77 27bd
000003e0: fdc8 d03d c735 45bd af32 91bc 34d7 133e
000003f0: c087 1fbd 1608 51bd c5fd 0c40 1971 9cbc
2.104132 2.104054 -0.051404834 2.180232 -0.013461917 0.027358579 -0.040599868 2.0778582
0.13545002 2.0652401 2.1448545 2.138796 2.1003485 -0.020398153 2.1152842 0.09828296
1.7793548 -0.03038609 -0.050913442 2.1282928 2.1202688 0.066735454 -0.030063972 -0.04676484
-0.021852283 0.165426 2.1016688 2.139915 2.0477252 -0.06268461 0.2890089 -0.06652852
0.05247754 0.053634256 2.0783937 2.1366293 -0.026537625 -0.0728027 0.0039700526 -0.060509454
-0.03860175 2.083442 2.0758104 0.08363472 -0.06679651 2.183536 2.172247 2.1778164
2.1271293 -0.082957014 2.1829453 -0.03568137 0.036101855 2.1365938 -0.057368528 2.057411
-0.008932497 0.15701342 2.0759332 0.11232219 2.1341062 0.13237588 0.11224682 2.1165617
2.1331964 0.040839273 -0.07828996 2.0942643 2.1535177 2.1577265 -0.0716999 2.1330667
2.1082966 2.1748378 -0.05793363 -0.03381025 2.157736 -0.054295696 -0.0712623 -0.06327466
-0.06124369 0.20879771 2.125663 -0.053221174 2.1843078 -0.04635854 -0.06940052 2.0623758
-0.07402952 2.1753297 2.197301 0.07284041 -0.040109895 0.07336849 -0.018417876 -0.020282231
2.0837028 -0.017817663 0.062215813 2.1786385 2.118809 -0.053840607 2.086645 2.2064223
0.12398572 -0.03226928 2.1139624 2.1789834 -0.059714947 -0.069577165 2.1736457 2.058516
2.1590247 0.16962188 -0.0862873 2.1199687 2.0993047 2.1614046 -0.04428433 -0.041835006
-0.039954484 2.1780212 -0.04552816 2.160207 2.1091597 2.0348048 -0.07962863 2.0364015
0.15931596 2.1053607 2.095352 -0.04030192 0.08879558 0.25984162 0.032483 0.042206995
0.059771154 -0.0068971207 -0.0533714 -0.010612292 -0.010481187 0.09667685 2.1447508 2.116372
-0.06091703 2.1050231 0.043919723 0.22726735 2.1863642 2.1434507 2.153868 2.0600085
-0.049351744 -0.04151663 2.0689716 0.17564823 -0.071712546 2.1541214 2.1775334 -0.0684728
2.0084348 2.1198 -0.059072237 2.1373088 2.1139946 2.1170807 2.0971973 2.0929205
-0.075992554 -0.033743266 0.08505662 0.1708245 2.08657 2.110326 2.0912232 -0.007969831
2.0757368 2.099098 -0.01687288 -0.047651812 -0.03476038 -0.061796963 2.0705025 0.23244661
2.120474 0.07733911 0.02298472 2.120059 2.0517232 -0.040909108 0.095305905 2.0751626
0.112111844 0.030382197 0.03863795 -0.060299337 0.20911843 2.1338139 -0.02602749 -0.06779827
-0.073896445 -0.049606293 0.16534966 0.16353807 0.085612155 0.15744604 -0.02803788 0.57119995
-0.021740612 2.1395893 2.1108422 2.1815562 -0.08553966 2.092719 -0.010564328 2.1509337
-0.054637536 2.130684 2.2000337 -0.018352734 -0.07890379 0.15334024 0.56363285 0.069165565
2.1546926 2.11973 -0.05378981 2.191968 -0.056140993 0.08566634 0.1504895 -0.062139507
2.1057048 2.0443385 -0.05029042 -0.08752695 2.0996149 2.1934924 2.1220784 0.051803738
0.16605233 2.1374593 2.112088 0.16912732 1.2559197 0.07465517 2.1481636 -0.040885903
0.101945855 -0.04814699 -0.017724363 0.14437562 -0.03894782 -0.051033102 2.2029889 -0.019096898

network.8.weight f4 [3, 256]
00000000: 7be8 dc3e 6493 a33e 99bb c33d 7fb2 c13e
00000010: 0c08 8bbc b3df a8be bef8 693b b15f e13e
00000020: 2fa9 99be 6262 dd3e cfef a63e 6cd5 d93e
00000030: 081a b73e 274f 1ebd cb6d 083f 242d 383e
00000040: df3b ed3f 379f 68ba daff 4ebb 9f2c e73e
00000050: ee3f d93e b335 8ebd 585b 20bc 1e55 56bd
00000060: 2795 8e3d 1c41 f63d 06e7 b43e 02ac d23e
00000070: b163 bd3e a9cc 783c b3ec 513c 047d 3abd
00000080: 3784 c13c 116b 39be d6ad dc3e b221 a63e
00000090: ec47 9a3d 36eb c9bc 2bdc b53d 2530 d6bc
000000a0: 53f1 16bd a885 cd3e d6a4 103f 743e 0c3e
000000b0: 5e49 9fbc 2c44 dd3e bcd3 b23e 8ad7 c33e
000000c0: 8c44 e83e aada 1a3d 0e67 d93e e81e f83a
000000d0: 6433 c3bc 5f0e e13e 75f6 e3bb 8464 a33e
000000e0: bd38 09bd 0cc1 853e 2633 b33e 9943 cd3e
000000f0: 0f9e e53e 0921 053e e165 693e 63a0 d43e
00000100: 7fc4 da3e 704c 89be a455 22bb e006 b03e
00000110: 9c86 be3e b76b f23e ba58 8bbc e03f c43e
00000120: c46c db3e 0079 e73e 189d 023d 30ce 7a3c
00000130: 9bd0 cf3e 7de0 923b edce c93c b56f c83c
00000140: 5b57 ba3c 8572 403e a961 f43e 7151 ce3c
00000150: 2ebc d63e 4782 01bd bc3e b5bb 396b cf3e
00000160: 7c31 75bd 0ed5 d33e 6a2c c03e 2582 b53d
00000170: 3935 a7bb a51f 183e ba02 a3bb 7fa2 133c
00000180: 7ece ad3e 4b81 07bd e591 cb3d b8fb d63e
00000190: 1dc3 d23e c69b 283b 44b3 de3e b476 dd3e
000001a0: fb01 8abe 91a1 253c 4061 e03e d1e1 bd3e
000001b0: 0f3f 55bc 2b9a f63c 800a d33e 946f e83e
000001c0: f543 0c3f a4d8 cf3e ea84 f4bb 9aca f33e
000001d0: c2f1 ca3e 6f1d b93e ab78 8dbb e630 523c
000001e0: c717 e9bc 55ba e13e 934f 3fbd fb7a cf3e
000001f0: 705c b33e 8d3f aa3e b8ea 5ebe a5ae 0e3f
00000200: f90e 6e3e 8cfe d33e 8a9e f83e 3184 5d3d
00000210: 61ea 403e 1c1b a93f 22d7 033e bacd 423e
00000220: 032f aebe 4ff0 f6ba a954 1abd f521 713b
00000230: 067f dcbc e0be ab3e 6c52 e23e ab55 cd3e
00000240: 6064 0bbd a1da da3e f2da 8d3d c195 743e
00000250: 6eab c53e b9ce ae3e a850 013f 3679 d43e
00000260: 74f4 a4bc c859 50bc d0ad b83e d4e0 323e
00000270: e017 173d 86c1 ec3e 8381 d63e c718 fa3c
00000280: 4571 bd3e be4c e83e ae39 1fbd 41f0 4b3f
00000290: 2eec b63e 8187 ea3e 7e62 c33e aff2 c33e
000002a0: f2b6 a1ba efcb c8bc 17f3 373e 450f 503e
000002b0: 3919 d63e 2359 c33e c824 dc3e a6db 4c3c
000002c0: 1882 f23e a7c4 f33e 693c 64bc 3851 2bbc
000002d0: a8ff 53bc 8ed1 563d 9941 bd3e f894 f63e
000002e0: 4fd4 033f 101e 93be 9e29 8bbe 84ca b03f
000002f0: 92f4 203f 306a 6bba b188 65be fae5 ac3e
00000300: e237 6c3e 1dec b33d 5faf f13d b906 45bb
00000310: c786 793e 5671 c93e 3b9d 41bb 5bf2 e7bb
00000320: 9923 b13b d580 27bd 7d7c 5c3e 003a acbe
00000330: 7850 71be 5a98 513e 4581 1a3c cc62 a23d
00000340: 200d 0e3c 9b1b b43f 0500 e93e 22d3 ef3e
00000350: ebee 97bc f0ed b73e 8b67 573c 2500 e83e
00000360: 6587 0c3d 0302 c43e 86d2 d93e 8f50 c1bb
00000370: b48b d33c 3aef 183e ef05 a63f ab01 7bbe
00000380: 3270 c63e 4e4e c73e f5e1 0cbd 2536 b23e
00000390: 34ae eabc 6ea3 5f3e c78e 843e e58b b43b
000003a0: 8031 ce3e 7d8f f03e 811a bfbc d3f5 49bc
000003b0: daca e23e 6cb7 f03e 1841 c93e 67ae 5dbd
000003c0: 160b 813d 654f c83e 378f cb3e 5abd 1c3e
000003d0: 2d03 be3f 0b07 923e ce01 c43e 0d7c 8ebc
000003e0: be59 3c3e 2b9f 7d3d aa0c 39bc b19b 503e
000003f0: 5774 683d 0193 623d 1e38 d53e 48bf 95bc
0.4314612 0.31948388 0.09557266 0.37831494 -0.01697161 -0.3298317 0.003570124 0.4401832
-0.3001189 0.43239123 0.32604834 0.4254564 0.35762048 -0.038649704 0.5329253 0.1798597
1.8533896 -0.00088738225 -0.0031585605 0.4515123 0.42431587 -0.06943836 -0.009787403 -0.052327268
0.06962042 0.120241374 0.35332507 0.41146857 0.3699012 0.0151855135 0.012812781 -0.04552938
0.023622615 -0.18107249 0.43101376 0.32447582 0.07533249 -0.02464829 0.08879884 -0.026146004
-0.03685124 0.40141034 0.5650152 0.13695699 -0.019444164 0.43216074 0.34927166 0.3825038
0.45364797 0.03780619 0.42461437 0.0018930109 -0.023828216 0.43956277 -0.00695687 0.31912625
-0.033501375 0.26123846 0.3499996 0.40090635 0.44847152 0.13000883 0.2279277 0.41528615
0.4272804 -0.2681613 -0.0024770284 0.34380245 0.37212074 0.47347805 -0.017010082 0.38329983
0.4285642 0.45209503 0.031888098 0.015307948 0.4058884 0.0044823275 0.024634803 0.024467329
0.022746732 0.18793686 0.4773076 0.025185319 0.41940445 -0.031618383 -0.00553116 0.40511492
-0.059861645 0.41373485 0.37533885 0.08862714 -0.00510278 0.14855821 -0.0049746903 0.00901091
0.33946604 -0.033082288 0.099399365 0.4198892 0.41164485 0.0025727614 0.43496144 0.43254626
-0.26954636 0.010109321 0.43824196 0.37086347 -0.013015523 0.03010281 0.41218948 0.45397627
0.54791194 0.4059497 -0.0074621337 0.4761551 0.39637572 0.3615527 -0.0043173633 0.012829041
-0.02845372 0.44087473 -0.046706747 0.40523514 0.35031462 0.3325161 -0.21769226 0.55735236
0.23247899 0.4140514 0.48558456 0.054081146 0.18839408 1.3211398 0.12875035 0.19023791
-0.34020242 -0.0018839928 -0.037678394 0.0036793922 -0.026916038 0.33544064 0.44203508 0.40104422
-0.034031272 0.42744926 0.06926526 0.23885252 0.38607353 0.34142092 0.50513697 0.41498727
-0.020136096 -0.012716718 0.36070108 0.17468578 0.036888003 0.46241397 0.41895685 0.030529393
0.3700048 0.4537105 -0.038873367 0.79663473 0.35727066 0.45806506 0.3816108 0.3827109
-0.0012337847 -0.024511306 0.17963825 0.20318325 0.41816118 0.38153943 0.42996812 0.01250354
0.4736488 0.4761097 -0.0139304185 -0.010456376 -0.012939371 0.05244594 0.3696411 0.4816053
0.5149583 -0.28733873 -0.2718019 1.3811803 0.62873185 -0.0008980362 -0.22415425 0.33769208
0.23068193 0.087852694 0.118010275 -0.0030063821 0.2436782 0.3934428 -0.002954318 -0.0070784516
0.005405855 -0.04089435 0.21531864 -0.33638 -0.23565853 0.20468274 0.009430234 0.07929
0.008670121 1.4070925 0.45507827 0.4684077 -0.018546542 0.3592372 0.013147245 0.4531261
0.03430881 0.38282785 0.4254343 -0.005899496 0.025823452 0.14935008 1.2970561 -0.24512355
0.38757473 0.3892693 -0.034395177 0.34806934 -0.02864752 0.21839687 0.2589018 0.005509841
0.4027214 0.46984473 -0.023328068 -0.0123266755 0.44295388 0.4701494 0.39307475 -0.0541214
0.063009426 0.39123073 0.39757702 0.15306607 1.4844719 0.28520998 0.38282627 -0.017393136
0.18393609 0.061919373 -0.011294523 0.20371892 0.056751575 0.055315975 0.41644377 -0.018279687

network.8.bias f4 [3]
00000000: 9c5f ad3f bea9 b33f 2b3c dc3f
1.3544803 1.4036176 1.7205862
