mountaincar_cl_project/runs/abrupt/none/seed_1/online_stream_model.pth (torch, 536437 bytes, 8 tensors)

network.0.weight f4 [256, 2]
0	0xbe7f6920	-0.24942446
1	0xbe482704	-0.19546133
2	0x3c39ac2a	0.011332551
3	0xbfcef965	-1.6169859
4	0xbecfdc6c	-0.40597856
5	0xbfe5e4be	-1.7960432
6	0xbec64f5e	-0.38732427
7	0xc0312e81	-2.7684634
8	0x3e8d1826	0.27557486
9	0x3ec63466	0.38711852
10	0x3ece79b1	0.40327218
11	0xbf90f22b	-1.1323904
12	0xbdf69341	-0.12039805
13	0x3fac5ea3	1.3466381
14	0xbd945cbe	-0.07244252
15	0x3e4c78ef	0.19968008
16	0xbe1ee478	-0.15516841
17	0xbed07dd0	-0.40720987
18	0x3e0c5650	0.137048
19	0x403d6207	2.959108
20	0x3d9caeb8	0.076505125
21	0x402dc9f6	2.7154517
22	0x3dc6c7b8	0.09706062
23	0xbddf0118	-0.108888805
24	0x3d0ad85c	0.033897743
25	0x3fc738ff	1.5564269
26	0x3efb871e	0.49126524
27	0xbc6c27c0	-0.014413774
28	0x3d7597a0	0.059959054
29	0xbe80bd43	-0.25144395
30	0x3e10402d	0.14086981
31	0x40101f9b	2.251929
32	0x3ed4be18	0.4155128
33	0x3eaf813e	0.3427829
34	0x3c6feac0	0.014643371
35	0x3fd9820d	1.6992813
36	0x3e38aae0	0.18033934
37	0x3f1fd517	0.62434524
38	0x3e8a5540	0.27018166
39	0xbf667297	-0.900186
40	0xbe50c490	-0.20387483
41	0xbeaada28	-0.33369565
42	0x3da6261a	0.08112736
43	0xc0232d15	-2.5496266
44	0xbeceb027	-0.4036877
45	0xbf2dae5e	-0.6784419
46	0x3c677227	0.014126337
47	0xc0043a6e	-2.0660663
48	0xbe412421	-0.18861438
49	0xbfbda6c1	-1.4816514
50	0x3f1e9f76	0.6196207
51	0xc0059814	-2.087407
52	0xbc853117	-0.01625876
53	0xbfd04967	-1.6272401
54	0xbe88221a	-0.26588517
55	0xbe098344	-0.1342898
56	0x3e60ec84	0.21965224
57	0xbf09d726	-0.53843915
58	0x3ee86f62	0.45397478
59	0x3dbbbac8	0.09166485
60	0xbf08c98f	-0.53432554
61	0xbf202612	-0.6255809
62	0xbd6a84b7	-0.057255473
63	0x4008ab2c	2.1354475
64	0x3de1d539	0.11026997
65	0x4007273e	2.1117702
66	0xbdaa2999	-0.083087154
67	0x3fd2d283	1.6470493
68	0x3ec54a62	0.38533312
69	0xbf1dc9ce	-0.61636055
70	0x3e0bb137	0.13641821
71	0x3fe7c20e	1.8106096
72	0xbc10d5c0	-0.0088400245
73	0x3ea1e672	0.31621128
74	0xbc202a40	-0.009775698
75	0x3e1563c8	0.14588845
76	0x3d466f3e	0.048445933
77	0xbff7d334	-1.9361329
78	0x3f025e7b	0.50925416
79	0xbbd99a62	-0.0066407183
80	0x3f26f10f	0.65211576
81	0x400b6415	2.1779835
82	0xbc603c00	-0.01368618
83	0xbf15c6e6	-0.5850662
84	0x3e7cca68	0.24686587
85	0xbcc15260	-0.02359885
86	0x3dd8aac8	0.10579449
87	0x3ef21112	0.4727865
88	0x3f3f64c1	0.74763113
89	0x3ffbb1a4	1.9663587
90	0xbbc74c7b	-0.006082115
91	0xbee6aa3b	-0.4505175
92	0xbd9e836f	-0.07739913
93	0x3ffeaa5a	1.9895737
94	0x3d08fd2d	0.033444572
95	0xbfded5b7	-1.740897
96	0x3ead07fe	0.3379516
97	0x3c17ec00	0.009272575
98	0xbe4fd410	-0.20295739
99	0x3f02903d	0.5100134
100	0x3dc93949	0.098253794
101	0xc0080e92	-2.1258893
102	0xbcec359a	-0.028834153
103	0x3ffc3adc	1.9705462
104	0xbdc4e537	-0.09614032
105	0x3fff75b5	1.9957796
106	0x3e564368	0.20924151
107	0x3ffa0f97	1.9536008
108	0xbea7059f	-0.32621476
109	0x3fa1de03	1.2645878
110	0xbe9a5178	-0.3014028
111	0x40061da9	2.0955603
112	0x3e48de46	0.1961604
113	0x40403a5a	3.0035615
114	0x3eb1fa6e	0.34761375
115	0x3edc0786	0.4297449
116	0x3e8361c4	0.25660527
117	0x4013dc27	2.310312
118	0xbe1e30e8	-0.15448344
119	0xbee25d2e	-0.44211715
120	0xbd81ca11	-0.06337369
121	0xc0220f2d	-2.5321763
122	0xbc96a0e8	-0.018387273
123	0xbfc3a6d6	-1.5285289
124	0x3ea124fc	0.3147353
125	0x3fdd20a2	1.7275584
126	0x3db7a4d2	0.08966984
127	0x3ff8524e	1.9400117
128	0x3f08612a	0.5327326
129	0x3f97ef74	1.186995
130	0xbe9a929e	-0.30189985
131	0x3fc4449e	1.533344
132	0x3d0519e8	0.03249541
133	0xc00c5a3e	-2.193008
134	0x3df332ba	0.1187491
135	0x4030fab7	2.7653024
136	0x3f1c72fb	0.61112946
137	0xbf0a2b8c	-0.539727
138	0x3d75f9ce	0.060052685
139	0xbfaff917	-1.3747891
140	0x3e1d16e4	0.15340763
141	0xbecb8099	-0.3974655
142	0x3eda2d45	0.42612663
143	0x3ff9a765	1.950421
144	0x3cf71960	0.030163467
145	0xbe91ce11	-0.2847753
146	0xbf0f41bb	-0.5595967
147	0xbf4ee9c7	-0.80825466
148	0x3e5d7793	0.21627645
149	0xc0008ab7	-2.0084665
150	0x3f2a6a6d	0.6656864
151	0x3eff6d02	0.49887854
152	0xbe92688c	-0.28595388
153	0xbe578d9c	-0.21050113
154	0x3de73ed2	0.11291279
155	0xbfc9f686	-1.5778358
156	0xbe0b7012	-0.1361697
157	0xc0198bfe	-2.3991694
158	0xbd90f510	-0.07077992
159	0xbf0a9d1d	-0.54145986
160	0x3e41879c	0.18899387
161	0x3e7499c0	0.23886776
162	0xbe1a82b8	-0.15088928
163	0x3d956bb0	0.072959304
164	0x3c3b981b	0.011449839
165	0xc019ee37	-2.4051645
166	0xbe87fee2	-0.26561648
167	0xc0472741	-3.1117709
168	0x3f0a3e23	0.54001063
169	0x3ef2bbda	0.47408944
170	0xbb376993	-0.002798651
171	0x3fd11cbc	1.6336894
172	0x3c63467f	0.013871788
173	0xc018818c	-2.382907
174	0x3f296ccb	0.6618163
175	0x3ebbb602	0.36662298
176	0x3d3512a0	0.044207215
177	0xbee58726	-0.44829673
178	0x3f15f7fb	0.58581513
179	0x3efd381d	0.49456874
180	0x3edce7b1	0.43145517
181	0x3f8d49fa	1.1038201
182	0xbf09bc48	-0.5380292
183	0xbf8fc7b7	-1.1232823
184	0x3f0f8969	0.56069046
185	0x3ed59a0a	0.41719085
186	0x3ed716b9	0.42009524
187	0x3f9c5335	1.2212893
188	0x3c2d5bcd	0.010580969
189	0xc010f65e	-2.265037
190	0x3f32c19b	0.6982667
191	0x3f317841	0.6932412
192	0xba541800	-0.00080907345
193	0x3f1b6281	0.6069718
194	0x3f2768cc	0.6539428
195	0x3fa0d21a	1.2564118
196	0x3e8f3159	0.27967337
197	0xbe0cf501	-0.13765337
198	0x3eff331c	0.4984368
199	0x3fbd7b5d	1.4803272
200	0x3f082a85	0.5318988
201	0x3f70af78	0.94017744
202	0xbd92951a	-0.07157345
203	0xbe881b94	-0.2658354
204	0xbdf5a96b	-0.119952045
205	0xc010af6e	-2.2607074
206	0x3f129e90	0.572732
207	0x3f97250f	1.1808184
208	0x3e87b9f4	0.26509058
209	0xbdcc10e8	-0.09964162
210	0xbe315f74	-0.17321569
211	0xbf1ec32c	-0.6201656
212	0x3cca0761	0.024661722
213	0x4051735d	3.2726662
214	0xbe9813f9	-0.29702738
215	0x3f124739	0.5713993
216	0xbeeb1acc	-0.45918882
217	0x3d13e737	0.036109176
218	0x3f1b6787	0.60704845
219	0x3e817bba	0.25289708
220	0xbe73192e	-0.23740074
221	0xbfda7003	-1.7065433
222	0xbee7e6f5	-0.45293394
223	0x3ea2a900	0.31769562
224	0x3e1bae91	0.1520331
225	0x40074225	2.1134121
226	0xbd86e578	-0.065867364
227	0xbf112a09	-0.56704766
228	0xbef45733	-0.47722778
229	0x3fd54153	1.666056
230	0x3e94b640	0.29045296
231	0xbf150f84	-0.582268
232	0xbe97e5c4	-0.29667485
233	0xbe6ad0ae	-0.22931167
234	0x3f64901c	0.89282393
235	0x3f93b6e9	1.1540195
236	0xbde2b860	-0.11070323
237	0x3eeca346	0.46218318
238	0xbd5d14e2	-0.053974994
239	0xc0216614	-2.5218554
240	0x3e9a4414	0.30130064
241	0xbf86cc7a	-1.0531151
242	0xbec07b6a	-0.37594157
243	0xbff928e0	-1.9465599
244	0xbd92fbfe	-0.0717697
245	0xbf56670f	-0.83751005
246	0x3d3de89e	0.04636442
247	0xbff1a1e7	-1.8877534
248	0x3ec83655	0.39103952
249	0x403866ef	2.8812826
250	0x3e944142	0.28956038
251	0x3c346700	0.011010885
252	0xbdfb5397	-0.12271803
253	0x3feef0d1	1.8667241
254	0xbde45a99	-0.11150093
255	0xc014ae0a	-2.3231225

network.0.bias f4 [256]
0	0xbed787aa	-0.4209569
1	0x3c86c3ca	0.016450781
2	0xbe9e2115	-0.30884615
3	0xbea53a13	-0.3227087
4	0xbe744a22	-0.23856404
5	0x3e6eebfa	0.23332205
6	0xbdec1a1c	-0.115284175
7	0xbdb3ffbb	-0.08789011
8	0xbf0e07ae	-0.5548047
9	0xbdaf5c70	-0.08562553
10	0xbd4a1d37	-0.049344268
11	0xbf09fc70	-0.53900814
12	0xbd4ddaa0	-0.050257325
13	0xbec86033	-0.39135894
14	0xbd0e4bf0	-0.03474039
15	0xbd55ac0f	-0.05216604
16	0x3e749a4d	0.23886986
17	0xbd80184f	-0.062546365
18	0xbf0914b0	-0.5354719
19	0x3e275b7f	0.16343497
20	0xbf059758	-0.5218406
21	0x3d05d689	0.0326753
22	0xbf0bc0d8	-0.5459113
23	0xbc69ac43	-0.014262262
24	0xbe20b287	-0.15693103
25	0x3e8e9ea9	0.27855423
26	0x3d47ff26	0.048827313
27	0xbf1439ee	-0.57900894
28	0xbe5dd550	-0.21663404
29	0xbec9f69c	-0.3944596
30	0xbedaa9e3	-0.42707738
31	0xbd093dee	-0.033506326
32	0xbd3dca41	-0.046335462
33	0xbdbb5a9c	-0.09148142
34	0xbe6fae04	-0.23406225
35	0xbca2ebb3	-0.01988778
36	0xbec05b80	-0.3756981
37	0xbf2b56c7	-0.66929287
38	0x3c70845f	0.014679997
39	0xbe838814	-0.25689757
40	0xbd9c3dfa	-0.076290086
41	0xbef14b80	-0.47127914
42	0xbf11693d	-0.56801206
43	0xbee74ad8	-0.4517429
44	0xbe442488	-0.1915456
45	0xbd84686a	-0.06465228
46	0xbddbdf09	-0.107359
47	0x3dbeee0d	0.09322748
48	0xbf272843	-0.6529581
49	0xbe8e309c	-0.2777146
50	0x3e19bc49	0.15013231
51	0xbdb66dd3	-0.08907666
52	0xbdabb437	-0.08383983
53	0xbbb4e604	-0.005520584
54	0xbe818dcc	-0.25303495
55	0xbe85855e	-0.26078314
56	0xbdad92cf	-0.08475267
57	0xbeeaa313	-0.4582754
58	0x3a8c5ed0	0.0010709409
59	0xbf0ce191	-0.5503169
60	0xbd8de922	-0.06929232
61	0x3d80cfe1	0.0628965
62	0xbd2a8487	-0.041630294
63	0xbd340ef5	-0.043959577
64	0xbdd09e97	-0.101864986
65	0xbe707181	-0.23480798
66	0x3bb0466c	0.0053794887
67	0xbd3860ba	-0.04501412
68	0xbec28508	-0.3799212
69	0x3d052a9d	0.032511342
70	0xbe867da3	-0.26267728
71	0xbd952f77	-0.07284444
72	0xbeab3a50	-0.33442926
73	0xbf38ccb6	-0.72187364
74	0x3e017c03	0.12644963
75	0xbf1eb2aa	-0.6199137
76	0xbec147e0	-0.3775015
77	0x3d5f3a48	0.05449894
78	0xbde26a1f	-0.11055397
79	0xbf1119fb	-0.5668027
80	0xbf229e1c	-0.63522506
81	0xbf2310b7	-0.6369738
82	0xbc8357e6	-0.016033124
83	0xbe6ac7e1	-0.2292781
84	0xbf0f0ad2	-0.55875885
85	0xbd8b400b	-0.067993246
86	0xbc6128b8	-0.013742618
87	0xbf1d051a	-0.6133591
88	0xbd0bc190	-0.034120142
89	0xbe15c473	-0.1462572
90	0x3e7ff1ef	0.24994634
91	0xbeb69b1e	-0.3566522
92	0xbf0eacdf	-0.5573253
93	0xbc7eb45a	-0.015545929
94	0xbc858669	-0.016299443
95	0xbec6d49b	-0.3883408
96	0xbdafa258	-0.085758865
97	0xbe3eb713	-0.18624525
98	0x3e2c5248	0.16828263
99	0xbc8d331a	-0.017236281
100	0xbd6bbc21	-0.05755246
101	0xbdd0ecb9	-0.10201401
102	0xbdda2b87	-0.106528334
103	0xbd59af41	-0.05314565
104	0xbeff775b	-0.49895748
105	0xbf2cf6f1	-0.675643
106	0x3be5ec67	0.0070167067
107	0xbf2b1436	-0.66827714
108	0xbeb2a89b	-0.3489426
109	0xbf195b4f	-0.5990495
110	0xbe4a97b7	-0.19784437
111	0xbeb607d6	-0.35552853
112	0xbd84443a	-0.06458326
113	0xbf2d5de6	-0.677214
114	0xbec19ab8	-0.37813354
115	0xbf2adad4	-0.66740155
116	0xbebecaef	-0.372642
117	0xbe66dd02	-0.22545245
118	0xbf3162c9	-0.6929136
119	0xbd8aad96	-0.0677139
120	0x3e32bcd7	0.17454849
121	0xbed7e8d3	-0.42169818
122	0xbe29e8da	-0.16592732
123	0x3c858fac	0.01630386
124	0xbd7ea037	-0.06216451
125	0xbf0906f7	-0.5352625
126	0xbe0ceb8b	-0.13761728
127	0xbddad131	-0.10684431
128	0xbe364010	-0.17797875
129	0xbd8f3f4b	-0.06994494
130	0xbeaed06c	-0.34143388
131	0xbe420b01	-0.1894951
132	0x3dfce4c7	0.12348323
133	0xbdb87f23	-0.090086244
134	0xbda03bd2	-0.0782391
135	0xbdb70748	-0.08936936
136	0xbefc01b1	-0.4922004
137	0xbe864ea8	-0.26231885
138	0xbf019c57	-0.5062918
139	0xbe0ff353	-0.14057665
140	0xbe501b20	-0.20322847
141	0xbd5e70ba	-0.054306723
142	0x3d9f5f39	0.07781834
143	0xbe8bf9cd	-0.2733902
144	0xbe044231	-0.12915875
145	0x3d25cc98	0.04047832
146	0x3d4a6554	0.04941304
147	0xbeb3bc02	-0.35104376
148	0xbd3e2fba	-0.046432234
149	0xbee6fbb4	-0.4511391
150	0xbdb66630	-0.089062095
151	0xbedde109	-0.4333575
152	0xbe4eeb5c	-0.2020697
153	0xbe115961	-0.14194252
154	0x3e5254e0	0.2054019
155	0x3d96e6eb	0.07368263
156	0xbed110ab	-0.4083303
157	0x3e9bc6d9	0.30425146
158	0xbef28755	-0.47368875
159	0xbe999aaf	-0.30000827
160	0xbde4412c	-0.11145243
161	0xbe873a8b	-0.26411852
162	0xbe90a53a	-0.28251058
163	0xbcd55935	-0.026043514
164	0xbe479488	-0.19490254
165	0xbf2e2de0	-0.6803875
166	0xbcba4161	-0.022736253
167	0xbe2796de	-0.16366145
168	0x3d32da0f	0.043664988
169	0x3d9fcc00	0.07802582
170	0xbe769654	-0.24080783
171	0xbd4fa9c4	-0.05069901
172	0xbda3ed9b	-0.08004304
173	0xbe111a80	-0.14170265
174	0xbf206512	-0.6265422
175	0x3c15fc65	0.009154414
176	0x3d18648c	0.037205264
177	0xbcff8738	-0.031192407
178	0xbdc0d3d3	-0.09415402
179	0xbf0d8e26	-0.55295026
180	0xbdc3373c	-0.095320195
181	0xbdd6a158	-0.10479993
182	0xbf1ac9ba	-0.6046406
183	0xbd8aa8e5	-0.06770495
184	0xbd7b3daf	-0.061338123
185	0xbf1e445b	-0.6182305
186	0xbdfa1dd7	-0.12212723
187	0xbd918646	-0.07105689
188	0xbf05b9fe	-0.52236927
189	0xbdd1cca5	-0.10244111
190	0x3d911c06	0.07085423
191	0xbe9dc74e	-0.3081612
192	0xbee301b1	-0.44337228
193	0xbf1152b9	-0.5676685
194	0x3d0aadea	0.033857264
195	0xbe205437	-0.15657125
196	0x3dd7ca1c	0.10536596
197	0xbe659aa4	-0.22422272
198	0xbec7751e	-0.3895654
199	0xbec8ac28	-0.39193845
200	0xbecaaec7	-0.3958647
201	0x3c07d2ca	0.008290002
202	0xbd461a5e	-0.04836499
203	0xbe1c8f66	-0.15289077
204	0xbdd52803	-0.10408022
205	0xbf02a424	-0.5103171
206	0xbef35b16	-0.4753043
207	0xbec59299	-0.38588408
208	0xbed94130	-0.42432547
209	0xbf2c5a3f	-0.67325205
210	0x3df2c759	0.11854429
211	0xbe1ad40f	-0.15119956
212	0x3cd3d850	0.025859982
213	0xbd586b9d	-0.052837003
214	0x3d946248	0.07245308
215	0xbd9d9296	-0.07693975
216	0xbd719dd3	-0.058988404
217	0xbf108b48	-0.56462526
218	0xbd3d5c4d	-0.046230603
219	0xbf0d4ae7	-0.55192417
220	0xbf096b45	-0.53679305
221	0xbeb80fa9	-0.35949448
222	0xbd9a290e	-0.07527362
223	0x3d370105	0.044678707
224	0xbda405f5	-0.08008949
225	0xbf0c2528	-0.54744196
226	0x3b0a8395	0.0021135558
227	0x3e4849de	0.19559428
228	0xbd0e2b8e	-0.034709506
229	0xbf298dc3	-0.66231936
230	0xbd582fee	-0.052780084
231	0xbce2378c	-0.027614377
232	0xbf240d75	-0.64083034
233	0xbcc76935	-0.024342159
234	0xbe98f8fa	-0.29877454
235	0xbd402e89	-0.04691938
236	0xbdf23381	-0.1182623
237	0xbf1ffc7f	-0.62494653
238	0x3da5cd93	0.08095851
239	0xbd90e5e4	-0.07075098
240	0x3db74d21	0.08950258
241	0x3d6aa2d3	0.057284188
242	0xbead8b81	-0.33895496
243	0xbd3f8325	-0.04675593
244	0xbf2750ec	-0.6535785
245	0x3d1b4700	0.037909508
246	0xbefd1cca	-0.49436027
247	0xbc7a6921	-0.015283854
248	0x3d933e19	0.071895786
249	0xbf1454cb	-0.57941884
250	0x3e7f2efd	0.24920268
251	0xbd574aec	-0.052561685
252	0xbe70c6bb	-0.2351331
253	0xbe5db304	-0.2165032
254	0xbd86470a	-0.065565184
255	0xbea0a762	-0.31377703

network.3.weight f4 [256, 256]
0	0xbd0fa43e	-0.035068743
1	0x3eb4d49c	0.35318458
2	0xbe12ba2f	-0.14328836
3	0xbf175519	-0.59114224
4	0x3d53b8bc	0.05168985
5	0xbe7980c7	-0.24365531
6	0xbf80ea05	-1.0071417
7	0xbd3c4d77	-0.045972314
8	0xbc8255ec	-0.015910111
9	0xbe1a5202	-0.15070346
10	0xbf28444b	-0.65729207
11	0xbd37e470	-0.04489559
12	0xbe49c3cf	-0.19703601
13	0xb9f99700	-0.00047605485
14	0xbadb1e40	-0.0016717389
15	0xbd8fd73b	-0.07023474
16	0xbebbaf99	-0.36657408
17	0xbf394ed9	-0.72385937
18	0xbd03cb0e	-0.03217607
19	0xbe02a2b4	-0.12757379
20	0x3b90d7c0	0.0044202507
21	0xbf0d95d7	-0.5530676
22	0x3e897c5d	0.26852694
23	0xbdb78f86	-0.08962922
24	0xbe50e249	-0.20398821
25	0xbe87fa5b	-0.26558194
26	0x3dc71c44	0.09722188
27	0x3ca34968	0.019932464
28	0x3d4f50c4	0.050614133
29	0xb9df0100	-0.0004253462
30	0xbe6c6f21	-0.23089267
31	0xbfd7788b	-1.6833662
32	0xbdd081b6	-0.101809904
33	0xbf7d57aa	-0.9896189
34	0x3d544d1e	0.051831357
35	0xbd809bf9	-0.062797494
36	0xbcd38c48	-0.025823727
37	0x3d0611a0	0.032731652
38	0xbec19694	-0.37810194
39	0xbd11468f	-0.03546768
40	0xbdc4063f	-0.09571504
41	0x3ca5f0b8	0.020256385
42	0x3cae8c1c	0.021307044
43	0x3d12a106	0.035798095
44	0xbd263b0c	-0.040583655
45	0xbd009f8b	-0.031402152
46	0xbf56258f	-0.8365106
47	0xbcf547f1	-0.02994153
48	0x3c50a3d0	0.012734368
49	0x3d7602f0	0.060061395
50	0xbd298b19	-0.04139242
51	0xbf39cebe	-0.7258109
52	0xc020e392	-2.5138898
53	0xbc4a398b	-0.012342821
54	0xbeb60a78	-0.35554862
55	0xbed66466	-0.41873473
56	0xbd9a9e09	-0.07549674
57	0x3bb63ce0	0.005561456
58	0xbe0d9ab8	-0.13828552
59	0x3c8cc664	0.017184444
60	0xbde031ea	-0.1094702
61	0x3d8e9856	0.069626495
62	0xbda8cfbd	-0.08242748
63	0xbdd18d86	-0.102320716
64	0xbc75ae3f	-0.014995157
65	0xbef699b3	-0.48164138
66	0xbd331058	-0.04371676
67	0xbf1b5c71	-0.6068793
68	0x3d3d2b62	0.04618395
69	0xbe9a2568	-0.30106664
70	0xbd74483c	-0.0596392
71	0xbe02d991	-0.12778307
72	0xb732c000	-1.065433e-05
73	0x3f48e23d	0.7847021
74	0xbec84cd9	-0.3912113
75	0x3d20ed5c	0.039288864
76	0xbd938b80	-0.07204342
77	0xbe465b99	-0.19370879
78	0xbed89f04	-0.4230882
79	0xbd25e898	-0.04050502
80	0x3d009106	0.031388305
81	0x3d3161a0	0.043305993
82	0xbd22ccc3	-0.039746057
83	0xbf3e6f5b	-0.74388665
84	0x3cc62aa8	0.024190262
85	0xbf1be59a	-0.6089722
86	0xbd2bea4c	-0.04197149
87	0xbd1cff6c	-0.038329527
88	0xbd3a52b8	-0.045489043
89	0xbca37242	-0.019951943
90	0xbea03e06	-0.3129732
91	0xbdcb70a5	-0.099335946
92	0x3d067d3a	0.03283427
93	0x3bafd7bd	0.005366294
94	0xbd4bc34f	-0.049746808
95	0x3c415898	0.011800908
96	0x3bd53a90	0.0065072253
97	0xbb69a06e	-0.0035648602
98	0xbe026f36	-0.12737736
99	0xbd8d8986	-0.06910996
100	0xbcbc6c30	-0.023000807
101	0xbd04d225	-0.032426972
102	0xbe935aa1	-0.28780082
103	0xbcc34785	-0.023837814
104	0xbcbff10c	-0.02343037
105	0xbc36d1d0	-0.011158422
106	0xbf67aba9	-0.9049631
107	0xbc875ddc	-0.016524248
108	0xbedca77b	-0.43096527
109	0xbd150d4a	-0.036389627
110	0xbe201ae5	-0.1563526
111	0xbe8302c2	-0.25588042
112	0xbf33158a	-0.6995474
113	0x3d034bba	0.03205464
114	0xbed0e52d	-0.40799847
115	0x3ce19358	0.02753608
116	0x3d8cc771	0.06873978
117	0x387663fb	5.8744085e-05
118	0xbd270e72	-0.04078526
119	0xbee61df5	-0.4494473
120	0xbe827a61	-0.25483993
121	0xbe4abc2b	-0.19798343
122	0xbbae7a46	-0.0053246347
123	0xbdc1e480	-0.09467411
124	0xbdd93576	-0.106059
125	0xbc4383f8	-0.011933319
126	0xbf3eec49	-0.7457929
127	0xbe89d7e9	-0.2692254
128	0x3907cce9	0.00012950938
129	0xbe12f633	-0.1435173
130	0xbc62f540	-0.0138524175
131	0xbf2da993	-0.67836875
132	0xbe53716a	-0.20648733
133	0xbe08396e	-0.13303158
134	0xbdaa7cc7	-0.08324581
135	0xbd294f5a	-0.04133544
136	0xbe8ae632	-0.2712875
137	0xbcf010ec	-0.029304944
138	0x3ce8c6a4	0.028415032
139	0xbadcc59a	-0.0016843558
140	0xbf16a06a	-0.5883852
141	0xbde17f36	-0.11010592
142	0x3c3d6ea4	0.011562023
143	0xbedd7a67	-0.43257448
144	0xbd30ba4f	-0.043146428
145	0x3e1dfe20	0.15428972
146	0x3ca3ea01	0.020009043
147	0xbeb42552	-0.35184723
148	0xbdf76fff	-0.120819084
149	0xbcb4a0e4	-0.022049375
150	0xbcf4494c	-0.029820107
151	0x3aeab040	0.001790531
152	0xbcdf4bea	-0.027257878
153	0xbb4bd7e3	-0.003110402
154	0xbe8015d8	-0.25016665
155	0xbc30b0ab	-0.010784308
156	0xbee04182	-0.43799978
157	0xbee2fd59	-0.44333914
158	0x3e474cca	0.19462886
159	0x3cc31b9c	0.023816876
160	0x3b8ea089	0.0043526334
161	0x3d56fade	0.05248534
162	0x3c9ed508	0.01938869
163	0xbd54394e	-0.051812463
164	0x3d6f12d6	0.058367573
165	0x3d74e3b4	0.059787467
166	0xbc49f548	-0.012326546
167	0xbddc6bfa	-0.107627824
168	0xbe098889	-0.1343099
169	0xbe99e0ff	-0.3005447
170	0xbd1dca88	-0.038523227
171	0xc0013e4e	-2.0194278
172	0xbe0b3a9d	-0.13596578
173	0x3cb37678	0.021907076
174	0xbd508c5e	-0.050915115
175	0xbf6ba42f	-0.920474
176	0xbe1c5968	-0.15268481
177	0xb808237d	-3.2457978e-05
178	0xbc822e9b	-0.015891364
179	0xbd0167b0	-0.031593025
180	0xbb3cf09c	-0.0028829938
181	0x3ae60e6b	0.0017551904
182	0x3b87ad00	0.0041404963
183	0xbde79c30	-0.11309087
184	0xbdd3874b	-0.103285395
185	0xbb996d70	-0.0046822354
186	0xbdcb79fa	-0.099353746
187	0xbdecb538	-0.11558002
188	0xbbb006d0	-0.005371906
189	0xbda4cfaf	-0.08047425
190	0x3d1e6237	0.038667884
191	0xbeb5b822	-0.35492045
192	0x3d17b710	0.037039816
193	0x375c62bb	1.3136009e-05
194	0xbe46ad75	-0.19402106
195	0xbf15990a	-0.58436644
196	0xbe5157a8	-0.20443594
197	0x3aaf4102	0.0013370814
198	0x3cdeb4d8	0.027185842
199	0x3c6c6b58	0.01442989
200	0x3d566ef2	0.0523519
201	0xbe8cb7ae	-0.27483886
202	0x3d28ad70	0.041181028
203	0xbcbe1475	-0.023203114
204	0xbf86fd46	-1.0546043
205	0xb9f0d000	-0.0004593134
206	0xbebffe7f	-0.37498853
207	0x3e0107b5	0.12600596
208	0xbeb7cfa0	-0.35900593
209	0x3e29656f	0.165426
210	0xbf5399a8	-0.82656336
211	0xbe9b53ab	-0.3033727
212	0x3e48135f	0.1953864
213	0x3bff7989	0.0077964705
214	0x3cd59303	0.026071077
215	0xbd03312a	-0.03202931
216	0xbfb7e75a	-1.4367478
217	0x3d9c7eaa	0.07641347
218	0xbdee4074	-0.11633387
219	0x3d0a2b70	0.03373283
220	0x3f262baf	0.64910406
221	0x3cb88acc	0.022527121
222	0xbe508739	-0.20364083
223	0xbd62413c	-0.055237994
224	0xbd35ccf4	-0.04438491
225	0xbb1ad760	-0.0023626909
226	0xbf83049c	-1.0235782
227	0xbc2b61c2	-0.010460319
228	0x3d041cd2	0.032254048
229	0x3add425f	0.0016880742
230	0xbd40f9bc	-0.047113165
231	0xbc71c98d	-0.014757526
232	0x3c01fe00	0.0079340935
233	0xbdd29946	-0.10283141
234	0x3c615400	0.013752937
235	0xc01afd0d	-2.421695
236	0xbe980c81	-0.2969704
237	0xbba24fe0	-0.0049533695
238	0xbe31388c	-0.17306727
239	0xbf4934d3	-0.7859623
240	0xbeb852c9	-0.3600066
241	0xbe03f774	-0.12887365
242	0xbeded0df	-0.4351873
243	0xbdacd554	-0.084391266
244	0x3ca73ac0	0.020413756
245	0xbf263881	-0.6492997
246	0xbd7071e6	-0.058702372
247	0xbd928f97	-0.07156294
248	0x3d5326f6	0.051550828
249	0xbc7d3a78	-0.015455835
250	0xbeb590c3	-0.35462007
251	0xbdc4d5f7	-0.09611123
252	0xbc75efc8	-0.015010782
253	0xbe8b3ef0	-0.27196455
254	0xbdf07e03	-0.11742785
255	0xbe89e0c4	-0.26929295

network.3.bias f4 [256]
0	0x383072d7	4.2068623e-05
1	0xbcce0e2a	-0.025153238
2	0xbd20cbd2	-0.03925688
3	0xbc2a8656	-0.010408005
4	0xbd223f9f	-0.039611455
5	0xbce8abf1	-0.0284023
6	0xbc79e578	-0.0152524635
7	0x3e6e81ca	0.23291698
8	0xbd8a0862	-0.0673988
9	0x3dcc92e5	0.099889554
10	0xbd851f16	-0.0650007
11	0x3dc961af	0.09833085
12	0x3e5416f6	0.20711884
13	0xbc41450d	-0.011796248
14	0xbc2057a4	-0.00978652
15	0xbbefc96d	-0.007317713
16	0x3d53a747	0.0516732
17	0x3de3022c	0.110843986
18	0x3e83d2e1	0.25746825
19	0x3e0cd48f	0.1375296
20	0x3d862049	0.06549127
21	0xbcd40423	-0.025880879
22	0x3e3e3007	0.18573008
23	0xbc684b7e	-0.014178155
24	0x3dab4808	0.08363348
25	0x3daad803	0.08341982
26	0xbb38f9e0	-0.002822511
27	0xbd54e9b6	-0.051980697
28	0xbd26ec11	-0.040752474
29	0x3e1b2922	0.1515241
30	0xbcf852d7	-0.030312939
31	0x3dd5e4fc	0.10444066
32	0x3d812c7f	0.06307315
33	0xbd71d69a	-0.05904255
34	0xbd11dc40	-0.035610437
35	0xbbc18eb9	-0.0059069064
36	0x3e503a62	0.20334771
37	0x3e8ba9d4	0.27278006
38	0xbd0c2bbf	-0.034221407
39	0x3e09d73d	0.13461013
40	0x3baa2ee6	0.005193579
41	0x3d693cca	0.05694274
42	0x3dbfe7b6	0.09370367
43	0xbc156d3d	-0.009120283
44	0x3e1dfaed	0.15427752
45	0xbbc5f0af	-0.0060406546
46	0x3c3b553a	0.011433894
47	0x3e06394e	0.13107798
48	0x3e513677	0.20430933
49	0x3e0ca4a9	0.13734688
50	0x3e3cb3f9	0.18428029
51	0xbcbb6ff8	-0.02288054
52	0xbd03c3d7	-0.03216919
53	0xbd695b95	-0.056972105
54	0x3d203127	0.039109375
55	0x3dcf8204	0.101322204
56	0x3ddbffd8	0.10742158
57	0xbd04711b	-0.03233443
58	0x3c32238c	0.010872733
59	0xbca15110	-0.019691974
60	0x3e81443c	0.2524737
61	0x3c94cc9b	0.01816397
62	0x3d653249	0.05595616
63	0x3e883b91	0.26607946
64	0xbd65f69a	-0.05614338
65	0x3d578416	0.0526162
66	0xbb51e193	-0.0032025322
67	0x3e46472e	0.1936309
68	0xbd2cacfa	-0.04215715
69	0x3e157ec0	0.14599133
70	0x3e1a11ac	0.15045804
71	0x3e547866	0.20749053
72	0xbd82550b	-0.06363877
73	0x3e5671e6	0.20941886
74	0xbd64a9e1	-0.05582607
75	0x3dcc2054	0.099671036
76	0x3d0aba57	0.033869114
77	0xbd5ee564	-0.054417983
78	0xbc0d2551	-0.008614854
79	0xbd84cb2b	-0.06484064
80	0xbd6266c6	-0.055273794
81	0x3e4426f4	0.19155484
82	0xbcf74df6	-0.030188542
83	0x3e23cd75	0.15996344
84	0xbcbdd7d2	-0.0231742
85	0x3e764e97	0.24053417
86	0xbcbad662	-0.022807304
87	0x3db90f5d	0.090361334
88	0x3e5ebab0	0.21750903
89	0xbd778cda	-0.06043706
90	0x3e51cfeb	0.2048947
91	0x3de8db4f	0.11369955
92	0x3e47ac9d	0.1949944
93	0x3e25edb5	0.1620396
94	0x3dfb9a37	0.122852735
95	0x3e42f670	0.19039321
96	0xbd03646a	-0.032078184
97	0x3e7551ef	0.23957036
98	0x3d01139d	0.031512845
99	0xbd66e09f	-0.05636656
100	0xbcdb3aab	-0.026761374
101	0x3e6bb163	0.23016886
102	0x3e27c9e3	0.16385607
103	0x3e3232e9	0.17402233
104	0xbc818a9e	-0.015813168
105	0x3d78c06d	0.060730387
106	0x3d5c0ee9	0.053725157
107	0x3e01d007	0.12677012
108	0x3da31666	0.079632565
109	0xbcb5c2f9	-0.022187697
110	0xbb98c72e	-0.004662416
111	0xbd40ec4a	-0.047100343
112	0xbc73936f	-0.014866694
113	0x3d9ad3dd	0.07559941
114	0xbd50f1df	-0.051011916
115	0xbc4c202b	-0.012458841
116	0x3c6b7588	0.014371283
117	0xbd6e6261	-0.05819929
118	0x3d4a7dec	0.049436495
119	0x3e1815ce	0.14852068
120	0xbd8c0d63	-0.06838491
121	0xbd99ef5d	-0.07516358
122	0xba8f9921	-0.001095567
123	0x3e1026de	0.14077327
124	0xbd49b99a	-0.04924927
125	0xbd5012bd	-0.05079912
126	0xbceb2f4f	-0.028709082
127	0xbcd1e6fb	-0.025622835
128	0xbc7ab9e9	-0.0153031135
129	0xbbfd30eb	-0.0077267787
130	0x3db057f6	0.08610527
131	0x3e2bb9c3	0.16770081
132	0x3e2ba722	0.16762975
133	0x3dbb11b8	0.09134239
134	0x3e0d213d	0.1378221
135	0x3e279078	0.16363704
136	0x3e1244ae	0.14284012
137	0x3d83b526	0.06431036
138	0x3d91ddf6	0.07122414
139	0x3d3e8432	0.04651279
140	0x3e09d0c9	0.13458551
141	0xbd4da3a4	-0.050204888
142	0x3deb001b	0.114746295
143	0xbc8051cd	-0.015664006
144	0x3daf9b25	0.08574513
145	0xbb0136a7	-0.0019716413
146	0xbcfc975e	-0.030833896
147	0x3c9b0fe5	0.018928478
148	0x3de0410b	0.10949906
149	0x3e8486c6	0.25884074
150	0xbca171e3	-0.019707626
151	0xbc8bb09e	-0.017051991
152	0xbc2cd43e	-0.010548649
153	0x3e607861	0.21920921
154	0xbc11b1a6	-0.008892452
155	0x3dcdc54a	0.100473955
156	0x3e8370e9	0.2567208
157	0x3db26931	0.0871147
158	0xbd7edaac	-0.06222026
159	0x3dfeb532	0.12436904
160	0x3e048351	0.12940718
161	0xbcaa687b	-0.020801773
162	0x3d9f19f6	0.077686235
163	0xbd002bbb	-0.031291705
164	0xbc8abd18	-0.01693587
165	0xbc4e98af	-0.012609645
166	0xbd79d919	-0.060998056
167	0xbc4df044	-0.012569491
168	0xbc5b1a38	-0.01337295
169	0xbcf02313	-0.0293136
170	0x3e8988d5	0.26862207
171	0x3affdad8	0.0019520177
172	0xbc866ff6	-0.016410809
173	0x3d9b888d	0.07594404
174	0x3d46045f	0.048344012
175	0xbd3d4158	-0.046204895
176	0xbccd3744	-0.025050767
177	0x3dea1fdd	0.11431859
178	0x3e1e08f9	0.1543311
179	0x3e19894e	0.14993784
180	0x3e1b18e8	0.1514622
181	0xbcda24fa	-0.02662896
182	0x3db5c935	0.08876268
183	0xbd050a55	-0.032480557
184	0xbd1681ad	-0.036744762
185	0xbd0a6cbe	-0.03379511
186	0xbd5fec24	-0.05466856
187	0x3e6f44da	0.23366109
188	0xbc25826a	-0.010101894
189	0x3dee95d0	0.11649668
190	0x3d939297	0.07205694
191	0xbd710796	-0.058845125
192	0xbd0f6ec7	-0.035017755
193	0x3e898934	0.2686249
194	0x3e58baa4	0.21164948
195	0xbd3f770f	-0.046744402
196	0x3b46e63d	0.0030349635
197	0x3dfe5c8c	0.12419996
198	0x3e628ce7	0.22124062
199	0xb9d716c9	-0.00041024972
200	0x3dde7025	0.108612336
201	0x3df97b43	0.121817134
202	0x3e6ef5c3	0.23335938
203	0xbb2d1eba	-0.002641602
204	0x3de08909	0.109636374
205	0x3e2894cb	0.1646301
206	0x3deca804	0.11555484
207	0x3e602392	0.21888569
208	0xbcfc72f0	-0.030816525
209	0xbd52d03b	-0.051468115
210	0xbcf85c3d	-0.03031742
211	0x3e5e3fe1	0.21704055
212	0x3d0e7fcc	0.034789845
213	0xbd702075	-0.058624703
214	0xbcbd91f3	-0.023140883
215	0xbcd91a6d	-0.026501859
216	0x3d95b3c3	0.073096775
217	0x3e8146c8	0.25249314
218	0x3e3bb8dd	0.18332238
219	0xbd72e958	-0.059304565
220	0xbc2e936f	-0.010655268
221	0xbd2f0506	-0.0427294
222	0xbc07f105	-0.00829721
223	0x3d18ba50	0.037287056
224	0x3e085546	0.13313779
225	0x3e5f6d73	0.21819095
226	0xbc173bed	-0.009230596
227	0xbd5c14dc	-0.05373083
228	0xbd61bda8	-0.05511251
229	0x3e3c12ea	0.1836659
230	0x3dcad42c	0.0990375
231	0xbc459140	-0.012058556
232	0x3e1d6440	0.15370274
233	0xbbdc18aa	-0.0067168074
234	0xbd6fd11f	-0.058549043
235	0x3e122795	0.14272912
236	0xbc57fcc4	-0.013182823
237	0xbc913460	-0.01772517
238	0xbe0ca7ce	-0.13735887
239	0x3df29bfb	0.11846157
240	0x3e0214d9	0.12703265
241	0x3dfceef7	0.123502664
242	0xbcac4d70	-0.021033019
243	0x3e037bef	0.12840246
244	0x3d277b4b	0.040889066
245	0x3e50b087	0.2037984
246	0x3dfba104	0.12286571
247	0x3de89e24	0.11358288
248	0x3e125142	0.1428881
249	0xbd37d61d	-0.04488193
250	0xbd469271	-0.0484795
251	0x3d8b0cd9	0.0678956
252	0x3e124f71	0.14288117
253	0x3df3b814	0.119003445
254	0xbd72b604	-0.059255615
255	0x3e396561	0.18105079

network.6.weight f4 [256, 256]
0	0xbe1392e5	-0.14411505
1	0x3d2cf26e	0.042223386
2	0x3c8c643c	0.01713764
3	0x3d34b044	0.044113412
4	0xbd0b56a8	-0.03401819
5	0xbd717d06	-0.058957122
6	0x3d6060c9	0.0547798
7	0xbe8926eb	-0.26787505
8	0x3d1a26c6	0.037634633
9	0xbed8c0ad	-0.423345
10	0x3cdd194c	0.026989602
11	0xbe06d90a	-0.13168731
12	0xbeb0627e	-0.34450144
13	0xbd2882f8	-0.041140527
14	0xbca9bd08	-0.02072002
15	0x3d821316	0.063512966
16	0xbe9af55f	-0.30265328
17	0xbe2aac88	-0.16667378
18	0x3da0e3bd	0.07855938
19	0xbeea9c08	-0.45822167
20	0xbf1f460d	-0.62216264
21	0x3d1412fa	0.03615091
22	0xbeaa9d9b	-0.33323368
23	0xbccb088b	-0.024784347
24	0xbdbd2f00	-0.0923748
25	0xbd89902f	-0.06716954
26	0x3d372b4a	0.044719018
27	0xbd7a054e	-0.061040215
28	0xbd03d351	-0.03218395
29	0xbe180d39	-0.14848794
30	0xbcfbde89	-0.030745761
31	0x3e2151c1	0.15753843
32	0xbd378e03	-0.044813167
33	0x3d3114e0	0.0432328
34	0xbd7e28e3	-0.06205071
35	0x3cad2026	0.021133494
36	0x3a13a846	0.00056326797
37	0x3e00e8b5	0.1258877
38	0x3e831d97	0.25608513
39	0xbe91a782	-0.2844811
40	0xbee71d90	-0.45139742
41	0xbec89479	-0.39175776
42	0xbcb780c3	-0.022400266
43	0xbc924a02	-0.017857555
44	0xbd038301	-0.032107357
45	0xbbe7c183	-0.007072629
46	0xbf605160	-0.8762417
47	0x3eb4a5e1	0.35282806
48	0xbe033cc1	-0.12816145
49	0xbecbea92	-0.398274
50	0x3e883aa1	0.2660723
51	0x3d6853a7	0.056720402
52	0xbcbe3d94	-0.023222722
53	0x3d6191d2	0.055070706
54	0xbe41ae43	-0.18914132
55	0xbf362b9b	-0.71160287
56	0xbc7c3171	-0.015392647
57	0xbeacee9a	-0.3377579
58	0xbd38b623	-0.045095574
59	0x3d63803a	0.05554221
60	0xbd5f3e31	-0.05450267
61	0xbdd5c7d1	-0.104385026
62	0xbf6a6b25	-0.9156974
63	0xbd445d6b	-0.047940653
64	0x3d540449	0.0517619
65	0xbedfc791	-0.43706945
66	0xbd02a189	-0.031892333
67	0xbd3fd1c3	-0.046830904
68	0x3cc2a29b	0.023759177
69	0xbf0478b9	-0.5174671
70	0xbd6e4c55	-0.058178265
71	0xbe6ca022	-0.23107961
72	0x3c400a08	0.011721142
73	0x3e514e99	0.20440139
74	0x3d492168	0.049104124
75	0xbe11354f	-0.14180492
76	0xbf120271	-0.57034975
77	0xbd169420	-0.036762357
78	0xbb26e814	-0.002546792
79	0x3c438385	0.011933212
80	0xbcf95832	-0.030437563
81	0x3d617155	0.055039722
82	0xbbea6c75	-0.0071540424
83	0x3e51a248	0.20472062
84	0x3d1beb0c	0.038065955
85	0xbe1aa245	-0.15100963
86	0xbd5468a9	-0.051857624
87	0xbebb595f	-0.36591622
88	0xbdaa879b	-0.08326646
89	0x3d52c206	0.051454566
90	0x3eba8169	0.36426857
91	0xbf11ee56	-0.57004297
92	0xbe939b6f	-0.28829524
93	0xbe8fa50f	-0.28055617
94	0xbf24b60e	-0.64340293
95	0x3e91447c	0.28372562
96	0x3c309840	0.010778487
97	0x3e155d3f	0.14586352
98	0xbefb0473	-0.49026832
99	0x3c592c83	0.013255241
100	0xbcda7218	-0.026665732
101	0xbdb810a1	-0.08987547
102	0xbdafdb68	-0.0858677
103	0x3c2b9323	0.010472092
104	0x3ce1b6e7	0.027553035
105	0xbebf4431	-0.37356713
106	0xbf148940	-0.58021927
107	0xbbd3bab4	-0.0064614657
108	0xbe93605d	-0.28784457
109	0x3d5b3ebb	0.05352662
110	0xbcaba755	-0.020953814
111	0x3c8f7664	0.017512508
112	0xbd178fc6	-0.037002347
113	0xbd0b6615	-0.0340329
114	0xbee8b625	-0.45451465
115	0xbd2152aa	-0.039385475
116	0xbcca4b74	-0.024694182
117	0xbcb1b1d2	-0.021691237
118	0xbd96b626	-0.07358961
119	0xbf07eba7	-0.5309395
120	0x3c849905	0.016186247
121	0x3d73692c	0.05942647
122	0x3cfb6020	0.030685484
123	0x3d1a2b13	0.037638735
124	0xbc3758ed	-0.011190635
125	0xbcd9b99a	-0.02657776
126	0x3bb86952	0.0056277895
127	0xbc4aba0c	-0.012373459
128	0xbc812615	-0.01576523
129	0xbd3a12e3	-0.045428168
130	0x3c6fb4ba	0.014630491
131	0x3e5ed385	0.21760376
132	0x3d8f895f	0.07008623
133	0x3db75ed1	0.08953632
134	0xbf48f57a	-0.7849957
135	0x3e3c7401	0.18403627
136	0xbf56c9a9	-0.8390146
137	0xbe50894b	-0.20364873
138	0xbd2b5d3b	-0.04183696
139	0xbedfac0e	-0.43685955
140	0x3d02ff2a	0.031981625
141	0xbc4a8ff5	-0.012363424
142	0xbf2781f9	-0.654327
143	0x3c62c75d	0.013841477
144	0xbe03034f	-0.12794231
145	0xbd1c5711	-0.03816897
146	0xbc45751f	-0.01205185
147	0xbf4110e2	-0.75416386
148	0xbcc21dfa	-0.023695935
149	0xbe3519a4	-0.17685562
150	0xbd13dc12	-0.036098547
151	0x3d5376dc	0.051627025
152	0xbc32fdff	-0.010924815
153	0x3f1f7498	0.6228728
154	0xbc9f9ca5	-0.019483874
155	0xbe45d3d2	-0.19319084
156	0x3e1eb7dd	0.15499826
157	0xbd93beb1	-0.07214106
158	0x3c00a182	0.007851006
159	0xbecce21e	-0.40016264
160	0x3e612661	0.21987297
161	0xbd1bb2a6	-0.03801217
162	0xbef54323	-0.47902784
163	0xbccb02cb	-0.024781605
164	0xbd71c3d2	-0.05902464
165	0xbc9d05c0	-0.01916778
166	0xbd6035a6	-0.054738663
167	0xbd5d2885	-0.05399372
168	0x3d2a5f32	0.04159469
169	0x3d43dbe2	0.04781712
170	0xbf13d854	-0.57751966
171	0x3d16c0e5	0.036805052
172	0x3cf451d9	0.029824184
173	0x3c80d880	0.015728235
174	0xbe12f240	-0.14350224
175	0xbb96c7e0	-0.0046014637
176	0xbd88328b	-0.06650265
177	0xbbd56845	-0.006512674
178	0xbfa3cc4e	-1.2796724
179	0xbed343f1	-0.41262773
180	0xbe271617	-0.1631702
181	0xbbd589c1	-0.0065166657
182	0xbe34f6b9	-0.17672242
183	0xbf20768c	-0.6268089
184	0x3cde04bd	0.027101869
185	0x3d5bf615	0.05370148
186	0xbc77bc8b	-0.015120636
187	0x3d1d37ad	0.038383175
188	0x3cbf3dcc	0.023344897
189	0xbf0c9e05	-0.5492862
190	0xbe19637e	-0.1497936
191	0xbd009f0c	-0.03140168
192	0x3d3c03e6	0.045902155
193	0x3cfb8f5a	0.030708004
194	0x3c736ee4	0.014857981
195	0xbbad99ea	-0.005297889
196	0xbbfb2a45	-0.007664951
197	0xbe520ae1	-0.20511962
198	0xbd2abc92	-0.04168374
199	0x3c5d381a	0.013502145
200	0x3efab176	0.48963517
201	0xbe20acac	-0.15690869
202	0x3dd87d7a	0.10570808
203	0xbcc346a2	-0.023837391
204	0xbc9edb3c	-0.019391648
205	0xbeb2dfa5	-0.34936252
206	0x3d0ae088	0.033905536
207	0xbe10ca03	-0.14139561
208	0xb94b0000	-0.00019359589
209	0xbd54e594	-0.051976755
210	0xbaa63c4c	-0.0012682765
211	0xbd2789ac	-0.04090278
212	0xbf1e286e	-0.6178044
213	0xbc039c82	-0.00803292
214	0xbac9fdee	-0.001541076
215	0x3cf66658	0.030078098
216	0x3d1afee4	0.03784074
217	0xbd4de85b	-0.05027042
218	0xbcd1151f	-0.025522767
219	0x3ccbe47b	0.024889221
220	0x3d0893e5	0.03334417
221	0x3d3a00ea	0.045411028
222	0x3d0a4f13	0.033766817
223	0xbce068c6	-0.02739371
224	0xbea1adec	-0.31578004
225	0xbdde5016	-0.10855119
226	0x3d2d8fcc	0.042373464
227	0x3d8b391a	0.06798001
228	0xbafd9363	-0.0019346293
229	0xbebda6d8	-0.37041354
230	0xbe083b2d	-0.13303824
231	0xbc391a77	-0.011297814
232	0x3df4d7c2	0.11955215
233	0x3d1959c5	0.037439127
234	0x3d049849	0.032371793
235	0xbdb5fc08	-0.08885962
236	0x3ce1e767	0.027576162
237	0x3d0e58e1	0.03475273
238	0x3d49151a	0.04909239
239	0xbdb86bc6	-0.09004931
240	0xbf135ec9	-0.57566506
241	0xbf1aaa7d	-0.60416394
242	0x3d63f474	0.05565305
243	0xbe8504cc	-0.25980222
244	0xbeedc74b	-0.4644111
245	0x3f033ac0	0.5126152
246	0xbdcfe110	-0.10150349
247	0xbdca723e	-0.09885071
248	0xbebf1f3f	-0.37328526
249	0x3d57d044	0.052688852
250	0x3cce1c09	0.025159853
251	0xbe07702b	-0.13226382
252	0x3bbc91e7	0.0057546976
253	0x3df33562	0.11875416
254	0x3cbe52cc	0.02323284
255	0xbd69ab8f	-0.057048377

network.6.bias f4 [256]
0	0x3fbe62d5	1.4873911
1	0xbf2fb936	-0.68641984
2	0x3f401af3	0.7504112
3	0x3f6f5b94	0.9349911
4	0x3d498738	0.04920122
5	0x3f7aa45f	0.9790706
6	0x3fa672b8	1.3003759
7	0xbd317aba	-0.04332993
8	0xbe0844c2	-0.13307479
9	0x3f64a798	0.8931823
10	0x3fc06495	1.5030695
11	0x3fbae7be	1.4601972
12	0x3fab9187	1.3403786
13	0x3f04c687	0.5186543
14	0x3fb9588b	1.4480146
15	0xbd8209de	-0.06349538
16	0x3f79f678	0.97641706
17	0x3f9e327d	1.2359158
18	0x3d229ca0	0.03970015
19	0x3f26dbcd	0.6517914
20	0x3f830c97	1.0238217
21	0x3e6c55a6	0.23079547
22	0x3f6e2f6f	0.9304113
23	0x3f6e1265	0.9299682
24	0x3f0f2da7	0.55929035
25	0x3f654f42	0.8957406
26	0x3f9c7974	1.2224565
27	0x3f9760bf	1.18264
28	0x3fb135eb	1.384458
29	0x3fb9427d	1.4473416
30	0x3f0652d5	0.5247014
31	0x3faccea8	1.3500566
32	0x3fb71830	1.4304256
33	0x3f81cd8e	1.0140855
34	0x3f226369	0.6343294
35	0x3fa6ea43	1.3040241
36	0xbd5fb0c7	-0.054611947
37	0x3f65f611	0.8982859
38	0x3fb82be7	1.4388398
39	0x3ef8f01a	0.48620683
40	0x3f7ab28b	0.97928685
41	0x3f644f9b	0.8918397
42	0x3f7409bf	0.9532737
43	0x3e97835f	0.29592416
44	0x3f8070ec	1.0034461
45	0x3f97d8a3	1.1862987
46	0x3f890851	1.0705663
47	0x3fb6d79e	1.4284551
48	0xbd5b3553	-0.05351765
49	0x3ed66b3c	0.41878688
50	0x3b31b0ae	0.0027113366
51	0x3f714763	0.9424955
52	0x3f777a03	0.9667055
53	0xbeaa2a82	-0.33235556
54	0x3fbe0f55	1.4848429
55	0x3e9137dd	0.28362933
56	0x3da3cfda	0.07998629
57	0xbd5792f3	-0.052630376
58	0x3f89f10b	1.0776685
59	0xbdf0b919	-0.117540546
60	0x3fa1f6a5	1.2653395
61	0xbceb1e03	-0.028700834
62	0x3f2f23c2	0.6841394
63	0xbd1cde5f	-0.038298007
64	0x3f5bf58a	0.8592154
65	0x3f8b7f43	1.0898212
66	0x3e2dd559	0.16975917
67	0x3fb8b317	1.4429654
68	0xbddd158c	-0.10795125
69	0x3f7a161c	0.97689986
70	0x3f21c6b5	0.6319383
71	0x3debc625	0.115124024
72	0x3f8297cc	1.0202575
73	0x3f8ace9f	1.0844306
74	0x3f735e13	0.9506542
75	0x3f890835	1.070563
76	0x3fbb106d	1.4614388
77	0x3f82f9cd	1.0232483
78	0xbd9c86f7	-0.0764293
79	0x3f7dad6b	0.9909274
80	0x3f2fe906	0.6871494
81	0xbda33388	-0.07968813
82	0x3fbd45ad	1.4786888
83	0x3e63a1fc	0.22229761
84	0x3f827f5f	1.019512
85	0x3f78c15a	0.9717003
86	0xbde59653	-0.11210313
87	0x3f8069c8	1.0032282
88	0x3f6c51d3	0.92312354
89	0x3f64f27c	0.894325
90	0x3d9e65ea	0.07734282
91	0x3f810460	1.007946
92	0x3f86383a	1.0485909
93	0x3f07bb1f	0.530199
94	0xbdcf1e16	-0.1011316
95	0xbd95fda0	-0.07323766
96	0x3f8078aa	1.0036824
97	0x3f888db8	1.0668249
98	0xbd17ea07	-0.03708842
99	0xbf22032d	-0.63286096
100	0xbef2d7bc	-0.47430217
101	0x3f8a1153	1.0786537
102	0xbd90a1c0	-0.07062101
103	0xbf06b00b	-0.5261237
104	0x3f87d196	1.0610836
105	0xbde0a2f9	-0.109685846
106	0xbddbc4c4	-0.107308894
107	0x3f9254a7	1.1432084
108	0xbd607ee1	-0.0548085
109	0xbda76bfb	-0.081748925
110	0xbba40eaf	-0.0050066332
111	0x3f91f070	1.1401501
112	0x3f868cc2	1.0511706
113	0x3f6a1421	0.91436964
114	0xbdb3745c	-0.08762428
115	0xbe795d23	-0.24351935
116	0x3fbd08f0	1.4768353
117	0x3f7d705f	0.9899959
118	0xbe6e2d05	-0.23259361
119	0x3f84337f	1.0328215
120	0xbd44badd	-0.04802977
121	0x3fc2b432	1.5211241
122	0x3f9155e9	1.1354343
123	0xbefa51c1	-0.48890498
124	0xbd438600	-0.047735214
125	0x3f836009	1.0263683
126	0x3f9aaee6	1.2084625
127	0x3f34b932	0.70595086
128	0xbf2f47b1	-0.6846877
129	0x3f5564ee	0.8335713
130	0x3fa9e105	1.3271796
131	0x3f827227	1.0191087
132	0x3cd12b4c	0.02553334
133	0xbe8ff564	-0.28116906
134	0x3f879177	1.0591267
135	0xbd7eaab9	-0.062174533
136	0xbd33b26c	-0.04387133
137	0x3dba0662	0.09083249
138	0x3cfc5251	0.03080097
139	0x3f875fe9	1.0576144
140	0xbd211f63	-0.039336573
141	0x3f78c88f	0.9718103
142	0x3f52b4ed	0.8230732
143	0x3f86436d	1.0489327
144	0x3ea83327	0.32851526
145	0x3f6415e3	0.89095896
146	0x3f8028d3	1.0012459
147	0x3f47254f	0.77791303
148	0x3f835fb3	1.026358
149	0x3f9c4b4e	1.2210481
150	0x3f7b57e4	0.98180985
151	0x3f85b084	1.0444493
152	0x3f5f068b	0.8711936
153	0xbca98f6f	-0.020698277
154	0x3f6cf5df	0.9256267
155	0x3fbd75b4	1.4801545
156	0x3fa953f8	1.322875
157	0xbd93d05e	-0.07217477
158	0xbcd2a3ee	-0.025712933
159	0xbd598871	-0.053108636
160	0x3f6f4bf0	0.93475246
161	0x3f596515	0.84919864
162	0x3f76a47e	0.96344745
163	0x3f65a040	0.8969765
164	0xbd4c3332	-0.04985351
165	0x3e9fabdb	0.31185803
166	0x3f7aefc9	0.98022133
167	0x3f648dbb	0.89278764
168	0x3faaa70d	1.333223
169	0xbf1ea1e3	-0.6196577
170	0x3f7ff789	0.99987084
171	0x3f749e9f	0.95554537
172	0xbd98bff7	-0.074584894
173	0x3f7e0154	0.99220777
174	0x3f86a912	1.0520346
175	0x3f7ee76f	0.9957189
176	0x3fa441df	1.2832602
177	0xbf2ebddb	-0.68258446
178	0xbcb31974	-0.021862723
179	0xbf2ab593	-0.6668331
180	0x3f462395	0.77398044
181	0x3f6eec9e	0.933298
182	0x3f830abd	1.0237652
183	0x3f76c3e7	0.96392673
184	0x3f6a813b	0.9160344
185	0x3d02d85b	0.031944614
186	0x3f4982d2	0.7871524
187	0xbdcfff4f	-0.10156118
188	0x3fc77f1d	1.5585667
189	0x3f78442d	0.9697903
190	0x3f7ede6a	0.99558127
191	0x3f80d07c	1.0063624
192	0x3fb7851f	1.43375
193	0x3fae755a	1.3629563
194	0x3f7f7c58	0.9979911
195	0xbd49396e	-0.049127035
196	0x3f880ee3	1.0629543
197	0x3f8226ff	1.0168151
198	0xbd88aaa4	-0.06673172
199	0x3f665ef4	0.89988637
200	0xbdbe1629	-0.092815705
201	0xbf1f5a7a	-0.6224743
202	0x3f60bb50	0.87785816
203	0xbef59f0b	-0.47972903
204	0x3fa7dcf1	1.3114301
205	0x3f7a7de0	0.9784832
206	0x3f47fc55	0.78119403
207	0x3fc0acd0	1.5052738
208	0x3f88230b	1.0635694
209	0x3fb8d217	1.4439114
210	0x3f71d776	0.9446939
211	0x3f6e6478	0.93122053
212	0x3fc503fb	1.539184
213	0x3f736fde	0.9509257
214	0x3fc90fca	1.5707943
215	0x3f5955b7	0.84896415
216	0x3fb2ee8e	1.3979051
217	0x3e940c26	0.2891552
218	0x3c2eaf4c	0.010661911
219	0x3fb4da7e	1.4129179
220	0x3f879a8d	1.059404
221	0x3f9c58bd	1.2214581
222	0x3d8bcb79	0.06825919
223	0x3f79472c	0.97374225
224	0x3fb24791	1.392809
225	0x3cbba1bc	0.02290427
226	0x3f65c8af	0.89759344
227	0x3f589f5b	0.8461816
228	0x3fab78f8	1.3396292
229	0x3eddd65c	0.43327606
230	0x3fb99de4	1.4501309
231	0x3f50f762	0.81627476
232	0x3f70fa08	0.9413152
233	0x3fa74a5e	1.306957
234	0x3f5d9a35	0.86563426
235	0x3f8501bf	1.0391158
236	0x3f558ba6	0.8341621
237	0x3f36e35e	0.71440685
238	0x3f70cc26	0.94061506
239	0x3f74f647	0.9568829
240	0x3fbaa101	1.4580384
241	0xbd62649b	-0.055271726
242	0x3f337d07	0.7011265
243	0x3fa7bab2	1.310385
244	0x3f49c1b1	0.78811175
245	0x3f5f0a0f	0.87124723
246	0x3f81b1f2	1.013243
247	0xbc690e97	-0.01422467
248	0x3f65897d	0.89662915
249	0x3f7e52c4	0.9934504
250	0xbdc5df9d	-0.096617915
251	0x3f820f46	1.0160911
252	0x3f93f512	1.1559165
253	0x3f5addb6	0.85494554
254	0x3f6524f1	0.89509493
255	0xbf0c66ca	-0.54844344

network.8.weight f4 [3, 256]
0	0x3eb17756	0.3466136
1	0xbeeb16a1	-0.45915702
2	0x3f25d7c3	0.6478235
3	0xbdabb629	-0.08384354
4	0xbe04f4f5	-0.12984069
5	0xbd3c46b0	-0.04596585
6	0x3f7368ae	0.95081604
7	0xba97698c	-0.0011551841
8	0xbe4294f9	-0.19002141
9	0xbca720a9	-0.020401316
10	0x3ee31a26	0.44355887
11	0x3f3f71ee	0.7478322
12	0x3f973f3d	1.1816174
13	0x3f70058a	0.9375845
14	0x3e9685f1	0.29399064
15	0xbdf8c4c3	-0.12146904
16	0x3f8e3d6a	1.1112492
17	0x3e68c0f1	0.22729851
18	0x3e1c203a	0.15246668
19	0x3f311415	0.6917127
20	0xbf0e7304	-0.5564425
21	0x3e17b7c7	0.14816199
22	0xbe17b3bd	-0.14814658
23	0xbded50fa	-0.11587711
24	0x3f12c336	0.5732912
25	0x3f42bac4	0.7606623
26	0x3f419f68	0.7563386
27	0x3f75bff4	0.9599602
28	0x3f74204a	0.9536177
29	0x3f48a061	0.7836972
30	0x3f446f4e	0.7673234
31	0x3f0899d4	0.53359723
32	0x3e6a392a	0.22873369
33	0xbd57590a	-0.05257515
34	0x3f3dae02	0.7409364
35	0x3f8b4f9d	1.0883671
36	0xbdb7fb4a	-0.089834765
37	0x3dfb44f7	0.122690134
38	0xbbb08bcc	-0.005387759
39	0x3ef6c387	0.4819605
40	0x39b1377b	0.00033801407
41	0xbd67d66c	-0.056600973
42	0x3e7adfd8	0.24499452
43	0xbedad278	-0.427387
44	0xbd7ec3c1	-0.062198404
45	0x3efb289a	0.49054414
46	0xbe019850	-0.12655759
47	0x3f8a6c6f	1.0814341
48	0xbd4de42c	-0.05026643
49	0xbe930a82	-0.28718954
50	0x3e13e1f7	0.14441667
51	0xbd7a6aa5	-0.06113686
52	0xbd916902	-0.07100107
53	0x3e987446	0.2977621
54	0x3f05760f	0.5213327
55	0x3f47636d	0.77886087
56	0x3e530d49	0.20610537
57	0x3cd8b6bd	0.026454324
58	0xbdbcd466	-0.09220199
59	0x3d235c52	0.039882965
60	0x3f7b03be	0.98052585
61	0x3bec408d	0.0072098435
62	0x3f343fab	0.7040965
63	0xbccd0e33	-0.025031185
64	0xbe069906	-0.13144311
65	0xbdfe558e	-0.12418662
66	0x3ef759ab	0.483106
67	0x3f22630f	0.634324
68	0xbca64396	-0.0202959
69	0xbde69b04	-0.11260036
70	0x3e34e857	0.17666756
71	0x3e5e7fbd	0.21728416
72	0xbdaab042	-0.083344
73	0xbda1cb0a	-0.07900055
74	0x3f58fba4	0.84758973
75	0x3f82ebba	1.0228188
76	0x3f387164	0.7204802
77	0x3f2eb85b	0.68250054
78	0xbd480c20	-0.04883969
79	0xbdaaf341	-0.08347178
80	0xbf8e206a	-1.1103642
81	0x3e9851ec	0.2975
82	0x3f2722fe	0.6528777
83	0x3f3f10cd	0.7463501
84	0xbdd14685	-0.10218529
85	0xbd9c10d4	-0.07620397
86	0x3c22e5ba	0.009942466
87	0xbc9ebc89	-0.01937701
88	0xbe87d90b	-0.26532778
89	0xbda490f3	-0.08035459
90	0x3e400b53	0.1875432
91	0xbd61823f	-0.055055853
92	0xbd9bf7ab	-0.07615598
93	0x3f221afd	0.6332243
94	0x3d86e914	0.06587425
95	0xbce4f965	-0.027950952
96	0xbd81152d	-0.06302867
97	0xbd861748	-0.06547409
98	0xbdeeb4f7	-0.1165561
99	0xbe9ee47b	-0.31033692
100	0x3e78e2ec	0.24305314
101	0x3eed0099	0.46289518
102	0xbc5c31ae	-0.013439579
103	0xbf518472	-0.8184272
104	0xbd87a064	-0.06622389
105	0xbd2610ff	-0.040543552
106	0x3c4ce45d	0.012505618
107	0x3f814eac	1.0102134
108	0xbd35acfc	-0.044354424
109	0xbf4102bf	-0.75394815
110	0xbd6f4919	-0.05841932
111	0x3f0cee2c	0.5505092
112	0x3f59dd6c	0.8510349
113	0x3f2dacc7	0.6784176
114	0x3ca4d406	0.020120632
115	0x3f9be805	1.2180182
116	0x3f1ad6dd	0.60484105
117	0xbe097d68	-0.13426745
118	0x3f0a5051	0.54028803
119	0xbd5753ed	-0.052570272
120	0xbd2bb797	-0.04192313
121	0x3f20ac75	0.6276315
122	0x3f5ed1fb	0.87039155
123	0xbe938491	-0.28812078
124	0x3ce55d49	0.027998583
125	0x3f294702	0.66123974
126	0x3f4b10ae	0.79322326
127	0x3f35c571	0.71004397
128	0xbf0f35c5	-0.5594142
129	0x3ea2e8f1	0.31818345
130	0x3f76c5d9	0.9639564
131	0xbe0e3e69	-0.13890995
132	0x3dba3a96	0.09093206
133	0x3e65f8c3	0.22458176
134	0xbd7ba2a6	-0.06143441
135	0x3c56f7dd	0.013120619
136	0xbd023036	-0.03178426
137	0x3d9632b9	0.07333893
138	0x3e40fca1	0.1884637
139	0xbd5cea59	-0.05393443
140	0xbe1f3741	-0.15548421
141	0xbe09bc5e	-0.13450763
142	0xbda6f2ce	-0.0815178
143	0xbdb390ed	-0.08767877
144	0x3f3f44ef	0.7471456
145	0xbf650294	-0.8945706
146	0xbdb38c72	-0.08767022
147	0xbe74c8a4	-0.23904663
148	0x3f386c5d	0.7204035
149	0x3f5ea9dd	0.8697794
150	0xbdee7775	-0.11643878
151	0x3ed44525	0.41459003
152	0xbda9c1dc	-0.08288929
153	0x3cc50fcf	0.02405539
154	0x3afd1f27	0.0019311652
155	0x3f3a027a	0.7266003
156	0x3f7b5a6e	0.9818486
157	0x3a807680	0.0009800941
158	0xbc4e5a63	-0.012594792
159	0xbe8bce12	-0.27305657
160	0xbd67d31f	-0.056597825
161	0xbf25fdde	-0.64840496
162	0xbdd2f3ef	-0.10300433
163	0x3e132d75	0.14372809
164	0xbdb4bea9	-0.08825428
165	0x3f3827a4	0.71935487
166	0xbe07eb66	-0.13273391
167	0xbdf69ac6	-0.120412394
168	0x3d37bd6a	0.044858374
169	0xbf21a0b9	-0.6313587
170	0xbdf425a9	-0.119212456
171	0xbdaed631	-0.085369475
172	0xbc094f46	-0.008380717
173	0xbdbba907	-0.09163099
174	0xbe06e213	-0.13172178
175	0xbd97318e	-0.07382499
176	0x3f1eae2e	0.6198453
177	0xbea8d0f0	-0.32971907
178	0xbd91f789	-0.07127292
179	0xbece1286	-0.40248507
180	0x3d9e05a7	0.07715922
181	0xbdc0a1c1	-0.09405852
182	0xbda83cba	-0.08214708
183	0x3e150444	0.14552408
184	0xbd933b2c	-0.071890205
185	0x3d846fb4	0.06466618
186	0xbddb5e1a	-0.10711308
187	0xbd5eeabc	-0.05442308
188	0x3f48c789	0.78429466
189	0xbd98c27d	-0.07458971
190	0xbea2e2bf	-0.3181362
191	0xbd7c7c27	-0.06164184
192	0x3f4c042e	0.7969388
193	0x3f12a8b7	0.5728869
194	0xbe0a0ea6	-0.1348215
195	0x3e44c877	0.19217096
196	0xbd97a4a1	-0.07404447
197	0xbd5bfccd	-0.053707886
198	0xba129340	-0.00055914
199	0x3f3e632c	0.74370074
200	0x3c30ce34	0.01079135
201	0xbf3d838b	-0.74028844
202	0x3ec18611	0.37797597
203	0xbe37b971	-0.17941834
204	0x3f8c1ee4	1.0946927
205	0xbdc93607	-0.09824758
206	0xbe5577e6	-0.20846519
207	0x3f0a3659	0.5398918
208	0xbdcadeb5	-0.09905759
209	0x3e498e51	0.19683196
210	0xbd9c0c58	-0.07619542
211	0xbe0a2796	-0.13491663
212	0x3f3047cc	0.68859553
213	0x3efd931b	0.49526295
214	0x3f27464f	0.6534166
215	0x3f5d22eb	0.86381406
216	0x3f84f77e	1.0388029
217	0x3f25e92b	0.6480891
218	0x3e104997	0.14090572
219	0x3f49daa6	0.78849256
220	0xbd87864f	-0.06617414
221	0x3f0dc252	0.55374634
222	0xbed0044d	-0.4062828
223	0xbd44e51e	-0.048070066
224	0x3f4c9bf0	0.7992544
225	0x3f3e1eca	0.7426573
226	0x3bd14617	0.006386529
227	0x3f6c872b	0.9239375
228	0x3f57888b	0.84192723
229	0x3f12f005	0.5739749
230	0x3f86c576	1.052901
231	0xbddc0dbc	-0.10744807
232	0xbd14c65a	-0.036321975
233	0x3f87c4eb	1.060697
234	0xbe03c174	-0.12866765
235	0xbd3fb107	-0.046799686
236	0xbe1a729f	-0.15082787
237	0xbdd621ba	-0.104556516
238	0xbd90c205	-0.07068256
239	0xbcdfe811	-0.027332338
240	0x3f3b215f	0.73097795
241	0x3c0491f5	0.0080914395
242	0x3f3725f4	0.71542287
243	0x3f681a45	0.90665084
244	0xbe32a6b6	-0.17446408
245	0x3fa72b8b	1.3060163
246	0xbdbb0ea0	-0.09133649
247	0x3e82d5d8	0.25553775
248	0x3f70fdbb	0.9413716
249	0xbda79a72	-0.08183755
250	0x3b205c4a	0.002446907
251	0xbd567d79	-0.052365754
252	0x3f0c7309	0.5486303
253	0x3f71ff47	0.9453015
254	0xbf017940	-0.5057564
255	0xbe9a3211	-0.30116323

network.8.bias f4 [3]
0	0xbf45fb20	-0.7733631
1	0xbf1e01a4	-0.61721253
2	0xbe4ac989	-0.19803442
