mountaincar_cl_project/runs/periodic/fixed/seed_1/online_stream_model.pth (torch, 536437 bytes, 8 tensors)

network.0.weight f4 [256, 2]
00000000: 6c9d 2b3e 107a 1240 e04c 083f 333b c13f
00000010: 2901 353f 4012 4dbd 82e4 aa3e b6c6 14bf
00000020: 3f1d f93e 6165 5c3f 9ea4 563d 1fa6 873f
00000030: afff ca3e 861d c9be 26bc a7bb e568 c03f
00000040: 5be8 123f 9227 d13e af84 d1bd 7159 e13f
00000050: a0cc 763e a827 fbbf 5f52 e73d b7ea d23f
00000060: 02ea 06bf 3646 25be ff88 0c3f 93f7 0a40
00000070: a019 a8bc 8225 a43e b1e8 c6bd bdce a23f
00000080: 10a7 08bf 3f39 143f f5b0 853e eaac 433f
00000090: b8f4 cbbd c425 30c0 d2ad e33e 944a 4a3e
000000a0: 6094 0bbe f5b5 283f d25c d83e abc7 2b40
000000b0: 589e 013e d3a9 e7bf 6ba0 173e c530 e13f
000000c0: 0a7e 593e cbb6 2140 a498 81be 2053 82c0
000000d0: b2cd 873e c014 c43f 77e8 d6be c65a 9b3e
000000e0: cca6 513b 6de1 e23f 9ac1 0fbf 83ea a9bf
000000f0: bc6f a83d 51bd b43f 73eb c03d 0498 d6bf
00000100: a1e5 aebd ce11 c13f 4f6d 353e 2f4d d0be
00000110: 607a 383f 95da ad3f 501f 773e dae5 ea3e
00000120: ddb9 0cbf 4a41 8e3f b0e6 65bd 454c 1f3f
00000130: 1cb1 1a3e 3c6b ae3f f264 cc3e ae42 23bf
00000140: 27be a53e f8d7 b03f 4817 fc3d ad93 0b3f
00000150: 63a7 f6be 9ddf 0abd befc a03c f310 97bf
00000160: 80b2 02bc 31ef 263f 60ba 37be efd1 31bf
00000170: 38a3 9e3d 91ce d4be 756d 013f ea9a 27bf
00000180: caf4 4c3f ac3f bb3f ab6f a0be 5f1d 333f
00000190: 9145 2f3f 4b90 33bf 3106 97bd 2d88 11c0
000001a0: 97b6 763d f058 01c0 c1ec 9d3e 53f1 0dc0
000001b0: d9d7 213f e1ac 03bf 8459 273e 58ae 95bd
000001c0: fe37 193d 31fa cabf 3442 8d3e 78e8 a43f
000001d0: b76e f33d 6512 e53f a5b0 163f 5eb6 2340
000001e0: f7ac f2be cf7a 263f c396 fa3d 7517 dcbf
000001f0: 3798 d33c 53e0 2ac0 d9d6 003f dad3 ca3e
00000200: 6083 eb3d 10f7 eb3f ccdb 243e 3eb1 0dbf
00000210: b471 9a3e 2a60 21c0 79a4 233f 4824 633e
00000220: 2a0f 123e 33b9 d73e a541 a7be 6ff6 dcbf
00000230: 453b 99be 64c9 a53f 3f19 543e 0fd1 c0bf
00000240: 461b 533e 57d9 6dbf 643e 873e cbfe 293f
00000250: 846d 9cbe 8882 02c0 69ab 93be 5fac 0f3f
00000260: eb7e e2bd 37ab bf3f a6f6 c2be 5959 05c0
00000270: ef72 fabe 8016 06c0 ed57 653c afc5 9cbf
00000280: 0aad bebe 6ca6 30bf 9d27 f63d 6e8e e43f
00000290: 01bf ff3e ef5d b23e e375 a53e 6e16 b4bf
000002a0: 3bee 18be aac0 c83f c439 39be 3a63 e33e
000002b0: 182d ad3e c7f4 47be eb0a 27bd f248 b83e
000002c0: 9457 813e 4764 a0be d6e8 c3bd e1e9 c03f
000002d0: 3b53 fc3e d04e d93e d312 1a3e ec46 d5bf
000002e0: 5cce c43e ffd7 fdbf d609 f33e 5b3f 1ebf
000002f0: 8a77 dd3d 8606 c33f a0ee 99bc 1bb2 3dbf
00000300: e00c 5f3d 08f1 9fbd 9de4 97bb da05 1e40
00000310: f533 dd3c f7c2 c3bf e48c bf3d 4c48 b93f
00000320: dc76 0d3f 3c12 e13e 42c6 7c3e c1c5 8cbf
00000330: becd 0d3f 8739 203f 3515 3a3d 9a4d 673f
00000340: ecbe 713e cb6c 693f 29ea 6b3d 4ee1 10c0
00000350: c5b8 083f e713 cabe 0c65 313e da78 03bf
00000360: 8e0a f43c 4721 d3bf c6a2 57be ba38 683e
00000370: 9cf2 193e 1f2e e73f de91 e33e 455a 313f
00000380: 60db 893c ff27 023f d911 eb3e 3603 323f
00000390: 5999 63bd e15e d43f 9d38 063f 552b 49c0
000003a0: 8909 77bd 2b5b 3f3f a380 853e 37c7 f03e
000003b0: c0be 87bd 799b 043f 6c08 6bbe 2a55 74be
000003c0: b29d 383f 8859 0f40 3f35 0c3e 07dd c83f
000003d0: f8c9 13be ae39 7bc0 9847 03be 9efb fdbe
000003e0: d804 1abe 79e1 c03f 6219 d53c 9ec1 8bbf
000003f0: defd 803e d529 333f 302c 563d c806 d1be
0.1675927 2.2887 0.532423 1.5096191 0.70704895 -0.050066233 0.33377463 -0.5811571
0.48655125 0.8609219 0.052403085 1.0597571 0.39648196 -0.39280337 -0.0051188646 1.5032011
0.57385796 0.40850502 -0.102303855 1.760542 0.24101496 -1.9621477 0.11295008 1.6477879
-0.5270082 -0.16140065 0.5489654 2.1713607 -0.020520031 0.32059866 -0.09712351 1.2719342
-0.5337992 0.5789985 0.2611157 0.7643572 -0.09958786 -2.752305 0.44468552 0.19755012
-0.1363082 0.65902644 0.42258316 2.6840618 0.1265806 -1.8098701 0.14807288 1.7593008
0.21239486 2.5267818 -0.25311768 -4.072647 0.2652412 1.5318832 -0.41974232 0.30342692
0.0031990288 1.7725044 -0.5615479 -1.3274692 0.08224437 1.4120275 0.094199084 -1.6765141
-0.08539892 1.5083559 0.17717479 -0.40683886 0.7206173 1.3582331 0.24133039 0.45878488
-0.54971105 1.1113675 -0.056128204 0.62225753 0.15106624 1.3626475 0.39920765 -0.6377362
0.32371637 1.3815908 0.12309128 0.5452221 -0.4817458 -0.03390466 0.019651767 -1.1802047
-0.007977128 0.6520873 -0.1794219 -0.6946096 0.07745975 -0.41563848 0.50557643 -0.65470755
0.8006102 1.4628806 -0.31335196 0.6996669 0.68465525 -0.7014205 -0.07374228 -2.2739365
0.060232725 -2.0210533 0.3084469 -2.2178543 0.6321998 -0.5143567 0.16342741 -0.07308644
0.037406914 -1.5857602 0.2758957 1.2883444 0.118863516 1.7896239 0.5886329 2.5580058
-0.47397587 0.6503114 0.12235787 -1.7194659 0.025829418 -2.6699417 0.5032783 0.39614755
0.11499667 1.8434772 0.16099471 -0.55348575 0.30164874 -2.5214944 0.6392284 0.22181809
0.14263597 0.42133483 -0.3266727 -1.7262706 -0.29928032 1.2952085 0.20712756 -1.50638
0.20615873 -0.9290976 0.26414788 0.6640441 -0.30552304 -2.039217 -0.28841713 0.5612239
-0.11059364 1.4974126 -0.38078803 -2.0835783 -0.48915812 -2.0951233 0.013998014 -1.2247828
-0.37241393 -0.6900394 0.120192744 1.7855966 0.49950412 0.3483729 0.32316503 -1.4069345
-0.14934628 1.5683796 -0.18088442 0.4441164 0.33823466 -0.19526969 -0.040781897 0.35993153
0.2526213 -0.31326506 -0.09565894 1.5071374 0.4928225 0.42442942 0.15046243 -1.6662269
0.3843869 -1.9831542 0.47468442 -0.6181542 0.10813816 1.5236366 -0.018790543 -0.7409989
0.054455638 -0.07809645 -0.004635407 2.4691072 0.027002314 -1.5293874 0.09353045 1.4475188
0.5525949 0.43959224 0.24685004 -1.099785 0.5539206 0.6258778 0.04543038 0.90352786
0.23607987 0.9118163 0.05759636 -2.2637515 0.53406936 -0.3946831 0.17323703 -0.5135628
0.02979019 -1.649453 -0.21058187 0.2267789 0.15033954 1.806095 0.44447225 0.69278365
0.016828239 0.5084228 0.45912054 0.6953615 -0.055566166 1.6591455 0.52430135 -3.1432698
-0.060311828 0.74748486 0.26074705 0.4702699 -0.066281796 0.5179973 -0.22952431 -0.23860613
0.72115624 2.2398396 0.13692187 1.5692452 -0.14432514 -3.9253955 -0.1282028 -0.4960603
-0.1504091 1.5068809 0.02601308 -1.0918462 0.25193685 0.69985706 0.052288234 -0.40825486

network.0.bias f4 [256]
00000000: 49aa 88bd b9a3 88bd 8b21 d7be a931 2cbf
00000010: 626a aabc a020 f9bc e53d 0dbd 263f daba
00000020: 0824 1bbf 025c 7dbd 3a7d 44bd 032a 39bd
00000030: aa97 e6be fa02 14be 841f 67be 20c6 cbbd
00000040: 479a edbe 82e2 28bd cd4a debd eb88 8cbe
00000050: 51a5 2abf 8957 07be a7c8 7f3d fa9b 57bd
00000060: 6de0 b3bd 7656 77be 3a12 1d3e ca4f 13bf
00000070: cf72 98bd 1aa9 e2be 06dd 06bd 4163 223d
00000080: 04df dbbd ea33 b6bd bcd2 67be 358d 02bf
00000090: 9fd3 e7be dcf6 4cbe ab17 3dbd ffd8 e3be
000000a0: 96b6 00bd c419 27be 0985 aebe a8fd 8c3d
000000b0: 30ba 1cbe 16dc d7be 7a4b 71be 96f2 8abe
000000c0: 53a7 9bbe f8df 30bf 20e9 fabe fd29 afbd
000000d0: 4463 433c dc66 64bd fee1 cfbe 4dc4 d2be
000000e0: cf9a c03d 2951 31bd 13b1 47bd 3608 2abe
000000f0: 6e43 33bf a3d2 6c3d ea4d 06bd 4641 b9be
00000100: 9258 4ebd fabc f1be 81a1 253e 77a8 28bf
00000110: 9256 ba3d 4805 85be 1c3b 84be 8d85 a0bc
00000120: 689e a73c 0ee3 72be 1341 73be c7b8 23bf
00000130: 8e95 c6bd 146b a7be 7d22 d8be b04e 8c3d
00000140: 51ad 34bf bb10 57bd 429e 8f3e 5bcc 96bd
00000150: fc7f 14be c4a1 c1be d82e 453e 5660 99bd
00000160: aaac c8be b24d 9abd 0eed 8d3e da95 933d
00000170: ab80 afbd 7800 88be e341 33bd 9766 073d
00000180: 7574 b4be 2093 5ebb a288 aa3d 6ef5 26bd
00000190: b810 2fbd e28d 09bd 2016 1dbd 94c7 9dbc
000001a0: 5699 44bd 2aff 883c 7078 71bd e3cd 02bf
000001b0: cc6b bc3d 66a5 91be 39a6 6abd a684 00bf
000001c0: 201d 37bd cb9a 18bd 4b53 c4bd e6dd 943e
000001d0: b40a 69bd 5678 27bc 37ee 8bbe ea20 b5be
000001e0: 636a 57be d9a1 c63d f5bd 2fbe 4de8 d1be
000001f0: 4007 14be 881f 823d ce9c a3be 4627 90be
00000200: b2ae e3be 27a2 86bd a9e0 dfbe f193 213d
00000210: f17b 553e 4024 f6bd 24eb f33c abda 15bf
00000220: 91e2 90be 7000 76be 701c 59be 8712 0dbd
00000230: bc01 e0bc 6850 01bd 9636 69be 0120 c4be
00000240: 3291 a9bd 6c6c 26be 565f babe a91a 3b3d
00000250: 70f2 33be 77d0 97bc 2034 98be 0e8a 19bd
00000260: 1adf e3bd 2953 cc3d 6798 8dbe 41e8 31bf
00000270: aac1 4f3e ebdd 63bd f331 b5be cdfa 9c3d
00000280: abb0 fabe 58bf b73d fcd5 abbe 5bed 1bbf
00000290: 34c9 83ba b25e 81be e827 d7be eadb 70be
000002a0: b3c5 1abf e4b4 703c c52f 2abf a360 d6be
000002b0: ecdb 97bd df38 a1bd 4ddb b5be f2fc a6be
000002c0: 7104 743d f492 983e 10a3 b2be f0c7 2fbe
000002d0: e76a f1bd 3df8 07be 5049 0fbf 234d 17bf
000002e0: 0642 f1bb 0c56 c3bd 520b 10bf 40f2 0bbe
000002f0: 2f59 913d 8418 4abd 9b98 cbbd 621e 06bf
00000300: e632 50bd 7f72 d9be 40aa 43bd 2247 83bd
00000310: ba27 68bd 84fe 27be 4a58 6ebe d955 bb3d
00000320: 2b68 91be 08d1 46be 72c8 fabe e1e9 1bbf
00000330: 8401 c8be e5fb 88be ece4 31be 0ae6 503d
00000340: 9a31 cfbe ce77 f6bd 9a6f 17bf 465b 27bf
00000350: 6128 76be 42d0 853e be79 3abe cc6b 72bd
00000360: 5964 2fbf 3550 10bf f412 00be b990 17bf
00000370: baa7 0fbf 70a2 d7be b9d9 9ebe 3bec c3be
00000380: 64e8 75be fc13 34be b3a6 94be d90c a53d
00000390: 28e6 f9bd c48e b73d 8331 bdbd 41d8 d5be
000003a0: 7838 6f3d 67c0 6ebe e7a1 8abc 0033 63bc
000003b0: a4d4 edbd c3ea 07bf ee89 9b3d 7a9b a9be
000003c0: 48d4 15be 5f7d 613c 491d 89bd 146d 81be
000003d0: 8d87 e2bd 28a8 29be 905f dcbe 55f1 913d
000003e0: baae 19bf f6ec 11bf ad5d e4bd dc15 c4be
000003f0: 5bf2 0fbf 9440 ffbc 49d2 17bd 83b2 ddbe
-0.06673104 -0.066718526 -0.4201778 -0.67263275 -0.02080268 -0.030411065 -0.034482855 -0.00166509
-0.60601854 -0.061855324 -0.047970988 -0.04520608 -0.45037585 -0.1445426 -0.22570616 -0.09949899
-0.46406767 -0.04123164 -0.10854111 -0.2744821 -0.666585 -0.13216986 0.062447216 -0.052638985
-0.0878304 -0.24154076 0.15338984 -0.57543623 -0.07443773 -0.4426964 -0.032925628 0.039645437
-0.10735896 -0.088966206 -0.22638983 -0.50996715 -0.45278642 -0.20016044 -0.04616515 -0.44501492
-0.031424128 -0.16318423 -0.34085873 0.068843186 -0.153054 -0.421601 -0.23563948 -0.27138203
-0.30401096 -0.6909175 -0.49005985 -0.085529305 0.011925522 -0.055762157 -0.40602106 -0.4116539
0.094045274 -0.04329029 -0.048752856 -0.16604695 -0.70024765 0.057818066 -0.03278915 -0.36182612
-0.050377436 -0.4721449 0.1617489 -0.65882057 0.09098543 -0.25980592 -0.25826347 -0.019594932
0.020461276 -0.23719427 -0.23755293 -0.6395382 -0.09696494 -0.32698882 -0.42213812 0.06850946
-0.7057696 -0.05250619 0.2805043 -0.073631965 -0.14501947 -0.3781873 0.1925615 -0.07489078
-0.39194232 -0.075343505 0.2771992 0.07206316 -0.08569463 -0.26562858 -0.043764006 0.03305682
-0.352451 -0.0033962205 0.08326842 -0.040761404 -0.042740554 -0.033582576 -0.03835118 -0.019260205
-0.047997795 0.016723234 -0.05895275 -0.5109541 0.09200248 -0.28446501 -0.05728743 -0.50202405
-0.04470551 -0.037256997 -0.095861994 0.29075545 -0.056894973 -0.010221561 -0.2733018 -0.35376674
-0.21036677 0.09698839 -0.17162307 -0.40997544 -0.1445589 0.0635367 -0.3195557 -0.28154963
-0.4446922 -0.06573897 -0.4372609 0.03944773 0.20848061 -0.12018633 0.02977521 -0.58536786
-0.28297856 -0.24023604 -0.21202254 -0.034441497 -0.027344577 -0.031570822 -0.22774729 -0.38305667
-0.08279647 -0.16252297 -0.3640086 0.045679722 -0.17572951 -0.018532021 -0.29727268 -0.037485175
-0.111265376 0.09976799 -0.27655336 -0.69495016 0.2028872 -0.05563156 -0.3538967 0.07665024
-0.48962912 0.08972043 -0.33561695 -0.6090905 -0.001005447 -0.2526756 -0.42022634 -0.2352139
-0.60457915 0.014691565 -0.6647914 -0.41870603 -0.07414994 -0.078721754 -0.35518876 -0.32614857
0.05957455 0.29799616 -0.34890032 -0.17166114 -0.11787968 -0.13278289 -0.5597124 -0.59102076
-0.007362607 -0.095378965 -0.56267273 -0.1366663 0.070970885 -0.049339786 -0.099412166 -0.5239011
-0.05082979 -0.42470166 -0.047769785 -0.06410052 -0.05667851 -0.16405684 -0.23275867 0.091472335
-0.28399786 -0.19415677 -0.48981053 -0.60903746 -0.39063656 -0.2675468 -0.17372483 0.051000632
-0.4046753 -0.1203457 -0.59154665 -0.6537365 -0.24038841 0.2613545 -0.18210503 -0.059184834
-0.68512493 -0.56372386 -0.1250723 -0.59205204 -0.56115305 -0.42116117 -0.31025484 -0.38266167
-0.24014431 -0.17585748 -0.2903343 0.08059091 -0.12202102 0.08962777 -0.09237959 -0.4176655
0.058403462 -0.23315583 -0.016922904 -0.01386714 -0.116128236 -0.5309259 0.075946674 -0.33126432
-0.1463176 0.013762801 -0.06695039 -0.25278533 -0.110610105 -0.16568053 -0.43041658 0.071261086
-0.60032237 -0.570022 -0.1115068 -0.38297927 -0.5622918 -0.031158723 -0.037065778 -0.43300256

network.3.weight f4 [256, 256]
00000000: bd06 d6be eda8 fcbc a0c2 193d 145a 33bd
00000010: 136e 20bb f894 ccbe 9439 203d dcde 0abe
00000020: 4a69 48bd 1ad5 71be 6a06 863e 0974 f5bd
00000030: 9428 cabe 18c6 0bbe f078 e5bb 5b32 40bf
00000040: 9e3b e3be 21f1 0bbd 834b 743e 7c6c f43c
00000050: b80e 03bc 9703 8ebe 0270 0c3e 599b 26bd
00000060: fd66 c3bf 830e 1e3e efd4 15bd 4032 4f3c
00000070: 698f 99bf 9e77 cebd 7b11 18be 2391 dd3d
00000080: 673b 6abf c95f 59bd 3508 b1be d035 fabc
00000090: 37eb adbe 8248 76bd 1b08 05be ae54 49bd
000000a0: e7f3 893d f051 2b3d 640e d8bd 963b 523d
000000b0: c84f fb3c bae9 36bd ec50 783d 4831 8ebc
000000c0: 524b 85be cc67 bbbc 464b 1dbd e58b 903d
000000d0: fc14 103f 94b0 8b3e 8e47 73bd caee 533d
000000e0: 47ce d83d 619a 263d f381 5ebe 4729 52be
000000f0: 464a 1c3d 0fb8 df3d d84d 233e 60ce 23bd
00000100: f33a cebe a0a4 58bd 562d 75bd 7033 d53b
00000110: bf2d 313d a0b0 9fbd 25f2 00bf 62c6 323e
00000120: 72dd a43d 1858 2f3d f210 b7bd 909f 94bc
00000130: 418e 8abe 4de3 fdbd 59a1 3abe 6e66 133e
00000140: a8f8 b5bc b9c7 f9be 7646 69bd cb32 42bb
00000150: 0841 36bf ae39 353d 5a39 bfbc 7556 6d3d
00000160: 6cc5 42bd a2a7 78be a859 23bc ba67 043e
00000170: 16a2 ef3d b093 cebc c160 d8be 84c7 663d
00000180: 98d7 1fbc 8eaa 35be a126 913c d3fd 92be
00000190: 94d3 2c3d 32fe 7a3d c8f8 cfbc 238f 04bf
000001a0: 00d8 8e3d 33e5 1e3f 903d 833d b690 463d
000001b0: 311c b1bb 4b80 c93c a1e5 78bf 9248 253d
000001c0: 74c6 353d f5c0 053c 0f1e a6bf db02 a4bb
000001d0: 77d4 9cbe 3ccf da3c 6c6a 1bbd 62b9 70bd
000001e0: 8551 5ebe a32b b2bd 3765 3c3e 92d1 513d
000001f0: 445f 34bf 09c3 863d 1cdf 03bd 6c83 43bd
00000200: a349 1f3d c5de 733e 98c4 1e3c 1430 16bd
00000210: fc50 9dbc 24d1 9dbf bbe7 f63d 342c 983c
00000220: ecae e6bd 041a 57be d39a 94be 3634 9ebe
00000230: b578 81be 24f2 85bd 4680 0cbf d8d6 18bd
00000240: d877 39bd 3cf8 8b3c 45d5 b0be 2031 423e
00000250: 78f0 34bc 1474 563e 9ca4 07bd e224 153d
00000260: 3796 8bbe b73f 293d d4c7 c93c 90a9 bb3b
00000270: 7f08 38bd ea70 db3c 5044 1a3c 10f9 953d
00000280: c003 55bb bf6d 913d 3048 f73b 1424 a43c
00000290: 2d59 ce3d c2ac 613d f0e3 773d ab43 7e3d
000002a0: 42a6 303d 7c7f a43e 00b1 783b 2081 9ebd
000002b0: 8945 a7be 893f 86bf 9810 773c ccdf b0bc
000002c0: 3940 ef3d bbf0 0a3d 6800 1dbd 14b8 1d3d
000002d0: df18 04bf 485c 11bf d7cc eb3d a27a 19bd
000002e0: 5a07 4ebe c797 53bf a03c e43b 30bc ebbb
000002f0: 6ba5 b53d f193 a1bc e523 abbe 947b 2f3d
00000300: 388b 3cbc 6a92 7f3d 9129 75bf a754 39be
00000310: 2b94 bc3c 28a8 33bc c9ba ac3d a37b 5fbc
00000320: 8cde eabc 0337 c2be 02db 2d3d 0eed 253d
00000330: e6a0 afbe a585 043e a660 4fbd 60f2 a43d
00000340: c4ce cf3c a3a0 083d 586d 193c 1436 bebc
00000350: 3bed 313d ec45 14bd 44c3 66be 28aa 80be
00000360: 800b 85ba 2773 15bf 0409 a63c 1052 dabb
00000370: f6bd 5e3d 8d60 89be 128b c3be aee9 4bbd
00000380: 7cb4 413d b6aa 1fbd f824 8fbd cbb3 0d3e
00000390: e8ed 273c 3d70 a93c 2da4 90be 2306 0fbf
000003a0: b472 e93d 4e5f 80bd 9442 9c3e dda6 1c3d
000003b0: 095f b1bf 4040 443d 2a7a e63d a080 27be
000003c0: 7885 01bd 87ec 083f a24f 92bf 1e39 a9be
000003d0: 797c 0ebe 0fc9 90be 8cf3 cbbc d73c 093e
000003e0: 3a8a 2abd 1002 fc3b c6ac c7bf 2673 803b
000003f0: b0dd 6fbc f39b 8abe 69bf 483c bce0 9fbc
-0.41802016 -0.030842269 0.037539124 -0.043787077 -0.0024479672 -0.39957404 0.03911741 -0.13561577
-0.048928536 -0.23616448 0.2617677 -0.119850226 -0.39484084 -0.13649786 -0.0070029423 -0.75076836
-0.44381422 -0.034165505 0.2385693 0.029836886 -0.007999115 -0.27737114 0.13714603 -0.040675495
-1.5265805 0.15435223 -0.036580022 0.012646258 -1.199689 -0.10081409 -0.14850418 0.10818698
-0.9149689 -0.053069863 -0.34576574 -0.030543238 -0.33968517 -0.060127743 -0.12991373 -0.049153022
0.06735974 0.04182619 -0.1054962 0.051326357 0.030677691 -0.044656493 0.060624048 -0.017357484
-0.26034027 -0.022876643 -0.038401864 0.07057933 0.5628202 0.27283156 -0.05939441 0.0517414
0.10586219 0.04067457 -0.21729259 -0.20523559 0.03815677 0.10923778 0.15947664 -0.039991736
-0.4027935 -0.052891374 -0.05985769 0.006506376 0.043256517 -0.077973604 -0.50369483 0.1745849
0.0805005 0.042808622 -0.08938779 -0.018142492 -0.27061656 -0.1239687 -0.18225612 0.14394543
-0.022213295 -0.4878519 -0.056951962 -0.0029632326 -0.7119298 0.04424446 -0.023342777 0.05794378
-0.047551557 -0.24282697 -0.009970106 0.12930194 0.11700837 -0.025216907 -0.42261317 0.056342617
-0.009755991 -0.17740843 0.017718615 -0.28709278 0.042193964 0.061277576 -0.025387183 -0.5178091
0.069747925 0.6206848 0.064082265 0.04847785 -0.005404972 0.024597308 -0.97225386 0.04035241
0.044378713 0.00816368 -1.2977923 -0.005005223 -0.30630848 0.026710145 -0.03794329 -0.058770545
-0.21710785 -0.08699729 0.18397985 0.051225252 -0.70457864 0.06580169 -0.032195196 -0.047732756
0.038888585 0.23815449 0.009690426 -0.036666945 -0.019203655 -1.232945 0.12055918 0.018575765
-0.112638324 -0.21006018 -0.29024372 -0.3089921 -0.25287405 -0.06540325 -0.5488323 -0.037314266
-0.045280308 0.01708614 -0.34537712 0.18964052 -0.01104366 0.20942718 -0.033115968 0.036412127
-0.27263042 0.04132053 0.024631418 0.0057270005 -0.044929978 0.02678724 0.009415701 0.073228955
-0.0032503456 0.071010105 0.007546447 0.020036735 0.10075603 0.055096395 0.060520113 0.062076252
0.043127306 0.32128513 0.0037947297 -0.077394724 -0.3267024 -1.0488139 0.01507964 -0.02159109
0.116821714 0.033920985 -0.038330466 0.03850563 -0.5160045 -0.56781435 0.115136795 -0.037470467
-0.20119992 -0.8265347 0.006965235 -0.0071940646 0.088694416 -0.019723864 -0.33425823 0.042842463
-0.011507802 0.06239549 -0.9576655 -0.18098699 0.02301987 -0.010965385 0.08434064 -0.013640317
-0.028670572 -0.37932596 0.04244519 0.040509276 -0.34302443 0.12941606 -0.05062928 0.08054042
0.025367148 0.03335632 0.0093644485 -0.023219146 0.04343913 -0.036199495 -0.22535425 -0.2512982
-0.0010150522 -0.58378834 0.02026797 -0.0066626146 0.05438038 -0.26831475 -0.3819204 -0.0497834
0.047291264 -0.038981162 -0.06989473 0.13838117 0.010249592 0.020683402 -0.28250256 -0.5586874
0.11398831 -0.06268178 0.30519545 0.03824507 -1.3857127 0.047912836 0.1125377 -0.1635766
-0.031621426 0.5348591 -1.1430552 -0.3305139 -0.1391467 -0.28278396 -0.024896406 0.13402115
-0.04163573 0.0076906756 -1.5599601 0.0039199768 -0.014640257 -0.27072105 0.012252667 -0.019516341

network.3.bias f4 [256]
00000000: 0a54 383e 2187 49bd 494f 163e 7555 123e
00000010: 958c c0bb bf22 153e c7ec a8bc 5770 7ebd
00000020: 90d6 73bd db0d 8ebd 9ca3 163e f363 473e
00000030: 69b8 173e 577c 18bd 45cc 43bc 3d17 92bc
00000040: 1c52 d93d f885 2abc 9c1c 80bc e5b8 b63d
00000050: 689b 603e 6aad 79bd 327d 9fbd ebbb 27bd
00000060: 9812 90bd 1bcf 4f3e 6f58 d43d d934 aa3e
00000070: 5d58 5cbd 034e 693e ed32 02bc e217 a53d
00000080: bf05 5f3e 2415 183d f503 89bd 84bc 9c3c
00000090: 4980 d43d 5d81 64bd 14ce 083e da67 bf3d
000000a0: ac01 68bd 67a8 033e 4ed9 ecbc 1e44 19bd
000000b0: ce5f 65bd cbd7 74bd ed52 dd3c 777a e4bb
000000c0: 28d8 f73d dcf7 e93c 1c70 f93c 9f41 2a3e
000000d0: db01 4b3e bed0 cebc 4351 ce3d af6d ac3d
000000e0: 004f 893e 2e57 843d b6f8 2d3e f68f 15bd
000000f0: fc5f 613d 9f98 503e 842a f7bc 161b 763e
00000100: 0f3e 02bc cfc2 8ebc 9371 9b3e 00b5 333e
00000110: b969 fd3d 18df 163e 3cf7 823e 325b be3d
00000120: 6227 e1bc caa1 133e 1da5 c1bc 1bce 163e
00000130: 0151 a63d 1cff 483e 8d23 08bd 083f e5ba
00000140: 8065 3abd c7a8 2e3b 3f24 8dbd 8f67 0dbd
00000150: e1b6 4c3e d1fa 9b3d 9a23 cf3d 16c8 e83d
00000160: 4b1e ec3d 28ce 7ebd 2503 933e 934b 62bd
00000170: 361b 6bbd e8ba 20bd 6f14 f53b 77cd 053e
00000180: d690 763e 0d1c b93d 3f28 eb3d 28c0 823d
00000190: a1f5 4a3e a502 99bd af8d a1bc de6b 88bc
000001a0: 3e68 9c3d 1b45 193e 5b9a 463e 311d e73b
000001b0: 453d 91bd 9408 1e3e 6a7a 79bb 71c6 82bd
000001c0: 7979 7a3d 3000 323e afb6 6bbc 4c0f 223e
000001d0: 7b7c 223e 74f4 87bd dd0b 36bd 7f74 a83b
000001e0: 85d9 7fbd f742 fbbc 1af9 76bd c571 1f3e
000001f0: 1f9c 25bb 9ce0 f0bc 5296 8dbd f845 c7bb
00000200: 3ca1 e63d 729f 743d 3b61 5e3e 3f8e 603e
00000210: e632 0abc 2dbb b2bc fe74 d23d e8eb dfbc
00000220: d9b7 17bd 4379 2f3d e6c3 5b3d 8808 163e
00000230: 79fb 013e 8180 f2bc 6784 ccbc 9c02 83bd
00000240: 32d1 433e 1a23 353e 4a77 093e 9dd5 dbbc
00000250: 4401 0a3e e327 00bd a9da b43d bf36 9e3d
00000260: 7cb1 71bd 9e4b 37bd 8552 213e 096e 473e
00000270: 9b64 1abb 46bb 3a3e 77e1 8b3d 20ac c43d
00000280: cadc de3c 2a55 e63d 8c9b 5f3d 217b 733e
00000290: ae5c f13d 5abb 9dbd e854 d43d b5ff 603b
000002a0: 6efb ed3d 2988 213e 9a7d eabc 8450 b0bd
000002b0: bcc3 5b3a c023 89bc 4a67 a9bd e932 46bd
000002c0: c4b9 fabb bfc9 7dbd 9db6 fd3d 3f15 703d
000002d0: 33c5 7ebd 2519 8a3d 896c 093e fadb 7cbc
000002e0: c9bd bd3d 90a1 d43d 1048 3bbd 43b0 6bbc
000002f0: d789 0e3e 4249 5f3e 019c 183e 5461 973e
00000300: 5b2d 74bd 4e51 99bd 0639 973e afbd 41bd
00000310: d091 8abc d0ca 7ebd 277f 30bd 5162 4abd
00000320: b391 2cbd 6d5f 0f3e 721f 65bc e107 163e
00000330: fdd5 8e3d 0ab9 8dbc 02a0 803d bda7 a13d
00000340: bb57 dfbb 625e 963d 46f2 0d3e 8088 263d
00000350: 158a 883d 0a4c 1bbc 2018 813e ee67 503d
00000360: 58bc c93c 5638 103e b413 2c3e ecb2 cebc
00000370: 3bbc 84bd 5770 a03d d5f4 7f3e f2bb 913c
00000380: 3be8 9dbd da34 9b3d 094b 273c 8208 6fbd
00000390: e63f 91bc f7cf 563e e376 81bd 6188 2d3d
000003a0: 75c9 473d 1a01 a3bd 543e 82bd 637b eabc
000003b0: 167c 4ebd 23df 98bd c4a1 063e 2ebb 003d
000003c0: 3ce5 803e 6e57 bebb d1b3 503e 78c1 9cbb
000003d0: 890d 96bd f121 e13b 19a4 463d 6843 d1bc
000003e0: 6a07 3a3e c687 043e 0d7a 133e 7175 053e
000003f0: 20ae b0bc b95a 5e3e f8a0 703e 9a4b 123b
0.18000808 -0.049201135 0.14678682 0.14290412 -0.0058761337 0.14564036 -0.020620717 -0.062118854
-0.059530795 -0.069362365 0.1471085 0.19471721 0.1481644 -0.037227955 -0.011950557 -0.017833347
0.10611364 -0.010407917 -0.015638642 0.089219846 0.21934283 -0.060956396 -0.07787551 -0.040950697
-0.070347965 0.20293848 0.1036843 0.33243445 -0.053795207 0.22783665 -0.007946712 0.08061196
0.21779536 0.037129536 -0.06690208 0.01913286 0.10376031 -0.055787433 0.13359863 0.0934598
-0.05664222 0.12857209 -0.028912213 -0.037418477 -0.05599957 -0.05977611 0.027017081 -0.0069726068
0.121017754 0.028560571 0.030448966 0.16626595 0.19824927 -0.02524602 0.10074093 0.08419358
0.26818085 0.06461941 0.16989407 -0.036514245 0.05502318 0.2037072 -0.03017164 0.2403377
-0.007949366 -0.017426876 0.30360088 0.17549515 0.123736806 0.14733541 0.2557925 0.09294738
-0.0274846 0.14417186 -0.023638302 0.1472706 0.08120919 0.19628567 -0.03323703 -0.0017490098
-0.045506954 0.0026650892 -0.06891679 -0.03452259 0.19991638 0.07616199 0.10114212 0.11366288
0.115292154 -0.062208325 0.28713337 -0.055247854 -0.057398997 -0.039240748 0.0074792425 0.1306666
0.24078688 0.090385534 0.11482286 0.06384307 0.19820262 -0.074712075 -0.01972088 -0.016652998
0.0763707 0.14967768 0.1939482 0.0070530404 -0.07091764 0.1543296 -0.003806735 -0.06385506
0.061151 0.17382884 -0.014386817 0.15826148 0.15867798 -0.066384226 -0.044444907 0.0051408405
-0.062463302 -0.03067158 -0.060296156 0.15570743 -0.0025270057 -0.029403977 -0.06913437 -0.006081339
0.11261222 0.05972237 0.21716778 0.21929263 -0.008434987 -0.021817768 0.10276221 -0.027334169
-0.037040565 0.042840254 0.05365362 0.14651692 0.12693585 -0.029602291 -0.024965478 -0.06396982
0.1912277 0.17689171 0.13424411 -0.026835257 0.13477045 -0.03128804 0.088307686 0.07725286
-0.059007153 -0.04474985 0.15754135 0.19475569 -0.00235585 0.18235502 0.068301134 0.09603143
0.02720489 0.112467125 0.0545917 0.23777439 0.11785255 -0.0770175 0.10367757 0.00343321
0.11620222 0.15774597 -0.028624345 -0.08609107 0.00083833537 -0.01674068 -0.08271654 -0.048388395
-0.0076515395 -0.06195998 0.12388346 0.05861401 -0.062199783 0.06743077 0.13420309 -0.015433306
0.09264714 0.10382378 -0.04572302 -0.014385286 0.13919769 0.2180529 0.14903261 0.29566443
-0.059613567 -0.07486211 0.29535693 -0.047300037 -0.016915232 -0.062205136 -0.043090012 -0.049410168
-0.042131137 0.14001246 -0.013984548 0.14651443 0.06974409 -0.017300148 0.06280519 0.07893322
-0.006815878 0.07342221 0.13861951 0.04065752 0.06666962 -0.009478578 0.25213718 0.050880365
0.024625942 0.1408399 0.16804391 -0.025231801 -0.064812146 0.07833927 0.2499574 0.017789815
-0.0771031 0.0757844 0.010210761 -0.058357723 -0.017730664 0.2097777 -0.06321504 0.04236639
0.04877611 -0.079591945 -0.063595444 -0.028623288 -0.050411306 -0.07464435 0.13147646 0.03142851
0.25174892 -0.0058087623 0.20381095 -0.0047838055 -0.073268004 0.006870501 0.04849634 -0.025544837
0.1816689 0.12942418 0.14402027 0.13033082 -0.021567404 0.21714295 0.23498905 0.0022322894

network.6.weight f4 [256, 256]
00000000: 76c2 df3c 6432 a8bc e432 b4bd ea36 85bd
00000010: e5a3 23bd abda 3b3e 58e2 363d a0d8 933b
00000020: 74dd ef3c 0d75 5ebc aa3c ef3c 5269 053b
00000030: df20 f53d 6791 c83d 301e fcbc 59fa bebc
00000040: 348f ccbc 0cfc 85bd b1a4 333d 3527 db3d
00000050: d114 093d 70e7 e33c bfe8 c53c 3df0 d93c
00000060: 6eb7 113d 4c59 f63c f672 023e a556 15be
00000070: 7ddc 463e 2f8c fabc 7d7b a03c d8c9 dc3d
00000080: 1dfa 443e 224c 8d3b 9faf 61bc 34ae 3f3e
00000090: d45e d93c c50d 763c 2921 59bc bd62 d03d
000000a0: 6f7e 253d 02bb e13c d686 0e3a 9ee7 d4bb
000000b0: 9a25 44bd 5956 16be f3e0 cbbd 4413 b43c
000000c0: 0fe0 0e3e 4936 033c d7bd 6cbe 7b6d 0bbe
000000d0: f696 43bf 77f1 0c3b f9b5 863d 72fa 4b3d
000000e0: 6374 32be 9c85 073e 4eaf e93d fdc6 be3b
000000f0: f992 91bf 3bef 63be de94 863d cc37 963d
00000100: fe7d 6fbd e702 653d 091b 67bd 04b1 5e3c
00000110: 40b0 a13d c96f 813d f1ac 0abe 6eba 863e
00000120: 4ebe 273b 5d7a 89bc 6570 b23b 6d3d 0abc
00000130: bbfc d93d 7288 8a3c 85f3 a13d df5a cfbd
00000140: 4bde fb3d a011 30be b2e4 5fbd 52ba d53b
00000150: e67d 173e ddff 453e 04af bb3d 6e38 f53d
00000160: 1e23 a6bd a2f8 f3bc c538 aabd 58e9 0c3c
00000170: f028 75bd 5a96 3dbc 988a 7ebc 8213 e7bc
00000180: c84f 023e 64b2 a23d 2985 f33d 7d7b 3fbe
00000190: ed37 a33c 48cb e4bc b5eb 1bbc c603 c13c
000001a0: 4b16 6f3d b7f7 48bd 3351 bebd 7684 b43e
000001b0: 94f7 8dbc bcae f63d a12f 1d3d 314e a6bf
000001c0: a2e5 7fbd 0832 b53c 40a3 3c3c 3faf 443d
000001d0: d114 d1bc 66ef 2d3c 57ef 93bc 0d6a 4a3d
000001e0: 186a 033c d874 d3bc e7d6 1bbd b182 98bd
000001f0: ae96 1ebd 6aa2 73bd 136c 78bd e710 7bbd
00000200: 4162 663c 8518 183c 466a 29bb fde6 81bc
00000210: 86c1 ab3e e793 03be 8ae2 133e 3bb8 a2bc
00000220: 5c3e 863d e32e 533e b3a6 a7bc db3c bfbd
00000230: 79a0 463d b9cc 66bd 6db0 6abd de1e 583d
00000240: 6d77 093d 4de5 873d 24cb cc3c a07a 56bc
00000250: bf59 ee3c ce50 cdbc d228 f93d c858 0e3d
00000260: 8392 a1bc d1de b2bc 1543 173d 6fb4 eebc
00000270: 23ef 3b3d 2648 483d 5dd4 acbf a737 d93d
00000280: a0cd b03d 2b3d ae3d 5c68 df3d 622f 0bbd
00000290: dda5 a43d e29b 863d 1ed4 e1bb caf9 153d
000002a0: 3d4e 813d 671a 103e af34 7b3c fcdf b1bc
000002b0: 684c 06bd 96a7 5a3c 9019 603d cd51 33bd
000002c0: 791e 84bd cb8b e03c e1b3 663d 8712 6c3d
000002d0: bd15 18bd 60cd 733d 65a7 c53c 7ed7 f1bc
000002e0: 72c3 6c3e b0b4 413e 383a 8b3e 3158 a93e
000002f0: 4b60 d13d 9cf3 843d 1898 41bc 5a38 96be
00000300: 67ee 3abe 84ab df3b 9a0a 37be 512b 7b3e
00000310: 2fc6 44bc 528f 893d 9b1e 8c3d 1f92 25bd
00000320: 73c9 0dbd a79b a53c 0904 a9bd b8a7 30b8
00000330: 3d3f fe3d 73c5 bbbc d996 873c 6401 d93c
00000340: 98f2 3dbc 8a6e 4d3e b0c0 7a3d d4e3 edbd
00000350: 3d93 163e 88d0 f2bc 704d 7cbf 7acc 74bf
00000360: 0cdf 9ebf a0a5 a13d b585 a73d 5690 16bd
00000370: ae10 e73c aeef df3d 53ba 863d 6f04 533e
00000380: 88ad 27bd 0988 ef3d 10c2 313c dc2a 8a3c
00000390: 59ab 8cbc 66fc a9bc 840f 883d dab8 213e
000003a0: 0d82 92bf 3238 74bb f492 34bd 353c 1dbd
000003b0: 9888 863c bb93 8ebd 0ae9 413d 0751 adbf
000003c0: 04ea 253e ef12 3a3d 4c43 32bf 080b c7bc
000003d0: e3f2 99bc 7c7c 513d 5c08 87be abfc eabb
000003e0: f1a6 483d bc97 46bd b211 373c 78f2 55be
000003f0: 489d 2bbe 0ef7 babd 8a3d cabc 7668 8a3c
0.027314406 -0.02053184 -0.08798769 -0.06504615 -0.039951224 0.18345134 0.044649452 0.0045119077
0.029280402 -0.013577712 0.029203732 0.0020356965 0.1196916 0.09793358 -0.030776113 -0.023312734
-0.024970628 -0.06542215 0.043858234 0.107008375 0.033467118 0.027820319 0.024158834 0.026603812
0.035575323 0.030071877 0.12739167 -0.14583834 0.19420047 -0.030584423 0.019590134 0.10780686
0.19236036 0.0043120543 -0.0137747815 0.18718797 0.026534475 0.015017931 -0.013252535 0.10175083
0.04040378 0.027554993 0.0005436962 -0.0064973375 -0.047887422 -0.14681377 -0.09955015 0.021981843
0.13952659 0.008008548 -0.23119293 -0.13615982 -0.76402223 0.002150623 0.06577677 0.04979939
-0.1742721 0.13234562 0.1141039 0.005822061 -1.1372977 -0.22259228 0.06571363 0.07334861
-0.058469765 0.05591097 -0.056422267 0.0135920085 0.07894945 0.063201495 -0.13542534 0.2631411
0.0025595608 -0.01678198 0.0054455274 -0.008437497 0.10643908 0.016910765 0.07907776 -0.10124754
0.122982584 -0.17194223 -0.05466146 0.0065224553 0.1479412 0.19335885 0.09164241 0.11973654
-0.08112167 -0.029781643 -0.08311609 0.008600555 -0.059853494 -0.011571491 -0.015535973 -0.028207544
0.12725747 0.079441816 0.11890633 -0.18699451 0.019924128 -0.027928963 -0.009516646 0.02356137
0.05837087 -0.049064364 -0.09292831 0.3525731 -0.017329969 0.12045047 0.0383755 -1.2992612
-0.062474854 0.022118583 0.011513531 0.04801869 -0.025522621 0.010616159 -0.018058462 0.049417544
0.0080209 -0.025812551 -0.038046744 -0.074468024 -0.038717918 -0.059481062 -0.060649943 -0.061295416
0.0140615115 0.00928319 -0.0025850697 -0.015857214 0.33546084 -0.12849389 0.14441887 -0.019863239
0.06554863 0.20623355 -0.02046523 -0.09337779 0.048492882 -0.056347582 -0.05729716 0.052763812
0.03356116 0.066355325 0.024999209 -0.0130907595 0.029095529 -0.025062945 0.12165989 0.034752637
-0.019723183 -0.021834763 0.03692921 -0.029138772 0.045882355 0.04889693 -1.3502308 0.10606318
0.0863297 0.085077606 0.10908577 -0.033980735 0.080394484 0.06572701 -0.0068917414 0.03661517
0.06313751 0.14072572 0.015332385 -0.02171325 -0.03278771 0.01334562 0.05471188 -0.043779183
-0.06451125 0.027410408 0.05632389 0.057634857 -0.037130106 0.059522033 0.024127671 -0.0295217
0.23121431 0.18916583 0.27192855 0.33075097 0.102234446 0.06491777 -0.011816047 -0.29339868
-0.18255006 0.006825866 -0.17875138 0.24528243 -0.012010141 0.06716789 0.06841775 -0.040422555
-0.034615945 0.020215822 -0.08252723 -4.211787e-05 0.124144055 -0.0229213 0.016551422 0.02648992
-0.011593483 0.20061699 0.061218917 -0.116157204 0.14704604 -0.029640451 -0.9855566 -0.95624506
-1.2411819 0.078929186 0.081797995 -0.036758743 0.028206196 0.10934387 0.06578507 0.2060716
-0.040936977 0.116958685 0.010849491 0.01686614 -0.017171549 -0.020750236 0.06643584 0.15793172
-1.1445938 -0.003726494 -0.044085458 -0.038387496 0.016422555 -0.06961771 0.047341384 -1.3540353
0.16202551 0.045428213 -0.69633937 -0.024297252 -0.018792575 0.05114411 -0.26373565 -0.0071712337
0.048987333 -0.04848455 0.0111736525 -0.20893276 -0.16759217 -0.09129153 -0.024687547 0.016895514

network.6.bias f4 [256]
00000000: 0ca7 2b3f 9ddd 953f a7a3 763f 950d 753f
00000010: c61f 413f 402d 923f d3a1 843f 5a4e 763f
00000020: 00a3 a93f d50a 8e3f 418b 773f 25f5 a2bd
00000030: 7700 5e3f e870 5f3f 9dd7 8a3f cd71 8a3f
00000040: fe3f 823f 16ef ad3f 0c4b 5d3f 3c90 b43f
00000050: 070f b93f 78dc 913f 6301 a13f 6b76 a53f
00000060: 3183 8d3f f58f b33f fb27 843f 699c 64bd
00000070: c5d6 5a3f 4dfc 5d3f 35a1 503f 993d 4f3f
00000080: fad9 ccba 5171 be3f c693 523f 593b a73e
00000090: ad97 593f fe5c 3e3f a9e8 4f3f 1901 9d3f
000000a0: 8456 8b3e 7ece 693f dc33 8c3f 1fb4 d63e
000000b0: 96e4 8f3f a03e 683f ae27 c03f 5ade 98bd
000000c0: 929a 4d3f 34f8 8a3f 0e16 203f af7a b53f
000000d0: de3e 553f 9899 ae3f da44 b83e c4ef af3f
000000e0: 1271 783f a568 8a3f 8944 623f f32e 813f
000000f0: 034d 9a3f 3467 cfbd 54ee 693f 1267 773f
00000100: 19b8 693f 0f3d b93f e34f 8c3f 6fe2 6f3f
00000110: d12b 9d3f f031 9b3f 4c0a 3b3f 62e8 8cbd
00000120: 7272 883f 3a3e 873f 347c b93f 50f1 693f
00000130: ea0d 5a3f b486 033f b4ba 693f b914 6c3f
00000140: 4982 813f 0387 833f 7c43 643f bc1c a43f
00000150: 7793 c33f ede1 b33f 30c4 84bd 92eb 733f
00000160: b912 823f 87c8 2b3f 439a 353f 310d ae3f
00000170: 8734 6e3f 6a69 8e3f fea9 b33f 1bb8 6f3f
00000180: aacf 6f3f 77d3 b03f 6464 8f3f a93c ae3f
00000190: 44f4 823f 4d97 8a3f e0d8 a43f 9d4e 9c3f
000001a0: 7b64 413f 3afe 613f 461f b8bd 8e6e a73f
000001b0: a60f 183f 9672 d53e e665 c5bc e3ad debd
000001c0: 6904 b73f 1f2c b83f a536 623f 6bd5 633f
000001d0: 5c32 953f 8640 b43f 53e3 3f3f cca9 af3f
000001e0: 915f 993f 3e11 263f a977 783f 47ef 8c3f
000001f0: 22fb a03f 6cdd 6a3f 50a9 543f 4057 b93f
00000200: 354f 6f3f 1887 a53f 189e bd3f 9d84 adbd
00000210: 37b3 613f e483 513f d838 823f a9f8 883f
00000220: 246f adbd 141d 83bd 234c a1bd 0b6f b43f
00000230: c9ec 823f 14b0 4a3f 176a a13f 7b00 ae3f
00000240: dbc2 613f 1c15 943f a534 bc3f b9e6 7f3f
00000250: 5b36 1c3f 5be4 a93f 9886 833f 043b 6a3f
00000260: 6f0d 69bd 027e 88bd 730e 943f 1632 4e3f
00000270: b42b 6a3f 520e bd3f a143 533f 9303 363f
00000280: e787 523f 1dbd 5c3f e5e8 233f 1ecd ab3f
00000290: 9e1e b73f 7a7a bcbd 287e 723f 28d2 3c3f
000002a0: 0505 9dbd 061d a5bd 18ae 573f 9065 8a3f
000002b0: a9af b3bd 7f76 893f 4341 363f 2435 1b3f
000002c0: 56c7 b53f e545 b93f 8ffc ad3f 6139 483f
000002d0: e2e9 803f 414c 513f 8d46 6a3f f488 bb3f
000002e0: 57c8 4a3f cf23 893f 0773 c23f 948b 833f
000002f0: 8c89 b5bd b130 413e eacd 3d3f da7c a33f
00000300: 38c1 873f f3d1 6a3f 9652 543f 452d 873f
00000310: 2e28 a33e 8390 0ebc 27d8 a83f 5528 8d3f
00000320: 4f31 6d3f 0b14 3f3f 6195 93bf 3307 b63f
00000330: 9d38 763f 98c4 533f b568 a53f e382 7a3f
00000340: 85d9 7d3d 1d0c 6c3f 111f bc3f ee82 b43f
00000350: ae7c 723f 4a6b b33f eb0d 7f3f af9b 563f
00000360: 4246 77bd a6a7 8c3f 5641 2c3f da71 af3f
00000370: 2d1a b13f 903b 463f 4936 733f 4837 843f
00000380: 7c5d b23f b50b b5bd 2d18 0cbd a039 603f
00000390: 1186 07bd 3f3f 353f c043 b23f 06d1 cfbd
000003a0: 79ce 173f 1c7a a23f 4ca9 613f bc81 833f
000003b0: bad3 6dbd 221d c33f 4c5f 123f 9fe7 003f
000003c0: 6037 b03f 059d bd3f 4042 983f dbdd 423f
000003d0: 1474 80bd be39 bd3f db4f 703f e503 703f
000003e0: 1a29 7f3f 6df4 893f 3603 083f 9d16 7a3f
000003f0: 8f2c ac3f 1c20 8b3f 1055 c23f d4e3 563f
0.6705177 1.1708256 0.96343464 0.9572385 0.7543911 1.1420059 1.0361885 0.96213305
1.3252869 1.1097056 0.9669686 -0.07956914 0.8671946 0.87281656 1.084705 1.0815979
1.0175779 1.3588588 0.8644264 1.4106517 1.4457711 1.1395407 1.2578548 1.2926763
1.1055661 1.4028307 1.0324701 -0.055813227 0.8548396 0.86713105 0.8149598 0.80953366
-0.0015628927 1.4878331 0.82256734 0.32662466 0.84997064 0.74360645 0.81214386 1.226596
0.27214444 0.9133071 1.0953326 0.41934296 1.1241634 0.9072056 1.5012109 -0.07464285
0.8031398 1.0856996 0.6253365 1.4178065 0.8329905 1.3640623 0.3599003 1.3745046
0.9704753 1.0813185 0.88385826 1.0092453 1.2054752 -0.10127106 0.91379285 0.9664165
0.91296536 1.4471759 1.096188 0.93704885 1.2278997 1.2124615 0.73062587 -0.06880261
1.0659926 1.0565865 1.4491029 0.9138384 0.8517748 0.51377416 0.9130051 0.9221912
1.0117885 1.0275577 0.89165473 1.2821269 1.5279378 1.4053322 -0.06482732 0.95281327
1.0161964 0.67102855 0.7093851 1.3597776 0.930489 1.112592 1.4036252 0.936403
0.93676245 1.3814534 1.1202512 1.3612262 1.0230794 1.0827423 1.2878685 1.2211491
0.75543946 0.88278544 -0.0899034 1.3080614 0.5939888 0.41688985 -0.02409644 -0.1087301
1.4298221 1.4388465 0.8836463 0.88997525 1.1655993 1.4082191 0.74956244 1.3723693
1.198229 0.6487006 0.97057587 1.1010522 1.257664 0.9174411 0.8307085 1.4479752
0.93480235 1.2931852 1.4813871 -0.084725596 0.88164085 0.81841874 1.0173597 1.0700885
-0.08468464 -0.064020306 -0.0787585 1.4096388 1.0228511 0.79174924 1.2610501 1.3593897
0.8818795 1.1568942 1.4703566 0.9996143 0.6102044 1.3272814 1.027545 0.914963
-0.056897577 -0.06664659 1.156691 0.80545175 0.91472936 1.4769995 0.8252507 0.71099204
0.8223862 0.86226064 0.64027244 1.3421972 1.4306219 -0.09203048 0.9472375 0.73758173
-0.07666973 -0.080621764 0.8425002 1.0812244 -0.08773739 1.0739287 0.7119333 0.6062796
1.4201458 1.4474455 1.35927 0.78212553 1.0071375 0.8175698 0.915139 1.465117
0.79211944 1.0714053 1.5191354 1.0276971 -0.088641256 0.1886623 0.74142325 1.2772477
1.0605841 0.9172661 0.82938516 1.056069 0.31866592 -0.0087014465 1.3190964 1.1027933
0.92653364 0.7463996 -1.1529962 1.4220947 0.96180135 0.82721853 1.2922579 0.9785597
0.06197502 0.92205983 1.4696981 1.4102457 0.94721496 1.4017117 0.9963061 0.83831304
-0.060369737 1.0988662 0.67287195 1.370662 1.3836113 0.77434635 0.9500471 1.032937
1.3934779 -0.088401236 -0.034202743 0.8758793 -0.03308684 0.7079963 1.3926926 -0.1014729
0.5929943 1.2693515 0.8814895 1.0273967 -0.058063246 1.5243266 0.5717666 0.50353426
1.3766899 1.4813544 1.1895218 0.76119775 -0.0627214 1.4783247 0.9387185 0.9375594
0.9967209 1.0777718 0.531299 0.97690755 1.3451098 1.0869174 1.5182209 0.8394139

network.8.weight f4 [3, 256]
00000000: eb51 38bd 102b 893e c61b bbbc 5bf0 7fbe
00000010: 39ea 3fbd 6ccc da3e 258d 2e3e b553 73be
00000020: e876 8c3e 82f8 d83a 95e0 01be fd9f 803c
00000030: b260 87be e2b0 26be 0ef2 763e aeaa 54be
00000040: 4c81 32be 5f70 1d3f 528c aa3f 3c7b be3e
00000050: 6e6c c63e 624c 503e 72a3 5c3e a9d8 953e
00000060: 7ce3 8c3e 146b 013f a767 4bbe 03e8 2dbd
00000070: f9b7 8abe c9f7 75be 3a76 7abe 9d76 93be
00000080: 852f d93d fa2c 0d3f a5ec 133c 8fb4 783f
00000090: 9a5e 64bd b550 5b3b 7be7 4e3d 5594 303f
000000a0: e06e 8f3f 9fdf 463f 9491 3e3e 4ad2 99bd
000000b0: d1f1 8d3f bb10 40bf 7775 fe3e f282 e4ba
000000c0: 860d 0cbf 6ab1 893e edfa 893d 1939 293f
000000d0: 10a0 063b 62db 993e 0299 5c3f 9389 4b3f
000000e0: 82ed 76be 9c88 4b3f 673c 8abe 9b85 54be
000000f0: 305e e13e 0612 3ebc 9367 a4bf c7f7 40be
00000100: d0ce 2fbe 55a3 143f 6d07 46be 484d 16be
00000110: 5880 443f a12e 963e dd02 2cbd a5cd fe39
00000120: 1496 68be dce9 46be ee6e e73e 9c7b 1dbe
00000130: e1f4 873e 6dd3 3e3f c283 5fbe a319 53be
00000140: a7a5 75be e86b 42be 8b8d 2abe bbf5 8a3e
00000150: 05dc 043f 8c56 433f c016 5d3b eb8b 4cbe
00000160: 52be 2ebe 1a12 81be 5b3d b13c debb 853f
00000170: 1149 75be e8d7 e63e 28fb 7f3f 7995 60be
00000180: 81cd 4dbe c72a fc3e 46fa ed3e a99f b53e
00000190: 3dd0 753f bb42 5c3f b71e 053f 7a97 df3e
000001a0: 9d82 c3bd d723 80bd 14a6 ac3c 6a83 c03e
000001b0: b360 1b3e ad28 8e3f 8041 913c 58b8 3cbb
000001c0: bf9b 5f3f a70f 1f3f ac53 84bd 59c5 6bbe
000001d0: d434 913e 0084 bc3e d6cb ba3c 61cf 373f
000001e0: 8032 823e 3ab8 7e3c afe3 483e bbae 43be
000001f0: 8928 2d3e 36c2 72bd fb30 07be 9667 0d3f
00000200: dfe0 77be a7b6 dd3e 386a 1b3f 64d9 653b
00000210: b8a0 30be 5dde 1ebe bb21 4a3f e877 47be
00000220: 6fa6 d43c f269 0ab8 8f6b 9a3e e248 313f
00000230: e4b6 143f f448 60be bdf0 d93e 8ea0 623f
00000240: 4d75 12be 9d1d 8d3e 5c46 ab3e b1bf 5cbe
00000250: d787 6b3f 3687 ac3e 2580 62be e8e5 7bbe
00000260: 4f13 daba bdb0 32bc 025a 0d3f ff25 053c
00000270: e04f 56be fc19 e53e b337 5cbc 7803 73bc
00000280: c220 31bd 8ee8 26be d9f5 9e3f 76b8 583f
00000290: 194f ae3e c0b3 553c 2c33 3cbe e729 8ebe
000002a0: e6e5 4e3d 1770 32be b25f 06be 49a4 053f
000002b0: 463d aebc 7a8d 5bbe 5a5b e8bc ae78 cd3b
000002c0: 3d84 603f 21f5 c73e 5e69 2c3f 0ec3 533d
000002d0: 9c00 ff3e 9af0 7abe 7f06 00bd 39a3 213f
000002e0: 276b 76be 18ee 6fbe 9c05 193f f03d 27be
000002f0: 5393 c93c 4d0d e93e aeaf 66bf cd06 c03e
00000300: 1fac a03d 3c48 ddbd b08b 6e3b 9321 1d3f
00000310: 397c 5a3e fe87 e5be 64e4 a93e 0496 c93e
00000320: a96a d5bd 0c6a 7c3d 27c5 19bf cf92 0a3f
00000330: efc8 15be ad87 6fbc 8ce6 bf3e ef3b d1bd
00000340: 1ba6 fe3e 6853 b73e 298e f93e 6134 d33e
00000350: 575d 243f 72d9 253f 3df5 1abe 239d 2b3d
00000360: 320d de3c bca0 223f ca38 7f3d 7d00 a23e
00000370: 1ab8 d63e c77e 75bd 43fa b2bd 356a 873d
00000380: b09f a33e 3328 45bd 9670 8fbc c3d2 69be
00000390: cbd8 b23a 7c33 b5bc 59a8 273f d5f0 21bd
000003a0: bc51 3cbd b9eb 923f d80c 90bd 2504 71be
000003b0: ca45 35bb ab7a fd3e 8a57 903e 83ed a2bd
000003c0: 6a64 733f 132e 993e a040 c93e bcd7 99bd
000003d0: ec27 91bd e49e c63e e971 5ebe 5b1a 1fbe
000003e0: e584 59be c1de a73e 6013 753f 7455 3cbe
000003f0: 4be6 423f 5d9f e13e 2c6f 103f ba9e 73be
-0.044999998 0.26790667 -0.022840392 -0.24994032 -0.04685423 0.42734087 0.1704603 -0.237624
0.27434468 0.0016553553 -0.12683327 0.015701288 -0.2644096 -0.16278413 0.24115774 -0.20768234
-0.17432135 0.6149959 1.3324072 0.37203395 0.387546 0.20341638 0.21546724 0.2926686
0.27517307 0.50554013 -0.19863759 -0.04245759 -0.27093485 -0.24020304 -0.24459162 -0.28801432
0.10604767 0.55146754 0.009028588 0.9715051 -0.05575428 0.0033464853 0.050513726 0.68976337
1.1205711 0.7768497 0.18610221 -0.075108126 1.1089422 -0.7502553 0.49698994 -0.0017434044
-0.54708135 0.2689317 0.067373134 0.6610275 0.0020542182 0.30050188 0.8617097 0.79506797
-0.2411404 0.79505324 -0.26999208 -0.20754091 0.44017172 -0.011600977 -1.2844108 -0.1884452
-0.17168736 0.58061725 -0.1933877 -0.14677918 0.7675834 0.2933245 -0.04199492 0.00048599872
-0.227135 -0.19425148 0.4520182 -0.15379184 0.26554015 0.7454136 -0.21827605 -0.20615248
-0.23988973 -0.18986475 -0.16655557 0.27140602 0.51898223 0.76303935 0.0033735484 -0.1997525
-0.17064789 -0.25209123 0.021635702 1.0447958 -0.23953654 0.45086598 0.9999261 -0.2193202
-0.20097925 0.49251387 0.46480006 0.35473374 0.9602087 0.8603932 0.5199999 0.43670255
-0.09546397 -0.06256836 0.021075286 0.3760026 0.15173607 1.1106163 0.017731428 -0.00287964
0.87347025 0.6213326 -0.06461272 -0.23024501 0.28360617 0.36819458 0.022802275 0.7180081
0.25429153 0.015546853 0.19618104 -0.19109623 0.16909994 -0.059267245 -0.13202278 0.55236185
-0.24206875 0.43303415 0.6070895 0.0035072202 -0.1724881 -0.15514512 0.7895772 -0.19479334
0.025958268 -3.3000433e-05 0.30160186 0.69251835 0.5809157 -0.2190283 0.4256648 0.88526237
-0.14302559 0.27561656 0.33452117 -0.215575 0.9200415 0.33696908 -0.22119196 -0.24599421
-0.0016637834 -0.0109063955 0.55215466 0.008126735 -0.20928907 0.44746387 -0.013441014 -0.01483237
-0.04324413 -0.1629965 1.2418777 0.84656465 0.34044722 0.013043344 -0.18378896 -0.27766344
0.050512217 -0.17425571 -0.13122442 0.52203804 -0.021269452 -0.21440688 -0.028363872 0.0062704897
0.8770178 0.39054206 0.6734828 0.05169969 0.49805152 -0.24505845 -0.031256195 0.63139683
-0.24064313 -0.2343067 0.59774184 -0.16332221 0.024606382 0.4551796 -0.90111816 0.3750519
0.078453295 -0.10804793 0.0036399178 0.61379355 0.2133645 -0.44830316 0.3318206 0.39372265
-0.104207344 0.06162457 -0.60066456 0.5413026 -0.14627431 -0.01461975 0.3748058 -0.102165096
0.49736103 0.3580582 0.48741272 0.412509 0.64204925 0.6478492 -0.15132613 0.041897904
0.027105901 0.6352651 0.062310018 0.31640998 0.41937333 -0.059935357 -0.0873914 0.06612054
0.3195777 -0.04813404 -0.01750974 -0.22834305 0.0013644932 -0.022119276 0.65491253 -0.039536316
-0.045976385 1.1478187 -0.070337 -0.23536737 -0.0027660006 0.4950765 0.28191787 -0.07955458
0.95075095 0.29917964 0.39307117 -0.07511851 -0.070876926 0.387931 -0.21723141 -0.15537398
-0.21242101 0.32787135 0.9573269 -0.18391973 0.7613265 0.44066897 0.56419635 -0.23791018

network.8.bias f4 [3]
00000000: f0e6 cdbe 0e9a 04bf d490 09be
-0.40215254 -0.5179757 -0.13434154
