mountaincar_cl_project/mountaincar_cl/runs/progressive/fixed/seed_1/online_stream_model.pth (torch, 536437 bytes, 8 tensors)

network.0.weight f4 [256, 2]
0.46334374 0.7538668 0.24934678 4.1069746 0.659316 -0.35308388 -0.5571127 -0.16339809
0.5096939 2.9199026 -0.2421554 0.553762 0.5514498 2.9466403 0.32761568 0.15337539
-0.6042472 -0.511483 -0.105176665 3.6010845 -0.03754306 0.5765107 -0.06598719 3.5679421
-0.28401542 -3.2931151 0.028199468 3.4498053 0.036106527 0.25855386 0.41019872 -0.61558044
0.5922418 -0.2437638 -0.324392 0.3025276 -0.25122318 0.9412972 0.3353314 2.8971877
0.2578196 -0.40818927 0.6184069 1.7970672 0.3612259 0.571094 0.48573205 1.2835823
-0.034941636 -3.401443 -0.1369769 3.7480476 0.36875996 1.1383013 0.5696704 0.6139273
0.5450757 0.39584905 -0.6096309 -2.1085238 -0.12386394 3.7962623 -0.11962772 3.0652559
0.43947822 1.3548226 -0.1051181 2.3963346 0.1103978 3.3857276 0.056503236 0.107759714
-0.49143776 2.2541037 -0.32878205 2.4430149 0.1047672 -0.3404604 0.07777643 0.2031511
-0.0024166107 0.5137827 0.31111673 2.732359 0.02342502 3.348911 -0.5448368 -0.28539723
0.3142435 -0.010980964 0.5264666 0.16819568 -0.44434705 0.52295476 0.3580984 -0.1426843
0.666091 -0.19672048 0.120859385 0.31684595 0.60423064 2.513914 0.018216968 -0.2421951
0.22158447 3.1422632 0.8351461 1.987263 0.76193774 2.2384303 0.7387715 2.0069091
0.35913792 3.0530903 -0.3751228 1.2127542 0.4886076 -0.44957024 0.22812015 0.5133131
-0.17018932 3.5581014 -0.7966223 0.1912308 -0.6597309 -0.7066428 -0.04573426 3.7012532
-0.05876839 3.2441034 -0.6522231 -0.56382555 0.018359423 0.12107009 -0.47805738 2.0736496
-0.11424623 2.3831778 0.51498944 2.330914 0.3516326 0.36263677 0.028970974 3.753255
0.04892236 -0.14634436 0.3367132 2.4295826 0.15645844 3.484168 -0.22217725 1.9497751
0.19541192 -0.22001126 -0.43196946 0.23105979 -0.19229417 2.429681 0.30884725 0.3282042
0.6451132 2.181517 0.10658997 -0.2506886 0.52072436 -0.29378814 0.47093746 1.0665466
-0.013692439 -0.06601578 0.26423717 3.7938974 -0.47169065 -0.32696295 0.4950793 2.2419379
-0.16499741 -2.7810912 0.46929598 -0.2423463 -0.20896904 -2.9103081 -0.0009336895 2.8146648
-0.03331405 -0.2670361 0.48383313 0.6386539 0.4000622 3.2184653 -0.017839476 3.4167168
0.61001074 1.4870908 0.05055976 0.26998687 0.063299656 -0.6352696 -0.3012173 0.25533867
0.1885235 3.296957 -0.3531942 -0.12533545 0.20780551 -0.25870737 0.5864254 0.68304193
-0.07440539 3.2847362 -0.48901856 -0.25411558 0.6779916 2.2959945 -0.04798987 3.1279664
0.5528819 2.2867286 -0.050059915 0.24977124 0.16544878 0.48343593 0.30816105 2.193606
0.1110817 -0.31288508 0.7355998 2.0652337 -0.1351406 -0.11022204 -0.43180406 -0.75117236
-0.09770633 2.6457126 0.37654287 0.007006645 0.52943474 -0.28135726 -0.12326061 -2.2446883
-0.3125566 -3.0704556 -0.21331517 2.074528 0.6096732 0.9176697 0.007829428 -0.5259877
0.91741633 0.80043036 -0.5222048 -0.5174401 0.58246887 1.2224073 0.07682368 3.705752
00000000: 643b ed3e 6afd 403f c354 7f3e 566c 8340
00000010: efc8 283f 69c7 b4be f09e 0ebf d451 27be
00000020: 4d7b 023f afdf 3a40 96f7 77be 59c3 0d3f
00000030: d02b 0d3f c195 3c40 3ebd a73e 700e 1d3e
00000040: f2af 1abf 8df0 02bf dd66 d7bd 2b78 6640
00000050: c0c6 19bd 3596 133f 4b24 87bd 2a59 6440
00000060: 786a 91be 66c2 52c0 9202 e73c 9cc9 5c40
00000070: 70e4 133d 2c61 843e 9105 d23e ae96 1dbf
00000080: 299d 173f 389d 79be b516 a6be e6e4 9a3e
00000090: 53a0 80be daf8 703f 8fb0 ab3e 866b 3940
000000a0: ee00 843e 2ffe d0be ea4f 1e3f 4c06 e63f
000000b0: 9af2 b83e 3733 123f dfb1 f83e 6d4c a43f
000000c0: f61e 0fbd 3eb1 59c0 ac43 0cbe 03e0 6f40
000000d0: 1bce bc3e dbb3 913f ebd5 113f 572a 1d3f
000000e0: 158a 0b3f baac ca3e c510 1cbf 0ef2 06c0
000000f0: 61ac fdbd f6f5 7240 61ff f4bd 272d 4440
00000100: 4a03 e13e d46a ad3f 2948 d7bd 8c5d 1940
00000110: 3e18 e23d c3af 5840 f06f 673d 20b1 dc3d
00000120: bb9d fbbe 3c43 1040 1f56 a8be 5b5a 1c40
00000130: 3090 d63d d350 aebe 4049 9f3d d806 503e
00000140: 0060 1ebb 4387 033f b14a 9f3e f8de 2e40
00000150: d4e5 bf3c 8f54 5640 6d7a 0bbf 961f 92be
00000160: 86e4 a03e 80e9 33bc 84c6 063f 7d3b 2c3e
00000170: 7581 e3be 5de0 053f ac58 b73e d51b 12be
00000180: f184 2a3f 1871 49be 2085 f73d a239 a23e
00000190: dcae 1a3f f8e3 2040 c03b 953c fe01 78be
000001a0: 0ae7 623e d71a 4940 23cc 553f a25e fe3f
000001b0: 5a0e 433f 7142 0f40 2120 3d3f 3371 0040
000001c0: ede0 b73e d565 4340 1810 c0be 883b 9b3f
000001d0: c62a fa3e 122e e6be 5498 693e 7d68 033f
000001e0: 1c46 2ebe efb7 6340 70ef 4bbf 02d2 433e
000001f0: 20e4 28bf 8be6 34bf d953 3bbd 55e1 6c40
00000200: 20b7 70bd 649f 4f40 18f8 26bf df56 10bf
00000210: 8066 963c 98f3 f73d f0c3 f4be adb6 0440
00000220: edf9 e9bd fc85 1840 59d6 033f b22d 1540
00000230: 3009 b43e 87ab b93e 8954 ed3c 5435 7040
00000240: d062 483d 4cdb 15be ac65 ac3e 487e 1b40
00000250: a436 203e 9cfc 5e40 6f82 63be 3b92 f93f
00000260: 101a 483e a24a 61be 1a2b ddbe f09a 6c3e
00000270: c3e8 44be e57f 1b40 3a21 9e3e 620a a83e
00000280: 2426 253f f99d 0b40 d84b da3d 425a 80be
00000290: 314e 053f 666b 96be b71e f13e 9984 883f
000002a0: 4056 60bc 4833 87bd 184a 873e 37cf 7240
000002b0: 7081 f1be b067 a7be 097b fd3e e97b 0f40
000002c0: 15f5 28be 66fd 31c0 9047 f03e a129 78be
000002d0: fbfb 55be 7d42 3ac0 d7c2 74ba 7823 3440
000002e0: 5074 08bd f5b8 88be fab8 f73e d27e 233f
000002f0: f4d4 cc3e 56fb 4d40 1824 92bc 7dab 5a40
00000300: aa29 1c3f fe58 be3f c017 4f3d b83b 8a3e
00000310: 40a3 813d 07a1 22bf 2739 9abe c0bb 823e
00000320: 4e0c 413e 5801 5340 dfd5 b4be f057 00be
00000330: f8ca 543e 4b75 84be fa1f 163f d6db 2e3f
00000340: da61 98bd 1e39 5240 a460 fabe 701b 82be
00000350: dc90 2d3f 93f1 1240 0791 44bd 9a30 4840
00000360: ab89 0d3f c359 1240 a00b 4dbd 08c4 7f3e
00000370: 686b 293e ea84 f73e 49c7 9d3e 0a64 0c40
00000380: cd7e e33d 7932 a0be 4550 3c3f ca2c 0440
00000390: 4c62 0abe 18bc e1bd 6c15 ddbe d54c 40bf
000003a0: 421a c8bd 5b53 2940 3aca c03e 0098 e53b
000003b0: 0989 073f 0f0e 90be 0f70 fcbd f9a8 0fc0
000003c0: 6b07 a0be 5882 44c0 4b6f 5abe 11c5 0440
000003d0: 8b13 1c3f 67ec 6a3f 0047 003c 21a7 06bf
000003e0: ccdb 6a3f 01e9 4c3f 37af 05bf f476 04bf
000003f0: ae1c 153f d877 9c3f bc55 9d3d 0a2b 6d40

network.0.bias f4 [256]
0.2601341 0.08905622 -0.28896275 -0.66134524 0.26014486 -0.33089516 0.28402048 -0.57495224
-0.3179909 -0.05412305 -0.18296444 -0.03015314 -0.1864006 0.01329438 -0.66444504 0.18915252
-0.60853845 -0.6875975 -0.1392179 0.16923152 -0.17474765 0.31236637 -0.013997376 0.26860532
-0.17809367 -0.06997103 0.20611909 -0.5355538 -0.11419779 -0.32619205 -0.06260087 -0.060338303
0.24462551 -0.042235795 0.074735865 -0.52931637 -0.26540437 -0.16853544 -0.5101157 -0.354274
-0.37765902 0.15499915 0.032046203 -0.38034037 -0.6992747 0.2684779 -0.5560245 0.0070019974
-0.6756609 -0.5247812 0.3357024 -0.4879199 -0.066826716 0.42460242 0.3874818 0.37390777
0.18255918 -0.19399767 -0.30821812 -0.3175292 -0.08770824 -0.5111548 -0.37414142 -0.02085313
-0.02887077 -0.3420691 -0.18918777 -0.26727116 -0.058134962 0.27667275 0.19769265 0.011994236
-0.23930383 0.18361989 0.077233516 -0.114236936 -0.37992534 -0.58560014 -0.08538131 -0.5407237
0.35010004 0.0005097389 -0.28366372 0.22797613 -0.030602813 0.1216924 -0.6575304 0.2558926
-0.26196784 0.020446934 -0.1335595 -3.2916105e-05 -0.6017553 0.24166444 0.15151753 -0.007818273
0.30864832 -0.55990064 -0.05250269 -0.52463883 0.09629877 -0.39388928 -0.41272452 0.2934752
-0.03649369 -0.63874155 0.37794894 -0.021042138 0.2842191 -0.70640177 -0.3740541 0.1712235
-0.011335982 0.37527156 -0.315666 -0.25414398 -0.049372587 -0.643626 -0.63423634 -0.19762035
-0.17046224 -0.10844858 0.29754472 -0.7049324 0.48924467 -0.26983383 0.28334543 0.03852726
0.15074268 -0.032460496 0.28403926 -0.28742883 -0.006303741 0.011572838 -0.07371803 0.23415597
0.17200857 -0.04559829 0.07994589 -0.19557987 -0.18665792 -0.0150763625 -0.109675705 -0.17024022
-0.4371295 -0.06032914 0.13986231 0.0061112046 0.22864275 0.4863462 -0.17440024 -0.4590725
-0.5875079 -0.4985908 -0.06337945 -0.20592377 0.04908831 -0.6344894 -0.20475131 -0.47461033
0.22311895 0.0030690874 0.039107863 -0.6904488 0.26823464 -0.41257885 -0.063999124 0.008007084
-0.2552556 0.38780653 -0.03682368 -0.16535068 -0.6227186 0.47150594 -0.17309956 -0.24937977
-0.52242947 -0.664755 0.061871298 -0.6281442 -0.5526309 0.35654128 -0.18925183 0.4463858
0.15555888 -0.06932644 -0.08265587 -0.29452005 0.29882035 -0.17852306 0.15901136 -0.10174012
-0.22837168 -0.033485416 -0.49548054 -0.63773954 0.07673093 -0.7015224 -0.4977611 0.005629499
-0.08363225 -0.30703524 -0.012108088 -0.5138599 -0.07350528 -0.024788802 0.25975496 -0.26836932
-0.005509822 -0.6991109 -0.029460775 0.16224205 0.2705069 -0.43305936 0.22230925 0.27839786
0.1871893 0.20108299 -0.2191262 -0.2392842 0.11137707 0.01544471 0.19132344 -0.4082835
-0.08244981 -0.626764 -0.5729371 0.11011567 0.070141174 -0.47719252 -0.113785386 0.36575487
-0.66497153 -0.0119133 -0.32473493 0.13747922 -0.069261625 -0.6159799 -0.6550275 0.17338863
0.018863024 0.21862495 0.19822997 -0.05642911 0.3676513 -0.5503608 -0.51173913 -0.06432061
-0.5160176 0.38964337 -0.13890791 -0.57923746 -0.120245606 0.13827065 -0.5576328 -0.2671065
00000000: 4c30 853e 1c63 b63d edf2 93be ec4d 29bf
00000010: b531 853e 176b a9be 226b 913e 1230 13bf
00000020: b4cf a2be 22b0 5dbd 085b 3bbe b803 f7bc
00000030: cddf 3ebe acd0 593c 1219 2abf 33b1 413e
00000040: 2dc9 1bbf 6406 30bf 238f 0ebe 074b 2d3e
00000050: 0cf1 32be 7cee 9f3e 4055 65bc a386 893e
00000060: 305e 36be f94c 8fbd e210 533e 0e1a 09bf
00000070: 88e0 e9bd a502 a7be e334 80bd 4c25 77bd
00000080: 1c7f 7a3e 71ff 2cbd 1e0f 993d 4781 07bf
00000090: 15e3 87be 8e94 2cbe f196 02bf 6763 b5be
000000a0: 865c c1be 19b8 1e3e e142 033d f9bb c2be
000000b0: ab03 33bf ef75 893e 9f57 0ebf 0371 e53b
000000c0: 1df8 2cbf 1058 06bf 2fe1 ab3e a3d0 f9be
000000d0: 72dc 88bd 7d65 d93e 0464 c63e d770 bf3e
000000e0: cbf0 3a3e 53a7 46be c4ce 9dbe 3093 a2be
000000f0: 61a0 b3bd 0adb 02bf 778f bfbe 2fd4 aabc
00000100: 6582 ecbc ae23 afbe 70ba 41be c4d7 88be
00000110: ed1e 6ebd 0da8 8d3e f16f 4a3e 7983 443c
00000120: 100c 75be da06 3c3e 9b2c 9e3d 0ef5 e9bd
00000130: 9385 c2be e4e9 15bf 65dc aebd de6c 0abf
00000140: 5040 b33e 00a0 053a 5f3c 91be 9372 693e
00000150: c0b2 fabc dd39 f93d ea53 28bf 5b04 833e
00000160: a620 86be 5480 a73c d2c3 08be 660f 0ab8
00000170: a30c 1abf e276 773e 6927 1b3e 3718 00bc
00000180: 2707 9e3e a655 0fbf 100d 57bd bb4e 06bf
00000190: 4a38 c53d dbab c9be a150 d3be 6242 963e
000001a0: 687a 15bd 9184 23bf 8682 c13e 9060 acbc
000001b0: 2a85 913e bfd6 34bf 0584 bfbe 3755 2f3e
000001c0: 8eba 39bc 9823 c03e f99e a1be 291f 82be
000001d0: e93a 4abd acc4 24bf 505d 22bf fd5c 4abe
000001e0: a78d 2ebe 4a1a debd c857 983e 7376 34bf
000001f0: 477e fa3e a927 8abe a712 913e c3ce 1d3d
00000200: 4a5c 1a3e 4cf5 04bd 986d 913e df29 93be
00000210: 9d8f cebb 009c 3d3c 7af9 96bd 95c6 6f3e
00000220: 0423 303e 46c5 3abd acba a33d 1746 48be
00000230: 4123 3fbe d902 77bc a89d e0bd 7453 2ebe
00000240: 70cf dfbe b01b 77bd 1138 0f3e 8040 c83b
00000250: 5321 6a3e 5e02 f93e fa95 32be 8d0b ebbe
00000260: eb66 16bf 4b47 ffbe 16cd 81bd aedd 52be
00000270: d310 493d e66d 22bf 54aa 51be 2000 f3be
00000280: 4b79 643e be22 493b 912f 203d 41c1 30bf
00000290: 0d56 893e 893d d3be f911 83bd 2530 033c
000002a0: ddb0 82be 948e c63e 6dd4 16bd b051 29be
000002b0: 7c6a 1fbf 3a69 f13e 0341 31be 695d 7fbe
000002c0: f0bd 05bf 622d 2abf c26c 7d3d 0fce 20bf
000002d0: 3879 0dbf 948c b63e 3bcb 41be ae8c e43e
000002e0: d44a 1f3e 05fb 8dbd 7b47 a9bd 55cb 96be
000002f0: fbfe 983e c0ce 36be e0d3 223e 205d d0bd
00000300: 44da 69be 0128 09bd a0af fdbe e642 23bf
00000310: 1b25 9d3d f996 33bf 8bda febe a977 b83b
00000320: 6347 abbd b933 9dbe 0061 46bc 538c 03bf
00000330: f089 96bd e311 cbbc 9afe 843e b467 89be
00000340: bd8b b4bb eff8 32bf b957 f1bc c822 263e
00000350: e17f 8a3e f5b9 ddbe 09a5 633e 2a8a 8e3e
00000360: 8dae 3f3e b3e8 4d3e 9e62 60be eb06 75be
00000370: a919 e43d cf0b 7d3c 4bea 433e 890a d1be
00000380: 72db a8bd 9b73 20bf 01ac 12bf 5384 e13d
00000390: 2da6 8f3d 9452 f4be 5008 e9bd 3944 bb3e
000003a0: 933b 2abf 0030 43bc a843 a6be 5ac7 0c3e
000003b0: 0ad9 8dbd dcb0 1dbf e2af 27bf ca8c 313e
000003c0: a186 9a3c 38df 5f3e ccfc 4a3e 3622 67bd
000003d0: cb3c bc3e 72e4 0cbf 5601 03bf 86ba 83bd
000003e0: bb19 04bf 567f c73e e03d 0ebe e848 14bf
000003f0: 5443 f6bd d296 0d3e 06c1 0ebf 2fc2 88be

network.3.weight f4 [256, 256]
-0.058575135 -0.052588023 -0.04411623 0.023746774 0.0018893682 -0.049802132 0.04097696 0.0022959486
-0.011680199 0.011326507 0.009389408 -0.06260322 -0.029947085 -0.03497317 -0.03611123 -0.03863273
0.03537339 -0.05838646 -0.029321143 -0.062471204 0.043224216 0.0309143 -0.0048119277 -0.05163234
-0.025214517 0.01637498 0.0013335344 -0.014551602 -0.013299845 0.013841418 -0.024111092 0.032336935
0.030245027 0.000661471 0.038930412 -0.043707795 -0.0067092613 -0.0011793235 -0.005945988 -0.010297254
0.05208929 -0.03823673 0.033308554 0.015271671 0.0027087703 0.026628748 -0.06172429 -0.018067785
-0.029626317 0.0031492263 0.0024917354 -0.042618513 -0.03273965 -0.031821284 0.047015537 0.011746119
-0.0685057 0.017830718 -0.0219609 -0.041342147 -0.07186581 -0.012255877 -0.05095586 -0.033149797
-0.067424044 -0.021181416 -0.017222375 0.016534878 -0.03501599 -0.054470252 -0.050008908 -0.0024048698
-0.048438333 0.010107188 -0.052671436 0.019679472 -0.053267837 -0.004261017 0.010990376 0.052712552
-0.0021000416 0.010271981 0.042780563 -0.04190605 -0.05280918 -0.02941633 -0.046689525 -0.024200734
-0.05683036 0.023810744 0.02446771 -0.00076748536 -0.046687715 0.04521238 -0.0661869 -0.06902934
-0.007136586 -0.054378122 0.01855313 -0.054180637 0.043771513 0.00910297 0.020815283 -0.006420684
0.030846072 -0.05102226 -0.0041479757 0.02222781 0.04862169 0.060848854 -0.008239798 -0.048185855
-0.047521435 -0.03145011 -0.03589368 -0.027191542 -0.024494644 0.04241883 0.060177974 0.0037178155
-0.064310566 -0.061972454 0.019711584 0.047317266 -0.022161642 0.05030994 0.022902586 -0.008502422
-0.016439551 -0.025646145 0.009490076 0.002801782 -0.009885007 -0.044284888 -0.042681023 0.0048382804
-0.00827222 -0.016767161 0.040794026 0.03116563 0.0052433126 0.012245262 0.054488346 0.041834652
-0.018126175 0.04414644 -0.032055 0.02147317 -0.037110753 -0.056149807 0.040157013 -0.0048942715
-0.011509642 -0.029584624 0.042742223 0.008127447 -0.021544896 0.05261565 -0.05383844 -0.03213667
-0.05712623 0.03477376 0.04417277 0.053691633 0.033160705 -0.018282674 0.015357558 -0.057781145
-0.07068176 -0.07177334 -0.023174753 0.02484949 0.0018598884 0.033664055 0.04584499 0.01408713
0.010034487 0.056674466 0.045578226 -0.020975322 -0.014653206 -0.034292504 -0.004040102 0.048759528
-0.03935221 -0.027601872 0.0097935535 0.035548978 0.003410399 -0.0035824107 -0.009246798 -0.047707327
0.012506515 -0.035399336 0.055968612 -0.048029676 0.048070952 0.01863654 0.002089344 -0.037928548
-0.023243466 0.05222006 0.048211 -0.0007017553 -0.052961566 0.04812552 -0.027630353 0.03907761
-0.038017936 -0.056628056 0.039715827 0.023629824 -0.0076984316 0.050901465 -0.034403086 -0.05686253
0.016553404 -0.030726638 -0.03285978 0.0032099863 -0.02915027 -0.018127227 0.039775457 0.04714317
-0.016656993 -0.016453877 -0.04551076 -0.0013724491 -0.06794541 0.03461574 -0.04396131 -0.05467588
-0.059804395 -0.012032457 0.0048310705 0.04869949 0.03704653 0.019292623 0.0028418452 -0.0331718
0.029122196 -0.038951285 -0.02921641 -0.013673215 -0.05781243 0.0005572587 -0.021308146 -0.03043566
0.026385121 -0.053654294 -0.033409417 0.025742374 -0.01788046 -0.046454147 0.023943946 0.008134544
00000000: 7bec 6fbd 8a66 57bd 38b3 34bd 9888 c23c
00000010: ada4 f73a 52fd 4bbd 75d7 273d a077 163b
00000020: 4e5e 3fbc d092 393c 08d6 193c 1e36 80bd
00000030: 9753 f5bc 0740 0fbd 5ee9 13bd 5a3d 1ebd
00000040: b0e3 103d a426 6fbd e532 f0bc cee1 7fbd
00000050: e00b 313d fc3f fd3c 60ad 9dbb 6f7c 53bd
00000060: ad8e cebc d224 863c fdc9 ae3a d869 6ebc
00000070: 98e7 59bc 1dc7 623c a084 c5bc bc73 043d
00000080: 6bc4 f73c 9166 2d3a 7f75 1f3d f206 33bd
00000090: 5dd9 dbbb 8893 9aba 90d6 c2bb d0b5 28bc
000000a0: 945b 553d 1e9e 1cbd 8d6e 083d 0836 7a3c
000000b0: a085 313b 8824 da3c 9cd2 7cbd e402 94bc
000000c0: e4b2 f2bc 4063 4e3b 624c 233b c090 2ebd
000000d0: 031a 06bd 0957 02bd 5d93 403d cb72 403c
000000e0: b74c 8cbd ba11 923c 58e7 b3bc 6256 29bd
000000f0: 622e 93bd e0cc 48bc 18b7 50bd 15c8 07bd
00000100: 9e15 8abd a684 adbc f015 8dbc 2774 873c
00000110: ed6c 0fbd 331c 5fbd 24d6 4cbd 059b 1dbb
00000120: 4667 46bd 9e98 253c 01be 57bd d836 a13c
00000130: 602f 5abd 00a0 8bbb fa10 343c 1ee9 573d
00000140: daa0 09bb d04b 283c ac3a 2f3d aea5 2bbd
00000150: 704e 58bd 84fa f0bc 843d 3fbd 9e40 c6bc
00000160: f4c6 68bd c00e c33c 8270 c83c 1231 49ba
00000170: 9e3b 3fbd 9e30 393d ff8c 87bd 415f 8dbd
00000180: 06da e9bb 98bb 5ebd bcfc 973c 84ec 5dbd
00000190: c249 333d a024 153c d084 aa3c 9a64 d2bb
000001a0: e7b0 fc3c b8fc 50bd beeb 87bb 1917 b63c
000001b0: 8a27 473d a63c 793d 3800 07bc 885e 45bd
000001c0: d6a5 42bd d5d1 00bd 4005 13bd ccc0 debc
000001d0: fea8 c8bc 5ebf 2d3d 2e7d 763d 98a6 733b
000001e0: 42b5 83bd d4d6 7dbd 307a a13c c0cf 413d
000001f0: 558c b5bc cc11 4e3d 349e bb3c be4d 0bbc
00000200: 3dac 86bc dd17 d2bc 447c 1b3c 1a9e 373b
00000210: b9f4 21bc 1264 35bd 4cd2 2ebd 708a 9e3b
00000220: 3588 07bc 495b 89bc a317 273d 104f ff3c
00000230: 18d0 ab3b 5aa0 483c 2c2f 5f3d d05a 2b3d
00000240: 587d 94bc e6d2 343d 1b4c 03bd 80e8 af3c
00000250: 7201 18bd 57fd 65bd ae7b 243d 2060 a0bb
00000260: f092 3cbc 745b f2bc 7812 2f3d fc28 053c
00000270: ec7e b0bc 8283 573d b285 5cbd bea1 03bd
00000280: 32fd 69bd ee6e 0e3d 82ee 343d c2eb 5b3d
00000290: 85d3 073d 8cc5 95bc 449e 7b3c ecab 6cbd
000002a0: 99c1 90bd e7fd 92bd fbd8 bdbc 2891 cb3c
000002b0: 80c7 f33a 52e3 093d f5c7 3b3d b5cd 663c
000002c0: b067 243c 7c23 683d 3cb0 3a3d 70d4 abbc
000002d0: 0014 70bc 4c76 0cbd d562 84bb 12b8 473d
000002e0: c82f 21bd 521d e2bc 2475 203c ce9b 113d
000002f0: 0081 5f3b e1c6 6abb e27f 17bc c268 43bd
00000300: 20e8 4c3c e5fe 10bd 583f 653d c4ba 44bd
00000310: 0ce6 443d a8ab 983c 60ed 083b f75a 1bbd
00000320: 1569 bebc b4e4 553d e678 453d 00f6 37ba
00000330: 3aee 58bd 441f 453d 0d59 e2bc d80f 203d
00000340: b2b8 1bbd d2f2 67bd 10ad 223d 5593 c13c
00000350: 2043 fcbb 0e7e 503d 40ea 0cbd afe8 68bd
00000360: 019b 873c 6eb6 fbbc fa97 06bd a25e 523b
00000370: 8ccc eebc 8d7f 94bc 97eb 223d 3219 413d
00000380: 3f74 88bc 48ca 86bc 7e69 3abd c0e3 b3ba
00000390: f726 8bbd 3cc9 0d3d c610 34bd d1f3 5fbd
000003a0: 74f5 74bd c823 45bc f54d 9e3b 1e79 473d
000003b0: 1abe 173d 900b 9e3c 403e 3a3b 27df 07bd
000003c0: ac91 ee3c 628b 1fbd 4157 efbc 9f05 60bc
000003d0: bacc 6cbd 0015 123a 6c8e aebc 3554 f9bc
000003e0: 9c25 d83c 9bc4 5bbd 50d8 08bd ace1 d23c
000003f0: 0b7a 92bc b446 3ebd 1826 c43c c046 053c

network.3.bias f4 [256]
-0.072832584 -0.011742298 -0.018661797 -0.03259576 0.12923512 -0.059996746 -0.0368282 0.18534806
0.03720405 -1.01128735e-05 -0.06339142 -0.014469366 0.18701538 -0.018103223 0.0014205524 -0.008842033
0.14337255 0.024150651 0.10423632 0.17110771 -0.01212637 0.06408741 -0.062459897 0.006053597
-0.0056568487 0.00423106 0.015369451 -0.0005928824 -0.05685694 0.011209459 0.0493013 0.13700433
-0.013719348 -0.026957106 -0.058869302 -0.0064728875 -0.011872134 -0.002946106 -0.010034608 0.11237368
-0.010065225 0.00010680179 -0.00619742 -0.04058749 -0.054216053 0.009835921 0.1743647 0.04225591
-0.0067820507 -0.020701671 -0.019222712 0.0033216611 0.042052723 0.034979627 0.020024141 0.03135987
0.17902274 -0.08463037 0.029496655 0.017231517 -0.006744875 0.09719034 0.0073504155 -0.0016097693
-0.0073497854 -0.009356088 -0.028592026 0.0077352603 0.04535944 -0.0107069025 -0.0650117 -0.0719758
-0.0508635 -0.009726471 0.20079248 0.18131748 0.017126162 0.2084656 0.065422 -0.004836906
0.02039385 -0.0054110587 0.00091356447 -0.014733085 -0.011843778 -0.05193307 -0.035922445 -0.032546658
-0.013894884 -0.06861342 0.21643719 -0.060769144 -0.010530163 0.018417362 0.19045922 0.022103062
0.024886644 -0.0037763894 -0.3839953 0.06318452 -0.0072393827 0.01915254 -0.01922856 0.012158158
0.081697665 -0.013743186 0.017934619 -0.029963693 -0.051811673 -4.6436013e-05 -0.07115136 0.02140449
0.02146391 -0.047386482 -0.03523121 -0.05186536 0.0025187826 0.057185434 -0.0148637695 0.13619006
0.17204994 -0.0015350645 -0.0070416285 0.090281755 0.010687506 0.0071860827 0.19935276 0.001027613
0.2443531 0.009514661 -0.06148466 -0.028933655 0.015069133 -0.04751468 0.08170341 -0.001562289
0.025160238 -0.040590897 0.0007058583 -0.05178719 -0.061479267 -0.07730908 -0.00057477073 -0.0007192956
-0.008581788 -0.07143991 -0.07376898 -0.060062673 -0.008573637 -0.0062811677 -0.0014865717 0.014679428
0.02815699 -0.008312166 0.026149392 -0.01963894 0.0064908783 0.010636936 0.021210989 0.14653595
-0.04433427 -0.08358881 0.004933966 0.0094627 -0.035208315 -0.009878015 -0.030423949 -0.0080289785
0.010559106 -0.010136288 0.06794001 -0.06817699 -0.009489024 0.020075358 0.031667754 -0.016345914
0.046211835 -0.009463237 -0.015108226 -0.0045045917 0.0028233253 -0.08382519 -0.053712063 -0.0064688697
-0.007877228 -0.009699819 -0.060020737 -0.02415164 0.09757294 0.015446164 -0.07088259 -0.007124687
0.025900088 -0.017578816 -0.00454472 0.1927364 -0.036363464 0.01868342 -0.01477558 -0.05721959
-0.038507704 0.19265363 -0.06468073 -0.0046822447 -0.042488344 0.0018622186 -0.03474187 0.008525685
-0.0040168813 -0.007484494 -0.01164615 -0.01032589 -0.0056315716 0.021895787 0.03718126 -0.047710445
-0.019967653 0.053585734 -0.0440652 -0.01022976 0.021080462 0.012233127 -0.06447218 -0.06305727
0.15392208 0.13730134 0.056444824 -0.1672544 0.20705146 -0.025941195 0.062269382 -0.0065432135
0.06232669 0.05943325 -0.016543757 0.010043681 0.21386032 -0.0076521914 -0.27906212 -0.046813335
0.01268978 -0.019123212 0.08837736 -0.0045158206 -0.004866225 -0.0043189367 -0.06122151 -0.067895405
0.022677306 0.0042249192 0.012931431 -0.061852377 -0.045707308 0.21111824 -0.047921658 0.030212024
00000000: 4029 95bd c462 40bc a0e0 98bc 2283 05bd
00000010: 3656 043e 26bf 75bd 2bd9 16bd e2cb 3d3e
00000020: 4663 183d 76aa 29b7 5cd3 81bd eb10 6dbc
00000030: f680 3f3e 364d 94bc d431 ba3a 2dde 10bc
00000040: 41d0 123e 96d7 c53c da79 d53d dc36 2f3e
00000050: afad 46bc 4340 833d f3d5 7fbd 415d c63b
00000060: 165d b9bb b4a4 8a3b 26d0 7b3c aa6b 1bba
00000070: d3e2 68bd e1a7 373c 29f0 493d dd4a 0c3e
00000080: 1ec7 60bc 26d5 dcbc f020 71bd 841a d4bb
00000090: 5783 42bc 7513 41bb 3268 24bc 2c24 e63d
000000a0: 9de8 24bc c6fa df38 ba13 cbbb 113f 26bd
000000b0: a711 5ebd d826 213c a98c 323e 8814 2d3d
000000c0: f73b debb 8d96 a9bc f378 9dbc 3ab0 593b
000000d0: 7a3f 2c3d cc46 0f3d ab09 a43c 3573 003d
000000e0: bd51 373e b052 adbd f8a2 f13c 1c29 8d3c
000000f0: 1d04 ddbb bb0b c73d c1db f03b e5fe d2ba
00000100: 78d6 f0bb 474a 19bc d339 eabc 1178 fd3b
00000110: d2ca 393d 016c 2fbc db24 85bd 0c68 93bd
00000120: 3f56 50bd c75b 1fbc 8b9c 4d3e 4aab 393e
00000130: 2a4c 8c3c 0278 553e f8fb 853d e97e 9ebb
00000140: 0111 a73c 404f b1bb 467c 6f3a 0a63 71bc
00000150: 680c 42bc c5b7 54bd 6a23 13bd a54f 05bd
00000160: 5ea7 63bc 3185 8cbd b6a1 5d3e 11e9 78bd
00000170: b486 2cbc 02e0 963c be07 433e 7b11 b53c
00000180: 13df cb3c 4d7d 77bb 089b c4be e366 813d
00000190: 5838 edbb cae5 9c3c 3785 9dbc 0333 473c
000001a0: 1b51 a73d 1a2b 61bc 9feb 923c 6b76 f5bc
000001b0: 7a38 54bd 4ac4 42b8 ceb7 91bd 7858 af3c
000001c0: 15d5 af3c 5418 42bd 9a4e 10bd c670 54bd
000001d0: 2912 253b 463b 6a3d 2b87 73bc 6875 0b3e
000001e0: dc2d 303e 3834 c9ba 76bd e6bb a4e5 b83d
000001f0: a61a 2f3c 3b79 eb3b 2123 4c3e f8b0 863a
00000200: b337 7a3e 61e3 1b3c 57d7 7bbd 4606 edbc
00000210: 86e4 763c c19e 42bd 1e54 a73d b8c5 ccba
00000220: d81c ce3c a442 26bd 5909 393a ce1e 54bd
00000230: afd1 7bbd 3954 9ebd 36ac 16ba 1c8f 3cba
00000240: a19a 0cbc 164f 92bd 3114 97bd 4704 76bd
00000250: 7178 0cbc 41d2 cdbb 12d9 c2ba fc81 703c
00000260: 7da9 e63c c02f 08bc 4037 d63c d8e1 a0bc
00000270: 6fb1 d43b 8b46 2e3c abc2 ad3c 850d 163e
00000280: da97 35bd 9c30 abbd 1bad a13b 7109 1b3c
00000290: 9836 10bd 66d7 21bc a53b f9bc fa8b 03bc
000002a0: 1a00 2d3c ac12 26bc 2224 8b3d 61a0 8bbd
000002b0: da77 1bbc 1475 a43c 0cb6 013d dee7 85bc
000002c0: 9f48 3d3d b10b 1bbc 7e88 77bc 419b 93bb
000002d0: 8a07 393b 8bac abbd 2e01 5cbd d0f8 d3bb
000002e0: 7d0f 01bc fdeb 1ebc 4ed8 75bd a9d9 c5bc
000002f0: 52d4 c73d e811 7d3c e42a 91bd 3576 e9bb
00000300: 6c2c d43c 7301 90bc e0eb 94bb b15c 453e
00000310: dbf1 14bd f90d 993c 4615 72bc 175f 6abd
00000320: 41ba 1dbd fe46 453e 5577 84bd 846d 99bb
00000330: 4208 2ebd b015 f43a 7e4d 0ebd 51af 0b3c
00000340: 0ba0 83bb 7c40 f5bb 7ecf 3ebc ec2d 29bc
00000350: 0c89 b8bb cb5e b33c 604b 183d 076c 43bd
00000360: 3493 a3bc b77c 5b3d b67d 34bd b99a 27bc
00000370: efb0 ac3c 746d 483c fe09 84bd 2c24 81bd
00000380: c09d 1d3e b998 0c3e b032 673d bd44 2bbe
00000390: 4c05 543e a182 d4bc 2e0e 7f3d 7468 d6bb
000003a0: 454a 7f3d 4870 733d c686 87bc 408e 243c
000003b0: 33fe 5a3e 3cbf fabb 3be1 8ebe 57bf 3fbd
000003c0: cce8 4f3c 48a8 9cbc 30ff b43d 73f9 93bb
000003d0: db74 9fbb de85 8dbb 68c3 7abd bf0c 8bbd
000003e0: c2c5 b93c 3171 8a3b 5ade 533c eb58 7dbd
000003f0: 9637 3bbd 612f 583e 8049 44bd 357f f73c

network.6.weight f4 [256, 256]
0.054150674 -0.01597545 -0.050327912 0.031555682 0.0879946 0.0047592553 0.03507886 0.025092531
0.79890853 0.0017831314 -0.053643215 -0.016236404 0.085950375 0.02641425 -0.003005449 -0.001301448
0.02273099 0.042005584 0.0032615168 0.07357056 0.05575534 0.76989186 0.024893822 0.060253754
0.0015615581 0.044145823 0.021636713 -0.005139105 0.035541628 0.07245071 0.76276386 0.0561376
0.0593943 -0.042796154 -0.055448182 -0.019237172 -0.028181402 0.101536825 -0.033112787 0.08244751
0.09413788 0.019854821 -0.0077350643 -0.01757616 -0.03157072 -0.0105465595 0.0034009542 0.09672206
0.00059111684 -0.015135374 -0.03520153 0.07758264 0.5292412 0.087063536 0.043097317 0.0608177
0.045301475 1.30064 0.07776906 0.11418096 0.0935605 0.05761447 0.047770593 0.035147823
-0.028183367 0.04137681 -0.032589488 -0.014213218 0.7251931 0.042668983 -0.011023521 -0.059422202
0.008599694 0.05415327 -0.011757597 0.00078361976 0.12556499 0.06736207 0.054279845 0.034314692
0.03721654 -0.049200743 0.07707375 0.07130657 0.088153765 0.034645163 0.04235412 0.02531309
-0.014705829 0.05023051 0.07717946 -0.01454996 0.03789032 0.08758179 0.05377448 -0.016589465
0.026898943 -0.039620467 -0.8763978 0.075672045 -0.01640367 0.004626736 0.039788377 0.09706735
-0.020320242 -0.044175535 0.06578392 0.049325604 -0.035410136 -0.023376279 0.013906175 -0.017117275
-0.010828112 0.0016397594 0.033242453 0.060713913 0.053181924 0.7952015 0.050099816 0.06855955
-0.008488039 0.058907073 0.07029473 0.08305483 -0.036995146 0.048306488 0.023522774 -0.017946703
-0.0018857992 0.06094703 0.058693968 0.061971948 -0.001507328 -0.020042794 0.043155953 0.013583505
0.040110305 0.018604461 0.016572913 0.042972967 -0.0053412155 0.030815974 0.014390418 0.014564635
0.034256723 -0.017107414 -0.018818485 -0.026464438 0.0018698019 0.08096867 0.055174418 0.026797285
0.074632555 -0.035720054 0.13059242 0.03448748 0.02885735 0.30042928 0.10895708 -0.033853326
-0.024515 0.060349833 0.07585816 -0.0068903305 -0.02567573 -0.019497043 -0.017248143 -0.006454334
0.023752244 0.07837881 0.044833925 0.79669505 0.0838188 0.076491416 -0.019612322 0.009415337
0.009307433 0.008148605 -0.019607253 0.010525618 0.093133025 -0.002927981 -0.033886306 -0.028394727
0.08770607 -0.04455611 -0.013191857 0.0001160808 0.07997666 0.07505155 -0.0337711 -0.051102012
0.059049394 -0.04295102 0.03214907 0.058334954 -0.015038505 0.060945205 0.08012506 0.023920951
-0.053641286 0.052390166 -0.0075240307 -0.0195414 -0.05024372 0.018273825 -0.045400523 0.0253498
-0.015408254 0.05231822 -0.048244238 0.019493397 0.0009336399 0.026080988 0.074904785 -0.044966564
0.040838204 0.0163687 0.012631513 0.0111421505 0.0062843575 0.030565543 -0.04778215 -0.049550608
0.098186284 0.054235794 0.035742164 -0.22941601 0.02501596 0.05149226 0.77756214 -0.01808383
-1.0487179 1.1935582 -0.017160837 0.08222012 0.06855647 0.026570726 -0.88490224 -0.023962205
0.058804158 0.017092146 -0.015970083 -0.010315436 0.00067333115 0.002766997 -0.00951772 -0.018707804
0.005123221 -0.54131526 -0.0066437987 -0.03136046 0.04288833 0.071489565 -0.03790904 0.019066108
00000000: 19cd 5d3d f2de 82bc a424 4ebd 8840 013d
00000010: 8336 b43d 87f3 9b3b daae 0f3d da8e cd3c
00000020: 4585 4c3f f6b7 e93a fdb8 5bbd 3502 85bc
00000030: c006 b03d b262 d83c 11f7 44bb 5995 aaba
00000040: 5736 ba3c 0c0e 2c3d 2cbf 553b 29ac 963d
00000050: b65f 643d a217 453f 21ee cb3c a4cc 763d
00000060: 32ad cc3a 40d2 343d 7a3f b13c f065 a8bb
00000070: 1994 113d 0a61 943d 7e44 433f 8af0 653d
00000080: 7047 733d 054b 2fbd a21d 63bd 4697 9dbc
00000090: afdc e6bc 8af2 cf3d 46a1 07bd 3dda a83d
000000a0: 5ccb c03d 94a6 a23c 6c76 fdbb e1fb 8fbc
000000b0: 4d50 01bd 7acb 2cbc 8be2 5e3b 3716 c63d
000000c0: 2ef5 1a3a 5cfa 77bc 7b2f 10bd a6e3 9e3d
000000d0: 5a7c 073f 5e4e b23d d086 303d fb1b 793d
000000e0: 0a8e 393d 5f7b a63f 6345 9f3d b5d7 e93d
000000f0: a69c bf3d 27fd 6b3d 19ab 433d 2af7 0f3d
00000100: cee0 e6bc bb7a 293d 8e7c 05bd 8fde 68bc
00000110: 41a6 393f acc5 2e3d 009c 34bc b264 73bd
00000120: bbe5 0c3c d2cf 5d3d f0a2 40bc d56b 4d3a
00000130: 1c94 003e 20f5 893d 8b54 5e3d 908d 0c3d
00000140: 5f70 183d b886 49bd d8d8 9d3d 2e09 923d
00000150: f689 b43d 16e8 0d3d 847b 2d3d 665d cf3c
00000160: b8f0 70bc 82be 4d3d 4410 9e3d f562 6ebc
00000170: e132 1b3d 155e b33d a142 5c3d a1e6 87bc
00000180: 2c5b dc3c 1249 22bd 9b5b 60bf f2f9 9a3d
00000190: fd60 86bc e09b 973b 23f9 223d 3fcb c63d
000001a0: a376 a6bc 68f1 34bd b8b9 863d a509 4a3d
000001b0: 380a 11bd 9c7f bfbc bad6 633c 8739 8cbc
000001c0: 6568 31bc 32ed d63a 3d29 083d 27af 783d
000001d0: 4ad5 593d 5392 4b3f 7735 4d3d f368 8c3d
000001e0: 6a11 0bbc 8b48 713d aff6 8f3d a718 aa3d
000001f0: 3988 17bd 06dd 453d d5b2 c03c f704 93bc
00000200: ec2c f7ba 98a3 793d 1669 703d 4cd6 7d3d
00000210: 8991 c5ba c930 a4bc 4cc4 303d 598d 5e3c
00000220: b44a 243d 6268 983c ebc3 873c 6c04 303d
00000230: 5d05 afbb c871 fc3c cac5 6b3c 82a0 6e3c
00000240: c750 0c3d d924 8cbc 3929 9abc f3cb d8bc
00000250: 2414 f53a e7d2 a53d 92fe 613d fb85 db3c
00000260: f4d8 983d 314f 12bd 05ba 053e be42 0d3d
00000270: 4066 ec3c ded1 993e e424 df3d c9a9 0abd
00000280: aed3 c8bc 6331 773d 865b 9b3d 48c8 e1bb
00000290: e955 d2bc 43b8 9fbc fa4b 8dbc e17e d3bb
000002a0: 1194 c23c 1285 a03d c7a3 373d 35f4 4b3f
000002b0: 31a9 ab3d 88a7 9c3d 05aa a0bc c942 1a3c
000002c0: 347e 183c ba81 053c 649f a0bc a473 2c3c
000002d0: 87bc be3d 5fe3 3fbb 5ecc 0abd 0f9c e8bc
000002e0: 3d9f b33d 7880 36bd a922 58bc 6870 f338
000002f0: ceca a33d a1b4 993d 9153 0abd 5850 51bd
00000300: c7dd 713d 69ed 2fbd beae 033d a2f0 6e3d
00000310: 1064 76bc aea1 793d 9c18 a43d dff5 c33c
00000320: f7b6 5bbd 1297 563d 258c f6bb 4915 a0bc
00000330: 5ccc 4dbd fdb2 953c e6f5 39bd 62aa cf3c
00000340: e772 7cbc a14b 563d c09b 45bd 9eb0 9f3c
00000350: 83bf 743a cca7 d53c ae67 993d dc2e 38bd
00000360: f645 273d a717 863c 68f4 4e3c 918d 363c
00000370: 03ed cd3b 9764 fa3c 37b7 43bd 94f5 4abd
00000380: e415 c93d 5a26 5e3d 6066 123d 08ec 6abe
00000390: 45ee cc3c 8ce9 523d 500e 473f 8a24 94bc
000003a0: 633c 86bf 84c6 983f e294 8cbc 0663 a83d
000003b0: 5667 8c3d daaa d93c f488 62bf 634c c4bc
000003c0: a1dc 703d d404 8c3c b1d3 82bc 1302 29bc
000003d0: 7d82 303a 8256 353b 36f0 1bbc 1c41 99bc
000003e0: b1e0 a73b a393 0abf 39b4 d9bb d373 00bd
000003f0: acab 2f3d 1f69 923d 8246 1bbd 8730 9c3c

network.6.bias f4 [256]
1.482045 0.019339668 1.5381498 -0.04168162 1.4585562 1.4537675 1.4412951 1.5417628
0.028520454 0.026567275 -0.024747245 -0.04863029 -0.020703737 1.4552411 -0.051223613 0.026700066
1.4979837 -0.022648025 1.501488 1.4330169 1.4794384 1.4441034 0.011015433 0.019070711
-0.048427954 -0.0690989 1.4421701 1.4958205 0.06635446 -0.03179724 1.474064 -0.023343528
-0.059975393 0.57996845 1.5432092 -0.06570344 0.00013775853 -0.05763764 1.5186787 1.4381216
-0.038879853 1.469251 1.4240489 0.014855409 1.408415 1.4642715 1.3416579 -0.06257733
0.01608006 -0.067923374 -0.022563456 0.011743895 0.021679256 1.460391 -0.041827258 1.480297
-0.013770202 -0.019466797 1.4661012 -0.040030602 1.495804 -0.025250256 -0.029660178 1.5179973
0.027910337 1.427687 1.5355884 -0.0064513776 1.0364982 0.678976 0.018753627 1.4272596
1.5354019 -0.03263063 0.57668525 1.5381098 1.432932 -0.037375256 0.00025329567 -0.02519531
-0.04022455 1.4447913 1.5094392 -0.030300362 -0.06803147 0.032465518 -0.03446656 0.007024067
-0.06986944 -0.030596767 1.4492092 -0.01708096 1.4846196 -0.005061674 1.5553232 1.4343626
1.5667576 1.5158086 1.5164851 1.4861174 0.014242499 0.008121129 0.0031239092 1.5118417
1.455155 1.5153081 1.5119553 -0.0057213483 1.4739944 1.4638437 -0.07244543 -0.015138168
0.029948797 0.014406664 1.474098 -0.044433344 -0.018337484 -0.009972097 1.5069638 1.5466431
-0.061884467 0.014231582 -0.061192494 0.014166233 1.4170038 -0.021550171 0.025266314 1.5129802
1.4522218 1.3958119 -0.017848356 -0.07589431 -0.026267784 1.4904374 -0.038617432 0.0040892665
-0.051855255 -0.066799514 0.02330485 -0.0633551 1.4670106 -0.000114875584 1.5177586 -0.041172106
0.0048840144 -0.014307756 0.011143849 1.4443067 1.4503639 -0.06999617 1.4528487 1.5314178
1.3242855 -0.0072996584 -0.05551392 1.4407295 -0.032629818 1.5326109 0.0094192615 0.024609331
1.4948125 -0.022856303 1.4471362 -0.00867693 -0.06200786 1.4634664 0.544549 -0.06927959
-0.022077946 1.5051548 1.5019395 -0.027303047 1.3758168 1.3870052 -0.0036129237 -0.022362694
1.4012324 -0.04599022 0.026691945 1.5186734 1.3537648 0.026426619 1.4411817 0.02308335
-0.053452544 0.03747715 -0.070079714 -0.011129155 -0.03384615 1.5154272 0.002963391 -0.034569997
0.0050808154 1.4555109 1.4429832 -0.022063067 -0.04763676 0.01330157 0.0047251643 0.013577697
-0.073761605 -0.017030828 -0.032429595 1.4302764 -0.015693622 -0.030546201 1.5375034 1.4347649
-0.06589152 1.4335835 -0.077969775 1.4967035 1.395527 -0.04151573 -0.018865447 0.6101086
1.3940685 1.3919306 -0.059068903 1.5520467 -0.027828574 -0.04366057 -0.036183678 -0.06580404
1.4417868 -0.06556133 0.009392134 1.5574867 -0.022503061 1.5414846 -0.08529083 0.02306853
0.016174912 1.4967775 0.022600617 -0.031903926 0.0084342025 0.020873217 1.45617 0.011763414
1.4374173 -0.058781404 1.5345011 0.019027336 1.4773985 -0.07929763 0.016553883 1.5156893
1.4378908 -0.071877636 -0.015487899 -0.009002086 0.017893935 -0.03607161 -0.045808665 1.3487918
00000000: a7b3 bd3f 396e 9e3c 18e2 c43f 59ba 2abd
00000010: f8b1 ba3f 0e15 ba3f 5c7c b83f 7c58 c53f
00000020: baa3 e93c 9da3 d93c bcba cabc 8e30 47bd
00000030: e29a a9bc 5745 ba3f dacf 51bd 19ba da3c
00000040: eebd bf3f 5a88 b9bc c230 c03f 196d b73f
00000050: 3d5e bd3f 61d8 b83f 137a 343c 2e3a 9c3c
00000060: 645c 46bd b983 8dbd 0899 b83f 0c77 bf3f
00000070: d9e4 873d d33d 02bd 21ae bc3f ed3a bfbc
00000080: c2a8 75bd d078 143f e187 c53f 868f 86bd
00000090: 4673 1039 7215 6cbd 1064 c23f 5e14 b83f
000000a0: 7b40 1fbd 6b10 bc3f 3c47 b63f 1a64 733c
000000b0: f146 b43f 406d bb3f 72bb ab3f 8b28 80bd
000000c0: 54ba 833c 691b 8bbd ffd6 b8bc 7769 403c
000000d0: b298 b13c 18ee ba3f 0f53 2bbd 5f7a bd3f
000000e0: 6a9c 61bc d578 9fbc 34a9 bb3f 21f7 23bd
000000f0: 8176 bf3f a0d9 cebc e7f9 f2bc bc4d c23f
00000100: 38a4 e43c 73be b63f 298e c43f 1466 d3bb
00000110: f9ab 843f 5fd1 2d3f 35a1 993c 71b0 b63f
00000120: 0d88 c43f b2a7 05bd a5a1 133f c8e0 c43f
00000130: 516a b73f cc16 19bd c5cc 8439 6566 cebc
00000140: 7fc2 24bd ecee b83f 4e35 c13f 7738 f8bc
00000150: 1554 8bbd 90fa 043d cf2c 0dbd 252a e63b
00000160: b517 8fbd 12a6 fabc b07f b93f 5fed 8bbc
00000170: 0408 be3f 66dc a5bb d514 c73f 3299 b73f
00000180: 838b c83f 0406 c23f 2f1c c23f 1839 be3f
00000190: 5f59 693c 7c0e 053c 80ba 4c3b 0784 c13f
000001a0: 8542 ba3f 9ef5 c13f c087 c13f 267a bbbb
000001b0: d9ab bc3f 3b5f bb3f 455e 94bd 1406 78bc
000001c0: 2e57 f53c ee09 6c3c 3eaf bc3f bdff 35bd
000001d0: 7e38 96bc 0262 23bc 31e4 c03f 67f8 c53f
000001e0: 917a 7dbd 952b 693c fba4 7abd 7d19 683c
000001f0: 6160 b53f fc89 b0bc 4dfb ce3c 56a9 c13f
00000200: 67e2 b93f f7a9 b23f b736 92bc 7a6e 9bbd
00000210: 892f d7bc a7c6 be3f 502d 1ebd 41ff 853b
00000220: 2d66 54bd 2fce 88bd d0e9 be3c 52c0 81bd
00000230: 01c7 bb3f 5ce9 f0b8 ea45 c23f 15a4 28bd
00000240: 150a a03b 146b 6abc b194 363c 0bdf b83f
00000250: 86a5 b93f 275a 8fbd f2f6 b93f 8005 c43f
00000260: 3082 a93f f931 efbb 9062 63bd d369 b83f
00000270: d8a6 05bd 982c c43f 3f53 1a3c 8299 c93c
00000280: 0456 bf3f 243d bbbc c23b b93f af29 0ebc
00000290: f4fb 7dbd de52 bb3f 9067 0b3f 75e2 8dbd
000002a0: cfdc b4bc eaa8 c03f 8e3f c03f a4aa dfbc
000002b0: c41a b03f 6389 b13f cdc6 6cbb f831 b7bc
000002c0: 955b b33f 3e60 3cbd 11a9 da3c e463 c23f
000002d0: 2a48 ad3f a37c d83c a478 b83f 4b19 bd3c
000002e0: 0ef1 5abd a481 193d f485 8fbd 0f57 36bc
000002f0: 43a2 0abd 85f9 c13f 7335 423b 4599 0dbd
00000300: f87c a63b 2e4e ba3f acb3 b83f 9bbd b4bc
00000310: c31e 43bd d4ee 593c 8dd5 9a3b fd74 5e3c
00000320: 5310 97bd 3c84 8bbc e5d4 04bd 4c13 b73f
00000330: e98f 80bc 073c fabc e9cc c43f 60a6 b73f
00000340: 22f2 86bd aa7f b73f 9eae 9fbd fb93 bf3f
00000350: a1a0 b23f 660c 2abd b68b 9abc 1430 1c3f
00000360: d670 b23f c82a b23f 3cf2 71bd 77a9 c63f
00000370: c0f8 e3bc 6dd5 32bd 5635 14bd 45c4 86bd
00000380: 788c b83f 0545 86bd 77e1 193c b95b c73f
00000390: 5758 b8bc 5e4f c53f f5ac aebd 37fa bc3c
000003a0: 4081 843c 6896 bf3f ee24 b93c b1ad 02bd
000003b0: 9c2f 0a3c 4ffe aa3c c763 ba3f 56bb 403c
000003c0: 4afd b73f c5c4 70bd 886a c43f 37df 9b3c
000003d0: 651b bd3f cc66 a2bd 029c 873c 1b02 c23f
000003e0: ce0c b83f 9534 93bd f5c0 7dbc 7c7d 13bc
000003f0: 4d96 923c d3bf 13bd dea1 3bbd 36a5 ac3f

network.8.weight f4 [3, 256]
0.3381675 0.068607405 0.31350586 -0.0047490746 0.33190072 0.32234365 0.30961603 0.34730622
0.00052080606 0.02122209 0.031564135 0.00012502146 -0.04408945 0.3439913 -0.031552166 -0.017615046
0.29990068 0.043170415 0.35237634 0.415894 0.3429427 0.3577393 -0.03264248 -0.00679845
0.0094372425 0.004504391 0.35178807 0.3194394 0.046418183 -0.02304142 0.3026872 -0.04545356
0.03740131 -0.8167246 0.32871488 -0.0299036 0.05744052 -0.030433647 0.3461463 0.34615493
-0.035197776 0.34999323 0.31542748 0.017669141 1.0441042 0.32341295 0.3706159 0.021725347
-0.0481025 0.006123621 -0.041530892 -0.008401286 0.045783926 0.29308623 0.03937501 0.31737894
-0.04632986 -0.038063828 0.30555093 5.8030717e-05 0.33039182 -0.020806476 -0.0013557983 0.296415
-0.029248782 0.35148466 0.3212032 -0.023424923 0.8270865 -0.8328082 -0.051189005 0.9193491
0.32310027 -0.009460755 -0.8293399 0.32642803 0.3323002 -0.02729399 -0.051238783 -0.021910818
0.013273806 0.29853618 0.34318382 -0.028205788 -0.044363186 -0.021166446 0.07429749 -0.022816509
-0.041572616 0.019278724 0.32031316 -0.045215987 0.32527125 -0.07756575 0.8378084 0.33529225
0.32967508 0.28816167 0.3215585 0.3264716 -0.010137303 -0.044407733 -0.0048267995 0.351987
0.2939612 0.32454896 0.34715557 -0.0014091454 0.327157 0.3212365 -0.03526233 0.039972037
-0.018712461 0.030392429 0.3601289 -0.02596138 0.0443082 -0.03585208 0.34421912 0.33300897
-0.029375894 0.032424558 -0.03554615 0.008813028 0.39852637 -0.0030014783 0.0164109 0.31751633
0.32522863 0.3606568 0.00057920074 0.062212296 -0.024441602 0.32854927 0.025707334 -0.015900716
-0.04605466 0.03012536 0.0031729452 -0.059014827 0.44662052 -0.020943051 0.3663513 0.011149816
-0.008267108 0.0044530164 -0.039807685 0.27402294 0.32783177 -0.04331702 0.29924726 0.38180304
1.1048601 -0.001905566 0.008711177 0.33942905 0.009306008 0.3989819 -0.045998946 -0.023481825
0.34260136 -0.016795166 0.34381804 -0.058099173 0.039684176 0.3142375 -0.7750876 -0.027466916
-0.03049674 0.2944474 0.32079762 -0.039079454 0.3972897 0.6655179 0.038287457 0.06564807
0.56029725 0.024864862 -0.051085845 0.3134635 0.34427986 -0.018887293 0.3306189 -0.09122968
0.012361617 0.027718505 -0.023793105 0.03211288 -0.057188727 0.31285423 0.0064362497 -0.034430493
-0.05586205 0.49321923 0.3463247 -0.039585378 0.012481753 0.04973102 -0.044240147 -0.0044938293
0.05813616 0.022678725 0.0073969164 0.3399481 -0.03811226 0.024672022 0.30043966 0.3238457
-0.06383563 0.3005086 -0.027382445 0.30269438 0.33292872 0.017937252 0.06321299 -0.76620513
0.32331455 0.36728266 0.020613316 0.33960873 0.046640575 0.05335839 0.011695228 0.05512432
0.33631507 -0.028603775 -0.044711117 0.32229978 0.007316327 0.35720572 -0.029426662 0.061209973
-0.034199927 0.3172096 0.02919484 -0.04528566 0.005595711 0.007696029 0.2984701 -0.028328277
0.3174418 0.02070304 0.34318325 -0.027298681 0.29678172 0.043968055 -0.029505242 0.3323242
0.3286186 0.035595767 0.038004026 -0.045373324 -0.011303274 -0.011284775 0.017060082 0.3736362
00000000: 4a24 ad3e 0a82 8c3d d783 a03e 209e 9bbb
00000010: e4ee a93e 3a0a a53e fe85 9e3e 1fd2 b13e
00000020: b486 083a f3d9 ad3c 6549 013d 3118 0339
00000030: 2497 34bd a11f b03e d83c 01bd 6e4d 90bc
00000040: 958c 993e 76d3 303d ac6a b43e 0ff0 d43e
00000050: 3096 af3e 9b29 b73e 1fb4 05bd 88c5 debb
00000060: aa9e 1a3c 9299 933b 911d b43e 908d a33e
00000070: fe20 3e3d 5cc1 bcbc d1f9 9a3e 832d 3abd
00000080: 1e32 193d dd14 51bf 514d a83e 65f8 f4bc
00000090: c046 6b3d fc4f f9bc 163a b13e 383b b13e
000000a0: 8b2b 10bd 5032 b33e b67f a13e e0be 903c
000000b0: 35a5 853f 6296 a53e 5ec1 bd3e 5bf9 b13c
000000c0: 2107 45bd a8a8 c83b 4c1c 2abd 8ca5 09bc
000000d0: ed87 3b3d 660f 963e b147 213d 7e7f a23e
000000e0: 61c4 3dbd d1e8 1bbd 2c71 9c3e 0266 7338
000000f0: 1e29 a93e 5872 aabc 0bb5 b1ba b5c3 973e
00000100: 249b efbc ccf5 b33e bf74 a43e a0e5 bfbc
00000110: f1bb 533f eb32 55bf 90ab 51bd 765a 6b3f
00000120: 666d a53e 4801 1bbc 9f4f 54bf 9321 a73e
00000130: 4023 aa3e a597 dfbc c2df 51bd 517e b3bc
00000140: 617a 593c bcd9 983e cab5 af3e d30f e7bc
00000150: 2cb6 35bd 4165 adbc 4829 983d b0e9 babc
00000160: 0c48 2abd 6aee 9d3c 1600 a43e 6634 39bd
00000170: f489 a63e cbda 9ebd 9c7a 563f 6dab ab3e
00000180: 2ccb a83e ed89 933e 51a3 a43e 4927 a73e
00000190: ee16 26bc e2e4 35bd 212a 9ebb a437 b43e
000001a0: 1582 963e 482b a63e 60be b13e 13b3 b8ba
000001b0: 1f81 a73e 1c79 a43e 3c6f 10bd b8b9 233d
000001c0: e04a 99bc 8bf9 f83c d162 b83e f6ac d4bc
000001d0: 847c 353d a1d9 12bd 7d3d b03e 2780 aa3e
000001e0: b7a5 f0bc 9dcf 043d d798 11bd 8564 103c
000001f0: a60b cc3e 73b4 44bb 2770 863c 8091 a23e
00000200: 5e84 a63e 02a8 b83e 81d5 173a 52d2 7e3d
00000210: c139 c8bc 9c37 a83e 3098 d23c 3842 82bc
00000220: d0a3 3cbd 75c9 f63c 30f1 4f3b 88b9 71bd
00000230: 72ab e43e c390 abbc 6692 bb3e b8ad 363c
00000240: c472 07bc 9cea 913b 620d 23bd bc4c 8c3e
00000250: 91d9 a73e 306d 31bd f036 993e b07b c33e
00000260: 0e6c 8d3f 2fc4 f9ba 53b9 0e3c a5c9 ad3e
00000270: 3a78 183c 5b47 cc3e 6469 3cbd f55c c0bc
00000280: 7269 af3e 0496 89bc eb08 b03e 66f9 6dbd
00000290: e08b 223d bde3 a03e 246c 46bf 4c02 e1bc
000002a0: 4dd4 f9bc cfc1 963e 963f a43e c711 20bd
000002b0: 8e69 cb3e 625f 2a3f 4fd3 1c3d 7f72 863d
000002c0: a46f 0f3f 65b1 cb3c 643f 51bd 4a7e a03e
000002d0: 7345 b03e 86b9 9abc e146 a93e a0d6 babd
000002e0: 6188 4a3c eb11 e33c c2e9 c2bc cc88 033d
000002f0: ba3e 6abd 6e2e a03e 2de7 d23b fd06 0dbd
00000300: 9bcf 64bd 3b87 fc3e 7951 b13e 4724 22bd
00000310: 4480 4c3c c1b2 4b3d 2835 35bd f940 93bb
00000320: 2f20 6e3d bcc8 b93c d561 f23b ad0d ae3e
00000330: 9a1b 1cbd fb1c ca3c 3ad3 993e 1bcf a53e
00000340: 41bc 82bd 43dc 993e 2651 e0bc c2fa 9a3e
00000350: a275 aa3e 25f1 923c d075 813d 0526 44bf
00000360: 7c89 a53e 790c bc3e 42dd a83c 32e1 ad3e
00000370: 300a 3f3d 548e 5a3d 579d 3f3c 0aca 613d
00000380: 7d31 ac3e 7752 eabc 0123 37bd 7a04 a53e
00000390: cdbd ef3b abe3 b63e 2f10 f1bc 4fb7 7a3d
000003a0: 3915 0cbd 4c69 a23e 042a ef3c 757d 39bd
000003b0: 3a5c b73b f82e fc3b 13d1 983e b410 e8bc
000003c0: bb87 a23e 6c99 a93c b7b5 af3e 7ca1 dfbc
000003d0: c6f3 973e d917 343d fab4 f1bc 6626 aa3e
000003e0: b240 a83e decc 113d 1caa 1b3d 61d9 39bd
000003f0: 5e31 39bc c7e3 38bc 96c1 8b3c 3e4d bf3e

network.8.bias f4 [3]
0.9517126 1.1492423 0.99905115
00000000: 70a3 733f 5f1a 933f d1c1 7f3f
