cartpole_cl_project/runs/online_stream_model.pth (torch, 72933 bytes, 6 tensors)

network.0.weight f4 [128, 4]
00000000: 1d2c afbf 9c00 aa3d 2af3 9840 86da 4140
00000010: 3059 df3e 0666 2240 eeb4 a2bf de17 65c0
00000020: c5f0 41bf eae4 91bf 6ae4 573f 1335 0440
00000030: 9e19 3bbf d6d8 21bf 368e a640 108c 5540
00000040: f48b 033f 07b0 7fbf 5057 acbe 601a 54be
00000050: 0041 8f3f bfae 2340 94af dbbf 503b 02c0
00000060: 1340 ab3e c9fc f1bf 2b98 c9be 6ba5 0a40
00000070: 7609 f5be 76a2 a53f d128 8340 50cb 6740
00000080: 8dd7 173f c895 493f 3f62 d1bc 77ea 47bd
00000090: 1ec2 f7be bdd2 88bf 12fc b63e 7910 e63f
000000a0: ee64 a13a 345d 8b3e 92eb cfc0 4244 aac0
000000b0: 8932 77be b28f c23e d22f 8a3e c825 e7bd
000000c0: 2db7 5f3e 9973 22be 1c70 14bf ee59 b1be
000000d0: fbf2 5fbf 007e 08bf 4e6d af40 be05 7740
000000e0: 5a2c 8dbe b863 363e 7486 55be 38a2 d53d
000000f0: 15a6 babf 5314 64bf be68 a7c0 7772 88c0
00000100: 10aa 69c0 88b4 46c0 d2f5 15c0 67be 66bf
00000110: c38d f93e 87da 8dbf 545e 32be a0a3 1fbf
00000120: af0d 61bf 7b89 773e 43bb 05c1 1833 bfc0
00000130: 6756 a0bf 82c2 06c0 778b 9fc0 58a6 70c0
00000140: 6f65 b5be 2152 a6bf 00db b03e ebb2 9c3f
00000150: 3c99 6e3e db09 84be a2dc 383e 9b98 72bf
00000160: 6fe7 61bf e7ba fa3e dc69 9ec0 ddeb 72c0
00000170: a58b 173f 648e ad3f 296c 27c0 eb6c eebf
00000180: 3744 b43e ca59 9fbf a70d 95bf 2374 b4be
00000190: 9fee af3e 5353 2bbf fe99 f7bd 82b8 683e
000001a0: 38c7 e6bd 0b15 a5bd 4bd8 7f3f 8849 8bbe
000001b0: ee3c 23bf 4f17 a83c 82b0 ca3d 6010 00bf
000001c0: 7480 0dbf 6cbe 3fbf b561 8bbe 3441 26bf
000001d0: 7fef 70bf d86f 1bc0 0120 d23f 8118 0440
000001e0: 8b9d 1dbf a43a bbbf 5c48 2240 44db 0740
000001f0: e48e 78bf 0b96 2bc0 33bc ec3d 5e24 0240
00000200: e62a 203e d4d3 283f aaaf c340 8a5b a340
00000210: 005f 5abb 209e dcbd 0074 a5bd cc8c 0dbe
00000220: 1ad3 a03d 9c10 3a3f 8c8a cb40 45d7 8e40
00000230: 7b28 0bbf a61c 5bbe 675d 50c0 fe75 97c0
00000240: 056f 823e d83b 76be 812d 263c 45e7 a73e
00000250: a819 2b3e 4d6d 0bbf fc4f e23e f35f 4e3e
00000260: 8c80 10bf b897 8bbf ec0b 1d3f 141b ab3e
00000270: 0914 8a3f 7458 81bf fc15 3cbf 1590 a53f
00000280: 9ec0 8bbe 496e c7bf 64c2 69c0 734c 70c0
00000290: b4ff 38be 6009 2f3e 7cc5 703e 30aa 733d
000002a0: 088a 6bbf 26af 18bf 781c 6d40 3e4c 4f40
000002b0: 6c55 05bf f9cb 29c0 3201 a2c0 aaf2 1ec0
000002c0: f52b 32bf 0532 b8bf 6645 67c0 d675 6dc0
000002d0: a4c7 2bbd fa45 7dbe 25a0 423f 484c 4cbe
000002e0: 5810 dfbe 7070 2fbf e692 08bf 027e a5be
000002f0: 9cdc debc 23f1 71be bf08 453f 077a b73e
00000300: 5071 233e 8380 dd3e f2c5 bc40 977f aa40
00000310: d8d6 dabd 7932 823f 9295 a440 b65d a540
00000320: be80 54bf d280 e6bf 607b 93c0 0612 60c0
00000330: d727 97bf f83e c5bf 7ebb 88c0 738a 6fc0
00000340: 992b 11be 89bb 853d 808b b5bd 43fd 8cbe
00000350: 981c d03e c818 05bf bf86 96be 43bd 3bbf
00000360: 18a1 7bbe 0e52 c3bf 0813 aa3e a277 f23f
00000370: 7921 97bf 0dad 38bf 5c7e fac0 5042 83c0
00000380: 54fe 72bf 284e f6be d871 9c40 b8d8 5840
00000390: c2f7 47be acc5 5ebd 09eb 293f 6299 50bf
000003a0: c9be 53bf b5ce cabe 519b ae40 2f1b 5940
000003b0: 4a99 013e 4a21 2f3f 86ba b940 b3f5 9740
000003c0: 348d 50bf 073e f9be c8d7 413f 346e 9cbe
000003d0: 7338 9a3b 514e a8be 74cf 233f 7212 3d3e
000003e0: 9157 e93e 1c7b 9dbf 61cb 31c0 9e1b 48bf
000003f0: 0a14 2cc0 f311 8cc0 01ee b0bf 9724 733f
-1.3685337 0.083008975 4.779683 3.0289626 0.43622732 2.537477 -1.2711465 -3.5795817
-0.7575801 -1.1397984 0.8433291 2.0657394 -0.73085964 -0.6322149 5.2048597 3.3366737
0.51385427 -0.9987797 -0.33660364 -0.20713186 1.1191711 2.5575407 -1.7162957 -2.0348701
0.33447322 -1.8905269 -0.39373907 2.1663463 -0.4785878 1.2940204 4.0987325 3.6217842
0.5931328 0.78744173 -0.025559543 -0.048807587 -0.48390287 -1.0689312 0.3573919 1.7973777
0.0012313405 0.27219546 -6.497506 -5.3208323 -0.24140371 0.38000256 0.2698961 -0.11286503
0.2184722 -0.1586441 -0.57983565 -0.34638923 -0.87480134 -0.5331726 5.482093 3.8597255
-0.275729 0.17811477 -0.20852071 0.104313314 -1.4581934 -0.8909351 -5.231536 -4.2639728
-3.6510048 -3.1047688 -2.3431287 -0.9013428 0.48740968 -1.1082314 -0.17418796 -0.62359047
-0.87911505 0.24173538 -8.358218 -5.974987 -1.2526368 -2.1056218 -4.9857745 -3.7601528
-0.3542895 -1.2993814 0.34542084 1.2242101 0.23300642 -0.2578877 0.18052915 -0.9476411
-0.88243765 0.4897072 -4.9504223 -3.795646 0.59197456 1.3559079 -2.6159766 -1.8626989
0.35208294 -1.2449276 -1.1644791 -0.35244855 0.3436174 -0.6692402 -0.120899186 0.22726634
-0.11268467 -0.08060654 0.9993941 -0.27204537 -0.63764846 0.020518927 0.098969474 -0.50024986
-0.5527413 -0.74899936 -0.27222982 -0.6494324 -0.9411544 -2.4287014 1.6416017 2.0639956
-0.61568516 -1.4627271 2.5356665 2.122758 -0.97093034 -2.681033 0.11559334 2.0334697
0.15641364 0.65948224 6.1151934 5.104924 -0.0033320785 -0.107723475 -0.08078766 -0.13823241
0.078527644 0.72681594 6.3606625 4.463778 -0.54358643 -0.21397647 -3.2557008 -4.7331533
0.25475326 -0.24046266 0.010142685 0.32793632 0.16709006 -0.54463655 0.44201648 0.20153789
-0.56446147 -1.0905676 0.61346316 0.33419096 1.0787364 -1.0105119 -0.73471045 1.2934595
-0.27295393 -1.5580531 -3.6524897 -3.754666 -0.18066293 0.1709342 0.23512834 0.059488475
-0.92007494 -0.59642255 3.7048626 3.2390285 -0.5208347 -2.6530745 -5.062646 -2.483561
-0.69598323 -1.4390265 -3.6136107 -3.7103171 -0.04193844 -0.24733725 0.7602561 -0.19950974
-0.43567157 -0.6853094 -0.5334915 -0.323227 -0.027204804 -0.23627143 0.7696647 0.35835287
0.15961194 0.4326211 5.8991632 5.328075 -0.106855094 1.0171653 5.143258 5.1676893
-0.83008945 -1.8008063 -4.6088104 -3.5011 -1.1809033 -1.5409842 -4.272887 -3.7428253
-0.14176787 0.0652991 -0.08864498 -0.27536973 0.40646815 -0.5199094 -0.29399678 -0.73335665
-0.24573171 -1.5259416 0.33217645 1.8942759 -1.180709 -0.72139055 -7.8279247 -4.101845
-0.94919324 -0.48106503 4.888897 3.3882275 -0.19528106 -0.054387733 0.6637426 -0.81484044
-0.8271299 -0.3961083 5.4564595 3.3922842 0.12656131 0.6841017 5.804019 4.7487426
-0.8146546 -0.48680136 0.7571988 -0.30552828 0.0047064363 -0.3287225 0.63988423 0.18464068
0.4557462 -1.2303195 -2.7780383 -0.7816714 -2.688723 -4.377191 -1.3822633 0.94977707

network.0.bias f4 [128]
00000000: e4ba 613e a723 a53e 43d4 95bd 1ae4 6d3e
00000010: e375 793f 5694 093e 8f8e b33e 9d1b 06bd
00000020: 3002 843c 456e 273d a7cb f63d 2dd6 0bbf
00000030: e1be 843f af1b 1c3e 2eb3 e6be a811 9bbe
00000040: 26e2 8bbe 009e 703f a524 c73e 6653 423f
00000050: 7d94 bf3e 7053 603f 41c8 553e d941 ccbe
00000060: d981 313f f334 733f 1ebf 023f 7cc0 223f
00000070: e39c 423f 9d2c acbd e967 1fbe 9ec2 26be
00000080: 7940 803e 3418 e0be 97a8 083e a74e 493f
00000090: 2ab4 383f c6f7 523f 74fc 1e3f c9c9 e4bd
000000a0: cc1d f23e e49e f8be 6d61 cf3e 5c89 fa3e
000000b0: 1cb9 f43e ddfa 533f ff20 5f3f 55d8 4c3f
000000c0: 7cb8 863e 75a7 ae3d 243c 0c3f 9c85 153f
000000d0: 7b83 02bf c6e2 683f 546e 55bb 1d7a ed3e
000000e0: 5123 e43b 0374 2f3f 868a a53d a225 033e
000000f0: 1896 463f cd36 5a3f 7373 783f db27 7cbe
00000100: 9e8e 053f 21d3 6ebb 599d 113d 00cc 653f
00000110: 7dd7 6a3f 6237 5bbe 2cec 183f 38ad 193f
00000120: f018 d53f 8fa7 543e 640f 2f3f c2b5 c63e
00000130: 9b0e 663f 880b 46bd bbe0 da3e d160 ae3e
00000140: 1339 233f fddd afbc 9b06 4439 9a81 3fbd
00000150: 1657 273f ea37 ed3e 814c 063e 816c 013f
00000160: 41c6 733f 1988 683f 3921 fe3d 0fb6 773f
00000170: 1f86 18be b363 5e3f cc94 46be c730 5b3f
00000180: 07b0 853e 2696 533f 3421 363d adcb 1b3f
00000190: 6abf 693f c380 d4be 8f13 01bd 6359 91be
000001a0: 2e10 efbe 46c9 933f 7cfe 7e3f 6d1d c93e
000001b0: 5131 763e e373 2f3e 0695 133f 7e8b af3e
000001c0: db4f 313e a74a 583f 0afa b73e ed5a ef3e
000001d0: e754 f1be 4fb6 d6bd 1655 91bd 1feb 7abd
000001e0: ec86 84be 129a d43e 0a2f 833f 5e5b 143e
000001f0: 1830 383f 5c0e 4e3f 4610 27be 8186 443f
0.2204395 0.32253763 -0.07315876 0.23231545 0.97445506 0.13435492 0.350697 -0.032741178
0.016114324 0.040876646 0.12050562 -0.5462368 1.0370752 0.15244935 -0.45058578 -0.30286908
-0.27320975 0.9399109 0.38895145 0.75908506 0.37417975 0.87627316 0.20877172 -0.39893988
0.69338757 0.9500267 0.5107287 0.6357496 0.7602064 -0.08406947 -0.15566982 -0.16285178
0.2504919 -0.43768466 0.13345562 0.7863564 0.7214991 0.8240932 0.6210396 -0.111713
0.47288358 -0.48558724 0.40504017 0.48932922 0.47797477 0.8280466 0.87159723 0.80017596
0.26312625 0.08528034 0.5477927 0.58406997 -0.50981873 0.9097103 -0.0032566981 0.46382228
0.006962218 0.68536395 0.08083062 0.12807325 0.77572775 0.8523987 0.9705116 -0.24624579
0.5217074 -0.003644176 0.03555045 0.89764404 0.9173506 -0.21407846 0.5973537 0.60029936
1.6648235 0.20767044 0.6838286 0.38810545 0.89866036 -0.04835084 0.4274958 0.3405824
0.63758963 -0.021468157 0.00018694477 -0.046754457 0.6536726 0.46331722 0.13115121 0.5055619
0.95224386 0.9083267 0.124086805 0.96762174 -0.14894913 0.8687088 -0.19392699 0.85621303
0.2611086 0.82650983 0.04446526 0.6085766 0.913077 -0.41504487 -0.031512793 -0.2838851
-0.46692032 1.1545799 0.9960706 0.39280263 0.2404225 0.17134051 0.57649267 0.34286112
0.17315619 0.8448891 0.35932952 0.46749058 -0.47135088 -0.10483991 -0.07096307 -0.061259385
-0.25884187 0.41523796 1.024873 0.14487979 0.71948385 0.8049066 -0.16314802 0.76767737

network.2.weight f4 [128, 128]
00000000: 3d97 0f40 22d7 263e dcac 5a3f 1e8b 06c1
00000010: 2711 2a3f c4a6 cfbe 4f84 123f 6055 7d3f
00000020: 3924 703e 152b c13f e23a 133e 6bad 843d
00000030: 98b3 793f 1dd9 eec0 8ada 07bd ae63 023f
00000040: 10e6 313f 0e23 093f 694c 883f 1a16 e63e
00000050: 4d3a 323f a01d 563f 2fa3 c33e 30fc a83f
00000060: b0ef 013f aa02 413f 7041 423f 1674 8f3f
00000070: 79fc 493f a606 343e ad3e c73f ef19 bb3e
00000080: 2cb5 f9c0 9425 9dbc cc4d 79c0 34c5 803f
00000090: 1e6b 643f 97fa 3e3f d1f8 1b3f e7e8 cc3e
000000a0: ba13 fbbe be56 093d 1bea e2c0 82f5 c63e
000000b0: 00b9 33bf 57a6 503f 1fbd 543f 198f 323f
000000c0: 89e9 e7c0 bed8 f4bf b792 863e 6fd7 6e3e
000000d0: a1b3 753d f0bc 213f c5c8 503f ec92 103f
000000e0: 6f6c d5c0 8925 4d3f 5243 8bc0 2cda aac0
000000f0: c777 203f c0b4 3a3f 6ea7 313f 8318 0fbb
00000100: f38f 1c3f fa91 b43e 2d98 2e3f c036 c43f
00000110: 02e2 363f 7fed fb3d 1e05 1a3f 3bd5 503f
00000120: 9dd1 483f 70a8 c43e ec5f 7e3f c5fa ed3e
00000130: 1ef3 0d3f 3959 203e 2f15 32be 2287 113f
00000140: a79b 043f 29aa e53e 7cad 413f c48e 533f
00000150: 24c8 3f3f 7a22 803e 8caf 523f 3857 1c3f
00000160: 77ef 3a3f dff2 023f 0d01 6640 25c7 153f
00000170: b97e 7f3f d7fe 9f3e 121c 52bf a347 e13f
00000180: f661 f7c0 c910 0d3f 2ac0 ebbf c3c0 2d3f
00000190: 9874 373f b84a afbc 0859 d73e 747a 453f
000001a0: c37b a03d 8772 593f a74d 513f b486 3b3e
000001b0: f22a d5bf d8f4 493e 62aa 123f 0785 66c0
000001c0: ff00 89c0 bf0a 6c3f b5a3 933f 3ea3 1c3f
000001d0: 6102 443e 04a8 a83e d150 b83f a118 903f
000001e0: d8bb b43e bb76 d03e 547d 2b3f b76c 08c1
000001f0: 2520 2e3f fb73 103f 079e 8d3f 2fcd 063f
00000200: a878 0f3b 3e20 c23c dc49 a6bc 5440 a13c
00000210: a7ac c3bd fb68 583d 4726 14bc a305 28bc
00000220: 0ab5 103d 8c52 7ebd 65b2 f23c 2e7e 703d
00000230: 6595 ccbc d289 0bbc 6890 853c 1525 acbd
00000240: caf1 b2bd 5e7e 85bd 4a7e 4cbd b749 d6bd
00000250: f595 9f3d e155 1abc 423e 80bd e3c7 bfbd
00000260: b887 8cbd fbca c6bd 9f62 f9bd 9c61 9abc
00000270: 8178 babc a03b 483b 3e3d 22bd f4b4 8bbd
00000280: 99fa d4bb ccad 1dbd 3bf1 6cbd cc59 e4bd
00000290: edb0 15be 9ee7 b9bd 92ca 263d 7714 3ebd
000002a0: b69e 97bb 8769 41bd 73d4 aebd e2fe 273d
000002b0: d038 02bd 0e83 02bd e88c b0bd db2c d2bd
000002c0: 0fe8 013d 9a94 77bd 02c2 40bc 800f 3bbd
000002d0: 06e7 573d 4bb5 4dbd c049 e53b a225 53bd
000002e0: bae9 493d 9362 163d 0f09 52bd 00c3 a1bd
000002f0: deb5 edbd ed5d 0cbe e1b3 bfbd 0f85 863d
00000300: fb04 2fbd 1ff4 14bc 9b58 3abd 7fcd 09be
00000310: 35b7 e6bd 07a0 913d 955f fc3c 4fbd d9bd
00000320: f797 323d 2722 1bbc 1332 c8bd 7011 8dbd
00000330: 5fef f0bd 80fd b83c 6036 e3bd a0b0 50bd
00000340: a894 52bc 7be8 aebd 130f b3bc 6313 dbbd
00000350: a0d5 6dbd c032 853a 760a 353d 37ba 473d
00000360: 9f4d c9bb 0aba 93bd c8b7 c8bd c15a 763c
00000370: 400e eb3c 6d79 edbd c179 6ebd d4b3 ae3b
00000380: 7cf1 e3bc b947 b3bd 90e7 d13c dfe8 bd3c
00000390: 6d5d bcbd c516 03bd 26bd 75bd fab3 14be
000003a0: e851 e1bc 8988 1ebc 3871 c33c bd5a ac3d
000003b0: 23bd 113d 6899 0dbd 8a3d 92bc b3f4 ea3c
000003c0: 639a 343d 00cf 3abd d2f4 453d 3f42 a9bc
000003d0: 6806 28bc c8ea 12bc 7209 543d 20a6 55bb
000003e0: e12e 35bd 20b7 1dbd 7d27 6abb 7459 92bd
000003f0: 85c4 19be 9673 62bd fb60 60bd 530b a6bd
2.2436059 0.16293004 0.8542001 -8.408964 0.6643242 -0.4055692 0.57233137 0.98958397
0.23451318 1.5091273 0.14377931 0.06478389 0.97539663 -7.464003 -0.0331674 0.5093335
0.6949167 0.53569114 1.0648319 0.44938737 0.6962021 0.83638954 0.38210437 1.3201962
0.5075636 0.7539469 0.758811 1.1207302 0.7890087 0.17580661 1.5566002 0.36543223
-7.8033657 -0.019182958 -3.8953733 1.0060182 0.8922595 0.7460112 0.6092654 0.4002144
-0.49038488 0.03352999 -7.0910773 0.38859183 -0.7020416 0.81503814 0.83101076 0.697496
-7.2472577 -1.9128644 0.2628381 0.23324369 0.05998576 0.6317892 0.8155635 0.56474185
-6.6694865 0.801354 -4.351968 -5.3391323 0.62682766 0.7293205 0.693961 -0.0021834678
0.6115715 0.3526762 0.6820095 1.5329208 0.7143861 0.12301158 0.6016406 0.81575364
0.78444844 0.38409758 0.99365115 0.46480384 0.5544909 0.15659036 -0.17390893 0.5684682
0.51800007 0.44856384 0.7565534 0.8263972 0.74914765 0.25026304 0.82299113 0.61070585
0.73021644 0.5115184 3.5938141 0.58506995 0.9980274 0.31249115 -0.8207408 1.7599987
-7.730708 0.5510374 -1.8418019 0.67872256 0.7166228 -0.021397933 0.42060113 0.77139974
0.07836106 0.8494038 0.81759113 0.18313104 -1.6653731 0.19722307 0.57291234 -3.6018693
-4.2813716 0.922039 1.1534334 0.6118659 0.19141532 0.32940686 1.4399663 1.1257516
0.35299563 0.40715584 0.6698811 -8.526542 0.680178 0.5642697 1.1063851 0.52656835
0.0021891985 0.023697015 -0.02029889 0.019683994 -0.09554415 0.052834492 -0.009042329 -0.01025525
0.035328902 -0.06209044 0.02962608 0.058714084 -0.02497358 -0.008516746 0.01630421 -0.0840551
-0.08737524 -0.06518243 -0.049925126 -0.10463279 0.07792274 -0.009419889 -0.06261875 -0.09364297
-0.06861824 -0.09706684 -0.121770136 -0.018845372 -0.022762539 0.0030553117 -0.039609186 -0.068216234
-0.0064996 -0.038495824 -0.057847243 -0.1114994 -0.14618273 -0.090773806 0.04072053 -0.046406236
-0.004627074 -0.04721978 -0.08536615 0.04101456 -0.031792462 -0.031863265 -0.08620626 -0.10262462
0.03171545 -0.060444452 -0.011765005 -0.04566908 0.052710555 -0.050221723 0.006997317 -0.05154956
0.049295165 0.0367151 -0.05127817 -0.078985214 -0.11606954 -0.13707705 -0.09360481 0.06568348
-0.04272936 -0.009091406 -0.045494657 -0.13457297 -0.11265413 0.07110601 0.030807296 -0.10631811
0.043601956 -0.009468592 -0.09775176 -0.068880916 -0.117644064 0.022581816 -0.110943556 -0.050949693
-0.012852825 -0.08540436 -0.021857774 -0.10697057 -0.058065057 0.0010162219 0.04419943 0.048761573
-0.0061432864 -0.072132185 -0.098006785 0.015036286 0.028693318 -0.11595426 -0.058221582 0.005331496
-0.02782511 -0.087539144 0.025623113 0.02318233 -0.09197507 -0.032004137 -0.05999484 -0.1452178
-0.027504876 -0.009676107 0.023857698 0.084157445 0.035580765 -0.034570128 -0.01785161 0.028681135
0.044092547 -0.045607567 0.048329182 -0.020661471 -0.010255434 -0.008967109 0.05176682 -0.003260024
-0.04423416 -0.03850472 -0.0035729103 -0.07145968 -0.15016373 -0.055286013 -0.054779988 -0.08107629

network.2.bias f4 [128]
00000000: 78fb 6b3f 0b82 4abd c4db 283f 7c14 073d
00000010: c46d 363c ef1f c73e 4b6a 043f a4d6 90bd
00000020: f98c b83b df6f 93bd c312 f3bc 4ea5 993f
00000030: 7a53 bf3e 831a 37bd 6b34 b33e df52 8bbd
00000040: 2b46 c0bb 7660 ca3e 1081 fb3a b096 fe3d
00000050: 9c56 66bd 8012 043f 4a78 a1bd f33e acbd
00000060: 643f da3e 0a6b 1e3e 749e 5a3f e730 b9bd
00000070: 8729 40bc fc29 4cbc de53 fa3e d571 813e
00000080: 5d91 8fbd 64e8 ef3e 733b d8bd b4c3 1c3f
00000090: 6039 4d3f a016 e13e 3c2b 9ebb 35c4 f43d
000000a0: 677f 8c3e 01ff c2bd cc89 d23d 3110 0ebd
000000b0: 2815 af3f 3203 a1bc 3bde 393f 31e6 033d
000000c0: df5f e0bc 2979 a43e e685 0b3f 75e3 b7bd
000000d0: 5101 8abd f64d cf3f c6a2 c03c b41b 91bc
000000e0: 7bbf b73e 0011 b83d 0aa3 413f 6b7e 2c3f
000000f0: ebc6 f3bd 2dfd 953e 9d4b ff3e 835f 193f
00000100: ba6e d23e e0fb afbd 5be5 b83e ae55 f73e
00000110: 9f75 4bbc 44d6 133d 7b15 cfbb c93e 723f
00000120: 12d8 fabd 0607 383f 7799 163f 0c44 6ebd
00000130: 77d0 cdbd c71b 1cbc 33a1 083d 8e1b b13e
00000140: 0ca0 cbbd ac80 82bd 67c5 e13e a10b b1bd
00000150: a4c4 89bd 8b49 aabd 4c92 27bf 5c71 063e
00000160: 6c4d e23e f5a9 813f e2cd 3cbc 7c87 d63e
00000170: d227 a93e 60b3 cfbd 4d0e 9ebe 6817 82bd
00000180: d9b3 973c af6f cdbc 840b bebd 2020 213a
00000190: 72da 223f 6a74 313d 664e c33d 36c2 823f
000001a0: 95f6 453c b7c6 3cbc e2bc 963e d208 eabd
000001b0: e255 203e 5236 94bc 38dd 1abb 26e9 0f3f
000001c0: 718f ed3e 13b5 efbe 50c8 f5bc f858 2abd
000001d0: 19d8 203e a6d6 6b3f 39fb fd3c 14c1 0d3d
000001e0: 88b5 2cbe 50fc 043e 3d16 38bd bfb7 353c
000001f0: 8632 d2bd 9d4e 5ebc 8999 6c3b 8f62 243f
0.92180586 -0.049440425 0.65960336 0.03297852 0.011134569 0.3889155 0.5172469 -0.070721895
0.0056320396 -0.07199072 -0.029672032 1.2003572 0.37368375 -0.044703018 0.3500093 -0.06802916
-0.0058677397 0.3952672 0.0019188244 0.12431085 -0.05623494 0.5159073 -0.078842714 -0.08410444
0.42626488 0.1547052 0.8539803 -0.090425305 -0.011728651 -0.012461182 0.4889211 0.2528216
-0.07010148 0.46856987 -0.10558214 0.6123612 0.8016567 0.43962574 -0.0048269313 0.11951486
0.2744095 -0.095212944 0.10280189 -0.03468341 1.3678331 -0.019654844 0.7260472 0.03220195
-0.027389465 0.32123688 0.5450119 -0.08978931 -0.06738532 1.6195667 0.023515116 -0.017713405
0.35888276 0.089876175 0.756394 0.673804 -0.11903175 0.2929472 0.49862376 0.59911364
0.41100103 -0.08592963 0.36112484 0.48307556 -0.01241818 0.03609301 -0.0063196993 0.9462705
-0.122482434 0.71885717 0.5882792 -0.058170363 -0.10049527 -0.009528107 0.033356857 0.34591335
-0.09942636 -0.063721985 0.4409592 -0.08644796 -0.06726959 -0.083148085 -0.65457606 0.1312918
0.44199693 1.0129992 -0.011523696 0.4190024 0.33038193 -0.10141635 -0.30870286 -0.06352121
0.018518375 -0.025077669 -0.0927954 0.00061464496 0.6361457 0.04332391 0.09536438 1.0215518
0.0120827155 -0.011521987 0.2944098 -0.114274636 0.15657762 -0.018092308 -0.0023630392 0.5621513
0.463985 -0.46817836 -0.030002743 -0.041588753 0.15707435 0.921244 0.031003581 0.03460796
-0.16866124 0.12986875 -0.044943083 0.011091172 -0.10263543 -0.013568548 0.0036102256 0.6421289

network.4.weight f4 [2, 128]
00000000: ba30 cb3e bc9a c53c 9bfb 59c0 faa3 88bd
00000010: 6be1 d93e 14df af40 0f93 9140 d5f5 82bd
00000020: a1c0 ce3d b0ce b3bc c970 51bc b1c1 d0bf
00000030: 2bad f9bf 135f 3bbd 6de9 7c40 ef2a e4ba
00000040: 3b4e 83bd 72cd cf40 b3ca 5b40 88e2 ae40
00000050: 8c48 ba3c 8409 9940 00df 79ba 6fae 7e3b
00000060: d9a4 0441 e5e1 ac40 a861 ca3f a270 9bbd
00000070: 4370 65bc 93de 24bd c259 09c0 c348 e740
00000080: c256 9abc 0ba2 c940 00d8 af38 f529 9640
00000090: 93ee 863e 82bc 9b40 46f1 73bf e189 4d40
000000a0: 9cd0 8340 9edc 3c3c b37d ad40 1b5a f2bc
000000b0: d307 a2bf a92a c43c b603 893f f072 5a3c
000000c0: ec01 ecbc 3599 ab40 690b a740 9ee9 2bbd
000000d0: 7cf7 f03b e9d1 8d3f 540c f63c bbc7 013c
000000e0: 3ee1 a440 b5ab 9a40 aed6 7c40 e2fa d940
000000f0: c98f bf3f 347b 0741 d88b 0e40 0150 0b41
00000100: 2880 9840 f078 93bc b89a e440 863a 12c0
00000110: 99fe 8f3c 00f9 0f3c 58f7 e43a f78d 80bf
00000120: 749d 1a3c 29ff 1540 3e08 1141 3709 4dbc
00000130: ed93 97bb 1400 033d 4008 8940 41b3 6640
00000140: df4c dabc 4a16 443d da14 8d40 342b 36bc
00000150: e257 433c 6547 33bd 06b4 b73f fab1 28c0
00000160: bbd1 a840 c2fb 633f 1131 da3c 9cbb f240
00000170: 8156 a940 42e8 163d 5a15 09c0 2fa5 e3ba
00000180: c286 d1bc d48e 06bd 5ce7 b1bd 6fac f1bb
00000190: 7800 5c40 d7a3 d0bc 7bb6 1440 f226 733f
000001a0: f733 96bc 391f 8cbd 5ce3 0c41 b3e1 9ebc
000001b0: 68d9 a940 6783 fe3c 8e9f 28bd ffec 0541
000001c0: c7be 8540 9ab4 04c0 7496 6abd b718 a23f
000001d0: e857 9440 c5e5 4040 5ef6 52bd 034e 4140
000001e0: b7cd 073f 5150 aa40 8c60 30b9 c0f5 b13c
000001f0: d554 9d3d 16c8 a5bc 1242 4dbd c321 1b3f
00000200: 25a6 ecbf 2134 28bc 1ea5 e43f ae19 2d3c
00000210: bf4c ffbf 7a55 c240 029a 3a3e fd49 02bd
00000220: 4466 dabb 2ab3 2b3d 4b75 dabc 9c09 ecbf
00000230: b39e d1bf 9ece 05bd 75b8 8f40 3388 21bd
00000240: 39b2 9e3c ee90 a040 b6fa 8440 494b e240
00000250: 9784 edbb 52ec d340 b1af 83bd 3b2c b13d
00000260: 266e d13f 5309 ed40 d331 6bbf 35de bc3b
00000270: 5c61 0dbd 146e 35bc 8ce9 d340 58fb 9940
00000280: 6a2b d9bc d280 7440 5ddf fc3c 2aa2 933f
00000290: 84e2 003f 4f3e 8040 01d0 8dbf 2f9e 5340
000002a0: 4128 9b40 62e4 5e39 3550 5840 591c 983d
000002b0: 7e6e 29c0 df3e 073b 6e4c f23e 3435 8abc
000002c0: 1bc1 90bc 5fe8 b640 ba75 4b40 563f ba3c
000002d0: 244f c0bc 7e2a 0b40 5ac5 9dbc 1c9a 4cbd
000002e0: 728b ec40 6855 e640 6ccd 1140 bab8 8f40
000002f0: 701c f33f 5a77 8440 0a35 32bf 1ee8 ba3f
00000300: 8267 da40 f8c1 a4bc 8c0e 7940 a4be 2940
00000310: e4ad d93a 86b8 eab9 487a a63c 103f 8940
00000320: 27f6 b43d b488 ab3e ed71 dd3f c01c 3b3c
00000330: 3020 34bd 33d4 1abd c34f 2d40 734f 8c40
00000340: 0ec5 bd3c 4894 4f3c 8559 e840 6412 4abd
00000350: aea9 85bd acd0 9cbb f5ad 60c0 1d54 823e
00000360: 2f3c 4c40 8dd4 0740 64b6 3b3c 2142 0c40
00000370: 86b1 d640 05c0 1fbd fafb b2bf 1e0e a7bc
00000380: fead d9bc 4986 613d 65ff 66bc ab1a aebd
00000390: 1320 0541 4377 1d3c 9514 2740 5dcc 0e40
000003a0: ccba fbbc 95ce 07bb 088c ab40 04e4 6ebd
000003b0: 66d1 ee40 2c23 f9bc 07e4 823c 4424 8e3f
000003c0: 58aa 8640 12de efbf 2e58 f2bc d954 983f
000003d0: 14aa a540 e00b ebbe 581f b33c 1e73 7f40
000003e0: 7203 c73f fcd1 af40 9db0 3fbc 4e74 3fbd
000003f0: 8839 59bc 3f7e 8abd 7809 31bd e62b 743f
0.39685613 0.024121635 -3.4059818 -0.06671901 0.42554793 5.495981 4.5492015 -0.06394545
0.10095335 -0.021949142 -0.012783238 -1.630911 -1.9505972 -0.045744967 3.9517472 -0.0017407815
-0.06411406 6.493829 3.4342468 5.4651527 0.022739671 4.7824116 -0.0009531826 0.0038861295
8.290246 5.402575 1.5811052 -0.075898424 -0.014003816 -0.040251326 -2.1461034 7.227632
-0.018840197 6.3010306 8.3848834e-05 4.6926217 0.26353893 4.866761 -0.9529003 3.2115405
4.119215 0.011527209 5.421594 -0.029583981 -1.2658638 0.023946123 1.0704257 0.013333067
-0.02880951 5.362452 5.220143 -0.04197084 0.007353721 1.1079684 0.030035175 0.007921155
5.1524954 4.8334603 3.950603 6.8118753 1.4965755 8.467579 2.2272854 8.707032
4.765644 -0.018002003 7.1438866 -2.284822 0.017577456 0.008787394 0.0017468734 -1.0043324
0.009436954 2.3436987 9.064512 -0.012514404 -0.0046257884 0.031982496 4.282257 3.6046908
-0.026647983 0.04787282 4.4087954 -0.011118699 0.011922808 -0.04376926 1.4351814 -2.6358628
5.275602 0.89056027 0.026634725 7.5854015 5.2918096 0.036842592 -2.1419282 -0.0017367954
-0.025576953 -0.032851055 -0.086867064 -0.007375292 3.4375286 -0.02546875 2.3236377 0.949813
-0.018335326 -0.06841893 8.805508 -0.019394731 5.307789 0.031068517 -0.04116779 8.37036
4.1795382 -2.073523 -0.05727239 1.2663792 4.6357307 3.014024 -0.051504485 3.0203865
0.5304827 5.3223042 -0.00016820634 0.021723628 0.07682196 -0.02023701 -0.050111838 0.6059839
-1.8488203 -0.010266335 1.786289 0.010565205 -1.9945296 6.072934 0.18222812 -0.031808842
-0.006665023 0.04191891 -0.026667258 -1.8440433 -1.6376556 -0.03266775 4.4912667 -0.03943653
0.019372093 5.0176916 4.1556044 7.07169 -0.007248472 6.6225977 -0.06429995 0.086510144
1.636174 7.407388 -0.918729 0.005763794 -0.034516677 -0.011073608 6.622259 4.8119316
-0.02650996 3.8203626 0.030868227 1.1533864 0.50345635 4.007606 -1.1079103 3.3065298
4.848664 0.00021256649 3.3798954 0.07427282 -2.647369 0.002063684 0.47323936 -0.016871072
-0.017670205 5.7158656 3.1790605 0.022735279 -0.023475237 2.1744685 -0.019259144 -0.049951658
7.392022 7.1979256 2.278163 4.4912996 1.8993053 4.1395693 -0.6961218 1.4602087
6.825135 -0.020112023 3.8915129 2.6522608 0.001660761 -0.0004476944 0.02032198 4.288948
0.08836012 0.33502734 1.7300392 0.011420429 -0.04397601 -0.037800025 2.7079933 4.3846984
0.023165252 0.01266963 7.2609277 -0.049333945 -0.065265045 -0.004785618 -3.5106175 0.25454798
3.1911733 2.122348 0.0114570595 2.1915362 6.7091703 -0.039001483 -1.3983147 -0.020392474
-0.026572224 0.055059705 -0.014098977 -0.0850118 8.320331 0.009610954 2.6106312 2.2312233
-0.03072872 -0.0020722498 5.3608437 -0.05832292 7.4630613 -0.03041228 0.015977873 1.1104817
4.208294 -1.8739645 -0.029583063 1.1900893 5.1770115 -0.45907497 0.021865532 3.9914012
1.5547926 5.494383 -0.011699823 -0.046741776 -0.013258345 -0.06762361 -0.04322192 0.95379484

network.4.bias f4 [2]
00000000: 7f9a a93f 7e8c d63f
1.3250273 1.6761625
