mountaincar_cl_project/mountaincar_cl/runs/periodic/none/seed_0/online_stream_model.pth (torch, 536437 bytes, 8 tensors)

network.0.weight f4 [256, 2]
00000000: b984 0d3f 80e6 6340 9af3 58be d09a dc3f
00000010: 831e 183e 954d 1f40 b172 113f 944f 703e
00000020: 1a5e 22bf 14f9 f73f b493 7bbe b3fb 233f
00000030: 8a81 ce3e 145e 0d3e da58 053e eeec 38c0
00000040: d2b3 973e 7eba b03e 766a ab3e b7c6 2f3f
00000050: eb0c d13e 25b9 833f b819 e1bd 0c10 febe
00000060: 689f cc3e a101 3740 21e9 c6be 6838 8b3f
00000070: f06e 87be 78a2 ad3d 4114 e5be 7d29 2abf
00000080: 7670 ef3e e892 babe b8d6 e33e 736e 79bf
00000090: 8d64 2a3f 55fe adbf f611 603e 36bd 94bf
000000a0: 889a 583f 5e7f c4bf c842 a23d 9867 e1bd
000000b0: 0bec 50be b5a5 2d40 a300 413e 6344 2640
000000c0: 18d5 863d c265 cb3e 5c74 233d a154 1840
000000d0: aafe f63e 6eab 16bf 3ceb 4fbe 7f6f 193f
000000e0: 3ccd acbe a1fe 36c0 78bc 05bf 4135 00c0
000000f0: 1666 bcbd 8cea 0b40 afb6 aa3e 4554 4d3f
00000100: b265 4fbe 0577 0840 fec0 ba3b 2e44 2f40
00000110: 747d 393e 0056 c6bc c761 183f 164c e53e
00000120: 356d 063f 50be 4f3d d00b 843e 41b9 163f
00000130: b84b 2f3e 6749 2a3f 535a b63e 89d5 6040
00000140: b4da 273f 9758 b03f 7622 f5be b7c4 853f
00000150: a4bb 583e 87e9 5140 febb f73e 6054 4c3d
00000160: 5028 9abd b770 38c0 02fd 193d c473 3140
00000170: e7bb 733e 06b7 0340 441b 013f bd8c ab3f
00000180: 2dd5 4c3f 5eab 7b3f 9d1d 253f e4c9 8140
00000190: f9a8 373e 8591 1440 33db 9cbe 97db b33f
000001a0: d869 ee3e 413e 5f40 c147 323f aa69 1c3f
000001b0: 83ab b0be a555 c1be 7700 493f 0e30 6a3f
000001c0: ee03 2b3f 8f54 5740 12ad 813f bf89 7d3d
000001d0: f92d 213e 5eb9 1140 8c2e 3fbe b95c 17bf
000001e0: 9d60 423e 538b 6c3f 896f 163f ec9e 243e
000001f0: 76f4 5dbd 21aa 5340 c13f 953e f153 2940
00000200: 574a f1be 486f 15bf 1baa a23e 134e 183f
00000210: 02a0 d73e 049a 103e b2d8 1bbe f93d a73f
00000220: fb07 163f f791 113f f939 b0be 6131 8e3e
00000230: 1ac3 063d 806d 5640 308e a8bd 97f7 09bf
00000240: 74ab 02be d260 a23e be1b 453f 6dac 0c40
00000250: a312 cabe df5f 86be de44 bcbd f40f c33f
00000260: 9ed6 13be bedb ce3f b473 f73e 2510 8e40
00000270: cb57 2e3e d24c 4a40 1e0e 5e3d ecc4 4340
00000280: 23ae 5e3f 7e1c 003f 05c6 57be 0e0a d5bf
00000290: f021 c7be 45b7 bebf 1c0e 203f 789a da3d
000002a0: a0bd 8abc 8c6e 683e 20d5 20be a446 c4be
000002b0: 609a 00bd b849 53c0 8763 75be 367d c83e
000002c0: 18c1 fabd ad34 043f 3050 e83e 4c57 bd3f
000002d0: ac60 de3e ed91 593f f81b 973e 0275 2f40
000002e0: e6ca 09be 9e15 2a40 6bf6 96be ef7d 8bbf
000002f0: 11c2 05be f398 5040 4924 1ebe 2df1 5940
00000300: e228 1b3e a5fa 3740 f67d 383e 8a65 52c0
00000310: f43c fdbe 02c3 14c0 771a 083f 10ff a3bd
00000320: 82ad f13e d091 633d a0f3 d6be b412 46c0
00000330: ef8a 483f d358 3a40 4ce8 943e db48 0840
00000340: 8d11 14bf 32cc 23bf 13a0 88be cb09 333f
00000350: 58e9 5f3f 5f5d 7240 3992 f13e 808e 0040
00000360: 00c1 103b c91b 093f c0ab 033f 21ac 6f3f
00000370: 588e 0fbe a21e d23e 1e85 a23e cbc6 4e40
00000380: ece3 15be 7765 4240 4214 583f fff9 c8be
00000390: 24f2 2a3f 4a3c 1940 873b 2f3c e7ad 2f40
000003a0: 2fc8 8c3e aa9b 1b3f b41d 173e d8cd 2b3e
000003b0: d23c afbc 5eb8 2940 0c29 c73e d225 2840
000003c0: 007f 0e3e 9141 90be 69d8 9239 8c5f 75c0
000003d0: 1caf 68bd b24e f13f 7bd1 263e 9bd6 5c40
000003e0: f801 e83d 4abf edbe 3276 e53e 921e ba3e
000003f0: 954a e73e 78be 3ebd 8f78 0fbf 5bf8 babe
0.55280644 3.5609436 -0.21186677 1.7234745 0.1485539 2.4891102 0.5681563 0.23467857
-0.6342484 1.9372888 -0.24568063 0.6405594 0.40333205 0.13805419 0.13022175 -2.889461
0.2962938 0.34517282 0.3347966 0.6866259 0.40830168 1.0290877 -0.109912336 -0.49621618
0.39965367 2.8594744 -0.38849738 1.0876589 -0.26451826 0.08478254 -0.44742015 -0.66469556
0.46765488 -0.36440206 0.44499755 -0.9743416 0.6655968 -1.3593241 0.21881852 -1.1620243
0.84610796 -1.5351369 0.07922894 -0.11006087 -0.20402543 2.713239 0.18847899 2.597924
0.06583613 0.39726073 0.03990589 2.3801653 0.48241168 -0.5885533 -0.20304579 0.59935755
-0.3375033 -2.8592913 -0.52240705 -2.0032504 -0.09199159 2.1861906 0.33342502 0.8020671
-0.20253637 2.1322644 0.005699276 2.7385364 0.18114263 -0.02421093 0.59524196 0.4478461
0.52510387 0.050718606 0.25790262 0.58876425 0.17118728 0.66518253 0.35615787 3.5130332
0.6556809 1.3777035 -0.47877854 1.0450658 0.21165329 3.2798784 0.48385614 0.049885154
-0.0752722 -2.8818796 0.037594803 2.7726908 0.23802148 2.0580459 0.5043223 1.3402325
0.8001278 0.9830836 0.6449831 4.055895 0.17935552 2.3213818 -0.30635986 1.4051389
0.46565127 3.4881747 0.6964074 0.6109873 -0.34505853 -0.37760654 0.78516334 0.91479576
0.6680287 3.364536 1.0130942 0.061898943 0.15740193 2.276939 -0.186701 -0.5912586
0.18982168 0.9240009 0.5876394 0.16076249 -0.054188214 3.3072588 0.29150203 2.6457484
-0.4712703 -0.58372927 0.31770405 0.5949413 0.42114264 0.14121252 -0.15219381 1.3065788
0.5860593 0.5686335 -0.3441923 0.27772048 0.032900907 3.3504333 -0.08230245 -0.5389342
-0.12760717 0.31714493 0.76995456 2.198024 -0.39467344 -0.2624502 -0.09192823 1.5239244
-0.14437339 1.616081 0.48330462 4.439471 0.17025678 3.1609387 0.054212682 3.0588942
0.8698446 0.50043476 -0.21071632 -1.6643693 -0.3889308 -1.489968 0.6252153 0.10673994
-0.016936123 0.2269842 -0.157063 -0.38335145 -0.031397223 -3.3013744 -0.23963748 0.39158028
-0.12243861 0.51642877 0.45373678 1.4792266 0.4343313 0.8498829 0.29513526 2.7415166
-0.13456306 2.6575694 -0.29484877 -1.0897807 -0.13062312 3.2593353 -0.15443529 3.4053452
0.15152314 2.8746731 0.180168 -3.2874475 -0.49460566 -2.3244023 0.5316538 -0.08007634
0.47202688 0.05555898 -0.41982746 -3.0948915 0.78336996 2.9116714 0.29083478 2.1294467
-0.5783928 -0.6398345 -0.26684627 0.6993682 0.8746543 3.786949 0.47181872 2.0086975
0.0022087693 0.5355802 0.51433945 0.9362202 -0.14019144 0.41038996 0.31742185 3.2308834
-0.14637727 3.037443 0.8440591 -0.39253232 0.6677573 2.3943048 0.010695345 2.7449892
0.27496478 0.607844 0.14757425 0.16777742 -0.021391306 2.6518779 0.38898504 2.6273084
0.13915634 -0.28175023 0.00028008528 -3.8339567 -0.056807622 1.8852141 0.16290848 3.4505985
0.113285005 -0.46435004 0.44816738 0.36351448 0.4517409 -0.046568364 -0.5604333 -0.36517605

network.0.bias f4 [256]
00000000: da98 733e ec25 7ebd 2a02 ab3c 33f6 c1be
00000010: 09cb 0bbf 7444 1dbf 0269 9dbe f8e9 9e3d
00000020: 81bc 1dbe befe 20bf 2262 3d3d 2c57 2ebf
00000030: ee6b 963c 2b99 7fbe a32b 0dbf ecb6 27bf
00000040: 0c8a 9fbe 6d88 d3bd 6d8f 8f3e 9fbd d13d
00000050: 4b79 b13e 98dd e8bd d6a8 9abd f362 6f3c
00000060: 72a0 22bf 91f3 0a3c bd48 e0be d455 e7be
00000070: 40a4 ddbe bdea f1be fe3e 15be 2f12 e53c
00000080: 6f88 91bd a886 02be 043a 25be 82c2 1fbf
00000090: 4d6c c3be 6390 b6be 2c2e a4be d55a 3f3e
000000a0: db96 4c3e ab1b 98be f9e8 1b3c 9a39 75be
000000b0: 1e5f 18be 1ebd b9bc 2c00 7a3d 8f88 5c3e
000000c0: 8bac 4ebe cc9e 2a3d 10a0 3c3d 64f2 97be
000000d0: 3c93 173d f953 2dbe 83f2 1bbe e8a9 ad3e
000000e0: 328b 973d 41f5 da3e 48f7 0c3d 88f2 18bf
000000f0: 8120 173c c9ed 32bf 3bb7 4ebd 6321 d5bb
00000100: 561d 12bf 1533 88bd 8412 24bf 85f7 31be
00000110: 096e 1bbf c980 c8be b1c5 dabc 208d bfbe
00000120: 5ed3 f7be 10e7 a73e c88b ffbe c630 00be
00000130: db02 58bd e9cd 7f3e 5115 07ba dbc3 053c
00000140: fe8f 61be 8c56 85be e57b b4be f2f1 19be
00000150: 74de 14bf ad24 0dbf a27c 73bd 98c2 87be
00000160: d0f2 f2be 02a8 333e 9d51 363d a0d8 3c3e
00000170: b26e 29bd 87d4 0abe a219 59bd a6d1 82bd
00000180: a8e7 023c 8d37 a93d efcc afbe 8225 14bf
00000190: c9a9 bdbe e222 8bbe d3da b03e 952b d5bb
000001a0: 6a24 22bf 0bc4 0abf 694f 883e 596c 483e
000001b0: 909a dabe 8534 05be c5d5 b2be b025 a23d
000001c0: 966d 96bd 3ca2 ab3e 7e4f 923e c21f b53b
000001d0: 86e7 cb3c 3b8b 30bf 892e 07be e970 e83d
000001e0: 0872 babd 957d 503c 77b1 dcbd f4c6 993b
000001f0: e812 bdbd cb6d 2ebf ea7b e4bd 8ebd ccbe
00000200: c6cf 193c e82b 30bf 8c11 463e 28fa 18be
00000210: 8e35 5ebd 9c8b e5be 0885 c3be 5ff7 6ebe
00000220: 4947 0cbf 9a76 16bd 24f6 2b3d 3005 84be
00000230: 7bb6 a73b 37cf ddbe 380f c8be 4db6 cebe
00000240: 58c7 51be 6f1c e23c fcc6 36be 7983 133c
00000250: 3150 05be e187 853e 2881 50bd 7956 81be
00000260: a6b6 30bf df5e c4bd 5a6d 3fbe 2021 1cbe
00000270: 36b4 a73c 2be6 5bbe b2fa 2bbf f728 2abe
00000280: d997 f8be cb56 fb3b afd0 853d 985b acbd
00000290: 6f82 433e f6f5 92bd 5245 67be be48 a5bc
000002a0: 5ead e1bc 98a9 f9be f015 07be 1049 e5bd
000002b0: 3733 8a3d 32ca d6be 1fbe 1ebe 9e25 81be
000002c0: 370c 27bf bf6b bebc 6d07 52be b4ed 8a3b
000002d0: d130 68be 89d3 8dbe 13f9 94be 671f 28bf
000002e0: d8c8 a53e 28a0 ecbe ad81 1ebf bf48 513d
000002f0: 5794 bbbe 683c d63d 2114 c4be a9ca d3be
00000300: 02f4 32bf cc2a 73be 9214 403e 4faa 7f3e
00000310: 003e 43be 43b1 c6be 6090 9a3b d425 0bbf
00000320: 3272 2bbc 945f 9cbe 58ed 84bd ec8c adbc
00000330: 5135 16bd dcde 72bd 2275 02bf 6fa1 16bf
00000340: f0cf fdbe f27e 7ebd a190 503e ce9a 823d
00000350: 74ea 11bf 7ad6 053e 24f9 cabc a581 62bd
00000360: 8189 e2bd 4521 c23e 2737 84bd 2976 5d3c
00000370: ee0d 383d d871 11be 41f1 1bbf 368e 3a3e
00000380: 1207 733e f411 e8bd a089 913d 7e7a 863d
00000390: e733 4ebe 6c99 20be 769c 1ebd 1851 eabe
000003a0: 4b3a 2fbe b96c 693e d226 15bc c65c 41bd
000003b0: b10d a6be dc43 55bc 6635 34bf 1461 ca3b
000003c0: b66e adbd 649c b33d c3f5 c3bd e6a9 f5be
000003d0: 89fd 1ebf 5bed 04bc 7af1 d93b 1de1 933b
000003e0: 1a30 c4be e955 7fbd 3c32 b1be 86a9 7dbe
000003f0: 571e 1cba 03e1 d8be 9eef eabe a11d 82be
0.23788777 -0.062047884 0.020875055 -0.37883148 -0.5460668 -0.61432576 -0.30744177 0.0775947
-0.1540394 -0.62888706 0.046236165 -0.68101764 0.018362012 -0.24960773 -0.5514471 -0.6551349
-0.3116001 -0.103287555 0.28039113 0.102412455 0.34662852 -0.11370391 -0.07551734 0.014610994
-0.6352607 0.008480922 -0.43805495 -0.4518267 -0.43289375 -0.47249404 -0.14574811 0.027962772
-0.07106101 -0.1274668 -0.16135412 -0.6240617 -0.38168564 -0.35657033 -0.32066476 0.18686993
0.19979422 -0.2970861 0.009515994 -0.23947755 -0.14880034 -0.022673186 0.06103532 0.21536468
-0.20183007 0.041655347 0.046051085 -0.29677117 0.037005648 -0.16926564 -0.1522923 0.3391869
0.07399596 0.4276524 0.034415513 -0.59745073 0.009224058 -0.6989408 -0.05046771 -0.006504224
-0.57076013 -0.06650368 -0.6409075 -0.17379577 -0.60714775 -0.39160755 -0.026705595 -0.37412357
-0.48403448 0.32793474 -0.49911332 -0.12518606 -0.0527371 0.24980892 -0.00051530177 0.008164371
-0.22027585 -0.26042593 -0.35250774 -0.15033701 -0.58151937 -0.5513409 -0.05944503 -0.2651565
-0.47450876 0.17544559 0.044511426 0.18442011 -0.041365333 -0.13557635 -0.05300296 -0.063876435
0.0079898015 0.082625486 -0.3433604 -0.5786973 -0.37043598 -0.2717505 0.3454195 -0.0065054395
-0.63336813 -0.5420539 0.26623085 0.19572581 -0.42696047 -0.13008316 -0.34928718 0.079173446
-0.073451206 0.33522213 0.28576273 0.0055274675 0.024890672 -0.6896245 -0.13201346 0.11349661
-0.09103781 0.012725254 -0.10776036 0.0046929065 -0.09232122 -0.6813628 -0.11156447 -0.3998837
0.009387916 -0.68816996 0.19342631 -0.14939177 -0.054250292 -0.44833076 -0.38187432 -0.23336552
-0.5479627 -0.0367342 0.041982785 -0.25785208 0.005118189 -0.43322155 -0.3907411 -0.4037346
-0.204862 0.027601449 -0.17849344 0.0090035135 -0.13018872 0.2608023 -0.050904423 -0.25261286
-0.690287 -0.09588408 -0.18694058 -0.15247011 0.020471673 -0.21474521 -0.67179406 -0.1661719
-0.4855335 0.0076702586 0.06533944 -0.084159076 0.19092725 -0.071758196 -0.22585037 -0.020176288
-0.027548488 -0.48762202 -0.13191962 -0.11195576 0.0674805 -0.41951138 -0.15502213 -0.25224012
-0.65253013 -0.023244737 -0.20510645 0.004239762 -0.22674872 -0.2770045 -0.2909628 -0.65672916
0.32379794 -0.4621594 -0.6191662 0.051094767 -0.36636612 0.1046074 -0.38296607 -0.41365555
-0.69903576 -0.23746794 0.18757847 0.24967311 -0.1906662 -0.38807115 0.004716918 -0.54354596
-0.010464238 -0.3054167 -0.06490582 -0.02118536 -0.03667194 -0.059294567 -0.5095998 -0.5884008
-0.49572706 -0.062132783 0.20367672 0.06377183 -0.5699837 0.13070098 -0.024777003 -0.05529942
-0.11061383 0.37916008 -0.06455832 0.013516941 0.04493516 -0.14203584 -0.60915 0.18218312
0.23733166 -0.11331549 0.07106328 0.06566332 -0.20136987 -0.15683526 -0.03872343 -0.45764995
-0.17112081 0.2279538 -0.009103494 -0.047207616 -0.3243232 -0.013016667 -0.7039398 0.0061761234
-0.08468382 0.087700635 -0.0956836 -0.47981185 -0.62105614 -0.008113231 0.0066511007 0.0045129196
-0.3831795 -0.06233779 -0.34608638 -0.247717 -0.0005955449 -0.4235917 -0.45885938 -0.2541323

network.3.weight f4 [256, 256]
00000000: 6b3d 083d bad6 4bbb f1c4 613e fa1f 563d
00000010: 0bfe 2f3f 5c33 55bd 0849 7a3d 8f9c 17bf
00000020: 844d cbbc aa7a 42bd 95f5 473d ac17 663d
00000030: 63b2 073e d5e2 33be cc1c 55bd 2218 0abd
00000040: bc24 a5bc 2d9a ddbe 74ec 64bd ab68 cab9
00000050: 6552 49bd 5e43 7abd 432b 7cbd aa6c 223e
00000060: 30cc 29bd 5f92 233d 8ca3 1dbd 78b6 70bc
00000070: dffd d3be 0f78 74be e161 303f 8813 963d
00000080: 945f b63b 25df 53be fc61 a9bc a4e2 2a3d
00000090: d83e 5abc 7c44 19bd 1833 5cbc 1c08 b93d
000000a0: 12a8 d7bd 5b56 0dbe 2cb1 683d d8b7 7c3c
000000b0: 1f41 3cbf ec91 bb3d ae9f ae3d 46de b3bd
000000c0: 90bf e8be 5ea9 0bbd 56e4 24bd 73d4 2abe
000000d0: 403b a6bb b1c8 a0be a92e 993c d9fe 153d
000000e0: 9431 27be 64d6 93bd 7729 223e 18d4 59bd
000000f0: f99c a23d 8cd3 bebc 4daa 843d 716e 5c3e
00000100: f8f8 773c 11b2 c6bd a027 883b 2ada d2bd
00000110: d0fd 79bd c4a4 963c 5809 6d3d 8a01 55bd
00000120: 9260 19bd 64ce 2f3c 3cf8 ccbc 76d2 0abe
00000130: ea92 82bd ee40 c43c a3aa 0c3e 1f1f dc3d
00000140: 0749 f5be a5e7 afbd 4dba a0bc 0c52 14be
00000150: a04c 4f3c 8029 81ba 7002 87be a8df 243d
00000160: d051 fabc 56a0 a0bc 36e8 24bd fd2f 28bb
00000170: 9622 253c 0ee2 47bd d3af cb3d 4a64 28bb
00000180: cf31 803d 0680 02bf 3fdd cfbe 402d 6ebc
00000190: 161c 35bd 2287 2ebe 0d3f b1bb 6eac 243e
000001a0: b48d 1c3d c46e 67bd d057 5a3d ea2f 2cbd
000001b0: cc74 a73c a2e0 c1be f8d4 9e3c b65c 493e
000001c0: 56a1 5f3c 3427 d93b 0150 18bd 801f d33d
000001d0: d8f1 153e b86d 4e3c d82b a2be ca39 883c
000001e0: e0d1 f8bc 41d9 b7be 1edb cfbe 224e 443e
000001f0: c4dd 033d 900d 193d 3c0b c4be e2c2 5bbe
00000200: 828e c83d 787a 763c bb09 bb3c f662 4cbe
00000210: 92cc 823d b013 283d f5d9 f3bc 685c 2fbf
00000220: 1050 1c3d 57cb 2c3d 6b4c a3bd 15db 603d
00000230: 863b 813d 6080 95be 015e 8cbe 007d 4c3a
00000240: e005 a4be 3073 143e 2711 163d 4c12 953e
00000250: d9d2 edbc ae46 dbbd 20c1 90bd 3a17 4cbd
00000260: ecee ddbc b66e e43c 1f3a 85bd e035 18bc
00000270: f624 a53d 2916 d9be 4471 623d 571c b4be
00000280: 5337 98bd 34aa 493e f0ba 01bf 6705 923c
00000290: da5a 9ebc d2e5 973c bade e6bd 936f 933e
000002a0: e3d3 f93d 9625 483d 60bd 423d 74ed a8bc
000002b0: 802b 1dbf e647 bfbb 6298 20bf 006e 1539
000002c0: 64f5 843c c855 db3d 569d e2be 0bc7 3cbc
000002d0: a56a bdbe 7c64 8ebd 521a 6f3d be6f 32bd
000002e0: 8d1f 1bbd 1021 bcbc c839 ddbe 83c4 ce3d
000002f0: 8876 1dbd 7bb9 b4bc 0525 943d 0822 853c
00000300: 6618 a53c 1596 e2bb 5251 71bc 4e6f c1bd
00000310: d03b 773c 842b 713d 23bd 933d 6e17 7fbd
00000320: 3d92 a8bf ba00 39bd ebbf 35bb d86c 22bd
00000330: 9bb5 6abc 1110 0f3c dccb 0cbd 4030 c1ba
00000340: 78d7 cc3c 8b8e 6cbd 2d6e 9b3c 6a21 003e
00000350: 18f8 673d 926e 6d3d b3dd 8cbb 722a c0bc
00000360: c75f 763d 37a4 fa3c 0604 a03c 32e9 013e
00000370: eb07 053e daf4 c5be feec 133d 9432 b43d
00000380: bed7 9b3d c06d 94bd 5f89 aebd 2958 743d
00000390: 81dd cfbe 38ef 51bd 7be5 cdbc 30cc e1bb
000003a0: 41be 03bf 08ad cd3c 94e6 f93d d563 03bd
000003b0: cb3c fb3c 13c3 bf3b 0852 4abd 0d93 063e
000003c0: 7a6c abbe c41b 613d 46cf 8cb9 c03c 0d3d
000003d0: c0c4 e6bb e497 2b3e bbf7 9f3d 12a6 9f3e
000003e0: 508f 6b3d 1242 5ebd 2861 453d 663b 33bd
000003f0: d31c 503e b393 d8be 90b3 fabc b692 0dbe
0.033261698 -0.0031103329 0.22047783 0.05227659 0.68747014 -0.052050933 0.061104804 -0.59223264
-0.024817236 -0.047480263 0.04881819 0.05617492 0.13251643 -0.17566998 -0.052029416 -0.03371442
-0.020159118 -0.4328169 -0.05588956 -0.00038606426 -0.049150843 -0.061099403 -0.061564695 0.15861765
-0.041454494 0.039934512 -0.03848605 -0.014691941 -0.41404626 -0.23873924 0.6889935 0.07327944
0.005565593 -0.20690592 -0.020676605 0.041720048 -0.013320647 -0.037418827 -0.013439916 0.0903475
-0.10530104 -0.13802473 0.05680959 0.015424691 -0.73536867 0.09158692 0.0852655 -0.0878263
-0.4545865 -0.034097068 -0.04025682 -0.16682605 -0.005072981 -0.31403115 0.018699007 0.036619995
-0.16327506 -0.07218626 0.1583613 -0.053180784 0.079400964 -0.023294233 0.06477795 0.21526505
0.015135042 -0.09701932 0.0041551143 -0.10295518 -0.06103307 0.018389113 0.05787024 -0.05200342
-0.037445612 0.01073036 -0.025020711 -0.13556847 -0.06375678 0.023956742 0.13736968 0.107481234
-0.47907278 -0.085891046 -0.019620085 -0.14484423 0.012652546 -0.0009854287 -0.26369047 0.040252358
-0.03055659 -0.019607704 -0.040260516 -0.002566337 0.010079047 -0.048799567 0.09945645 -0.0025694543
0.062595 -0.509766 -0.40598485 -0.014537156 -0.044216238 -0.17043737 -0.0054091276 0.16081402
0.038221076 -0.05650212 0.0533064 -0.042037882 0.020441435 -0.37866694 0.01938866 0.19664273
0.013649305 0.006626988 -0.037185673 0.103087425 0.14643037 0.012599401 -0.31674075 0.016629118
-0.030373514 -0.3590794 -0.4059686 0.1917043 0.032193914 0.03736645 -0.3828982 -0.2146106
0.09792806 0.015043847 0.022831788 -0.19959626 0.06386675 0.0410344 -0.029767016 -0.68500376
0.03816229 0.042186107 -0.0797356 0.054896433 0.06310181 -0.29199505 -0.2741547 0.0007800609
-0.32035732 0.14497066 0.03663745 0.29115522 -0.029031204 -0.107068405 -0.07068086 -0.049826838
-0.027091466 0.027884822 -0.06505226 -0.009290189 0.0806369 -0.4239972 0.0552838 -0.35177872
-0.07432427 0.19693834 -0.5067587 0.017824842 -0.01933043 0.018542204 -0.112729505 0.28796062
0.12198617 0.04886397 0.047543883 -0.020621039 -0.613945 -0.0058374284 -0.6273252 0.00014250726
0.016230293 0.10709721 -0.44260663 -0.011522065 -0.36995426 -0.069527596 0.05837471 -0.043563597
-0.037871886 -0.022964984 -0.43208146 0.100960754 -0.03844312 -0.0220611 0.072336234 0.016251579
0.020153236 -0.006914864 -0.014728861 -0.09445058 0.015089944 0.05887939 0.07213809 -0.062278204
-1.3169628 -0.04516671 -0.00277328 -0.039654583 -0.014325525 0.008731858 -0.034374103 -0.0014739111
0.025005087 -0.057753127 0.018973434 0.12512746 0.056633085 0.057966776 -0.0042988895 -0.02345774
0.060149934 0.030595882 0.019533169 0.12686613 0.12991302 -0.3866337 0.036114685 0.087987095
0.07609509 -0.07247496 -0.08522295 0.05965439 -0.40598682 -0.051253527 -0.025133839 -0.006890796
-0.5146218 0.025106922 0.122021824 -0.03207763 0.030668637 0.005852112 -0.049394637 0.13142033
-0.334812 0.05495812 -0.00026857312 0.034481764 -0.0070424974 0.1675716 0.07810923 0.3118139
0.05750972 -0.05426223 0.04818836 -0.04375782 0.20323496 -0.42300186 -0.0306032 -0.13825497

network.3.bias f4 [256]
00000000: 2e7e 533e 5ff3 553e e278 0ebd 1188 0b3e
00000010: 4aec 3c3e 73cb 253e f075 5abd 3aae 453e
00000020: 69ad 3b3e a510 613e fc8c 033e f4be 3d3e
00000030: 491f a1bb 334b 4ebd 7825 543e 25ed 413e
00000040: c524 563e 346a 413e 4214 03bd 5524 8e3e
00000050: a3d5 403e 1b8b 3b3e e8f4 69bd 236d 483e
00000060: b826 363e 9aff 29be b2c3 db3d baab 713e
00000070: 1ec0 5a3e bd77 33bd c737 4abd e9b6 423e
00000080: 87c2 a7bc c44b 3a3e e6db 3c3e 041f 1f3e
00000090: 76a2 bdbc 0dfc 853e 6984 2ebc 2b29 d9bb
000000a0: e6a0 343e 0c55 583e 6dbb 04bd eb08 1fbd
000000b0: 6241 543e a23a ebbc a518 a3bc a98c 503e
000000c0: e361 71bd c614 abbc 7fd1 85bd b581 813e
000000d0: 326e ecbb d540 313e 2587 663e cafd 31bd
000000e0: 2ebf 343e e3ba 4c3e 750b 233e 9e2d 353d
000000f0: b381 beb6 5e03 13bd 81c6 283e d234 5bbd
00000100: d23d 433e ec70 7abc 647e 6dbd 9ef9 efbc
00000110: 87bd 4c3e d37b 883e 4b81 5f3e 253e c23d
00000120: 7ca1 11bd 1d35 443e 4c70 66bd cdb4 403e
00000130: 2722 333e 8427 28bd 0293 af3d 30f3 8cba
00000140: ebbf 32bd bd57 223e 379a 2c3e 1123 a43d
00000150: 09ef 26bd 4e6f 393e 2371 11bb 522c 32bd
00000160: f7c9 383e e788 c13c 2146 123e 6dc8 80bd
00000170: adf0 193e 52d1 b93d ec8d 3c3e 869c 4bbd
00000180: a434 643e 578b 203e cfbf 313e a79d ab3b
00000190: d355 7b3e 535d 393e 4d34 30bc 2614 343e
000001a0: fa6c 3c3e 59e4 153e f83c 623e 632b 56bd
000001b0: 07bf 0abd 3b34 483e a317 2abb a436 483e
000001c0: 244a 55bd 6da8 443e de41 1d3e 0d85 21bd
000001d0: deb2 2f3e 796a ffbc f048 453e c3a3 703e
000001e0: 9c92 3dbd 33e5 8ebd 9202 9bbb 553d 423e
000001f0: 8974 ae3a ff81 dfbb 33d0 a5bd 26e3 88bd
00000200: 08fc 37bd c627 1a3e 844f 4c3e 0f40 733e
00000210: 1fd6 5a3e 2b32 333e 5f50 3d3e 1ea4 debc
00000220: 7926 523e cd8d 193e f334 503e 6d94 dc3d
00000230: 6c80 ed3d 25cf 2f3e f9b1 6ebd c45f 72bd
00000240: 8fdc 2c3e 63dd 493e 1331 443e ac61 293b
00000250: 0dd2 8dbb 9d4e 553e 70b9 6bbd 1286 3f3e
00000260: aad4 653e df3a 463e 08d9 86bd 437d 733e
00000270: bd8c e63c 38b9 3e3e e15b 7cbb 35f2 2d3e
00000280: 290f 5c3e 5e3a 663e a6bc 273c 00b7 65bc
00000290: 645d 663e e9aa 293e 9080 87bd dbf9 55bd
000002a0: e88a 763e ea3a 703e 52da 26bd a3c6 bcbc
000002b0: c94b 263e 97cb 98bd 6cba e7bd eaba 413e
000002c0: 3c4a 533e f958 293e e099 18bd 99b0 b6bc
000002d0: 2665 21bc 8a2e 89bd ceaa 3b3e 43d2 3e3e
000002e0: ad22 243e b3c5 383e 169d 853e 90e5 233e
000002f0: cdc4 803e d245 2c3e c328 4c3e 27c5 2c3e
00000300: 8645 2f3e 8dc6 16bd c415 333e 27cb 92bc
00000310: 4cfa 563e d4d6 523e 00e1 5e3e c8ba 33bd
00000320: 4f34 b0bd 8422 d23c f33f 703e 1e62 2e3e
00000330: 83d2 13bc 7f83 343e 7e87 46bc 99e7 4f3e
00000340: 81da 0d3e 634f 8dbe 0024 80bd 14d6 71be
00000350: af90 b6bc c98a 03bd 4942 163e bc0e 39bc
00000360: e209 4b3e e6b4 683e c98a 543e acf4 1ebd
00000370: e749 1f3e 9dad 2d3e e8c0 22bd e708 21bd
00000380: 0b00 bebc 6546 363e 5efd d5bc e0a7 28bd
00000390: 6e27 293b 8931 383e 10d6 3f3e 37b8 e83d
000003a0: 88eb 9fbd 338d 4fbd 7bbd 863e 3500 203e
000003b0: f435 3d3e 63fc 81bd af88 1b3e b3a8 1abd
000003c0: 588d f9bc 0f78 7b3e 49cc 223e 7101 423e
000003d0: 4d50 4b3e f365 443e bd9d 8ebd 43e9 923d
000003e0: b9a9 b0bc 3a4f 473e d521 803e 80b6 f5bc
000003f0: 0e27 2a3e 6630 133e e86c 2ebc a7ca 583e
0.20653602 0.2089362 -0.03478325 0.13626124 0.18449512 0.16190891 -0.05333513 0.19304743
0.1832787 0.21979006 0.1284675 0.18529874 -0.0049170596 -0.050364684 0.20717418 0.1893812
0.20912464 0.1888817 -0.03200174 0.27762094 0.18831496 0.18314783 -0.057118326 0.19572882
0.17788208 -0.1660141 0.10730685 0.23600665 0.2136235 -0.043815363 -0.0493696 0.19015087
-0.0204785 0.18192965 0.1844326 0.15539175 -0.023148756 0.26168862 -0.010651686 -0.006627222
0.17639503 0.21126193 -0.032405306 -0.038826864 0.20728067 -0.028714482 -0.019909212 0.20366158
-0.058931243 -0.020883929 -0.06534099 0.2529427 -0.0072152847 0.17309888 0.22512491 -0.043454923
0.17651054 0.19993167 0.1592234 0.044232957 -5.6775402e-06 -0.035891883 0.16481973 -0.05351717
0.19066551 -0.015285712 -0.057981864 -0.029293831 0.19994174 0.2665697 0.21826665 0.094845094
-0.035554394 0.19160886 -0.05625944 0.1881897 0.17493497 -0.04105331 0.085729614 -0.0010753628
-0.04364006 0.15853782 0.16855703 0.08014501 -0.040755305 0.18108866 -0.002219268 -0.0434993
0.18045793 0.02362485 0.14284565 -0.06288228 0.15033217 0.09073128 0.18413514 -0.04970982
0.22285706 0.15678154 0.17358325 0.0052372995 0.24544458 0.18102007 -0.010754657 0.17585811
0.18400946 0.14637889 0.2209357 -0.05228747 -0.033873584 0.19551174 -0.002595403 0.19552094
-0.05207266 0.19204874 0.15357158 -0.039433528 0.17158076 -0.0311787 0.19266105 0.2349997
-0.046282396 -0.0697731 -0.004730531 0.18968709 0.0013309877 -0.0068209167 -0.080963515 -0.0668395
-0.04491809 0.15054235 0.19952208 0.23754905 0.21370743 0.17499606 0.1848769 -0.027177867
0.20522489 0.14995499 0.20332699 0.107704975 0.1159676 0.17168863 -0.058275197 -0.05917336
0.16881011 0.19713359 0.19159345 0.002584557 -0.0043280185 0.2083077 -0.057549894 0.18703488
0.22444406 0.19358395 -0.06584364 0.23778252 0.028143281 0.18625343 -0.0038506913 0.16986926
0.21490158 0.22483203 0.010237848 -0.014020681 0.22496563 0.16569103 -0.06616318 -0.052240234
0.24076426 0.23459974 -0.04073555 -0.023043936 0.16239847 -0.07460707 -0.11314854 0.18918958
0.20633787 0.16537847 -0.03725612 -0.022301005 -0.009850776 -0.0669833 0.18326876 0.18634896
0.16028853 0.18044166 0.2609641 0.1600554 0.25150147 0.1682351 0.19937424 0.16872083
0.17116365 -0.036810447 0.17488772 -0.017919136 0.20993918 0.20589763 0.21765518 -0.0438793
-0.08603727 0.025651224 0.23461895 0.17029616 -0.009022358 0.17628287 -0.012117265 0.20303191
0.13852884 -0.2759963 -0.062568665 -0.2361682 -0.022285787 -0.032114778 0.14673723 -0.011295017
0.19827989 0.22725257 0.20756067 -0.038807556 0.15555535 0.1696076 -0.03973475 -0.03931513
-0.02319338 0.17800291 -0.026121791 -0.041175723 0.0025810855 0.17987646 0.18734002 0.11363261
-0.07808596 -0.050671767 0.26316437 0.15625079 0.18477613 -0.06346967 0.1518886 -0.03775854
-0.030462906 0.24557517 0.15898241 0.18945862 0.19854851 0.19179516 -0.0696368 0.071733974
-0.021565305 0.19463816 0.25025812 -0.02999425 0.1661646 0.14373931 -0.010646082 0.21171056

network.6.weight f4 [256, 256]
00000000: eb7e 93ba 5fd5 d2bc fcfe f3bc a0e7 6bbc
00000010: 8a7f 6cbd 1ead 653c 0334 ef3c 65d7 77bb
00000020: 3075 ff3b 6617 603c 7181 16bc f657 34bc
00000030: 6ea7 1cbd 8600 dabb 7e2a 5b3d cb40 1bbc
00000040: 991f 6ebd a725 a7bc fc86 013d 0345 4ebd
00000050: 0dd2 d2bc 38d7 6c3c 4cf7 68bd ea61 82bd
00000060: d8bb 04bd de82 f3bc 277a 81ba 4394 603d
00000070: e242 e8bc da6f 57bd 9840 2fbc 1524 863c
00000080: e763 ecbc e1c7 87bb deb5 1ebd 055c 853c
00000090: c49d 1ebd f8e0 8fbb 2ed6 4a3d 0485 06bc
000000a0: cc76 0d3d cf1e 1c3d 8e3f 6dbd d3d2 0ebd
000000b0: 4480 76bd 7852 403d d898 43bd 80b2 e43c
000000c0: dd57 663c fcc9 5f3d 3542 5cbc 01b2 4ebd
000000d0: e850 4f3c 8112 8dbb 2e3c 8abd e9a6 9bbc
000000e0: bc86 3fbd 693c a0bc 5578 57bd 94e3 29bd
000000f0: a8b4 763c 1081 7fbc 3b08 24bd 80cd 73bd
00000100: 9514 70bd 7065 acbc 1014 46bc fc58 143d
00000110: dc4b a4bc c6a1 7ab9 a29c dabc 2403 4bbd
00000120: 3f91 993c 80f0 423d 36bd 00bd 4077 bbbc
00000130: d33f 103d 6069 44bc 1ce5 8b3c 91df d23c
00000140: 1599 1dbd 0ffc cebc 60f5 2d3c 3cec 1cbb
00000150: e887 5dbd d0eb 81bd 502a 21bc 90ee 48bc
00000160: 73f8 44bd a000 403d ad34 cb3c 281b 0b3c
00000170: 605e 5dbd cae7 33bd 41a1 6dbd c049 203b
00000180: 847f cb3c 810a 80bd 78ef fdbb 5e95 3cbd
00000190: 42ff 8b3c b9d1 1dbb 77b5 313d 6c36 093d
000001a0: 8ff6 05bc 966b 4ebd 20db 263d 60f0 aabc
000001b0: 6484 4abd d616 43bd 4367 5cbd 7352 c03b
000001c0: f201 b3bc 2ecc caba 9377 28bc e86c 36bd
000001d0: e78c 88bd 188b e23c 527a 47bd 6cdd 653d
000001e0: f9ca 233d 9754 debc 6179 563d 1a8e d63c
000001f0: 27e0 443d f67a 3e3a 465a 3ebd 3b36 72bc
00000200: 33ef 303d cb81 94bc fc5b 5b3d 01eb 373d
00000210: 7a19 e9bc 1b8b 26ba 3d1c 79bd 1921 43bd
00000220: 88f2 fa3c 6a80 7d3d fddd 8ebd bc6e 8cbc
00000230: b246 febc c4a7 abbc 6c39 dd3c 492e 583d
00000240: 0701 5c3c b0e3 7cbc de4b c2bc 50fa c0bc
00000250: 3a68 343d 9a37 bb3c 9416 68bd c649 f43c
00000260: 8c12 02bd c5fe b73b a0e2 5c3d 632e 283c
00000270: 3c1d 41bd fc4b 72bd 5fd2 37bd 9f4b 38bd
00000280: a640 4f3d 0bc1 6dbd b2ac 543d e0cb 8bbc
00000290: 4be3 31bd d510 503d 40dc 19bb e2c1 013d
000002a0: f5f0 86bd 62f3 2bbc a8f0 6bbc a735 bb3b
000002b0: 9285 f83b 6ac5 093d dec0 66bb aa18 5fbd
000002c0: 9aa8 053d 7e52 81bd d321 a33c 4045 cabb
000002d0: 522f 9e3c 32d6 883c f380 41bc 13e0 9cbc
000002e0: 9a4e 8bbd 61f1 b3bd 038a 4fbc 29dc 583d
000002f0: d3f0 68bc 12c7 003a c9d4 f8bc e110 a5bc
00000300: 019e 9c3a 0f6b 413c ca6d 5a3d c616 2e3d
00000310: fcf2 58bd 7147 90bc 23f9 4ebd c051 323d
00000320: 3671 403d fc6b b2bc 239a 083c 77c6 f43c
00000330: 001a d4bb 123f 08bc 2e57 653d 0abe 1cbd
00000340: bab3 263c 535c 183c 4c24 683d c011 bf3c
00000350: 6c03 9a3a b47f 18bc 5714 353c 067b 7fbd
00000360: 49b7 bcbc 5a97 583c 1569 31bd 5826 8a3c
00000370: b84e b7bb 539a 1fbd 6637 273d c031 953b
00000380: 7913 bcbc 919b 5ebd 83bc d93c 6007 f03c
00000390: 549d cb3b 41a9 89bd 0b25 d8ba 325a 293d
000003a0: 9433 163d f1c8 98bc 7658 a93c 0542 f03c
000003b0: a757 0dbd 1af0 7c3d ced0 dd3c b25e 55bd
000003c0: 9654 003d 2ec9 483d c060 a6bb d904 66bd
000003d0: d476 1b3d 93d5 183d 5600 d5bb 6a52 f33c
000003e0: 0e93 4abd ee2f 2dbd 955b f6bc 700c 03bd
000003f0: 302e 79bd 8e88 a03c be41 843d 763e a43c
-0.0011253034 -0.025736509 -0.029784672 -0.014398485 -0.05773882 0.014018325 0.029199606 -0.0037817594
0.0077959523 0.013677454 -0.009186135 -0.0110073 -0.03824561 -0.0066528944 0.05350732 -0.009475897
-0.058135603 -0.020403696 0.03162287 -0.050358783 -0.025734926 0.014455609 -0.056876466 -0.06366332
-0.032405704 -0.029725488 -0.0009878323 0.054828893 -0.028352205 -0.052596904 -0.010696553 0.016374627
-0.02885623 -0.0041437005 -0.03874766 0.01627923 -0.038724676 -0.004390832 0.049520664 -0.008210424
0.03453712 0.03811532 -0.05792194 -0.034869026 -0.060180917 0.04695365 -0.047753185 0.027917147
0.014059034 0.054635987 -0.013443519 -0.050462727 0.012653567 -0.0043051844 -0.067497596 -0.019000487
-0.046759352 -0.019560056 -0.052604992 -0.0414768 0.01505772 -0.015594736 -0.04004691 -0.059522152
-0.05861338 -0.021044463 -0.012089744 0.036217675 -0.020055704 -0.00023902123 -0.026686016 -0.049563542
0.018746017 0.04759264 -0.031430446 -0.022884011 0.035217118 -0.011988014 0.017077021 0.02574137
-0.03847607 -0.025266675 0.010617584 -0.0023944518 -0.05408469 -0.06343806 -0.009836748 -0.012263909
-0.048088502 0.046875596 0.024805391 0.008490361 -0.05404508 -0.043922223 -0.05801511 0.002445802
0.024841078 -0.062520035 -0.007749494 -0.046040885 0.01708949 -0.0024081303 0.04338595 0.033499166
-0.00817646 -0.05039557 0.040736318 -0.020866573 -0.049442664 -0.0476292 -0.053809416 0.0058692037
-0.021851514 -0.0015472227 -0.010282415 -0.044537455 -0.066675 0.027654216 -0.048700638 0.056119367
0.03998849 -0.027139945 0.05236185 0.026190806 0.04806533 0.00072662474 -0.04647281 -0.014783437
0.04319687 -0.018128296 0.05355452 0.04490185 -0.028454531 -0.0006353126 -0.060817946 -0.047638986
0.030633226 0.061890043 -0.06975935 -0.017142646 -0.03103957 -0.02095402 0.02700492 0.052778516
0.013427979 -0.015435144 -0.023717817 -0.023556858 0.04404471 0.022853661 -0.056662157 0.029820334
-0.03175597 0.0056150877 0.053927064 0.010264966 -0.04714702 -0.059154496 -0.04487836 -0.044993993
0.050598763 -0.05804543 0.051922508 -0.017064989 -0.043429654 0.050797302 -0.0023477226 0.03167904
-0.06588928 -0.010495039 -0.014400639 0.005713183 0.007584282 0.033635534 -0.0035210173 -0.05446688
0.032631494 -0.06314562 0.01991359 -0.006172806 0.019309673 0.016703699 -0.011810529 -0.019149816
-0.068021014 -0.08786274 -0.012667182 0.052944336 -0.014217573 0.0004912476 -0.030374901 -0.02014965
0.0011948944 0.01180531 0.05332736 0.042502187 -0.052966103 -0.01761219 -0.050530564 0.043534994
0.046982966 -0.021780007 0.00833753 0.029879792 -0.006472826 -0.008315818 0.055991344 -0.038267173
0.010174686 0.009299356 0.05667524 0.023323894 0.0011750287 -0.009307791 0.011052213 -0.062373184
-0.023036616 0.013219679 -0.043313105 0.016863987 -0.005594101 -0.038965534 0.040824316 0.00455305
-0.022958504 -0.05434758 0.026579147 0.029300392 0.0062138233 -0.06721736 -0.0016490532 0.041345783
0.036670282 -0.018650504 0.020672064 0.029328356 -0.03450742 0.061752416 0.027077105 -0.05209226
0.031330667 0.049019985 -0.0050774515 -0.056156967 0.03795512 0.037313055 -0.006500284 0.029702384
-0.04945665 -0.042282037 -0.030072967 -0.031994283 -0.060835063 0.019596364 0.06457852 0.020049315

network.6.bias f4 [256]
00000000: f1b4 97bd f5e3 7ebd 8cb5 0e40 17c9 0b40
00000010: c082 0940 bbb2 93bd 4ff8 b2bc a90c 43bd
00000020: a44e 40bd bdc5 c33e b38d 1040 f5d4 22bd
00000030: 4825 afbd 57b1 0840 b16b 92bd 5a7c e0bc
00000040: a50d 0f40 865f 0540 d53f 0d40 1615 0c40
00000050: 3a2d 663c 1d0c 1040 7b52 98bc 1e42 833d
00000060: 8652 0940 48a8 0940 5ce7 c13e c406 88bd
00000070: 8d66 0c40 b779 3f3d 9d28 dd3c 8463 0b40
00000080: c124 c5bc 9119 603e 053d 48bd aec1 0940
00000090: f666 c63e 4354 683e 4118 efbc 0410 0a40
000000a0: fed6 a93e 0536 1fbd 2f7d 0b40 fbcf 0940
000000b0: 57e4 0a40 20ca 0e40 0fc8 1040 d97c 3b3e
000000c0: 6a40 273f 49ae 3bbd 88ec 0740 336c 0e40
000000d0: ecd4 0a40 4e1d 78bd b688 4fbd 9568 0f40
000000e0: 7123 6b3e 7182 84bc ee88 0940 ae23 c7bc
000000f0: b2b6 0b40 b2c8 283f ea2a 0640 ef13 a4bc
00000100: c4ad 0c40 f3ee afbc 250d 6fbd 6310 acbc
00000110: 9243 0f40 e056 a53d 9c8a 9bbc 4553 9f39
00000120: 4fd2 0f40 d87e abbd 1f2f 0640 b175 0f40
00000130: bd46 453e 7894 0bbd 04d6 a2bd 5da7 0f40
00000140: 3e37 4e3d ab0f 0c40 82d6 343e 6f01 1040
00000150: 8a95 9fbd 2c99 7d3e eb52 febc 3dec 0840
00000160: 6d15 803b 5289 cb3d 69e5 9dbb 4a81 2d3f
00000170: 2c98 0a40 9c7e 0a40 c1a0 0c40 91f5 0c40
00000180: f25d d73d 3570 0a40 2591 0ebd af5b 0d40
00000190: 3ac8 923e 4465 dbbc b059 0a40 fc4e a6bc
000001a0: e748 4abd 4ff5 8cbd 3d1b 56bd 830a 0e40
000001b0: aacf 0c40 0571 0840 dff3 12bd f6ba 8a3e
000001c0: 229a b5bc c660 6c3f 96d6 0b40 1f7b 94bd
000001d0: 6354 e3bc 0ae0 0d40 2ed1 1040 0158 0640
000001e0: 5a5d ea3e a970 76bc 9267 0c40 58d7 0240
000001f0: f42a 8cbd 6cd0 0e40 2817 0b40 3639 0e40
00000200: 804e 0640 daaa 0b40 b14a 0c3e a9ea 0840
00000210: b6dc 11bd 39be 43bd 07c1 0d40 4fd2 2cbd
00000220: 71e0 a2bd d242 0a40 379e 0d40 2142 7dbb
00000230: add9 db3e 12f4 43bd 9428 0c40 c0c4 35bd
00000240: 0562 26bd dc09 0e40 c90e 0d40 2b12 b3bd
00000250: 3c9e 0a40 87ab d7bc 02c1 0f40 2136 b83e
00000260: 4147 43bd 88dc 0940 cd54 553d 66bd 0cbd
00000270: 297b 8abd 4225 0940 bbf3 7f3e f11a 11bd
00000280: 71c8 0d40 7195 6a3e b390 0940 c20d adbc
00000290: 0358 92bd 7d20 73bd adf4 8abd 9b03 46bd
000002a0: 4813 a43e 1123 cabc caab 3e3f 4897 0a40
000002b0: 6203 95bd bf65 0b40 67e5 a9bd 7734 0e40
000002c0: 770e 78bd 3e07 0c40 1326 0c40 e61e 6fbd
000002d0: 22f5 58bd 4e2c 0a40 8ac9 a6bd 71dc 55bd
000002e0: bfe3 0240 4eb7 1040 8478 933e 5328 0e40
000002f0: 8bc0 21bd 28a9 0440 533e 91bd d9ba 0f40
00000300: ddaa 0a40 7814 0d40 07be 0940 a760 e53e
00000310: 6d6a b43e b325 0f40 0c27 4a3e a9f5 0640
00000320: ea05 6cbd f73c 3c3e babd 0a40 f08e 0940
00000330: 99fa 1abd e724 4abd bcda 0d40 e142 883b
00000340: 62c1 a3bc 887d ecbc ca36 a5bd 0d4f 0d40
00000350: eb96 1ebd 2033 6c3e fb74 0140 9957 0640
00000360: 55bf 973e 3c13 833d 08e5 40bd e8c3 0940
00000370: 41fe 0f40 9d23 fe3f 66a0 42bb 5d67 a8bc
00000380: d2fb 0a40 6fdb f8bc b4ca 0840 113c 0640
00000390: a0a1 7cbd f631 0940 6569 12be 77e3 5f3d
000003a0: b58d 1040 b70d a7bd 42f0 943e cb20 0840
000003b0: f7ed 43bd 6a62 f93d d790 0640 45d8 21bd
000003c0: 147c 64bd 699e 0540 5d41 0840 4aaa c9bc
000003d0: 36e9 86bc bfa8 0840 f4fb 9e3e 37da 0540
000003e0: eb78 733f d602 27bd d883 87bd e798 9cbd
000003f0: b2de 0e40 ca95 9cbd 858c 3abd f547 0b40
-0.07407559 -0.062229116 2.2298307 2.1841486 2.1486053 -0.072118245 -0.021846918 -0.047619496
-0.046949998 0.382368 2.2586486 -0.039753873 -0.08552033 2.135824 -0.07149447 -0.027403045
2.2352078 2.0839553 2.207021 2.188787 0.014048869 2.2507393 -0.018594017 0.06409095
2.1456618 2.150896 0.37871826 -0.066419154 2.1937592 0.046746936 0.026996905 2.177949
-0.024065377 0.21884753 -0.048886318 2.1524463 0.38750428 0.22688393 -0.02918637 2.1572275
0.3317184 -0.038869876 2.1795156 2.1533191 2.1701868 2.2310867 2.2622106 0.18309344
0.65332663 -0.04582051 2.1238117 2.225354 2.1692457 -0.060574822 -0.050667487 2.2407582
0.22962739 -0.01617548 2.1489825 -0.024309006 2.1830258 0.65931237 2.0963693 -0.020029036
2.1981058 -0.021476245 -0.058362145 -0.021003908 2.2384992 0.08073211 -0.018986993 0.00030388884
2.2472112 -0.08373803 2.096626 2.2415583 0.19265266 -0.034077138 -0.079509765 2.24459
0.05034565 2.1884563 0.17659953 2.2500875 -0.07792194 0.24765462 -0.031045398 2.1394188
0.003908804 0.09938301 -0.0048186076 0.67775404 2.1655378 2.1639776 2.1973116 2.2024882
0.105159655 2.1630986 -0.03480639 2.208721 0.28668386 -0.026781686 2.161724 -0.020301335
-0.04938593 -0.068827264 -0.05227207 2.2193916 2.2001748 2.1318982 -0.035877105 0.27095765
-0.022168223 0.92335165 2.1849723 -0.07250046 -0.0277502 2.2167993 2.2627673 2.0991213
0.45774347 -0.015041509 2.1938214 2.0443935 -0.0684413 2.231471 2.1732883 2.2222419
2.0985413 2.182303 0.13700368 2.1393225 -0.035610877 -0.047788832 2.2149065 -0.042192753
-0.07952965 2.1603284 2.2127817 -0.0038644152 0.4293951 -0.047840185 2.1899767 -0.04437709
-0.040620822 2.2193518 2.2040274 -0.087437 2.1659079 -0.026326908 2.2461553 0.35978797
-0.047675375 2.1540852 0.052082825 -0.034360312 -0.06761772 2.142899 0.2499532 -0.035426084
2.215359 0.2290857 2.1494567 -0.021124724 -0.07145693 -0.059357155 -0.067849495 -0.048343282
0.3204596 -0.024674924 0.7448088 2.1654835 -0.07276036 2.178085 -0.08295708 2.2219522
-0.06056067 2.187942 2.1898239 -0.058379076 -0.052968152 2.1589541 -0.08143909 -0.052212182
2.0451505 2.261188 0.28802884 2.2212112 -0.039490264 2.0728245 -0.070919655 2.2457793
2.1666787 2.2043743 2.1522233 0.44800302 0.35237446 2.236676 0.19741458 2.108744
-0.057622828 0.18382631 2.16783 2.1493492 -0.037836645 -0.0493516 2.2164755 0.004158363
-0.019989673 -0.028868452 -0.08067091 2.2079499 -0.038718145 0.23066378 2.022765 2.0990965
0.29638162 0.06400153 -0.04709342 2.1525822 2.2498934 1.9854618 -0.0029697656 -0.0205571
2.17162 -0.030378072 2.137372 2.0974162 -0.061677575 2.1436744 -0.14298017 0.054660287
2.258649 -0.08156913 0.29089552 2.1270015 -0.047834363 0.12176974 2.1025903 -0.03951289
-0.055782393 2.0877936 2.1289895 -0.024617333 -0.016468626 2.1352994 0.310516 2.0914438
0.9510638 -0.04077419 -0.06616944 -0.07646351 2.2323422 -0.076457575 -0.045544166 2.176267

network.8.weight f4 [3, 256]
00000000: c3f6 b9bc fc8f b9bc ce0b c73e d650 db3e
00000010: dc07 b03e 3260 36bd 331c 893c b362 803c
00000020: 0d80 18bd 586a 993f 70dd 733f 7c18 4bbd
00000030: c7d9 323d f0f1 df3e afdb 803b 94b6 b5bb
00000040: b3ce c23e f749 033f 798f c63e bdd3 c63e
00000050: a7b6 643d 489c c13e c3dd 18bd 882f 293d
00000060: 8dff d33e ef8a dc3e 0e2b 5d3e c5e5 d2bc
00000070: d078 f03e 1508 b5be 3157 57bd c0f5 af3e
00000080: 4879 273d fb31 a23e b086 25bd b4f8 bf3e
00000090: ea84 583d e04a 19be 3e07 0dbd bed3 c43e
000000a0: 9af0 163e a9da 633d 3eb1 b53e 684f c43e
000000b0: c17a d63e 9c3c c33e ab4b c43e 31a8 d3bc
000000c0: b804 5d3e f3df fdbc 2b37 dd3e 4511 c63e
000000d0: 27ef c83e f2a1 78bc b6cc bcbb 892b d63e
000000e0: 0902 a43c 5675 273c e9c9 cc3e 826a 0cbd
000000f0: 4755 b63e 08b4 dc3e 67d9 e73e e9ba a43c
00000100: 90b8 c53e 6735 f33c a6a6 40bd 3649 153d
00000110: 8c76 db3e 4a1f 8fbd 0f80 cbbb 7514 42be
00000120: 42b9 c13e 009e 40bd d86c ed3e 553d c73e
00000130: dec6 493e 0def 483c fe0c 95bc 8950 d33e
00000140: 6725 d8bd ed31 c33e fd1e c9be b32d d23e
00000150: b6e8 203d 9391 963d 82e6 87bd af64 e93e
00000160: 7bb6 1d3e 1566 133e d75c 93bd 19c2 db3e
00000170: a6fb b93e fe97 cc3e 63ef c63e 08fe b13e
00000180: c526 f73e 278e c93e fc8a 163b dc81 df3e
00000190: aec7 ae3b b5b1 3d3b 8a06 bf3e a8d0 da3c
000001a0: 1c8c 0fbc bb3e ef3c c973 bfba cc52 c03e
000001b0: b5ab 1b3f 432e 013f 3f63 9139 f76f f33d
000001c0: 16e6 473d 9dfe 0b3f 1ebd 023f cbb3 91bc
000001d0: c642 3cbc 7e7b bc3e b884 cf3e c440 013f
000001e0: e23e d8bd cc66 cc3b ca2a c33e 36ca 033f
000001f0: 55d2 e8bb 5fe5 db3e 32ac c73e 8ddb b53e
00000200: d8ae fa3e 8226 c93e a3a5 d63e c913 de3e
00000210: 2690 a43c de26 83bc 2e6b d73e 0b8a 9ebc
00000220: 58cc 33bd b706 d23e c5e5 cc3e fff3 f7bd
00000230: ab3b 0eba 845d 4fbd e3d5 ce3e 235f 443b
00000240: 4680 2cbc f36a db3e cee7 e23e 54b0 303c
00000250: 81b6 cf3e 26ec 27bc 0b26 5d3f 04c3 7b3f
00000260: 3f5a c4bc 021d d63e cefc b4bd 7717 9f3c
00000270: 9728 8f3d ab33 153f 7021 2abf 51e2 04bd
00000280: 3000 d83e 2649 12be e01b c83e 2b2c 7a3e
00000290: a7e4 0cbd cddc 913d 1cf4 3d3d c412 82bc
000002a0: bd1d 4f3e 23cf 2e3a 9ed7 393f 6a00 ea3e
000002b0: 19dd e4bc 9768 d13e 6bf6 f33a 410b ca3e
000002c0: 64e7 fd3c 5cd7 cc3e c206 e73e 506b 4d3c
000002d0: 00ef b43c 01f7 ed3e fc27 2bbd ea7b 3abd
000002e0: 1278 093f 68c1 cc3e 4656 1e3e 5833 e13e
000002f0: e002 a93d 4d13 8c3f 3353 a73c 721c be3e
00000300: c275 c23e befc e93e ad1a e73e 5fb1 183f
00000310: 0f75 033e a0d3 c03e 0c4b ed3c 5441 e43e
00000320: 10b5 59bd cad1 55be 861f d43e 1ed3 003f
00000330: 6dc0 b33c d787 66bb 18d4 bc3e a03a 75be
00000340: 9201 4a3d 5bdf 6aba 1cf4 26bd d81f d83e
00000350: e709 0abd f882 8dbe fc98 0c3f 46a8 003f
00000360: ca9b 88bb de06 63be af8b 553b c36e e43e
00000370: dde1 e93e 3824 083f 4cff 443d 2987 9cbc
00000380: d522 093f ac4a 97bd 86da ea3e 1719 143f
00000390: 059a 2dbc 2d80 ce3e a802 263e 2f81 243e
000003a0: 0adb c23e 727b 38bc 2d09 983d 997e d23e
000003b0: 147e c6bc 210a b3be 05f1 f63e 284d fabc
000003c0: cf14 12bb 137b e93e eefc c63e d7d7 a03c
000003d0: 9c05 34bc 0a4f e63e 6bf5 1b3e fd6b fb3e
000003e0: 28d2 923f c4d5 b5ba f05f 4d3d 0e4f db3c
000003f0: a1a6 df3e ad8c 67bd 7bd6 8bb9 6a73 cd3e
-0.022700673 -0.022651665 0.38876194 0.4283511 0.34380996 -0.044525333 0.01673708 0.015672063
-0.037231494 1.1985579 0.9525976 -0.049583897 0.04366472 0.4373927 0.0039324383 -0.0055454466
0.38048324 0.51284736 0.38781336 0.38833418 0.055838253 0.37814546 -0.037320863 0.041305095
0.41405907 0.43074748 0.21598455 -0.025744328 0.46967173 -0.3535773 -0.052573387 0.3436718
0.040887147 0.31678757 -0.04041165 0.37494433 0.05286113 -0.14969969 -0.034430735 0.38442796
0.1474022 0.055628452 0.35486788 0.38341832 0.4189053 0.3813218 0.3833898 -0.025837036
0.21583831 -0.030990576 0.43206152 0.3868505 0.3924496 -0.0151753295 -0.005761708 0.4183009
0.020020502 0.010220846 0.39997795 -0.03428126 0.35611936 0.43106103 0.45283052 0.020108657
0.38617373 0.02968855 -0.04703393 0.036446773 0.42863882 -0.0698839 -0.006210334 -0.18953116
0.37836653 -0.04702568 0.46372104 0.3891398 0.19704768 0.012264025 -0.018194672 0.4127238
-0.10554009 0.38124028 -0.39281455 0.4105049 0.03928443 0.07351985 -0.06635763 0.45584628
0.15401642 0.1439441 -0.07195442 0.42921522 0.36324805 0.3995971 0.38854513 0.34764123
0.48271766 0.39366266 0.0022971025 0.43653762 0.0053338623 0.0028945033 0.37309676 0.026710823
-0.008761432 0.029204717 -0.001460665 0.3756317 0.6080888 0.50461215 0.000277305 0.1188659
0.04880341 0.54685384 0.5106982 -0.017785927 -0.011490529 0.36812967 0.40530944 0.5048945
-0.10558869 0.0062378403 0.38118583 0.51480424 -0.0071051517 0.42948434 0.38998562 0.35519066
0.4896152 0.39287192 0.41923246 0.4337447 0.020088267 -0.016009744 0.4207396 -0.019352933
-0.04389605 0.41020748 0.4001905 -0.121070854 -0.00054257613 -0.050626293 0.40397558 0.0029963932
-0.01052863 0.42855033 0.44317478 0.010784227 0.40568927 -0.010249173 0.86386174 0.98344445
-0.023968814 0.41819006 -0.08837281 0.019420369 0.06990164 0.58281964 -0.6645727 -0.032442395
0.42187643 -0.14285716 0.39083767 0.24430911 -0.034397747 0.071221925 0.04637538 -0.015878089
0.20226188 0.0006668439 0.7259463 0.4570344 -0.027937459 0.40900108 0.0018612867 0.3946171
0.030994125 0.40008056 0.45122343 0.012537792 0.02208662 0.46477512 -0.04178618 -0.04552833
0.5369884 0.39991307 0.15462598 0.43984485 0.082525015 1.094339 0.020425415 0.37131077
0.37980467 0.4570064 0.4513754 0.59645647 0.12837623 0.37661457 0.02896645 0.4458109
-0.05315119 -0.2088081 0.414303 0.5032214 0.021942342 -0.0035176182 0.36880565 -0.23948145
0.049317904 -0.0008959674 -0.040760145 0.42211795 -0.03370085 -0.27638984 0.54920936 0.50256765
-0.004168962 -0.22170588 0.0032584479 0.44615754 0.45680133 0.53180265 0.048095033 -0.019107418
0.53568774 -0.073872894 0.45869845 0.57850784 -0.010595803 0.40332165 0.16211951 0.16064905
0.3805774 -0.0112599 0.07423625 0.4111221 -0.02423004 -0.34968665 0.48230758 -0.03055437
-0.0022290235 0.4560171 0.38864845 0.01963417 -0.0109876655 0.44982177 0.15230338 0.49105826
1.1470385 -0.0013872911 0.05014032 0.026771095 0.43681815 -0.056530643 -0.00026671946 0.40127116

network.8.bias f4 [3]
00000000: 1ac2 9b3f 662c b93f d98b ea3f
1.216861 1.4466674 1.8323928
