mountaincar_cl_project/runs/abrupt/egp/seed_0/online_stream_model.pth (torch, 536437 bytes, 8 tensors)

network.0.weight f4 [256, 2]
000000 c7 71 15 3f d3 3f 14 40 04 43 15 be e8 15 d7 bd
       0.58376735 2.3163955 -0.14576346 -0.10502225
000010 6d a0 21 bf 20 fe c1 3d b3 47 30 3f e6 ee e6 be
       -0.63135415 0.094722986 0.68859404 -0.4510414
000020 c9 81 85 be 66 6d 9c 3e 00 32 4a 3c e5 9b 8d be
       -0.2607558 0.30552214 0.0123410225 -0.27658
000030 60 50 3e 3e 9a 2a 26 40 e5 df af 3e c0 a4 29 c0
       0.18585348 2.5963502 0.34350505 -2.6506805
000040 a9 20 15 3f 5e b6 cd 3e 61 6a 33 3f ea 1a ae 3e
       0.5825296 0.40178198 0.70084196 0.3400491
000050 6a 0e b6 be d8 e9 48 be 43 68 01 3f 85 fe f6 3f
       -0.35557872 -0.19620454 0.50549716 1.9296423
000060 80 37 f8 3d 0f d9 dd be fc 1b bc 3e 96 22 0f 40
       0.12119961 -0.43329665 0.367401 2.236486
000070 12 08 e4 be 59 cc 59 3f 73 52 27 3f 50 dc f5 3d
       -0.44537407 0.85077435 0.6536018 0.12004912
000080 25 d0 16 3f 4a e0 dd 3e fe f5 ce be 45 eb 82 bf
       0.58911353 0.4333518 -0.40422052 -1.0228049
000090 e2 72 3b 3e 1d d9 31 40 f5 60 b9 bd 07 4a a3 3f
       0.18305543 2.7788765 -0.09051696 1.2756966
0000a0 e7 2f 91 3d 07 aa ee 3f f0 6a 83 3e 60 e7 41 be
       0.07089215 1.8645638 0.25667524 -0.18935919
0000b0 8d 0e 0b bf 25 03 4b c0 10 0f 5e bd ef 43 1e 3f
       -0.5431908 -3.172067 -0.054213583 0.6182241
0000c0 c1 b4 24 bf 6e 30 18 3f d0 0e 8d be 27 9d 20 c0
       -0.6433831 0.594489 -0.27550364 -2.5095918
0000d0 1e 13 e2 3e 54 0d 54 bd c6 a5 21 bf 32 61 ff bf
       0.4415521 -0.051770523 -0.63143575 -1.9951537
0000e0 f8 bf 82 3e 96 5c ec 3e 00 a7 3c 3c 20 c2 96 3c
       0.25537086 0.46164387 0.011514425 0.018403113
0000f0 f7 19 70 3d c7 30 1b 40 b0 d9 7b 3e 8e 2a 3a 40
       0.058618512 2.4248521 0.2459476 2.9088473
000100 34 df c1 3d d8 b6 02 c0 64 58 99 3e f8 09 4c 3e
       0.09466401 -2.04241 0.2995025 0.19925678
000110 04 52 e1 bd 4d 7b 36 c0 3b 01 ac 3d 4b b3 e4 3f
       -0.11001971 -2.8512757 0.08398672 1.7867216
000120 22 ee 80 3e 82 77 0e c0 07 89 a9 bd ab a3 4e c0
       0.2518168 -2.2260442 -0.08278089 -3.2287395
000130 06 d2 8f be 98 a8 92 bd 91 0b d3 3a 4f 06 f0 bf
       -0.28089923 -0.07161063 0.001610147 -1.8751925
000140 bf db 1d 3f b7 01 0e 3f 28 03 d6 3d d0 0d ce bd
       0.6166343 0.55471367 0.10449821 -0.10061228
000150 04 d0 13 be a4 56 cb 3f 0a a0 47 be 69 33 5c c0
       -0.1443482 1.5885816 -0.19494644 -3.4406378
000160 63 8f 06 3f af 24 31 3f f6 02 b2 3e 24 db b3 3f
       0.5256254 0.691966 0.34767884 1.4051251
000170 46 17 6a 3d bc 6b e5 bf d3 28 8b be af 0f 18 c0
       0.0571511 -1.7923503 -0.27179584 -2.3759573
000180 2e 32 c1 3c 5b 0e 02 c0 00 e4 bd 3c b8 0d 39 c0
       0.023583498 -2.0321262 0.023180008 -2.8914623
000190 c2 5b d3 be d4 c7 55 3f 80 71 19 3e cc 63 25 bf
       -0.41280943 0.8350804 0.14984703 -0.646054
0001a0 02 b9 cf 3e a0 93 78 bd 40 7e 17 bc 78 f6 f6 3d
       0.40570837 -0.06068766 -0.009246409 0.12058729
0001b0 ec d3 85 3e e6 33 00 bf 94 70 44 3f bd e5 2c 3f
       0.26138246 -0.5007919 0.7673428 0.6753805
0001c0 c5 66 aa 3e a0 c6 8e 3f 10 5c 05 be 96 af dd 3e
       0.33281532 1.1154366 -0.130234 0.43298024
0001d0 20 3d 76 3d ae e4 ff be f0 e1 6f 3d 4b 36 0a 3f
       0.060116887 -0.49979156 0.05856508 0.53989094
0001e0 cb af 33 3f 6d e9 28 3f c3 0f d9 3d 2b c8 e1 3f
       0.70190114 0.6598118 0.105987094 1.7639211
0001f0 f3 43 f6 3e a0 bf bd 3f dc c3 03 be 00 7e a5 3d
       0.48098716 1.4824104 -0.12867683 0.08080673
000200 f7 80 0d 3e b4 bb fc bf 6e 8c c3 be d6 0f fa 3e
       0.13818727 -1.9744782 -0.38193077 0.48840207
000210 50 f4 b4 3e 52 a1 d8 bf b6 c4 97 3e a3 6a 07 3f
       0.35342646 -1.6924231 0.29642266 0.5289709
000220 4c 43 bf be 5e 2c b8 bf 64 bc 09 3e 6d 64 12 bf
       -0.3735603 -1.438854 0.13450772 -0.5718449
000230 cc e7 1e 3f 19 87 1a 3f fd 49 94 3e a0 35 fc 3f
       0.62072444 0.6036239 0.289627 1.9703865
000240 84 77 38 3d 33 4c d3 bf c2 71 34 3e 64 86 0b 40
       0.045035854 -1.6507629 0.1762152 2.1800776
000250 80 3f f0 3c 61 32 ec be 00 96 36 bc 32 b7 f0 be
       0.029327154 -0.46132186 -0.011144161 -0.47014767
000260 0a 52 1d be e7 31 92 3f 28 41 f4 bd e2 d6 c6 3f
       -0.15363327 1.1421479 -0.1192649 1.5534327
000270 99 90 08 3f 32 5b f1 3f 32 da 00 bd 08 32 02 c0
       0.5334564 1.8855956 -0.031458087 -2.0343037
000280 9e 7e 8b 3e 79 b4 2c 3f 7b 30 4d 3f e3 c7 7a 3f
       0.2724504 0.6746288 0.801521 0.9796125
000290 ca c6 d6 3e f8 dd 44 3e 2e a5 67 3d aa aa f6 3f
       0.4194854 0.192253 0.056554012 1.9270833
0002a0 1f 98 47 3c dd a8 db 3f 80 33 45 3d a7 88 f1 3f
       0.012182265 1.7160908 0.048144817 1.8869828
0002b0 58 a4 44 3e 9a 36 b5 3e aa a1 97 bb d8 65 f5 bf
       0.19203317 0.3539322 -0.004627426 -1.9171705
0002c0 7b cf 3c bd 93 15 88 3f f0 4d 26 3f d1 e6 ee 3f
       -0.046096306 1.0631584 0.64962673 1.866419
0002d0 0f a4 0a 3f 75 cd a1 3f 34 47 0f 3e 62 b9 7b be
       0.54156584 1.2640826 0.13992006 -0.24582437
0002e0 88 bb 96 bd 68 29 4f 3e 09 71 12 be ef 73 a8 3f
       -0.073599875 0.20230639 -0.14300932 1.316038
0002f0 a3 77 18 3e bb ca 0e c0 8f 75 85 bd 83 72 34 c0
       0.14889388 -2.2311237 -0.06516563 -2.8194892
000300 01 fe 32 3f 45 e5 0c 40 00 07 34 3e f0 5d e7 3f
       0.6991883 2.2014935 0.17580795 1.8075542
000310 cb 74 cd be 6d 1e 0b c0 3b 15 8b bd 79 be ab 3f
       -0.40128168 -2.173732 -0.06791159 1.3417503
000320 42 c1 1e bb ad ac f7 bf d8 0f 9c be 50 49 fb 3d
       -0.0024224077 -1.9349571 -0.30480838 0.122698426
000330 49 d7 67 bd 7b e5 cd 3f 15 50 58 3e 01 51 47 40
       -0.056601796 1.6085657 0.21124299 3.114319
000340 86 5d ae bd be d1 09 40 e0 3c 4a 3f 08 57 a6 3f
       -0.08513932 2.1534266 0.7899914 1.299531
000350 a7 37 18 3f cb 9e 9c 3f 31 f6 94 be 50 5f 15 bf
       0.5945992 1.223596 -0.2909408 -0.5834856
000360 71 22 ef 3e 6d bc f6 3f 56 22 99 3e 5f 61 06 3f
       0.46705964 1.9276253 0.2990901 0.52492326
000370 dc 84 8b 3c 33 09 26 c0 86 0c fd 3d e5 59 6a 3f
       0.017031126 -2.5943115 0.12355904 0.9154342
000380 08 f5 43 3c e1 dd 01 c0 00 b9 c7 bc e0 c1 e6 bd
       0.0119602755 -2.0291674 -0.024380207 -0.112674475
000390 af c5 aa be 39 b1 2b c0 93 e9 ea 3d 80 83 0a c0
       -0.33353946 -2.6826918 0.11470332 -2.1642761
0003a0 2f e6 c9 bc 89 e5 00 c0 4e 8d 4c 3e d1 fd 22 40
       -0.024645893 -2.0140097 0.19975778 2.5467417
0003b0 dd a6 a3 3c 13 e9 0a c0 c7 ba f8 be 0c 3b 85 3e
       0.019977028 -2.1704757 -0.4858 0.26021612
0003c0 87 e4 5b 3d 0f dc 30 c0 70 25 a7 be 18 80 7a 3e
       0.053684738 -2.7634313 -0.3264575 0.24462926
0003d0 b0 8d f1 3d 60 9b f9 bd 23 91 2f be 36 c7 c1 be
       0.11794603 -0.121878386 -0.17145209 -0.37847298
0003e0 00 2a b2 bc ed f9 29 3f 30 95 59 bd 28 35 23 be
       -0.021748543 0.6639698 -0.053120792 -0.15938246
0003f0 19 74 27 3f b0 3b 63 be ae fc dd 3e c0 69 8e 3d
       0.65411526 -0.22190738 0.43356842 0.06953764

network.0.bias f4 [256]
000000 52 5f 2a bd 62 f7 11 bf 12 81 03 bf cb 03 2c bf
       -0.04159481 -0.570181 -0.5136882 -0.6719329
000010 13 35 fd be 92 9f 73 be 8b b5 95 bd f0 cb 49 3e
       -0.49454555 -0.2379134 -0.07310017 0.19706702
000020 f5 d9 16 bf ac 28 2d bf 30 f5 f6 be 06 c0 01 be
       -0.58926326 -0.67640185 -0.48233938 -0.12670907
000030 1b 7e 85 be 68 ec a2 bd 54 c1 09 bf 9d 4e fe be
       -0.26072773 -0.07955247 -0.5381062 -0.49669352
000040 40 21 e4 be a0 ab 97 be ca 3c 9b bd a3 0a 73 bd
       -0.44556618 -0.29623127 -0.07579954 -0.059336316
000050 88 3f 29 3d 74 f6 f3 be f7 12 d2 be af 95 2c bf
       0.041320354 -0.47648966 -0.41030094 -0.674159
000060 1b 48 fb be a2 72 74 be 95 92 87 bc c2 d5 1b bf
       -0.4907845 -0.23871854 -0.016549388 -0.60873044
000070 64 f3 3c be 0f 43 b8 be fb 08 ae bc 87 2a 52 bd
       -0.18452221 -0.35988662 -0.021244517 -0.05131009
000080 74 72 0e 3e fb 83 d1 bb a3 05 d4 bd 16 9f 56 bd
       0.13910848 -0.006393907 -0.103526376 -0.05239781
000090 ea 19 16 3e 18 d5 b8 bd 00 aa 04 bf a8 10 b3 3d
       0.14658323 -0.090250194 -0.518219 0.08743411
0000a0 af 57 44 bd 1f 9b a0 be a2 d0 13 be 67 30 32 be
       -0.047935184 -0.31368348 -0.14435056 -0.17401277
0000b0 d2 f9 d8 be 71 f1 dc bb 5e 67 cd 3c 0d b3 57 be
       -0.42378098 -0.0067426492 0.025073703 -0.21064396
0000c0 4e 1c db 3d b6 a4 93 bc 97 c3 9f be 2a d5 04 bf
       0.10698758 -0.018022876 -0.3120391 -0.5188776
0000d0 36 13 21 bf fa 6d df be 9c 08 08 bf 64 92 de bd
       -0.6291994 -0.43638593 -0.53138137 -0.108677655
0000e0 ce 37 d5 bc 91 9e ff be 5e b7 7f be 80 22 2a be
       -0.026027586 -0.49925664 -0.24972293 -0.16614723
0000f0 54 d7 15 bf 18 f1 0f bd 30 4f 3a bd b2 21 ba be
       -0.5853169 -0.035142034 -0.045485675 -0.36353832
000100 30 80 27 3e ba 26 98 be 4a c5 55 3e 79 13 c5 be
       0.16357493 -0.29717046 0.20876041 -0.3849142
000110 76 17 be be f6 fa 30 bf 42 cc b6 bd d8 af a3 bd
       -0.37127274 -0.69132936 -0.08925678 -0.07992524
000120 ad 2d 4b 3c d7 ae 8b bd 75 80 24 bf 64 a0 2e bf
       0.012401027 -0.068204574 -0.6425851 -0.68213487
000130 94 c8 06 be ab c0 bc bd e9 de 20 3e 69 43 b0 3d
       -0.13162452 -0.09216436 0.15710033 0.086066075
000140 a3 66 bc be b9 cc 3d bd ba 08 ea be 9d 2d 84 bd
       -0.36797056 -0.046337817 -0.45709783 -0.064540125
000150 a0 d2 90 bd f1 c9 cd 3c 4c 06 19 bf a8 4d b0 3d
       -0.070714235 0.025120707 -0.59775233 0.08608562
000160 01 a5 81 bc ad 07 40 be 2e d3 02 be 28 64 2c bf
       -0.01582575 -0.18752928 -0.12775871 -0.67340326
000170 50 59 fe bd 14 3a bc bd 0a 32 39 3e 8a ea 9f bd
       -0.12419379 -0.09190765 0.18085495 -0.07808407
000180 2e ff 49 be 00 9e 40 bd d4 6e 97 be 28 b3 50 bd
       -0.1972625 -0.04702568 -0.29576743 -0.050952107
000190 42 c3 56 3d be f6 12 bf aa 5d ca bc 59 a9 af bd
       0.052432306 -0.5740775 -0.024702866 -0.085772224
0001a0 7a d6 07 be 9a ac 7a be 89 36 2d be d4 d8 db be
       -0.1326541 -0.24479905 -0.16915335 -0.42938864
0001b0 9e b4 fa bd 31 57 06 bf cb 8c b1 bc 4d 15 e4 3b
       -0.12241481 -0.52476794 -0.02167358 0.006960547
0001c0 b1 d7 d5 3d b9 b2 99 be 38 73 85 be 2b 83 50 3d
       0.104415305 -0.30019167 -0.26064467 0.05090634
0001d0 8e 63 af 3d 6a 57 a0 bd 98 92 61 bc f9 6f 15 bf
       0.085639104 -0.07829173 -0.013767861 -0.5837398
0001e0 7d 6a 88 3b cf a5 20 bf 8c d4 01 bf 65 98 82 be
       0.004163085 -0.62753004 -0.50714946 -0.25506893
0001f0 20 3b 31 be b2 c7 06 bf 64 94 f4 be 40 00 17 bf
       -0.1730771 -0.5264846 -0.47769463 -0.58984756
000200 cc 46 af be 6a e5 95 b9 91 9c 15 bf a3 28 cc be
       -0.342337 -0.0002859042 -0.58442026 -0.39874753
000210 20 19 e5 bd b2 04 a2 3d 01 73 b4 be c4 bb 0b be
       -0.11186433 0.07911052 -0.3524399 -0.13645846
000220 16 93 a5 3e ec be 4d 3e e8 bd 9c bd 53 bc 97 be
       0.3233878 0.20092362 -0.07653409 -0.29635867
000230 c2 80 25 3d 97 46 ba be 24 eb a7 be 5d 1f ab be
       0.040405996 -0.3638198 -0.32796586 -0.33422366
000240 93 60 d7 be 52 e6 d4 be 26 c9 2c bf 04 cd c4 be
       -0.42065868 -0.4158197 -0.6749443 -0.38437665
000250 59 3b a5 bd 6f 3d f8 3d dc 28 d0 be 91 99 41 bd
       -0.0806796 0.121210925 -0.40656173 -0.047265593
000260 7a 05 c1 bc 42 00 2d bf 11 d7 a1 bc 6c b8 09 bd
       -0.023562182 -0.6757852 -0.019755872 -0.033623144
000270 ae a7 22 bf ba 2e 3e be 7f bd 1c bd 45 9d 95 bc
       -0.6353711 -0.18572512 -0.038266655 -0.018263469
000280 9c b5 d5 3d 0a 86 85 be ce 7a 0e bf db ec ea 3d
       0.1043503 -0.26078826 -0.55656135 0.11470958
000290 fa 60 bc 3d 8d 48 e3 bc 38 e7 26 be 06 bb 24 bf
       0.09198184 -0.027744556 -0.1629914 -0.64347875
0002a0 a1 b6 2a bf b7 63 24 bf 25 0b 52 be 36 13 99 bd
       -0.6668492 -0.6421465 -0.20512064 -0.07474367
0002b0 eb e9 dd 3d fa 78 63 be f5 e6 f4 3c 81 11 c1 be
       0.10835632 -0.22214118 0.029895285 -0.37708667
0002c0 5f 2c c3 bd e8 c1 58 3d 9e 62 09 bd 4e 39 66 3d
       -0.095299475 0.0529193 -0.033541314 0.056206994
0002d0 a6 44 8c bc 33 38 04 bf a6 fd 83 be b7 49 5a be
       -0.017122578 -0.51648253 -0.25779456 -0.21317182
0002e0 d6 b3 8c 3c 0e d7 83 be c8 03 81 3e b1 dc 11 be
       0.017175596 -0.2575001 0.25198197 -0.14244343
0002f0 0f a6 b8 3b 40 c9 17 bf 0d 10 b5 bd 4b 7f ff 3b
       0.00563503 -0.5929146 -0.08840952 0.007797157
000300 ba da b2 3c ed 44 69 be 39 ae 6f 3e 48 b2 16 bf
       0.021832813 -0.227802 0.23406304 -0.58865786
000310 eb 60 12 bf 64 92 74 bd 9e e5 db bc 64 ed 33 bd
       -0.57179135 -0.05970992 -0.026842888 -0.043927565
000320 16 6d 91 3d 9c 54 d0 3d 44 df 36 bd 5f b9 3d bd
       0.071008846 0.10172388 -0.044646516 -0.04631936
000330 9f f0 7e bd fb dc 87 be 2f 0a 80 3e 74 cf 86 be
       -0.062241193 -0.26535782 0.2500777 -0.2633015
000340 3f f1 13 bf 27 f7 f6 bd 0e 75 81 bb 2e ea f0 be
       -0.5778999 -0.12058859 -0.0039507216 -0.47053665
000350 a8 a4 e7 3d 8c 6c a4 bc 6b 73 04 bb 20 7f b3 be
       0.113107026 -0.02007129 -0.0020210396 -0.35057926
000360 01 00 b8 3c 1a df c2 be af 8d 12 3d 59 27 45 bd
       0.02246094 -0.38060838 0.03577965 -0.048133228
000370 02 f2 93 bc 09 88 13 bf 9e 23 17 be 4f 0a 1a be
       -0.018059734 -0.5762945 -0.1475968 -0.15042995
000380 90 4e 76 3e 9a a1 af be 87 71 87 be 79 ce 98 3d
       0.24053407 -0.3430298 -0.26453802 0.074612565
000390 c9 20 17 be f2 3e f8 3d d9 cb 1d bf 54 49 bf bd
       -0.147586 0.12121381 -0.6163917 -0.09340158
0003a0 f9 95 1f 3d 39 9a b7 3c 13 c2 3b bb e4 83 2b be
       0.038961384 0.022412406 -0.0028649613 -0.16749531
0003b0 04 b3 05 bc 1b 09 13 bf 88 b6 96 be 47 ec 05 bf
       -0.008160356 -0.5743577 -0.29436135 -0.52313656
0003c0 51 55 b7 be 63 6f 01 be ef a6 80 bd a6 98 63 be
       -0.3580728 -0.12640147 -0.0628184 -0.222262
0003d0 93 61 9d be ea 01 05 be ca 9a 60 be 79 73 18 be
       -0.30738506 -0.12989011 -0.21934047 -0.148878
0003e0 32 f6 01 bf da a6 54 be 70 15 04 bf 57 ac 7f 3d
       -0.5076629 -0.20766774 -0.5159521 0.062420215
0003f0 58 24 00 be 4c aa 24 3e 48 49 90 3d a4 57 2c bf
       -0.12513864 0.16080588 0.07045227 -0.6732123

network.3.weight f4 [256, 256]
000000 a7 c7 33 bd c0 0d 55 3c e4 bb b8 bc 08 9d 35 bd
       -0.043891575 0.013003767 -0.02255053 -0.04433921
000010 36 ed 6e bd c8 2a e8 bc 11 a2 e3 3e 85 53 9e bc
       -0.05833169 -0.028340712 0.44459584 -0.019326935
000020 5a 8e 70 bd 9c fc b6 bc 94 a6 a7 bc 28 81 9f 3e
       -0.058729507 -0.02233725 -0.020465173 0.31153226
000030 c0 26 a1 ba 36 77 87 3e 9e 03 6b bc ba 42 7f 3d
       -0.0012294874 0.26458138 -0.014344124 0.062319495
000040 78 74 2f bc 75 35 23 be cf 16 e2 3e ca af cf 3d
       -0.010708921 -0.15938361 0.44158027 0.10140951
000050 1d 81 53 bb 5e a0 13 bd 20 44 a2 3d 18 4e 0a 3c
       -0.0032273002 -0.03604161 0.0792315 0.008441471
000060 53 7a 3a bd 81 d2 7e be ef c4 3f 3e 97 4f 5e be
       -0.045526814 -0.24884988 0.18727468 -0.21710049
000070 3e ac 0e bd a8 f2 49 3c 30 86 d7 ba 7a 9f 27 3d
       -0.03483223 0.01232592 -0.0016443189 0.040923573
000080 ca 76 73 be d1 c6 6e 3e ad c9 a5 bd 53 12 cd 3e
       -0.23775783 0.2331803 -0.08095107 0.40053043
000090 de ab e9 3d de c6 1e be 06 fc 14 bd 0e 85 0b bf
       0.11409734 -0.1550555 -0.03637316 -0.544999
0000a0 bc 9f 41 3e fc 65 fc bc 5a 05 3d 3e ed f9 25 bc
       0.1890859 -0.030810349 0.18459073 -0.010130388
0000b0 f4 6d dd bc 76 56 0a 3e e3 b0 cb be fe 81 9a 3d
       -0.027029969 0.13509545 -0.3978339 0.07544325
0000c0 4b 0a e2 be 89 23 04 bb b2 14 4f 3c c2 fb 33 3d
       -0.44148478 -0.0020162782 0.0126392115 0.043941267
0000d0 80 37 5c 3b ee c2 3e bd 2a 43 15 3d 59 a0 37 3e
       0.0033602417 -0.04657262 0.036441006 0.17932262
0000e0 d3 fb 97 3e 40 a1 47 bc 38 29 1b 3c a8 fe 07 bd
       0.29684314 -0.012184441 0.009470277 -0.033201844
0000f0 08 40 29 3c 9a 59 4a 3e 6f 7e 3b 3e a4 05 8c 3c
       0.010330208 0.19760743 0.1830995 0.017092533
000100 40 2b ba bd fe 5c c4 bc 02 bf 30 3d f4 61 e0 3c
       -0.090902805 -0.023970123 0.04315091 0.027390458
000110 a3 d5 28 bd 52 a9 1e 3d 65 d6 7c 3e 5f 8c a1 3e
       -0.041219365 0.038735695 0.2469116 0.31552407
000120 09 b3 1e bf 24 1e 0b 3f c2 f0 20 bd 84 ef 8e bc
       -0.61991936 0.54342866 -0.039292105 -0.017448194
000130 14 94 0b 3e 21 c9 f1 3d 42 55 e7 bc be d9 21 bf
       0.13630706 0.118059404 -0.028238896 -0.63222873
000140 22 9b 5b bd 22 37 2c 3e 30 2b a8 bb 73 54 32 3f
       -0.053614743 0.16817906 -0.0051321015 0.6966011
000150 3c 6e 05 3f aa 1a 16 3c 88 85 ca bc 28 5f 1a bf
       0.5212133 0.009161631 -0.024721876 -0.60301447
000160 ae 2c 11 bd cf 49 a7 3e 78 be bb 3e 68 45 66 bc
       -0.035443 0.326735 0.36668754 -0.014054634
000170 94 a4 c7 bc 44 16 43 3e c2 86 1a be 00 ac 2c be
       -0.02437047 0.19051462 -0.15090469 -0.16862488
000180 d7 1f cf 3e e3 74 ef 3e bd 50 97 3d b8 c3 b2 3d
       0.4045398 0.46768865 0.073884465 0.08728737
000190 0b 61 b5 be 08 7e 67 3d 72 43 70 bb 74 8f 88 3e
       -0.354256 0.056516677 -0.0036661294 0.26671946
0001a0 12 ca 33 3e 00 5e d9 3e e4 b3 a1 3e 80 89 1e ba
       0.17557552 0.4245453 0.31582558 -0.0006047711
0001b0 61 87 97 3e e2 00 2b bd 71 b2 71 bc b8 36 d1 bc
       0.29595473 -0.04174889 -0.014752016 -0.025538787
0001c0 50 ec f7 be b6 94 51 bd d2 37 16 be 97 b2 d0 bd
       -0.4842248 -0.051167212 -0.14669731 -0.10190313
0001d0 98 6b 10 bf 0f a8 10 3f ea 43 0c bf da 9f 0f bd
       -0.56414175 0.5650644 -0.5479113 -0.035064556
0001e0 9f 95 86 bf 14 e9 df 3c be 3d 3d bd e0 65 9c 3b
       -1.0514411 0.02733282 -0.04620146 0.0047728866
0001f0 40 b4 8b bc c0 80 ef 3b 7c ac cc bc ec 13 63 3d
       -0.017053723 0.0073090494 -0.02498459 0.05543892
000200 e8 43 37 bd 09 83 4f bd 04 e1 26 3d e2 9c 02 3d
       -0.044742495 -0.050662074 0.040741935 0.031887896
000210 58 0e ff bc 72 de 23 bf e2 01 90 3d e5 2a 78 3e
       -0.03113477 -0.640113 0.07031609 0.24235113
000220 8d b5 60 3c 29 fa b5 3d 5e 6d 8b 3e 5a 67 36 3d
       0.01371516 0.08885605 0.27231878 0.044532157
000230 da cc dc be 3a d3 1e bd 41 8c 87 3b 80 b1 5a 3c
       -0.4312504 -0.03877566 0.0041365926 0.013347983
000240 b9 ef e8 bd 82 fd 17 3d 40 88 70 bc 80 1d 97 3a
       -0.113738485 0.037107 -0.014680922 0.0011529177
000250 e4 c1 3f 3e ca 4d 3e be d8 d7 41 bd e3 a3 06 3f
       0.18726307 -0.18584362 -0.047324985 0.5259382
000260 68 5c 5f 3e 80 a7 5b bc f7 88 ea be 2e ad a5 3e
       0.21812594 -0.013406634 -0.4580762 0.32358688
000270 72 ee 45 bd bf cb 0e 3e b8 64 1b 3e f4 83 20 be
       -0.048323102 0.1394491 0.1517514 -0.15675336
000280 1d f3 36 3d 9c 97 b1 bc c4 ba 3c 3d 9a aa e1 be
       0.044665445 -0.021678738 0.04607655 -0.4407547
000290 16 05 c1 ba 23 2e 17 bd a4 78 9d 3e 9e 0f 29 bd
       -0.0014726247 -0.036909234 0.30756104 -0.04127466
0002a0 90 1a ac bb 08 62 78 3c 44 ea 26 3e c6 bd 39 3c
       -0.00525219 0.015160091 0.16300303 0.011336749
0002b0 dd bb a7 be 6e 1f 90 be 28 a7 b0 be 60 89 9b 3d
       -0.32760516 -0.2814898 -0.3450253 0.075945616
0002c0 74 67 7f 3f 06 b2 96 be 9e b1 e2 bc 8b 01 1a bf
       0.9976723 -0.29432696 -0.027672585 -0.60158604
0002d0 44 82 24 bf e4 a6 f0 bc de 35 be bc ed d7 fc 3c
       -0.6426127 -0.029376455 -0.023219045 0.03086468
0002e0 e6 bd dd be 58 2a e9 3d e9 6c 3a 3d ef dd 51 3e
       -0.43308944 0.113850296 0.04551402 0.20494817
0002f0 79 37 42 bf 88 4a 6a bd 76 b5 7b 3f be 92 4c bf
       -0.75865895 -0.057199985 0.9832376 -0.7991141
000300 ab dd b1 be 44 05 aa 3d 93 35 c7 3b e0 83 47 3c
       -0.34739432 0.083017856 0.0060793846 0.012177438
000310 00 76 7a 39 07 5e 1f 3f 1e f1 51 3e 86 ff 00 3f
       0.00023885816 0.6225285 0.20502135 0.503899
000320 8d 3e 0b be 77 e7 f8 be 98 16 21 3c 53 9f 5a 3e
       -0.1359808 -0.48614094 0.009832047 0.2134984
000330 b5 b9 2a 3c bc 6e 1f bd c7 3d ef 3d d6 69 15 bd
       0.010420253 -0.038923964 0.11681705 -0.036477886
000340 e2 6f 20 3d 8c cd 51 3e 2b f7 82 3e 01 19 0c be
       0.0391692 0.20488566 0.255792 -0.13681413
000350 e2 74 a2 3d 8d 2e bc bd 3d 3c 03 be 13 87 c8 bc
       0.0793245 -0.09188566 -0.12815948 -0.02447847
000360 bd cd ed 3c b0 75 a6 3c 89 1d 18 3e 99 b4 ad 3d
       0.029028768 0.02031979 0.14855017 0.08481712
000370 6b 81 8e be 60 9a 2c 3b d2 16 50 be fa f4 a3 bd
       -0.27833113 0.0026337132 -0.20321205 -0.0800571
000380 0c 00 d1 3d e6 6f e2 bd 3b ac cc bd 94 9c 03 bf
       0.10205087 -0.11056499 -0.09993788 -0.51410794
000390 72 56 ae 3e 35 84 88 be cc 21 3a be 1e 74 dd 3e
       0.34050328 -0.26663366 -0.18176955 0.43252653
0003a0 48 84 1d bf 8f 74 fd be 3a cb bc 3a 98 7e 57 bd
       -0.6152997 -0.4950299 0.0014403828 -0.052610964
0003b0 45 f8 b2 3d b4 6e f0 3c d2 19 06 3d 28 e0 df 3c
       0.0873876 0.029349662 0.032739468 0.027328566
0003c0 60 50 6f bd cd 10 a4 3d c1 c5 20 3e f2 87 34 bd
       -0.05842626 0.08011017 0.15700437 -0.04407496
0003d0 6f cb 3f bd fa 89 32 3e 1b 54 bd bd 45 3d 40 3e
       -0.04682487 0.17435446 -0.092445575 0.18773372
0003e0 40 b3 8b ba 33 28 b2 bc a6 dc 2e 3d 43 71 0e bf
       -0.0010658279 -0.021747684 0.042690895 -0.55641574
0003f0 86 5b 2b bd 44 11 2f 3d ea c3 e7 be 48 9f 73 bd
       -0.04183533 0.042741075 -0.45266658 -0.059478074

network.3.bias f4 [256]
000000 8a 87 4c 3d d0 e7 3a bd 3f 2f 8a 3d 73 71 26 bd
       0.049933948 -0.04563123 0.06747293 -0.040635537
000010 fc 3e 43 bd ee 39 b4 3d a9 a7 92 bd a4 21 b6 bc
       -0.04766749 0.08800112 -0.07160885 -0.022232838
000020 40 2e 67 3e ef a2 56 bd d2 bf 7a 3e c8 21 82 bd
       0.22576237 -0.05240148 0.24487236 -0.063540995
000030 fe fb 85 3e c5 79 74 3d 53 b6 f5 bb 2b 0f 34 3e
       0.26168817 0.05968644 -0.0074985414 0.17583911
000040 13 8a 1f bc 59 1f 80 3e e7 02 b7 3b 4d da 23 3e
       -0.009737509 0.25023916 0.005585063 0.16001244
000050 06 9a 18 bd 8c 2d f2 3d cf db 35 bd 60 6f 4f bd
       -0.037256263 0.118250936 -0.04439908 -0.050643325
000060 64 ae 86 bd 39 0e 16 3e 28 af 3d 3e 35 ee 68 3a
       -0.06576231 0.14653863 0.18523848 0.0008885593
000070 4b 4e d3 bc 5f 8f 27 bb 17 f4 22 bd e4 96 55 3e
       -0.025794169 -0.0025567634 -0.039783563 0.20858341
000080 2e a6 18 3e ea 23 44 3e 2f f6 35 3e b6 4f 38 3e
       0.14907143 0.19154325 0.17769693 0.17999157
000090 e1 97 15 bd bc d4 be bb 7c 04 00 3e 05 5c f1 3d
       -0.036521796 -0.0058236998 0.1250171 0.117851295
0000a0 85 ba da 3d 1d 44 24 3e ed 15 6a 3e 03 a7 5f bd
       0.10680107 0.16041608 0.22859927 -0.054602634
0000b0 79 ce 19 bd 36 8f 90 bd 95 0b d8 3d d9 40 a6 3e
       -0.037550423 -0.07058565 0.10549084 0.3247135
0000c0 1f d4 a8 bb 35 3b 12 3e ef e5 7f 3d 04 8e 80 bc
       -0.00515224 0.14280398 0.06247514 -0.015692718
0000d0 25 02 2e bd e0 46 42 3e e0 9d 59 bd 68 78 9e bc
       -0.042482514 0.18972349 -0.053129077 -0.019344524
0000e0 9c ab 59 bd bd 86 a5 bc 77 a0 1b 3e 46 6b 80 3e
       -0.053142175 -0.02020585 0.15197931 0.25081843
0000f0 62 6d 83 3e 55 27 b3 3c 4d d8 02 3c 6f 1d 25 3e
       0.2566939 0.02186934 0.00798614 0.1612451
000100 a4 ac 40 bc 61 13 76 bd 79 49 38 3e a2 d1 26 3e
       -0.011759911 -0.060077075 0.17996778 0.16290906
000110 ba 56 f0 bc d7 ff 39 3e c7 93 1a 3e 7d 80 68 3d
       -0.02933823 0.18164001 0.15095435 0.05676316
000120 cc a8 e5 3d 3f f9 9e 3d a9 c6 88 3e 6c 60 30 3e
       0.11213836 0.07762384 0.26714066 0.17224282
000130 60 ce cb 3b fc 43 3f 3e b0 f4 50 bd 74 e7 71 bb
       0.00621967 0.18678278 -0.051014602 -0.0036911638
000140 2d 29 0f 3e 96 d6 c6 3d ab 1d 1d 3e fd 76 a3 3d
       0.13980551 0.09708898 0.15343349 0.079816796
000150 9e f7 93 bd 10 05 8d 3d 98 7c 89 bb 23 48 21 3e
       -0.072249636 0.06885731 -0.004195761 0.15750174
000160 b5 2a 26 bc 4f 64 02 bb 63 38 b4 bc e7 67 2d bd
       -0.010142018 -0.0019896214 -0.021999544 -0.042335417
000170 b8 4b 07 3e 36 96 73 3e 79 a9 f8 3d 6b 02 de 3d
       0.13212478 0.2378777 0.12141699 0.10840305
000180 ba 6a d7 3d 39 13 c0 3d 96 ee 2d 3e 08 f0 51 bc
       0.10518403 0.093786664 0.16985545 -0.012813576
000190 a4 6d 85 3e da c3 39 3e ec 91 ac bb 72 f1 78 3e
       0.26060212 0.18141118 -0.0052664187 0.24310854
0001a0 1e 30 4f 3e 5a c6 b2 3d 5c 68 7c bd ca f8 0d 3c
       0.20233199 0.08729239 -0.061622962 0.008665273
0001b0 fe 27 7e 3e b1 f3 f6 3d a4 7c 94 bd 75 0d 68 3e
       0.24819943 0.12058199 -0.07250336 0.22661383
0001c0 b5 dd a4 bc 29 d3 06 3e 00 7f 06 3b a5 fb 49 3e
       -0.02012525 0.13166489 0.0020522475 0.19724901
0001d0 aa ce 58 3e fc b5 88 3c 10 92 1c bd cc cd 19 3e
       0.21172586 0.01668834 -0.038225234 0.15019912
0001e0 4b 95 7e 3e 8e e3 8f bd 66 d7 29 3e 18 00 15 bd
       0.24861638 -0.070258245 0.16586074 -0.036377043
0001f0 3c 06 1e bc 37 97 1b bd c0 c7 4d 3e 0e 50 2a 3e
       -0.009645041 -0.037986007 0.2009573 0.16632101
000200 e4 17 50 3e b0 c5 85 3e 14 79 1a 3e 6f 48 6e bc
       0.20321614 0.26127386 0.1508525 -0.014543637
000210 d8 bb a5 ba 81 e0 6f bd 42 54 07 3e ad 28 c7 bc
       -0.0012644483 -0.058563713 0.13215736 -0.024311388
000220 d8 87 c8 3b d5 1d c4 bc 97 db 1f 3a d4 a7 05 bc
       0.0061197095 -0.023940006 0.000609809 -0.008157689
000230 3d f9 00 3e 59 2f b2 3d ac 65 a4 3d 75 77 c1 38
       0.12595077 0.08700437 0.08027205 9.225208e-05
000240 0b e3 3e bd c2 f0 6e 3e 0f 18 f2 3d 8d 3c 57 3e
       -0.046603244 0.2333403 0.11820995 0.21019192
000250 41 74 ff bc 31 a9 5d 3e 76 51 b8 3b e4 19 63 bd
       -0.031183364 0.21646573 0.0056249453 -0.055444613
000260 99 48 ef bb 3c 68 16 3e 16 e3 9a 3d 2a 0c 6e 3e
       -0.0073023555 0.146882 0.075628445 0.23246828
000270 73 b9 fa bc 61 de 1b 3e 86 c0 66 3e ea ef 58 3e
       -0.030606007 0.1522155 0.2253438 0.2118527
000280 16 f3 f2 3d 8f 17 8c bd 9d 12 37 bb df 8c 03 be
       0.11862771 -0.06840431 -0.0027934678 -0.12846707
000290 c5 d8 48 3e ad a9 7f 3b 65 09 76 bd 2d 6d 4e bc
       0.19613941 0.0039011047 -0.060067553 -0.012599272
0002a0 e8 0f 97 3d 16 6a 92 3e 69 1b cc bc d6 93 4a 3e
       0.07376081 0.28596562 -0.024915414 0.19782957
0002b0 b1 b0 7f bb 5a 11 53 3e 34 ff 90 bd ee 78 1c 3e
       -0.0039015228 0.20612088 -0.07079926 0.15280506
0002c0 6c 04 1b 3b f4 29 40 3e 0e 6a ae 3d 44 3b 77 3e
       0.0023653759 0.18766004 0.08516322 0.24143702
0002d0 13 65 03 bc 23 77 28 3c ef a8 0c bc 5e 94 9d 3b
       -0.008019703 0.010282311 -0.008585199 0.0048089465
0002e0 1f e6 9e 3d c1 b2 79 3e d8 61 8c bd cc fb 76 3d
       0.07758736 0.24384595 -0.068546 0.060298726
0002f0 99 a9 f8 3d 44 a2 85 bd ef 0b 48 bd 98 15 83 3e
       0.12141723 -0.0652509 -0.048839506 0.25602412
000300 3d 3d 2e 3e b9 43 67 bd 9e 88 58 3e 9d 77 0a bd
       0.17015548 -0.05646107 0.21145865 -0.03380548
000310 d5 5d 75 bd 00 d4 d4 bb 30 4e 28 3b fd 91 bc bb
       -0.05990394 -0.006494999 0.002568137 -0.005754708
000320 94 1d 1d bd e3 d3 28 bd a9 6b 04 3e 0e 53 fc bc
       -0.038358286 -0.041217696 0.12931694 -0.030801322
000330 98 68 be bc d8 bd a2 3d 9f c8 47 3e 70 13 80 bd
       -0.023243234 0.07946366 0.19510125 -0.062537074
000340 d0 fc 21 3e 47 d1 8d bd 92 1a 45 3e 7b 69 70 bd
       0.15819097 -0.06924682 0.19248417 -0.058694344
000350 b9 1d 2a 3e aa 49 28 bc 7e b0 13 3e 2e 97 d8 3d
       0.16612901 -0.010271469 0.14422795 0.1057571
000360 59 5d a0 3c de a0 54 3e 83 b8 45 bb 50 ca 4e bd
       0.019575762 0.20764491 -0.0030169792 -0.05048591
000370 63 49 1e bd c2 fc 5d bd 28 75 82 b9 e9 34 c6 3d
       -0.038644206 -0.054196127 -0.0002488282 0.096780606
000380 31 a5 45 3e a5 c0 f5 bc 41 88 21 bd 99 ba d4 3d
       0.19301297 -0.029999087 -0.039436582 0.10387153
000390 9b 16 13 3e 5d de 04 3e 01 88 1f bd 93 e2 98 39
       0.14364092 0.1297545 -0.038948063 0.0002916051
0003a0 32 a9 aa bb 6a 47 47 3e 93 ac 53 3e 4c 41 ea 3d
       -0.005208158 0.19460836 0.206713 0.11438236
0003b0 bc 3e 07 3d c4 bc 3a bd 90 9c 3e 3e e4 d3 51 3e
       0.033018813 -0.045590177 0.18614411 0.20490986
0003c0 98 69 27 bd 34 f0 b8 3d 0f 52 46 3e 64 36 bf 3d
       -0.040872186 0.0903019 0.1936724 0.09336546
0003d0 81 bc 36 3e 9e 9e c6 3d 57 ff fb 3d ac 77 33 bd
       0.17845346 0.096982226 0.123045616 -0.0438153
0003e0 8b 33 5e bc 5c f1 4b 3e 40 d6 ca 3d 51 43 24 bc
       -0.0135620935 0.1991629 0.09904146 -0.010025815
0003f0 45 6c ec 3d f6 24 83 bc 31 cf 8e bd df 63 1e bd
       0.11544088 -0.016008835 -0.069731124 -0.038669463

network.6.weight f4 [256, 256]
000000 9f f9 05 bf 46 86 18 3d be 58 ae 3d 74 65 19 bd
       -0.52334017 0.037237428 0.0851302 -0.03745027
000010 38 95 5a bd 7c d9 07 3e 02 ca d8 bc 73 c2 20 3e
       -0.053364962 0.13266557 -0.026463512 0.15699176
000020 d0 5c 83 bd 75 07 cd 3e b3 18 f5 3c 5e 69 1d 3d
       -0.06414187 0.40044752 0.029919004 0.038430564
000030 e4 5d e5 be a3 9e a4 3d b8 01 ad 3c 4c 60 88 3b
       -0.44798195 0.0803807 0.021118984 0.00416187
000040 01 28 d3 bc 94 ce b2 bc c0 c1 ac bc 74 1e c0 3c
       -0.025775911 -0.02182702 -0.021088481 0.023452021
000050 8b 2a 5c 3c 3a 64 51 bd fc c1 14 3d af a6 93 3c
       0.013437877 -0.051120974 0.03631781 0.018023817
000060 ae 3b 7d bd 9f d2 de bd a7 5a 47 3d 11 a3 05 bc
       -0.061824493 -0.108800165 0.048670437 -0.008156554
000070 34 95 64 bc 1f 8d c3 bc b8 3c 82 bd 51 a5 f1 be
       -0.013951588 -0.023871003 -0.063592374 -0.4719644
000080 2e c3 c8 3c 93 ed 4d bc 91 19 5e bd d9 14 20 bd
       0.024507131 -0.012568849 -0.0542236 -0.039082382
000090 cd 5f 35 bd 13 31 25 bd d6 b8 20 be 2b 85 ad bd
       -0.044280816 -0.040330004 -0.1569551 -0.084726654
0000a0 9c 49 34 bd bd f1 ba bd 9e 03 f9 3b 7e 38 3a 39
       -0.044015512 -0.09128139 0.007599308 0.00017759387
0000b0 d3 d7 63 3d 52 39 11 bd dc 38 b2 3d 6d 22 e7 3b
       0.055625748 -0.035455056 0.08702251 0.0070536644
0000c0 fb 57 36 3d e7 8b ed bd 32 43 21 bd 6c 18 9c 3e
       0.0445175 -0.1159895 -0.039370723 0.30487382
0000d0 2a 3b 07 bd 1d 65 a5 bd bf ec 8e bd 17 34 90 3c
       -0.033015408 -0.080759265 -0.069787495 0.017602963
0000e0 b0 3f b3 3e be 5f 80 bd 5e 6a e8 bb e9 31 3c bc
       0.35009527 -0.062682614 -0.007092758 -0.011486509
0000f0 e0 9d 44 3d a2 fd 95 bd ab 70 f6 3c 05 8b 3f be
       0.048002124 -0.07323767 0.030083021 -0.18705375
000100 09 04 59 bd 31 9b 8f bc 93 bd a0 3c 2f eb a3 bd
       -0.052982364 -0.017530056 0.019621646 -0.08003842
000110 74 d8 39 be 21 cc 63 bd f8 98 ad bd f4 4e 4c bf
       -0.18148977 -0.055614594 -0.08476442 -0.7980797
000120 f7 6b 41 bd 4b 80 c9 bd a9 1b 25 be 3f 53 3c bd
       -0.047222104 -0.09838923 -0.16123833 -0.045977827
000130 81 5f 46 bb 74 66 f3 be c9 bf 8d 3d 2b 87 5a 3e
       -0.0030269327 -0.47539103 0.06921346 0.21340625
000140 08 9c 2d ba 55 ec 19 3d 0d f0 92 3d 2b 94 ed bc
       -0.0006622677 0.0375789 0.07174692 -0.029001316
000150 ff 47 85 bd 89 e4 0b bd 4a 44 09 3c 74 80 62 bd
       -0.06507873 -0.034153495 0.008378098 -0.055298284
000160 45 c8 83 bc 7b c5 9b 3c e3 37 46 bc 8e 78 9b 3e
       -0.016086707 0.019015064 -0.012098285 0.30365413
000170 fe 77 db bd 94 20 a1 bd 3d ef eb bc ed e2 ca 3d
       -0.10716246 -0.07867542 -0.028800601 0.09906564
000180 9c 5f a5 bc 07 26 6c 3d 19 a0 19 ba f7 3b d0 3c
       -0.020187192 0.057653453 -0.0005860343 0.025419218
000190 8f c5 60 bd b3 f2 0a bc 2a ef e8 bb f9 ad 34 3c
       -0.054875907 -0.008480716 -0.0071085887 0.011027806
0001a0 95 42 63 bd bb 78 ff bc 3f 25 5f bd dd fe 1f be
       -0.05548342 -0.031185498 -0.05447888 -0.15624566
0001b0 be 46 d0 bd c3 81 35 be ea 6c 60 3d 36 58 40 bd
       -0.10169743 -0.17725281 0.05479137 -0.046959125
0001c0 16 71 80 3d d5 cc a1 bb ac e2 0f bc ab af 73 bc
       0.062715694 -0.004937748 -0.00878207 -0.0148734255
0001d0 03 d5 5d bd e4 d3 01 bd 3f 94 d7 3c ae 1a cb bd
       -0.054158222 -0.031696215 0.026315806 -0.09917198
0001e0 19 90 48 be 58 55 41 bd 63 f7 51 3d 52 52 31 3c
       -0.19586219 -0.04720053 0.051261317 0.010822849
0001f0 d8 ae 99 be 42 a8 21 3d 5e 49 13 3d 71 eb a5 bc
       -0.30016208 0.039467104 0.03595864 -0.020253869
000200 08 98 3e 3d 69 5f 9e bc f2 b5 11 3d d4 b0 62 bc
       0.046531707 -0.019332604 0.035573907 -0.013836104
000210 0f 42 97 3d ba 21 98 3e 9c 9d a2 bd 25 ec 20 3d
       0.073856466 0.2971323 -0.07940218 0.039287705
000220 ce e9 e1 3c 7a 03 0c bd b6 08 38 bd 73 c1 6b 3b
       0.027577307 -0.034183003 -0.044930182 0.003597346
000230 98 a6 9a bb 2e c0 12 bc db a7 2c bd 8f c8 1a 3b
       -0.0047195666 -0.008956952 -0.042152267 0.0023618077
000240 3c 71 7d bd af ee aa bd d8 04 8d bd db 3c 7d bd
       -0.061875567 -0.083463065 -0.068856895 -0.061825614
000250 79 60 f5 bc 59 dc bb be 99 31 5d 3d fe e2 8c bc
       -0.029953228 -0.3669155 0.054002378 -0.017198082
000260 af ad 1f bd 2d 75 e1 3c 8c 4b 83 3c a5 ff d6 3c
       -0.038983997 0.027521694 0.016027234 0.026244948
000270 a8 4c 0c 3d 77 9c 70 bd 02 5e 8d be a2 16 a7 3c
       0.034252793 -0.058742967 -0.27610785 0.020396534
000280 84 1c 11 be d4 5d 5e 3d d7 48 55 3d b3 50 99 3c
       -0.14171034 0.0542887 0.05207142 0.018715238
000290 f3 2a 09 bb fd 6e a2 3d 87 68 e6 3c 1b f6 56 3d
       -0.002093014 0.079313256 0.028126014 0.0524808
0002a0 8e ce 56 bd aa 64 48 3d a6 85 5a 3b 00 66 b8 be
       -0.05244308 0.048924126 0.003334382 -0.3601532
0002b0 4d f7 f6 3b 95 6e 48 3c b5 0a 9b bc 97 3e 35 bd
       0.007536805 0.012233396 -0.018926004 -0.044249143
0002c0 df 0e 82 bd 35 01 d7 bc 83 83 53 bd 9f d7 e3 bd
       -0.06350493 -0.026245693 -0.05163909 -0.11125111
0002d0 a2 42 81 3d f3 2c 9d 3c 51 b0 7e bd c5 3d e7 bc
       0.06311537 0.019186473 -0.062179867 -0.028227696
0002e0 99 a0 c8 3a d0 6e 4e bd 52 d9 e6 ba 3e 97 02 be
       0.0015306651 -0.050398648 -0.0017612374 -0.12753007
0002f0 34 49 c2 bd 7f 1b e2 bb 6b 9f ed bb db c1 2b 3e
       -0.09486619 -0.0069002504 -0.00725167 0.16773169
000300 2e 46 87 bd 1f 7c 10 3d 81 80 8c be 5b 96 17 bd
       -0.066051826 0.03527462 -0.2744179 -0.037008625
000310 6e 23 8e 3c 07 e6 56 3c 4a 1f 44 bd 77 64 2e bd
       0.017350879 0.013116366 -0.047881402 -0.04257628
000320 f9 dc db 3c 7d 4b 90 3c 12 7c 28 bd 73 94 a9 3c
       0.026838766 0.01761412 -0.041133948 0.020700669
000330 fe 47 9b 3d 7b 4b e0 3e c7 fe fd 3c e3 58 bd 3b
       0.07582091 0.43807587 0.031005276 0.0057784184
000340 bc 28 27 be cd 63 0b be cf fd 06 3d ac c0 49 3d
       -0.16324133 -0.1361229 0.032956894 0.04925601
000350 21 0f 55 bd 41 31 5f 3d e9 9d 94 bd e9 3a 22 3d
       -0.05201638 0.05449033 -0.072566815 0.039606962
000360 16 ee 8e 3c 3b a7 16 bd 2f 76 fd 3b 54 6d 80 3d
       0.017447513 -0.036780577 0.007735036 0.06270853
000370 78 17 93 bd 4d 79 19 bd 7a a2 9f 3c 3f 24 ba 3e
       -0.07182211 -0.037469197 0.019486655 0.3635578
000380 91 82 fa bd 15 29 1b be d0 33 57 3e f7 9d a9 3d
       -0.12231935 -0.1515239 0.21015859 0.082820825
000390 6c 72 8f 3d 47 dd 47 bd a9 0e f9 3c 9c 92 aa 3c
       0.07004246 -0.04879501 0.030402498 0.020821862
0003a0 ac fb 38 bd 6f b1 e0 bd 3e ad b3 bd 6a 9f 34 bd
       -0.045161888 -0.10971343 -0.08773278 -0.04409734
0003b0 67 d7 51 bd 92 53 35 bc ba 97 67 bd be 4e e9 bc
       -0.051230814 -0.011067288 -0.056541182 -0.02847993
0003c0 0c 3e 6e 3d 75 50 76 bd 14 e9 b0 3d 2b e6 24 3d
       0.05816464 -0.060135324 0.08638206 0.040258568
0003d0 17 bb 16 3c fb 48 c9 bd 16 c7 1c bf 14 fa 7e bc
       0.009199879 -0.09828373 -0.6124128 -0.015562553
0003e0 ea d3 91 3c bc 62 8c bc b5 6a d4 3c 5c aa 11 bc
       0.017801244 -0.017136924 0.025929788 -0.0088907145
0003f0 80 aa 2e 3e 0c 45 86 3d 46 0a 4f 3c 3b 89 de 3b
       0.17057228 0.065561384 0.012636727 0.0067912615

network.6.bias f4 [256]
000000 5a 6d 85 3f 21 a4 4e 3f 7c 71 33 bf f7 6f 8c 3e
       1.0423996 0.8071919 -0.7009504 0.27429172
000010 b7 19 5b 3f 7c 04 a2 3f ea 98 66 3f 9c 29 f5 bd
       0.8558611 1.2657619 0.9007708 -0.11970827
000020 83 28 51 3f 21 9f 6b 3f 60 06 8d 3f 05 ab b9 3f
       0.8170244 0.92039686 1.101757 1.4505316
000030 02 e3 40 3f c6 6c 84 3f 16 3a a3 3e d9 37 b2 3f
       0.75346386 1.0345695 0.31880254 1.3923293
000040 9f a1 86 3f b0 3f b5 3f 4b 9d 9f 3f fc 2b 81 3f
       1.0518073 1.4160061 1.2469877 1.0091548
000050 ee 59 54 3f 08 a5 29 3f a0 80 75 3f 72 79 4c 3f
       0.8294972 0.6626744 0.9589939 0.7987281
000060 18 8f 8a 3f 63 70 00 3e 3b 3b 70 3f 32 97 ad 3f
       1.0824919 0.12542872 0.9384038 1.3561766
000070 94 cd 5e 3f af 3e 6e 3f 8e 25 a3 3f ef 58 4c 3f
       0.8703244 0.930644 1.2745836 0.798232
000080 36 b4 4f 3f 1b 5b 5e 3f 33 f8 78 3f 6c 7f 4b 3f
       0.81134355 0.86857766 0.9725372 0.79491305
000090 60 ac b1 3f ff 11 1c 3f 96 96 a5 3f 63 83 47 3f
       1.388073 0.6096496 1.293658 0.77934855
0000a0 03 45 4a 3f f4 68 4e 3f 69 38 5a 3e c7 8e 6d 3f
       0.79011554 0.80628896 0.21310581 0.92795986
0000b0 47 07 71 3f 99 c9 90 3f 6b 2d 7d 3f 52 4e 69 3f
       0.9415173 1.1311523 0.9889743 0.9113513
0000c0 a2 37 84 3f 18 af 7b 3f e2 ee 70 3f 3f a9 39 bd
       1.0329478 0.98314047 0.94114506 -0.04532742
0000d0 9b f3 8a 3f 3c 62 81 3f 71 74 c0 3f ab cd 03 3f
       1.0855592 1.0108104 1.5035535 0.514857
0000e0 b6 82 a6 3f 25 5d 71 3c 3a a8 5d 3f 31 88 8f 3f
       1.300864 0.01473168 0.8658482 1.1213437
0000f0 ba 05 6f 3f a9 6e ea 3e d0 e2 7a 3f 6b 76 c6 3f
       0.93368113 0.45787552 0.9800234 1.5504888
000100 e8 80 78 3f c2 9a 53 3f e8 a4 77 3f 2c 97 95 3f
       0.97071695 0.82658017 0.96736 1.1686759
000110 20 e9 5c 3f f3 04 7d 3e 93 ae 65 3e c2 4b 94 3f
       0.8629322 0.24708919 0.22429876 1.158562
000120 b1 ac 70 3f 97 1d ad 3f 48 07 8c 3f 6f bf bc bc
       0.94013506 1.3524655 1.0939722 -0.023040501
000130 fe 14 5e 3f 98 8c 66 3f d8 c2 83 3f f2 26 c0 3e
       0.8675078 0.9005828 1.0293837 0.37529713
000140 6f fe 75 3f 0a fe 54 3f 31 ad 80 3f df 4e 92 3e
       0.9609136 0.8320013 1.0052854 0.285758
000150 d0 0e 9d 3e f1 2c c7 3f f4 1b e0 bd 25 f1 3f bd
       0.30675364 1.556059 -0.10942832 -0.046860833
000160 8b 5b ce bd 9b aa 9e 3f f2 de e7 3e e2 0e 82 3f
       -0.10076054 1.2395815 0.4528728 1.0160792
000170 2a f0 70 3f 97 84 7e 3d 6d 6c a4 3f 26 53 7d 3f
       0.9411646 0.062138166 1.2845589 0.98955
000180 77 2f 7f 3f 2b 20 a0 3f 17 b0 7a 3f 96 00 98 3f
       0.996818 1.2509817 0.9792494 1.1875179
000190 d3 0e cd bd 4c 4d 67 3f fd 61 4b bd b4 18 84 be
       -0.10012593 0.9035232 -0.049653996 -0.25800097
0001a0 d5 f5 56 3f 8e 83 85 3f 52 99 a4 3f 02 2d 7c 3f
       0.8396886 1.0430772 1.285929 0.98506176
0001b0 85 5e d7 3f dc ee ab 3f 55 2f 89 3f 27 54 4f bf
       1.682572 1.3432269 1.071757 -0.8098778
0001c0 3e ee 82 3f 01 7f 70 3f c0 05 56 3e 99 f8 8c 3f
       1.0228956 0.9394379 0.20900631 1.1013366
0001d0 ce 8d 52 3f b4 93 8c 3f 9a 2d 3b 3f 81 2b a7 3f
       0.82247627 1.0982575 0.7311646 1.3060151
0001e0 6c f3 95 3f 1e 60 68 3f ca 8a 90 3f 29 36 45 3f
       1.1714911 0.90771663 1.1292355 0.77035767
0001f0 cb 23 38 3f 58 76 4f 3f 0b 3a c5 3f dd 86 53 3f
       0.71929616 0.81039953 1.5408338 0.8262766
000200 42 79 6f 3f 8a 57 50 3f 8b ed a1 3f 91 30 21 bd
       0.935444 0.81383574 1.2650617 -0.039352957
000210 d1 d2 83 3f 7f e0 79 3f ee bd a2 3f 2d 30 36 3f
       1.0298711 0.9760818 1.2714212 0.7116726
000220 9b c2 0b 3f 57 f9 a5 3f 21 fc 62 3f f1 7e 3b 3f
       0.5459382 1.2966717 0.8866597 0.7324057
000230 b0 06 b8 3f d6 10 eb bd b6 d9 6b 3e a3 c5 39 3f
       1.4377041 -0.114778206 0.23032269 0.72567195
000240 2b 25 15 3f 9a ca 6c 3f 86 6f ae 3f c9 66 83 3f
       0.5825984 0.92496645 1.3627784 1.0265743
000250 c4 6e a0 3f 54 b2 8d 3e d6 04 8c bd 47 a1 9d 3f
       1.2533803 0.27675116 -0.0683686 1.2314843
000260 a4 69 f6 3d 09 af 8b 3f 1a 80 81 3f d2 a3 81 3f
       0.12031868 1.0912791 1.0117218 1.0128119
000270 72 1e 00 be 87 38 f0 3e e4 be 72 3f 30 67 b9 3f
       -0.12511614 0.46918127 0.94822526 1.4484615
000280 24 34 7a 3e a9 51 a6 3f ff 3a 5f 3f f9 fc a0 bd
       0.24433953 1.2993671 0.87199396 -0.07860751
000290 7b 5a 54 3f 86 5a 61 3f e7 8c ab 3f fc c5 ac 3f
       0.8295056 0.8802875 1.3402375 1.349792
0002a0 27 3e 95 3f 4d 6c c1 3f 65 79 a9 3f 22 88 58 3f
       1.1659592 1.5111176 1.3240172 0.8458272
0002b0 8b ca af 3f 3d ca 97 3f c3 fd c4 3e f4 31 7e 3f
       1.3733686 1.1858593 0.38474855 0.9929497
0002c0 e6 c7 30 3f 9f 41 80 3f bc 62 76 3f ca 46 77 3f
       0.6905502 1.0020026 0.96244407 0.9659239
0002d0 e0 2b 96 3f e8 4f a1 3f 53 ef 5f bd b9 d9 5a 3f
       1.173214 1.260251 -0.054671597 0.8548847
0002e0 54 55 aa 3f 04 b0 73 3f 5d 80 45 3f 69 e7 cf bd
       1.330729 0.95190454 0.7714899 -0.1015156
0002f0 c8 60 7e 3e 5f 5c 5f 3f 98 76 34 3f 26 13 9e 3f
       0.24841607 0.8725032 0.7049346 1.2349594
000300 39 18 9a 3f 8e 1b b3 3f 25 f8 9d 3f c4 32 7b 3f
       1.2038642 1.3992784 1.2341353 0.9812434
000310 5d 79 7e 3f ea f7 c0 3e c8 94 bf 3f c4 2a 98 3e
       0.99403936 0.37689143 1.496728 0.29720128
000320 12 8c 69 3f 5e 5e 9c 3f 90 2c f8 bd c6 c5 8c 3f
       0.91229355 1.2216299 -0.121178746 1.0997856
000330 77 63 81 3f 42 15 4f 3f 53 16 57 3f f3 1c a8 3f
       1.0108479 0.8089181 0.8401844 1.3133835
000340 50 a9 ad 3f 35 55 ad 3f 7b e0 7a 3f da 7f 27 3e
       1.3567295 1.3541628 0.9799878 0.16357365
000350 1b 11 49 3f 5f 9d 5c 3f 88 9b 83 3f c7 16 81 bd
       0.78541726 0.8617763 1.0281839 -0.063031726
000360 b6 71 80 3f d3 60 b6 3f d3 48 af 3f 62 17 7d 3f
       1.0034702 1.4248298 1.3694099 0.98863804
000370 ed 0f b1 3f 17 ff d1 3e bd 23 a5 3f 1b 43 88 3f
       1.3832985 0.4101493 1.2901531 1.0645479
000380 51 d0 16 3f 3a 11 af bd 59 7d 86 3f 40 f1 d0 3f
       0.58911616 -0.085482076 1.0507003 1.6323624
000390 18 c0 aa 3f 06 34 aa 3f d7 0f a8 3f 68 8f 1a 3e
       1.3339872 1.3297126 1.3129834 0.15093768
0003a0 17 a6 86 3f 29 34 87 3f f9 ce 8d 3e e2 1e a6 3f
       1.0519437 1.0562793 0.2769697 1.2978175
0003b0 be 88 8a 3f 44 13 72 3f bc b6 81 3f 76 bf b8 3e
       1.082298 0.94560647 1.0133891 0.36083573
0003c0 53 e8 55 3f ed 69 42 3f 07 b7 5d 3f ee a8 76 3f
       0.83557624 0.7594288 0.866074 0.96351516
0003d0 0a f3 81 3f 95 37 63 3f d8 c1 6e 3f 61 63 44 3f
       1.0152295 0.88756686 0.9326453 0.7671414
0003e0 3f 03 86 3f 26 42 6d 3f d8 91 62 3f d7 88 68 3f
       1.0469741 0.9267906 0.8850379 0.908338
0003f0 89 ea f9 3e 96 e4 84 3f a2 f4 86 3f 15 f9 78 3f
       0.4881175 1.0382259 1.0543406 0.9725507

network.8.weight f4 [3, 256]
000000 e6 7b 01 be 92 0d ea bc 53 f6 06 3e 5a 89 8d be
       -0.1264492 -0.028570924 0.13179903 -0.27643853
000010 af 46 ab bc 6e 4c 3f 3f 42 91 77 bd e9 72 8a 3d
       -0.020907728 0.74726 -0.060441263 0.067601986
000020 87 2b a8 3c 5d 42 37 be 08 d9 1d be 0d 92 0e 3f
       0.020528568 -0.1789641 -0.15414822 0.55691606
000030 b6 4a 94 3f e6 2f 10 be e8 86 74 3e 37 cd 17 3f
       1.15853 -0.14080772 0.23879588 0.5929751
000040 61 8a 31 be 82 13 11 3f 8a 91 4a 3f 15 b3 9e 3e
       -0.17337944 0.5667039 0.79128325 0.30996004
000050 5c ef 47 be 8c cb 90 3f 4c b9 6b 3f a2 e5 28 bf
       -0.19524902 1.1312118 0.92079616 -0.6597539
000060 2a ec 2d be ce fe 4e 3e 88 5d 51 be e4 08 1d 3f
       -0.1698462 0.20214388 -0.20445836 0.6134169
000070 e7 59 91 bc 94 9f bd bf ad b9 33 3f 4a 40 15 3b
       -0.017743064 -1.4814324 0.70205194 0.0022773915
000080 7d bd 74 bd 8f 6e c7 3f e4 31 1a be c7 c8 6a be
       -0.059751023 1.5580615 -0.15058094 -0.22928153
000090 bd c4 c9 3e ca ee 66 bf 8c d8 ad 3e 2d 21 09 3c
       0.39407912 -0.90208113 0.33954275 0.008369726
0000a0 0d 00 96 bc 50 11 94 bc 5f 31 b0 3e 49 0e 0b 3f
       -0.018310571 -0.018074661 0.34412667 0.5431867
0000b0 8f d9 c9 bd 1b fc d8 3e de dd c1 bd ed da 07 be
       -0.09855949 0.4237984 -0.09466146 -0.13267107
0000c0 d7 c9 0c be bf 63 08 be 8a 45 31 be 5d 66 1b bd
       -0.13748871 -0.133193 -0.17311683 -0.037939418
0000d0 ae 37 52 3e e8 45 0d be d6 8e e4 3e 82 4d 46 bf
       0.20529053 -0.13796198 0.44640225 -0.7746202
0000e0 32 5c f4 3e c4 c2 b6 be b4 4d 5a 3c 7c 03 24 be
       0.4772659 -0.3569547 0.01332419 -0.16016954
0000f0 c7 6b 17 bd 1c 54 df 3e 28 76 d9 bd 8c 88 0d 3f
       -0.03696802 0.43618858 -0.1061824 0.5528648
000100 e2 01 99 bf 29 99 19 bd 34 7f c4 bd 42 b6 10 3f
       -1.19537 -0.03749958 -0.095945746 0.56528103
000110 75 2e 9b bd 66 e1 16 3f 72 09 15 3f f0 c4 39 3f
       -0.0757722 0.5893768 0.5821754 0.7256613
000120 f2 13 60 bf a1 05 74 3f 46 9d 15 be be 98 82 be
       -0.87530434 0.9532109 -0.14610776 -0.25507158
000130 68 7e 56 be 6f 19 8f bd 77 c8 de bd d9 6f fe 3d
       -0.20946658 -0.06987273 -0.108780794 0.12423677
000140 25 35 4d be 20 52 e1 38 4e 41 2f be 0e 5c 5f 3e
       -0.20039804 0.00010744133 -0.17114756 0.2181246
000150 ac 27 4d bf 4e 12 06 3f 49 ce 5c 3b c0 76 c3 3c
       -0.8013866 0.5237168 0.0033692291 0.023860335
000160 1d 38 34 bd c4 d0 4c 3f bb ef 2c 3f 20 a4 eb bd
       -0.043998826 0.8000605 0.675533 -0.11505914
000170 4f 77 39 bd ad de b1 3e 5f 29 c6 3e d9 51 3f be
       -0.045279797 0.347402 0.3870344 -0.18683566
000180 75 98 01 be 29 b7 29 3f 5f 1a a0 bd fe 0e 34 3e
       -0.12655814 0.66295105 -0.0781753 0.17583844
000190 62 da 8f ba af 6d 95 3f 96 5d 04 bd cb c8 21 bf
       -0.0010975117 1.1674098 -0.032315813 -0.6319701
0001a0 5e 7a 77 bc 90 b6 0b be 59 46 00 3f 05 ce 18 be
       -0.015104858 -0.13643861 0.5010734 -0.1492234
0001b0 12 9b 26 3f 5a 8a 03 3f b3 58 1e be 54 3b 40 bf
       0.6508037 0.5138298 -0.15463524 -0.7509053
0001c0 bf 0e d1 bd 1c d6 61 be 3d e6 74 3e a4 89 ec 3e
       -0.10207891 -0.22054332 0.23915954 0.4619876
0001d0 db 85 43 be 89 9f bf 3d 48 a3 6e 3f 3f 0a 4b 3f
       -0.1909403 0.09356601 0.932179 0.7931251
0001e0 33 d6 86 3f 37 a4 0d bd 8f 00 2f 3e c0 9c 44 3d
       1.0534118 -0.034580436 0.17090057 0.04800105
0001f0 33 7d ae 3d 05 14 6e be 92 67 dd 3e 36 49 69 bc
       0.085199736 -0.23249824 0.4324308 -0.014238646
000200 3b 5a 1f be 65 1b ba bb 35 88 6c 3e 00 0c a2 bc
       -0.15561764 -0.005679535 0.23098834 -0.019781113
000210 27 1a 08 be fd aa 18 3e aa 04 53 3f f4 66 6f 3e
       -0.13291226 0.14908977 0.8242899 0.23379117
000220 a8 53 4f 3f c9 c0 1d 3f 83 77 a4 bd 77 72 a2 3c
       0.80987024 0.6162229 -0.080306076 0.019829972
000230 39 93 e1 3e b7 58 4b bc 55 62 2e 3e ba a7 6c 3f
       0.44057634 -0.012411288 0.17029698 0.9244343
000240 1f 30 86 3f 29 1b bf bd 85 98 90 3f 5f 0f 1d be
       1.0483435 -0.09331352 1.1296545 -0.15337895
000250 5d 46 fa 3e 25 ea ad 3b b5 de 46 3f 2c eb 14 3f
       0.48881808 0.005307453 0.77683574 0.58171344
000260 d2 fa 7a 3e dc e9 0a be ca 4a d5 bd bd 2a 27 be
       0.24509743 -0.13565773 -0.104146555 -0.16324897
000270 16 34 ea 3c 0c fa 24 3f d9 de 1f be a3 ee 1d 3f
       0.02858929 0.6444404 -0.15612353 0.61692256
000280 37 27 53 3e 3f 6d 10 3f d3 84 38 bd b4 cb 83 3c
       0.20620428 0.56416696 -0.045048546 0.016088344
000290 3d 40 8c bd cb 5f ee bd e7 fb a6 3f fd 59 9d 3f
       -0.0684819 -0.11639365 1.3045624 1.2293087
0002a0 c3 5f 30 3f ee c3 22 3f be 2d 27 3f 7b 7c 48 3f
       0.6889612 0.63580215 0.6530417 0.7831494
0002b0 cd bf 9a 3e 49 0b b2 3e e8 0a 68 3f 66 f0 19 be
       0.30224457 0.34774235 0.9064164 -0.15033111
0002c0 ec d9 11 be 95 1b 1b 3f 1b 86 dc bd fd 70 0f be
       -0.14243287 0.6058896 -0.10767766 -0.14007945
0002d0 10 8a 34 3f d6 24 3f 3f 16 2a 3a 3c 08 d8 d6 3c
       0.70523167 0.7466558 0.011362573 0.026226059
0002e0 7b 93 45 3f 2b f5 36 be 24 63 93 bd a9 89 c8 bb
       0.7717816 -0.17866962 -0.07196644 -0.006119926
0002f0 d6 cb 6e 3e 5f 6b f0 3e 05 22 45 3f 6c 62 63 3f
       0.23319945 0.46956918 0.77005035 0.88822055
000300 c5 df 4f 3e c8 b7 02 3f 9a bb 09 3f 54 1e 31 be
       0.20300205 0.5106168 0.5380188 -0.17296726
000310 63 96 31 be 0b 22 80 3f 0e 6c de 3e f7 a6 4b 3e
       -0.17342524 1.0010389 0.43441814 0.19887911
000320 0b 18 a1 3f 3b b8 07 3f be c4 fd 3b 45 12 96 3e
       1.2585462 0.5301549 0.0077444008 0.29310814
000330 c3 0e 11 be d5 8c ca bc 55 11 5f be 16 68 1b 3f
       -0.14165787 -0.024725357 -0.21783955 0.607057
000340 ef 98 9d 3f 19 50 55 3f e5 e4 8e 3f 8e ea f8 be
       1.2312297 0.83325344 1.1163603 -0.4861645
000350 7f 66 bc bc b5 a6 88 bc a7 1c 1d be 55 fe 30 bd
       -0.022998093 -0.016681055 -0.15342961 -0.0432113
000360 a5 2f 0a be 59 9d cf 3e 43 13 12 3f 9d b3 42 be
       -0.13494737 0.40549734 0.5706064 -0.1901383
000370 df 6a 4f 3f 81 81 bf 3e f8 5f 0e 3f bc 8e 9b 3e
       0.8102245 0.3740349 0.55615187 0.30382335
000380 5c 92 42 3f b7 6b 3c bd ac 09 f6 bd 96 33 2a 3f
       0.76004577 -0.046001162 -0.120135635 0.66484964
000390 95 ee fa 3e a3 18 2a 3f 6d e7 df 3e 0c 40 ed 3e
       0.4901015 0.6644384 0.4373125 0.46337926
0003a0 dc 84 54 3e a0 c0 ed bd f5 1c 21 bf 68 47 12 3f
       0.20753807 -0.11609006 -0.6293481 0.5714021
0003b0 bd 34 23 be 00 95 09 3f 6b 0a e2 bd ab b7 a5 bc
       -0.15938087 0.5374298 -0.11037143 -0.020229181
0003c0 9c ed df 3e 3a 4b 23 bd ba 25 ad 3f 14 37 91 bd
       0.4373597 -0.039866664 1.3527138 -0.070905834
0003d0 2c f5 17 3f 0a 37 a6 bd 8d 51 2b be d8 41 5b bd
       0.5935848 -0.081159666 -0.16730328 -0.05352959
0003e0 d4 31 8a 3e ac 2c 40 be 53 29 c1 3d f3 59 40 bd
       0.2699114 -0.18767041 0.0943171 -0.046960782
0003f0 33 1c 85 be 4a e2 10 be 31 05 f7 bd f9 0a 38 be
       -0.25998077 -0.14148822 -0.12061537 -0.17972936

network.8.bias f4 [3]
000000 55 9e 14 bf 60 6e f4 be 01 18 1e be
       -0.58054096 -0.4774046 -0.15438844
