mountaincar_cl_project/mountaincar_cl/runs/abrupt/egp/seed_1/online_stream_model.pth (torch, 535757 bytes, 8 tensors)

network.0.weight f4 [256, 2]
-0.116501205 -2.9699032 0.57911164 1.6880798 -0.206677 -2.6539783 0.028287962 -1.1657708
0.84523076 0.4175364 -0.30393904 -0.56371653 -0.32171744 0.61787164 0.02344645 -3.5933964
0.17368646 2.5286322 0.3560924 0.5385445 -0.023352325 -0.55719304 0.2899301 0.6791101
-0.6685891 0.3334581 -0.23751086 -3.747871 -0.6134916 0.3771019 -0.28889814 -0.8869639
0.84366274 -0.18844451 -0.3175347 -2.110455 0.039845034 -1.7515812 0.027028989 -1.5758996
-0.15940462 -4.442166 0.028530372 -1.4773546 0.5491002 0.6469489 -0.39023277 -0.68657297
-0.5064839 -1.82623 0.81442666 -0.7852568 0.05741164 -1.6705567 0.63337123 0.6615776
-0.26993075 -0.47527868 0.19545843 -2.5426788 -0.28772727 -0.6338547 -0.040481865 -0.6720191
0.048406217 -2.1324568 -0.046447694 -0.055273294 0.26231855 -1.1697427 0.91203636 0.58650345
-0.007948637 -0.6542213 -0.48489827 -1.2015113 -0.21490362 -2.6387732 0.5176334 -0.5372753
-0.092438996 0.19685256 -0.26525083 -3.5438375 0.18563381 -2.5745168 -0.7017453 0.1263096
0.52055335 -1.6566231 0.7643501 0.42239803 0.06598768 -2.4106395 -0.45334366 -1.3058331
0.11588435 -0.82028764 -0.24194607 -1.5437356 0.5111933 1.1901953 0.16752386 -0.67385393
0.9497313 -0.7145423 0.6370605 0.68933296 0.083341755 -3.3546038 0.25407082 -0.07146883
0.6877397 1.4582455 -0.25397435 -0.28669673 0.17055732 -0.6845496 0.48582563 0.7708281
-0.26766017 0.9053085 0.40672103 1.7166977 0.035726618 -1.6365441 0.31720012 -0.6761487
0.8944267 -0.7059387 -0.43083188 -2.0845108 -0.1030944 0.041345537 -0.6421103 -0.19506669
0.031349044 -1.9764385 -0.2275928 0.053405106 0.4557545 -0.79320216 0.014447531 0.384451
0.13587669 -1.7769313 0.45392796 0.8979342 0.6413111 0.9296752 0.0132757425 0.5256428
-0.16215283 0.48673588 0.58674914 0.15893221 0.3825453 0.28315422 -0.049197197 0.36060113
0.40565512 -0.016097106 0.21566468 -0.01976788 0.5483312 0.51973695 0.0017684698 0.5294227
-0.18728249 0.45095465 -0.42082804 -1.2439208 0.18601848 -1.8073913 0.040364187 -1.0277709
0.4980432 -0.71870875 0.6566343 1.0955551 0.414191 -0.76301616 -0.08959448 0.6878354
0.34247014 -1.5812658 0.6619864 0.4282369 0.8150089 0.72061867 -0.24768199 -1.5341674
0.55244666 1.6063235 0.46401104 -0.8761001 -0.23261175 -0.4004383 0.021711519 -1.1896966
0.062316466 -1.9185416 0.33176464 -0.40659276 0.2202037 -0.38645828 0.7587274 -0.5859019
-0.16861778 -3.020971 0.7704874 1.1061885 0.052595794 -0.4127499 0.26962578 2.072676
0.40372103 0.28843093 0.28547907 0.6573339 -0.48981583 -1.6987396 0.7038917 -0.017385913
0.42434984 -0.5666966 0.5337159 -0.5312766 0.21605714 0.49680528 0.06989807 -1.080512
0.21818274 -0.6043027 0.068960644 -1.5017368 -0.43360403 -1.2925482 0.03542908 -1.5941051
0.078852706 -3.284382 -0.4045966 -1.2449441 0.702117 -0.024052229 -0.6113369 -0.74765414
0.041202944 -2.5839963 0.72800577 0.22321215 0.04965739 -2.0902383 0.42858797 1.0097395
00000000: 2f98 eebd e512 3ec0 a940 143f 0013 d83f
00000010: 23a3 53be c8da 29c0 28bc e73c fa37 95bf
00000020: 0b61 583f 55c7 d53e e69d 9bbe ba4f 10bf
00000030: 26b8 a4be d62c 1e3f c512 c03c 35fa 65c0
00000040: ddda 313e 1cd5 2140 be51 b63e 0dde 093f
00000050: 604d bfbc 34a4 0ebf b871 943e 29da 2d3f
00000060: a828 2bbf 05bb aa3e 0c36 73be 1edd 6fc0
00000070: c90d 1dbf 8013 c13e 75ea 93be 1110 63bf
00000080: 48fa 573f 99f7 40be e893 a2be b211 07c0
00000090: 8c34 233d d033 e0bf e66b dd3c 14b7 c9bf
000000a0: f73a 23be 3926 8ec0 87b8 e93c f519 bdbf
000000b0: d591 0c3f 719e 253f 97cc c7be 3fc3 2fbf
000000c0: eea8 01bf e8c1 e9bf 447e 503f 9706 49bf
000000d0: 7828 6b3d cdd4 d5bf 9e24 223f 265d 293f
000000e0: 5d34 8abe ba57 f3be 4126 483e 40bb 22c0
000000f0: fd50 93be 4d44 22bf 50d0 25bd 7209 2cbf
00000100: 9945 463d 2c7a 08c0 f03f 3ebd 4066 62bd
00000110: 9e4e 863e 21ba 95bf 377b 693f 1725 163f
00000120: 003b 02bc 0c7b 27bf 9644 f8be 1fcb 99bf
00000130: b20f 5cbe a9e1 28c0 9f83 043f e08a 09bf
00000140: a850 bdbd b893 493e f5ce 87be 3cce 62c0
00000150: ca16 3e3e e2c4 24c0 94a5 33bf 4e57 013e
00000160: fc42 053f 3a0c d4bf 73ac 433f 8e44 d83e
00000170: 8c24 873d eb47 1ac0 a91c e8be 8a25 a7bf
00000180: c654 ed3d 5ffe 51bf b6c0 77be 2199 c5bf
00000190: 90dd 023f 5258 983f 608b 2b3e b181 2cbf
000001a0: 9721 733f 3fec 36bf 6616 233f 2078 303f
000001b0: 15af aa3d d4b1 56c0 9215 823e 405e 92bd
000001c0: b50f 303f caa7 ba3f ed08 82be eac9 92be
000001d0: 94a6 2e3e a53e 2fbf 23be f83e fe54 453f
000001e0: c10a 89be 4cc2 673f bd3d d03e c0bc db3f
000001f0: 1356 123d 477a d1bf 0e68 a23e 1518 2dbf
00000200: 26f9 643f 66b8 34bf ff95 dcbe a068 05c0
00000210: 2823 d3bd f059 293d 5761 24bf 90bf 47be
00000220: db67 003d f0fb fcbf 160e 69be 50bf 5a3d
00000230: a758 e93e 4c0f 4bbf 56b5 6c3c c3d6 c43e
00000240: 4223 0b3e 7c72 e3bf 3f69 e83e 04df 653f
00000250: f72c 243f 32ff 6d3f 8082 593c 8790 063f
00000260: 640b 26be 7235 f93e 3135 163f 20bf 223e
00000270: fadc c33e 97f9 903e 0083 49bd b6a0 b83e
00000280: 07b2 cf3e 14de 83bc 34d7 5c3e 40f0 a1bc
00000290: 6f5f 0c3f 7b0d 053f 00cc e73a 3f88 073f
000002a0: fbc6 3fbe 87e3 e63e c676 d7be cc38 9fbf
000002b0: a17b 3e3e 9958 e7bf eb54 253d ff8d 83bf
000002c0: 85ff fe3e 4cfd 37bf 2f19 283f 263b 8c3f
000002d0: d810 d43e 0755 43bf 507d b7bd fb15 303f
000002e0: 3f58 af3e eb66 cabf f177 293f de41 db3e
000002f0: 6ca4 503f 777a 383f 59a0 7dbe 995f c4bf
00000300: 256d 0d3f 029c cd3f db92 ed3e 1948 60bf
00000310: c631 6ebe 4006 cdbe 5bdc b13c fa47 98bf
00000320: 8d3f 7f3d c592 f5bf 0edd a93e ed2c d0be
00000330: 147d 613e dcdd c5be f53b 423f abfd 15bf
00000340: 24aa 2cbe 9757 41c0 aa3e 453f 9697 8d3f
00000350: b06e 573d f453 d3be 640c 8a3e b9a6 0440
00000360: 86b4 ce3e 38ad 933e 502a 923e 0947 283f
00000370: 24c9 fabe 4d70 d9bf 3f32 343f e76c 8ebc
00000380: 6244 d93e 0713 11bf 9ba1 083f be01 08bf
00000390: 153e 5d3e 435d fe3e b826 8f3d 384e 8abf
000003a0: 4c6b 5f3e 95b3 1abf 3d3b 8d3d e938 c0bf
000003b0: 5901 debe 3872 a5bf 151e 113d a30b ccbf
000003c0: 877d a13d 5133 52c0 4927 cfbe 545a 9fbf
000003d0: f1bd 333f 2e09 c5bc 9380 1cbf 4366 3fbf
000003e0: 6bc4 283d 3260 25c0 965e 3a3f ba91 643e
000003f0: 8c65 4b3d 77c6 05c0 e26f db3e 253f 813f

network.0.bias f4 [256]
-0.13420877 -0.04111876 -0.122138806 0.08320947 0.35984695 -0.4682665 -0.41300958 -0.020749232
-0.05445715 -0.6357079 -0.30967295 -0.28575033 -0.4200365 -0.20810468 -0.37757722 -0.21852817
0.15072699 -0.16815546 0.096612 0.08406107 -0.19184196 0.09309239 -0.41925526 -0.60639256
-0.46280995 0.14469537 0.0782443 0.2998217 -0.11944416 0.08798885 -0.60477954 -0.35224473
0.10876983 -0.14461839 0.06498967 -0.13902336 -0.5121021 -0.33730882 -0.21223962 -0.44153544
-0.26699397 -0.2680096 0.08705703 -0.58224976 0.22662677 0.3543633 0.012487702 -0.3958532
0.10783876 -0.13243866 0.25669742 -0.20455676 0.25410107 0.26487717 0.015047108 -0.35858724
-0.08211504 -0.1758707 -0.41881627 0.12173371 -0.16201998 -0.0354776 0.10214058 -0.687505
0.1779013 -0.36711833 -0.66803294 -0.41333336 0.12883064 -0.4523967 0.012636778 -0.036284182
0.15369141 0.08952036 0.31338087 -0.4706837 -0.36630744 -0.4523365 0.03841744 -0.0904147
-0.024121774 -0.3764204 -0.6573884 -0.38323808 -0.23108493 -0.34978458 0.19554539 0.079125784
0.11598807 0.03875135 0.05862544 -0.5942802 0.06470644 -0.15461408 -0.0896809 -0.21915604
0.023985662 0.029110314 -0.6296202 0.077138245 0.10065768 -0.028150821 -0.4149133 0.12548429
-0.17098351 0.36042365 -0.1468215 -0.03712111 0.19626765 -0.69973606 -0.4307479 0.048960622
-0.51154196 -0.61944366 0.2855398 0.09539158 -0.11404455 0.09957621 -0.5920192 0.10826985
0.02144854 -0.3579818 0.31839484 -0.47797933 0.011320509 0.29790878 0.021435285 0.21778658
0.10241998 -0.30573294 0.3603791 0.2523403 0.08009419 -0.40503147 -0.0028445225 -0.4630009
-0.26448843 -0.3651275 0.08175269 0.11411402 -0.62461853 -0.47834295 -0.123322465 0.19333656
-0.48702806 -0.0044781496 -0.62023705 0.13543288 0.0053018867 -0.44550246 0.07718006 0.38639298
0.009113466 -0.6511666 -0.6973893 -0.40725657 0.12727115 0.06503933 -0.3233422 0.087602966
0.19442397 0.20502658 -0.051136415 -0.34344724 0.1396323 -0.41334265 0.09808705 0.14932077
-0.05552298 -0.5595382 -0.05851853 0.030439666 0.05193678 0.07913556 0.09759671 -0.077476196
0.07679461 0.122783944 -0.10397171 -0.11306413 -0.3895635 -0.33539197 0.0527508 -0.03730882
0.12726179 -0.6717487 -0.13742957 -0.4428139 0.18718055 0.059763707 -0.7033857 -0.38613695
-0.6787599 0.29991785 0.117494196 -0.74572915 -0.5940958 0.0994685 -0.51815164 0.05525146
0.069497675 -0.4491615 0.21789508 -0.61612934 -0.060007975 -0.10562432 0.32405058 0.025831416
0.14992066 0.12525252 -0.21938802 0.20313695 0.07644596 0.19859195 0.16057092 0.31045857
0.15072544 0.07784624 0.08712485 -0.39723462 -0.38338163 -0.011217933 0.038614355 -0.4918613
0.20002685 -0.5622881 0.062363297 -0.06774244 -0.6913585 -0.2266884 -0.007645753 0.03547987
0.14812711 -0.5612731 0.3736547 -0.1929427 -0.7067567 -0.6519188 0.19787356 0.08859908
-0.21511668 0.07611493 0.23750174 -0.20401706 0.0070437556 0.07852575 -0.50263983 -0.051317576
-0.48721862 -0.4104767 -0.44573614 -0.14599003 -0.4471391 -0.13594258 0.29373193 -0.60899615
00000000: 066e 09be 256c 28bd e923 fabd ba69 aa3d
00000010: dc3d b83e a0c0 efbe fe75 d3be 4bfa a9bc
00000020: 760e 5fbd c1bd 22bf 748d 9ebe de4d 92be
00000030: 060f d7be 6519 55be cd51 c1be d9c5 5fbe
00000040: 2d58 1a3e f230 2cbe 83dc c53d 3628 ac3d
00000050: 3872 44be 39a7 be3d a0a8 d6be 8b3c 1bbf
00000060: 6df5 ecbe 062b 143e 8c3e a03d 3b82 993e
00000070: 249f f4bd 8033 b43d d5d2 1abf 6c59 b4be
00000080: b7c2 de3d d816 14be 4e19 853d 245c 0ebe
00000090: 2019 03bf beb3 acbe 5855 59be ef10 e2be
000000a0: 6fb3 88be 8e38 89be f54a b23d 520e 15bf
000000b0: d910 683e 1b6f b53e 3899 4c3c 45ad cabe
000000c0: 91da dc3d 009e 07be d86d 833e 5477 51be
000000d0: 8919 823e fb9d 873e 2588 763c bf98 b7be
000000e0: ee2b a8bd 7317 34be 166f d6be 864f f93d
000000f0: 91e8 25be f650 11bd 152f d13d 5400 30bf
00000100: c22b 363e eff6 bbbe 3504 2bbf 6ea0 d3be
00000110: 2eec 033e 8aa0 e7be 7d0a 4f3c b99e 14bd
00000120: 4861 1d3e 7356 b73d 7573 a03e 74fd f0be
00000130: a68c bbbe a698 e7be 9b5b 1d3d 582b b9bd
00000140: 079b c5bc 2dba c0be 9b4a 28bf c837 c4be
00000150: 87a1 6cbe f716 b3be 0d3d 483e b30c a23d
00000160: 278b ed3d bcb9 1e3d 3b21 703d bf22 18bf
00000170: cf84 843d 2753 1ebe 9faa b7bd 716a 60be
00000180: 947d c43c c178 ee3c ca2e 21bf a8fa 9d3d
00000190: 9d25 ce3d 8d9c e6bc 846f d4be f47e 003e
000001a0: 4d16 2fbe 7389 b83e 6058 16be 4e0c 18bd
000001b0: 63fa 483e e721 33bf fd8a dcbe ef8a 483d
000001c0: 6af4 02bf dc93 1ebf 4632 923e a95c c33d
000001d0: 3090 e9bd 9dee cb3d 928e 17bf 95bc dd3d
000001e0: d9b4 af3c 6449 b7be a604 a33e b5b9 f4be
000001f0: a879 393c 8087 983e 0d99 af3c 7203 5f3e
00000200: 91c1 d13d 0789 9cbe 9c83 b83e bf32 813e
00000210: 6c08 a43d 4960 cfbe 2b6b 3abb 740e edbe
00000220: 076b 87be fef1 babe f46d a73d 9cb4 e93d
00000230: 00e7 1fbf 5ee9 f4be 7d90 fcbd 05fa 453e
00000240: be5b f9be 71bd 92bb dbc7 1ebf ebae 0a3e
00000250: 73bb ad3b e618 e4be 9410 9e3d 4dd5 c53e
00000260: a650 153c dbb2 26bf 1b88 32bf ef83 d0be
00000270: 5e53 023e 5733 853d 1c8d a5be 2f69 b33d
00000280: 1417 473e 7df2 513e 6b74 51bd 51d8 afbe
00000290: c5fb 0e3e a6a1 d3be dde1 c83d 8be7 183e
000002a0: 106c 63bd e53d 0fbf 20b1 6fbd 9b5c f93c
000002b0: a9bb 543d d311 a23d c9e0 c73d d7ab 9ebd
000002c0: 7e46 9d3d 2676 fb3d 1fef d4bd 2b8e e7bd
000002d0: de74 c7be 7fb8 abbe 3911 583d 22d1 18bd
000002e0: ea50 023e b9f7 2bbf 56ba 0cbe 81b8 e2be
000002f0: 42ac 3f3e caca 743d 1611 34bf beb3 c5be
00000300: 35c3 2dbf d58e 993e cca0 f03d 1be8 3ebf
00000310: aa16 18bf 24b6 cb3d 96a5 04bf 5b4f 623d
00000320: cc54 8e3d 7ff8 e5be e31f 5f3e a7ba 1dbf
00000330: ecca 75bd 9051 d8bd f5e9 a53e 689c d33c
00000340: cd84 193e 3242 003e 41a7 60be 2203 503e
00000350: b38f 9c3d b05b 4b3e b46c 243e 6df4 9e3e
00000360: c557 1a3e d96d 9f3d 836e b23d 5662 cbbe
00000370: 994a c4be 6ccb 37bc 162a 1e3d 3fd5 fbbe
00000380: d7d3 4c3e 1df2 0fbf a870 7f3d 8cbc 8abd
00000390: dffc 30bf 0121 68be 3a89 fabb 5753 113d
000003a0: a2ae 173e 98af 0fbf ab4f bf3e c592 45be
000003b0: 02ee 34bf 27e4 26bf 5e9f 4a3e 6f73 b53d
000003c0: 8c47 5cbe 25e2 9b3d a833 733e d9e9 50be
000003d0: 4ecf e63b 1cd2 a03d 01ad 00bf 6132 52bd
000003e0: b874 f9be 012a d2be 8737 e4be 697e 15be
000003f0: 6bef e4be 8834 0bbe 0864 963e 2ce7 1bbf

network.3.weight f4 [256, 256]
-0.066645265 0.0064774677 -0.0075195823 -0.0457314 -0.038928695 -0.0017110705 0.04111714 0.032653686
-0.020963982 -0.043369778 0.03353925 -0.020422846 -0.012861915 -0.015002995 -0.005857572 0.040152147
0.029593628 -0.057954952 -0.035684284 0.0019238158 0.039301686 0.004879467 0.059991874 -0.054297984
-0.056103013 0.0144477505 -0.053047836 0.013894762 -0.05702938 0.0020926348 -0.007454276 -0.015870474
0.008449973 0.004239686 -0.038451247 -0.033091642 -0.0060901567 0.00850791 0.033239894 -0.023398943
-0.0042531863 -0.020333298 0.03967368 0.016017735 0.025511418 -0.05198656 -0.0020956113 0.049487077
-0.04888423 0.01398896 -0.0044326233 0.0064439103 -0.029411307 -0.037445154 0.006657578 -0.03250248
-0.037205867 -0.055171385 0.0058637634 -0.04071313 -0.0336658 0.02609475 -0.040394828 0.0053817257
-0.0031351517 -0.023386553 0.015554696 0.058478884 -0.023270875 0.060537428 0.0094783 -0.04235539
-0.003496287 0.0032343417 -0.044014517 -0.02053094 0.03989286 -0.0008445084 -0.008262182 -0.059916206
-0.05385127 -0.05794081 -0.011390112 0.0091548115 -0.0066343397 -0.031501252 -0.027769318 -0.057458162
0.0003607422 0.0032108575 0.06045629 -0.05362381 -0.032104205 -0.043636493 0.041027144 0.05465523
0.02331774 -0.0043358584 0.04709529 0.0043084705 -0.0024445727 0.007230878 -0.0074661076 -0.04044221
-0.024173694 -0.021524264 -0.06144382 -0.010262981 -0.07457467 -0.012817182 -0.044846974 -0.023413293
-0.021066792 0.03016948 -0.062337182 0.032209337 0.021729216 0.008194102 -0.057423905 -0.07385436
-0.0479967 0.035735033 0.008345994 0.008828923 0.023306144 0.0013353735 0.013065911 -0.009408411
-0.016331129 0.014709137 0.0007977775 -0.028299231 -0.054750584 -0.033507504 -0.013836406 -0.045299895
-0.07669831 -0.0041883066 0.0030642762 0.008566398 0.007202454 -0.030511796 0.015662536 -0.046710532
-0.028117254 -0.026540387 0.024871163 -0.01861213 -0.06904785 -0.0045106485 -0.009424882 -0.006471132
-0.059179265 0.005837269 0.011530831 0.05842851 -0.05391102 -0.01727651 -0.041095007 -0.045115653
-0.009088326 -0.001226702 -0.05267429 0.058024682 0.016099488 0.031021163 0.01339939 0.0019765678
-0.013623353 -0.037465952 -0.028960561 -0.019530158 0.034012545 -0.02064575 -0.049813118 -0.026359372
-0.039999474 0.011406129 -0.022095136 -0.0064380392 -0.04892768 0.021405332 0.044708483 -0.05074222
0.036448278 0.057653554 0.009260729 0.0052441806 0.0372618 -0.046002094 0.0538652 -0.045613177
0.046957143 -0.008862717 -0.03789586 0.015681848 -0.01479812 0.014196769 0.05255778 0.010645266
-0.0673839 0.009300359 0.012526324 -0.02769602 -0.03953872 0.041257888 -0.03368187 0.010726623
-0.058764618 -0.04587166 -0.0038925146 -0.032149944 -0.03645554 0.026256237 0.041672785 0.006563515
-0.047006052 -0.029499747 0.054808833 0.0068023875 0.013435625 -0.013133101 0.045037635 -0.055667683
-0.035379186 -0.050863534 0.023076229 -0.013194606 0.0153826475 0.03796966 -0.026760824 0.020521015
0.0102215 -0.0062388107 -0.017419335 0.03815207 0.046436958 -0.007629201 0.0024950812 0.012396552
-0.0095374435 -0.077506244 -0.054614775 0.010176241 0.022294238 0.048658334 -0.021404177 0.02472049
-0.062106088 0.026077852 -0.021339253 -0.026834698 0.04941284 -0.04278203 -0.011020547 0.053759307
00000000: 507d 88bd f040 d43b d466 f6bb d950 3bbd
00000010: b273 1fbd 0046 e0ba 726a 283d dfbf 053d
00000020: a8bc abbc 82a4 31bd 7460 093d d04d a7bc
00000030: c8ba 52bc 1fcf 75bc e0f0 bfbb 9476 243d
00000040: 566e f23c 2c62 6dbd af29 12bd 8c28 fc3a
00000050: cefa 203d f0e3 9f3b 0aba 753d 9067 5ebd
00000060: 46cc 65bd 42b6 6c3c b048 59bd dba6 633c
00000070: a497 69bd 9624 093b 0043 f4bb cc02 82bc
00000080: c171 0a3c 10ed 8a3b 0e7f 1dbd 1a8b 07bd
00000090: f08f c7bb c364 0b3c 8e26 083d 24af bfbc
000000a0: 505e 8bbb 0492 a6bc de80 223d a037 833c
000000b0: 52fd d03c dcef 54bd 8656 09bb f6b2 4a3d
000000c0: d53a 48bd f331 653c 8a3f 91bb 7027 d33b
000000d0: fbef f0bc 1760 19bd d027 da3b 5221 05bd
000000e0: 2e65 18bd 64fb 61bd d024 c03b d0c2 26bd
000000f0: 26e5 09bd a8c4 d53c 0c75 25bd 3059 b03b
00000100: 1e77 4dbb 2895 bfbc 20d9 7e3c 8e87 6f3d
00000110: 90a2 bebc 18f6 773d df4a 1b3c d87c 2dbd
00000120: f621 65bb 40f7 533b 9148 34bd 8030 a8bc
00000130: b266 233d 0062 5dba 1a5e 07bc b26a 75bd
00000140: 2693 5cbd 5853 6dbd 989d 3abc 10fe 153c
00000150: e064 d9bb 7507 01bd 7b7c e3bc 4059 6bbd
00000160: 0022 bd39 406d 523b 04a1 773d a4a4 5bbd
00000170: b37f 03bd 2ebc 32bd 140c 283d 2ade 5f3d
00000180: d804 bf3c d113 8ebb fee6 403d 122e 8d3b
00000190: 2035 20bb 00f1 ec3b 40a6 f4bb bba6 25bd
000001a0: e907 c6bc a753 b0bc 84ac 7bbd 1026 28bc
000001b0: 9bba 98bd 28ff 51bc 76b1 37bd 3ccd bfbc
000001c0: 4494 acbc fc25 f73c 4655 7fbd f0ed 033d
000001d0: 7801 b23c 8e40 063c 5435 6bbd f440 97bd
000001e0: 3098 44bd e65e 123d a3bd 083c 30a7 103c
000001f0: 87ec be3c b307 af3a 6712 563c bc25 1abc
00000200: dcc8 85bc 98fe 703c f121 513a cad3 e7bc
00000210: 2642 60bd 2a3f 09bd 18b2 62bc 628c 39bd
00000220: 0114 9dbd 103e 89bb 06d2 483b 145a 0c3c
00000230: 9002 ec3b e0f3 f9bc b84e 803c 8b53 3fbd
00000240: 2856 e6bc 3a6b d9bc 9cbe cb3c 7778 98bc
00000250: f668 8dbd 10ce 93bb d26a 1abc ca0b d4bb
00000260: f565 72bd 9046 bf3b d0eb 3c3c bc52 6f3d
00000270: cdd1 5cbd 7887 8dbc 3d53 28bd 31cb 38bd
00000280: 34e7 14bc 4ac9 a0ba ffc0 57bd 4aab 6d3d
00000290: 13e3 833c 1820 fe3c 1d89 5b3c 4e89 013b
000002a0: 7c34 5fbc e675 19bd b33e edbc b6fd 9fbc
000002b0: bd50 0b3d 4721 a9bc d708 4cbd 9cef d7bc
000002c0: 7dd6 23bd c6e0 3a3c dc00 b5bc 30f6 d2bb
000002d0: 6468 48bd 3c5a af3c 3e20 373d 13d7 4fbd
000002e0: ca4a 153d 2226 6c3d 50ba 173c 60d7 ab3b
000002f0: d49f 183d b16c 3cbd c2a1 5c3d e2d4 3abd
00000300: 2256 403d ee34 11bc b038 1bbd 3877 803c
00000310: d073 72bc 9199 683c d446 573d 7b69 2e3c
00000320: 9200 8abd 8860 183c 363b 4d3c c4e2 e2bc
00000330: 5af3 21bd 08fe 283d 00f6 09bd b8be 2f3c
00000340: 2bb3 70bd ece3 3bbd 8f19 7fbb a9af 03bd
00000350: 6852 15bd 5217 d73c 15b1 2a3d c112 d73b
00000360: 6b89 40bd 74a9 f1bc 3a7f 603d 90e6 de3b
00000370: 1821 5c3c 382c 57bc 6279 383d cc03 64bd
00000380: c4e9 10bd 4856 50bd 5c0a bd3c 302e 58bc
00000390: 8007 7c3c 1386 1b3d 8439 dbbc b01b a83c
000003a0: 1478 273c f06e ccbb feb2 8ebc 5845 1c3d
000003b0: ae34 3e3d 60fe f9bb 8484 233b e81a 4b3c
000003c0: f042 1cbc 98bb 9ebd beb3 5fbd 40ba 263c
000003d0: 68a2 b63c f64d 473d d057 afbc a082 ca3c
000003e0: f462 7ebd 38a1 d53c a8cf aebc 71d4 dbbc
000003f0: 1e65 4a3d 363c 2fbd 868f 34bc b832 5c3d

network.3.bias f4 [256]
-0.017726766 -0.05588177 0.4182764 0.358486 -0.033182092 0.34991834 -0.070259355 0.39312607
0.28103405 -0.043323573 -0.010857759 -0.019963399 0.31548235 -0.058017906 -0.016037595 -0.017341543
-0.057384938 -0.008674246 -0.018136485 0.39713 -0.048361573 0.33538118 0.12975718 0.36219513
0.41511062 -0.032554165 -0.03997965 0.15910338 0.25955936 0.1383662 0.019083077 -0.06604891
-0.03250668 0.16986984 0.06953159 0.27198046 0.00032737074 0.41795552 -0.03582023 -0.025628552
-0.0040039215 0.31732035 0.01587892 0.16452838 0.2674649 0.24562466 -0.047087315 -0.07510045
-0.07606903 -0.044774354 -0.057604514 0.121327534 0.3866536 -0.052712638 0.2851256 0.031305898
0.35931784 0.2004636 -0.032142114 -0.0012861463 0.31600636 -0.04588601 0.24775732 -0.027246704
-0.046859074 0.2234272 0.413094 -0.007850094 0.25833413 0.30801702 -0.055379856 -0.057618205
-0.03380928 0.31523278 0.3035402 0.23446536 -0.07623181 0.3310504 0.2784751 -0.012240192
0.26026297 -0.026817253 0.3843591 -0.02686542 -0.0617744 0.23530751 -0.06350867 0.2757372
-0.053665217 0.13650975 0.3652691 -0.04292763 0.39572307 -0.05336874 0.19175562 0.30155858
0.22176857 0.29550007 0.18042298 0.32245544 -0.06300459 -0.03569586 -0.006230461 0.303958
0.3336598 0.46585184 0.4199776 0.27777112 0.3818722 0.2642665 0.35765347 0.33347854
-0.01880112 0.38280162 0.288846 0.4024885 0.35362804 -0.069010854 0.3176371 0.4079603
0.2785466 0.24353299 0.20284612 -0.070846766 0.10115211 0.39083552 -0.054534532 0.28209478
-0.075329944 0.3324388 -0.07655073 -0.03541199 0.20257257 0.32568696 0.37424174 0.35836348
0.40333027 0.34260818 -0.009119176 0.38998428 0.37473 0.36143866 0.17607507 0.31710824
-0.064647995 0.14624406 0.28175914 -0.06963359 0.2944136 0.3296832 -0.08052003 -0.0712461
0.3752039 -0.06570939 -0.07009898 0.36054304 0.286564 0.31494498 -0.059566263 0.21276501
-0.02855617 0.23038529 0.26540643 0.15483293 0.27962732 -0.028661225 0.07031792 -0.0465849
0.326864 0.32537156 0.27620596 -0.07616922 -0.00207881 0.1907024 0.28245226 0.21924676
-0.006702997 0.30149627 -0.058523253 0.2984247 0.29699284 0.3747956 0.25278974 0.11281629
-0.049763463 0.11080499 -0.055214807 0.095324345 0.17227031 -0.037716325 0.31840688 0.30496845
0.2956289 -0.001592567 0.20789057 0.2970388 -0.018720897 0.26178125 -0.07949742 0.025545657
0.24032713 0.26681405 0.2698076 0.40118378 0.3922945 -0.032058448 -0.033055577 0.3244587
-0.039240435 -0.06203358 0.39244944 0.24121718 -0.026511056 0.35411355 0.06709486 0.3523072
-0.08322268 0.22790295 -0.014753654 0.0066246805 0.19796012 -0.027172815 0.18981536 -0.021714931
0.04386404 -0.046693742 0.17018573 0.28411162 -0.06320649 0.16486171 -0.005064449 -0.047344886
0.36449632 0.23975815 -0.064451426 -0.05283009 0.34722117 -0.016244844 0.08550979 -0.02326659
0.40169764 -0.051505376 -0.04151018 0.33042666 0.14187363 0.36625296 0.2439071 -0.025915843
0.20318154 -0.026764048 -0.061856028 0.3495316 -0.02909844 0.039569 -0.033999577 0.24798997
00000000: b937 91bc 48e4 64bd 5328 d63e 7a8b b73e
00000010: f2e9 07bd 7f28 b33e 23e4 8fbd d247 c93e
00000020: b2e3 8f3e 0f74 31bd bee4 31bc 488a a3bc
00000030: e786 a13e 2fa4 6dbd 4661 83bc da0f 8ebc
00000040: 780c 6bbd 6d1e 0ebc f792 94bc a054 cb3e
00000050: c916 46bd 15b7 ab3e 11df 043e a471 b93e
00000060: 6189 d43e 8457 05bd b4c1 23bd ffeb 223e
00000070: f7e4 843e deaf 0d3e 1d54 9c3c a744 87bd
00000080: b925 05bd 5cf2 2d3e 9466 8e3d 0641 8b3e
00000090: f5a2 ab39 44fe d53e 3cb8 12bd f8f2 d1bc
000000a0: 5433 83bb d077 a23e 8214 823c 217a 283e
000000b0: 29f1 883e 0885 7b3e a1de 40bd 44ce 99bd
000000c0: 14ca 9bbd 5065 37bd b6f2 6bbd 927a f83d
000000d0: 76f7 c53e 35e9 57bd fcfb 913e 9d3a 003d
000000e0: 82f8 b73e 5446 4d3e 73a7 03bd e993 a8ba
000000f0: 96cb a13e f8f2 3bbd 18b4 7d3e 7b34 dfbc
00000100: 4def 3fbd 1aca 643e 0f81 d33e ae9d 00bc
00000110: 5f44 843e 68b4 9d3e fdd5 62bd 1101 6cbd
00000120: 997b 0abd 3166 a13e 9f69 9b3e b017 703e
00000130: 6c1f 9cbd 707f a93e 4a94 8e3e 168b 48bc
00000140: 3041 853e dbaf dbbc b7ca c43e df14 dcbc
00000150: 2707 7dbd 74f4 703e d510 82bd 6d2d 8d3e
00000160: 0fd0 5bbd 36c9 0b3e 8d04 bb3e e2d4 2fbd
00000170: 379c ca3e 2e99 5abd 965b 443e e365 9a3e
00000180: 4d17 633e c94b 973e cdc0 383e e118 a53e
00000190: 8d08 81bd d235 12bd e528 ccbb 62a0 9b3e
000001a0: 75d5 aa3e 2284 ee3e 4e07 d73e 0438 8e3e
000001b0: c184 c33e f04d 873e 5b1e b73e b3bd aa3e
000001c0: ce04 9abc 93fe c33e 9fe3 933e f912 ce3e
000001d0: bc0e b53e 9055 8dbd 54a1 a23e 2ce0 d03e
000001e0: a99d 8e3e b660 793e e5b6 4f3e 1c18 91bd
000001f0: d628 cf3d 981b c83e 9a5f 5fbd ba6e 903e
00000200: 9646 9abd 6b35 aa3e a1c6 9cbd 2a0c 11bd
00000210: 2f6f 4f3e 71c0 a63e 9d9c bf3e 6b7b b73e
00000220: 4e81 ce3e 576a af3e 9968 15bc 05ac c73e
00000230: 9cdc bf3e 7d0e b93e 064d 343e 035c a23e
00000240: 2b66 84bd 01c1 153e bc42 903e 0e9c 8ebd
00000250: 61bd 963e 3dcc a83e afe7 a4bd 7ae9 91bd
00000260: ba1a c03e a592 86bd 0e90 8fbd 1999 b83e
00000270: 84b8 923e 7840 a13e c1fb 73bd 12df 593e
00000280: a1ee e9bc 1fea 6b3e 5ae3 873e 868c 1e3e
00000290: 502b 8f3e f2ca eabc d702 903d cfcf 3ebd
000002a0: b85a a73e 1a97 a63e de6a 8d3e 9cfe 9bbd
000002b0: a53c 08bb 7d47 433e 959d 903e 3982 603e
000002c0: d0a4 dbbb b85d 9a3e 14b6 6fbd 1fcb 983e
000002d0: 720f 983e 35e5 bf3e a86d 813e 3a0c e73d
000002e0: c6d4 4bbd baed e23d ec28 62bd 6939 c33d
000002f0: a167 303e 6f7c 1abd 3a06 a33e d324 9c3e
00000300: ac5c 973e aebd d0ba 44e1 543e 7815 983e
00000310: 915c 99bc 3108 863e 8bcf a2bd 2045 d13c
00000320: 5118 763e da9b 883e 3924 8a3e f667 cd3e
00000330: d3da c83e b84f 03bd 4965 07bd 731f a63e
00000340: 94ba 20bd ec16 7ebd 22ef c83e a301 773e
00000350: b72d d9bc 5f4e b53e 0869 893d 9c61 b43e
00000360: a770 aabd 645f 693e 4fb9 71bc d913 d93b
00000370: 0fb6 4a3e 8699 debc f55e 423e 83e3 b1bc
00000380: c8aa 333d f041 3fbd 2b45 2e3e 1477 913e
00000390: 6772 81bd 82d1 283e adf3 a5bb b6ec 41bd
000003a0: 439f ba3e 2983 753e 1cff 83bd 5d64 58bd
000003b0: f9c6 b13e e813 85bc c21f af3d 9399 bebc
000003c0: 50ab cd3e 4df7 52bd 9406 2abd af2d a93e
000003d0: 5247 113e 8285 bb3e c8c2 793e 764d d4bc
000003e0: d20e 503e 4740 dbbc bf5c 7dbd cef5 b23e
000003f0: da5f eebc 1b13 223d 2443 0bbd 15f1 7d3e

network.6.weight f4 [256, 256]
0.032068245 0.045228917 0.035738036 0.060677327 0.04988811 0.024393182 0.081783496 0.096883275
-0.001918055 -0.044784196 0.05427885 0.054007962 0.06543065 0.020933518 -0.07771382 -0.46537992
0.03797794 -0.04155669 0.04718583 -0.09077488 -0.035058167 0.007293197 -0.5705083 0.021305285
0.10978708 0.01103381 -0.008469646 -0.6700956 0.09177373 -0.3992239 0.34052896 0.020849593
0.008208901 -0.06788498 0.09955275 -0.01910514 -0.03189245 -0.0075297346 0.00523247 -0.0111226095
-0.031951327 0.0834417 0.23388422 0.10246098 0.022529278 -0.022958014 0.018036803 0.028486732
0.01867498 0.051551178 -0.04316254 -0.39876503 0.03557931 0.0713612 -0.0026727854 -0.013480598
0.049132627 -0.19296706 -0.010870536 -0.054675687 -0.016034292 -0.05469677 -0.019217767 -0.033956073
0.04175408 -0.5538929 0.09200832 0.013210387 0.024506269 -0.0046753483 -0.025632221 -0.02037024
-0.008841164 -0.035979535 0.009316711 -0.0090467315 -0.018310413 0.08042765 0.09832775 0.014580349
-0.042900894 0.0046181595 0.07096897 0.0536493 -0.03332402 0.013543371 0.028932456 0.06574855
-0.05444982 -0.5316847 0.033343628 0.048865285 0.05847985 0.027648082 -0.087963976 0.035522413
-0.7343663 0.051190227 -0.38093683 -0.046183188 0.005766005 -0.015273262 0.021221975 0.056274157
0.0060305027 0.13805078 0.15713988 0.03507235 0.022830341 0.07421303 0.017788464 -0.012202305
-0.00043003447 0.040444437 -0.030474497 0.091183916 0.03408625 -0.033693086 0.053485695 0.0953928
0.030439982 -0.0007456322 0.05449597 0.015660673 -0.5128658 0.08771634 -0.018264562 0.025479637
-0.0738209 0.0062264064 0.044237945 -0.01395992 0.031672727 -0.047444824 0.069479816 -0.00054351625
0.03789626 0.030678453 -0.007290263 0.058339845 0.103090696 0.110879906 -0.53473455 -0.028405178
0.04456129 -0.21927154 -0.04546205 -0.05419709 0.064252526 0.011460548 0.008480921 -0.072212525
0.028777296 -0.026574101 0.03580801 -0.0027641784 0.07174951 0.027763095 -0.38976833 0.022030514
-0.003304504 -0.0023373496 0.030525768 -0.111762926 -0.014791845 0.008468988 -0.026529064 -0.0004392987
0.054656554 -0.013137756 -0.025088388 -0.038431007 -0.013170801 -0.47921702 0.022922777 0.034790657
-0.02640411 0.035144303 0.03619559 0.033714164 -0.041499935 0.048556533 -0.004344428 -0.46435103
0.060294088 -0.41642678 -0.04535612 -0.03449467 -0.16170692 -0.06697224 -0.006765356 0.02267112
-0.045592144 0.024880463 -0.24577884 -0.025796117 0.04687352 -0.0204404 0.035926733 0.035385564
-0.017581644 0.045312498 0.014618219 -0.021167772 0.026076488 -0.028634705 -0.035232853 0.010585787
0.05144334 -0.035047404 0.04608537 -0.47838852 0.053326383 0.03330722 -0.04530703 0.09161667
-0.02360189 -0.6757265 -0.06056617 -0.052476037 -0.3774721 0.04599618 -0.40108043 -0.05734846
0.01241155 -0.032550797 -0.3557088 -0.0038674152 -0.034312636 -0.68797034 0.0219837 -0.030470412
-0.0051990678 -0.010788557 0.04931311 0.0053439303 -0.03910237 0.008157027 0.13829814 0.05203731
0.013888398 -0.00590742 -0.053486634 -0.011376782 0.1588704 -0.0055184313 -0.040990874 -0.028761886
0.09854942 -0.046379734 -0.044913378 0.026416548 -0.0063187424 0.064675376 0.0018763563 0.005476253
00000000: fe59 033d f541 393d 0c62 123d ca88 783d
00000010: 7a57 4c3d 36d4 c73c 1b7e a73d bd6a c63d
00000020: 3f67 fbba a26f 37bd 8053 5e3d 7437 5d3d
00000030: 8100 863d c57c ab3c 6c28 9fbd 4746 eebe
00000040: c28e 1b3d 5937 2abd ee45 413d 2ee8 b9bd
00000050: 2799 0fbd c5fb ee3b d50c 12bf 6c88 ae3c
00000060: 0cd8 e03d 27c7 343c 45c4 0abc 638b 2bbf
00000070: def3 bb3d 1367 ccbe d059 ae3e c4cc aa3c
00000080: a07e 063c 4807 8bbd 50e2 cb3d 6282 9cbc
00000090: a8a1 02bd febb f6bb 2475 ab3b 9b3b 36bc
000000a0: 65df 02bd 7be3 aa3d 587f 6f3e 10d7 d13d
000000b0: 528f b83c 7212 bcbc ebc1 933c 025d e93c
000000c0: 46fc 983c 5427 533d 34cb 30bd ee2a ccbe
000000d0: 9cbb 113d d225 923d e629 2fbb badd 5cbc
000000e0: 4b3f 493d 2899 45be 551a 32bc 9df3 5fbd
000000f0: 595a 83bc b809 60bd 946e 9dbc 8615 0bbd
00000100: 5406 2b3d edcb 0dbf dc6e bc3d 6170 583c
00000110: 5fc1 c83c aa33 99bb aafa d1bc 7ddf a6bc
00000120: 88da 10bc 475f 13bd 1ea5 183c be38 14bc
00000130: b8ff 95bc 40b7 a43d 0f60 c93d 6be2 6e3c
00000140: d9b8 2fbd ee53 973b 2e58 913d 5ebf 5b3d
00000150: c57e 08bd 04e5 5d3c c203 ed3c 2da7 863d
00000160: c606 5fbd 7d1c 08bf 5493 083d f726 483d
00000170: 9188 6f3d 3b7e e23c 7526 b4bd f37f 113d
00000180: 6eff 3bbf d8ac 513d 270a c3be 952a 3dbd
00000190: c1f0 bc3b b43c 7abc b5d9 ad3c bb7f 663d
000001a0: 869b c53b 2f5d 0d3e 47e9 203e 06a8 0f3d
000001b0: b206 bb3c 00fd 973d 1db9 913c 2dec 47bc
000001c0: 4076 e1b9 11a9 253d a7a5 f9bc a2be ba3d
000001d0: 069e 0b3d c301 0abd d113 5b3d 4d5d c33d
000001e0: 455d f93c 8876 43ba 2b37 5f3d d04a 803c
000001f0: 2c4b 03bf a0a4 b33d 909f 95bc acba d03c
00000200: 692f 97bd e206 cc3b d932 353d 26b8 64bc
00000210: 43bb 013d 8155 42bd 6f4b 8e3d c27a 0eba
00000220: 1c39 1b3d 6151 fb3c 29e3 eebb c3f5 6e3d
00000230: 3721 d33d 0115 e33d 5de4 08bf fab1 e8bc
00000240: e685 363d b888 60be 6a36 3abd c5fd 5dbd
00000250: d496 833d 06c5 3b3c 90f3 0a3c 29e4 93bd
00000260: 5dbe eb3c eeb1 d9bc 6bab 123d 3827 35bb
00000270: 68f1 923d 6e6f e33c b78f c7be 5679 b43c
00000280: 6190 58bb 382e 19bb 2d11 fa3c f6e3 e4bd
00000290: 7f59 72bc 83c1 0a3c 7b53 d9bc ac51 e6b9
000002a0: 8ddf 5f3d be3f 57bc 2a86 cdbc d569 1dbd
000002b0: 58ca 57bc ef5b f5be 8cc8 bb3c a680 0e3d
000002c0: 6f4d d8bc 79f3 0f3d d441 143d dd17 0a3d
000002d0: d6fb 29bd 37e3 463d b45b 8ebb 6bbf edbe
000002e0: eff6 763d e435 d5be 57c7 39bd 484a 0dbd
000002f0: 8096 25be be28 89bd ebaf ddbb c9b8 b93c
00000300: d4be 3abd 1dd2 cb3c 73ad 7bbe 6152 d3bc
00000310: 73fe 3f3d a072 a7bc e927 133d 74f0 103d
00000320: 6107 90bc 9999 393d 4181 6f3c 0968 adbc
00000330: 5c9e d53c 5493 eabc 5350 10bd 0270 2d3c
00000340: 40b6 523d de8d 0fbd 03c4 3c3d 57ef f4be
00000350: c46c 5a3d 276d 083d dd93 39bd 85a1 bb3d
00000360: c058 c1bc 69fc 2cbf 3b14 78bd 1df1 56bd
00000370: 0644 c1be 7e66 3c3d 6a5a cdbe 38e6 6abd
00000380: d059 4b3c fc53 05bd 771f b6be 7674 7dbb
00000390: 688b 0cbd d31e 30bf 2917 b43c 169d f9bc
000003a0: f15c aabb 7dc2 30bc 8bfc 493d 231c af3b
000003b0: cf29 20bd 0da5 053c 079e 0d3e 1325 553d
000003c0: 2a8c 633c 0893 c1bb cd14 5bbd af65 3abc
000003d0: ecae 223e f5d3 b4bb 0ce6 27bd 0c9e ebbc
000003e0: 47d4 c93d adf8 3dbd 17f7 37bd 8467 d83c
000003f0: 740d cfbb 8674 843d 12f0 f53a 2472 b33b

network.6.bias f4 [256]
0.9807454 1.0191227 1.0911121 0.143247 0.97409767 0.28570053 0.92927164 1.0455717
-0.09387736 0.124756485 0.6327209 1.0032711 0.39528725 0.16568571 0.96288025 0.14230807
0.4437785 0.63953316 -0.06106241 -0.0791378 0.8206368 0.9131446 0.8315175 1.0631613
1.037886 1.0171504 1.0652466 1.0958862 1.0760634 1.0235473 0.49144167 1.0412583
0.96014047 0.13263129 0.7715229 0.06409288 0.93393654 0.4348194 0.6281856 0.8521219
0.4803695 1.002863 0.35712683 0.12682691 -0.12872894 0.044111762 0.090692215 0.46605885
1.0213599 0.3344068 0.96735376 0.4168099 1.0021609 0.20918065 0.25296128 0.18034764
1.084977 -0.025435816 0.10846818 0.5423177 0.12357787 0.26544064 1.1019654 0.45874816
0.34237057 0.35446984 1.0414431 0.32109833 0.6846062 0.1779481 0.40815756 0.1917533
0.98960066 -0.0010502608 0.8230061 1.0018387 0.92948276 0.20696513 -0.07474433 0.9217897
0.26910236 0.9465085 0.9979747 0.26582628 0.555543 1.0055547 0.33080655 0.9384019
0.992544 0.35146084 0.2306402 0.32885087 0.22254676 0.77796465 0.51367784 0.31724128
1.025472 0.8487826 0.0783843 0.7717671 0.53240824 0.1968871 1.0737263 1.0054003
0.2763105 0.919171 0.93746334 0.2283091 0.019121462 0.031152403 0.49666184 0.34287047
0.3076261 0.3703798 0.9222182 0.3356283 1.080582 0.8864948 -0.12995194 0.26125258
0.95923895 0.8795704 1.0843681 0.26649266 0.8872568 1.0758035 -0.032640107 -0.04600617
0.99799514 0.27805954 1.0814697 1.0613984 0.03142499 0.89114624 0.9768165 1.0521549
0.9917053 -0.10207454 0.09358881 0.16809207 0.92167085 1.0668057 0.51874447 0.24080768
1.0719135 1.0295331 0.6395408 1.0681168 1.0901593 -0.12885366 0.35357666 0.30123278
0.96622455 0.06123108 1.0790517 0.48604876 0.18412279 0.97575796 1.0532469 0.9733608
1.0066267 -0.052885506 0.91376716 0.52790403 -0.051690534 -0.02943236 1.0758047 0.9588276
1.0810329 1.0872719 0.20047015 0.29019403 0.32491386 1.048601 1.1136458 0.33195052
0.85257775 0.96461827 0.59309083 1.0926994 0.026781082 -0.041923903 1.0296321 -0.029757494
0.9059092 0.6496682 1.0379307 1.0493273 0.4835126 0.25753772 0.07065809 1.0205215
0.97845423 0.3127153 0.9937577 1.0494599 0.11211663 1.0567794 0.9841613 0.955794
0.46746513 0.95987314 0.3806207 -0.043170556 1.0620676 0.98004174 1.0954429 0.0658039
0.3205959 0.8285425 0.6930447 1.060584 1.0491841 -0.09121511 0.37512425 0.46189123
1.0153409 0.7186035 1.0259471 -0.039414894 0.35074186 0.93232226 1.0659187 0.5500382
-0.117271714 0.80598223 -0.08846437 0.0058965683 0.27632588 0.2947928 0.43735328 0.27324525
1.0640126 1.06661 -0.07405036 1.1256988 1.0551482 0.14910935 0.5171742 0.12980048
0.49697283 -0.09153441 1.0094565 0.49525166 0.59596765 0.91131353 0.18798086 0.8830114
0.926396 1.0252357 1.0479956 1.0512869 0.8884545 0.5889083 0.98311996 1.0362284
00000000: 2112 7b3f 9d72 823f 90a9 8b3f 57af 123e
00000010: 775e 793f 5747 923e bfe4 6d3f 4bd5 853f
00000020: c642 c0bd 5480 ff3d fff9 213f 306b 803f
00000030: 1763 ca3e 84a9 293e 527f 763f 35b9 113e
00000040: f036 e33e 72b8 233f 941c 7abd 0013 a2bd
00000050: 4115 523f d8c3 693f 55de 543f ab15 883f
00000060: 73d9 843f fc31 823f 005a 883f 0046 8c3f
00000070: 72bc 893f 9903 833f 3e9e fb3e f447 853f
00000080: c4cb 753f 7fd0 073e 8682 453f 2143 833d
00000090: 7716 6f3f a6a0 de3e c5d0 203f a924 5a3f
000000a0: fef2 f53e d15d 803f 54d9 b63e eade 013e
000000b0: 85d1 03be 89ae 343d d7bc b93d 449f ee3e
000000c0: ecbb 823f 5e37 ab3e 7fa4 773f 1b68 d53e
000000d0: cf46 803f 7433 563e 2484 813e 0dad 383e
000000e0: 87e0 8a3f c65e d0bc 9124 de3d 55d5 0a3f
000000f0: 6516 fd3d d6e7 873e 340d 8d3f 0ae1 ea3e
00000100: 324b af3e 127d b53e 024e 853f 0067 a43e
00000110: 5a42 2f3f 0738 363e 07fa d03e fa5a 443e
00000120: 7856 7d3f e8a8 89ba 87b0 523f 403c 803f
00000130: 95f2 6d3f abee 533e 8e13 99bd 69fa 6b3f
00000140: c9c7 893e 624e 723f 457b 7f3f 621a 883e
00000150: 1138 0e3f 04b6 803f 7a5f a93e 1b3b 703f
00000160: 5d17 7e3f adf2 b33e f22c 6c3e 245f a83e
00000170: 4ce3 633e b128 473f 6480 033f 736d a23e
00000180: ab42 833f d149 593f f387 a03d 8792 453f
00000190: e84b 083f c69c 493e dd6f 893f f5b0 803f
000001a0: 9278 8d3e ca4e 6b3f 99fd 6f3f dcc9 693e
000001b0: 9da4 9c3c 5333 ff3c 764a fe3e b88c af3e
000001c0: 2b81 9d3e 6ca2 bd3e 7e16 6c3f 79d7 ab3e
000001d0: 8350 8a3f 53f1 623f 1f12 05be e6c2 853e
000001e0: af90 753f 872b 613f 93cc 8a3f ba71 883e
000001f0: 4323 633f eeb3 893f a2b1 05bd f770 3cbd
00000200: 9c7c 7f3f d25d 8e3e 996d 8a3f e7db 873f
00000210: 7eb7 003d 2922 643f a510 7a3f 03ad 863f
00000220: 66e0 7d3f 750c d1bd 7dab bf3d 5420 2c3e
00000230: 9ff2 6b3f 178d 883f 70cc 043f 4a96 763e
00000240: 7634 893f bec7 833f f2b8 233f 0db8 883f
00000250: 578a 8b3f 37f2 03be 0008 b53e 2f3b 9a3e
00000260: 7e5a 773f 71cd 7a3d 5e1e 8a3f 62db f83e
00000270: af8a 3c3e 46cb 793f cbd0 863f 2c2e 793f
00000280: 25d9 803f 799e 58bd a5ec 693f b824 073f
00000290: 74b9 53bd 221c f1bc f8b3 893f ba75 753f
000002a0: 495f 8a3f ba2b 8b3f 0c48 4d3e 5094 943e
000002b0: 1c5b a63e 8f38 863f f28b 8e3f 6bf5 a93e
000002c0: 8942 5a3f 39f1 763f cdd4 173f 93dd 8b3f
000002d0: 0064 db3c 66b8 2bbd fcca 833f fdc5 f3bc
000002e0: aae9 673f a850 263f eada 843f 5b50 863f
000002f0: f78e f73e fcdb 833e 30b5 903d 73a0 823f
00000300: fa7b 7a3f 381c a03e e866 7e3f b454 863f
00000310: 679d e53d 8c44 873f fff1 7b3f eaae 743f
00000320: 9757 ef3e 3fba 753f b7e0 c23e 9cd3 30bd
00000330: d5f1 873f 04e4 7a3f 7937 8c3f 32c4 863d
00000340: 2525 a43e 5c1b 543f 616b 313f 37c1 873f
00000350: aa4b 863f fdce babd 4910 c03e 027d ec3e
00000360: b1f6 813f 66f6 373f 3c52 833f 8371 21bd
00000370: 7094 b33e acac 6e3f 0670 883f 4ecf 0c3f
00000380: 272c f0bd da54 4e3f cf2c b5bd 0038 c13b
00000390: 967a 8d3e 15ef 963e c5ec df3e cde6 8b3e
000003a0: 9131 883f ad86 883f b7a7 97bd e616 903f
000003b0: 190f 873f 1fb0 183e 8765 043f 6bea 043e
000003c0: 3973 fe3e 6576 bbbd df35 813f a091 fd3e
000003d0: 5691 183f d84b 693f 0e7e 403e 090d 623f
000003e0: 4a28 6d3f ec3a 833f b824 863f 9290 863f
000003f0: c171 633f b2c2 163f c0ad 7b3f 22a3 843f

network.8.weight f4 [3, 256]
-0.111418724 -0.16787784 -0.13723283 0.029746413 -0.16183823 0.19397931 -0.17790607 -0.12808357
0.0012321858 0.20554264 0.2550547 -0.16724513 0.23844865 0.09189333 -0.14582531 0.09864444
0.22646816 0.270443 0.0014962894 0.03665714 0.23943152 -0.1667751 0.2129974 -0.1801754
-0.17869158 -0.16460145 -0.18329118 -0.1723659 -0.17273183 -0.16226678 0.1672361 -0.13818043
-0.16126604 0.14963958 0.29403758 0.20994268 -0.08540348 0.2151663 0.4363035 0.23854424
0.18753822 -0.16452342 0.11513296 0.011554032 0.00054279773 0.055945423 0.1199337 0.26160783
-0.16264462 0.10015343 -0.8607463 0.24251068 -0.18701866 0.1237147 -0.006636554 0.027038667
-0.19522916 0.005326292 0.3714229 0.23088443 0.06895761 0.06895745 -0.18597542 0.17426515
0.075625755 0.069872424 -0.15472217 0.38638788 0.27485496 0.08820795 0.18329296 0.086037904
-0.17630883 0.15817557 -0.17028318 -0.1738418 -0.15588774 0.121162295 -0.02236427 -0.16813654
0.13761249 -0.15554939 -0.12628509 0.3850193 0.30044365 0.2948329 0.11929569 -0.19294575
-0.15111612 0.13668281 0.11337545 0.20826076 0.27174532 0.1414652 0.2764829 0.12245571
-0.21226053 0.2960772 0.06062939 0.2847784 0.15023822 0.20020455 -0.1376461 -0.17365725
0.24155971 -0.1546164 -1.0450631 0.075103074 -0.0010439468 0.016298864 0.33436435 0.21309641
0.24311972 0.22234353 -0.21579036 0.24213229 -0.16951643 0.24562053 -0.023845518 0.117476925
-0.1810637 0.24913684 -0.14006998 0.06616623 0.25304118 -0.20529088 -0.018340614 0.006378872
-0.16383249 0.112860605 -0.122155905 -0.13499087 0.033589646 -0.19716743 -0.15473422 -0.10823768
-0.17196065 -0.033608925 0.06797331 0.16832736 -0.14408904 -0.13880824 0.09652391 0.25328428
-0.16475601 -0.16504526 0.25552756 -0.17998584 -0.15268353 -0.006714228 0.29146725 0.08358677
-0.14998792 0.04244007 -0.1633062 0.19900106 0.24040616 -0.15833361 -0.16931821 -0.15121251
-0.10964443 -0.0033616025 -0.1687353 0.27599335 -0.011585335 0.007663336 -0.13178901 -0.10931564
-0.18714377 -0.13586478 0.2533702 0.06699244 0.06398294 -0.15485898 -0.12539895 0.10068455
0.16759679 -0.16096596 0.22168954 -0.14565715 0.06741225 -0.012980932 -0.16451463 0.045513675
-0.15642788 0.24847332 -0.16681658 -0.18672547 0.32636774 0.21958019 -0.0049987165 -0.18916671
-0.14622077 0.25595564 -0.22670317 -0.17743954 0.03968873 -0.14848006 -0.16581768 -0.16586457
0.25013384 0.22776018 0.12979636 0.0013704171 -0.1802763 -0.16938628 -0.1639459 0.0153608695
0.10974162 0.3073996 0.19901907 -0.15187442 -0.16571325 0.0064075636 0.15003118 0.17268753
-0.16610396 -0.676266 -0.21891135 -0.10130329 0.24971728 -0.10921323 -0.15862112 0.27192268
-0.010936881 -0.16781737 0.03636562 -0.12612651 0.08580656 0.30184627 0.23892397 0.08670883
-0.18842897 -0.1176635 0.01163961 -0.18318497 -0.14382355 0.31472874 0.1758404 0.18993734
0.19037846 -0.021969622 -0.15162374 0.21372406 0.3035403 -0.15162532 0.110991195 -0.48995084
-0.8114265 -0.17871952 -0.1503861 -0.1686173 -0.15372872 0.2996589 -0.20980576 -0.17193611
00000000: 802f e4bd 2be8 2bbe c386 0cbe c0ae f33c
00000010: ecb8 25be 83a2 463e 022d 36be 5728 03be
00000020: 4b81 a13a c579 523e 8896 823e 4f42 2bbe
00000030: e22b 743e 9232 bc3d 3b53 15be 1906 ca3d
00000040: 45e7 673e 8177 8a3e 241f c43a cc25 163d
00000050: 892d 753e 18c7 2abe fe1b 5a3e e67f 38be
00000060: edfa 36be 488d 28be afb0 3bbe b080 30be
00000070: 9de0 30be 4329 26be f13f 2b3e 2c7f 0dbe
00000080: ed22 25be 1e3b 193e 188c 963e 37fb 563e
00000090: 05e8 aebd 8e54 5c3e 2c63 df3e f144 743e
000000a0: 050a 403e d478 28be d4ca eb3d 1f4d 3d3c
000000b0: 8a4a 0e3a 0727 653d cd9f f53d 76f1 853e
000000c0: 508c 26be 3e1d cd3d df59 5cbf b854 783e
000000d0: d281 3fbe 225e fd3d 7377 d9bb 3280 dd3c
000000e0: 27ea 47be 2d88 ae3b 242b be3e f86c 6c3e
000000f0: a639 8d3d 9039 8d3d 5770 3ebe 9072 323e
00000100: ade1 9a3d 4619 8f3d 7d6f 1ebe a2d4 c53e
00000110: cab9 8c3e 5fa6 b43d 26b1 3b3e a434 b03d
00000120: 4d8a 34be c7f8 213e b75e 2ebe 9603 32be
00000130: 09a1 1fbe f023 f83d 4635 b7bc fc2b 2cbe
00000140: 4aea 0c3e 5748 1fbe e150 01be 4021 c53e
00000150: c0d3 993e 56f4 963e 4c51 f43d 9293 45be
00000160: 2fbe 1abe 94f6 0b3e 6331 e83d 4f42 553e
00000170: 3422 8b3e 41dc 103e 2b8f 8d3e 0fca fa3d
00000180: d35a 59be 6e97 973e 8656 783d 79ce 913e
00000190: 0cd8 193e 6c02 4d3e 19f3 0cbe 35d3 31be
000001a0: 6e5b 773e c353 1ebe a1c4 85bf a4cf 993d
000001b0: 0bd5 88ba 3285 853c ce31 ab3e f235 5a3e
000001c0: 60f4 783e 06ae 633e 26f8 5cbe 87f1 773e
000001d0: b795 2dbe f383 7b3e ad57 c3bc be97 f03d
000001e0: c368 39be ba1d 7f3e 816e 0fbe 2982 873d
000001f0: 9d8e 813e c637 52be 0e3f 96bc db05 d13b
00000200: b4c3 27be 7623 e73d e02c fabd 0c3b 0abe
00000210: 4c95 093d 42e6 49be a672 1ebe b7ab ddbd
00000220: 7416 30be 83a9 09bd 9735 8b3d 025e 2c3e
00000230: 148c 13be bf23 0ebe 54ae c53d 7aae 813e
00000240: cdb5 28be a001 29be 82d4 823e 354e 38be
00000250: 1259 1cbe 0703 dcbb 323b 953e 8a2f ab3d
00000260: 6f96 19be a4d5 2d3d be39 27be efc6 4b3e
00000270: 082d 763e 3522 22be c161 2dbe 74d7 1abe
00000280: 428d e0bd 554e 5cbb f2c8 2cbe 004f 8d3e
00000290: 6bd0 3dbc b91c fb3b b3f3 06be e1e0 dfbd
000002a0: 9ea2 3fbe 2320 0bbe bdb9 813e 5533 893d
000002b0: 7d09 833d 5a93 1ebe 9568 00be b433 ce3d
000002c0: 7e9e 2b3e 43d4 24be 9502 633e 2627 15be
000002d0: 6f0f 8a3d faad 54bc 8676 28be 8c6c 3a3d
000002e0: a12e 20be ca6f 7e3e f7d1 2abe f634 3fbe
000002f0: ac19 a73e a1d9 603e 46cc a3bb ebb4 41be
00000300: e6ba 15be 9e0c 833e e024 68be b6b2 35be
00000310: a690 223d 280b 18be 1ccc 29be 67d8 29be
00000320: 8b11 803e f739 693e 56e9 043e 919f b33a
00000330: 5a9a 38be 9973 2dbe 6fe1 27be 28ac 7b3c
00000340: 37c0 e03d 7b63 9d3e a8cb 4b3e f884 1bbe
00000350: bcb0 29be 8af6 d13b c6a1 193e 00d5 303e
00000360: 2817 2abe c51f 2dbf 4c2a 60be 1978 cfbd
00000370: e3b5 7f3e 30ab dfbd 936d 22be 7339 8b3e
00000380: 9b30 33bc 51d8 2bbe 1ef4 143d 4f27 01be
00000390: 5abb af3d 988b 9a3e 7ca8 743e 6694 b13d
000003a0: 86f3 40be 90f9 f0bd 10b4 3e3c d794 3bbe
000003b0: 7b46 13be 2024 a13e 810f 343e ef7e 423e
000003c0: 92f2 423e a3f9 b3bc 4143 1bbe 7bda 5a3e
000003d0: a269 9b3e ab43 1bbe 5a4f e33d d6da fabe
000003e0: a6b9 4fbf 4002 37be d0fe 19be 03aa 2cbe
000003f0: 106b 1dbe e46c 993e 52d7 56be 0510 30be

network.8.bias f4 [3]
-0.78377455 -0.8265735 -0.70726043
00000000: 73a5 48bf 529a 53bf 050f 35bf
