mountaincar_cl_project/mountaincar_cl/runs/abrupt/egp/seed_1/online_stream_model.pth (torch, 536437 bytes, 8 tensors)

network.0.weight f4 [256, 2]
000000 08 70 84 3d ee 35 d2 3e c5 d9 b5 be 71 92 a8 3f
       0.06466681 0.4105677 -0.35517707 1.316969
000010 4c 05 1c 3e d8 73 f0 bd 6c c5 ee bc 96 f8 00 40
       0.15236396 -0.117408454 -0.029146872 2.0151725
000020 3f d2 88 3e fa f4 d4 3f f4 81 b1 bd 79 7f 39 40
       0.26722905 1.6637261 -0.08667365 2.8984053
000030 d8 7b 8b 3d aa 6c ba 3e d1 ab 97 3c b2 18 6b 40
       0.06810731 0.3641103 0.018514546 3.6733823
000040 36 8d ad 3e db 7e 92 3e 93 79 d5 3e 8c 8c 05 40
       0.33896798 0.28612408 0.41694316 2.0867033
000050 4a aa a1 bd b6 59 77 40 ff 64 45 be 8b 3e 46 40
       -0.07893808 3.8648505 -0.19276808 3.0975673
000060 29 03 55 3d 6e 6f 78 40 92 da 41 be e3 f7 6f c0
       0.052004967 3.8818011 -0.18931034 -3.7495048
000070 72 6f 03 bf 04 c3 26 c0 67 37 45 be c4 10 17 40
       -0.5134193 -2.6056528 -0.19259416 2.3603983
000080 c3 09 cd be 2d 50 2a c0 bc d8 07 3e af 49 3c 40
       -0.4004651 -2.6611435 0.13266271 2.9419973
000090 83 de 95 3d d8 9d 59 40 4c ca 6f 3e df 4b 17 3f
       0.07317831 3.400259 0.23417014 0.59100145
0000a0 dc 1f cf 3c d6 01 64 40 09 7a 2a 3f 1c 94 50 be
       0.025283746 3.562612 0.6659246 -0.20368999
0000b0 cd 1b 11 3f e0 03 d6 bd 70 62 8d be be 42 27 40
       0.56683046 -0.10449958 -0.27614164 2.6134486
0000c0 c0 d9 8f bc c0 2e da be f4 bf a6 3d 22 ee 2f c0
       -0.017559886 -0.42613792 0.08142081 -2.7489095
0000d0 c2 e1 e6 3e fe b8 f4 3e 8a 31 2b be b0 ad 0f 40
       0.45094115 0.47797388 -0.16718116 2.244976
0000e0 28 24 d0 3d c8 3e b1 3d 29 1d 27 3f 3f a5 03 3f
       0.10163146 0.08654553 0.6527887 0.5142402
0000f0 02 1e 62 3e 3e ca 6a 40 be f5 f2 3e b3 72 13 3f
       0.2208176 3.668594 0.4745311 0.5759689
000100 31 2b 12 3f f8 9f 03 40 a0 fd a2 3d a4 b4 5a 3e
       0.57097155 2.0566387 0.079585314 0.21357971
000110 c5 15 28 bf 04 b9 1a bf 2d 41 98 bd 01 81 03 40
       -0.6565822 -0.6043856 -0.07434306 2.0547488
000120 d1 c0 35 3e fc 54 f5 3f ec 06 db bd 93 99 0e 40
       0.17749335 1.916656 -0.106946796 2.2281234
000130 79 50 dd be eb 48 31 c0 dc ce ec be 0e 35 d6 3e
       -0.43225458 -2.7700756 -0.4625157 0.41837353
000140 7e ab d3 3e 7d bf 46 3f 10 c0 83 3e b3 13 32 bf
       0.41341776 0.7763594 0.2573247 -0.6956131
000150 2b 40 60 3e ca 15 00 40 0f ba 51 3f a0 7a 84 be
       0.21899478 2.00133 0.8192453 -0.25874805
000160 28 f7 08 3f b1 b5 76 40 87 58 42 3e 07 85 4b 40
       0.5350213 3.8548396 0.18979083 3.1799943
000170 4d 33 e2 3e 78 67 5f 40 e0 f4 78 bd 08 f4 3b 3e
       0.44179764 3.4906902 -0.060780406 0.1835481
000180 de 94 48 be 4f 5e 61 40 b6 30 48 3f bf 80 82 bf
       -0.19588038 3.5213811 0.78199327 -1.019554
000190 45 62 43 bc 53 f2 29 40 83 6e 01 3f 7d bb a7 be
       -0.011925285 2.6554153 0.5055925 -0.3276023
0001a0 90 c8 08 bd 99 78 18 bf 1a d1 8c 3e 8a ca ea 3e
       -0.033394396 -0.5955902 0.27503282 0.4585765
0001b0 d0 94 36 3d a0 30 62 bd 4b 80 4c 3f 3c 3d 7b 40
       0.044575512 -0.055222154 0.7988326 3.9256124
0001c0 00 77 ec bd ae 27 f0 3e 8c ad 50 3e da 69 a0 3e
       -0.11546135 0.46905273 0.20378703 0.31330758
0001d0 4e 94 85 3f 02 44 e8 3d 5e 0d 9b 3e 7a 99 aa 3e
       1.0435884 0.113410965 0.30283636 0.33320218
0001e0 09 d0 9f 3a ee 18 08 40 9d 19 2e 3e 84 77 28 40
       0.0012192737 2.1265216 0.17001958 2.6322947
0001f0 68 f4 b5 bd ec 88 7b 3e 94 ec 31 3e 2d 02 12 40
       -0.088845074 0.2456395 0.17375404 2.2813828
000200 43 15 35 3d 5d 9f 31 40 34 ea 64 3e 0d 4e 16 3f
       0.04420973 2.7753518 0.22354966 0.58712846
000210 c8 1e e6 3d 60 54 05 bd e8 01 2a bc 86 61 11 c0
       0.1123634 -0.03255117 -0.010376431 -2.2715774
000220 cb 88 34 3f 17 af 0e 3f cc ea 6d be de ba 18 bf
       0.7052123 0.55735916 -0.23234099 -0.59660137
000230 42 c0 1a 3f 24 4c c0 be f2 d3 c4 3e 0d 68 0d 3f
       0.6044961 -0.3755809 0.3844295 0.55236894
000240 8d 65 13 3c 19 c0 11 40 e3 b4 8f be d5 b4 2b bf
       0.00899638 2.2773497 -0.28067693 -0.670728
000250 6c 97 a5 3e aa 79 57 3f 2b 75 0c 3e f4 93 37 40
       0.32342088 0.8417002 0.13716571 2.8684053
000260 b0 73 82 3e d9 42 5b 40 59 a0 06 3f da b8 9b 3e
       0.25478888 3.425955 0.5258842 0.30414468
000270 1b 55 43 be d5 f7 2f 40 e8 9b ef 3e 40 db 59 3f
       -0.19075434 2.7495015 0.46798635 0.85100174
000280 a8 84 92 bd 36 49 1e bf 60 4b 37 be 89 5a 33 40
       -0.071542084 -0.6183046 -0.17899847 2.8024008
000290 c2 4a 41 3f 8d b9 c7 3f c8 ac fa 3d 07 38 2a bf
       0.75504696 1.5603501 0.12239987 -0.6649174
0002a0 0c 79 32 bf 6e 8b a8 3e c5 25 c5 be e6 88 6f be
       -0.6971595 0.32918876 -0.38505378 -0.23392066
0002b0 2e 03 fc 3e 00 9b 2a 3e 5a 29 85 3e 00 44 08 bf
       0.49221176 0.1666069 0.2600811 -0.5322876
0002c0 fb 74 f1 be df 08 fe bf 16 54 84 3e f2 11 b1 3e
       -0.47159562 -1.9846457 0.25845402 0.34584004
0002d0 c0 8a f2 3c 89 88 0d 3f 8c 45 90 be 0b 47 00 3f
       0.029607177 0.5528646 -0.2817806 0.501084
0002e0 70 bf 46 3d a4 2f 2c be 7b 95 88 be a1 e2 b9 bf
       0.048522413 -0.16815048 -0.26676545 -1.4522287
0002f0 40 c6 a4 be 98 b7 fd 3f 2a 14 e0 3e 6e 98 0c bf
       -0.32182503 1.9821653 0.43765384 -0.5492009
000300 c8 c2 99 bd 40 04 1d bf 23 65 de be b2 e1 10 40
       -0.07507855 -0.6133461 -0.43436536 2.2637753
000310 a0 c5 8e 3e 10 da 22 40 f6 43 92 be e5 03 03 40
       0.2788515 2.5445595 -0.28567475 2.0471127
000320 90 6d ba be 90 69 88 3d 70 d0 b8 bd 48 1a 8c 3e
       -0.36411715 0.066607594 -0.09024131 0.273638
000330 7d aa 68 be af b0 5d 40 9a ee 66 be b4 11 25 40
       -0.22721286 3.463909 -0.22551957 2.5792055
000340 f9 61 5e be 37 cf 25 40 c2 71 d0 3e 5d 35 6b 40
       -0.21717061 2.5907724 0.4071179 3.675132
000350 d1 ce 81 3d 4f a7 1f 40 29 b7 ae 3b 3b 21 11 40
       0.06338275 2.4945867 0.005331893 2.2676532
000360 26 28 03 bf 8e aa 2f 3e ab 2e ca bd a2 02 07 40
       -0.51233137 0.17154905 -0.098721825 2.1095357
000370 76 ee e5 be 27 11 1d bf c4 e2 fb bd 70 95 0d 40
       -0.44908494 -0.613543 -0.122991115 2.212246
000380 94 83 57 3e 10 8a 65 3d 26 ee 08 3f 5f f5 8a 3f
       0.21046287 0.05603987 0.53488386 1.0856131
000390 10 47 95 be f7 f3 32 c0 65 fa 29 be dc 83 19 40
       -0.2915578 -2.7961404 -0.16599424 2.398673
0003a0 64 4e fd be 41 5e 21 c0 c4 2c b2 bc 90 af 16 40
       -0.4947387 -2.5213778 -0.021749862 2.3544655
0003b0 34 e9 2d be ca 06 9c 3e 12 23 b9 be 0a 4d 0f c0
       -0.16983491 0.3047393 -0.3615957 -2.239077
0003c0 dc c3 99 3e 9b b8 52 40 9c 66 03 be b3 06 bf be
       0.3003224 3.2925174 -0.12832111 -0.373098
0003d0 f8 07 5b be 34 78 22 40 96 fd be 3e c0 39 a3 3c
       -0.21389759 2.5385866 0.37302846 0.019924998
0003e0 08 67 93 be a6 35 91 3e c2 ca 97 3e 7d f2 25 3f
       -0.28789544 0.28361243 0.2964688 0.6482313
0003f0 ef f2 e2 3e 4a 60 98 3f 96 52 d4 3e fe 7d e2 be
       0.4432597 1.1904385 0.41469258 -0.4423675

network.0.bias f4 [256]
000000 02 7e 87 be 4e b9 00 be 48 25 05 bf 1b 62 c8 bc
       -0.26463324 -0.12570688 -0.5201001 -0.024460843
000010 92 e8 3c bd 21 2f af 3c 3d e4 ea be 21 60 26 bc
       -0.046120234 0.021384778 -0.45877257 -0.010154755
000020 42 e3 c2 3d 64 62 49 3e 28 42 a8 bc 11 7f 74 bd
       0.09516002 0.1966644 -0.020539358 -0.059691492
000030 77 30 b8 3c de 5a 9b bd 43 4c 84 be 01 a7 a4 bd
       0.022484047 -0.07585691 -0.25839433 -0.08039666
000040 07 42 45 be 28 85 f6 3c df 2f b1 3d c2 94 e1 be
       -0.19263469 0.03009279 0.08651709 -0.44058806
000050 46 e1 9a b9 b2 54 2e bf 5f 5a 21 bf 91 29 cb bd
       -0.0002954101 -0.68097985 -0.6302852 -0.099200375
000060 00 fd db be af cf b5 bd d8 6d 12 be 61 21 e1 bd
       -0.4296646 -0.08877503 -0.14299715 -0.10992695
000070 52 c0 32 bf ac 28 da be d4 12 39 3c 00 d6 1a be
       -0.6982471 -0.42609155 0.011295993 -0.15120697
000080 be 92 2a 3e 5e 0c 2f bf 40 48 10 bf 59 0c 94 bc
       0.1665754 -0.68378246 -0.56360245 -0.018072294
000090 c1 60 5f 3d d7 e6 ba bc 19 8f d2 be a6 09 2e bf
       0.05453563 -0.022815151 -0.411248 -0.6798347
0000a0 5c d0 e0 3d c5 b6 ed be c0 2c 89 3d 9e d8 7a 3c
       0.109772414 -0.46428505 0.066979885 0.015310435
0000b0 5b bc e0 3d cf 41 65 3c 98 2a 3e 3e 00 6f a3 be
       0.10973426 0.013992741 0.18570936 -0.31920624
0000c0 08 97 9f bd a5 e3 ae 3e db af 2d 3d 44 c0 08 bf
       -0.07792479 0.34158054 0.042404037 -0.53418374
0000d0 16 65 1c bf fb 8b 16 bf fe 1b 04 bf 76 2c ba bb
       -0.61091745 -0.58807343 -0.5160521 -0.0056815697
0000e0 71 e9 04 bf 57 39 87 be ef 1c 47 3c 08 d6 96 bd
       -0.51918703 -0.26410934 0.012152894 -0.07365042
0000f0 86 4f 1f 3c e4 01 b6 3c a2 24 7d be 5f 32 55 3d
       0.00972355 0.022217698 -0.24721006 0.05204999
000100 3a bf 07 3d ea 1f 67 be f1 aa d9 be 91 1d c7 bd
       0.033141352 -0.22570768 -0.4251323 -0.09722436
000110 e0 78 8a be e6 69 01 bf 99 ba b1 bd 9d 98 22 bf
       -0.27045345 -0.50552213 -0.08678169 -0.6351412
000120 dd 2e 2f 3d 54 d6 cf be aa 7c bd 3d 05 c7 42 3d
       0.0427693 -0.40593207 0.092522934 0.04755308
000130 c2 99 4f 3d 58 0c fc bd 77 18 6b bd 52 0d 5d 3e
       0.050683744 -0.12307042 -0.05739638 0.21587113
000140 0a ce 6f be 78 5d 4e bd 6b b5 ae 3e cc 0c 74 be
       -0.23418441 -0.050382107 0.34122786 -0.23833007
000150 c2 be 27 bf 84 05 14 bf 33 60 a4 be d5 f5 01 bf
       -0.6552545 -0.57820916 -0.32104644 -0.50765735
000160 a4 6d dc be 44 69 15 bf e4 f6 02 bf f7 03 96 be
       -0.430524 -0.5836375 -0.51157975 -0.292999
000170 b5 f1 df be 7d e8 89 be c7 7c f3 bd b5 24 34 bf
       -0.43739095 -0.26935187 -0.11889034 -0.7036851
000180 50 5b 96 be 4c 5c 1c be ee 8a ab 3d 5c 03 56 be
       -0.2936654 -0.15269583 0.08376108 -0.20899719
000190 16 de c4 be 9b f6 1a bf 8a dc 91 bd 84 8a 91 bd
       -0.38450688 -0.6053254 -0.071221426 -0.07106498
0001a0 a5 73 95 bd 94 03 f9 3d de 32 49 3c 73 c1 7d bd
       -0.07297448 0.121588856 0.012280194 -0.061952066
0001b0 b0 d6 38 be 3f d7 14 bd 46 d6 e6 be 63 42 3b bd
       -0.18050647 -0.036338087 -0.45085353 -0.04571761
0001c0 d5 cf a0 be 9c cb 1d 3e 00 d3 9e be 0b d5 76 bd
       -0.31408563 0.15409702 -0.31020355 -0.060261767
0001d0 31 a0 68 be da f3 16 3a c2 b0 08 bf c8 13 3a be
       -0.22717358 0.00057583826 -0.5339471 -0.18171608
0001e0 93 2a bc 3d 57 7e 89 be ca e8 b2 bd 59 bf 1a bf
       0.09187808 -0.26854202 -0.08735807 -0.60448223
0001f0 d6 2f 7c be ca eb 5d be 02 5c 51 3e 3e e4 93 be
       -0.24627623 -0.21671978 0.20445254 -0.28885072
000200 62 da 1f 3d a3 6f 14 3c 80 21 21 be c5 8e 87 bc
       0.039026625 0.009059819 -0.15735435 -0.01654757
000210 84 10 9c bd 06 a7 f7 bc 9a cc b6 be 85 6c 0d bf
       -0.076203376 -0.03023101 -0.35702974 -0.5524371
000220 45 85 9b be 35 5c cd be ab b4 31 bb 92 7d fc 3c
       -0.30375114 -0.4010941 -0.0027115743 0.030821595
000230 ff 23 bd be dc 86 4f be 21 a2 8a 3d 96 8e 79 bd
       -0.36941525 -0.20266289 0.06769205 -0.060926996
000240 40 1d 28 be c0 75 cb bd dc 4c 46 be 2c 79 f1 be
       -0.16417408 -0.099345684 -0.19365257 -0.4716276
000250 ce 57 c1 3d 43 18 43 3d a1 96 9b 3e cc 36 1d be
       0.094405755 0.04763056 0.30388358 -0.15352935
000260 78 ad a1 be fc 05 b9 be 23 9d 3a be 5c d0 8f 3e
       -0.3157766 -0.36137378 -0.18224005 0.28088653
000270 12 db 13 3c c0 8b 9a be 00 39 9e bd b1 cc 07 3e
       0.009024398 -0.30184746 -0.07725716 0.13261677
000280 e5 95 43 be 22 3f 8b 3c bd 24 24 bf ec 74 41 be
       -0.19100149 0.016997878 -0.6411856 -0.18892258
000290 33 56 08 bf 83 fa e2 be e3 c5 55 3e 3d c8 ba be
       -0.5325653 -0.4433175 0.20876269 -0.36480895
0002a0 4a 19 4c 3b 68 0c 22 3e 30 b8 51 3e 8e 4f 28 bf
       0.0031143003 0.15825045 0.20480418 -0.6574639
0002b0 82 8d 5a 3e 99 06 2c be 53 ec c8 3d 29 72 fa bd
       0.21343043 -0.16799392 0.098107 -0.122288056
0002c0 bb 5f 58 bd 77 c4 92 be 80 c2 7a bd f0 16 d7 bd
       -0.05282567 -0.28665516 -0.061220646 -0.10502422
0002d0 66 3f e2 bd 55 2d 35 3e 5d 21 5c 3e 17 20 c5 be
       -0.110472485 0.17693074 0.21497102 -0.38501045
0002e0 e9 1b 09 bd 9f c2 0d bf a9 22 5a be 6d f1 e5 3d
       -0.033473883 -0.55375093 -0.21302284 0.11227689
0002f0 90 01 1a bf 3b 4e 23 be 9e c7 7e be 6d 21 23 3e
       -0.60158634 -0.15947811 -0.24880835 0.1593072
000300 71 8b 37 3e ca 7f 2f 3e 67 80 2b 3e 03 43 d0 be
       0.17924286 0.17138591 0.167482 -0.40676126
000310 d0 d6 01 bf a5 24 cd be 79 5a 70 3e 2a bd 88 be
       -0.507184 -0.4006702 0.23472013 -0.2670682
000320 18 fc eb bd 89 ee 05 3e 1b cd 05 be e8 a8 a5 bd
       -0.115226924 0.13079275 -0.13066523 -0.08088857
000330 aa 18 d2 be 3b 06 0c bf c0 e5 41 3d 4b 4d 83 be
       -0.41034442 -0.54697007 0.047338247 -0.25644907
000340 cd 66 b9 3d 4b 50 6b bd 59 71 b7 be d5 ab a0 3c
       0.09052811 -0.05744962 -0.35828665 0.019613186
000350 77 df a5 be e5 86 a0 ba a5 f8 ec be a0 c5 3b be
       -0.32397053 -0.0012247233 -0.4628345 -0.18337107
000360 a5 33 20 bf 17 a2 a9 be f8 84 16 be 5f 8b 93 bd
       -0.62578803 -0.33131477 -0.14699161 -0.07204317
000370 f6 87 2c bf fb 44 b6 be 2e 6b 23 3d 95 36 0f be
       -0.6739496 -0.35599503 0.039897136 -0.13985665
000380 22 fd 51 bd 2a 3f d8 3b b5 38 39 be 92 4b 8e 3e
       -0.051266797 0.0065993266 -0.18088038 0.2779203
000390 7a 00 ef be 50 fd 88 be 4f bd 9d 3d 65 5a 2c bf
       -0.4668005 -0.26755762 0.077021234 -0.6732543
0003a0 09 ae 97 3e 04 18 bc be 3c ae 30 be 63 e6 06 bf
       0.29624966 -0.36737072 -0.17253965 -0.5269529
0003b0 dc 23 31 be 7a 97 eb bd eb 67 89 3d 8e d1 18 3d
       -0.17298836 -0.11503501 0.06709274 0.037309222
0003c0 d3 5e 8f 3e d6 48 90 3e 0b 1c 18 bf 79 88 5c be
       0.28002033 0.2818057 -0.5941779 -0.21536435
0003d0 20 da 2f bf e4 5a ac 3b 4a ce 04 bf 46 11 90 bd
       -0.6869221 0.0052598584 -0.5187727 -0.07034545
0003e0 38 05 b0 be 5e 3a e2 3c 64 b7 35 be b8 21 48 be
       -0.34378982 0.027615722 -0.17745739 -0.19544113
0003f0 39 5b ca bb ec ee 40 bd ef a4 9a 3e 28 d1 94 bc
       -0.0061754254 -0.047102854 0.3020396 -0.01816614

network.3.weight f4 [256, 256]
000000 3c e0 01 3d ef 17 44 ba c6 6d 37 bd d5 ed e3 bc
       0.031707987 -0.0007480373 -0.044782422 -0.027823368
000010 a6 ae 3f bd 8b b8 99 3c cc 3b 2c 3d be d9 37 bd
       -0.046797417 0.018764755 0.042049214 -0.04488539
000020 c2 f6 6e 3d 6d b1 79 ba 8c 70 71 bd ea 33 9b bd
       0.058340795 -0.00095250347 -0.058945224 -0.07578261
000030 37 8e 0e bd a9 73 18 bd 37 0a e1 bd 25 3e 66 3d
       -0.034803595 -0.037219677 -0.109882765 0.05621161
000040 3d 13 06 bc 74 42 9a 3c f4 d2 02 3d fc 4e b9 3c
       -0.008183298 0.018830515 0.03193946 0.02262067
000050 fb 33 76 bd 6c 06 7b 3d a0 4a d6 3b 50 94 ed bc
       -0.060108166 0.06128542 0.0065396577 -0.029001385
000060 c4 cc 5b bd 4b 9b 63 bd d0 d8 60 3d 89 49 7e bd
       -0.053662077 -0.05556802 0.05489427 -0.062081847
000070 c6 b8 6b 3d 0c 74 f2 3c b4 63 a1 3c fc 6e 73 bd
       0.05754926 0.029596351 0.019700862 -0.059432015
000080 8f e5 41 bd 08 77 30 bc 9a 44 4e bd b6 76 f5 bc
       -0.047338065 -0.010770567 -0.050358392 -0.029963832
000090 1b b3 09 3c d7 7f 2f bd 2f 2b 8d 3c e0 1c ac 3b
       0.0084045185 -0.042846527 0.017232506 0.0052524656
0000a0 f8 c2 12 bc 20 5f a1 bb 21 6f 6b bd f4 ca 3e 3d
       -0.008957617 -0.00492467 -0.057479028 0.04658027
0000b0 fd 16 cd bc e0 71 4a bc 81 12 d9 bc e0 aa 21 3d
       -0.025035376 -0.0123562515 -0.026498081 0.0394696
0000c0 c8 d7 a0 3c ea 76 82 bd 34 72 13 bd 50 b5 f8 bb
       0.019634143 -0.06370337 -0.035997584 -0.0075899735
0000d0 70 22 37 bd 6c 49 83 bc b6 4d 58 3d 59 52 1b bd
       -0.044710577 -0.016026221 0.052808486 -0.03792033
0000e0 96 e5 39 bd 24 03 b1 bc fe d7 79 3d 18 29 54 3c
       -0.045384966 -0.021607943 0.060997 0.012949251
0000f0 5d ee a8 bc 6e 8d 01 3d 08 17 87 bc fd dd 4c bc
       -0.020621473 0.03162902 -0.016490474 -0.012504098
000100 8a 53 8c bd ae 97 28 bd 38 c2 7a 3c 36 43 48 3d
       -0.06851871 -0.041160278 0.015305094 0.048892222
000110 d8 8a ad 3c b2 b3 4b bd 34 a7 03 3d da 52 5a 3d
       0.02118437 -0.049731918 0.03214188 0.05330167
000120 61 b8 e5 3c 30 21 39 3d a0 38 2c 3b 79 ee c0 bc
       0.02804202 0.045197666 0.0026278868 -0.023551213
000130 fb 15 36 bd 00 46 41 3b 24 59 58 3d cc 9a 9a 3c
       -0.044454556 0.0029491186 0.052819386 0.018872641
000140 b6 de 49 3d 82 13 e9 bc fd f3 72 bd 04 84 33 3d
       0.04928466 -0.028451685 -0.059314717 0.04382707
000150 70 df 78 bc b0 2e 57 3d b4 9a 67 3d 1c 74 05 bd
       -0.01518999 0.05253476 0.05654402 -0.032581434
000160 4d 50 75 bd 0e e6 68 3d 9c 02 ef 3c e0 1d 04 bb
       -0.059891034 0.056860022 0.029176049 -0.0020159408
000170 48 38 04 bd a0 57 f1 bb e3 bc c6 3b a0 e0 c9 3b
       -0.032280236 -0.007365182 0.0060649975 0.0061608106
000180 b0 eb b4 bc 27 a0 ec bc 54 dd 9a bd 04 72 5a bd
       -0.02208504 -0.02888496 -0.07561746 -0.05333139
000190 40 83 42 3d fc 73 8c 3c 8e 93 d8 ba 77 8a 82 3c
       0.04748845 0.01714515 -0.0016523467 0.015935166
0001a0 23 3e 65 bc 04 d5 c9 bc 5e 99 d9 bc 17 02 84 bd
       -0.013991865 -0.024637707 -0.026562389 -0.06445711
0001b0 53 b7 db bc 3a 7f af bc 68 65 56 3c 63 6f 06 3d
       -0.026820814 -0.021422971 0.013085701 0.03282107
0001c0 f4 fb 96 3c 64 42 88 bc 6f 58 2f bd 9f 45 88 bd
       0.018430687 -0.01663322 -0.042808946 -0.06653904
0001d0 d7 15 e6 3c 3f 78 a5 3c 00 e2 d9 3b 3f d0 16 3d
       0.028086586 0.02019894 0.0066492558 0.036819693
0001e0 91 83 ae bd a0 0f 10 3d da f7 11 bd a8 05 b5 3c
       -0.08521188 0.03517115 -0.03563676 0.022097424
0001f0 60 4b 77 3b d8 fe c8 3c 86 8b 19 3d b8 b9 88 3c
       0.0037734136 0.024535581 0.037486576 0.01669012
000200 aa 7c b3 bc ae 30 63 3d 4d 1f e9 3c f7 a3 81 bd
       -0.02191003 0.055466346 0.028457308 -0.06330102
000210 a6 7b 29 bd b7 72 93 bd 2a da 1b 3d 20 cf b1 bb
       -0.041377686 -0.071996145 0.038049854 -0.0054263026
000220 84 f0 e5 bc 08 1c 2c bc d8 5a 6d bd 76 cb 01 3d
       -0.028068788 -0.01050473 -0.057947963 0.031688176
000230 ee 4f 3a 3d e0 cf 7b bd 66 d7 83 bd ea cb 4c bd
       0.045486383 -0.061477542 -0.06437568 -0.049999155
000240 ac f4 27 bb 6c 99 7b bd a8 6c 25 bd df eb 3d 3d
       -0.0025628014 -0.06142561 -0.040386826 0.046367522
000250 61 ef 2b bd db 27 0d bd fe ff 67 3d 4a c7 4c 3d
       -0.041976336 -0.034461837 0.056640618 0.049994744
000260 c0 6e 92 bc 8c 25 24 3d 3b f7 6a 3c dc ec 85 bd
       -0.017875075 0.04007487 0.014341171 -0.06539318
000270 96 7e 1d 3d 30 6b 38 bd 86 49 10 3d 59 ec ab bc
       0.0384508 -0.045024097 0.035226367 -0.020986723
000280 8a 31 76 bd 45 fd 1c bd 28 9a 56 bd 18 1f 82 bc
       -0.060105838 -0.038327474 -0.05239311 -0.015883967
000290 a0 61 70 3b 40 57 eb 3b 8f 30 d7 3c b2 bf 15 3d
       0.0036679283 0.007182032 0.026268272 0.036559768
0002a0 c8 89 4e bd 40 47 72 3b 76 24 1f bb 40 b4 30 3c
       -0.050424367 0.0036968738 -0.0024283207 0.010785162
0002b0 11 13 17 3c 0f 94 7a bc cc 0c 12 bd 5c de 5c bd
       0.009220854 -0.015294089 -0.035656735 -0.053922996
0002c0 5a 5f b9 39 6a 6f 2d 3c e0 94 3f bd de ec 6e bd
       0.00035356992 0.010585645 -0.046772838 -0.058331363
0002d0 92 82 93 3c 37 d7 30 3d f8 91 cf bc 18 65 d3 3c
       0.018006597 0.043173995 -0.025338158 0.025805041
0002e0 78 6d cb bc 90 f0 e4 bb 20 ea 0c 3d 76 22 91 bd
       -0.024832472 -0.006986685 0.034402966 -0.07086651
0002f0 c4 ff ee 3c cb f7 4d 3a 72 29 56 3d 8f 92 a7 bd
       0.029174693 0.00078570534 0.05228562 -0.08182251
000300 c5 71 21 bd 15 fe 6e bd 92 38 56 3d 74 1d a1 3c
       -0.03941514 -0.05834778 0.052300043 0.019667365
000310 d0 41 ca 3c c8 3c cc bc 5f 24 99 3b a8 6c ac bc
       0.024689585 -0.024931327 0.004673525 -0.021047905
000320 2c 56 53 bd 8b a5 59 3c ca a3 97 bc 00 f2 6b b9
       -0.05159585 0.013284097 -0.018510718 -0.00022501498
000330 b0 a5 c2 3b 80 34 a1 3c ed 0a 5d bd 68 f8 58 bd
       0.0059401616 0.019678354 -0.053965498 -0.052971274
000340 39 21 bb bc 46 de 7f bd 40 39 7e bd 19 df c5 bb
       -0.02284299 -0.062467836 -0.062066317 -0.006038558
000350 c0 c3 f0 3a 0d 3e 11 bc f2 f2 2b 3d b6 3b 33 3c
       0.0018368885 -0.008864892 0.041979738 0.010939529
000360 1e be 52 3d 26 db 78 3d 14 aa 40 3d bb 50 5d bd
       0.05145084 0.06075587 0.0470372 -0.05403207
000370 80 e7 3e bc f0 57 f1 bc b8 6a 6f bd fe 61 a4 3a
       -0.011651874 -0.029460877 -0.058451384 0.0012541411
000380 e0 f6 4c bb b8 2d 79 bc 26 e1 72 bd 8f 45 9b 3c
       -0.0031275079 -0.015208654 -0.05929675 0.018954067
000390 a0 e3 4d bd e0 cb da 3b 54 c7 ce bc 00 78 69 3c
       -0.05026591 0.006677136 -0.025241531 0.014249802
0003a0 95 97 c8 bc 84 93 a8 3c 56 6f 63 bd 68 da 72 3c
       -0.024486342 0.020578153 -0.0555261 0.01482258
0003b0 df 61 48 3c 0f 30 04 3d 80 0a 69 bd 69 ad 20 bd
       0.012230366 0.032272395 -0.05689478 -0.039227877
0003c0 86 e1 9e bc a5 9f 93 3c 5a 37 54 3d 9c c7 92 3c
       -0.019394647 0.01802046 0.0518106 0.017917447
0003d0 c8 fe ff bc f3 62 4d 3c d8 8c 91 bc e0 ef 92 bd
       -0.031249419 0.012535798 -0.017767355 -0.07174659
0003e0 02 8c 4a 3d 8d 39 13 bc 1d de bd 3c 2a 35 32 3d
       0.049449928 -0.008985889 0.0231772 0.043507732
0003f0 e6 6a 21 bd a2 b7 67 3b 15 cd 10 3d f0 f4 3b 3d
       -0.039408587 0.0035357256 0.03535183 0.045887887

network.3.bias f4 [256]
000000 54 94 dc bc 5f 45 4b bd 2c 46 6a 3c 6d 3b 62 3e
       -0.026926197 -0.049626704 0.014298957 0.22092982
000010 5a 00 83 3e 13 84 58 bc 9d 5e 24 bd c1 35 8c 3e
       0.25586206 -0.013215083 -0.040129293 0.2738476
000020 44 ba e5 bc a5 2a 6b 3e d4 61 37 bd 4f 8e a4 3c
       -0.02804292 0.22965486 -0.04477103 0.02008739
000030 ab 94 80 3e 49 86 b5 3d a2 b0 b0 bb 15 5b 4c bd
       0.25113425 0.088635035 -0.00539215 -0.04989155
000040 46 0c 5c bd aa 15 67 3e 5c 71 24 3e d4 a7 9e bc
       -0.053722642 0.22566858 0.16058868 -0.019367136
000050 bf 57 c2 bb ee a2 42 3e 6e 9f c5 bb 98 d3 5b bd
       -0.0059308703 0.19007465 -0.0060309684 -0.05366859
000060 9c eb 84 3e c9 1e 68 3e 31 49 75 3e 8e be 1a bc
       0.25961006 0.22667994 0.23953702 -0.009444846
000070 be fb 6b 3e 47 21 6a bd fd 08 34 bd 9e 37 81 3e
       0.23045251 -0.057160642 -0.043953884 0.25237745
000080 8c aa 84 3e 66 76 c2 bc e7 35 60 bd 75 80 83 bc
       0.25911367 -0.023738097 -0.054738905 -0.016052464
000090 fb bf 59 3e fc b1 4e 3e fc c3 1d 3e 61 89 8c 3e
       0.21264641 0.20185083 0.15406793 0.27448562
0000a0 d6 88 3a bc db 5c 83 3e 09 3f 59 3e 15 b5 5b 3e
       -0.011385163 0.2565678 0.21215452 0.21455796
0000b0 54 ec 49 3e 72 b1 48 bc ee 44 e7 bb f0 13 1f be
       0.19719058 -0.0122493375 -0.0070577776 -0.1553495
0000c0 2d fe 51 bd 10 71 6d 3e 0f 75 7d bb e2 4f 58 3e
       -0.05126779 0.23187661 -0.0038674509 0.21124223
0000d0 63 50 ce bb df 00 3f bd 3d 94 8b 3e ec 9f 4c 3e
       -0.006296204 -0.04663169 0.27261534 0.1998288
0000e0 6f 7a 5c 3e 5d 1d 66 3e a7 f0 8c bd ff fe 7b 3e
       0.2153108 0.22472139 -0.06881838 0.24608992
0000f0 2f a3 68 3e 6f f3 1a bd 28 77 55 3e d6 03 9a 3e
       0.227185 -0.037829813 0.20846236 0.30081052
000100 6f b7 5f 3e a5 df 8d 3e 1c 08 16 bd 9c 7d 64 3e
       0.21847318 0.2770969 -0.036628827 0.22313541
000110 47 2c 3f bd 2b e6 4c bd 32 8a 95 3e 2b 7d 22 bc
       -0.046673086 -0.050024193 0.29206997 -0.009917538
000120 40 1f 2c 3e 5b 8f 09 bd 62 3b 3d 3e 11 4d 80 3e
       0.16808796 -0.03358398 0.18479684 0.25058797
000130 81 06 76 3e 4d 39 53 bd bb 63 4a 3e b0 85 34 bb
       0.24025919 -0.05156832 0.19764607 -0.0027545504
000140 88 53 79 bc 5c 69 46 3e 12 e6 57 3e 92 e3 cb bb
       -0.015217669 0.19376129 0.21083859 -0.006222197
000150 7f bd 83 bd 69 64 5d 3e fb 74 6e 3e 0b 6e 71 bd
       -0.06432628 0.21620335 0.23286812 -0.058942836
000160 64 33 d9 3d 22 e0 42 bd 98 fc 54 3e c5 d7 8d 3e
       0.10605505 -0.04757703 0.20799482 0.27703682
000170 1e 83 65 3e 8f 8d 4a 3e cf 11 54 3e 0f bf 84 3e
       0.22413298 0.19780563 0.20709918 0.25927016
000180 7d 90 78 3e 63 89 1e 3e 9e 71 10 3e 66 21 93 3e
       0.24273868 0.15482096 0.14105842 0.28736418
000190 8b 2f 8e 3e e2 51 54 3e 28 a6 47 3e 0b 54 7d 3e
       0.27770647 0.20734361 0.19496977 0.24739091
0001a0 8d ce 5e 3e 3b fd 59 3c 60 0c 83 bc 60 4e 41 bc
       0.2175848 0.013305004 -0.015997112 -0.011798471
0001b0 b4 a0 80 3e 5d f0 85 3e 74 bf 81 bd ea ca 57 3e
       0.25122607 0.26159945 -0.06335345 0.210735
0001c0 1b 72 80 3e bb a8 67 3e f3 d7 3e 3e 1e 23 71 3e
       0.25087056 0.2262296 0.18637066 0.23548552
0001d0 f5 2a 57 3e 9b e4 3a 3e b6 34 84 3e cd f8 1e 3d
       0.2101248 0.18251269 0.25821465 0.038811494
0001e0 ab 88 40 3e 8b 7a 42 bd 5d 02 5d 3e d1 c9 f4 bc
       0.18802135 -0.047480147 0.21582933 -0.02988139
0001f0 74 d9 21 3e 62 de 0d 3e eb 2d 4b 3e 4a 77 35 3e
       0.15805608 0.13854364 0.19841735 0.17721286
000200 5d 04 9d bc c5 fb 8f bc 87 b5 f0 bc b0 56 31 3e
       -0.01916712 -0.017576108 -0.029383434 0.17318225
000210 b8 f0 56 3e 61 82 7c bd dc 6f 69 3e a6 48 63 3e
       0.20990264 -0.061647777 0.22796577 0.22195682
000220 50 23 18 bc 91 ff 7f 3e 46 34 4f bc 1c 84 52 3e
       -0.009285763 0.24999835 -0.01264674 0.20558208
000230 43 8a 13 bd a5 a5 67 3e 55 26 4b 3e 01 4f 70 3e
       -0.03602053 0.22621782 0.19838841 0.23467638
000240 c3 72 39 3e 25 10 47 3e 3e 3f 99 bd 37 66 16 bd
       0.18110184 0.19439752 -0.074827656 -0.036718573
000250 b1 ac 4a 3e 5b 08 29 3e 53 d2 5c 3e 8c 9c 4a 3e
       0.19792439 0.16507094 0.21564607 0.1978628
000260 ff 1b 96 3d 5a 75 75 3e 92 9d 93 bd 3e 4d 5f 3e
       0.073295586 0.23970547 -0.072077885 0.2180681
000270 ac 02 04 bd 6b 27 10 3b be 67 8b 3e af f3 a6 bc
       -0.03222911 0.0021996151 0.27227587 -0.02037987
000280 d8 0c 85 bd 16 4b 10 3e bb 21 e3 bb 99 5f 76 3e
       -0.064965904 0.14091143 -0.006931511 0.24059905
000290 08 4d 2c bd 83 80 0a bd 41 8a 83 3e d7 a8 7d 3e
       -0.04206565 -0.033813965 0.25691417 0.24771439
0002a0 99 2b 12 bd 5d a6 76 3e f5 c6 93 bc a2 7e 6c 3e
       -0.03568611 0.240869 -0.018039206 0.23095182
0002b0 0d d2 7b 3e c7 bf 4a 3e d8 18 85 bd 48 12 97 bd
       0.24591847 0.1979972 -0.06498879 -0.07376534
0002c0 df 76 67 bc 69 3a 6b 3e ee 3e 57 3e d6 51 65 bc
       -0.014127462 0.229715 0.210201 -0.013996562
0002d0 a2 55 21 39 ca 2b 51 3e f8 dd af bc c2 b2 4b bd
       0.00015386057 0.2042686 -0.021468148 -0.049731024
0002e0 ae 80 73 3e 8a 93 6c 3e 93 f3 74 3e d6 37 be bb
       0.23779556 0.23103157 0.23921041 -0.005804996
0002f0 a3 7b 6a bd 2d 37 01 bd e2 65 78 3e b3 d2 60 bc
       -0.057246815 -0.03154676 0.24257615 -0.01372211
000300 93 6b 27 3e ca d9 43 3e ab 31 5d 3e 8d 45 9e bc
       0.1634963 0.19126049 0.21600978 -0.019320274
000310 3f 5b 87 bd 41 a3 0d bd 0e 5f 4b 3e 08 22 8b 3e
       -0.06609201 -0.03457952 0.19860479 0.271744
000320 f3 96 4f 3e 86 0e 83 bd 57 a8 31 bd 71 ee 20 bd
       0.20272426 -0.063992545 -0.043373432 -0.039289895
000330 a7 3d 9f bc 7c d0 44 3e 90 cb 74 bd 35 01 2a bd
       -0.019438578 0.19220155 -0.059764445 -0.041505057
000340 ac 5b 57 bc aa c2 30 3e 31 8b ff 3b 0e 14 5a 3e
       -0.013144415 0.17261758 0.0077985753 0.21296713
000350 c5 33 1e bc a3 ff 27 bd b3 3b 54 3e c1 36 93 bd
       -0.0096558975 -0.04101528 0.20725898 -0.07188178
000360 3f 64 f9 3d 1f 3e 3c 3e 6f 94 c4 bc c1 89 72 3e
       0.121773235 0.18383072 -0.02399656 0.23685361
000370 9b 87 31 3e 7c ff 73 3e a5 54 12 bd 20 67 67 bd
       0.17336886 0.23827928 -0.035725255 -0.056494832
000380 e5 85 65 3e 9b 86 82 3e f4 33 83 bc ab 68 85 3e
       0.22414358 0.2549332 -0.016015984 0.26056418
000390 98 86 6d 3e 3e ce 68 3e ce 06 b1 3d 84 0c 3b bc
       0.23195875 0.22734925 0.08643876 -0.011416558
0003a0 e7 80 6d 3e 24 46 88 bd 8a f9 d5 bc 72 7b 4d 3e
       0.23193704 -0.06654003 -0.026119966 0.20066622
0003b0 81 62 df bc e3 be 5f 3e f9 94 86 3e 10 e6 6b 3e
       -0.02726865 0.21850161 0.26285532 0.2303698
0003c0 db 1f 69 3e 5e b9 f1 bb 29 96 33 3e f7 74 28 bd
       0.22766058 -0.007376834 0.1753775 -0.04112717
0003d0 79 76 64 3e 11 72 81 3e 9a e5 64 bd d8 4d 55 3e
       0.22310819 0.25282338 -0.055883028 0.20830476
0003e0 14 4b 47 3e bf 76 33 bd 4d 2b 78 3e 61 06 03 bd
       0.19462234 -0.043814417 0.24235268 -0.031988505
0003f0 db f4 8d 3e a7 08 53 3e 64 33 4e bd 7d ea cb bc
       0.27725872 0.2060877 -0.05034198 -0.024892086

network.6.weight f4 [256, 256]
000000 83 e6 22 3d 05 13 3b bd 5a 60 56 3d c1 e0 8b bd
       0.039770614 -0.045672435 0.05233798 -0.06829978
000010 c1 0c a7 bc e9 4a 10 3d e3 05 e3 3c 2e ab b2 3c
       -0.020391824 0.03522769 0.027712768 0.02181014
000020 3c 81 01 bd d6 e7 13 bd 69 88 18 3c d5 12 3e 3d
       -0.031617388 -0.036109768 0.009309866 0.04640468
000030 5d 9f e9 3c 6c 72 6c be ae b6 a7 bb 6a af 19 3d
       0.028518373 -0.23090523 -0.0051182127 0.037520804
000040 7d f8 4a bd d4 9c 77 bc 9e e5 2c 3b 4d 5e 56 3b
       -0.049553383 -0.015113074 0.002638198 0.0032710016
000050 a3 b3 27 bd 37 26 db bd e3 67 12 3b 1c a8 d1 bc
       -0.0409428 -0.10700648 0.0022339753 -0.025592856
000060 32 98 30 bd 12 5c de 3c e8 26 6a bd cd c2 3d bd
       -0.043113895 0.027143512 -0.05716601 -0.046328355
000070 da 81 93 bc 92 17 2f bc ff a3 20 3d 16 14 b3 bd
       -0.018006254 -0.010686772 0.0392189 -0.087440655
000080 80 cc 1e 3c 29 cd 3a 3d 94 95 3e bc d5 33 80 bd
       0.009692311 0.045605812 -0.011632342 -0.06259886
000090 5a 16 96 bc 75 9f b7 bb c4 c0 cf bc 51 cf 40 3c
       -0.018321205 -0.0056037256 -0.025360473 0.011768178
0000a0 86 b2 18 3d 27 aa 2e bd 68 ea 18 b7 1f 59 58 be
       0.03727963 -0.04264274 -9.114483e-06 -0.21127747
0000b0 f3 61 06 bd 21 56 0f 3d 98 e6 6c bd f8 b2 c6 3d
       -0.032808255 0.03499425 -0.0578371 0.09702104
0000c0 ff dd 45 bd aa 31 ab 3b 05 5d 07 bd 6d d0 b6 3c
       -0.048307415 0.0052244263 -0.033047695 0.022316182
0000d0 52 81 ce 3b 30 a6 0d bc a4 68 66 bd c1 b1 6e bd
       0.0063020373 -0.008645579 -0.056252137 -0.058274988
0000e0 ab 80 70 ba 46 81 9e 3c 62 79 69 3d a6 b7 d6 3c
       -0.00091744465 0.019348752 0.057000525 0.026210617
0000f0 dd 93 05 3e aa a4 5f bd 85 2a 27 3d a8 92 23 bc
       0.13044687 -0.054600395 0.040812034 -0.009983696
000100 47 d6 c4 3c 08 f1 4e 3c 1f 4f fd 3b d2 8d b7 36
       0.024027957 0.0126307085 0.0077303792 5.470335e-06
000110 cb d5 99 bb d5 22 cb 3b ee 31 26 bd 3e cc 20 3d
       -0.0046946756 0.0061992207 -0.04057496 0.03925728
000120 a7 53 83 be 00 28 e6 3a 1e 96 1f be e8 aa 6c bc
       -0.2564976 0.0017559528 -0.15584609 -0.014445044
000130 6a f1 f4 3c a9 29 95 3b 80 52 95 3d f3 72 5c bd
       0.029900271 0.0045520854 0.07291126 -0.05382056
000140 48 92 5e 3d fd 9d 09 bc f5 84 00 3d d1 4b 10 bd
       0.054338723 -0.008399484 0.031376798 -0.035228554
000150 2e 9b 43 3c c7 4c 75 3c e4 b4 10 3b ea b2 cd bc
       0.011938853 0.014971918 0.0022080475 -0.025109727
000160 4d af 0e 3d 10 83 89 3c f3 f9 97 bd 9c 85 31 3d
       0.03483515 0.016786128 -0.07420721 0.04334031
000170 53 fa 33 bc a4 4b 80 bc ee 20 60 be 7d 53 2b bd
       -0.010984975 -0.015661068 -0.21887562 -0.041827668
000180 56 c6 a1 bd 7f 69 5b 3d 1f 83 62 be 80 93 c3 3b
       -0.07899158 0.053567406 -0.22120331 0.005968511
000190 72 20 6c bd 12 5a dd 3c 86 bd 9a bd 71 0b d5 bd
       -0.05764813 0.027020488 -0.0755568 -0.10402573
0001a0 f9 62 9b bd 63 0e 33 3d dd 9d 1a bd fa 81 7c 3a
       -0.07587237 0.043714892 -0.037748206 0.0009632405
0001b0 65 67 01 bd 86 0e 08 bd 65 42 0b 3d 7b 16 ab bd
       -0.031592745 -0.033216976 0.033998866 -0.08353897
0001c0 5f ac 80 3d 2b 70 0f 3d 48 18 a1 3d dc 1c 97 bd
       0.06282877 0.03501908 0.078659594 -0.07378551
0001d0 23 31 a3 bd 6c b3 5e 3d 77 c9 16 bd b3 07 e6 3e
       -0.079683565 0.05437033 -0.036813226 0.4492775
0001e0 91 93 44 3c 65 b4 59 3d 34 fc 8e 3c c9 bd 01 bd
       0.011998073 0.053150553 0.017454244 -0.031675134
0001f0 0f d6 6d be 4d 3e fd be 0c e5 3d bd f8 cf 09 be
       -0.23226188 -0.49461594 -0.046361014 -0.1345824
000200 b2 ef d0 3c cf 5d f7 3c 47 a7 9e bc 5e c8 f8 3c
       0.02550492 0.030196099 -0.019366873 0.03036898
000210 93 db 44 3c e8 18 41 bd 71 0f ef 3c 8d f2 95 bd
       0.012015241 -0.047142893 0.029182168 -0.073216535
000220 43 a6 0f 3c 73 f1 54 bc f6 03 9f bc 8f 33 25 be
       0.008767667 -0.012997019 -0.019411068 -0.1613295
000230 d7 60 b3 bd e9 32 2e 3d 3f c8 a5 bc fe 06 83 3d
       -0.08758705 0.04252902 -0.020237086 0.06397818
000240 82 f4 46 b9 31 2b 29 bb bf 50 0d bd 67 1a 8f 3c
       -0.00018973838 -0.0025813098 -0.034500834 0.017468644
000250 b2 2b 46 3c ff 46 c1 be 28 de df 3b 97 23 1e 3e
       0.012095379 -0.37749478 0.006831903 0.15443264
000260 93 91 8f be e0 5b 0c 3e 65 58 85 3d f5 55 7e bd
       -0.28040752 0.13706923 0.065110005 -0.062093694
000270 87 9a 36 bd b1 b6 8d bc 16 1e 00 bd fa 4d 3e bd
       -0.044580963 -0.017299028 -0.031278692 -0.046461083
000280 c0 b2 c3 3a 84 d0 98 3d 25 fd 4b 3d d5 b7 36 bd
       0.0014930591 0.07461646 0.049801964 -0.04460891
000290 ae 77 cc bc a8 9a 10 bd 15 b4 90 3c 5e b8 d3 bd
       -0.024959411 -0.03530374 0.017663995 -0.103378996
0002a0 56 09 77 3d 6f 43 26 bc bf c4 0f 3d d3 3f 68 3d
       0.060311638 -0.010147913 0.03509974 0.056701493
0002b0 2e a6 d1 bc 7a 22 46 3d e8 80 8d bd 76 c8 c9 3c
       -0.025591936 0.048372723 -0.069093525 0.02463172
0002c0 bb f5 1a bd c6 c9 76 bd 27 75 85 3c 16 bd 25 3d
       -0.037832003 -0.06025102 0.016291214 0.04046353
0002d0 26 d9 55 3d fc bd 02 3d 3c a0 af bc e7 07 35 3d
       0.052209042 0.031919464 -0.02143871 0.04419699
0002e0 d5 3c 25 3c 6a c3 32 bd 73 75 84 bd bd 96 79 bd
       0.010085304 -0.043643393 -0.06467714 -0.06093477
0002f0 fd a3 10 3a ca 07 85 3d 7e ed a4 bd a8 59 a4 3d
       0.00055176 0.06495626 -0.080531105 0.08024913
000300 97 f3 48 be 57 fb 01 3c 9c 07 95 bd 24 3b e6 bc
       -0.19624172 0.007933459 -0.07276842 -0.028104372
000310 76 6c f9 3c aa ec 89 bc bf e1 31 3d cb 12 6a 3c
       0.030447226 -0.016836483 0.04342818 0.014286707
000320 7d 9c c8 3c 63 1a 9e 3c c6 d6 5d 3d c3 52 5b 3d
       0.024488682 0.019299692 0.054159902 0.053545725
000330 3f 9a 5d 3d bf 67 80 bd 45 9a 75 3d ac c1 05 bd
       0.05410218 -0.06269788 0.059961576 -0.032655403
000340 b4 45 8a 3d 09 56 90 bd 82 25 58 bc de 7c 64 bd
       0.06751576 -0.0704766 -0.013192536 -0.055783145
000350 42 3f 57 3c e0 31 eb 3b fd 48 c7 bd ac f2 25 bd
       0.01313764 0.0071775764 -0.09730718 -0.040514633
000360 73 20 02 bf 60 89 3c be a5 59 4e bd ae b1 a1 bd
       -0.50830764 -0.1841178 -0.05037846 -0.07895218
000370 e1 f5 2c bd f5 35 8f bd 6b e0 db 3c 16 23 4b bd
       -0.042226676 -0.06992713 0.02684041 -0.049594007
000380 b5 50 6a bd 2e d2 93 3d b0 32 01 bc 30 ba 57 3c
       -0.057205874 0.07217823 -0.00788562 0.013166949
000390 fc 19 d0 bc b7 24 14 bd 14 7b 31 be 4b bf 40 bc
       -0.025403015 -0.036167827 -0.17332107 -0.011764358
0003a0 2b c3 03 3c e2 8c 33 3d 4b c7 77 3d 22 db 0a bc
       0.008042137 0.04383553 0.060492795 -0.008475097
0003b0 e2 19 19 bd f7 dc 33 be c9 32 87 3d 1b 05 93 3c
       -0.0373782 -0.1756476 0.066014834 0.01794677
0003c0 dc 8a 6f 3b 7c 9e 0f bd f6 3e 18 bd d9 05 b0 3c
       0.0036551272 -0.03506325 -0.03716942 0.021487163
0003d0 5b 52 b4 bd 35 6a 08 3d 28 d0 30 bd c7 82 21 3d
       -0.088047706 0.033304412 -0.043167263 0.03943136
0003e0 5c 48 2a 3e 10 8e ff bc 64 cb 2d bc 57 db 4e bd
       0.16629165 -0.03119567 -0.010607574 -0.050502148
0003f0 ab 36 09 bd cc d2 68 ba 55 be a5 3d b5 70 c4 bc
       -0.0334994 -0.0008881509 0.080929436 -0.023979524

network.6.bias f4 [256]
000000 2b c8 18 40 6c f1 56 bd bf 7d 1c 40 27 05 1b 40
       2.3872173 -0.05247633 2.445175 2.4221895
000010 3f 1f 1d 40 6d a1 8c bc 38 19 97 3e 06 ea 1d 40
       2.455032 -0.017166818 0.29511428 2.4674087
000020 02 09 68 3e 07 de 12 bd 60 ea 1a 40 26 82 81 bd
       0.22659686 -0.035856273 2.420555 -0.06323652
000030 8b 0b 86 3f ad be 77 bc e6 4f 77 bd 46 63 1b 40
       1.0472273 -0.015121144 -0.06037893 2.4279342
000040 3e 54 80 bd 29 f5 5e 3e 53 c7 18 40 27 94 e7 3e
       -0.06266068 0.21773209 2.3871658 0.4523022
000050 aa fd 20 40 93 bc 17 40 9e 89 22 bd b4 7f 1b 40
       2.5154824 2.3708847 -0.039682023 2.4296694
000060 12 40 4b 3e 9e d2 47 bd e7 f0 96 3e 8e 84 1d 40
       0.1984866 -0.048784845 0.2948067 2.4612155
000070 6c 0e b1 3e 20 d5 34 bc 36 a4 1e 40 47 7d 72 bc
       0.34581316 -0.011037141 2.4787726 -0.014800376
000080 40 17 0d 3e 12 49 1b 40 76 90 1b 40 f8 6d 85 3e
       0.137784 2.4263349 2.4306922 0.26060462
000090 e9 03 81 3a 67 d3 b7 bb ba b3 0c bd de 24 1e 40
       0.0009843084 -0.005609918 -0.034351088 2.4710002
0000a0 11 c6 1d 40 c8 90 18 40 dd ac a5 3e 31 1e 3b bd
       2.465214 2.3838367 0.32358447 -0.04568309
0000b0 b8 08 bd 3e 6d c2 1e 40 0b 1b 9b bc e7 f0 bd 3d
       0.36920714 2.4806168 -0.018933794 0.09274464
0000c0 84 cd 9b 3e d9 fe 15 bd f0 66 ed bc 2a 91 1e 40
       0.30430233 -0.036619995 -0.028979748 2.47761
0000d0 45 19 1e 40 41 4a 1b 40 81 30 69 3e 79 a5 21 40
       2.4702923 2.426407 0.22772409 2.5257246
0000e0 2e f9 66 bd 07 ef ce bc 39 12 1f 40 43 08 53 bd
       -0.05638998 -0.025260461 2.4854872 -0.05152155
0000f0 62 56 c9 bc 57 2e 20 40 b9 8e 71 bd a3 13 1c 40
       -0.024577323 2.5028284 -0.058974 2.4386985
000100 fc ad 18 40 9f b1 ad 3e 1d 30 19 40 66 9e 98 bd
       2.3856192 0.33924577 2.3935616 -0.07452087
000110 fc 4c bc bc c4 6f 83 bd b8 da b2 bc a9 05 b0 bc
       -0.022985928 -0.06417802 -0.021832809 -0.021487074
000120 a9 01 b4 3e 53 9b 81 bd cc a3 dc bc 97 d2 98 bc
       0.35157517 -0.06328454 -0.026933573 -0.018655105
000130 79 f4 9e bc fa 06 97 3e d4 53 d6 bc 14 73 6e bd
       -0.019403683 0.2949751 -0.02616302 -0.058215216
000140 f4 22 1d 40 ae 09 db bc 3f 93 1f 40 f7 b5 1d 40
       2.4552584 -0.026738014 2.4933622 2.4642313
000150 df 59 9f bd cf f4 16 40 9f 64 4d bd 4d 27 e8 3d
       -0.077808134 2.358692 -0.050144788 0.11335621
000160 b5 76 8a 3e 7d 9e 1e 40 c5 cf 1a 40 99 8e 18 40
       0.2704369 2.4784234 2.4189312 2.3837035
000170 78 4e 83 3e ab 84 d0 bc 58 cb 1c 40 58 0c 8b bd
       0.25645804 -0.025453886 2.449911 -0.06789464
000180 cd 9e 1c 40 78 3f 1c 40 8a e3 a7 3e f6 fa 83 bc
       2.4471924 2.4413738 0.32790786 -0.016110878
000190 bd a6 1a 40 d5 dd 1a 40 22 50 1a 40 25 20 1a 40
       2.416427 2.4197896 2.411141 2.408212
0001a0 e3 6a 19 40 8e 8b 20 40 ec cc 1a 40 7f 71 fc 3d
       2.3971488 2.5085177 2.4187574 0.12326335
0001b0 6b 61 80 3e f2 be c8 bb 46 31 1c 40 59 d5 a2 bc
       0.25074324 -0.006126278 2.4405074 -0.019877123
0001c0 5b 12 8c 3e ca 30 1d 40 e0 9c 8f bd 58 2c ac bb
       0.27357754 2.4561028 -0.070123434 -0.0052543096
0001d0 6e 9b 4c bd 48 38 b8 3e c0 9e a6 bc 45 09 9c 3e
       -0.049952917 0.3598044 -0.02033937 0.30475822
0001e0 ad fa 1d 40 54 bb 55 bd bb 8d 15 bd 55 e9 31 bc
       2.468425 -0.052180603 -0.036512118 -0.010858853
0001f0 9f 6f 89 bc 8f 62 21 bd 0f 38 1b 40 11 be 9c 3e
       -0.016776858 -0.039400633 2.4252965 0.3061376
000200 fc 44 f8 3d 07 90 1c 40 1a b1 17 40 01 a9 06 bd
       0.12122533 2.4462907 2.3701844 -0.03287602
000210 35 0a f4 bc e3 86 1b 40 9b 5f 0d bd e1 35 19 40
       -0.029790023 2.4301078 -0.034515005 2.3939135
000220 53 ca 8a bc cd 02 d1 3e a5 ec e7 bc 83 93 0b bd
       -0.016942179 0.4082245 -0.028311083 -0.034076225
000230 6d 4e 11 40 54 1a 3f bd 64 e2 10 40 26 80 16 40
       2.2704117 -0.046655968 2.2638178 2.3515716
000240 91 37 1f 40 8a dd 39 bd 0a e0 1e bd 6f cd 42 bd
       2.4877665 -0.04537729 -0.03878788 -0.047559198
000250 0e 59 59 3d 9a 7f ba 3f cb 3a 1b 40 aa 79 18 40
       0.053063445 1.4570191 2.4254634 2.3824258
000260 c6 5f 4c bd c0 93 65 bb 15 ae 20 40 52 c7 1c 40
       -0.049896024 -0.0035030693 2.5106251 2.4496655
000270 5a 0e 1d 40 d3 e6 1e 40 be 94 16 b9 7b b6 1a 40
       2.454001 2.4828384 -0.00014360526 2.4173877
000280 65 ba 1d bd 56 7f 01 bd 26 f8 d0 bb dc d4 41 3e
       -0.038507838 -0.031615578 -0.006377238 0.18928856
000290 83 f7 82 bd 3c 16 1f 40 80 57 4a bd d4 55 43 3e
       -0.06394865 2.485732 -0.049399853 0.1907571
0002a0 41 b3 a5 3d e3 b8 34 bd cc 10 1b 40 a0 c3 eb bb
       0.080908306 -0.044121634 2.4229002 -0.007194951
0002b0 ee 6f 1e 40 16 6f 78 bd b4 52 84 bd ff 4a 8a bd
       2.4755816 -0.060652815 -0.06461087 -0.067525856
0002c0 d4 21 20 3e d8 8d 1b 40 47 01 94 3e 74 86 9e bc
       0.15637904 2.4305325 0.28907225 -0.019351222
0002d0 ef 92 1d 40 a0 29 1a 40 b1 e8 77 bd d9 c0 c6 bb
       2.462093 2.4087906 -0.060524646 -0.0060654697
0002e0 2f 99 31 bd b1 cc 70 3e 77 1e 1f 40 79 da 1d bd
       -0.043358978 0.23515584 2.4862344 -0.03853843
0002f0 dc 56 17 40 31 5e 1e 40 80 4c d1 3d b8 12 1f 40
       2.3646765 2.474499 0.10219669 2.4855175
000300 57 c8 60 bc d2 19 97 bb 68 f9 1b 40 82 ff 5e bd
       -0.01371964 -0.0046112323 2.4370975 -0.05444289
000310 1e ad 8d bd 7c 2d 66 bd b7 f4 c5 3e 0c 3f 56 bd
       -0.06917785 -0.05619572 0.38663265 -0.05230622
000320 82 88 29 bd 5e a7 9a bd 9b 8d 75 3e 9d f5 1f 40
       -0.04138995 -0.07551454 0.239798 2.499366
000330 2e 6b bc bc 9b 1b 31 bd 7e 01 74 bd 40 96 20 40
       -0.023000326 -0.043239217 -0.059571736 2.5091705
000340 2c 5c 1a bd 90 c4 24 3e 3b 6b 1b 40 fc 1a 7a bd
       -0.03768556 0.16090608 2.4284198 -0.06106089
000350 ca 0b e1 3e bb e6 73 bd 09 7b dd bc fb c4 1d 40
       0.43954307 -0.059546214 -0.027036207 2.4651477
000360 27 c8 a5 3e ac d7 a4 bc 14 e0 36 bc 25 60 05 bd
       0.32379267 -0.020122372 -0.011161823 -0.032562394
000370 c4 d4 17 bd 56 5a 20 40 47 64 70 3e 97 72 23 3e
       -0.037068143 2.5055137 0.23475753 0.15961681
000380 fc d1 26 bd 51 3f ab 3f a0 7d 1e bd 90 e6 1d 40
       -0.0407276 1.3378698 -0.038694024 2.4671974
000390 87 20 49 bd 34 0c 1e 40 a8 15 4d bd 17 d6 16 bd
       -0.049103286 2.4694948 -0.05006948 -0.036825266
0003a0 13 4e 62 3e 47 d2 70 3d 33 e6 5f bc f7 53 b2 bc
       0.22100095 0.058794286 -0.013665724 -0.021768553
0003b0 7c e9 81 bd 71 10 9a 3d 8e 0f 1f 40 46 c9 55 bd
       -0.06343362 0.07522667 2.4853244 -0.052193902
0003c0 53 ac 8f bd 75 9d 64 bd fe 92 20 40 17 54 f7 bc
       -0.0701529 -0.055814225 2.5089717 -0.030191464
0003d0 a1 1a fd 3d 17 a8 19 40 15 a1 6e bc bc 30 0f 40
       0.12358595 2.4008844 -0.014564772 2.2373495
0003e0 ac c8 1f 40 7b 97 18 40 6b e2 83 bd f9 8e 99 3d
       2.496623 2.3842456 -0.0643967 0.07497973
0003f0 2d 99 8b 3e 8e 0e 1c 40 83 f4 1b 40 da 04 7f bd
       0.272653 2.4383883 2.4367988 -0.062260486

network.8.weight f4 [3, 256]
000000 8a 41 10 3f 28 7e fc 3c 01 ca e3 3e d7 24 de 3e
       0.56350005 0.030821875 0.44490054 0.43387482
000010 d7 30 ff 3e e5 2a 27 bd 9a 07 21 3e d8 91 e3 3e
       0.4984195 -0.04081239 0.15725556 0.44447207
000020 10 32 02 3e 9b a1 35 bc 9a 7c d9 3e 7a cf c5 bc
       0.1271441 -0.011085893 0.42477876 -0.024146784
000030 98 15 a8 3f be 03 85 3c 39 2a 38 bd ae 17 ed 3e
       1.313159 0.016237136 -0.04496214 0.4630713
000040 ad bd c2 bc d7 46 d8 3d 3c f7 d6 3e 09 77 b9 3e
       -0.023772085 0.10560387 0.419855 0.3622363
000050 c9 d0 df 3e 6b e9 ca 3e 53 ea 7b 3b 06 ff e7 3e
       0.43713978 0.3963121 0.0038439229 0.45311755
000060 22 04 82 3e 04 08 1c bd d0 77 42 3e fa d1 dc 3e
       0.25393778 -0.03809358 0.18991017 0.4312895
000070 d6 30 23 3e 94 f1 0b 3d fc a5 e7 3e 67 98 41 bc
       0.15936598 0.034165934 0.45243824 -0.011816121
000080 ea 1b e8 3d 07 74 f3 3e de 20 f6 3e f2 02 4d 3e
       0.11333449 0.4754946 0.4807195 0.20020655
000090 8d 36 56 bd 46 32 ef 3c 41 1c c5 3c 07 32 d0 3e
       -0.052298117 0.029198777 0.024061324 0.40663168
0000a0 e0 42 02 3f 64 d3 e9 3e c8 8d 86 3d e0 a8 3b 3d
       0.50883293 0.4566909 0.065700114 0.04581535
0000b0 da 38 c5 3e 09 5e d5 3e 06 77 93 bb d9 f3 47 3e
       0.38519937 0.41673306 -0.0045002727 0.19526614
0000c0 62 ae 88 3d ec d5 65 3d 0b 54 5a 3d 9f 1a ea 3e
       0.06673886 0.056112215 0.053302806 0.45723435
0000d0 bf 1e f9 3e 63 ba 08 3f 8b 29 03 3e 72 cf 56 3f
       0.4865627 0.53409404 0.12808816 0.83910286
0000e0 e1 fe 89 bc 54 bb ad 3c 6b b6 ee 3e bd 86 41 bd
       -0.016845169 0.02120749 0.4662355 -0.047247637
0000f0 a7 0b c6 3c e6 5a f3 3e a5 20 c0 bc 1b cb df 3e
       0.024175478 0.47530288 -0.023453066 0.43709645
000100 ef 67 c6 3e 0e b1 19 3e 2b 13 fc 3e e7 40 2b 3d
       0.3875117 0.15008947 0.49233374 0.041809943
000110 5a 25 51 3d 6b 8d 80 bc 47 7e 60 3c 7f 52 28 bd
       0.05106101 -0.015692433 0.013701982 -0.0410943
000120 f1 6f 8c 3e 65 34 ff bc 40 e7 f7 bb a2 66 80 3c
       0.27429155 -0.031152913 -0.007565409 0.01567394
000130 9a 9f 53 3d e6 5e ee bd d5 0a 3d 3d d3 0f 72 bd
       0.05166588 -0.11639194 0.04615291 -0.059097122
000140 87 29 e7 3e 45 22 89 bb a3 2b da 3e 6f e1 f6 3e
       0.4514887 -0.0041849934 0.42611417 0.48218867
000150 20 0e 43 3d 66 c1 1a 3f 82 f8 33 bd ec c9 30 3e
       0.047620893 0.6045135 -0.043938167 0.17264527
000160 7b 70 44 3e 52 ca e3 3e b8 d7 fa 3e 29 ec f4 3e
       0.19183533 0.44490296 0.48992705 0.47836426
000170 b6 77 48 3e 4b 19 8e 3d cc 8f e0 3e 18 c4 f5 3a
       0.19576916 0.06938418 0.43859708 0.0018750457
000180 cc 7b ef 3e 7f 7b dd 3e b4 84 bd 3e 55 f2 02 3d
       0.46774137 0.43258283 0.37015307 0.031969387
000190 20 43 06 3f 87 28 eb 3e 47 e2 df 3e d1 23 eb 3e
       0.52446175 0.45929357 0.43727323 0.45925763
0001a0 fa f1 df 3e 41 4a e7 3e 56 bb d3 3e 95 d6 d8 3d
       0.437393 0.4517384 0.41353863 0.10587803
0001b0 ba 00 26 3e 4c 58 1d 3c 22 62 f2 3e e6 81 e6 3c
       0.16211215 0.009603571 0.47340494 0.028138112
0001c0 83 79 85 3c c5 79 e7 3e 7c 0e 62 3d 34 c7 63 3e
       0.016293293 0.4521009 0.055189595 0.22243959
0001d0 30 55 03 bd 5c c6 ae 3e 37 30 1f 3e 00 06 7b 3e
       -0.032063663 0.3413571 0.15545736 0.24514008
0001e0 ea ce e2 3e ef f1 28 bd 23 f3 c9 ba b1 26 51 3c
       0.44298488 -0.04124635 -0.0015407543 0.012765572
0001f0 74 1d 7f bc 14 af 2c 3d f5 f5 dc 3e 49 82 d4 3d
       -0.015570987 0.042159155 0.431564 0.103764124
000200 9e df fb 3d a7 67 e1 3e 8e 6b e4 3e 06 42 8a 3d
       0.12298511 0.44024393 0.44613308 0.06750874
000210 e8 0a 26 bc d5 78 d6 3e c8 31 b0 bc 57 97 dd 3e
       -0.010134436 0.41889063 -0.021508113 0.43279526
000220 a7 07 42 3c 92 f1 a6 3e d4 1c ab 3c 04 3d 84 bc
       0.011842645 0.3260618 0.02088777 -0.016142376
000230 b2 77 15 3f 10 1b 2a bd f5 7a f6 3e 98 29 c5 3e
       0.58385766 -0.041529715 0.48140684 0.38508296
000240 b1 ba ea 3e 75 3b 14 3d b8 cb 0d 3d 14 40 cd 3b
       0.4584556 0.036189515 0.03461811 0.006263742
000250 d9 50 c7 bb 1c 99 95 3f c2 92 d0 3e 93 b6 d4 3e
       -0.006082636 1.168735 0.40736967 0.41545543
000260 dc cb 80 bc a4 04 59 3d aa 4e e7 3e 76 2c f1 3e
       -0.015722208 0.05298294 0.45177203 0.47104234
000270 d0 fe d1 3e ff 26 df 3e 2a dd 40 3d 52 29 cf 3e
       0.4101472 0.4358444 0.04708592 0.40461212
000280 fc 67 07 bd 64 ab 9a bb 9b 97 68 bd 47 d9 f3 3d
       -0.03305815 -0.0047201384 -0.056785207 0.11906677
000290 14 f3 78 bc db 11 ed 3e 06 88 94 3c c9 a0 8b 3e
       -0.015194673 0.46302685 0.018131267 0.27271107
0002a0 a0 10 38 3e 2c c8 08 bd c2 a4 de 3e c8 88 18 3c
       0.17975092 -0.033394024 0.43485075 0.009309955
0002b0 70 b4 db 3e aa c8 3a 3d ef 7b b8 3c 70 8d 72 3c
       0.429111 0.045601524 0.022520034 0.014804229
0002c0 1f d7 51 3e 8b 76 ed 3e 22 d2 43 3e cf c2 20 bc
       0.20492218 0.46379504 0.19123128 -0.009812071
0002d0 12 90 fd 3e fa 4d e4 3e 6d fd 37 3d 60 01 ed bb
       0.4952398 0.4459074 0.04491942 -0.00723283
0002e0 10 6c 17 3d ae 4f 35 3e 49 37 dc 3e d4 d4 49 bc
       0.03696829 0.17706177 0.4301093 -0.012318809
0002f0 fb a2 d0 3e 7c 14 4f 3f a0 25 04 3e 00 d1 e8 3e
       0.40749344 0.8089063 0.12904978 0.45471954
000300 b0 5c f0 bc 38 c8 f0 bc f9 2d eb 3e 32 77 d8 bc
       -0.029341072 -0.029392347 0.45933512 -0.026424024
000310 09 69 3b bd d9 ab e2 bc f8 86 a9 3e b4 d8 b1 3b
       -0.045754466 -0.027669834 0.33110785 0.0054274444
000320 fe 70 67 bc 34 f2 ab 3b 49 a3 7c 3e 01 35 ec 3e
       -0.0141260605 0.0052473787 0.24671663 0.4613419
000330 d9 1e 97 bc 0c ef a3 bc 97 1b f5 3a e9 29 eb 3e
       -0.018447326 -0.020011447 0.0018700239 0.45930412
000340 6b 3e 77 bc 53 c5 12 3e 29 74 cb 3e cd 34 46 3d
       -0.015090565 0.14333086 0.3973706 0.0483902
000350 6c 9a d3 3e 38 d3 87 3b e7 4f 3e bd bc be 07 3f
       0.41328752 0.0041450523 -0.04646292 0.5302541
000360 78 74 9d 3e 11 b3 01 bc 52 f2 fb 3c 8d aa 88 bc
       0.3075292 -0.007916228 0.030755196 -0.016682887
000370 2f 8e 7b bc 7d d9 e5 3e 04 6d a9 3e cc 26 44 bd
       -0.015353723 0.44892493 0.33090985 -0.047888562
000380 4b ed 3d 3c 4e 8d a4 3f c7 11 0a bc 5b fb d6 3e
       0.01159222 1.2855623 -0.00842709 0.41988644
000390 af 7f 11 bc c7 28 f1 3e 5c f0 2f bd f1 f6 09 bd
       -0.00888054 0.47101423 -0.042953834 -0.033682767
0003a0 2d 88 e7 3c 8c 2a b3 3d 37 da 5c bc 00 23 40 bb
       0.028263176 0.087483495 -0.013479761 -0.0029317737
0003b0 61 d2 87 3c 71 5c 07 3e 8f 58 dc 3e ae 4b a5 3c
       0.016579809 0.13218857 0.43036315 0.020177688
0003c0 a9 93 fb bb cb 82 76 3d b0 8b db 3e cc 2e 3f bb
       -0.0076775146 0.060183328 0.4288001 -0.002917218
0003d0 b3 3b c0 3e 11 a7 eb 3e 32 a1 01 bd 9d 23 01 3f
       0.37545547 0.460259 -0.03164787 0.50444967
0003e0 06 fe ee 3e cc 8a e3 3e 9a 3a 4c 3c 73 7e 42 3d
       0.4667818 0.4444183 0.012465144 0.047483873
0003f0 ea e2 ad 3e 01 9e ea 3e fc e1 e3 3e eb 81 7a 3d
       0.33962184 0.45823672 0.4450835 0.061159056

network.8.bias f4 [3]
000000 93 23 bc 3f 10 fb bc 3f 72 b1 f5 3f
       1.4698356 1.4764118 1.9194777
