mountaincar_cl_project/mountaincar_cl/runs/periodic/fixed/seed_0/online_stream_model.pth (torch, 536437 bytes, 8 tensors)

network.0.weight f4 [256, 2]
0.30927938 -0.5459516 -0.02590984 2.3695717 0.4405355 0.17236002 -0.12670407 2.0867352
-0.64610755 -1.239916 0.35996014 0.08555496 0.08594439 2.5732293 -0.49426198 0.60989434
-0.61365664 -1.900085 -0.14166206 2.2689323 0.33767563 0.12389004 0.6086399 0.123266704
0.1813203 2.8226526 0.16820717 0.12028122 0.23185915 2.6877992 0.021840671 1.8704222
-0.36343506 -0.31994066 0.75192136 0.7123827 0.474041 2.887796 -0.24735387 1.2076199
0.887231 2.7691412 0.43604022 0.6104087 0.83084476 0.50349057 0.37156543 0.8345552
0.40617734 -0.6462083 0.050966382 2.842795 0.68253624 -1.1858494 -0.004636196 2.2652133
-0.46127182 -2.0825841 -0.08276688 1.6233001 0.3177864 -0.053560555 0.60958326 0.94522643
-0.03029283 1.8951178 0.15960309 1.7767372 0.33730853 1.00581 0.9554478 -0.32952383
0.20545568 1.6419162 0.25657457 2.0649028 0.8451352 -1.200401 -0.4551312 -2.2568672
0.14287376 -0.2580873 0.33511776 -0.5100751 -0.40206918 -2.9014025 -0.036380816 2.6463072
0.28433758 4.4407606 -0.13852948 0.015652902 0.5880521 -0.720495 0.0727685 1.9131697
0.22257352 3.293579 0.08134669 0.06252444 -0.19420457 2.3167505 0.31557876 -0.3218973
0.31712455 0.5549516 0.44969195 -0.19381458 -0.042901445 2.1666145 -0.045285523 -0.5933242
0.5819966 3.9234734 0.07148286 1.8478513 -0.1517115 2.1704216 0.41405565 -0.68971276
0.506015 -0.11128807 0.09130903 2.7490056 0.5778314 0.56412864 0.051928103 -0.7001706
0.6723472 1.1044377 -0.20483762 -2.4738293 -0.21704718 1.9870547 -0.24603802 -2.6736305
0.6195186 0.21449488 0.5927638 1.4961619 0.40593037 2.736909 -0.36768046 -1.7642965
0.21974142 1.298703 -0.19537511 2.2703326 0.18133034 -3.153968 0.04033047 2.91698
0.8730472 0.5802382 0.24637944 0.31024915 -0.035028994 0.43619972 -0.52714217 -0.7744166
0.025523782 0.35059172 0.06820118 4.289565 0.32441908 -0.6852048 0.70616347 0.4448678
-0.33158565 0.30361176 0.40889123 1.1036156 0.61131465 -1.0576061 0.77011347 1.1584712
0.33447188 0.6097426 -0.069837384 2.4331298 -0.10319115 2.868178 -0.0003822446 -0.24207649
0.809577 -0.2387069 -0.13411422 1.5826441 0.45934922 2.2827344 0.10138982 2.5098464
-0.1905148 -3.046412 0.39793128 -0.1200766 -0.21318778 0.49824816 0.67242974 -0.4226151
0.1336859 0.66029286 -0.0408355 0.42088324 0.32118577 0.1996023 0.34489042 0.022269607
0.047568142 1.964325 0.58632076 1.6068915 -0.01816833 0.18957424 0.8264937 1.5817696
0.3100536 2.4649985 0.17318922 -3.8501139 0.7680149 4.258875 0.0005122423 0.6887589
-0.2505142 -0.07730961 -0.07318079 2.8244843 0.2310657 1.421815 0.06402914 2.868378
-0.049999297 -0.4141619 0.47912127 0.11802417 0.39277875 2.6084898 -0.42459717 -3.2367074
-0.46249235 0.5310847 0.93728316 -0.12698844 0.30917868 3.0606391 -0.13792217 0.40677208
-0.12975667 2.4046428 0.7970586 -0.16497469 0.81900066 1.1303145 -0.2336156 -0.18677247
00000000: de59 9e3e 7cc3 0bbf df40 d4bc 10a7 1740
00000010: de8d e13e 257f 303e b6be 01be 128d 0540
00000020: 4e67 25bf 91b5 9ebf b24c b83e 7037 af3d
00000030: 9d03 b03d caaf 2440 e80f fdbe 0922 1c3f
00000040: 9a18 1dbf fc35 f3bf dc0f 11be 3036 1140
00000050: d2e3 ac3e 10ba fd3d d3cf 1b3f 4173 fc3d
00000060: 07ac 393e 57a6 3440 803e 2c3e 0056 f63d
00000070: 7c6c 6d3e e704 2c40 35eb b23c ff69 ef3f
00000080: 2914 babe 43cf a3be eb7d 403f b65e 363f
00000090: 80b5 f23e a6d1 3840 554a 7dbe 4a93 9a3f
000000a0: 9221 633f 9c39 3140 aa40 df3e bf43 1c3f
000000b0: 3eb2 543f c2e4 003f d33d be3e 69a5 553f
000000c0: 7af6 cf3e e86d 25bf 20c2 503d 5af0 3540
000000d0: b2ba 2e3f eac9 97bf 3beb 97bb 41f9 1040
000000e0: d22b ecbe 0f49 05c0 af81 a9bd 4cc8 cf3f
000000f0: e6b4 a23e 5062 5bbd a60d 1c3f 5cfa 713f
00000100: ab28 f8bc 3893 f23f fe6e 233e 206c e33f
00000110: b4b3 ac3e 62be 803f 3a98 743f 59b7 a8be
00000120: f962 523e 4f2a d23f be5d 833e 5e27 0440
00000130: c85a 583f bda6 99bf f506 e9be 8370 10c0
00000140: 804d 123e 0524 84be 8e94 ab3e 4894 02bf
00000150: 03dc cdbe 94b0 39c0 0d04 15bd 195d 2940
00000160: b294 913e b61a 8e40 acda 0dbe 843a 803c
00000170: 958a 163f 5c72 38bf a707 953d bfe2 f43f
00000180: 50ea 633e 00ca 5240 1899 a63d d00c 803d
00000190: 90dd 46be a445 1440 8a93 a13e b9cf a4be
000001a0: 265e a23e 4f11 0e3f 063e e63e 5477 46be
000001b0: 6db9 2fbd d0a9 0a40 507d 39bd 18e4 17bf
000001c0: bbfd 143f 301a 7b40 9b65 923d 6486 ec3f
000001d0: 425a 1bbe 30e8 0a40 1aff d33e 0491 30bf
000001e0: 338a 013f 00eb e3bd 3b00 bb3d b5ef 2f40
000001f0: c2ec 133f bc6a 103f 90b2 543d 613e 33bf
00000200: f21e 2c3f 375e 8d3f f4c0 51be 3853 1ec0
00000210: 9e41 5ebe cf57 fe3f 64f1 7bbe c31c 2bc0
00000220: c598 1e3f 8ca4 5b3e 5ebf 173f 3c82 bf3f
00000230: 1bd6 cf3e 8429 2f40 9d40 bcbe 78d4 e1bf
00000240: e503 613e e63b a63f 6a10 48be 214d 1140
00000250: a9ae 393e 9dda 49c0 9031 253d cdaf 3a40
00000260: 0580 5f3f 7e8a 143f e44a 7c3e fad8 9e3e
00000270: 907a 0fbd 9255 df3e caf2 06bf 2b40 46bf
00000280: 4017 d13c c280 b33e 0fad 8b3d 1e44 8940
00000290: 421a a63e 9569 2fbf 21c7 343f b6c5 e33e
000002a0: 98c5 a9be 0073 9b3e 315a d13e 4743 8d3f
000002b0: 1e7f 1c3f a35f 87bf 2826 453f c948 943f
000002c0: e63f ab3e 1718 1c3f e706 8fbd 66b8 1b40
000002d0: e255 d3bd 3a90 3740 0068 c8b9 e6e2 77be
000002e0: 7040 4f3f 956f 74be 3d55 09be 1594 ca3f
000002f0: d22f eb3e 5218 1240 77a5 cf3d 53a1 2040
00000300: 5016 43be 6af8 42c0 a6bd cb3e b8ea f5bd
00000310: e64d 5abe 621a ff3e 5b24 2c3f 0261 d8be
00000320: f5e4 083e f408 293f 2043 27bd 027e d73e
00000330: 7672 a43e 8c64 4c3e 7a95 b03e c06e b63c
00000340: d0d6 423d 006f fb3f 1e19 163f 9fae cd3f
00000350: c0d5 94bc c01f 423e 1795 533f 6d77 ca3f
00000360: 58bf 9e3e 89c2 1d40 8458 313e 4468 76c0
00000370: a09c 443f b448 8840 0048 063a 8152 303f
00000380: 6643 80be 8054 9ebd cfdf 95bd 5ac4 3440
00000390: 7d9c 6c3e 09fe b53f b621 833d 8193 3740
000003a0: 10cc 4cbd 070d d4be 624f f53e a8b6 f13d
000003b0: 4c1a c93e 7ff1 2640 cd64 d9be 3726 4fc0
000003c0: cccb ecbe 2bf5 073f caf1 6f3f 4209 02be
000003d0: ab4c 9e3e 83e1 4340 783b 0dbe 6e44 d03e
000003e0: efde 04be abe5 1940 080c 4c3f 20ef 28be
000003f0: 07aa 513f 25ae 903f ee38 6fbe 4841 3fbe

network.0.bias f4 [256]
-0.5495422 -0.057635717 0.219777 -0.044332366 -0.37886107 -0.38132057 0.013935277 -0.6236529
-0.44616935 -0.04986655 -0.25255716 -0.123000816 0.046088737 -0.5675634 0.07564317 0.010681685
-0.47340995 0.34559366 0.071184084 -0.08163207 0.039564162 -0.27834672 0.40981433 0.17358898
-0.32172865 0.022638561 0.04842978 -0.046864666 -0.4519733 -0.027669122 -0.67742133 -0.05415881
-0.05027346 0.0432439 -0.01584005 0.021913778 0.090564296 0.1551527 0.41640323 -0.44248807
-0.61734295 -0.37454656 -0.25410327 0.040269487 0.16937597 -0.16653357 0.026900308 0.06480918
0.060763475 -0.4737525 -0.07078409 -0.22218454 -0.44528466 -0.45124042 0.030154362 -0.6089056
0.24996756 0.023333704 -0.054212008 -0.68273056 -0.7011594 -0.18313296 0.26626423 -0.5387229
0.051489595 -0.30903813 -0.07697542 -0.36619034 -0.107461154 0.26744205 0.13533007 -0.3958191
0.08774006 -0.06668295 0.08111241 0.0960047 0.062684536 -0.6401825 -0.16461444 -0.51731426
-0.17283243 -0.0036094305 -0.2893275 -0.68314284 -0.43210664 0.13768846 -0.02700485 -0.12204421
-0.23485175 0.0061593894 -0.03460152 -0.6105879 -0.17664273 -0.049340434 0.07971902 0.028187051
-0.28349626 -0.44023326 -0.5100339 0.13567363 0.022767846 -0.4525984 -0.19250524 -0.6679697
0.0647299 0.27554187 -0.45353514 0.26539513 0.16053785 0.07498432 0.1106765 -0.4021438
-0.57138824 -0.02288335 0.08173845 0.013148395 -0.1708858 -0.6343166 0.1733591 -0.26270044
-0.70317423 0.07211934 0.08585264 -0.21449652 -0.1081559 -0.15540795 -0.15501355 -0.40207437
0.15953454 -0.042390395 -0.14663622 -0.16503614 0.17650606 0.07500166 -0.20356308 0.04305067
-0.6071084 -0.5028504 -0.013317256 -0.043401632 -0.051910333 -0.5526945 -0.30625385 -0.05597417
-0.24387667 -0.54189736 0.023540355 -0.3116257 0.125173 0.029737256 -0.07294206 0.09348692
0.060539436 -0.31164896 -0.3650901 -0.5374538 -0.5558644 -0.23321992 -0.018094478 -0.5014003
-0.07124236 0.060716305 -0.10943985 -0.21864107 -0.40215352 0.09585241 -0.05115984 -0.24776539
0.13543268 -0.48043495 -0.124105565 0.06117123 0.08248118 0.027698088 -0.3184497 -0.037663173
-0.20340112 -0.07304777 -0.043198846 -0.13686752 -0.586087 -0.040225204 -0.058436036 -0.70478946
-0.45402566 -0.030329525 -0.23326434 -0.4343446 -0.20322263 -0.062680505 0.026979964 0.123768784
0.050330415 -0.03276193 -0.58208734 -0.13736242 -0.2268328 -0.15578757 0.031205608 0.038687173
-0.2060764 -0.24094272 -0.46641746 0.12989475 -0.4246798 -0.024896879 -0.4544997 -0.11033137
-0.14516883 -0.4791751 -0.69919777 -0.10915518 -0.020472575 0.071152605 -0.6720359 -0.12606212
-0.15353903 -0.4581578 -0.025491143 -0.5535853 0.12563814 -0.6756631 -0.023253938 0.020651784
-0.034176547 -0.15215899 -0.59548235 0.26025814 0.071231626 -0.047053624 -0.078800425 0.17308816
-0.53377014 0.24270205 0.14109175 0.19902767 -0.010295339 -0.6059469 0.14779626 -0.13068636
0.060317263 0.0057747522 -0.2909078 -0.2496978 -0.15754056 0.017852016 0.07062225 0.0012190968
0.03944109 0.002171231 0.20807098 -0.54961026 -0.47764528 -0.19464836 -0.13668963 -0.54173577
00000000: ccae 0cbf 6e13 6cbd 390d 613e db95 35bd
00000010: 14fa c1be 733c c3be ca50 643c b7a7 1fbf
00000020: 4f70 e4be de40 4cbd 2c4f 81be dae7 fbbd
00000030: 8bc7 3c3d d64b 11bf ceea 9a3d 3c02 2f3c
00000040: ca62 f2be a7f1 b03e f6c8 913d b72e a7bd
00000050: 080e 223d 7683 8ebe 2fd3 d13e 4fc1 313e
00000060: 9eb9 a4be 8174 b93c 4e5e 463d 2af5 3fbd
00000070: 0b69 e7be 5baa e2bc 7c6b 2dbf a1d5 5dbd
00000080: 8beb 4dbd 8420 313d fec2 81bc 8684 b33c
00000090: c679 b93d 59e0 1e3e ce32 d53e cc8d e2be
000000a0: 300a 1ebf 91c4 bfbe d319 82be 9ef1 243d
000000b0: e570 2d3e c787 2abe 095e dc3c adba 843d
000000c0: 1fe3 783d b08f f2be 40f7 90bd 5884 63be
000000d0: 5afc e3be fc08 e7be 4806 f73c 3de1 1bbf
000000e0: 7ff7 7f3e 5326 bf3c 690d 5ebd 6ec7 2ebf
000000f0: 2f7f 33bf 3587 3bbe c953 883e bee9 09bf
00000100: c1e6 523d 3f3a 9ebe 4aa5 9dbd 4d7d bbbe
00000110: 9814 dcbd 2aee 883e f793 0a3e cda8 cabe
00000120: 10b1 b33d 1291 88bd 431e a63d 1d9e c43d
00000130: c060 803d 00e3 23bf b090 28be b56e 04bf
00000140: fcfa 30be 328c 6cbb bc22 94be 73e2 2ebf
00000150: 153d ddbe 34fe 0c3e 4639 ddbc 51f2 f9bd
00000160: fa7c 70be b4d4 c93b 53ba 0dbd 7d4f 1cbf
00000170: d5e1 34be 3219 4abd ba43 a33d 88e8 e63c
00000180: 6c26 91be 4166 e1be 9591 02bf 07ee 0a3e
00000190: a283 ba3c faba e7be 1820 45be 1000 2bbf
000001a0: 1c91 843d d313 8d3e c235 e8be dfe1 873e
000001b0: 0964 243e 6191 993d 5caa e23d cbe5 cdbe
000001c0: 8046 12bf dd75 bbbc 7d66 a73d 5e6c 573c
000001d0: b0fc 2ebe 9362 22bf 0c85 313e ac80 86be
000001e0: 3a03 34bf 4eb3 933d 82d3 af3d faa4 5bbe
000001f0: d780 ddbd 4323 1fbe dfbb 1ebe b1dc cdbe
00000200: 065d 233e 8da1 2dbd ce27 16be 3cff 28be
00000210: 01be 343e 789a 993d d772 50be e655 303d
00000220: 756b 1bbf ceba 00bf 9f30 5abc e9c5 31bd
00000230: ee9f 54bd 637d 0dbf 4ecd 9cbe 2c45 65bd
00000240: ceba 79be c9b9 0abf b4d7 c03c 678d 9fbe
00000250: 5a2d 003e 8c9b f33c a662 95bd 1276 bf3d
00000260: 33f8 773d 7490 9fbe 17ed babe 9296 09bf
00000270: 214d 0ebf 34d1 6ebe df3a 94bc c55b 00bf
00000280: 84e7 91bd a9b1 783d 0022 e0bd 72e3 5fbe
00000290: 11e7 cdbe 454e c43d fb8c 51bd 36b6 7dbe
000002a0: ddae 0a3e 92fb f5be 0f2b febd af8e 7a3d
000002b0: e5eb a83d 1ae7 e23c d70b a3be b344 1abd
000002c0: 6248 50be 129a 95bd 46f1 30bd 0027 0cbe
000002d0: cc09 16bf 2fc3 24bd a05a 6fbd 156d 34bf
000002e0: 0d76 e8be a075 f8bc d9dc 6ebe 6a62 debe
000002f0: 9819 50be a35e 80bd 1605 dd3c 7d7a fd3d
00000300: 4427 4e3d 6031 06bd ad03 15bf bca8 0cbe
00000310: dc46 68be c786 1fbe e7a2 ff3c 7176 1e3d
00000320: b105 53be b0b9 76be 45ce eebe 2103 053e
00000330: a16f d9be 8af4 cbbc 2fb4 e8be 6af5 e1bd
00000340: 23a7 14be 7056 f5be a0fe 32bf c08c dfbd
00000350: 1ab6 a7bc 75b8 913d 8b0a 2cbf 6e16 01be
00000360: 5639 1dbe a993 eabe cdd2 d0bc c4b7 0dbf
00000370: 49a7 003e 42f8 2cbf 0b7f bebc ee2d a93c
00000380: b5fc 0bbd 91cf 1bbe 8871 18bf 8e40 853e
00000390: e3e1 913d 4dbb 40bd 1e62 a1bd 063e 313e
000003a0: 29a5 08bf e386 783e 5b7a 103e e9cd 4b3e
000003b0: c8ad 28bc 561f 1bbf e757 173e a5d2 05be
000003c0: 3c0f 773d 223a bd3b def1 94be c8b0 7fbe
000003d0: 5052 21be 643e 923c 66a2 903d 1aca 9f3a
000003e0: fb8c 213d 364b 0e3b 8f10 553e 42b3 0cbf
000003f0: ec8d f4be e651 47be 5ef8 0bbe 32af 0abf

network.3.weight f4 [256, 256]
-0.060739778 -0.4076564 -0.025582505 0.11670821 0.08066664 -0.032296367 0.5740685 0.056121193
-0.09067232 0.1487407 -0.058446184 -0.39795208 0.110024996 0.022337005 0.065185435 0.11139023
-0.016720291 0.0037096734 0.007531086 0.098086424 -0.0559061 0.046153903 -0.06435411 -0.07569567
-0.0054208264 0.05128842 -0.044893146 -0.5091528 -0.13208391 0.092265084 -0.00077046454 -0.41744766
-0.40778345 0.08081551 -0.4533543 0.011145447 0.06371174 -0.040295042 -0.015152304 -0.16858053
-0.062014796 -0.005216211 -0.005861407 0.060270075 0.08901531 -0.01702956 -0.06365815 0.0032383124
0.28521305 0.0036920607 0.19377694 -0.062380694 0.032949954 -0.0425174 0.028138267 -0.035460442
0.022055287 0.09038451 0.117320254 -0.04787025 -0.044758826 0.47244167 0.052250125 -0.020703837
-0.028680926 -0.2725024 0.08301452 -0.04637981 -0.36596587 0.019895269 0.04215056 0.025327265
-0.011463741 0.14802359 -0.44638336 0.0066924035 0.007301285 -0.012064062 -0.046018064 0.08228427
-0.04986304 -0.08623254 0.055515356 -0.025592566 0.016739154 0.21141069 -0.11607971 -0.27723834
-0.043338515 0.028059188 0.14301057 -0.01253584 -0.3859818 0.1089678 0.0648768 0.120551094
-0.14425802 0.05352635 0.059234157 0.015130562 -0.082511835 -0.027081884 -0.033935934 0.009765238
-0.008933054 -0.037675824 -0.048529178 0.08086215 0.0380123 -0.4106528 -0.048929565 0.0037733763
-0.014281809 0.06773042 0.07952245 0.3989408 -0.05427868 0.06163817 0.038319632 -0.052689224
0.016565986 -0.0022314726 0.13639498 0.05808104 -0.23523709 -0.46885705 -0.43006763 0.059857875
-0.040555403 -0.45719597 0.14797291 0.03579837 -0.04324192 -0.3166809 0.069755405 0.0062523438
0.015916757 -0.009797059 -0.1436044 -0.34125808 -0.31918246 0.057065748 0.024117572 0.106058255
-0.03972605 0.05720043 0.1800666 0.06086073 -0.034065947 0.072418354 -0.5017418 0.15946493
0.029278144 0.025939196 0.034601457 0.023947835 0.031568207 -0.054559767 -0.2605498 0.014051013
0.13352525 0.17931613 -0.38631567 0.04861644 -0.31977382 0.12897937 0.0076514026 0.028595753
0.022897253 0.061341546 -0.41448388 -0.049013823 -0.35485765 0.09461205 -0.0058608833 0.15045288
0.6015867 0.114843726 0.040021196 -0.016259 0.3735391 0.091109164 0.059501674 -0.0015385598
0.0028813705 0.009606948 0.17575769 0.021969102 0.033116467 0.047592167 0.008011655 -0.009726565
0.08644317 0.09644518 0.040178046 0.053165905 -0.092700966 0.07951091 0.40612072 -0.32137838
0.056095567 -0.04361102 -0.15500046 0.034888808 -0.33767155 0.04844469 -0.05610463 -0.26823315
-0.49921745 0.23785195 -0.02937685 0.03980139 0.05954381 0.1433907 -0.0344126 -0.070570655
-0.4028858 -0.028766863 0.045440085 -0.054726936 0.031703282 -4.208833e-05 0.09093535 0.22429968
0.077996984 0.059935085 -0.020636067 -0.058361243 0.06047061 0.057860725 0.027242864 0.045125864
0.066755965 0.016035737 0.03040816 0.027426234 0.030603759 0.059283197 0.01008841 0.13772306
-0.0070438725 0.39970237 0.12288628 0.02908036 0.62746835 -0.04695681 0.02537059 0.07044462
0.11709426 -0.08811432 0.016245402 -0.022331856 0.034855258 0.09008731 0.051582005 -0.026121922
00000000: 46ca 78bd 57b8 d0be 6792 d1bc b704 ef3d
00000010: 8d34 a53d 3249 04bd 27f6 123f 56df 653d
00000020: 69b2 b9bd 7b4f 183e 4465 6fbd 60c0 cbbe
00000030: c954 e13d 18fc b63c f17f 853d 9020 e43d
00000040: fef8 88bc fe1d 733b 54c7 f63b 89e1 c83d
00000050: cbfd 64bd e00b 3d3d 16cc 83bd 5506 9bbd
00000060: 30a1 b1bb ce13 523d e0e1 37bd d757 02bf
00000070: 0141 07be 7af5 bc3d 00f9 49ba b3bb d5be
00000080: fec8 d0be 9a82 a53d 0e1e e8be 659b 363c
00000090: 4d7b 823d 6a0c 25bd 5f41 78bc 60a0 2cbe
000000a0: 3a03 7ebd c0ec aabb 0c11 c0bb c1dd 763d
000000b0: a94d b63d 9381 8bbc 345f 82bd de39 543b
000000c0: 7207 923e 80f6 713b 766d 463e e682 7fbd
000000d0: 88f6 063d ba26 2ebd 3982 e63c f83e 11bd
000000e0: 4aad b43c 841b b93d 9a45 f03d 9813 44bd
000000f0: 0855 37bd e0e3 f13e 3a04 563d 189b a9bc
00000100: 43f4 eabc 6f85 8bbe 8403 aa3d c1f8 3dbd
00000110: e15f bbbe 67fb a23c 11a6 2c3d 207b cf3c
00000120: 6ad2 3bbc 7f93 173e 5c8c e4be f34b db3b
00000130: 9e3f ef3b 58a8 45bc 707d 3cbd a884 a83d
00000140: 303d 4cbd b09a b0bd 1264 633d 80a7 d1bc
00000150: 8d20 893c 0b7c 583e 33bb edbd 2ff2 8dbe
00000160: ba83 31bd 62dc e53c 5d71 123e 2063 4dbc
00000170: 689f c5be 832a df3d 21de 843d 7ee3 f63d
00000180: 60b8 13be 723e 5b3d 849f 723d 2de6 773c
00000190: f7fb a8bd d4da ddbc 6800 0bbd 60fe 1f3c
000001a0: f25b 12bc f751 1abd 88c6 46bd 0e9b a53d
000001b0: c9b2 1b3d 1541 d2be 5e6a 48bd c04a 773b
000001c0: 40fe 69bc 3fb6 8a3d abdc a23d f841 cc3e
000001d0: 5253 5ebd 4e78 7c3d 0cf5 1c3d a8d0 57bd
000001e0: 64b5 873c e63d 12bb 20ab 0b3e 62e6 6d3d
000001f0: fee1 70be 080e f0be d331 dcbe 882d 753d
00000200: 6c1d 26bd 9715 eabe 3686 173e 50a1 123d
00000210: 711e 31bd 0024 a2be ecdb 8e3d 76e0 cc3b
00000220: dc63 823c d883 20bc 080d 13be 61b9 aebe
00000230: e26b a3be c6bd 693d 3792 c53c 1235 d93d
00000240: c8b7 22bd 004b 6a3d 6163 383e 1a49 793d
00000250: bc88 0bbd 1350 943d 2772 00bf c64a 233e
00000260: b8d8 ef3c 707e d43c 42ba 0d3d 402e c43c
00000270: aa4d 013d 107a 5fbd c966 85be 3836 663c
00000280: d8ba 083e a69e 373e 2bcb c5be 0822 473d
00000290: 65b9 a3be 2b13 043e 9eb8 fa3b a441 ea3c
000002a0: 0593 bb3c 4641 7b3d 3b37 d4be b8c2 48bd
000002b0: e7af b5be f6c3 c13d a70c c0bb 5210 1a3e
000002c0: 9601 1a3f 3033 eb3d 44ed 233d 9831 85bc
000002d0: 8440 bf3e 7197 ba3d 07b8 733d 80a9 c9ba
000002e0: 60d5 3c3b 7666 1d3c d3f9 333e 8cf8 b33c
000002f0: 22a5 073d 01f0 423d 5143 033c 2c5c 1fbc
00000300: 1e09 b13d 0d85 c53d bc91 243d 7ec4 593d
00000310: 01da bdbd 9ed6 a23d 0eef cf3e b58b a4be
00000320: 77c4 653d 78a1 32bd 71b8 1ebe 91e7 0e3d
00000330: 49e3 acbe f06d 463d f8cd 65bd db55 89be
00000340: 6e99 ffbe 768f 733e b8a7 f0bc c806 233d
00000350: 36e4 733d 03d5 123e 3af4 0cbd 5987 90bd
00000360: 0c47 cebe 7ca8 ebbc 621f 3a3d 5a29 60bd
00000370: 4ddb 013d 0088 30b8 503c ba3d d1ae 653e
00000380: e2bc 9f3d 7e7e 753d f80c a9bc 330c 6fbd
00000390: 08b0 773d 5eff 6c3d 6d2c df3c e6d5 383d
000003a0: 5ab7 883d 615d 833c 891a f93c fbac e03c
000003b0: bcb4 fa3c f0d2 723d dc49 253c 4607 0d3e
000003c0: 49d0 e6bb caa5 cc3e cdab fb3d ef39 ee3c
000003d0: c4a1 203f c955 40bd fcd5 cf3c 4545 903d
000003e0: 1ecf ef3d 4875 b4bd 1415 853c 4cf1 b6bc
000003f0: 63c4 0e3d b27f b83d a747 533d a4fd d5bc

network.3.bias f4 [256]
0.16430742 -0.0027504629 0.16255032 0.16717085 0.1375121 0.19075926 -0.0100733 0.23516373
0.25873837 0.15887664 -0.04621721 0.23442058 -0.0008962767 -0.04097595 -0.048424523 0.2400877
0.14535719 -0.017976727 -0.05489771 0.16880518 -0.008673375 0.17322204 0.1840568 -0.07269961
-0.05323862 -0.0126762325 0.21981248 0.21984948 0.20716308 0.038703866 0.2653734 0.14967078
-0.031403292 0.1735245 0.23768562 0.21560168 0.2452025 -0.081387855 -0.02882889 -0.061118282
0.16238412 0.16373509 -0.023185553 0.17450055 0.17465901 0.14697693 0.2276834 -0.050094854
0.23028938 0.06368042 0.23480883 0.14612636 0.15455225 -0.016793262 0.21164647 0.19054149
0.1442209 0.25015974 0.19916566 0.12388297 -0.073066264 -0.020770922 0.12931763 -0.06535114
0.047080126 0.23177399 0.15298931 0.21376269 -0.074732974 -0.07929637 0.17206278 0.1903841
0.1724998 -0.01845818 -0.06278443 0.13696663 -0.04788109 0.16531609 0.13748516 0.14689155
0.1726572 0.20900777 0.1495339 0.1482186 0.16885228 -0.0061804247 0.102293536 -0.007311448
0.14724284 0.22927056 0.20696107 -0.026979618 0.25626203 0.17254785 0.07344811 -0.18563046
0.20828103 -0.037116367 -0.002028294 0.22444268 -0.024112212 -0.049616877 0.16888373 -0.050476804
-0.005603591 -0.008904877 -0.009172501 0.21805397 -0.032832563 0.20482914 0.22361735 0.20395581
0.29321223 -0.034351487 -0.03131188 0.21940623 -0.00066316617 0.15021695 -0.054009166 0.16680674
0.19265035 0.075961 -0.054880746 0.19849081 -0.009182047 0.10657649 -0.06801179 0.00075740385
-0.037461914 0.2281757 0.232662 0.23097558 0.1990162 0.15800424 -0.03669483 0.23997225
0.32602096 0.200506 -0.0071501136 -0.075282216 -0.07212511 -0.07016658 -0.06432506 -0.074125536
-0.010070574 -0.028518697 0.002221404 -0.045108575 -0.0027376944 -0.018566914 -0.016399456 -0.028876062
-0.020513592 0.26467776 0.17583512 0.018329008 -0.011068914 0.23214874 -0.033914972 -0.06139179
-0.026807163 0.140703 -0.013527358 -0.028112156 0.18792991 -0.062479757 0.22221327 -0.05665004
-0.039326258 0.31542116 0.23649386 -0.0480515 -0.004824338 -0.0043993145 -0.3326238 -0.06492405
0.13666613 -0.063602105 -0.054041754 -0.033256844 -0.07441211 -0.017040439 0.15201424 0.18913656
-0.04639007 -0.062217616 0.15884389 -0.057174467 -0.051329687 -0.06739737 0.16071023 0.15370029
-0.008891487 0.25041732 -0.0063442723 0.2606805 0.1477952 0.17584094 0.28908148 -0.050565332
0.18169777 0.2342306 0.24871306 0.16508052 0.17647995 0.16370045 0.1224859 -0.04166092
-0.017713528 0.19817227 -0.024102798 0.23752826 -0.030502263 0.20967212 0.20327775 -0.044416394
0.17153698 0.15816005 0.15715048 -0.025951507 0.19798806 0.2332332 -0.051879227 0.19775483
0.14723983 0.20809418 -0.058466237 0.21528815 -0.036660545 -0.026608475 -0.0627978 0.12965694
0.17959425 0.16877462 -0.04869253 -0.019389585 -0.06257227 -0.17641719 -0.05105385 -0.054887883
-0.000970211 -0.02083367 -0.042699758 -0.035910513 0.14923754 0.0966442 0.2472937 0.22007371
-0.0065597864 0.17462248 -0.0018109384 0.16855432 0.1382263 0.165595 0.11890892 -0.06717624
00000000: 3440 283e 1c41 34bb 9773 263e d62e 2b3e
00000010: f9cf 0c3e 6556 433e 7c0a 25bc c3ce 703e
00000020: 5b79 843e 8fb0 223e 424e 3dbd f30b 703e
00000030: 1cf4 6aba 66d6 27bd cb58 46bd 8dd9 753e
00000040: 84d8 143e ee43 93bc 6cdc 60bd 44db 2c3e
00000050: c51a 0ebc 1e61 313e 6379 3c3e 88e3 94bd
00000060: bd10 5abd f9af 4fbc 8616 613e 3920 613e
00000070: 8f22 543e f287 1e3d 06df 873e 4c43 193e
00000080: bda0 00bd 68b0 313e dc63 733e b0c6 5c3e
00000090: 5d16 7b3e adae a6bd 902a ecbc 2a57 7abd
000000a0: 0648 263e 2caa 273e a1ef bdbc 46b0 323e
000000b0: d0d9 323e 1f81 163e d625 693e 4330 4dbd
000000c0: fbd0 6b3e e16a 823d ba71 703e 26a2 153e
000000d0: f242 1e3e 0692 89bc dab9 583e 4f1d 433e
000000e0: a5ae 133e f014 803e 15f2 4b3e 5bb6 fd3d
000000f0: c4a3 95bd c827 aabc d76b 043e d2d6 85bd
00000100: 17d7 403d 2956 6d3e 3ba9 1c3e 9be4 5a3e
00000110: 9a0d 99bd 2366 a2bd 3a31 303e 0df4 423e
00000120: caa3 303e 9c35 97bc 2095 80bd fb40 0c3e
00000130: f61e 44bd 9f48 293e e9c8 0c3e bd6a 163e
00000140: 0dcd 303e 2206 563e 6a1f 193e 9ec6 173e
00000150: 9de7 2c3e 2985 cabb 467f d13d df94 efbb
00000160: d4c6 163e e7c5 6a3e 9aed 533e 5c04 ddbc
00000170: c734 833e 62b0 303e f66b 963d e915 3ebe
00000180: 9f47 553e 5507 18bd 20ed 04bb 4dd4 653e
00000190: f986 c5bc 113b 4bbd dbef 2c3e c4c0 4ebd
000001a0: 549e b7bb c3e5 11bc 4248 16bc 8a49 5f3e
000001b0: 707b 06bd bbbe 513e f2fb 643e cbd9 503e
000001c0: ea1f 963e 25b4 0cbd e340 00bd 07ac 603e
000001d0: 54d8 2dba 79d2 193e b738 5dbd 63cf 2a3e
000001e0: 2246 453e 7191 9b3d a2ca 60bd 2d41 4b3e
000001f0: 4c70 16bc c644 da3d c449 8bbd 838c 463a
00000200: aa71 19bd e4a6 693e f33e 6e3e dd84 6c3e
00000210: e7ca 4b3e ddcb 213e 514d 16bd 49bb 753e
00000220: 38ec a63e 7251 4d3e 804b eabb 902d 9abd
00000230: 54b6 93bd 7fb3 8fbd dbbc 83bd 21cf 97bd
00000240: 0cff 24bc 0ba0 e9bc fa94 113b c5c3 38bd
00000250: e46a 33bb a419 98bc 2758 86bc 7e8d ecbc
00000260: 1f0c a8bc d883 873e 1f0e 343e b726 963c
00000270: 645a 35bc 66b8 6d3e 6dea 0abd f575 7bbd
00000280: b29a dbbc 7214 103e daa1 5dbc 774b e6bc
00000290: b370 403e c6ea 7fbd e08b 633e df09 68bd
000002a0: 9214 21bd e27e a13e 722b 723e a6d1 44bd
000002b0: 7b15 9ebb 2028 90bb ab4d aabe e6f6 84bd
000002c0: 35f2 0b3e d241 82bd e35a 5dbd 5438 08bd
000002d0: 6065 98bd 6498 8bbc 9fa9 1b3e 04ad 413e
000002e0: 8403 3ebd e6d7 7ebd f9a7 223e c62f 6abd
000002f0: 143f 52bd a207 8abd 3991 243e 9c63 1d3e
00000300: 99ad 11bc b336 803e 9de3 cfbb ea77 853e
00000310: a057 173e a60f 343e 7d02 943e 981d 4fbd
00000320: fb0e 3a3e 25da 6f3e a3ae 7e3e de0a 293e
00000330: 29b7 343e 17a1 273e e3d9 fa3d a4a4 2abd
00000340: f61b 91bc aced 4a3e 3b73 c5bc 9c3a 733e
00000350: e2df f9bc 4ab4 563e 0b28 503e f7ed 35bd
00000360: 64a7 2f3e b5f4 213e 0eec 203e 4198 d4bc
00000370: 62bd 4a3e afd4 6e3e 507f 54bd 3e80 4a3e
00000380: 0ac6 163e a416 553e 4b7a 6fbd 7f74 5c3e
00000390: 5e29 16bd 04fa d9bc 229c 80bd cac4 043e
000003a0: 8ee7 373e 41d3 2c3e d171 47bd e8d6 9ebc
000003b0: e425 80bd b5a6 34be d81d 51bd 1ed2 60bd
000003c0: c255 7eba 5fab aabc f1e5 2ebd e716 13bd
000003d0: bad1 183e 65ed c53d 8f3a 7d3e 015b 613e
000003e0: 7af3 d6bb 3cd0 323e 025d edba 8199 2c3e
000003f0: 328b 0d3e bc91 293e 8586 f33d b293 89bd

network.6.weight f4 [256, 256]
0.07568554 0.028251816 0.008815641 0.027497021 -0.28615353 0.095621474 -0.005581491 0.1024841
0.05567387 -0.23904425 0.012692633 0.09336399 -0.004023041 0.0077216714 0.03751731 0.034145527
0.6079404 0.007056112 -4.951656e-05 -0.014667815 -0.060915794 0.024734633 0.04590726 0.054803435
-0.017033227 -0.019336345 -0.00962813 0.015990643 0.08291256 -0.2305507 0.021062486 0.056442875
-0.026295317 -0.015282236 0.070000194 0.09634529 0.10041846 -0.042764433 -0.057642 -0.033246577
-0.028396955 -0.3883706 0.05854108 0.0506517 0.029493278 -0.65046436 0.110203646 0.0055776606
0.06080552 -0.3425676 0.08782568 0.0065392256 0.03997091 0.058798388 0.028500043 0.011476429
0.070084065 0.10934452 0.048515014 -0.2532473 0.02163481 -0.06111879 0.004533365 -0.01391582
0.012002672 0.038023476 0.116335906 0.055709153 0.041476324 -0.029739793 0.039343905 0.28111526
0.055417262 0.0374783 -0.059879158 -0.46068418 0.3210532 0.10760427 0.045248527 0.1176854
0.015369922 0.032180965 -0.046026465 0.0782004 0.0017307621 -0.016090594 0.07278506 0.11843995
-0.2914656 -0.0062162904 -0.026897848 0.1046951 0.055262078 0.08987564 -0.08847078 0.08157214
0.026214503 0.051666718 0.020418197 0.017081657 -0.042104598 0.13416682 0.041022234 0.08028248
0.072093695 -0.011004987 0.036676027 -0.0057689464 -0.04600421 0.046774484 0.05940131 0.034638528
0.049349263 -0.042105787 -0.020004481 0.031387415 0.062034175 0.027296754 0.042475656 0.021520203
0.008124921 -0.3561724 0.0056320876 0.05923845 0.05792891 -0.3755988 0.047891382 -0.018256526
0.0913952 0.04883469 0.047846384 0.066787764 0.013400145 0.016294062 -0.08734878 0.036526047
0.08492226 0.116032 -0.04428318 0.0005312165 -0.039801992 0.0034804547 0.018276714 -0.027827188
-0.046896618 -0.046026383 0.0423169 -0.027032327 -0.048452813 0.059530243 -0.0202619 0.0082104085
0.06067994 0.056689505 0.08454079 0.015038071 0.033134256 0.07559816 -0.009462674 0.008431837
0.06976535 0.022943543 -0.03966308 0.13634765 0.1304845 0.06056977 0.0075833555 0.03993475
0.028911885 -0.035560835 0.10298135 -0.05894741 0.009344818 -0.05123181 0.31635234 0.01999965
-0.027590416 -0.031558078 0.01349963 0.062442288 -0.0145988 0.040735666 0.021008974 0.043611538
0.03894251 -0.039006043 0.09803865 -0.050871 -0.029843763 0.019741943 0.08237642 -0.020815324
0.031673543 0.05648381 0.021750536 0.13750969 0.036166575 -0.032784674 0.072075315 -0.03405557
0.014335378 -0.0028753062 0.04875202 -0.00071470375 0.030717757 -0.011353102 0.010436185 0.05139977
0.030615006 0.05965445 -0.02373473 0.07227746 0.018181177 -0.027897077 0.098287255 0.09050947
-0.010531965 0.0027549264 -0.019531604 -0.011296789 0.083723225 0.08812028 0.007016346 -0.015104833
0.07957326 0.010305017 -0.03391405 0.0019792507 0.00521211 0.019359458 -0.04254146 0.08516721
0.029090324 0.15658835 -0.057795037 0.021959554 -0.027735334 0.026376948 0.04923953 -0.057939928
0.051108155 -0.031974204 -0.028946873 0.034337174 -0.2861954 0.06869778 0.018145088 0.117658645
0.06832606 0.011429054 0.0069535305 -0.007257383 0.08058488 0.055122208 -0.2766652 -0.015085654
00000000: 0501 9b3d 5a70 e73c 7a6f 103c 6f41 e13c
00000010: b782 92be 31d5 c33d f1e4 b6bb 2fe3 d13d
00000020: 490a 643d 04c8 74be c3f4 4f3c 9f35 bf3d
00000030: b7d3 83bb 1306 fd3b c0ab 193d 2edc 0b3d
00000040: fba1 1b3f f536 e73b 00b0 4fb8 4651 70bc
00000050: d782 79bd 49a0 ca3c 4009 3c3d 9179 603d
00000060: 4489 8bbc 4167 9ebc 4ebf 1dbc cffe 823c
00000070: 0fce a93d 7c15 6cbe 3c8b ac3c a530 673d
00000080: 4769 d7bc 5862 7abc 435c 8f3d ae50 c53d
00000090: 32a8 cd3d c229 2fbd 051a 6cbd 902d 08bd
000000a0: bba0 e8bc 83d8 c6be c6c8 6f3d 2878 4f3d
000000b0: e39b f13c d584 26bf 73b2 e13d cfc4 b63b
000000c0: 350f 793d 0565 afbe f3dd b33d 0047 d63b
000000d0: 89b8 233d 94d6 703d ec78 e93c a207 3c3c
000000e0: 3c88 8f3d 05f0 df3d aeb7 463d a1a9 81be
000000f0: 7c3b b13c b257 7abd 9f8c 943b 2eff 63bc
00000100: dba6 443c 81be 1b3d 8541 ee3d 482f 643d
00000110: 14e3 293d dea0 f3bc 1327 213d 57ee 8f3e
00000120: 36fd 623d d982 193d d943 75bd ccde ebbe
00000130: 1661 a43e a15f dc3d 8556 393d 0b05 f13d
00000140: 20d2 7b3c 30d0 033d 3f86 3cbd 8827 a03d
00000150: bdda e23a 6cd0 83bc 5510 953d a590 f23d
00000160: fb3a 95be 06b2 cbbb e058 dcbc 626a d63d
00000170: 7d5a 623d b810 b83d 2b30 b5bd 4b0f a73d
00000180: ccbf d63c 7ba0 533d 1044 a73c d5ee 8b3c
00000190: df75 2cbd 0763 093e ee06 283d 246b a43d
000001a0: dca5 933d 434e 34bc 9a39 163d 6e09 bdbb
000001b0: e96e 3cbd 9a96 3f3d ca4e 733d 21e1 0d3d
000001c0: 7422 4a3d 1e77 2cbd 70e0 a3bc 1790 003d
000001d0: 8c17 7e3d 719d df3c f4fa 2d3d 234b b03c
000001e0: 631e 053c 3b5c b6be 608d b83b 04a4 723d
000001f0: dd46 6d3d 7c4e c0be c129 443d b68e 95bc
00000200: 682d bb3d e206 483d 92fa 433d 06c8 883d
00000210: 488c 5b3c 207b 853c ebe3 b2bd 569c 153d
00000220: b9eb ad3d 2fa2 ed3d 4862 35bd 5641 0b3a
00000230: 6a07 23bd 5718 643b 0cb9 953c d8f5 e3bc
00000240: ab16 40bd 2986 3cbd 7c54 2d3d e672 ddbc
00000250: 7576 46bd fcd5 733d 49fc a5bc f384 063c
00000260: 878b 783d 4133 683d b923 ad3d 3e62 763c
00000270: c9b7 073d 35d3 9a3d 5509 1bbc b025 0a3c
00000280: 23e1 8e3d 19f4 bb3c c175 22bd b89e 0b3e
00000290: bb9d 053e 0218 783d cc7d f83b 9f92 233d
000002a0: 9ed8 ec3c 3da8 11bd e3e7 d23d d772 71bd
000002b0: 021b 193c 72d8 51bd eff8 a13e 4ed6 a33c
000002c0: 4c05 e2bc 0b43 01bd 8d2d 5d3c 7cc3 7f3d
000002d0: ce2f 6fbc 71da 263d 031b ac3c 03a2 323d
000002e0: 2e82 1f3d cdc4 1fbd 7dc8 c83d 1c5e 50bd
000002f0: e87a f4bc dbb9 a13c f8b4 a83d e684 aabc
00000300: 1ebc 013d 915b 673d 2e2e b23c 57cf 0c3e
00000310: 6723 143d 3949 06bd 399c 933d da7d 0bbd
00000320: efde 6a3c a26f 3cbb 33b0 473d f55a 3bba
00000330: cea3 fb3c 5c02 3abc 88fc 2a3c 9188 523d
00000340: 52cc fa3c 3958 743d 566f c2bc 3406 943d
00000350: b1f0 943c 6988 e4bc d44a c93d 075d b93d
00000360: 438e 2cbc ff8b 343b be00 a0bc 2b16 39bc
00000370: 1577 ab3d 6878 b43d 60e9 e53b 437a 77bc
00000380: 4ef7 a23d 60d6 283c 75e9 0abd 51b6 013b
00000390: 59ca aa3b ba97 9e3c f43f 2ebd 256c ae3d
000003a0: d54e ee3c b258 203e 7dba 6cbd 86e4 b33c
000003b0: 3635 e3bc 7814 d83c 64af 493d 6b52 6dbd
000003c0: c956 513d 62f7 02bd fe21 edbc 23a5 0c3d
000003d0: 3488 92be 6cb1 8c3d 02a5 943c 04f7 f03d
000003e0: 89ee 8b3d ed40 3b3c 71da e33b 57cf edbb
000003f0: b009 a53d d3c7 613d 10a7 8dbe d229 77bc

network.6.bias f4 [256]
2.1365116 -0.06434708 -0.08300894 -0.0039945804 -0.054255653 -0.069144376 -0.049736183 2.0972912
-0.040972527 2.0866835 -0.07097448 -0.08087851 2.1250665 2.2176783 2.1255422 2.110031
2.108119 2.1818411 2.0719972 -0.06784689 -0.007995832 -0.021876369 -0.05210782 2.1522675
2.1811047 0.48322675 0.56718725 0.22683693 -0.057647444 2.2079077 -0.049243506 0.6370254
2.1576948 2.103485 2.1258035 2.1332169 2.0926757 2.1065989 2.1625247 0.4350361
-0.045009278 2.1761894 2.1054926 0.6898117 0.3882117 -0.07020864 2.1869233 0.16958655
-0.06793169 2.120816 2.0915787 2.0597296 -0.053782497 0.6898496 2.1050646 2.2103426
-0.07530758 1.5453639 -0.070694655 0.74894696 -0.0860466 -0.01876238 0.50326955 0.026181394
2.18595 -0.047319133 2.0615215 2.0904484 -0.04197108 0.61980635 2.2019835 0.8403549
2.161456 -0.014828984 2.0885034 2.1321602 -0.09621228 2.1167285 -0.0070191785 2.1550896
0.14486077 0.8244413 0.53838724 0.09538192 2.1677194 2.1634076 2.169419 0.6546483
0.08449061 -0.04527203 2.1836152 2.096534 -0.044777337 0.029292285 -0.07042369 -0.08340334
2.2093806 -0.05491649 -0.04388131 2.1661587 -0.055858493 2.1726537 0.059025064 -0.053853486
2.0375755 0.7514061 0.37907824 -0.06811264 0.17460091 2.1375003 0.1419302 2.1435063
2.2066352 -0.08006423 2.1618016 2.1235855 2.1042566 -0.06277906 0.4325861 2.099447
-0.07323728 -0.053377185 0.21930073 0.3579303 -0.08047256 2.1757324 0.18021382 -0.070376694
-0.07030365 -0.04753471 2.0993972 2.0416486 0.15272577 2.0808885 -0.06061953 0.65371174
2.1850755 -0.019947302 -0.0192288 -0.056492306 2.0357013 -0.06431979 0.7222887 2.2115364
2.0842493 -0.03943943 -0.031519625 -0.064139344 2.1492445 2.1534674 0.022321714 2.1171386
0.5596152 -0.03683127 2.1515942 2.1366997 -0.004185932 2.1719513 2.1209583 2.1367948
2.0974164 -0.22542448 0.4420563 -0.069591664 -0.033539332 0.0990005 2.1702719 -0.046039
-0.025051031 2.0884545 -0.084290795 -0.018810522 2.1064346 -0.023396675 -0.038399648 0.4569731
2.1952002 2.1817448 2.1337018 2.10041 -0.05325561 -0.069482096 -0.08743994 -0.047983248
2.1852224 2.1240633 -0.02685221 2.192701 2.134466 -0.038062286 2.1665587 1.6392136
-0.050959785 -0.049976513 -0.042224362 -0.06046212 0.20659272 -0.065727375 2.1762314 0.2720919
-0.04875531 -0.021352915 2.068687 2.1467202 -0.06849823 2.2064517 -0.04685218 -0.051353864
0.20111485 -0.042679764 0.47911754 -0.073580705 0.574358 0.2073632 2.167802 2.1556845
-0.03468044 2.0883794 -0.021976681 0.060445704 2.1717005 0.24751163 2.1766484 0.030243834
-0.09405866 2.0869937 0.01756561 2.1724467 -0.08267969 2.197763 -0.03486597 2.1297596
-0.021693163 1.4344373 2.112256 2.1693938 2.0604985 2.162961 2.0516558 2.204739
0.5077581 2.054623 2.1489022 0.053873558 -0.04024364 -0.03775109 2.2112434 -0.044548377
0.06264237 0.5940238 0.22765018 2.1799102 0.06303246 0.028616557 -0.08006986 2.1489394
00000000: 9bbc 0840 67c8 83bd 9700 aabd f8e4 82bb
00000010: 2d3b 5ebd 919b 8dbd 2bb8 4bbd 053a 0640
00000020: cfd2 27bd 398c 0540 115b 91bd a2a3 a5bd
00000030: 1701 0840 71ee 0d40 e208 0840 bf0a 0740
00000040: 6ceb 0640 49a3 0b40 9a9b 0440 4ff3 8abd
00000050: f300 03bc 1236 b3bc 026f 55bd c0be 0940
00000060: 3897 0b40 7f69 f73e 2f33 113f f147 683e
00000070: ba1f 6cbd 5c4e 0d40 8fb3 49bd 1914 233f
00000080: ac17 0a40 809f 0640 2a0d 0840 a086 0840
00000090: 66ee 0540 84d2 0640 ce66 0a40 0dbd de3e
000000a0: a65b 38bd b046 0b40 64c0 0640 8097 303f
000000b0: afc3 c63e 8cc9 8fbd 8df6 0b40 19a8 2d3e
000000c0: c51f 8bbd 73bb 0740 6ddc 0540 9cd2 0340
000000d0: 094b 5cbd fc99 303f 61b9 0640 4176 0d40
000000e0: dc3a 9abd 7cce c53f 5cc8 90bd fdba 3f3f
000000f0: 3339 b0bd 90b3 99bc 46d6 003f 5d7a d63c
00000100: 9be6 0b40 b5d1 41bd f8ef 0340 e8c9 0540
00000110: dee9 2bbd a1ab 1e3f 4ced 0c40 8021 573f
00000120: 4c55 0a40 44f5 72bc 0aaa 0540 5075 0840
00000130: f20a c5bd 7b78 0740 2301 e6bb fdec 0940
00000140: 6256 143e 960e 533f bfd3 093f 9957 c33d
00000150: eabb 0a40 4575 0a40 c3d7 0a40 0897 273f
00000160: 6a09 ad3d 2a6f 39bd 5ac0 0b40 9d2d 0640
00000170: 7168 37bd 60f6 ef3c 4c3a 90bd 5fcf aabd
00000180: 7e66 0d40 1df0 60bd e3bc 33bd 58a2 0a40
00000190: e0cb 64bd c20c 0b40 44c4 713d 7995 5cbd
000001a0: a367 0240 265c 403f 8b16 c23e a47e 8bbd
000001b0: 95ca 323e cecc 0840 2656 113e 352f 0940
000001c0: 8339 0d40 b7f8 a3bd f55a 0a40 d3e8 0740
000001d0: 24ac 0640 4f92 80bd ed7b dd3e 575d 0640
000001e0: 6dfd 95bd 09a2 5abd 5f90 603e a442 b73e
000001f0: ccce a4bd 333f 0b40 f989 383e a821 90bd
00000200: 5cfb 8fbd c2b3 42bd 865c 0640 5faa 0240
00000210: 2564 1c3e 472d 0540 2f4c 78bd a759 273f
00000220: 47d8 0b40 8668 a3bc b785 9dbc 7a64 67bd
00000230: ee48 0240 18ba 83bd eae7 383f d089 0d40
00000240: 5764 0540 3d8b 21bd b91a 01bd 7d5b 83bd
00000250: 398d 0940 69d2 0940 07dc b63c 337f 0740
00000260: f142 0f3f 63dc 16bd b8b3 0940 b0bf 0840
00000270: 252a 89bb 4001 0b40 c8bd 0740 3fc1 0840
00000280: 123c 0640 add5 66be 3455 e23e 1386 8ebd
00000290: 8a60 09bd c6c0 ca3d bce5 0a40 6493 3cbd
000002a0: d237 cdbc 3da9 0540 a7a0 acbd 8618 9abc
000002b0: d3cf 0640 62aa bfbc f348 1dbd 61f8 e93e
000002c0: 297e 0c40 b5a1 0b40 928e 0840 1e6d 0640
000002d0: 8e22 5abd a14c 8ebd b613 b3bd 158a 44bd
000002e0: afda 0b40 a7f0 0740 2af9 dbbc 3755 0c40
000002f0: 179b 0840 33e7 1bbd e6a8 0a40 c0d1 d13f
00000300: 35bb 50bd 2cb4 4cbd 74f3 2cbd 21a7 77bd
00000310: 0b8d 533e 139c 86bd 6047 0b40 a14f 8b3e
00000320: a6b3 47bd 4fec aebc 5e65 0440 dd63 0940
00000330: cd48 8cbd 8136 0d40 12e8 3fbd 6e58 52bd
00000340: 0df1 4d3e fad0 2ebd e54e f53e 7bb1 96bd
00000350: 2009 133f 0557 543e 45bd 0a40 bcf6 0940
00000360: 140d 0ebd 02a8 0540 7108 b4bc ea95 773d
00000370: 24fd 0a40 b073 7d3e 354e 0b40 ebc1 f73c
00000380: d4a1 c0bd 4e91 0540 c1e5 8f3c 5e09 0b40
00000390: f853 a9bd 26a8 0c40 9fcf 0ebd fb4d 0840
000003a0: dcb5 b1bc a49b b73f 342f 0740 59d7 0a40
000003b0: 35df 0340 f46d 0a40 544e 0340 721a 0d40
000003c0: 6ffc 013f f17e 0340 9d87 0940 85aa 5c3d
000003d0: 84d6 24bd e3a0 1abd 0385 0d40 5c78 36bd
000003e0: a54a 803d f211 183f 211d 693e a683 0b40
000003f0: 2a17 813d 456d ea3c abfb a3bd 3988 0940

network.8.weight f4 [3, 256]
0.40551665 0.0071318406 -0.014480657 0.0022644235 -0.022048252 0.012155001 -0.0196697 0.3987676
0.09858377 0.43196613 -0.05344852 -0.04165716 0.40136892 0.39486763 0.40125418 0.41449118
0.38696724 0.43646064 0.4446139 -0.045489002 0.09664428 0.009525902 0.013730103 0.42154643
0.3752772 0.3727592 0.353989 0.15783106 0.004980565 0.39748618 -0.021672191 0.56560665
0.40868402 0.37081993 0.42162496 0.40279436 0.38978207 0.41284832 0.41730678 0.899891
-0.050785374 0.48129883 0.41252714 0.11986144 -0.44019055 -0.011380937 0.42809945 -0.30130306
6.82096e-05 0.44004145 0.42194802 0.42921507 -0.043785237 0.50847703 0.38932508 0.4129236
-0.032124765 1.3474238 0.018936884 0.64919335 0.0013535524 0.036913157 0.65176713 0.39088526
0.3800201 -0.020543283 0.4667148 0.4401785 0.019571364 0.70640117 0.38754618 0.54703933
1.398559 -0.010009433 0.37522453 0.45462942 0.046475716 0.43251282 -0.041465875 0.41329068
0.28518388 0.45115167 0.06972371 0.091007 0.41035655 0.40583333 0.42310745 0.5161884
0.08327101 0.008653368 0.4291551 0.36592704 -0.003503838 0.041120123 -0.02908413 0.045241714
0.38964847 -0.016868018 -0.0470149 0.4408289 0.011415713 0.4013038 0.17722465 -0.027702205
0.444317 0.2828207 0.59559625 0.016651904 0.3586895 0.39779684 0.038618002 0.39029396
0.41389543 0.0023684227 0.41785264 0.3834986 0.41058064 -0.0018889135 -0.20083964 0.4621708
0.040090322 0.018322729 0.5857263 -0.13765275 -0.015702179 0.37855712 0.38470474 -0.02324705
0.036877852 0.14081113 0.3956036 0.48626226 0.2939204 0.41117504 0.04523266 0.65542006
0.38222024 -0.031560216 -0.04758561 -0.017603563 0.6384232 0.051676925 0.81438017 0.38195673
0.4689686 -0.0044608708 -0.026551563 -0.009910478 0.43004814 0.44499213 0.15431191 0.40350562
0.020493636 -0.0043030335 0.38815895 0.4083059 0.13221632 0.40057418 0.39571244 0.37326372
0.42384306 0.13947718 -0.39559466 -0.008786239 -0.018816827 -0.13484848 0.37259328 -0.039448738
-0.030041322 0.82468015 0.048107 -0.044363786 0.4760443 -0.0010321736 -0.031415004 0.4228024
0.37830576 0.36038613 0.3480907 0.46427727 0.011351806 -0.04990144 -0.013233503 -0.051140744
0.37722868 0.41016716 0.04427239 0.37616006 0.38673484 0.008766465 0.3896416 1.6600131
-0.001325734 0.03694543 -0.022107864 0.06091355 0.7980117 -0.015446416 0.40869874 -0.12748228
-0.04556312 0.060465474 1.0134441 0.37751877 -0.05222296 0.42532974 -0.0025769712 -0.006089251
-0.17863977 -0.02059286 0.6729945 -0.0047009825 0.20376532 0.7192966 0.36508667 0.42219844
0.039978374 0.40349826 -0.016044809 0.095974796 0.36910573 -0.22255719 0.3788549 0.040219117
0.04647601 0.4200675 -0.04470986 0.43266732 -0.039088134 0.4037497 -0.15799944 0.40810102
0.05521329 1.1771904 0.44049904 0.3887964 0.53800786 0.3513435 0.4468406 0.38431004
0.14438775 0.38892254 0.3517148 0.075208016 0.16084214 -0.024289882 0.37470514 0.0025957718
0.09851731 0.030222403 0.042157628 0.3917288 0.043874424 0.20219256 0.015495844 0.4060439
00000000: e19f cf3e 37b2 e93b 4740 6dbc b966 143b
00000010: 899e b4bc c525 473c 5a22 a1bc 442b cc3e
00000020: 4ae6 c93d aa2a dd3e d6ec 5abd b3a0 2abd
00000030: 3a80 cd3e 172c ca3e 3071 cd3e 3038 d43e
00000040: 9220 c63e c577 df3e 6fa4 e33e ad52 3abd
00000050: 70ed c53d 8712 1c3c 3af4 603c efd4 d73e
00000060: 5524 c03e 4bda be3e 0c3e b53e 779e 213e
00000070: 0234 a33b 4f83 cb3e e189 b1bc 99cb 103f
00000080: 083f d13e 1cdc bd3e 3adf d73e 103b ce3e
00000090: 8491 c73e db60 d33e 3ca9 d53e 425f 663f
000000a0: 5304 50bd cd6c f63e c236 d33e ea79 f53d
000000b0: a860 e1be 1c77 3abc da2f db3e 6544 9abe
000000c0: c00b 8f38 1d4d e13e 9209 d83e 14c2 db3e
000000d0: 2658 33bd 8d2b 023f 9e55 c73e b96a d33e
000000e0: 4295 03bd 6278 ac3f 8621 9b3c 8931 263f
000000f0: af69 b13a 4032 173d 36da 263f 1d22 c83e
00000100: ff91 c23e 634a a8bc 3ef5 ee3e 145f e13e
00000110: 2054 a03c b5d6 343f 746c c63e c50a 0c3f
00000120: fb03 b33f 9bfe 23bc 6e1d c03e 30c5 e83e
00000130: 525d 3e3d 5272 dd3e 1fd8 29bd d69a d33e
00000140: 9f03 923e 5afd e63e 4ecb 8e3d e161 ba3d
00000150: 411a d23e 63c9 cf3e 8aa1 d83e ec24 043f
00000160: fe89 aa3d dbc6 0d3c 38ba db3e ca5a bb3e
00000170: a6a0 65bb 936d 283d d741 eebc 604f 393d
00000180: 0180 c73e cc2e 8abc b292 40bd 53b4 e13e
00000190: f808 3b3c b177 cd3e 617a 353e bcef e2bc
000001a0: 857d e33e e0cd 903e ff78 183f 9369 883c
000001b0: 26a6 b73e 07ac cb3e e92d 1e3d 9cd4 c73e
000001c0: 1aea d33e 8a37 1b3b c8f0 d53e ee59 c43e
000001d0: a037 d23e 6b95 f7ba e8a8 4dbe a7a1 ec3e
000001e0: c035 243d 8c19 963c 29f2 153f d8f4 0cbe
000001f0: dba1 80bc 3dd2 c13e 05f8 c43e 9970 bebc
00000200: 3b0d 173d cb30 103e 8e8c ca3e 5ef7 f83e
00000210: bc7c 963e 8985 d23e e245 393d 9cc9 273f
00000220: 5fb2 c33e 4945 01bd 21e9 42bd 5935 90bc
00000230: b46f 233f 2fab 533d 387b 503f d58f c33e
00000240: a71c f03e 7f2c 92bb aa82 d9bc 8f5f 22bc
00000250: 452f dc3e 02d6 e33e f103 1e3e 4a98 ce3e
00000260: 45e2 a73c 7600 8dbb c5bc c63e 790d d13e
00000270: b763 073e 0f18 cd3e d29a ca3e 6c1c bf3e
00000280: f501 d93e 1bd3 0e3e 628b cabe 28f4 0fbc
00000290: bf25 9abc b815 0abe 8cc4 be3e 0095 21bd
000002a0: 3819 f6bc 3d1e 533f d80b 453d cdb6 35bd
000002b0: 14bc f33e 004a 87ba 05ad 00bd 8e79 d83e
000002c0: 4bb1 c13e 8884 b83e f238 b23e c0b5 ed3e
000002d0: edfc 393c 7465 4cbd 56d1 58bc f578 51bd
000002e0: 1e24 c13e 6e01 d23e f756 353d 0d98 c03e
000002f0: 1c02 c63e 38a1 0f3c 1b7f c73e 4f7b d43f
00000300: 40c4 adba 1754 173d 8d1b b5bc 7d80 793d
00000310: 7f4a 4c3f f712 7dbc f640 d13e b78a 02be
00000320: 65a0 3abd a5aa 773d 89b8 813f 244a c13e
00000330: bee7 55bd d2c4 d93e 67e2 28bb 5788 c7bb
00000340: 58ed 36be 5cb2 a8bc 5e49 2c3f b30a 9abb
00000350: dba7 503e d223 383f a4ec ba3e 652a d83e
00000360: 5dc0 233d 5397 ce3e 6770 83bc 6f8e c43d
00000370: 6dfb bc3e 08e6 63be 45f9 c13e cdbc 243d
00000380: a15d 3e3d 1613 d73e b021 37bd 9286 dd3e
00000390: e11a 20bd 48b8 ce3e 9bca 21be 9ef2 d03e
000003a0: 5527 623d 2dae 963f 1789 e13e 5210 c73e
000003b0: e2ba 093f 4ce3 b33e 4bc8 e43e 49c4 c43e
000003c0: 62da 133e db20 c73e f613 b43e a906 9a3d
000003d0: cdb3 243e 93fb c6bc 5ad9 bf3e d31d 2a3b
000003e0: 72c3 c93d f994 f73c 7aad 2c3d ad90 c83e
000003f0: abb5 333d 910b 4f3e 48e2 7d3c fce4 cf3e

network.8.bias f4 [3]
1.1987853 1.4271685 1.7210796
00000000: cc71 993f 75ad b63f 564c dc3f
