mountaincar_cl_project/runs/progressive/none/seed_2/online_stream_model.pth (torch, 536437 bytes, 8 tensors)

network.0.weight f4 [256, 2]
0.5904393 1.8156512 0.06715137 -1.3879715 0.044559553 -1.8344228 -0.12476489 -1.3989291
0.118547045 1.6334261 0.040121596 -0.39560416 -0.4078279 -3.4092543 -0.096634686 -0.38115436
0.16874261 -2.06557 0.41395664 2.6477025 0.20069723 1.6581631 -0.34394333 -0.3427868
-0.30815226 -0.4414484 0.14371805 -1.6206588 0.07045496 -0.24095894 0.09886768 -1.6436653
-0.36153725 -1.5014589 -0.39427763 -2.0934045 0.2080911 0.968533 0.070141315 -0.21047604
0.5023655 0.42227745 -0.3021822 0.3041697 -0.22517748 -0.6469977 -0.5603801 -0.13626587
0.16344823 3.953831 0.1816111 2.792477 0.22613105 -1.3108628 0.6227684 0.7320875
0.13960648 -1.7883234 0.33149537 -0.08928387 0.13047044 -1.8682024 -0.047852576 0.31542724
0.1194855 -1.4738592 0.6876537 -0.111413 -0.28197077 0.15923864 0.5965909 1.4919188
0.5751901 0.5903813 -0.057478845 -0.04858591 0.39835447 -0.61973566 0.5791147 -0.30476728
0.5952542 -1.1398095 0.23739237 0.37038487 -0.13429713 -0.5600239 -0.07339136 -0.7409351
0.31794542 -0.5110931 0.2942298 -0.5773895 -0.13969843 0.67117274 0.3776644 1.8922211
-0.17224276 0.48705965 -0.5772018 -0.3452091 -0.022398861 2.0561028 0.3700176 0.6418372
0.26294494 -1.6239781 0.57434624 -1.1480968 0.7591857 -0.012605359 0.00015711048 -0.00027725386
0.78318906 1.9473482 0.3450045 -0.037993968 -0.21461183 -2.8120356 0.516157 -0.3548746
0.27529755 3.9570303 0.035219114 -2.1778696 -0.31920072 -0.6046349 -0.18981656 -0.56533235
0.55323905 1.343379 0.044395495 -1.6614779 0.4183936 0.8746829 -0.059499674 1.073385
0.021829274 1.1471758 0.33239493 1.2081727 -0.25256607 -1.9448642 0.5959151 0.9415149
0.503239 -0.6887807 0.54335713 -1.4859494 0.40007395 0.49623126 0.5462663 -0.039614804
0.1475445 0.4274866 -0.31297264 1.8376656 -0.57362646 0.8348971 0.070970654 1.8918294
0.56136703 1.1639158 0.68694985 0.06498551 -0.03666572 1.4978818 -0.033071753 -0.3353062
-0.21405011 -0.29638338 0.091454744 1.9353056 0.10349567 -2.030324 0.37935886 2.088107
-0.29406947 0.6291386 0.29409343 1.415681 0.6763689 1.7270014 0.74830705 1.786394
-0.16054158 1.4743289 0.5311199 2.370338 0.68759286 1.6726074 -0.18807435 0.25211412
0.14798295 -0.1657477 -0.36776996 -0.097492136 -0.381486 0.141805 0.72636205 -1.6776983
0.07248218 -1.902861 0.21652307 -0.7409447 -0.61789167 0.25974748 -0.6011112 -0.2771342
-0.0005494952 -0.10282278 0.19676621 -0.9432852 0.5383257 0.35917073 0.42000693 0.35633606
-0.44942337 -0.3210026 -0.01788461 -2.4309113 0.6097822 0.7016932 0.14979614 1.9041908
0.39563102 -0.2593706 0.025551265 -2.5885553 -0.20529465 -1.9724209 0.0088634025 -0.2883548
-0.15308608 -2.1457293 0.59373224 2.0273829 0.66050166 -0.5296742 0.10884851 -0.6012676
0.037805498 -2.3435109 0.6841425 1.4084063 0.03005797 -1.8284011 0.18360443 -0.6884205
0.02554875 1.488252 0.28780508 -0.6813646 -0.1447311 0.0045285225 -0.15914625 0.012121216
00000000: 0827 173f 4267 e83f a886 893d 0da9 b1bf
00000010: 1484 363d 5ece eabf bc84 ffbd 1c10 b3bf
00000020: cbc8 f23d 1b14 d13f 8b56 243d a18c cabe
00000030: d2ce d0be 3931 5ac0 68e8 c5bd aa26 c3be
00000040: ddca 2c3e 4d32 04c0 20f2 d33e f573 2940
00000050: 9383 4d3e b03e d43f 5719 b0be c081 afbe
00000060: 22c6 9dbe 8605 e2be d32a 133e bf71 cfbf
00000070: b14a 903d f1bd 76be 237b ca3d a063 d2bf
00000080: 691b b9be ce2f c0bf c2de c9be 57fa 05c0
00000090: d515 553e c7f1 773f 40a6 8f3d 0887 57be
000000a0: 079b 003f c034 d83e a0b7 9abe 22bc 9b3e
000000b0: ed94 66be a4a1 25bf 1275 0fbf 4889 0bbe
000000c0: f95e 273e 910b 7d40 43f8 393e f1b7 3240
000000d0: e68e 673e 5aca a7bf c06d 1f3f 166a 3b3f
000000e0: 00f5 0e3e c8e7 e4bf c3b9 a93e 76da b6bd
000000f0: 0b9a 053e 4221 efbf 1001 44bd ae7f a13e
00000100: d0b4 f43d 6ba7 bcbf 130a 303f 802c e4bd
00000110: 795e 90be 740f 233e 2eba 183f 32f7 be3f
00000120: a93f 133f 3b23 173f f06e 6bbd 0502 47bd
00000130: 1ef5 cb3e ffa6 1ebf dc40 143f 750a 9cbe
00000140: 9462 183f 47e5 91bf fc16 733e 16a3 bd3e
00000150: 3085 09be ba5d 0fbf 364e 96bd ecad 3dbf
00000160: bec9 a23e ffd6 02bf 4aa5 963e cccf 13bf
00000170: 1b0d 0fbe fad1 2b3f 3a5d c13e 4d34 f23f
00000180: 6860 30be e25f f93e 7fc3 13bf 3fbf b0be
00000190: d17d b7bc 3097 0340 f272 bd3e 714f 243f
000001a0: b8a0 863e 84de cfbf 5b08 133f d6f4 92bf
000001b0: fe59 423f b586 4ebc 06be 2439 625c 91b9
000001c0: 147f 483f b542 f93f 6ea4 b03e 909f 1bbd
000001d0: 34c3 5bbe 64f8 33c0 dd22 043f 20b2 b5be
000001e0: cdf3 8c3e fc3f 7d40 eb41 103d 3762 0bc0
000001f0: 476e a3be 5ac9 1abf 465f 42be 9fb9 10bf
00000200: 13a1 0d3f d8f3 ab3f 0dd8 353d 4fab d4bf
00000210: b037 d63e 38eb 5f3f eeb5 73bd ae64 893f
00000220: 4ed3 b23c a8d6 923f ab2f aa3e 67a5 9a3f
00000230: 5750 81be 4ff1 f8bf e48d 183f 1f07 713f
00000240: 45d4 003f ef53 30bf 7419 0b3f 9733 bebf
00000250: 7ed6 cc3e 0612 fe3e 1cd8 0b3f 2243 22bd
00000260: e815 173e 86df da3e f33d a0be a038 eb3f
00000270: 2fd9 12bf d1bb 553f 1059 913d 7727 f23f
00000280: c0b5 0f3f 31fb 943f f2db 2f3f 2017 853d
00000290: cb2e 16bd 97ba bf3f 3f76 07bd 41ad abbe
000002a0: f42f 5bbe 90bf 97be a04c bb3d 18b8 f73f
000002b0: 8af5 d33d d4f0 01c0 533b c23e 8ca3 0540
000002c0: 4690 96be 3a0f 213f 6a93 963e 0935 b53f
000002d0: 8326 2d3f 620e dd3f 0d91 3f3f 8fa8 e43f
000002e0: 0365 24be cfb6 bc3f 79f7 073f 9eb3 1740
000002f0: 1606 303f 0018 d63f 9096 40be 1a15 813e
00000300: d888 173e c4b9 29be 584c bcbe f5a9 c7bd
00000310: 2252 c3be 5435 113e ddf2 393f d1be d6bf
00000320: 8a71 943d f390 f3bf 39b8 5d3e 8dae 3dbf
00000330: 262e 1ebf 9ffd 843e 6ce2 19bf 89e4 8dbe
00000340: 000c 10ba c094 d2bd 157d 493e 247b 71bf
00000350: b7cf 093f 3ae5 b73e 260b d73e ae71 b63e
00000360: d21a e6be 745a a4be bf82 92bc 0d94 1bc0
00000370: b01a 1c3f 2aa2 333f 2964 193e 86bc f33f
00000380: 2690 ca3e 39cc 84be e350 d13c e4aa 25c0
00000390: c338 52be 4a78 fcbf ce37 113c 3ea3 93be
000003a0: 99c2 1cbe a153 09c0 d6fe 173f a4c0 0140
000003b0: a316 293f ba98 07bf f8eb de3d acec 19bf
000003c0: f0d9 1a3d 15fc 15c0 f623 2f3f a846 b43f
000003d0: 223c f63c 0c09 eabf cd02 3c3e 533c 30bf
000003e0: 9d4b d13c 0b7f be3f 305b 933e e96d 2ebf
000003f0: 6434 14be 0064 943b 3cf7 22be 1198 463c

network.0.bias f4 [256]
0.011424514 0.09856282 0.09986514 -0.10736615 -0.04713318 -0.03338594 -0.4146673 -0.39926594
0.07928477 -0.09181856 -0.058442827 -0.52817297 -0.40444428 0.061941713 -0.05185436 0.1360961
-0.35953218 -0.32732853 -0.04430056 -0.34666666 -0.2877539 -0.54313755 -0.32701248 -0.70078135
-0.087751284 -0.08072105 -0.020079184 -0.18099177 0.16177478 -0.173974 0.060745846 -0.52972525
0.050336454 -0.5962672 -0.36307672 -0.088182196 -0.6054248 -0.0767866 -0.6567938 0.25904876
0.2730215 -0.34506938 -0.5208807 -0.13363345 -0.41173407 -0.28364998 -0.09078736 0.17399177
-0.5733607 -0.71839786 -0.0917138 -0.39839172 0.122971915 0.04009048 0.09212693 -0.00040411812
-0.11675142 -0.34165525 -0.19027665 -0.6500562 -0.1017203 0.11586152 -0.24291593 -0.29365966
-0.11526359 0.10845779 -0.014219662 -0.030811178 -0.0074930303 -0.05099537 -0.21506973 -0.08653349
-0.26292214 -0.026128646 -0.37147406 0.1990713 -0.38405597 -0.27933452 -0.48701316 -0.050833426
-0.09973599 -0.01335179 -0.01641471 -0.06119726 -0.30222148 -0.05102588 0.14762272 -0.06578018
-0.17427275 -0.0154301515 -0.14409412 -0.08109863 -0.1656498 0.014988358 -0.0762763 -0.290147
-0.5487678 -0.45410144 -0.48394716 -0.05520302 0.10221829 -0.076838054 -0.45793143 -0.49216652
-0.4698894 -0.007376258 -0.52139276 -0.504196 -0.66078913 -0.04945592 -0.06269972 -0.05368371
-0.2011916 -0.038279988 -0.1621373 -0.01804107 -0.12630884 -0.13927391 -0.4933607 -0.6000068
-0.019814122 -0.14679685 -0.01784007 -0.112381496 -0.034572367 -0.56517994 -0.6876653 -0.22596811
-0.14549328 -0.032974932 0.008230654 -0.30890512 -0.15916364 -0.13251615 -0.6549486 0.058016557
-0.02158607 0.04139329 -0.05731417 0.04755096 -0.6584024 -0.06904117 -0.6157813 -0.657171
0.08690291 -0.019407831 0.10057512 -0.1121946 0.04799636 -0.019619135 0.09309342 -0.30203056
-0.66226554 0.07379258 0.10548172 -0.16353922 -0.16814199 -0.42195958 -0.10118469 -0.44892478
0.15793136 0.13445222 0.043682583 -0.05714708 -0.6307371 -0.24363127 -0.61146027 -0.70548785
-0.06424724 -0.5914951 -0.04358981 0.15081309 -0.5905932 0.10887445 0.2737658 0.12850212
-0.06968646 -0.06031872 -0.09705657 -0.5475688 -0.1676336 0.027184961 0.2823225 -0.40661055
0.036637757 -0.5429159 -0.6962143 0.083801106 -0.693368 0.056160618 -0.53435576 -0.5491141
-0.5075956 -0.16108526 0.048497636 0.16183537 -0.6641351 -0.65866864 -0.099088244 -0.1924253
0.043226957 -0.5783633 -0.22728303 -0.050219834 -0.003387392 -0.02707635 -0.08031703 -0.41070616
0.019123893 0.04148205 -0.28972754 -0.06996712 -0.5087143 -0.25194028 -0.27644902 -0.54931134
-0.067404516 -0.07426368 -0.34495932 -0.13770007 -0.06025081 -0.021518962 -0.059311315 -0.47223282
-0.6393166 -0.5496426 0.20512412 -0.14423974 -0.08982588 -0.26166508 -0.20029718 -0.3872486
-0.04569539 -0.09578869 -0.04180371 -0.68104917 0.19780846 0.1341407 -0.44674647 -0.55783165
-0.29423535 -0.5421659 -0.3294035 -0.39971873 -0.37075743 -0.19572863 -0.015125261 0.10174332
-0.36030886 -0.5341029 -0.105980694 -0.024508877 -0.12584752 -0.12502986 -0.55791295 -0.68523127
00000000: e32d 3b3c 4edb c93d 1886 cc3d c9e2 dbbd
00000010: b90e 41bd b2bf 08bd 464f d4be 966c ccbe
00000020: 0e60 a23d 5f0b bcbd bf61 6fbd 5836 07bf
00000030: 5213 cfbe 98b6 7d3d 3d65 54bd c75c 0b3e
00000040: 9a14 b8be 9b97 a7be 8174 35bd 4b7e b1be
00000050: 7b54 93be 100b 0bbf 2e6e a7be 6866 33bf
00000060: f2b6 b3bd 1451 a5bd 1a7d a4bc e855 39be
00000070: 4aa8 253e 3e26 32be a3d0 783d 139c 07bf
00000080: 992d 4e3d f8a4 18bf 31e5 b9be de98 b4bd
00000090: 1ffd 1abf 4b42 9dbd a323 28bf 0aa2 843e
000000a0: 79c9 8b3e efac b0be 7058 05bf 35d7 08be
000000b0: cfce d2be 923a 91be b9ee b9bd e62a 323e
000000c0: c4c7 12bf ece8 37bf 72d4 bbbd 00fa cbbe
000000d0: b3d8 fb3d ea35 243d 0bad bc3d d1df d3b9
000000e0: 5e1b efbd 70ed aebe e2d7 42be 156a 26bf
000000f0: bc52 d0bd ce48 ed3d f4be 78be 8f5a 96be
00000100: 510f ecbd 1e1f de3d 96f9 68bc b967 fcbc
00000110: 1888 f5bb 85e0 50bd 3d3b 5cbe 7838 b1bd
00000120: bb9d 86be be0b d6bc d931 bebe 59d9 4b3e
00000130: fca2 c4be ef04 8fbe ca59 f9be b636 50bd
00000140: 6242 ccbd 77c1 5abc 2478 86bc faa9 7abd
00000150: c6bc 9abe 8300 51bd 692a 173e c2b7 86bd
00000160: 8e74 32be bfce 7cbc 698d 13be 0a17 a6bd
00000170: 1aa0 29be bb91 753c c036 9cbd 268e 94be
00000180: 0c7c 0cbf fc7f e8be ecc7 f7be 901c 62bd
00000190: d357 d13d 455d 9dbd fd75 eabe 40fd fbbe
000001a0: 5895 f0be 89b4 f1bb ff79 05bf fd12 01bf
000001b0: 7a29 29bf 4a92 4abd b668 80bd 73e3 5bbd
000001c0: 2c05 4ebe 7acb 1cbd 5207 26be deca 93bc
000001d0: 1b57 01be d29d 0ebe c699 fcbe 0c9a 19bf
000001e0: 3a51 a2bc ea51 16be 5725 92bc 4528 e6bd
000001f0: c19b 0dbd a2af 10bf d50a 30bf 2f64 67be
00000200: 31fc 14be b910 07bd ddd9 063c d028 9ebe
00000210: cbfb 22be 50b2 07be b6aa 27bf c5a2 6d3d
00000220: 45d5 b0bc 038c 293d 43c2 6abd ccc4 423d
00000230: 0f8d 28bf 7565 8dbd d8a3 1dbf 5c3c 28bf
00000240: 27fa b13d 2cfd 9ebc 54fa cd3d 48c6 e5bd
00000250: d597 443d 4fb8 a0bc c3a7 be3d c0a3 9abe
00000260: 3c8a 29bf 9020 973d cd06 d83d d376 27be
00000270: 6a2d 2cbe 160b d8be eb39 cfbd 78d9 e5be
00000280: c2b8 213e d8ad 093e 82ec 323d 0e13 6abd
00000290: fd77 21bf 7a7a 79be a988 1cbf da9a 34bf
000002a0: 0f94 83bd 396c 17bf 3b8b 32bd bf6e 1a3e
000002b0: 1e31 17bf 91f9 de3d 082b 8c3e 0f96 033e
000002c0: c6b7 8ebd c310 77bd 98c5 c6bd 782d 0cbf
000002d0: 24a8 2bbe ffb2 de3c 938c 903e 422f d0be
000002e0: 7911 163d 89fc 0abf 1a3b 32bf ea9f ab3d
000002f0: 9180 31bf ad08 663d 8acb 08bf be92 0cbf
00000300: c9f1 01bf 89f3 24be 75a5 463d 2cb8 253e
00000310: c204 2abf 829e 28bf c7ee cabd 230b 45be
00000320: c00e 313d 9e0f 14bf e2bc 68be 50b3 4dbd
00000330: 02ff 5dbb 39cf ddbc 417d a4bd 1448 d2be
00000340: b6a9 9c3c 15e9 293d 2b57 94be ec4a 8fbd
00000350: 1a3b 02bf 51fe 80be ba8a 8dbe ab9f 0cbf
00000360: 610b 8abd 8e17 98bd 829e b0be 3f01 0dbe
00000370: 8ec9 76bd 8948 b0bc 6cf0 72bd 80c8 f1be
00000380: 41aa 23bf 61b5 0cbf 0f0c 523e 95b3 13be
00000390: a2f6 b7bd f7f8 85be b41a 4dbe 7345 c6be
000003a0: 172b 3bbd dc2c c4bd 5e3a 2bbd 3d59 2ebf
000003b0: 4d8e 4a3e 2e5c 093e f4bb e4be 0ece 0ebf
000003c0: 04a6 96be 62cb 0abf 93a7 a8be efa7 ccbe
000003d0: ebd3 bdbe 166d 48be f1cf 77bc cd5e d03d
000003e0: 677a b8be f8ba 08bf 680c d9bd d7c6 c8bc
000003f0: 2cde 00be d407 00be 62d3 0ebf 516b 2fbf

network.3.weight f4 [256, 256]
-0.08040922 -0.07756515 -0.043578535 -0.3387549 -0.5651673 0.034554068 -0.21890979 0.03531553
-0.06724119 -0.14259163 -0.0051106387 -0.047066048 0.18261892 -0.23287454 -0.024640877 -0.025589019
-0.06147628 -0.53895384 -0.14022191 0.036064126 -0.01001399 0.03181169 -0.0047702733 -0.05925464
-0.5274185 -0.73253435 0.2581802 -0.10530483 -0.0034784188 -0.055973988 -0.04393259 0.04300262
-0.12195543 0.020968914 -0.055577494 0.089440785 -0.0023288578 0.06382112 0.052320138 -0.21667331
-0.11253624 0.0521816 -0.011043534 -0.0011837797 0.011565857 -0.0049591064 -0.40796295 -0.844442
-0.0021944866 0.19630252 -1.1147052 0.016607612 -0.32407814 0.0015100153 -0.03523123 0.038314432
-0.1687275 -0.02670931 -0.30210024 -0.011324063 -0.5447392 -0.057803657 -0.37119287 -0.002814874
0.058055352 -0.007045795 -0.005093657 -1.0481366 -0.6897556 -0.08056043 -0.61537355 0.016155167
0.056399584 -0.04722859 -0.014254466 -0.11408903 0.057713367 -0.16267139 -0.16750196 -0.6573729
0.023577854 -0.010999694 -0.87959164 -0.016952043 0.053260945 -0.77567863 -0.054272164 0.15055777
-0.08947837 -0.0018013156 -0.009653226 0.0022438182 -0.45975277 -0.13155761 -0.045219544 -0.017078534
0.04414908 0.030815346 0.02713485 -0.08911629 0.06584751 -0.03821046 -0.16023289 -0.25882816
-0.037022315 0.14890477 -0.0043377504 -0.0073238984 0.03685548 -0.031837564 -0.049743198 -0.7096142
0.058595657 -0.18617597 -0.1711033 -0.057230927 -0.022175506 0.047277518 -0.036777563 -0.036959507
-0.16612346 0.055490952 -0.013443107 0.009027846 0.030159097 -0.008991271 0.02335056 0.1508977
-0.52086526 0.025736207 -0.020408642 -0.25880975 0.010614149 -0.3286884 -0.09930809 -0.07602807
-0.16213037 -0.1675898 -0.052076615 -0.08832611 0.02522669 -0.91923916 -0.033802062 -0.060587473
-0.0007709505 -0.018067278 -0.85393083 -0.13547672 -0.10322579 -0.027499974 0.05078881 -0.43017304
0.009462163 -0.058112733 -0.045119833 -0.5574431 0.05311741 0.031955324 -0.0943812 -0.06213776
-0.33545074 -0.008986517 -0.24745356 -0.21916294 0.018831864 0.024620332 -0.27744272 0.010662727
-0.04779801 -0.005141869 -0.4807617 -0.33764917 -0.057435147 -0.26828325 -0.35005283 -0.03227361
-0.0070145526 0.07630694 -0.58187526 -0.058643572 -0.11685469 -0.015838988 -0.5880155 0.010448441
-0.009808628 0.061196163 -0.007980429 -0.027272299 -0.12375953 -0.3444685 0.0010264441 -0.035746723
-0.35262227 -0.28222784 -0.15356642 -0.374401 0.033669144 0.018637493 -0.2805855 -0.056141824
-0.31626138 -0.062033616 -0.5520401 0.087688595 -0.11885452 -0.0015763199 0.13129213 0.0600426
-0.20185457 -0.18120126 0.030649103 -0.09837286 -0.25725874 0.05879014 0.0058948146 -0.0056252107
-0.9753138 0.0104935225 -0.016382575 0.0077797878 0.10764275 -0.07639545 -0.13296464 -0.051667735
0.04263647 -0.0017299578 -0.18864281 -0.015312884 0.007809608 0.032324113 0.10984408 0.008213833
0.012792445 -0.05944241 -0.6507601 0.0030555949 -0.6025262 -0.0065096314 0.023486912 0.005902715
-0.55670685 -0.06211096 -0.0079401955 -0.026626745 -0.3608604 -0.28255633 -0.6065833 0.02116468
-0.058611546 -0.008615036 -0.051580902 -0.025865681 -0.5323051 -0.008815598 -0.003353238 0.003576085
00000000: 97ad a4bd 7ada 9ebd 687f 32bd 4871 adbe
00000010: ceae 10bf 9188 0d3d e329 60be 04a7 103d
00000020: c0b5 89bd 8a03 12be 2577 a7bb 54c8 40bd
00000030: 7400 3b3e aa76 6ebe aadb c9bc 10a0 d1bc
00000040: 8dce 7bbd e1f8 09bf 5596 0fbe fab7 133d
00000050: b811 24bc fa4c 023d f44f 9cbb feb4 72bd
00000060: e604 07bf 5f87 3bbf 3230 843e 0faa d7bd
00000070: 2ff6 63bb fb44 65bd a9f2 33bd 8423 303d
00000080: c5c3 f9bd 00c7 ab3c 3aa5 63bd bb2c b73d
00000090: c09f 18bb a6b4 823d a44d 563d 9cdf 5dbe
000000a0: 6679 e6bd 60bc 553d f0ef 34bc 0e29 9bba
000000b0: b87e 3d3c 0080 a2bb 85e0 d0be 5a2d 58bf
000000c0: 60d1 0fbb 8703 493e a9ae 8ebf b00c 883c
000000d0: 92ed a5be b5eb c53a 9f4e 10bd 98ef 1c3d
000000e0: e7c6 2cbe 7ccd dabc e2ac 9abe 9088 39bc
000000f0: 0774 0bbf 87c3 6cbd fe0c bebe c079 38bb
00000100: 73cb 6d3d 6ae0 e6bb b1e8 a6bb 5729 86bf
00000110: d393 30bf defc a4bd 1f89 1dbf d757 843c
00000120: 4003 673d c472 41bd 908b 69bc 82a7 e9bd
00000130: da64 6c3d 5493 26be a285 2bbe 9749 28bf
00000140: 5826 c13c 0f38 34bc eb2c 61bf 03df 8abc
00000150: 2628 5a3d e092 46bf 7d4c 5ebd d12b 1a3e
00000160: 7040 b7bd 1f1a ecba 9028 1ebc 060d 133b
00000170: b764 ebbe 0ab7 06be 2138 39bd 48e8 8bbc
00000180: aad5 343d 7770 fc3c e849 de3c 9a82 b6bd
00000190: 0fdb 863d 9282 1cbd 1714 24be 2085 84be
000001a0: b6a4 17bd 7e7a 183e b023 8ebb 50fd efbb
000001b0: c6f5 163d 1b68 02bd 86bf 4bbd 47a9 35bf
000001c0: 0002 703d eaa4 3ebe b435 2fbe fa6a 6abd
000001d0: 68a9 b5bc 12a6 413d 12a4 16bd da62 17bd
000001e0: 451c 2abe 7b4a 633d 7a40 5cbc 88e9 133c
000001f0: 3610 f73c 2050 13bc ac49 bf3c ed84 1a3e
00000200: 6d57 05bf bdd4 d23c 0630 a7bc b682 84be
00000210: f8e6 2d3c d949 a8be 0a62 cbbd 9bb4 9bbd
00000220: 8105 26be a99c 2bbe 4a4e 55bd 52e4 b4bd
00000230: 34a8 ce3c 4253 6bbf 0874 0abd 922a 78bd
00000240: 9d19 4aba d401 94bc 369b 5abf 69ba 0abe
00000250: 0b68 d3bd a047 e1bc ed07 503d a43f dcbe
00000260: 3007 1b3c 9e07 6ebd 93cf 38bd 97b4 0ebf
00000270: a491 593d 96e3 023d ee4a c1bd 2a84 7ebd
00000280: 33c0 abbe 2f3c 13bc 7764 7dbe 406c 60be
00000290: 4845 9a3c 94b0 c93c f90c 8ebe b8b2 2e3c
000002a0: d9c7 43bd 207d a8bb 6626 f6be 5ae0 acbe
000002b0: 1e41 6bbd 6c5c 89be 203a b3be 5531 04bd
000002c0: 55da e5bb d046 9c3d c7f5 14bf 3e34 70bd
000002d0: 8351 efbd c4c0 81bc 2f88 16bf f02f 2b3c
000002e0: 5eb4 20bc d4a8 7a3d 58c0 02bc 286a dfbc
000002f0: a375 fdbd 2d5e b0be c089 863a 286b 12bd
00000300: e88a b4be 2b80 90be 8440 1dbe 7db1 bfbe
00000310: a8e8 093d a8ad 983c e7a8 8fbe f8f4 65bd
00000320: 03ed a1be f616 7ebd 8052 0dbf 1496 b33d
00000330: 006a f3bd 859c ceba 7271 063e 3bef 753d
00000340: f7b2 4ebe d38c 39be d413 fb3c b677 c9bd
00000350: 6bb7 83be eecd 703d 4a29 c13b b053 b8bb
00000360: 2aae 79bf 06ed 2b3c c034 86bc 97ed fe3b
00000370: cd73 dc3d 3875 9cbd e227 08be 8ca1 53bd
00000380: 94a3 2e3d c0bf e2ba 952b 41be e4e2 7abc
00000390: bde7 ff3b 4a66 043d eff5 e03d 5093 063c
000003a0: 6797 513c e279 73bd 3798 26bf 6040 483b
000003b0: 283f 1abf bf4e d5bb a067 c03c 906b c13b
000003c0: 5784 0ebf 1068 7ebd 9817 02bc 5520 dabc
000003d0: b2c2 b8be 39ab 90be 0b49 1bbf 8d61 ad3c
000003e0: a912 70bd 1426 0dbc 7f46 53bd 44e4 d3bc
000003f0: 2645 08bf 4c6f 10bc 00c2 5bbb c05c 6a3b

network.3.bias f4 [256]
0.07282276 -0.0074398844 0.08845838 0.18452778 -0.011192233 -0.032959387 0.13405073 -0.0070171566
0.060731776 -0.017357932 -0.008183061 0.23211534 -0.014193931 0.15131682 0.14010866 0.20546998
-0.04999634 0.098966934 0.14970961 0.079219304 0.05705147 0.2753099 0.14312392 -0.024316112
0.1321 0.11090718 -0.05200245 0.07248763 0.07518164 0.17383415 0.18484505 0.21111591
-0.0733238 0.11780165 0.08924099 -0.21503584 -0.01842357 -0.06345173 -0.02690207 -0.049331177
0.18079047 -0.06335975 -0.11862222 0.050087314 -0.00025345074 -0.06770031 0.09749284 0.17030768
-0.05231068 0.08570284 0.09210325 -0.022948826 0.10752753 -0.033723447 -0.0043032034 -0.010130578
0.18491156 0.14757335 0.16648608 0.1821742 -0.017811693 -0.069242544 0.056633234 0.0962839
0.07040225 0.05991587 0.054246936 0.082733676 0.025077116 -0.033775292 -0.08501213 0.24331866
-0.042737518 0.07772361 -0.029845359 -0.04452089 0.15977578 0.14471537 0.093244344 -0.013436066
-0.02897031 0.07803558 -0.012421384 0.13916029 -0.04850239 -0.04717317 -0.004336019 0.08046648
-0.061786417 -0.06395801 0.10943479 0.11168089 -0.0290981 -0.00527518 -0.071304604 -0.07147158
-0.06803126 0.030454744 0.06321441 0.06390664 -0.06424256 0.09335523 0.104206815 0.058125835
-0.04145119 0.03511587 0.14586332 -0.04171934 0.11323995 -0.047732394 -0.03191678 0.09702724
-0.06547311 -0.054805186 0.18731779 0.11792476 0.013135118 0.14531307 0.21805276 -0.01875707
-0.073981024 0.026368616 0.14175406 0.09120244 0.12719889 0.20660178 0.13250187 -0.005837784
0.079394646 -0.017527357 0.08377908 -0.018935112 0.20158856 -0.053291768 -0.060606293 0.16278806
0.08753404 -0.049596217 -0.008723188 -0.061136823 -0.0354861 -0.02538066 0.09451053 -0.014237436
-0.015320477 0.12634763 -0.049326006 -0.036959406 0.103843026 0.11862046 0.050014544 -0.05017995
-0.020786284 0.13240226 0.08894108 -0.055767316 -0.043835297 -0.08064204 -0.014634247 -0.064525716
-0.014449489 -0.01672082 -0.0034256321 0.08699931 0.16586852 0.23213764 0.10272269 0.17247728
-0.019289574 -0.012188342 0.14377709 -0.0023164747 0.10977673 -0.07990533 -0.071272716 -0.014685658
0.0801645 0.051692188 -0.011516127 0.10862347 0.09737163 0.12599955 -0.039943866 0.18500467
-0.025452757 0.12100207 0.080237865 0.15061021 -0.020700939 -0.030778157 0.05264485 -0.022497604
0.15645637 0.10372076 0.092586696 0.08400568 -0.08257036 0.13374734 0.06439075 -0.03154409
-0.08151103 0.15233944 -0.016441967 0.17510295 0.07721906 0.10569271 0.047866687 0.1140995
0.13624832 -0.012998646 -0.014645544 0.1083617 -0.0057121525 0.15269263 -0.004241151 0.000877923
-0.020068057 0.05953397 0.13282205 -0.04430208 -0.011403783 -0.029581683 0.19634439 0.19158368
-0.0071186926 0.1377518 -0.05830824 -0.012632087 0.19143799 -0.032126393 0.1455027 0.073525704
0.089143306 0.022943117 -0.03511318 0.07674008 0.1558631 0.11926193 -0.05608265 0.072019756
-0.043166153 0.10085137 -0.06287157 0.077876925 0.21188249 -0.012466106 -0.013963298 -0.028377345
0.06337721 0.019875119 0.06153164 0.14408205 0.1729817 -0.043212336 0.19485082 0.13205424
00000000: 1924 953d 46ca f3bb ab29 b53d daf4 3c3e
00000010: a15f 37bc 6c00 07bd 9844 093e 2df0 e5bb
00000020: e2c1 783d 3932 8ebc 3f12 06bc a5af 6d3e
00000030: a98d 68bc ccf2 1a3e a578 0f3e b966 523e
00000040: f6c8 4cbd 2daf ca3d 7a4d 193e bb3d a23d
00000050: cdae 693d 6bf5 8c3e 148f 123e 9532 c7bc
00000060: 3945 073e 4e23 e33d 8500 55bd 6574 943d
00000070: d5f8 993d 9401 323e 0548 3d3e c52e 583e
00000080: ca2a 96bd fe41 f13d fbc3 b63d 5b32 5cbe
00000090: 07ed 96bc fbf2 81bd bb61 dcbc 7d0f 4abd
000000a0: 2321 393e c2c2 81bd 35f0 f2bd 5b28 4d3d
000000b0: 95e1 84b9 76a6 8abd 53aa c73d 2365 2e3e
000000c0: b943 56bd f884 af3d a1a0 bc3d 2dff bbbc
000000d0: 6537 dc3d 9921 0abd e301 8dbb b9fa 25bc
000000e0: 7559 3d3e 781d 173e 547b 2a3e e08b 3a3e
000000f0: d4e9 91bc 09cf 8dbd 40f8 673d 7e30 c53d
00000100: 0e2f 903d 586a 753d 0932 5e3d 4670 a93d
00000110: 866e cd3c f657 0abd d71a aebd 8728 793e
00000120: 890d 2fbd 8e2d 9f3d 417e f4bc 895b 36bd
00000130: 439c 233e 4430 143e e4f6 be3d f222 5cbc
00000140: 2553 edbc 1ed1 9f3d 1083 4bbc 0980 0e3e
00000150: 71aa 46bd a738 41bd 2a15 8ebb 9ccb a43d
00000160: c113 7dbd 6bfc 82bd 591f e03d f3b8 e43d
00000170: 235f eebc 6bdb acbb 2608 92bd b15f 92bd
00000180: f953 8bbd 3a7c f93c 8e76 813d 7ce1 823d
00000190: 9a91 83bd 0731 bf3d 626a d53d 5b15 6e3d
000001a0: b9c8 29bd a9d5 0f3d 325d 153e e6e1 2abd
000001b0: 59ea e73d 0b83 43bd 2bbb 02bd 38b6 c63d
000001c0: c416 86bd 677b 60bd 3cd0 3f3e 8982 f13d
000001d0: ae34 573c f3cc 143e 3949 5f3e 6da8 99bc
000001e0: 5d83 97bd ff02 d83c fa27 113e 58c8 ba3d
000001f0: 6d40 023e 6b8f 533e 92ae 073e e24a bfbb
00000200: a999 a23d 8895 8fbc 5e94 ab3d cf1d 9bbc
00000210: 3b6d 4e3e 7848 5abd 4e3e 78bd eab1 263e
00000220: 0c45 b33d 6725 4bbd b4eb 0ebc 9b6a 7abd
00000230: df59 11bd 1aeb cfbc bd8e c13d 2244 69bc
00000240: bd02 7bbc 4661 013e 110a 4abd bf62 17bd
00000250: a7ab d43d 49ef f23d 0ddc 4c3d 7e89 4dbd
00000260: ff47 aabc 7594 073e be26 b63d 456c 64bd
00000270: a48c 33bd a727 a5bd 7bc4 6fbc 0f26 84bd
00000280: 8dbd 6cbc 1afa 88bc 9280 60bb b22c b23d
00000290: 70d9 293e 7db5 6d3e 4660 d23d e29d 303e
000002a0: 2b05 9ebc 9db1 47bc 4d3a 133e ffcf 17bb
000002b0: 9fd2 e03d 68a5 a3bd 6ef7 91bd 1d9c 70bc
000002c0: 492d a43d 30bb 533d 23ae 3cbc fb75 de3d
000002d0: c76a c73d 0706 013e 2e9c 23bd dd71 3d3e
000002e0: 4d82 d0bc efcf f73d c053 a43d 9039 1a3e
000002f0: 0495 a9bc 7922 fcbc 20a2 573d e54c b8bc
00000300: 1936 203e 8d6b d43d 189e bd3d 2c0b ac3d
00000310: a61a a9bd 10f5 083e 4cdf 833d 6034 01bd
00000320: 41ef a6bd dffe 1b3e 4eb1 86bc 304e 333e
00000330: 0725 9e3d 6b75 d83d dc0f 443d 00ad e93d
00000340: ae84 0b3e 46f8 54bc ddf3 6fbc bdec dd3d
00000350: 022d bbbb 755b 1c3e 5af9 8abb 6a24 663a
00000360: c465 a4bc e4d9 733d 8102 083e 1976 35bd
00000370: efd6 3abc 4955 f2bc 810e 493e 832e 443e
00000380: ec43 e9bb cf0e 0d3e 9fd4 6ebd d0f6 4ebc
00000390: 5208 443e f796 03bd a9fe 143e a594 963d
000003a0: c490 b63d 34f3 bb3c d6d2 0fbd e729 9d3d
000003b0: 949a 1f3e 993f f43d ecb6 65bd 187f 933d
000003c0: fece 30bd 2a8b ce3d cfc2 80bd f07d 9f3d
000003d0: b9f7 583e a33e 4cbc 51c6 64bc 9b77 e8bc
000003e0: e9cb 813d 25d1 a23c 9a08 7c3d 3f8a 133e
000003f0: 1d22 313e 6bff 30bd f986 473e 3a39 073e

network.6.weight f4 [256, 256]
-0.20838402 0.009550184 -0.26486048 -0.14473946 -0.054679167 -0.055483833 -0.31878874 0.027400581
0.070042096 -0.013362803 0.0562311 0.113679215 -0.0227979 0.0822918 -0.08489375 0.14654371
0.053616 0.3107475 -0.17135516 -0.020604258 0.057384674 0.1021758 0.12798914 0.023560466
0.00037797674 -0.011438324 0.048586562 -0.305987 -0.040036723 -0.23049338 -0.034777068 -0.13745962
-0.04801248 -0.513364 -0.1540801 -0.11954845 0.05744107 0.04876518 -0.0072450647 0.052330896
0.08775785 -0.114228174 -0.015808813 -0.0052376622 0.055510193 0.045442626 0.076520756 -0.49089995
0.046267442 0.057348844 -0.070443235 0.05849587 -0.061122153 0.037241925 0.35376596 0.0047671497
-0.4890303 0.062266245 -0.4502843 0.3413608 0.053378347 -0.020873945 -0.11010567 -0.6316019
-0.1104736 0.04371462 -0.21657065 -0.0038169846 0.30914515 -0.019970872 0.04062762 0.060804
0.13976277 -0.25740865 -0.00057063875 -0.053461008 0.0057020737 -0.36008787 -0.025073418 -0.01228172
-0.15682463 -0.16564749 0.10802999 -0.25572073 -0.045937967 -0.025183901 0.053023096 -0.1772554
0.019157859 -0.039199576 -0.24620497 -0.029978069 -0.060294334 -0.020474905 0.027277397 0.07805659
0.015571006 0.19313353 -0.033950515 0.10536511 -0.028922973 -0.17581433 -0.18116957 0.08655753
0.02439592 0.3196571 -0.10641435 -0.002846308 -0.23696272 -0.05138827 0.024337325 0.12814817
-0.0443871 0.04569548 0.26122648 0.26787353 0.22542414 0.086490065 0.2046758 -0.01839535
0.06710437 -0.29227397 -0.469039 0.08928071 -0.09900045 0.29405823 -0.05467371 0.24731769
-0.009464784 -0.05438128 -0.13154191 0.0328165 0.2869841 -0.023404693 0.0055526197 0.07883467
-0.16693144 -0.062066056 0.04533455 -0.045297526 -0.0005757317 -0.059080467 0.04442028 -0.06448096
-0.01211966 -0.47233728 -0.2071496 -0.045044042 -0.3992292 0.03377417 0.05624014 -0.044163898
-0.042372044 0.20651901 -0.29679164 0.012019597 0.028377721 -0.03713374 -0.012658956 0.06108415
0.040860076 0.056863368 0.03224714 0.09173338 -0.5315267 0.14049229 -0.08307926 -0.19501312
-0.054203466 -0.04251457 -0.048243053 -0.0153687075 -0.07156252 0.016089153 -0.036835592 -0.011440651
-0.124296166 -0.03367844 0.046303827 -0.19947563 -0.15384293 -0.0027550987 0.028583713 -0.12997659
0.013313954 0.22108918 -0.13706502 0.09387637 -0.044181935 -0.024982953 0.020300025 0.035567425
0.15465158 -0.4761747 0.21496728 -0.24485601 0.37885833 -0.03009749 0.01866926 0.022175852
0.0097646415 -0.066162646 0.024456065 -0.19171825 0.030727778 -0.2319421 0.16226833 -0.32951468
-0.09796232 0.012348975 -0.04563822 -0.19435792 0.009386048 0.10139497 -0.060947936 -0.1321612
0.04722036 0.1204076 0.10699643 0.032735433 0.30596885 -0.05529888 0.09150542 0.04212062
0.00018172075 -0.11984979 0.03954193 0.043169484 -0.0710662 -0.012912117 -0.016738947 -0.15647532
-0.11928972 -0.17820098 0.0061946767 -0.11699915 -0.019756269 -0.10320089 -0.0019993267 -0.15695912
-0.03235534 -0.22809836 -0.010692544 -0.29190123 0.18726441 0.029884435 -0.000358759 0.21679845
-0.022303201 -0.02540886 0.07359801 0.07256663 -0.44833514 -0.09733417 -0.1897909 0.13418137
00000000: 9f62 55be 6078 1c3c cb9b 87be 9536 14be
00000010: 43f7 5fbd 0443 63bd 4738 a3be 2f77 e03c
00000020: 3b72 8f3d a8ef 5abc 9552 663d a6d0 e83d
00000030: a9c2 babc 9a88 a83d c6dc adbd 8e0f 163e
00000040: 739c 5b3d 4c1a 9f3e ba77 2fbe 43ca a8bc
00000050: 310c 6b3d 8c41 d13d 960f 033e e101 c13c
00000060: 2e2b c639 cf67 3bbc b402 473d 54aa 9cbe
00000070: 8cfd 23bd 7506 6cbe 6672 0ebd 37c2 0cbe
00000080: bca8 44bd d36b 03bf 2cc7 1dbe d1d5 f4bd
00000090: 5447 6b3d ffbd 473d 0268 edbb ec58 563d
000000a0: 63ba b33d 76f0 e9bd 7c81 81bc b2a0 abbb
000000b0: a85e 633d 0c22 3a3d eab6 9c3d 3d57 fbbe
000000c0: ee82 3d3d 9fe6 6a3d 8b44 90bd 5e99 6f3d
000000d0: 395b 7abd fd8a 183d d020 b53e c035 9c3b
000000e0: 2e62 fabe e40a 7f3d aa8b e6be d8c6 ae3e
000000f0: 41a3 5a3d d6ff aabc 157f e1bd aab0 21bf
00000100: fc3f e2bd 1a0e 333d b2c4 5dbe 6026 7abb
00000110: 4648 9e3e f499 a3bc 2669 263d 9d0d 793d
00000120: f91d 0f3e 11cb 83be eb96 15ba eef9 5abd
00000130: 76d8 ba3b 705d b8be c566 cdbc 4439 49bc
00000140: a396 20be 7f9f 29be d43e dd3d d4ed 82be
00000150: 7329 3cbd 784e cebc bf2e 593d 7182 35be
00000160: f1f0 9c3c bc8f 20bd 281d 7cbe 9194 f5bc
00000170: 31f7 76bd fdba a7bc d974 df3c 22dc 9f3d
00000180: 881d 7f3c ccc4 453e b20f 0bbd aac9 d73d
00000190: dfef ecbc ac08 34be 8484 39be 1345 b13d
000001a0: f4d9 c73c 18aa a33e c4ef d9bd 2089 3abb
000001b0: 5ba6 72be 827c 52bd 125f c73c 4639 033e
000001c0: 3fcf 35bd 2f2b 3b3d 7abf 853e b826 893e
000001d0: 96d5 663e b421 b13d 8896 513e d8b1 96bc
000001e0: 046e 893d efa4 95be e125 f0be ced8 b63d
000001f0: bfc0 cabd cd8e 963e 8af1 5fbd d940 7d3e
00000200: 2e12 1bbc e8be 5ebd ecb2 06be 986a 063d
00000210: 94ef 923e 33bb bfbc c0f2 b53b 1274 a13d
00000220: 13f0 2abe fa38 7ebd b9b0 393d e689 39bd
00000230: b3ec 16ba 5cfe 71bd 0af2 353d 980e 84bd
00000240: 8a91 46bc 31d6 f1be 061f 54be 1a80 38bd
00000250: c567 ccbe c956 0a3d 105c 663d 34e5 34bd
00000260: 4f8e 2dbd b879 533e 13f5 97be d8ed 443c
00000270: 6578 e83c 8c19 18bd 8367 4fbc 6033 7a3d
00000280: e55c 273d 90e9 683d 9415 043d b6de bb3d
00000290: 2212 08bf 36dd 0f3e 7625 aabd 85b1 47be
000002a0: 7404 5ebd c223 2ebd 829a 45bd 08cd 7bbc
000002b0: 5f8f 92bd 66cd 833c ebe0 16bd 9171 3bbc
000002c0: fd8e febd 67f2 09bd 15a9 3d3d 5743 4cbe
000002d0: 0089 1dbe e38e 34bb 6428 ea3c 9518 05be
000002e0: c522 5a3c 3465 623e c65a 0cbe 4142 c03d
000002f0: 1ef8 34bd 0da9 ccbc 3d4c a63c 26af 113d
00000300: fc5c 1e3e 2ccd f3be 6220 5c3e 89bb 7abe
00000310: b8f9 c13e 038f f6bc 47f0 983c 22aa b53c
00000320: e0fb 1f3c 4880 87bd 1658 c83c ca51 44be
00000330: d2b8 fb3c 3b82 6dbe ab29 263e 26b6 a8be
00000340: 78a0 c8bd 5b53 4a3c 24ef 3abd c305 47be
00000350: f0c7 193c 2ba8 cf3d 8ba4 79bd 4455 07be
00000360: 236a 413d 4398 f63d f220 db3d 9715 063d
00000370: f3a7 9c3e 1481 62bd 3267 bb3d ac86 2c3d
00000380: 4b8c 3e39 cf73 f5bd b8f6 213d 7cd2 303d
00000390: 288b 91bd 588d 53bc 1e20 89bc 113b 20be
000003a0: 2b4e f4bd 517a 36be b7fc ca3b 409d efbd
000003b0: e6d7 a1bc fd5a d3bd 2307 03bb e4b9 20be
000003c0: 0887 04bd 9e92 69be c82f 2fbc 1474 95be
000003d0: 3ec2 3f3e 34d0 f43c d117 bcb9 6a00 5e3e
000003e0: 34b5 b6bc 3e26 d0bc 8eba 963d d09d 943d
000003f0: 2f8c e5be 2357 c7bd 8c58 42be d766 093e

network.6.bias f4 [256]
1.1417239 0.3288163 0.9446827 -0.17049938 0.36772937 0.5798019 0.8938541 0.96737856
0.15051165 1.242227 1.0717298 0.88590306 1.0369576 1.0473852 0.9871307 -0.0843846
1.6162361 1.5880275 1.0321509 -0.5471038 0.94693744 0.4261781 0.93626404 -0.25176784
1.0653392 0.9990116 0.9410523 1.230106 1.1629366 0.99511653 1.0244191 1.3138736
-0.24911895 0.7353948 1.0482464 0.9818295 0.4359743 -0.12611791 1.1498513 0.9868176
1.2852433 0.9875693 -0.11930192 0.97233605 0.4372559 0.9904894 0.9862916 0.96470565
1.0464946 1.0455754 0.9508058 -0.18410924 0.96557844 1.0789732 1.1295778 -0.14267457
0.87298363 -0.30506024 0.60697377 1.0351504 -0.18170363 0.25618517 -0.115200914 0.937067
1.0874953 -0.23154308 1.6555231 1.1932284 -0.83732426 -0.11120457 -0.21972953 1.0647104
0.3243607 0.8593884 1.0220988 1.1212349 -0.08397042 1.0603907 0.4742209 1.0593078
-0.28584793 -0.10934603 0.8995307 1.0054872 0.9194473 1.07609 1.0436324 0.35888293
0.9354658 0.18701555 0.7307632 1.3766897 0.32775736 0.976639 -0.33304843 0.16139057
0.87843555 1.0353338 -0.14968258 1.5336702 0.87927705 0.58946633 0.9079559 0.9776131
1.0249864 -0.19352338 1.0111357 1.0290221 -0.08950826 1.0200899 0.9600761 1.6652639
0.92742574 0.385123 1.0975872 0.96449226 1.0591652 -0.1306382 0.105602175 1.245256
-0.07374153 1.0521979 0.3976859 1.0467438 0.9014167 1.0653995 0.91826344 1.6351589
-0.06780686 0.45791355 0.9519546 0.9712351 0.94300354 1.0306023 0.9057111 0.9188822
0.9743346 0.93242073 0.8959079 1.0246625 1.0250387 0.9534598 0.9873013 0.88686407
1.1389769 1.0136007 1.0169017 1.0660404 0.9748227 0.9878212 0.96835494 1.087715
0.98466927 -0.25434104 1.0794717 0.9882291 1.0450395 1.3564777 1.0087787 0.97125125
1.0910411 -0.18433993 1.0308024 0.53624547 0.8908295 1.041492 0.82246 0.7858242
0.27091765 1.0735621 0.94950473 1.2141149 0.6388663 0.91429865 1.0692024 0.9447742
1.038774 1.0371599 1.0123972 1.0189081 0.9627802 -0.07579957 -0.16469751 -0.08854598
0.9549256 -0.08841903 0.9934631 1.0553149 0.9483044 0.9470384 0.9621451 0.9114697
-0.10208298 1.0542047 0.19055775 0.9653122 1.0834942 -0.28455356 0.35363024 -0.8057401
1.0971278 -0.18194318 1.0132804 0.8265212 1.0068568 1.0585934 1.041034 0.9969673
-0.24028103 0.91539186 0.66731507 1.0363318 -0.11137418 1.6173996 0.993456 0.9141503
0.9891117 0.8526945 0.9545905 -0.10999667 1.3077074 1.0691403 -0.055956498 0.9509615
0.9887243 0.92082334 0.9643262 1.6100674 1.0061933 0.7977073 0.7622227 1.1510208
1.4069682 1.4637376 0.4780212 1.0590172 -0.041404 0.5701479 0.17693447 1.390902
1.4717686 1.0433853 0.30831409 0.9874242 1.0378162 0.90346646 0.9398299 0.52601874
0.96297365 0.9359747 1.3482677 -0.08916076 -0.08549104 -0.09765891 0.7485792 0.8815906
00000000: 0224 923f 9c5a a83e bad6 713f 6497 2ebe
00000010: 0647 bc3e e66d 143f 9fd3 643f 1fa6 773f
00000020: ba1f 1a3e 4b01 9f3f 712e 893f 8bca 623f
00000030: 07bb 843f b810 863f 99b4 7c3f d5d1 acbd
00000040: d3e0 ce3f 7c44 cb3f 851d 843f ff0e 0cbf
00000050: 7e6a 723f 0434 da3e 00af 6f3f b7e7 80be
00000060: 095d 883f 39bf 7f3f cee8 703f 1d74 9d3f
00000070: 1bdb 943f f5bf 7e3f 2a20 833f 032d a83f
00000080: 0a19 7fbe d542 3c3f f02c 863f 2e59 7b3f
00000090: 0638 df3e 0e25 01be 542e 933f 14a0 7c3f
000000a0: da82 a43f 57d1 7c3f 9154 f4bd 04eb 783f
000000b0: 01e0 df3e b790 7d3f 9b7d 7c3f f3f6 763f
000000c0: 89f3 853f 6ad5 853f 0268 733f 2287 3cbe
000000d0: 2630 773f cb1b 8a3f 0196 903f 4819 12be
000000e0: db7b 5f3f db30 9cbe a262 1b3f cf7f 843f
000000f0: 8410 3abe b42a 833e 75ee ebbd 9fe3 6f3f
00000100: 0c33 8b3f a119 6dbe 2ee8 d33f b5bb 983f
00000110: e25a 56bf 39bf e3bd c700 61be 6e48 883f
00000120: 9b12 a63e e100 5c3f 22d4 823f a084 8f3f
00000130: aff8 abbd e2ba 873f 15cd f23e 6697 873f
00000140: a95a 92be d0f0 dfbd a547 663f ceb3 803f
00000150: e660 6b3f 51bd 893f bf95 853f 81bf b73e
00000160: b07a 6f3f 0181 3f3e 4c13 3b3f 5e37 b03f
00000170: d0cf a73e 0305 7a3f 5385 aabe 9243 253e
00000180: 27e1 603f d185 843f 6446 19be 4e4f c43f
00000190: 4d18 613f 44e7 163f cc6f 683f da44 7a3f
000001a0: c132 833f fe2a 46be e56c 813f ffb6 833f
000001b0: 1b50 b7bd 4e92 823f 8cc7 753f 5e27 d53f
000001c0: c66b 6d3f d82e c53e bd7d 8c3f f7e8 763f
000001d0: ba92 873f 05c6 05be f445 d83d 8c64 9f3f
000001e0: cd05 97bd 6cae 863f 7c9d cb3e b3fb 853f
000001f0: 3fc3 663f 035f 883f 5013 6b3f e34c d13f
00000200: 53de 8abd a573 ea3e 4cb3 733f dda2 783f
00000210: ae68 713f c7ea 833f afdc 673f dd3b 6b3f
00000220: fe6d 793f 20b3 6e3f 385a 653f 2428 833f
00000230: 7834 833f f115 743f c7bf 7c3f 8609 633f
00000240: ffc9 913f abbd 813f d629 823f 0374 883f
00000250: fb8d 793f dae1 7c3f 1ce6 773f 3f3a 8b3f
00000260: 4913 7c3f fd38 82be 212c 8a3f 95fc 7c3f
00000270: dbc3 853f 10a1 ad3f a91f 813f eca3 783f
00000280: 3ca7 8b3f 9bc3 3cbe 55f1 833f 6247 093f
00000290: 670d 643f 9c4f 853f bd8c 523f c62b 493f
000002a0: b8b5 8a3e 7c6a 893f be12 733f 1e68 9b3f
000002b0: be8c 233f 7a0f 6a3f a0db 883f b9dc 713f
000002c0: 8cf6 843f a8c1 843f 3b96 813f 956b 823f
000002d0: c378 763f ce3c 9bbd 77a6 28be 9857 b5bd
000002e0: 0176 743f 0915 b5bd 9953 7e3f 8f14 873f
000002f0: 14c4 723f 1c71 723f 244f 763f 1456 693f
00000300: e210 d1bd 2ef0 863f 9221 433e b31e 773f
00000310: f0af 8a3f 01b1 91be 060f b53e fc44 4ebf
00000320: af6e 8c3f 504f 3abe 2cb3 813f e596 533f
00000330: afe0 803f fd7f 873f 9a40 853f 4039 7f3f
00000340: 3b0c 76be 1f57 6a3f 29d5 2a3f 85a6 843f
00000350: 2518 e4bd f306 cf3f 2253 7e3f c105 6a3f
00000360: 6d36 7d3f 304a 5a3f 0b60 743f ef45 e1bd
00000370: f562 a73f 97d9 883f a432 65bd 3672 733f
00000380: 091d 7d3f 14bb 6b3f 15de 763f b016 ce3f
00000390: f1ca 803f 8c36 4c3f 0721 433f a654 933f
000003a0: 8917 b43f c15b bb3f 32bf f43e e08d 873f
000003b0: 3e97 29bd 36f5 113f 4f2e 353e 1409 b23f
000003c0: ea62 bc3f a68d 853f 58db 9d3e d5c7 7c3f
000003d0: 29d7 843f 9449 673f b198 703f 2aa9 063f
000003e0: 7185 763f 0a9c 6f3f 0994 ac3f eb99 b6bd
000003f0: ed15 afbd 6501 c8bd e3a2 3f3f ecaf 613f

network.8.weight f4 [3, 256]
0.4818919 0.41842732 -0.08424247 -0.12111906 0.43383107 0.63918275 -0.02173338 0.28053603
0.1462253 0.55829114 -0.022209441 -0.045000426 -0.1102134 0.35593623 0.02813316 0.025872894
1.0391625 0.78531724 -0.13191974 -0.19712432 -0.8591642 0.2476374 -0.13389176 -0.2426915
-0.080920264 -0.111302204 0.34293422 0.39452878 0.94182813 -0.1290825 -0.11766758 0.8971996
-0.28802684 -0.008527761 0.40725726 -0.15573493 0.56028134 -0.016092798 0.4381337 -0.6973951
0.8837462 -0.12850976 0.0046105064 0.57114315 0.46825472 -0.058433976 -0.13175693 -0.10137046
0.17186534 0.33746853 -0.120845534 0.029610053 -0.1596429 -0.13210782 0.57575786 -0.00011312381
-0.028266098 -0.405282 0.25789657 -0.19313322 -0.24658118 0.19615513 0.095395595 0.013526261
-0.091079846 -0.2277001 0.9998979 0.4743705 -0.28065196 -0.028926529 -0.4169169 -0.14394712
0.3601426 0.23968872 0.37219784 0.3273452 0.01267757 -0.094471745 0.40934825 -0.053114276
-0.56928825 0.0069843484 -0.6480874 -0.08187596 -0.054722328 0.34596404 -0.14427498 0.16566932
-0.14802174 0.21802746 -0.021828242 0.7334647 0.60983944 -0.06915899 -0.310059 -0.021821523
0.11047738 0.2975092 0.006722773 0.6212468 -0.12312202 0.017480792 0.45724168 -0.059544265
-0.07566229 -0.11303141 -0.117719464 0.25371006 -0.015174726 -0.14745419 -0.14225334 0.9345215
-0.11167816 0.6521861 -0.081726626 0.015560578 -0.09629586 -0.0038789823 0.16085622 0.50308305
0.0018591866 -0.11318746 -0.13394257 -0.10854583 -1.1403382 0.41871908 0.030021898 1.1947082
0.03382498 0.3117909 -0.13663585 -0.05076008 0.12709361 -0.07652347 -0.010488238 -0.02111095
-0.12706986 -0.112434134 -0.1524146 0.17853916 -0.07077455 -0.08621811 0.31220686 0.004004824
0.52724385 -0.105705224 -0.07615965 0.3789697 0.21718141 -0.09841332 -0.10806351 -0.08826661
-0.09125923 -0.42441845 0.52809435 -0.016076071 -0.09739327 0.762177 -0.076989904 -0.16615827
-0.167288 -0.20128004 0.1634345 -0.77675056 -1.0095696 -0.012420361 -1.123483 0.3839288
-0.22490188 -0.1331624 -0.043451823 0.52463 0.33416927 0.571039 0.30214754 -0.1282742
-0.12924121 -0.12886703 -0.047774523 -0.13933352 -0.16803543 0.0030972906 -0.124225125 0.030601187
-0.10343103 0.010299514 -0.09970023 0.013203721 -0.073667504 0.28471553 0.27283594 -0.16297388
0.010752349 0.47615463 0.19662733 -0.13919872 -0.11711568 -0.43785354 0.41825947 -0.24133293
0.13704519 -0.19543266 -0.058022708 0.53408885 -0.09265531 -0.115715615 0.348997 -0.044625677
-0.41325313 -0.16535282 0.571015 0.22836283 0.026358135 1.1670798 -0.15023002 0.015082077
-0.11173667 0.31572393 -0.13516052 0.012868664 0.65456706 -0.114832126 -0.004923143 -0.13024992
-0.14588977 -0.074829236 -0.1264153 0.978848 -0.04876882 0.14075458 0.17462614 0.48557314
0.47264436 0.80893475 0.5842139 -0.108797684 -0.2896053 -0.84923965 0.78742915 0.783543
0.9486521 -0.13450892 0.68722713 -0.12141129 -0.14329286 -0.036585953 -0.0664853 0.53151727
0.50606036 -0.13901135 0.55936176 -0.0068767737 -0.0010591446 -0.024974111 0.13163014 -0.15272518
00000000: 89ba f63e 1b3c d63e 5187 acbd 450d f8bd
00000010: 1b1f de3e 7ba1 233f 340a b2bc 6ba2 8f3e
00000020: 16bc 153e 2bec 0e3f 93f0 b5bc 5e52 38bd
00000030: 90b7 e1bd 463d b63e 8377 e63c 64f3 d33c
00000040: 4703 853f 8d0a 493f f815 07be f5da 49be
00000050: 2ff2 5bbf a994 7d3e ec1a 09be 1f84 78be
00000060: 86b9 a5bd 69f2 e3bd 1395 af3e adff c93e
00000070: a61b 713f 342e 04be b3fb f0bd dfae 653f
00000080: 4178 93be 06b8 0bbc 0684 d03e fa78 1fbe
00000090: 996e 0f3f 0bd5 83bc 0f53 e03e 7c88 32bf
000000a0: 313d 623f 1098 03be bb13 973b 7036 123f
000000b0: 15bf ef3e 7758 6fbd 4aeb 06be 519b cfbd
000000c0: 78fd 2f3e adc8 ac3e dd7d f7bd c890 f23c
000000d0: 6e79 23be 4647 07be de64 133f e23c edb8
000000e0: 4e8e e7bc 1f81 cfbe 050b 843e b7c4 45be
000000f0: c77f 7cbe e4dc 483e c45e c33d 409d 5d3c
00000100: 1288 babd 372a 69be 4ff9 7f3f b1e0 f23e
00000110: 9db1 8fbe 54f7 ecbc 2276 d5be e066 13be
00000120: 9c64 b83e f670 753e b790 be3e ca99 a73e
00000130: 95b5 4f3c 677a c1bd 1896 d13e 5b8e 59bd
00000140: e0bc 11bf f6dc e43b 0ee9 25bf 95ae a7bd
00000150: 8524 60bd 3322 b13e d2bc 13be 38a5 293e
00000160: 0393 17be 9742 5f3e 24d1 b2bc 58c4 3b3f
00000170: 701e 1c3f 3ba3 8dbd 0ec0 9ebe 0dc3 b2bc
00000180: f741 e23d 2053 983e b54a dc3b 080a 1f3f
00000190: 6627 fcbd e133 8f3c 951b ea3e b0e4 73bd
000001a0: d5f4 9abd 037d e7bd e716 f1bd 49e6 813e
000001b0: 6a9f 78bc 3bfe 16be dcaa 11be cd3c 6f3f
000001c0: 85b7 e4bd abf5 263f 4a60 a7bd cbf1 7e3c
000001d0: c436 c5bd 8636 7ebb 7eb7 243e 0dca 003f
000001e0: f3af f33a d4ce e7bd 3e28 09be 474d debd
000001f0: 9af6 91bf 5962 d63e 7cf0 f53c 33ec 983f
00000200: 108c 0a3d 0fa3 9f3e 45ea 0bbe cde9 4fbd
00000210: d424 023e 56b8 9cbd dcd6 2bbc dff0 acbc
00000220: 9a1e 02be de43 e6bd 9312 1cbe f8d2 363e
00000230: 3ff2 90bd 1f93 b0bd 94d9 9f3e e63a 833b
00000240: 74f9 063f fb7b d8bd 97f9 9bbd 5108 c23e
00000250: ce64 5e3e ec8c c9bd 6750 ddbd 20c5 b4bd
00000260: 1fe6 babd 604d d9be 3131 073f f7b1 83bc
00000270: 1f76 c7bd 081e 433f e2ac 9dbd 6525 2abe
00000280: 8c4d 2bbe 5b1c 4ebe 605b 273e 20d9 46bf
00000290: 9439 81bf c57e 4bbc 4ace 8fbf 5192 c43e
000002a0: ae4c 66be b95b 08be 8afa 31bd 274e 063f
000002b0: 3c18 ab3e 9d2f 123f 15b3 9a3e 505a 03be
000002c0: cf57 04be b8f5 03be 38af 43bd 72ad 0ebe
000002d0: 7b11 2cbe eafb 4a3b be69 febd 57af fa3c
000002e0: a6d3 d3bd 4bbf 283c a22f ccbd 6b54 583c
000002f0: fdde 96bd 3cc6 913e 27b1 8b3e a0e2 26be
00000300: 9f2a 303c 8aca f33e ad58 493e 1c8a 0ebe
00000310: 58da efbd 572e e0be 1b26 d63e fb1f 77be
00000320: 9355 0c3e 801f 48be 38a9 6dbd 0cba 083f
00000330: 11c2 bdbd 4ffc ecbd bcaf b23e 6ac9 36bd
00000340: ea95 d3be 4052 29be 0a2e 123f f2d7 693e
00000350: 04ed d73c df62 953f e6d5 19be d11a 773c
00000360: 32d6 e4bd 91a6 a13e 8567 0abe 17d7 523c
00000370: b591 273f 1b2d ebbd 5152 a1bb 3c60 05be
00000380: 2164 15be 1240 99bd 0373 01be c895 7a3f
00000390: d0c1 47bd f821 103e 32d1 323e 0b9d f83e
000003a0: 71fe f13e 5916 4f3f 0b8f 153f 52d1 debd
000003b0: 2547 94be c567 59bf f594 493f 4696 483f
000003c0: ddda 723f b5bc 09be 1eee 2f3f 7ba6 f8bd
000003d0: 5dbb 12be 27db 15bd 7229 88bd 8411 083f
000003e0: 2c8d 013f fe58 0ebe 5532 0f3f 8f56 e1bb
000003f0: ffd2 8aba 8296 ccbc 0dca 063e fd63 1cbe

network.8.bias f4 [3]
-0.7056866 -0.37727264 -0.20461069
00000000: e1a7 34bf e129 c1be 7785 51be
