mountaincar_cl_project/runs/abrupt/none/seed_0/online_stream_model.pth (torch, 536437 bytes, 8 tensors)

network.0.weight f4 [256, 2]
00000000: 6e24 203f 3d2f 6c3f 1816 f23d 9e99 fd3e
00000010: 33b9 72be 094b 823f a099 6f3d c564 023f
00000020: 9768 1b3f 6067 6f3f 4ffc 2abe 333a d23f
00000030: 4e2d 4abe ab59 c83f 7d92 3abe 3bd2 543f
00000040: 8b3e bfbe f83a 47bf 96c1 f43e ec69 233e
00000050: 6e49 b13e c082 5e3c 8380 c4bc 4fc0 d13f
00000060: 7533 843d 285b c33f 5888 903d 7881 893d
00000070: 299f 95bd 6412 b63f a8a7 e23d e9f3 3640
00000080: 4d9c 26bf d82f b4bf 06f6 263e 0c07 4cbf
00000090: 3947 f73d 5e4a 0d40 9bc2 a73e 77b9 463f
000000a0: e873 cf3e 2d3b b43f 1112 15bf 7835 7d3b
000000b0: 745f 7f3e 0fdb 4740 9461 4a3e c7ba f7be
000000c0: 4320 083f 8ac3 c23e f0cb 7ebe 2d9b c93f
000000d0: a6f3 13be 94bd e33f 38f9 433d 1fac 01c0
000000e0: 8d02 e2bd f8b7 e0be 05fd 023f caf3 17bf
000000f0: 9b6a 98bd a984 13c0 18fc 1bbe 9780 163f
00000100: 237a 113d ec1f c83f f0d8 ebbd b44c 78be
00000110: ee7d b93e 8a19 27bf 231c ac3d 5195 f13f
00000120: 02a0 dbbe 528f 76c0 1198 2d3f 2a39 d73e
00000130: 7163 35bf 78a8 cfbf 4495 42bf 65de c1bf
00000140: 5a6d d33e dce0 f0be 908a ac3d 2d45 ed3f
00000150: 3060 1cbc e4b3 0b40 ae03 c43e fc86 31be
00000160: e639 b43d 0932 df3f 0eaa 993e 6ec0 07bf
00000170: 701e afbe 50ae 573d 1118 02bf 0384 8b3f
00000180: bfed 24bf 05bb 0dc0 6263 fb3e f6d1 71be
00000190: 5b6c 83bd 0aa2 ce3f 89f3 b3be 5313 2fc0
000001a0: 3d6c bb3e 1b18 cdbf d19d 113f 272d 8abf
000001b0: 1cbd 01be 5894 f1be ee1f 733e 0e00 d03d
000001c0: 9945 c5be 2029 2c3e cdb3 6f3c f310 1ac0
000001d0: 8fd5 343d 5a15 ad3f acf7 2bbf 17fd 83bf
000001e0: e2d0 423e eced cc3e 78db 273e 526e ea3e
000001f0: e8da 70be 9ed5 213f 91c5 e33e 2c6b f4bf
00000200: 716d 2d3f 0176 063f 9b39 d13e 50da e4be
00000210: e772 623e 728e 3d40 3480 37be e48d 723e
00000220: 31c6 a5be 0960 2ebf 4876 e3bd eac5 91be
00000230: 0279 143f 9f6d 43be 2cfb 1a3e bd54 2f40
00000240: febf a7be bf19 a8bd 24c4 7fbc 6246 d43f
00000250: 3868 81bd 8702 d73f 8237 bcbe 1f1c 42be
00000260: 7363 e7bc 221d bfbf b065 e2bd 64ae 023e
00000270: 1e7d d43e b862 9ebe f61f f93d 4e86 c7bd
00000280: b792 9abd d8ab e33f 01f2 f63d 0e72 c2bf
00000290: 4df7 443e d881 2040 20bb 433e 4869 eabd
000002a0: 14eb 943d f0ee 00c0 77b3 a0be 72e0 1c3f
000002b0: 948e 2a3e d60a cc3e 1ca2 0ebf 868f f5be
000002c0: a9a3 1c3e 8350 4140 511b d43d d286 2140
000002d0: 0e71 4e3e 8610 883f 63aa d6be d33a 21c0
000002e0: 3014 97be 4a0f 873e 1fec f73e 81e6 e53f
000002f0: 93ab 1e3f fda2 8c3f fa31 78bd 1f8c 87c0
00000300: 307d c4be 8c51 15be b6c3 b8be 1079 ac3f
00000310: afbb c1be fdde 1f3f d099 b6bd be42 32bf
00000320: b29c 113e 6340 08c0 40c0 dcbc 47eb 763e
00000330: 5788 033f 5157 b7be b7ce c33e 12db 1040
00000340: 1fbe d4be 77ad 40c0 c0cd 91be 06da cc3e
00000350: 065b f53e 66be b1be 672e 0c3f a79c 333f
00000360: 6110 bdbd 54e8 bc3f 076e 8bbd 4c75 c33f
00000370: 0012 b4ba e57a 26bf 17bb 933e 7a5e 04c0
00000380: dfed 1d3f f3ac d33f 8412 833e 0eca 09bf
00000390: 41d5 c53e f66e b8bf 545a 2cbe be2a aa3e
000003a0: 3e49 5bbe 46e5 f13e cca5 5bbe d39f abbe
000003b0: 2c29 51be 606c 733d bced d53d 7060 dc3f
000003c0: f6bf 5e3e 9739 2040 e9b4 03be 2ab5 37bd
000003d0: d4d7 723e 36a7 63be e8d2 db3d 7a6f 893e
000003e0: 54ea 36be 9cc1 8dc0 7cd7 133e c68e 0dc0
000003f0: 228a 13be 8c0d 7a3f 9313 9a3e 62fb ed3f
0.6255559 0.9225958 0.1182062 0.49531263 -0.2370346 1.0179149 0.058496118 0.5093501
0.60706466 0.9351711 -0.1669781 1.6424011 -0.19743845 1.5652364 -0.18219943 0.83133286
-0.37352404 -0.77824354 0.47803944 0.15958375 0.34626335 0.013580978 -0.02398706 1.6386813
0.06455127 1.5262194 0.070572555 0.06714147 -0.07305748 1.4224362 0.11067134 2.858637
-0.65082246 -1.4077101 0.16304788 -0.7969825 0.120741315 2.207664 0.3276566 0.77626747
0.40518117 1.4080559 -0.5823069 0.0038636606 0.24938756 3.1227453 0.19763786 -0.48384687
0.5317423 0.3803981 -0.24882483 1.5750481 -0.14448413 1.779223 0.047845095 -2.0261304
-0.11035643 -0.43890357 0.5116733 -0.5935637 -0.074422084 -2.304972 -0.15232885 0.5878996
0.03551687 1.5634742 -0.11515987 -0.2424801 0.3622889 -0.65273345 0.08403804 1.8873693
-0.42895514 -3.8524976 0.6781016 0.420358 -0.7085486 -1.6223288 -0.7600901 -1.5145994
0.41294366 -0.47046554 0.08424866 1.8536736 -0.009544417 2.1828547 0.38284057 -0.17336649
0.08800106 1.7437145 0.30012554 -0.53028 -0.3420291 0.05265647 -0.5081797 1.0899662
-0.6442527 -2.2145398 0.4909926 -0.2361525 -0.064171515 1.61432 -0.3514674 -2.7355545
0.36606017 -1.6022981 0.56881434 -1.0795029 -0.12669796 -0.4718349 0.23742649 0.101562604
-0.3852966 0.16812563 0.01463027 -2.4072845 0.044148978 1.3522141 -0.6717479 -1.0311612
0.19024995 0.4002527 0.16392314 0.45787293 -0.23521006 0.6321658 0.4448667 -1.9095206
0.6774512 0.5252381 0.40864262 -0.4469781 0.22114144 2.9618192 -0.1792 0.2368694
-0.3237777 -0.6811529 -0.11106545 -0.2847131 0.57997143 -0.19084786 0.15134877 2.739547
-0.32763666 -0.08208036 -0.015610728 1.6583979 -0.06318706 1.6797646 -0.367611 -0.1895604
-0.028245663 -1.4930766 -0.110545516 0.12761837 0.41501707 -0.3093469 0.12164299 -0.097424135
-0.07547515 1.7786818 0.12057877 -1.5191057 0.19234963 2.507925 0.19114351 -0.11445862
0.072714 -2.0145836 -0.3138692 0.61279976 0.16655952 0.39852017 -0.5571611 -0.47961062
0.15296806 3.020539 0.10356773 2.5238538 0.20160314 1.0630043 -0.4192687 -2.5192153
-0.2950759 0.26378852 0.48422334 1.7960969 0.6198055 1.098724 -0.060594536 -4.2358546
-0.3837676 -0.14581889 -0.36086816 1.3474445 -0.37838504 0.6244963 -0.08916056 -0.6963309
0.14219931 -2.1289299 -0.02694714 0.24113189 0.51379913 -0.35808805 0.38243648 2.263371
-0.415513 -3.0105875 -0.28477287 0.4001009 0.47921008 -0.34715575 0.54758304 0.7016091
-0.0923164 1.4758401 -0.068080954 1.5270171 -0.0013738275 -0.6503127 0.28853676 -2.0682664
0.6169109 1.6537155 0.25600064 -0.53823936 0.38639262 -1.4408863 -0.16831332 0.33235735
-0.21414658 0.47245234 -0.21449965 -0.33520374 -0.20425862 0.059429526 0.10445735 1.721693
0.21752915 2.503515 -0.1286198 -0.044850506 0.23715144 -0.22231755 0.107335865 0.26842862
-0.17862827 -4.429884 0.1443767 -2.2118392 -0.14408162 0.9767692 0.3009306 1.8592341

network.0.bias f4 [256]
00000000: ebc6 39be e16e 9abe be0b 32be 78cb 4bbe
00000010: cd18 debd 3919 24be 23ad 32be 4336 cabd
00000020: 672d 8ebe 6b20 91be 3e5a 8bbe baa4 8dbd
00000030: 5a2a e8bc cad6 cfbe dd92 f9bc c8a5 96bd
00000040: 7d46 04bf b803 be3d 4d36 77bd ca01 0abc
00000050: 71d4 a6bd 75e4 ecbe aa22 cfbd a86c c1bd
00000060: cd78 a7be ea41 4dbe 96a1 18be 11e1 c03c
00000070: ef36 3bbe bae3 1dbf 5df5 93bd 0368 f4be
00000080: b554 3dbd 9086 2bbe c3a8 c9be 281a 09bd
00000090: 8a11 abbe 3b0a 1dbf ea36 0fbf 0203 19bf
000000a0: 65fa a2be 9dff 41bd ab77 06bc 504f 01bf
000000b0: 7d11 133c 1ffc cdbe 589f fabe 4ee9 cfbe
000000c0: 008d 02bf 5514 2cbf 4d53 bfbd a444 95be
000000d0: 2df0 453e 26e2 a13e be73 05bf 3471 04be
000000e0: 1314 f2be 984a 25bb dc3b e4bc 3d67 0abf
000000f0: 4c87 fdbd 621d 21bf ab8f 93be 2800 7f3e
00000100: a5c5 2ebf aa18 6b3e cee1 b9bd f5f2 08bf
00000110: b7d1 3cbe 75d6 11bf 4572 94be e003 9bbd
00000120: bb2b cbbe 5757 6b3b 8c5b 34bd 490b e6be
00000130: 4926 893d c8f7 c0be ccc9 24bf ffb5 83bd
00000140: 0714 cbbd ee3a 7f3d db84 a3bd f44b 15be
00000150: 518f 1b3d 9755 c3be e14a 2abf be54 33bf
00000160: 8673 20bd 399c 8e3d 9302 03bd 6333 b1be
00000170: fa50 07bf 0971 c3bd 2327 38bd 6638 95bd
00000180: 2c6b f0be 24a5 87be 9fe1 0cbf fcf2 16be
00000190: 1ddf ad3d 4df2 20bd d79f 29bf 4a62 573e
000001a0: 2d0e b5be 8139 52be b03a f0be 177b c2be
000001b0: defa b5bd 5c5f bbbd 6e03 23bf af06 223e
000001c0: 27f2 05be 8308 183d 8cb7 d3bd ac44 30bf
000001d0: 43a2 85be b009 afbe d1a2 babe d482 ff3a
000001e0: d498 f73d b661 43be c5f7 dcbe a800 1dbe
000001f0: a892 36be 21ab 983d 976f 40be 9c82 67bd
00000200: d0db 023e 8518 f6bc 4cf1 bfbd da6d 7dbd
00000210: 9098 5fbd 707f 1abe d967 d2bd a526 aabd
00000220: 96f8 89bd ee7a bfbe afd1 30bf 0630 a9be
00000230: 1fbb 03bf e659 19be 8543 c0bd 054e d1be
00000240: 5cd1 703e ef2f 9abd 282c 4c3b 389d 67be
00000250: 5bf9 82bc 9f45 b4be fd7c 4a3d a5d5 8ebe
00000260: 9c0f 81be 3ed4 43be cd7f 91be 8cef 2abf
00000270: b82e 20bf 1f3f b5bd a8c0 07bf 419c 9c3d
00000280: 10dd 8bbd 1453 81bd 14e4 f8be 459d f3be
00000290: e880 09bf b8e6 083e 12d9 67be 2efd 31bf
000002a0: 7012 1abe 5894 ebbe c8d8 33bd 09de 40bd
000002b0: 1432 e13c a354 773d c8a3 2ebf 4847 f1be
000002c0: 659c 023d 8714 b9be 28b2 b5bd d277 92bd
000002d0: c7dd 11bf 576e 14bf 9e4d 8dbe babd 00bf
000002e0: ae34 94bd 54e3 acbc c8e4 2dbe 9886 253e
000002f0: cea9 c9bd 4c1b afbe 5402 88bd 04d3 73bd
00000300: d4ce caba 32c0 82bd ee32 2fbf becb 00be
00000310: 4e5d f8bd 7810 a8bd 3902 05bf 21de 13be
00000320: 302e 52be de2f 7bbe b6e8 a6be c481 20bf
00000330: fb3c 18bf d679 e7be 8213 8dbd fc05 823b
00000340: 0632 15bf d77a d0be f01d 6cbd f0e7 5fbd
00000350: c69c 08bf 8b89 0ebf 3510 1bbf 7e4c 61be
00000360: b4f1 22be f3fa bdbc c228 e5be f4a8 f1bd
00000370: ca8c b3bd bd71 91bd 8ab2 13bd b88b babd
00000380: d9f0 0abe d4ef fdbc 6a65 0fbc 7bf8 82be
00000390: fedc a0be fde9 8cbd 0e9a d9bd b74b 9abe
000003a0: c7c2 d2be 8a8a 16bb 301e 85bd a06b bebe
000003b0: 149a 89bd 0905 2abf 190c b5bb dfc3 1bbe
000003c0: bb99 24bc 7433 cfbd 95e6 eebe 37b3 fd3c
000003d0: 5e04 20be 067d 20bf 1fd6 51bd 7a78 9ebe
000003e0: 6751 013e bbaa bcbe 74da 1fbe 16bf 9eba
000003f0: dddd 1abf df3a 703e 6960 a6be e6b7 83be
-0.18142287 -0.3016272 -0.17387292 -0.19901836 -0.10844574 -0.16025247 -0.17448859 -0.09873631
-0.27769014 -0.28345045 -0.27217287 -0.06916185 -0.028340507 -0.4059356 -0.030465538 -0.07355839
-0.51670057 0.09278053 -0.06035452 -0.008423278 -0.08145989 -0.4626805 -0.101140335 -0.09444553
-0.3270935 -0.20044675 -0.1490539 0.02354482 -0.18282674 -0.6167561 -0.07224534 -0.47735605
-0.04622336 -0.1675055 -0.39386567 -0.03347221 -0.3341182 -0.61343735 -0.5594317 -0.59770215
-0.3183166 -0.047362912 -0.008207242 -0.50511646 0.0089763375 -0.40231416 -0.48949695 -0.40607685
-0.509964 -0.67218524 -0.0934206 -0.2915393 0.19329901 0.3161785 -0.52129734 -0.12933809
-0.4728094 -0.0025221463 -0.027860574 -0.5406378 -0.123793215 -0.6293546 -0.28820547 0.24902403
-0.6827033 0.22958627 -0.09076272 -0.53495723 -0.18439375 -0.5696786 -0.2899343 -0.075690985
-0.396818 0.0035910213 -0.04403262 -0.44930485 0.066967554 -0.37689042 -0.6437042 -0.064311974
-0.09915929 0.06231206 -0.079843245 -0.14579755 0.037978474 -0.38151237 -0.66520506 -0.7005118
-0.03917267 0.06963391 -0.031984877 -0.34609517 -0.52857935 -0.09543044 -0.0449592 -0.07286148
-0.46956766 -0.2649318 -0.5503177 -0.14741129 0.08489821 -0.039293576 -0.6625952 0.21033588
-0.35362378 -0.20529748 -0.46919775 -0.37984535 -0.0888574 -0.09149048 -0.6367711 0.15822862
-0.13080655 0.037117492 -0.10337743 -0.68854785 -0.26100358 -0.34187078 -0.36452344 0.0019493946
0.120896965 -0.19080243 -0.43157783 -0.15332282 -0.17829382 0.07454515 -0.18792568 -0.056521043
0.12779164 -0.030040989 -0.093721956 -0.06187234 -0.054588854 -0.15087676 -0.102737136 -0.08308152
-0.06736867 -0.37398475 -0.6906995 -0.3304445 -0.514574 -0.149757 -0.09387878 -0.40879837
0.23517364 -0.07528674 0.003115425 -0.22618568 -0.015988043 -0.35209367 0.049435604 -0.27897373
-0.25207222 -0.19123933 -0.28417817 -0.6677177 -0.6257129 -0.0884993 -0.53028345 0.076469906
-0.06829274 -0.06314674 -0.4861151 -0.47580925 -0.5371232 0.13369262 -0.226414 -0.69526947
-0.15046096 -0.46011615 -0.04390791 -0.04708675 0.0274897 0.06038345 -0.6821866 -0.47124696
0.03188743 -0.36148474 -0.08871871 -0.0715176 -0.5697903 -0.57980865 -0.2759828 -0.502895
-0.0723661 -0.021104492 -0.16981804 0.16164625 -0.09846841 -0.34200513 -0.06641069 -0.059527412
-0.0015473017 -0.063843146 -0.6843709 -0.12577721 -0.121271715 -0.08206266 -0.51956517 -0.14440204
-0.20525432 -0.24529979 -0.3259942 -0.62698007 -0.5946805 -0.4521014 -0.068884864 0.0039679985
-0.58279455 -0.4071872 -0.057645738 -0.054664552 -0.5336422 -0.55678624 -0.60571605 -0.22001836
-0.15912515 -0.023190951 -0.44757658 -0.117998034 -0.08767088 -0.07101772 -0.03605894 -0.091086805
-0.13568439 -0.030998148 -0.008752206 -0.255802 -0.31418604 -0.06880567 -0.10625087 -0.3013589
-0.41164228 -0.002297076 -0.064998984 -0.37191486 -0.06718841 -0.66413933 -0.005525124 -0.15211438
-0.010046418 -0.10117236 -0.46660295 0.030969245 -0.15626666 -0.6269077 -0.051229592 -0.3095129
0.12628709 -0.36849007 -0.15610677 -0.0012111391 -0.60494787 0.23459958 -0.3249543 -0.2572624

network.3.weight f4 [256, 256]
00000000: ac5b 203d 2ce7 fe3c a621 013c 0e6f 47bd
00000010: 2c8a a23c c5fb 96bd 86ec 95bd 8719 6abd
00000020: da35 4b3d a030 16bd e45a 303d 4038 153d
00000030: 3675 46bd ec94 2cbd 6022 ebbc 8bf6 cfbc
00000040: 0163 1ebd 03aa 84bb dad1 0cbd 6a73 6b3d
00000050: 427f 6bbd 4e67 16bc 4067 4f3c 460f 5cbd
00000060: 105d 56bd 5969 df3b 9e08 f93c 2089 3b3d
00000070: 807d e13a 00e5 eb3b 4c7e 913c 086b 0b3c
00000080: 0e05 bbbc 209f 9fbb 2e32 6b3d 50e9 40bc
00000090: 646d 1f3d 0026 8f3b b960 5dbc d55b 433d
000000a0: 22f7 6b3d 9c49 1a3c c099 44bd 0ad2 5c3d
000000b0: 112f 40bd 3440 e33c 0caf 7a3d 1e0e 7ebd
000000c0: 6e57 6fbd 288b 2ebd 0a37 48bd 18d0 73bd
000000d0: 24e6 59bb ae68 943b 62ee 603d 60aa 403c
000000e0: 90b4 90bc 5f71 d7bb 0609 dc3c 7d94 fc3c
000000f0: c0a7 653d 84b4 e13c be44 f4bc d649 33bd
00000100: f0b4 da3b d552 493d 6255 0dbd c86e 00bc
00000110: 1911 48bc d432 153d be1a 38bd f8b4 5cbc
00000120: 8814 f43c 7093 563c 89a4 323c 48f1 783c
00000130: 3bf7 6b3c 8c13 f1bc 648a f3bc 32a9 563d
00000140: 4595 69bd 608f 72bd 37ba cd3b a082 403c
00000150: f82a da3c a5a7 84bd 6035 9e3b 58cf fc3c
00000160: 215d 23bd 3a9d 16bd 58d5 373d 3794 f5bc
00000170: cc78 e6bc 9038 20bd d21f 103d fc36 d8bc
00000180: c075 c2ba fcde 3bbd 0e91 473d 8485 843c
00000190: 9ca1 7d3c bf40 ebbc 18ac 26bd d996 163b
000001a0: 861c 3a3d c5e0 8abd d2ad 6c3d aa90 6ebd
000001b0: 6fbd 013c 1527 76bd d890 3a3c 3e3b b23a
000001c0: b8f7 38bc fed6 253a a280 39bd 6acd 79bd
000001d0: 682d 1a3d 602e 76bd 543b 07bd ec43 223d
000001e0: c819 793c 00a6 56ba 9633 133d acfb 553d
000001f0: 9610 88bd a994 8dbd 9016 d73b c0b8 5a3b
00000200: 4ff2 59bd 004d 72bc b222 6c3d 4893 89bc
00000210: c0c6 1e3b 70cd 32bc 2085 a73c e069 c63c
00000220: 23bf f03c 322b 78bd 4087 723c d831 bf3c
00000230: 76f8 2c3d 747d a7bc ea2b 26bd a0fd dabc
00000240: 617a 52bd da0f 23bd 4afb 52bd 0eea 5e3d
00000250: 4a2e 6eb8 0e76 62bd 5a92 f7bc 6c0d 8a3c
00000260: 10ea d2bb 166b 1e3d acc0 803c 202c 3d3b
00000270: 80a5 68bd b299 62bd 2453 4bbd 00f4 923a
00000280: 39dc 48ba 17c3 d13c f465 623d 808f 02ba
00000290: e898 afbc ca24 1bbd d848 9f3c e015 d33b
000002a0: 8629 7e3d 4c5f 8e3c 7b86 58bd 2470 48bc
000002b0: 24fb 34bd 8033 29bd 8083 74bc 16c1 573d
000002c0: a461 ce3c 70c8 64bc b010 233d 841f 57bd
000002d0: f835 99bc ba41 54bd 689d 1fbc b061 a5bb
000002e0: f03e 03bc d8df 41bd c074 0cbc b45b 2a3c
000002f0: bfe9 c53c bbe3 15bd b364 803d 2489 ecbc
00000300: 87db 063d ab90 2e3c 60e1 963b 38b3 29bd
00000310: 7cd6 87bb a9c2 1fbd d2df 7cbd be25 e63c
00000320: 203b 71bc ac90 fd3c c571 0ebd 6ed9 433d
00000330: 3270 1a3d 2486 3d3d 8b5a 4ebd 06fc e0ba
00000340: f6ea 2b3d 2252 213d e991 0abd 0a56 473d
00000350: 448b afbc a015 503b e87c 1ebc 3061 1bbd
00000360: 5c55 dfbc 224e 76bd 24bf 41bd 516e 1e3d
00000370: 203f 043b 502d cb3b 0dc5 b1bc e2db acbc
00000380: 6095 25bc ca5f 2bbd 46d4 3c3b 74b0 0f3d
00000390: 20fd 50bc 8aae 023d d486 a43c 988f 083c
000003a0: 2f8c 23bd b6e6 493d e0b6 8cbd ef73 c43b
000003b0: b7bf 193d ac64 acbc 41d9 0fbc 11e7 45bd
000003c0: 528a 52bd b6aa ae3c 50fd e93b 98de dabc
000003d0: 38e1 143c c04c 92bc acdd 8ebc 1c28 abbc
000003e0: 3b69 9dbd e081 32bb a0c6 c7bc cfcb 1b3d
000003f0: ced0 513d 0c99 633b 8964 d03c b077 6e3c
0.039149925 0.03111609 0.007881558 -0.048689894 0.019841276 -0.0737224 -0.07320504 -0.05715325
0.049611904 -0.036667466 0.04305543 0.036430597 -0.048451625 -0.04213421 -0.028702915 -0.025386116
-0.038668636 -0.0040485873 -0.034379818 0.057483114 -0.05749441 -0.009179903 0.012658894 -0.053725503
-0.052334845 0.0068179783 0.030399617 0.04578507 0.001720354 0.00719893 0.017760418 0.008509405
-0.022829559 -0.004871264 0.057420902 -0.011774376 0.038922682 0.0043685436 -0.01351183 0.047695
0.05760873 0.009416964 -0.04799819 0.053911246 -0.046919886 0.027740575 0.061202094 -0.062025182
-0.05843299 -0.04261318 -0.048880614 -0.059524626 -0.0033248747 0.0045290804 0.05491484 0.011759371
-0.017664224 -0.006574794 0.026859771 0.030832523 0.056068182 0.027551897 -0.029817935 -0.043771587
0.0066744015 0.04915126 -0.034505256 -0.007838912 -0.012211108 0.036425427 -0.04494738 -0.013470881
0.029794946 0.013096675 0.010903486 0.015194245 0.014402206 -0.029428266 -0.029729076 0.05240745
-0.05702712 -0.059218764 0.006278302 0.011749893 0.026631817 -0.06477288 0.00482814 0.030860588
-0.039883737 -0.036771037 0.044881195 -0.0299779 -0.028133772 -0.039116442 0.035186596 -0.026393406
-0.0014836118 -0.04586695 0.04872232 0.016176946 0.015480425 -0.028717397 -0.040691465 0.0022978096
0.04543736 -0.06781153 0.057782955 -0.05824343 0.0079187 -0.060095865 0.0113870725 0.0013597978
-0.0112895295 0.0006326287 -0.04528869 -0.060986914 0.03764096 -0.06010282 -0.033015564 0.039615557
0.015203901 -0.0008188188 0.035937868 0.052241966 -0.066437885 -0.0691312 0.006563969 0.003337428
-0.0532096 -0.014788866 0.057650276 -0.016793862 0.002422735 -0.010913238 0.020449221 0.024220407
0.029388016 -0.06058807 0.014802754 0.023339197 0.04222914 -0.020445563 -0.040569223 -0.026732266
-0.05138624 -0.03981004 -0.05150918 0.05442243 -5.6786732e-05 -0.055288367 -0.030221153 0.016852103
-0.006436594 0.038676344 0.015716873 0.0028865412 -0.056798458 -0.055322357 -0.049639836 0.0011211634
-0.000766221 0.025605721 0.05527301 -0.00049804896 -0.021435216 -0.03787688 0.019443914 0.0064418167
0.06205132 0.017379425 -0.052862626 -0.012233768 -0.04418482 -0.04130888 -0.01492393 0.052674375
0.025193043 -0.013963804 0.039810836 -0.05252029 -0.018702492 -0.051820494 -0.009742118 -0.0050470456
-0.008010611 -0.047332615 -0.008572757 0.01039784 0.02415931 -0.036594134 0.06269207 -0.028873987
0.0329242 0.010654609 0.0046045035 -0.041430682 -0.0041454416 -0.039004 -0.06173689 0.028094169
-0.014723569 0.030952774 -0.034776468 0.04781478 0.037704654 0.046270505 -0.050379317 -0.0017164953
0.041972123 0.03938497 -0.033830557 0.048666038 -0.021428712 0.003175117 -0.009673335 -0.037934482
-0.027262382 -0.060133107 -0.047301427 0.038679425 0.0020179227 0.00620047 -0.021700406 -0.021100942
-0.010106415 -0.0418394 0.0028813048 0.03508039 -0.012755662 0.031904735 0.020083822 0.008335017
-0.03992861 0.04929229 -0.06870818 0.0059952657 0.03753635 -0.021044098 -0.008779825 -0.048316065
-0.051401444 0.021321636 0.007140793 -0.02671747 0.009086899 -0.017858863 -0.017439686 -0.02089315
-0.07686087 -0.0027238056 -0.024386704 0.038036164 0.051224522 0.0034728674 0.025438564 0.014554903

network.3.bias f4 [256]
00000000: 5152 52bd 2c29 4b3d feae 33bd 6fa3 38be
00000010: cf2c 4d3c 5342 1b3e 1840 1f3e 1d10 e3bc
00000020: fd71 1d3e a0a9 89bc 3ca9 1fbd 3383 3b3e
00000030: cb4a 9cbd 8a0a 9dbd c983 353d 08f0 093d
00000040: b775 863c d2ef 193e 2de0 12bd a504 5d3c
00000050: c4ec ae3d b7ed 3d3e cf23 bbbb 3573 193e
00000060: 8f18 a33d 86ce 53bc 7f8c 56bd 6e06 6d3e
00000070: 2120 213e dd74 c13c dd2e 69bd 3fab dd3d
00000080: 4424 883d 7524 a6bd aab6 9abd 25e4 8dbd
00000090: 40f0 513d 637b 183d 6db7 2bbc c13d 49bd
000000a0: 8d08 87bd 5439 d13d f96a 06bd b01e ef3d
000000b0: 6c8f 7c3e 46a3 183e 5361 49bd 8a68 863d
000000c0: 7b29 61bd 48d6 8f3d 88a5 83bd b899 393d
000000d0: 11e7 563e 881d 82bd 879f 40bd 2508 393d
000000e0: ceab 723e 1474 d23d 9b20 b1bc 3b51 16bd
000000f0: 2fcc a1bd 905a 80bd c56f 8fbc 5f29 433e
00000100: 44dc 293d 09f9 7bbd 8938 30bd 9ff0 53bd
00000110: 2be7 ba3d 6631 fb3d 927b 99bd aa4f ed3d
00000120: a325 b83c c1f8 613e 8cb7 523e 024f ab3d
00000130: 1bba 9d3d fcfd 4e3e 2f92 8dbb 3331 273e
00000140: 8782 a03d 1966 063e db7e 42bd e6c5 463e
00000150: a77a 7d3b 13c3 2d3e b1a2 c53d 7624 d7bc
00000160: 5930 373e 3ba1 9fbd 8b18 493e a349 95bd
00000170: a420 d33d 6ef2 8abd a3c3 423e 564d 21bd
00000180: fbd2 8e3c 0647 093d 5a0f 4c3d 2304 efbc
00000190: 656e 923d 5630 62bd 7a18 e53d 1b65 f5bc
000001a0: e81e 1dbd e535 bf3d 0182 d53d 6608 513e
000001b0: e0e2 013e 4a29 cb3d 5254 a9bd a4dc 0e3e
000001c0: ec2e 2b3e 23d9 cbbc 2b5e b1bc 60b1 7cbd
000001d0: c111 223e 9a48 3d3e 959e 0dbd 65f8 173e
000001e0: e3fb 99bd 4ff4 7d3d e06c 42bc 4dec f13d
000001f0: 259f 54bd 7ed8 253e 5c8a b93d 911c 8c3d
00000200: 2b57 533e 6cd1 243c 7204 3d3e b8ba 743d
00000210: 37b5 843d 3b69 16bf 2561 0c3d 195d 703d
00000220: 27ea 643e 003b 40bc b7e4 1ebd 33de e23c
00000230: ba27 e5bb 8728 973d c901 053e f649 163d
00000240: b01b c53c 543b 2e3e afda 183e e522 53bd
00000250: ffc4 123e bacb 9cbd 4f2d 1bbd eae5 5e3e
00000260: dbfc be3d f0d0 d03d 51dc 9fbd baa9 0abd
00000270: 5cab 68bd 8152 b63d 5e9d 843d 7986 fd3c
00000280: de33 3fbd 0289 363e a4d1 2d3e a600 683d
00000290: df25 d53d 3daf 91bd 80ee 3b3e 4295 a83c
000002a0: c22b 733e 242d 73bd 0c26 db3d a0f6 09bd
000002b0: 9bcf 023e 2b1a 00bd f002 68bd d16d 7bbd
000002c0: 0a96 5a3d 78d1 0dbd ed50 823e 140e 093e
000002d0: 66ff f6bc 55a6 81bd 6845 343e 3c83 313e
000002e0: 6afe e83d e73f 033e baff 1d3d f7a2 663e
000002f0: 338a 2dbd d13c 6abd f91e 413e 04f4 7c3d
00000300: b422 d23d 85b0 aabd 161d 93bd 60e5 e3bc
00000310: 3c2d e03c 9ddc 93bd 3ec8 0d3d 9af5 42bd
00000320: 5f21 a73d 5ffe 1dbc 911c 0f3d 0949 9fbc
00000330: 93a2 333e 85b5 403e 1737 923d 476d 253e
00000340: 9252 2d3e 727f 94bd 28a2 2c3e 7c20 b8bc
00000350: 12b8 023e 407a 96bb a162 e6bc 7911 f6bc
00000360: 34b9 8f3e fed8 0a3e 774c 8e3d 88a8 153d
00000370: db22 303e f13e 0ebd b8ed 403e b486 3ebc
00000380: 8ccc 243c c8bf 543d 33ba b63c c223 453c
00000390: 7f00 153e e843 133c 148c b83d f485 27bd
000003a0: 491f 443e 78cb a1bd 05d2 663e 3366 8b3c
000003b0: efad 763e 4792 273e aea6 5d3d a84d 403e
000003c0: b25b c83d c981 553e e552 de3c 02d6 9bbd
000003d0: 3574 3e3e 3696 17bd e3d1 28bd bcd9 503e
000003e0: 342f 833e 2870 91bd b8ec 853c 8a4e e23d
000003f0: 393f 853d 257a 6fbc eee6 9f3e e827 c4bd
-0.051348034 0.04959981 -0.043868057 -0.18031095 0.01252289 0.1516202 0.15551794 -0.027717644
0.15375514 -0.016804516 -0.038979754 0.18311767 -0.07631453 -0.07668026 0.044315133 0.033676177
0.016413553 0.1503289 -0.035858322 0.013489877 0.08541253 0.18547712 -0.005711056 0.14985354
0.079636686 -0.012927657 -0.05238008 0.23146984 0.15734912 0.023615295 -0.056929458 0.10823678
0.06647542 -0.081124224 -0.07554372 -0.06928281 0.05125451 0.037227046 -0.010480744 -0.04913116
-0.06593428 0.102160126 -0.03281686 0.11675775 0.24664086 0.14906034 -0.04916508 0.06562908
-0.0549712 0.07023293 -0.06428057 0.045312613 0.20986582 -0.06353289 -0.047027137 0.045173783
0.23698351 0.102760464 -0.021621993 -0.03669856 -0.07900273 -0.062672734 -0.01750935 0.1905875
0.041469827 -0.061516795 -0.043022666 -0.051743146 0.09126123 0.122652814 -0.07494272 0.1158746
0.022478884 0.22067548 0.2057783 0.08364679 0.077015124 0.20214075 -0.004320405 0.16327362
0.07837396 0.13124885 -0.04748426 0.1941143 0.0038677843 0.16968946 0.096501715 -0.026262503
0.17889537 -0.07794424 0.19638269 -0.07289436 0.1030896 -0.06784521 0.19019942 -0.039380394
0.017434588 0.033515 0.049819328 -0.029176777 0.07149962 -0.055221878 0.11186309 -0.029955437
-0.038359553 0.093364514 0.10425187 0.2041336 0.12684202 0.09919985 -0.08268036 0.13951355
0.16717118 -0.024883812 -0.021651348 -0.061692595 0.15827085 0.18484727 -0.034575064 0.14840849
-0.07518747 0.06200057 -0.011866778 0.11812649 -0.051909585 0.16195866 0.09059593 0.06841386
0.2063872 0.010059696 0.18458727 0.05974838 0.064798765 -0.5875432 0.03427233 0.058682535
0.22354947 -0.011732817 -0.03879234 0.027693843 -0.006993261 0.07380777 0.12988962 0.03669163
0.024061054 0.1701482 0.14927171 -0.05154695 0.1433296 -0.07656045 -0.037885007 0.21767393
0.09325572 0.10196102 -0.07805694 -0.03385327 -0.056804046 0.08902455 0.06475328 0.03094791
-0.046680324 0.17825702 0.16974503 0.056641243 0.10407614 -0.07113502 0.183527 0.020578984
0.23747161 -0.05936922 0.10700616 -0.033682466 0.12774508 -0.031274956 -0.056643426 -0.061384026
0.053365745 -0.034623593 0.25452366 0.13384277 -0.03015108 -0.063305534 0.17604601 0.17335218
0.11376651 0.12817346 0.038573958 0.22523104 -0.042368125 -0.057186905 0.18859471 0.06175615
0.10260525 -0.0833445 -0.07183282 -0.027819335 0.02736532 -0.07219813 0.034614794 -0.047597505
0.08160662 -0.009643166 0.034939352 -0.019444006 0.17542486 0.18819244 0.07139414 0.16154967
0.1692603 -0.07250871 0.16858733 -0.022476427 0.1276553 -0.00459221 -0.028123202 -0.030037628
0.28070986 0.13559338 0.06948178 0.036537677 0.17200796 -0.034727994 0.18840683 -0.011628795
0.010058533 0.05194071 0.022305584 0.012032451 0.1455097 0.008988358 0.09011093 -0.040899232
0.1915256 -0.07900137 0.22541054 0.017016506 0.24089788 0.16364394 0.054114036 0.18779624
0.097831145 0.2085029 0.027139137 -0.07609178 0.18599017 -0.037008487 -0.04121579 0.20395559
0.2562195 -0.0710147 0.016348228 0.110501364 0.065061994 -0.014616524 0.31230873 -0.09577924

network.6.weight f4 [256, 256]
00000000: 8a4c 853d 6031 af3d 416d 1cbd df73 af3e
00000010: 7174 afbd 77f9 28bc 435a c03d 50d6 31bd
00000020: 928b 78ba 749c 2cbb a8dd 09bd b4b8 413d
00000030: 5d8e a1bc 8965 5ebc d09c c73c 870f aa3d
00000040: 518b 413f 475c 22bd 0aeb 263d df98 883e
00000050: 3a63 5cbd 10b9 8cbd 7a46 14bd 776d 063e
00000060: 1c6d 0bbc c92d fa3b 1440 edbc 3441 973c
00000070: 202f 1bbe d4f7 7d3e c3cc 1ebd 4dd4 523d
00000080: dfbd e0bd 1e91 023d 08c8 0b3d de9f 353c
00000090: ea75 d63d 39fa 083c eada c5bc 234e 0dbc
000000a0: 055e 663c 2872 443c c439 813d 0be0 e6bc
000000b0: 2e08 c4bc a524 963d 29f0 9a3d 6c05 3e3e
000000c0: b2d8 ff3c 7a36 633d f473 f03c d7b1 b5bc
000000d0: 0cda 963c 2a1d 7fbd 1da8 42bd 1375 483e
000000e0: dc69 fdbc 82cf 8abc 9dcc d33c e764 09bc
000000f0: f1b0 b23c 6343 383d 509d 6fbd b7db 0c3d
00000100: 887b b93e f1c8 25bd a764 0cbf 37bc e9bb
00000110: 6b63 473d a6ed 5bbd e502 043b 5b6a b4bd
00000120: 6c93 493c 92df 24be a2f0 833d 5b12 96bc
00000130: 08f8 c33e 8db3 29be 6de8 51bd 77b9 fd3c
00000140: b293 38be 427e 72bd 7eaa 423c bfdc 9f3d
00000150: 553d db3e 29c0 14bb 6ed7 e83c 27f4 193d
00000160: 7b25 1a3d 87bb 99bd 30b5 2e3d 5d0c f8bc
00000170: 37a0 f83d e5cc c43c b4a8 fc3c 3cbd b73c
00000180: e489 4c3f b7fc c33d 6617 4a3e ea2e 56bc
00000190: dbde 263e 62d3 04bf 7dec 04bd 15ec 823d
000001a0: ece0 12bd bd85 613e 1711 b83c 11c4 e9be
000001b0: 6469 f1bb 13fe b7bd 136a 27bd 196e 973d
000001c0: f5df adbd d8f1 953c 8024 26bd 27b5 e23c
000001d0: 245d 0dbd a6b0 69be 3298 a13d b891 143d
000001e0: 15bc 50bd 86fb db3d ac96 86bd af4c 31be
000001f0: c49f f1ba 3f55 3dbd 15fd cdbc ca42 65bd
00000200: 21fa 8bbd 5c6e 773d e244 4ebe 8191 0c3d
00000210: d764 d73c c61b 39be 7196 aa3e b476 013e
00000220: 0be6 49bd 84b2 c9bc 876c 25bc 3797 9bbc
00000230: a88e 903d 9768 19bc 277d bc3c 14fa 08bd
00000240: eb3a b23e 29b6 e63c 039e c13d 4418 28bd
00000250: a941 56bc 203d 9b3d c7f0 f8bb ae3e b53c
00000260: bfb1 fabc 250b d03d f646 88bf 0ef8 1dbd
00000270: 9755 b0bc f1b5 9fbd fca3 713b ae72 463e
00000280: 461f fa39 2195 b8bd 69a7 5c3d 179a b5bd
00000290: a196 86be 756f 303d 58ce b33d f2a0 983c
000002a0: 3b69 0cbd 3606 64bd 45bd ff3a 60de 6c3d
000002b0: a365 8b3d c6bf d23c be32 10bd 38ad cb3c
000002c0: edfa a43d 9edb 7abd 3e1d ecbd 52df 78bb
000002d0: ed08 c13b 163d 903d 492e bc3c 64c5 b43c
000002e0: 3d74 64bd b5d8 90bd cd6d 3bbf da86 ebbd
000002f0: 9b49 c93c 8498 9cbd 3345 25be c422 e43d
00000300: 3755 df3c 6225 1d3d 5250 cc3c 7fa5 5bbe
00000310: eaa3 58be cf47 1bbd eefa 163e d079 0dbd
00000320: 3181 7a3e 957a 25bd fdf0 463e 02fc d2bc
00000330: a610 353d 2f51 d8bd 3a96 b03c 92cc b73b
00000340: c3b2 02bc 39b1 c83c 1509 81bd 4374 50bd
00000350: 1db5 56bd b23e 1fbd 4712 afbc 8030 39bd
00000360: 0865 6cbd 3dee 64bd d949 89bd af1b 113f
00000370: 2d60 fa3d cad6 91bd d6b9 0d3d 5903 cbbb
00000380: 40be 4d3f 01b9 9abd 0ffe 4d3f d54c 293f
00000390: 0de3 57be a26f 313f 4ca2 1abd 00a0 bcbc
000003a0: e448 aa3d 0be6 063d 77c2 6fbd 5ab5 4e3e
000003b0: 45d7 0f3d d1c0 b9bd b2b1 043d 68e3 b83c
000003c0: dedf f2bc 5f79 cb3c 0c18 44bc 1913 05bd
000003d0: 5ca4 1f3d 9415 aabb 520d 433d 934b 3a3d
000003e0: 46af 0cbd 8e03 72bd 759f cf3e 10ee 5f3c
000003f0: 5113 2c3d 537b f7be 54ee 51be c49e 3abb
0.06508739 0.085543394 -0.03819013 0.3426809 -0.08567131 -0.010313383 0.09392216 -0.043417275
-0.0009481247 -0.002633837 -0.033658653 0.047295287 -0.019721204 -0.013574013 0.024366766 0.08303743
0.75603205 -0.039638784 0.040751494 0.2667913 -0.053805567 -0.06871235 -0.036200024 0.13127695
-0.0085099 0.0076348525 -0.028961219 0.018463708 -0.15154696 0.2480157 -0.038769495 0.051471997
-0.10973715 0.031876676 0.03412631 0.011085479 0.10471709 0.008360439 -0.024152238 -0.008624586
0.014060502 0.011990108 0.06309846 -0.028183004 -0.023929682 0.07331208 0.07565338 0.18556756
0.031231258 0.055471875 0.029352166 -0.022179527 0.01841452 -0.062283672 -0.047523607 0.1957591
-0.030934267 -0.01694465 0.025854403 -0.008385873 0.021812888 0.04498614 -0.058499634 0.034389224
0.3622706 -0.040474836 -0.54841083 -0.0071330327 0.048678797 -0.053693436 0.0020143327 -0.08809348
0.0123032145 -0.1610091 0.064423814 -0.0183193 0.3827517 -0.165724 -0.05124705 0.030972226
-0.18025091 -0.05920244 0.011881469 0.07805776 0.4282023 -0.0022697544 0.028423037 0.037586357
0.0376334 -0.07506471 0.042653263 -0.030279333 0.121399336 0.024023483 0.030842163 0.022429101
0.79897904 0.09569686 0.19735488 -0.013072709 0.1629595 -0.51885045 -0.032452095 0.06392685
-0.035859033 0.22023673 0.022469087 -0.456574 -0.0073673 -0.08984008 -0.040872645 0.07394046
-0.08489982 0.018303797 -0.040562153 0.02767427 -0.034512654 -0.22821292 0.07890357 0.03627178
-0.05096062 0.10741334 -0.06571707 -0.17314409 -0.0018434455 -0.046223875 -0.025145093 -0.0559719
-0.06834818 0.06040798 -0.20143464 0.03431845 0.026293201 -0.18077001 0.33317903 0.12642938
-0.04929165 -0.024621256 -0.010096676 -0.018993003 0.070584595 -0.009363315 0.023008896 -0.033441618
0.34810576 0.028163033 0.094539665 -0.041038767 -0.013077178 0.07580018 -0.0075970623 0.022124615
-0.030602334 0.10158376 -1.0646656 -0.03856664 -0.021525187 -0.077983744 0.0036871424 0.19379684
0.00047707016 -0.09012819 0.053870592 -0.08867281 -0.26286796 0.043075044 0.08779591 0.018631432
-0.034280043 -0.055669986 0.0019511363 0.05782926 0.06806495 0.02572621 -0.03520464 0.02486287
0.08055673 -0.0612446 -0.11529015 -0.0037974906 0.0058909566 0.07042901 0.02297129 0.02206678
-0.055774916 -0.070725836 -0.7321442 -0.1150033 0.02457123 -0.076462775 -0.16139679 0.111394435
0.027262313 0.03836573 0.024940643 -0.2144985 -0.21156278 -0.03791028 0.1474416 -0.034539998
0.24463345 -0.040400106 0.19427867 -0.025754932 0.04420533 -0.105623595 0.021556009 0.0056091035
-0.00797719 0.024498569 -0.063005604 -0.050892126 -0.052418817 -0.03887815 -0.02137102 -0.04521227
-0.05771354 -0.055891264 -0.067035384 0.56682867 0.12225375 -0.07121046 0.034601055 -0.0061954674
0.80368423 -0.07554818 0.8046579 0.6613286 -0.21082707 0.69310963 -0.037752435 -0.023025513
0.08314684 0.03293423 -0.058535066 0.20186368 0.035117406 -0.0906998 0.032396026 0.022569373
-0.029647764 0.024838148 -0.011968624 -0.032488916 0.038975105 -0.0051905606 0.047620125 0.04548223
-0.03434684 -0.05908542 0.40551344 0.013667598 0.04201061 -0.48336276 -0.20501071 -0.002847598

network.6.bias f4 [256]
00000000: ed30 743f 9c8b 773f 00a0 863f 284f 8a3f
00000010: 5b6c 843f 37a5 a13f a0a9 a83f cc40 c13d
00000020: 24b4 453f 0c35 6a3f b9db 833f 5476 b2bd
00000030: f841 b43f add9 7d3f b3d2 823f 7939 943f
00000040: a52d 823f 02c0 7f3f bb3c 873f ecac 8c3f
00000050: e330 883f 50ae 893f fca6 8c3f 6d63 833f
00000060: 363a 6f3f 4830 af3f 38df 8a3f 25ad 953f
00000070: 88d8 f93e ac9d 27bf 2f1f 813f b019 9c3d
00000080: 0baa 713f b7ae 7a3f 2c0d 84bd e249 5b3f
00000090: 7d4c 873f 7c2d 843f c8e6 753f 8d56 8e3f
000000a0: fa4d 803f 14e6 bf3e de05 903f 1c11 ae3f
000000b0: 1b17 9c3e cd1d 883f b57d 7c3f cfc6 873f
000000c0: 5bb7 853f ebc2 883f 0a11 e43e 8a1a b33f
000000d0: 1dcc 853f a84e 833f 8f01 073f dbb1 493e
000000e0: 325a 2abf cf4e 803f 4593 7b3f 31c5 ff3e
000000f0: 6b8c e5be b6d7 7e3f aeb7 813f 9f35 433f
00000100: 85d1 833f e65c c33d c80e 843f 4431 993f
00000110: 4555 3d3e 8dea 81be 9df5 893f 4e16 2bbf
00000120: a01a b4bd 8096 553b c7ae 543f ba45 b03f
00000130: 7946 acbd a6a6 a93f ea06 823f dcfc 293e
00000140: 2391 5b3f 2768 133f 911d 6e3e d035 7f3f
00000150: a220 7c3f cfa1 4cbe 5712 b23f 7ba3 893f
00000160: 49b8 2b3f f24f aa3f 7c5f 603e 5d17 803f
00000170: 1867 7b3f 69df 693f ce71 8c3f a82f f43e
00000180: c047 893f a278 a53f cfe1 85be d5ce 333f
00000190: f0e4 503f 9865 963e ffe8 823f 3c43 873f
000001a0: 2c24 803f 9432 ac3f d66b 933f 59d6 803f
000001b0: 9323 7f3f 8c1b 833f 4d6c ba3d bdaa 783f
000001c0: cdbb a23f 5150 a43f 647e 853f 0c45 c8bd
000001d0: 1c00 e33e 8415 ff3d f58b 7e3f 5242 9a3f
000001e0: b206 7b3f 3b9a 7c3f 0204 6b3f 8b67 793f
000001f0: 7ef0 663f 93fb 723f b073 833f 761a 8d3f
00000200: d438 803f c9a4 743f 1331 703f 4661 8dbd
00000210: a15c 823f 85db 9a3f 11d0 703f e9bb 853f
00000220: 4af6 233f cff6 ae3f 5646 ab3f 9e20 af3f
00000230: 6ce0 453f 0625 cb3e a826 7e3f dc0f 863f
00000240: e077 873f c586 b1be 701a 873f a412 a4bd
00000250: f0ad 3d3f 13e2 903f d91f 783f 9f19 7ebd
00000260: 0c56 803f 6b95 423f 8a72 863f d40e 803f
00000270: 4d09 9b3f 5a6f 863f ba0d 183f f545 1b3e
00000280: 3a59 b13f 0afc c93e 185d 7f3f 3b55 98bd
00000290: 7167 a63f 7f4a 963f d30b 483d e289 423f
000002a0: 6dcd e53e 353c 853f 5389 813f d84e 173f
000002b0: 913a 853f 6956 203f c7fa 613f 8b56 763f
000002c0: f3b2 8e3d 3f58 803f f61d b03f 39fb 813f
000002d0: eb1b 803f 9c31 793f cfce bd3f 2219 dfbd
000002e0: 7627 993f 5f15 6f3f cbb8 05bf 0ea2 203f
000002f0: cda0 863f 4732 6c3f d105 7c3f 7527 c53e
00000300: 3bac 8c3f 9fa0 7f3f 496b a73f ff2f fbbc
00000310: 006a 8a3f a15f 7b3f 6b29 823f e835 813f
00000320: 517c 9bbe 4f6b 20bf 3225 863f 9327 793f
00000330: b098 7f3f 71d7 813f 3e25 843f ac59 813f
00000340: 07e3 b23f fa29 8b3e 4a38 d1be fc75 383f
00000350: 58e2 2b3f 9c81 803f ae63 6f3f 8c7a 8a3f
00000360: a65a cbbc ce7e 683f 32d3 873f 5424 9cbd
00000370: 79d1 3a3f 72b6 ee3e 8ce5 833f b1c5 9d3f
00000380: baba 883f 497c 8a3f 640c b63f 3bb2 7c3f
00000390: 055d 8c3f 52c1 7f3f 5e54 8f3f bbfe bc3d
000003a0: f4a5 a63f fa4b 8a3f 8085 803f 9143 6d3f
000003b0: 2fdf e93e 723f 863f 1f96 3d3f 18e3 7c3f
000003c0: 431e b8be 0f0c 8d3f 6324 673f 4af9 273f
000003d0: 3779 073f 1035 b23f e964 8e3f caea b53f
000003e0: f3a9 493f 2a00 a93f 883a b13f 1676 7f3f
000003f0: c5ef 37bd 6681 7a3f 7c91 883f 8591 883f
0.95387155 0.966974 1.0517578 1.0805407 1.0345567 1.2628545 1.3176765 0.09436187
0.77228 0.91487193 1.0301429 -0.087139755 1.4082632 0.9916027 1.022055 1.1580039
1.017018 0.99902356 1.0565408 1.0990272 1.0639919 1.0756321 1.098846 1.0264717
0.934482 1.3686609 1.0849371 1.1693465 0.48798013 -0.65474963 1.0087641 0.07622087
0.9440009 0.97922844 -0.06447825 0.8565961 1.0570217 1.0326381 0.9605527 1.1120163
1.0023797 0.37480223 1.125179 1.3598971 0.30486378 1.0634094 0.98629314 1.0607547
1.0446581 1.0684484 0.4454425 1.3992474 1.0452915 1.0258379 0.52736753 0.19696753
-0.6654388 1.002405 0.9827159 0.49955133 -0.44833693 0.995479 1.013418 0.76253694
1.0298315 0.09539203 1.0317011 1.196816 0.18489559 -0.2537426 1.077808 -0.6683091
-0.08794141 0.0032590926 0.8307919 1.3771279 -0.08411879 1.3253982 1.015836 0.16600364
0.85768336 0.575808 0.23253466 0.99691486 0.98487294 -0.199836 1.3911847 1.0753015
0.6707807 1.3305647 0.21911424 1.000713 0.98204184 0.9135652 1.097223 0.4769261
1.0725021 1.2927439 -0.2614884 0.70237476 0.8159933 0.29374385 1.0227355 1.0567393
1.0011039 1.3452935 1.1517284 1.0065414 0.99663657 1.0242782 0.09102688 0.97135526
1.2713562 1.2837011 1.0429196 -0.09778795 0.4433602 0.12455276 0.9943231 1.2051489
0.9805709 0.98672837 0.9180299 0.9742362 0.9021071 0.9491512 1.026968 1.10237
1.0017343 0.9556394 0.9382488 -0.06903319 1.0184518 1.2098242 0.94067484 1.0447971
0.6404768 1.366907 1.338084 1.3681829 0.77295566 0.39676684 0.99277735 1.047359
1.0583458 -0.34673133 1.0554943 -0.08011368 0.7409353 1.1318992 0.96923596 -0.062036153
1.002626 0.76009244 1.0503705 1.0004525 1.2112213 1.0502732 0.59395945 0.15163405
1.3855355 0.39450103 0.99751425 -0.074381314 1.3000318 1.1741484 0.0488394 0.7599164
0.4488329 1.0408999 1.0120033 0.5910468 1.0408498 0.6263185 0.8827328 0.96225804
0.069677256 1.002693 1.3759143 1.0154792 1.000852 0.9734132 1.4828738 -0.108934656
1.1965168 0.93391985 -0.52235097 0.62747276 1.0517823 0.9226422 0.98446375 0.38506666
1.099006 0.99854463 1.3079616 -0.030662535 1.0813599 0.98192793 1.016889 1.0094576
-0.30368283 -0.6266374 1.0480101 0.9732601 0.9984236 1.0143872 1.0323865 1.0105491
1.3975533 0.27180463 -0.40863258 0.7205503 0.6714225 1.0039554 0.93511474 1.0818648
-0.024823498 0.9081849 1.0611327 -0.076241165 0.7297588 0.4662357 1.0304427 1.2325956
1.0681984 1.0819179 1.4222531 0.9870946 1.0965887 0.9990436 1.1197622 0.092282735
1.3019395 1.0804436 1.0040741 0.92681223 0.45678088 1.0488112 0.7405719 0.9878402
-0.35960588 1.1019305 0.90289897 0.6561476 0.52919334 1.3922443 1.1124545 1.4212277
0.78774947 1.3203175 1.3845987 0.9978956 -0.044906396 0.97853696 1.0669398 1.0669409

network.8.weight f4 [3, 256]
00000000: 439d 12be c7b0 863f 84c2 283f f114 e6bd
00000010: d353 373f cfa9 493f 3449 283f d1fa 333e
00000020: 4244 193f d74c 893f 214d a2be 44c3 81bc
00000030: c6d9 083f c6a1 00be c91a 573f 8073 453f
00000040: 4dcb 4c3f b393 ecbd 6077 0cbe 6343 9bbd
00000050: 4c97 f33e e8c0 cb3e d3f6 d4be 2931 17be
00000060: a78b aa3e 9946 7a3e e18a bfbd 7ffd 383f
00000070: 85fc 363f b75c a9be abd3 173f 3ecc 3cbf
00000080: c817 483f 228a 0abe 848e 103c 6615 f23e
00000090: 7c8f 1cbe 5551 07be 790e 093f be4e 0fbe
000000a0: 9602 1bbe f275 303f 6ebc 103f 378f d63e
000000b0: 9b9f 253f 568b f63e fa6c f2bd eae2 ddbd
000000c0: 8a8f 0cbf 49a7 1cbe 73bf 4d3f f51d 003f
000000d0: abb3 0abe df52 023f 2308 1bbf d0a6 06bf
000000e0: ae4c 23bf ef2f b4bd 60c3 0d3f bf50 3d3f
000000f0: 5e5d 20be f56c 0fbe 55ca a2be 47cf 673f
00000100: fc09 a9be 9c32 1dbf 9cdb 01be 47aa 0b3f
00000110: a83f fb3e f1b8 233d abd8 cebe 46ec 80be
00000120: 330a 3bbc f55a d33d c89d 603f 2fee 393f
00000130: f114 17bd 7598 773e 3d3c 84be ae5e cb3e
00000140: 414f a63e 42b5 e93e d603 cc3e a085 62bd
00000150: 69de 513e 7e14 19bf 8a05 2e3f c297 eabd
00000160: 52e4 543f d337 813f 097c d13e 6eb2 cebd
00000170: 9e63 e1bf 0fb6 bfbd fb1b 6b3f 64fa 6fbd
00000180: 52dc 3f3f 6713 023f fced ccbe 0e6e b13e
00000190: 015a 883f 3af7 f23e 7dee 013f c558 abbe
000001a0: ef26 13be a485 213f 4d21 093f 7d9a d2bd
000001b0: fc2a 0bbe f8ea 303f d080 093e 4456 e1bd
000001c0: a4ee 253f 2610 c13e 1c1c 12be 763d 69bc
000001d0: 10cb 593f a27d ef3d 0f56 8d3e 7993 2a3f
000001e0: 0dd1 413f ecc0 40be e9c8 12be f9af d3bd
000001f0: 6b8c 0c3f 8650 aebe fec3 f3bd e12f cebd
00000200: c02b 5fbe e86b 5a3f da21 d23e 071c a83c
00000210: 8ebd f0be fe3c 353f c475 0dbe 7174 1abe
00000220: 0bf9 5c3f b38e 2e3f fc4d 3c3f 4405 1c3f
00000230: e60c 1e3f 64a5 b53f 2e5b 8ebd 19bd 23be
00000240: b967 a3be 9c4f 51be 26bb cabd 69ac b3bd
00000250: 164a 6a3f fccd 223f 30af a9bf f48e dbbc
00000260: edf7 b6bd cc55 363e 67be fcbd 1c39 4d3f
00000270: 5085 a03e fdad 1bbe 285c 5a3f f531 4dbf
00000280: 3aaf e63e f707 c83f 1d6f 1dbe 4c9c 963b
00000290: f096 9e3e 08dc 3e3e e0f9 2cbf e778 853f
000002a0: b8db 183f ba99 d5be 3e8b 0fbe 70c0 7f3f
000002b0: c1b9 05be 5a67 1d3f befb 633f 72ab 23be
000002c0: a9dd 083f b1a3 543f e7ff f53e 834b de3e
000002d0: 1f3d adbd bb67 cdbd d5d4 f63e 18e3 16bf
000002e0: 7cf1 d73e fff2 563f 9576 00be d917 6c3f
000002f0: bb7f b6be b7c2 37be 9833 babd fd05 4a3f
00000300: d05d 02be 3eac abbd 35f6 093f fd58 02bd
00000310: 2f70 20be f5fe 8cbe 1bd4 14be 18cd 5e3f
00000320: ecaf d13b eafb 2cbf 5c6c f5bd 7358 11be
00000330: 384a 9fbd c591 f4bd 03ac 1bbe 25f4 643f
00000340: d97f 043f f157 603f 48c7 34bd 23d3 4d3f
00000350: 8b8c 343f 5cd8 a43e 14c4 923e 75b4 23be
00000360: b227 493d 8e5b 12bf 6e11 11be bd32 d33c
00000370: 35d4 57be 182a 4b3e 435d d4bd aa53 0f3f
00000380: 404e a63d 30e9 fabd dba5 c73e 61af f6bd
00000390: 9c2d 04be b9bd 1bbe d9e3 633f a405 933e
000003a0: 8369 883f f105 02be ff63 cebd dcfe 2c3f
000003b0: e30e 763f 7928 223f b0bc 493f 44c1 483f
000003c0: 72d4 d3bd 1b5e 903d e991 323f 78ce 68bd
000003d0: 933a ac3e 49ae 313f 1cfb 1cbe 26b6 bd3e
000003e0: 396c a2bc 1b10 1a3f b865 053f 880d 87be
000003f0: 748e 14bc a86b efbd 7700 28be 20f9 d0bd
-0.14317803 1.0522698 0.6592181 -0.11234463 0.7161228 0.7877473 0.657367 0.17576148
0.5986978 1.0726575 -0.3169947 -0.01584018 0.53457296 -0.12561712 0.84025246 0.77129364
0.7999771 -0.11551609 -0.13717413 -0.07581212 0.47576368 0.39795613 -0.41594562 -0.14764847
0.3330967 0.24440993 -0.09352661 0.72261804 0.71479064 -0.33078548 0.59307355 -0.7374915
0.7816129 -0.13529256 0.008823041 0.4728195 -0.1528911 -0.1321462 0.5353771 -0.13994882
-0.15137705 0.6892997 0.5653752 0.4190614 0.64696664 0.4815318 -0.11837192 -0.10834296
-0.54906523 -0.15298189 0.80370253 0.5004571 -0.135451 0.509077 -0.6055929 -0.52598286
-0.6378888 -0.08798205 0.55376244 0.73951334 -0.15660617 -0.14006408 -0.31794992 0.90550655
-0.3301543 -0.6140535 -0.1268143 0.545567 0.49072003 0.039971296 -0.4039968 -0.25180262
-0.011416006 0.10320083 0.87740755 0.72629064 -0.036885206 0.24179251 -0.25827208 0.39720672
0.3248234 0.456461 0.39846677 -0.055303216 0.20494999 -0.59796894 0.679772 -0.11454727
0.8316089 1.0095161 0.40914944 -0.100926265 -1.7608526 -0.09360897 0.9183957 -0.0585884
0.7494556 0.50810856 -0.40025318 0.34654278 1.0652467 0.47454244 0.5075453 -0.33466163
-0.1437032 0.63094544 0.5356644 -0.102833726 -0.13590616 0.69108534 0.13428044 -0.11002782
0.6481726 0.37707633 -0.14268535 -0.014235845 0.85075474 0.116938844 0.2760472 0.66631275
0.7570961 -0.18823594 -0.14334454 -0.103362985 0.5490176 -0.3404581 -0.11902617 -0.10067726
-0.21794033 0.853209 0.41041452 0.020521177 -0.4701962 0.7079619 -0.13814455 -0.15083481
0.8631751 0.6818649 0.73556495 0.60945535 0.6173843 1.4191098 -0.06950985 -0.15990104
-0.31915072 -0.20440525 -0.09898977 -0.08773119 0.91519296 0.6359556 -1.3256588 -0.026801564
-0.08934007 0.17806166 -0.12341004 0.80165267 0.3135171 -0.1520309 0.8529687 -0.80154353
0.45055562 1.5627431 -0.15374418 0.0045962688 0.3097453 0.18638623 -0.6756878 1.0427521
0.59710264 -0.41718847 -0.1401796 0.9990301 -0.1305914 0.61485827 0.89056003 -0.1598337
0.53463227 0.83062273 0.480468 0.43416986 -0.084589235 -0.10029551 0.48209253 -0.5894027
0.42176425 0.8396453 -0.12545235 0.9222389 -0.35644326 -0.17945372 -0.09091872 0.7891539
-0.12731099 -0.08382462 0.5389131 -0.031823147 -0.15667795 -0.27538267 -0.14534037 0.870317
0.0063991453 -0.6757189 -0.119835585 -0.14193897 -0.07777828 -0.11941866 -0.15202336 0.89435035
0.5175758 0.8763419 -0.044135362 0.80400294 0.7052695 0.3219632 0.2866522 -0.15986808
0.049110122 -0.5717095 -0.14166805 0.02578103 -0.21077044 0.19840276 -0.10369351 0.55987036
0.08120394 -0.12251508 0.38993725 -0.120451696 -0.12908024 -0.15209092 0.8901954 0.2871524
1.06572 -0.12697579 -0.100776665 0.67576385 0.96116465 0.63343006 0.7880354 0.784199
-0.10343255 0.07049199 0.6975389 -0.05683753 0.3363844 0.69406563 -0.15330166 0.3705303
-0.019826995 0.60180825 0.52108335 -0.2637751 -0.009067167 -0.11690456 -0.16406427 -0.10203767

network.8.bias f4 [3]
00000000: 0af6 3abf 0491 4dbf e3e7 c5be
-0.73031676 -0.802994 -0.38653478
