mountaincar_cl_project/mountaincar_cl/runs/progressive/none/seed_1/online_stream_model.pth (torch, 536437 bytes, 8 tensors)

network.0.weight f4 [256, 2]
0.6309059 0.15598816 0.38294452 -0.09900707 -0.35690618 -3.5790038 0.5190902 1.8165929
0.17406589 -0.53913623 0.51310533 -0.58355373 0.4946882 2.2244747 0.30162638 -0.27117896
0.73661536 0.9889034 -0.19723314 4.177656 -0.18554553 -2.7750227 -0.12838389 -0.6099417
-0.067941666 -0.64928424 0.31227583 1.8987118 -0.26744235 2.82735 -0.11639655 0.5175589
-0.5622228 0.3362259 0.49677426 0.0139039755 -0.61781067 -0.38310137 0.29732823 -1.037277
-0.55094695 -2.3213975 -0.3932293 -0.50950307 0.5697305 -0.4453161 0.15388858 -0.5035102
-0.117183134 2.9777887 0.42385402 2.2798862 -0.17871253 4.0536427 0.16341327 2.942302
0.093978465 0.54203826 0.46398216 -0.2756596 0.065142736 3.3403594 0.6214614 0.832044
-0.5150327 -0.4452749 0.13941568 -0.07299799 -0.16909124 3.6681683 -0.16129428 3.2072423
0.5770406 0.57291955 0.58321387 -0.29123935 -0.43124393 -0.48105383 0.32692227 -0.6076142
0.5393769 3.8681583 -0.09301083 3.068757 -0.15384613 -0.58675325 0.48792714 -0.5044129
0.2543493 0.3396513 0.6281479 -0.044696033 -0.1876477 0.16594821 -0.21652985 0.35494
-0.30084527 3.19777 -0.27282816 -2.532141 0.47249934 2.4749148 0.29067355 0.050619185
0.36584723 0.060656082 -0.51504207 -3.5578206 0.2529475 0.03057327 0.20733738 -0.4935646
0.19320981 3.7403274 0.4802956 0.61220485 0.36137176 2.1426702 0.644038 -0.6613874
0.3688608 3.4271626 -0.26216248 3.5574064 0.32896942 -0.5166663 0.726256 1.6578641
-0.23825106 0.1533271 0.1700018 3.6193674 0.3882416 -0.52465343 0.032549262 4.083934
0.5995682 0.088870704 -0.07203685 -3.583993 -0.32738256 0.59788126 0.26438665 0.69376796
0.09890288 0.7049648 0.25968567 3.4857001 0.31345814 0.010359287 -0.40545222 2.6713448
0.4862376 0.39959818 0.21043384 0.6699725 0.035289474 3.9457514 0.70950043 0.036253877
-0.60288584 -0.45317104 0.25982532 3.6601796 0.81013674 0.93445253 0.31641513 0.41634762
0.6434038 0.022872508 -0.16858475 -2.1586301 0.65821373 2.321418 -0.09452828 3.5149531
-0.29995826 -0.38637474 0.7463101 2.3143272 -0.6816824 -0.109520495 0.1493069 -0.093079686
-0.32570815 0.043749794 0.84801155 1.0439957 -0.3163164 -0.40877292 0.42164978 0.1810113
-0.11437202 3.720483 0.53253704 0.5055026 -0.73857373 -0.6469123 -0.34744617 3.3160625
0.002564668 -0.026889998 0.30642396 0.09718877 0.48801666 0.57796615 0.51040435 2.7610843
0.49578732 0.6213376 -0.12237877 0.077692986 -0.7660848 -0.7170958 0.63694215 1.2191466
-0.48590064 -0.5452248 0.62306684 0.37387925 -0.24492574 4.5374837 0.28186747 0.9142859
-0.3645203 3.173838 0.8468209 2.4586108 -0.601111 -1.0165763 -0.3299377 3.5788887
-0.06769715 3.7532573 0.4599077 2.8024278 0.28659233 3.3186593 0.47002354 4.028105
-0.058061402 3.580564 0.67648524 -0.5928183 0.39286274 -0.11639273 0.036997702 3.6285727
0.3725528 0.663881 0.1557024 3.6348422 -0.1943742 -0.008129358 0.19030516 0.31619447
00000000: 0d83 213f 5cbb 1f3e 4e11 c43e 38c4 cabd
00000010: 68bc b6be 660e 65c0 18e3 043f 1e86 e83f
00000020: 543e 323e d504 0abf df5a 033f c763 15bf
00000030: c647 fd3e cb5d 0e40 c66e 9a3e f8d7 8abe
00000040: d392 3c3f c628 7d3f 7cf7 49be 5caf 8540
00000050: a6ff 3dbe f999 31c0 1177 03be 2425 1cbf
00000060: 0025 8bbd 7e37 26bf 9ee2 9f3e fd08 f33f
00000070: 34ee 88be 4df3 3440 5061 eebd bd7e 043f
00000080: d5ed 0fbf cd25 ac3e 3259 fe3e 80cd 633c
00000090: d728 1ebf dd25 c4be 683b 983e 7ec5 84bf
000000a0: dc0a 0dbf c791 14c0 5a55 c9be cb6e 02bf
000000b0: dcd9 113f 7900 e4be f894 1d3e 0be6 00bf
000000c0: b6fd efbd 1794 3e40 6503 d93e a8e9 1140
000000d0: 6b00 37be 71b7 8140 cf55 273e ad4e 3c40
000000e0: c877 c03d 05c3 0a3f 128f ed3e 4123 8dbe
000000f0: 8e69 853d 73c8 5540 1818 1f3f d600 553f
00000100: 2fd9 03bf 12fb e3be fcc2 0e3e f87f 95bd
00000110: 4126 2dbe 45c3 6a40 542a 25be 7543 4d40
00000120: efb8 133f dbaa 123f 814d 153f 531d 95be
00000130: 01cc dcbe b04c f6be 5b62 a73e 9b8c 1bbf
00000140: 9b14 0a3f e88f 7740 767c bebd 8466 4440
00000150: d789 1dbe 7635 16bf 96d1 f93e 3421 01bf
00000160: 123a 823e c6e6 ad3e 4dce 203f 3013 37bd
00000170: b826 40be 54ee 293e 00ba 5dbe b2ba b53e
00000180: 6408 9abe 44a8 4c40 22b0 8bbe 990e 22c0
00000190: 6feb f13e 0165 1e40 2ad3 943e 1056 4f3d
000001a0: 5450 bb3e 8372 783d ccd9 03bf 55b3 63c0
000001b0: 5682 813e cb74 fa3c 4050 543e 80b4 fcbe
000001c0: cbd8 453e 8661 6f40 4ee9 f53e 75b9 1c3f
000001d0: b805 b93e 8221 0940 addf 243f af50 29bf
000001e0: 53db bc3e a256 5b40 293a 86be 8cac 6340
000001f0: ae6e a83e 3e44 04bf eaeb 393f e434 d43f
00000200: 16f8 73be c801 1d3e f414 2e3e b7a3 6740
00000210: 9ac7 c63e b04f 06bf 6052 053d 96af 8240
00000220: 4d7d 193f d801 b63d 0e88 93bd 2460 65c0
00000230: b09e a7be bf0e 193f b05d 873e c79a 313f
00000240: 988d ca3d 9378 343f 85f5 843e b615 5f40
00000250: 967d a03e 00ba 293c 6f97 cfbe 50f7 2a40
00000260: 22f4 f83e 2298 cc3e f87b 573e 5183 2b3f
00000270: b28b 103d 3187 7c40 d2a1 353f f27e 143d
00000280: ba56 1abf 0906 e8be d307 853e 6240 6a40
00000290: 1f65 4f3f 4838 6f3f 2a01 a23e 842b d53e
000002a0: 1db6 243f 205f bb3c 7ba1 2cbe ff26 0ac0
000002b0: b280 283f 1d92 1440 0b98 c1bd fef4 6040
000002c0: 2194 99be e9d2 c5be 2e0e 3f3f f01d 1440
000002d0: bd82 2ebf 484c e0bd e8e3 183e 90a0 bebd
000002e0: 38c3 a6be fc32 333d 4917 593f a7a1 853f
000002f0: 39f4 a1be af4a d1be 7be2 d73e 075b 393e
00000300: e13b eabd 651c 6e40 5954 083f 9e68 013f
00000310: 2b13 3dbf 0b9c 25bf 77e4 b1be 5e3a 5440
00000320: fd13 283b 6a48 dcbc 9ae3 9c3e e80a c73d
00000330: 52dd f93e 97f5 133f dca9 023f 9bb5 3040
00000340: d6d7 fd3e fb0f 1f3f b8a1 fabd 801d 9f3d
00000350: 221e 44bf 9793 37bf a40e 233f ff0c 9c3f
00000360: f8c7 f8be da93 0bbf 4f81 1f3f 1a6d bf3e
00000370: d0cd 7abe 1133 9140 ef50 903e a40e 6a3f
00000380: 68a2 babe 2920 4b40 41c9 583f e159 1d40
00000390: 69e2 19bf 2c1f 82bf 98ed a8be 830c 6540
000003a0: cea4 8abd 5e35 7040 0679 eb3e fa5a 3340
000003b0: 3bbc 923e ea64 5440 eda6 f03e 3ce6 8040
000003c0: cbd1 6dbd f627 6540 232e 2d3f f1c2 17bf
000003d0: 4e25 c93e 505f eebd e78a 173d 893a 6840
000003e0: 3ebf be3e 1bf4 293f 7370 1f3e 41a1 6840
000003f0: 080a 47be 0031 05bc 5bdf 423e 3ee4 a13e

network.0.bias f4 [256]
-0.15512198 -0.4201778 -0.1979167 0.26372018 -0.38528937 -0.3198225 0.2682205 -0.05244094
0.39568835 -0.10213493 -0.28899097 -0.17983316 -0.10303688 0.19608817 -0.3553258 -0.5231767
-0.64730567 -0.29422513 -0.39670637 0.1477229 -0.28854927 -0.20677102 -0.0616353 -0.23831168
-0.05899561 0.26025552 -0.09173884 0.09192148 -0.5107183 -0.6844451 0.033573348 0.03012881
-0.2686175 -0.3810371 -0.08090518 -0.0826175 -0.69984233 -0.52816427 -0.54664505 -0.023437655
0.27137166 -0.048342485 -0.19569425 -0.596616 -0.30222467 -0.5240813 -0.51682305 -0.6250601
-0.13508832 -0.35814065 0.23739469 -0.6822011 -0.03977625 -0.27115074 0.06988265 -0.6938777
0.0849533 -0.42511553 0.1839744 -0.49479362 0.20175306 -0.13246107 -0.6316995 0.39014974
-0.56826735 0.08895366 -0.29849544 0.014096572 -0.57400346 -0.24263693 -0.65988904 -0.6617651
-0.32381836 0.14471461 -0.52205694 -0.18636614 -0.3983747 -0.20094246 0.017183915 0.20718421
-0.3163987 0.11802564 0.42204243 0.18281491 -0.6519733 -0.25467852 0.33604857 -0.043743752
-0.35553405 0.38116872 -0.4721364 -0.66088855 -0.37321162 0.4540804 -0.5898365 0.09205731
-0.057392456 0.2391936 -0.38859615 -0.18148986 -0.02807857 -0.15371436 0.16677235 0.2403795
-0.22917247 -0.37640515 -0.5087968 0.31088236 -0.6836154 -0.53019524 -0.12641567 0.074239224
-0.18828975 0.43225983 -0.39662528 -0.1695175 -0.03180918 0.24525751 -0.105262 0.23155908
-0.02912119 -0.35022193 -0.40908304 0.034733374 -0.36266622 0.081555374 -0.56228685 -0.017784309
-0.009804512 -0.15717393 -0.039429903 -0.3163406 -0.14665188 0.25387585 -0.7019512 -0.4676288
-0.38935426 -0.3323173 0.35905802 -0.54684675 -0.5335394 -0.121766865 -0.12550002 0.34035915
-0.5623148 0.47457927 -0.04064419 -0.24058998 -0.6590034 -0.27545843 -0.06308654 0.2865658
-0.0034836945 0.29729158 -0.22640467 0.14644589 -0.4619571 -0.4913128 0.029748207 -0.67186254
0.3334712 -0.24679287 -0.65406084 -0.46692166 0.20524046 0.1030308 0.33837917 0.3917236
-0.39082056 0.22556752 -0.23317626 -0.05245513 -0.22270226 -0.6057737 0.25955632 -0.5848129
-0.16806763 -0.14119391 0.2135691 0.22248758 0.24775635 -0.11705517 -0.62741786 -0.3685811
-0.55620277 -0.29091945 -0.26112375 -0.099404834 -0.44455045 -0.15075935 -0.01953541 -0.41146627
-0.09870672 -0.63531786 0.1543255 -0.021326661 -0.3948636 -0.39918485 0.16125463 -0.47197208
-0.13023883 -0.09393918 0.17064448 -0.20390493 0.08671454 -0.58877075 -0.2569579 -0.45304194
-0.2881135 -0.02539419 -0.34533063 0.034023132 -0.022049196 0.274057 -0.03004699 0.019232921
-0.13290733 -0.64873195 -0.13015035 -0.47846323 -0.13043547 -0.019191524 0.17397219 -0.20858222
0.17735551 -0.0068972902 0.11809038 -0.625811 -0.4243514 0.46389 -0.3472929 0.46428335
-0.055938724 0.23537487 -0.57094574 -0.05450369 -0.022513606 0.14758088 -0.055581886 -0.12048673
0.11698044 -0.14489418 -0.14334524 -0.35405308 0.23712893 -0.31695086 0.26946446 0.2909389
-0.018768044 -0.09196873 -0.08153684 -0.3100691 -0.35227925 -0.18501942 -0.08821739 -0.13311946
00000000: 4cd8 1ebe 8b21 d7be adaa 4abe 5506 873e
00000010: a644 c5be c6bf a3be 3354 893e 50cc 56bd
00000020: aa97 ca3e 1e2c d1bd a0f6 93be 2f26 38be
00000030: 0005 d3bd 56cb 483e 43ed b5be e9ee 05bf
00000040: d3b5 25bf ada4 96be 191d cbbe ac44 173e
00000050: bbbc 93be c8bb 53be 4c75 7cbd fa07 74be
00000060: 61a5 71bd 3640 853e 93e1 bbbd 5441 bc3d
00000070: 6fbe 02bf cb37 2fbf 3584 093d b2d0 f63c
00000080: 3c88 89be 4b17 c3be 9db1 a5bd 5d33 a9bd
00000090: de28 33bf c635 07bf eef0 0bbf 5300 c0bc
000000a0: 3af1 8a3e c502 46bd 1364 48be d4bb 18bf
000000b0: 31bd 9abe 312a 06bf 844e 04bf f003 20bf
000000c0: 9854 0abe 365e b7be 9817 733e bba4 2ebf
000000d0: 6cec 22bd 45d4 8abe a31e 8f3d f8a1 31bf
000000e0: fffb ad3d bea8 d9be c963 3c3e 9755 fdbe
000000f0: 5b98 4e3e e0a3 07be 0fb7 21bf b5c1 c73e
00000100: f879 11bf 562d b63d 65d4 98be 4ff5 663c
00000110: e4f1 12bf d175 78be 7dee 28bf 7069 29bf
00000120: 85cb a5be 1130 143e 86a5 05bf c4d6 3ebe
00000130: c5f7 cbbe dcc3 4dbe 48c5 8c3c 1928 543e
00000140: 03ff a1be 6db7 f13d f215 d83e d533 3b3e
00000150: b9e7 26bf 3965 82be 8f0e ac3e a62c 33bd
00000160: 8f08 b6be 8c28 c33e ddbb f1be fe2f 29bf
00000170: 9815 bfbe 3a7d e83e 86ff 16bf 8b88 bc3d
00000180: 5a14 6bbd 2bef 743e 13f6 c6be 7ad8 39be
00000190: 0705 e6bc 4c67 1dbe 5fc6 2a3e 0b26 763e
000001a0: 30ac 6abe 2db8 c0be 8240 02bf f92b 9f3e
000001b0: 6b01 2fbf e0ba 07bf 1c73 01be bc0a 983d
000001c0: 07cf 40be 2951 dd3e 7812 cbbe ff95 2dbe
000001d0: 584a 02bd c924 7b3e 9a93 d7bd d31d 6d3e
000001e0: 908f eebc 4a50 b3be 5573 d1be 9544 0e3d
000001f0: 63af b9be 8106 a73d 08f2 0fbf 66b0 91bc
00000200: 1ba3 20bc 34f2 20be 4081 21bd 65f7 a1be
00000210: e92b 16be 04fc 813e 13b3 33bf 0b6d efbe
00000220: 7159 c7be 7e25 aabe 74d6 b73e 26fe 0bbf
00000230: 0a96 08bf e860 f9bd 1483 00be 8e43 ae3e
00000240: ddf3 0fbf 0efc f23e 867a 26bd 385d 76be
00000250: 72b4 28bf e308 8dbe 8433 81bd c1b8 923e
00000260: b24e 64bb 9a36 983e a0d6 67be e9f5 153e
00000270: a485 ecbe 5a8d fbbe 83b2 f33c 2fff 2bbf
00000280: bdbc aa3e 45b7 7cbe 8870 27bf 5b10 efbe
00000290: 8e2a 523e d001 d33d 0940 ad3e ff8f c83e
000002a0: a219 c8be 2cfb 663e c2c5 6ebe 31db 56bd
000002b0: 100c 64be fc13 1bbf 91e4 843e 4cb6 15bf
000002c0: ec19 2cbe 2395 10be dcb1 5a3e c9d3 633e
000002d0: d7b3 7d3e 9fba efbd 759e 20bf a9b6 bcbe
000002e0: 4e63 0ebf 65f3 94be 03b2 85be c394 cbbd
000002f0: 1e9c e3be a960 1abe b908 a0bc b5ab d2be
00000300: c026 cabd 31a4 22bf 8107 1e3e 40b5 aebc
00000310: 902b cabe f561 ccbe ef1f 253e 53a6 f1be
00000320: 545d 05be 2f63 c0bd 6dbd 2e3e 74cc 50be
00000330: 6597 b13d aeb9 16bf fc8f 83be 1df5 e7be
00000340: 9d83 93be 7a07 d0bc 2dcf b0be d75b 0b3d
00000350: 84a0 b4bc 3351 8c3e 1b25 f6bc 5c8e 9d3c
00000360: dc18 08be 4c13 26bf 2246 05be 22f9 f4be
00000370: e090 05be 8b37 9dbc c425 323e 9496 55be
00000380: af9c 353e aa02 e2bb 5fd9 f13d 2635 20bf
00000390: 9644 d9be fd82 ed3e 60d0 b1be 8cb6 ed3e
000003a0: 0120 65bd 1c06 713e 8029 12bf 433f 5fbd
000003b0: 746e b8bc 711f 173e d5a9 63bd bfc1 f6bd
000003c0: 7193 ef3d 245f 14be 18c9 12be 7246 b5be
000003d0: edd1 723e 6247 a2be 3ff7 893e f2f5 943e
000003e0: 71bf 99bc 1a5a bcbd c9fc a6bd 61c1 9ebe
000003f0: f25d b4be bb75 3dbe 52ab b4bd 7850 08be

network.3.weight f4 [256, 256]
0.01746656 0.06162241 -0.05674935 -0.012445779 -0.054345638 0.00071590394 -0.018995631 0.045533083
-0.020877741 -0.013987049 0.024809018 -0.053716846 -0.020013928 -0.0015458026 -0.04959868 -0.020168923
-0.012642339 -0.008030258 0.014154814 -0.018527836 0.034720615 -0.058956034 0.0124738095 -0.010696024
-0.010912478 0.032767147 -0.015441224 -0.010356125 0.0006545782 -0.04432874 -0.027011385 -0.040992152
0.020818539 0.020182788 -0.013950132 -0.044640407 -0.06206198 0.030305125 0.023598582 -0.06131019
0.010637344 0.053208403 0.034695856 0.05774709 0.0038587376 -0.035622112 0.030468166 0.044187017
-0.058196537 -0.029402666 0.009592084 0.042047754 -0.032047704 -0.0142030865 -0.0505957 -0.034392588
-0.056983534 0.039635144 0.028927773 -0.043413416 -0.014255154 0.059620664 -0.048776805 0.020886121
0.0074349865 0.0006319232 -0.02820377 -0.06101229 -0.0047214925 0.030805022 0.039287627 0.052741848
0.009116702 -0.011587531 -0.062201075 0.04345268 0.03650406 0.00068258494 -0.027731188 0.027788173
-0.019377932 0.044464786 -0.011659973 0.04065359 -0.011916198 0.061407216 0.0007304565 -0.023966439
-0.058773316 -0.01465772 -0.0459989 0.03723587 0.003000185 -0.04931248 0.051608197 0.01388296
-0.03773635 0.013544285 -0.057480246 -0.061586484 0.04265856 -0.031326897 0.02242482 0.0027322993
0.055355415 0.015047334 -0.0451665 -0.0088010505 -0.037672535 -0.04287897 0.01912602 -0.018074282
-0.004474975 -0.039893374 -0.048472725 0.0008640811 -0.016306046 -0.07059112 0.039383795 -0.044471502
-0.021397611 -0.04390651 0.05938611 -0.005003779 0.03320413 0.013847199 0.053548582 0.036144886
-0.015422401 0.044313774 -0.021235347 -0.010385416 -0.016811721 -0.01999624 -0.042505175 0.0496101
0.03942442 0.0054687485 -0.06399334 -0.008938767 -0.02564159 -0.020235337 0.015645094 -0.06250545
-0.05005732 0.016469136 -0.0018226613 0.03720182 0.0036214367 0.0015316531 -0.04760358 -0.04658472
0.0013352269 -0.06210673 -0.038871415 0.034711268 -0.04812333 -0.058495 -0.049188666 0.01745046
-0.05321364 -0.05886618 -0.012558259 0.022632875 -0.05287698 -0.009075815 -0.056393486 -0.054916114
-0.0013259575 -0.025065508 0.0066673234 0.0602101 -0.050709568 0.00820791 0.014551131 -0.0063080788
0.03896875 -0.0064070374 -0.05247943 0.009837325 0.020530667 0.019418493 -0.018693283 0.04008895
0.040955134 0.007707365 0.030853093 -0.014687889 -0.009984516 0.012666166 0.008441684 -0.025038563
-0.04500936 -0.015447862 0.032435182 0.021568999 0.018020697 0.06055382 -0.037235726 -0.05246772
0.05133961 -0.03812571 0.04674107 0.0043188557 0.00087467517 -0.06245295 0.05317054 -0.05331301
0.034369446 -0.022500841 -0.017624833 0.032651868 -0.045171265 -0.073525116 0.013017711 -0.06314327
0.060201943 -0.04616511 0.00446181 -0.030601263 0.036864437 0.048636347 0.007976711 -0.012954786
0.009043406 0.020666286 0.02079136 0.025242418 -0.054186814 -0.00083689747 0.04016482 -0.0048432616
-0.028989911 -0.040563907 0.011230096 -0.053289033 0.004344145 0.029297251 0.0042182608 -0.049461544
-0.07430206 0.0024287626 0.012628615 -0.037433453 -0.020598935 -0.04140427 -0.049945302 0.04128362
-0.012958526 -0.035978682 -0.008737281 -0.041869953 0.035222717 -0.04936076 0.02421919 0.05638086
00000000: 0816 8f3c c867 7c3d 0272 68bd 61e9 4bbc
00000010: 8899 5ebd 80ab 3b3a ba9c 9bbc e680 3a3d
00000020: cc07 abbc f029 65bc 483c cb3c 3206 5cbd
00000030: 40f4 a3bc 879c caba fc27 4bbd 4c39 a5bc
00000040: d021 4fbc 5891 03bc 98e9 673c b0c7 97bc
00000050: 3437 0e3d e27b 71bd f35e 4c3c 603e 2fbc
00000060: 40ca 32bc d836 063d 30fd 7cbc bdac 29bc
00000070: 0098 2b3a 0e92 35bd fb46 ddbc 63e7 27bd
00000080: a48b aa3c 6056 a53c 188f 64bc dcd8 36bd
00000090: b434 7ebd 7442 f83c d051 c13c 6520 7bbd
000000a0: 4148 2e3c 0ef1 593d 3e1d 0e3d 3688 6c3d
000000b0: e0e2 7c3b 7ee8 11bd 6098 f93c 72fd 343d
000000c0: 7e5f 6ebd dcdd f0bc 1e28 1d3c 443a 2c3d
000000d0: 7444 03bd 10b4 68bc 703d 4fbd 3edf 0cbd
000000e0: 9167 69bd 7658 223d f0f9 ec3c 44d2 31bd
000000f0: 738e 69bc cc34 743d 30ca 47bd 5f19 ab3c
00000100: 30a1 f33b a6a7 253a 980b e7bc 06e8 79bd
00000110: c0b6 9abb d05a fc3c 10ec 203d d607 583d
00000120: 385e 153c a1d9 3dbc 8ec6 7ebd 70fb 313d
00000130: 4885 153d 80ef 323a 842c e3bc 06a4 e33c
00000140: 78be 9ebc b520 363d 7909 3fbc 6184 263d
00000150: 283c 43bc 2286 7b3d 1b7c 3f3a 4455 c4bc
00000160: 4abc 70bd ef26 70bc 5869 3cbd a484 183d
00000170: c09e 443b e2fb 49bd 1e63 533d 5b75 633c
00000180: 6e91 1abd d9e8 5d3c 6870 6bbd 1c42 7cbd
00000190: beba 2e3d a250 00bd 42b4 b73c 6010 333b
000001a0: 5cbc 623d 1889 763c 8200 39bd 4832 10bc
000001b0: 844e 1abd dca1 2fbd 2cae 9c3c 8410 94bc
000001c0: d0a2 92bb 3c67 23bd 568b 46bd 8083 623a
000001d0: 4294 85bc 1492 90bd e750 213d c027 36bd
000001e0: 0b4a afbc 50d7 33bd da3e 733d bef6 a3bb
000001f0: 0e01 083d 5ddf 623c c255 5b3d a90c 143d
00000200: 3dae 7cbc 5c82 353d c0f5 adbc 9827 2abc
00000210: bcb8 89bc 28cf a3bc e819 2ebd f633 4b3d
00000220: 807b 213d 3033 b33b f10e 83bd e873 12bc
00000230: 500e d2bc 94c4 a5bc 242a 803c db02 80bd
00000240: e808 4dbd 48ea 863c 5de6 eeba f060 183d
00000250: a055 6d3b c0c1 c83a f9fb 42bd 9fcf 3ebd
00000260: c802 af3a a063 7ebd a237 1fbd 672d 0e3d
00000270: f81c 45bd 7498 6fbd 0e7a 49bd 44f4 8e3c
00000280: 8cf6 59bd aa1d 71bd 28c1 4dbc 9468 b93c
00000290: 8895 58bd bab2 14bc dbfc 66bd b8ef 60bd
000002a0: c0cb adba 2e56 cdbc 9079 da3b de9e 763d
000002b0: d6b4 4fbd 787a 063c de67 6e3c 00b4 cebb
000002c0: b29d 1f3d 20f2 d1bb acf4 56bd bb2c 213c
000002d0: ee2f a83c 8813 9f3c a822 99bc 5034 243d
000002e0: 92c0 273d 108e fc3b a0bf fc3c 79a5 70bc
000002f0: 1896 23bc c085 4f3c fd4e 0a3c ac1d cdbc
00000300: bc5b 38bd 0819 7dbc c1da 043d 78b1 b03c
00000310: 24a0 933c 4807 783d 7d84 18bd 64e8 56bd
00000320: 7c49 523d b429 1cbd 9073 3f3d 3085 8d3b
00000330: 754a 653a aace 7fbd 5ac9 593d be5e 5abd
00000340: fac6 0c3d af53 b8bc f461 90bc f7bd 053d
00000350: 8105 39bd 5694 96bd 3d48 553c 4251 81bd
00000360: 5096 763d a017 3dbd 6034 923b 80af fabc
00000370: 2aff 163d e836 473d c0b0 023c 5040 54bc
00000380: cb2a 143c 584c a93c a452 aa3c 30c9 ce3c
00000390: fef2 5dbd 3d63 5bba de83 243d 39b4 9ebb
000003a0: 407c edbc 5726 26bd 70fe 373c 9a45 5abd
000003b0: 5459 8e3b ca00 f03c 5639 8a3b 3098 4abd
000003c0: ae2b 98bd e02b 1f3b 40e8 4e3c d253 19bd
000003d0: 19bf a8bc 8697 29bd 7293 4cbd 0319 293d
000003e0: ff4f 54bc 625e 13bd d026 0fbc d47f 2bbd
000003f0: b245 103d 822e 4abd 5367 c63c 9eef 663d

network.3.bias f4 [256]
-0.057789836 -0.053015575 -0.0078014 0.12674543 -0.004127126 0.15824912 0.037990417 -0.043685596
-0.009143068 -0.035812188 0.085199915 -0.011801986 0.14781334 -0.018634446 -0.048198335 -0.056813866
-0.002861818 -0.011990624 -0.021652976 -0.015335504 -0.0052127186 -0.010376517 0.14056274 -0.006547912
-0.015811954 0.18105808 0.0034472237 0.0015547596 -0.0057879617 -0.054256354 -0.057810117 -0.0037970934
-0.03729263 -0.0058387266 -0.017177785 -0.0033032435 -0.021516072 -0.0037574142 -0.02256309 -0.011453586
-0.010306359 0.012887441 -0.008223476 0.000380964 -0.0037631085 -0.07776172 -0.008281226 0.16183235
-0.072868265 0.019890178 0.109824024 0.06264841 0.00020486652 -0.0058964067 -0.002591758 -0.0012832511
0.070984304 -0.011594694 0.027338007 -0.0027517376 0.036779847 0.00669994 -0.0066715237 0.050360475
0.08141732 -0.016144319 0.009736447 -0.04224079 -0.013315625 0.020123867 0.006723747 0.10718337
-0.022143474 -0.031631093 0.00090939103 0.048047192 -0.008585369 0.0022282926 0.08452111 -0.06917601
0.020841528 -0.017624417 -0.011348371 -0.009432002 -0.007444877 -0.0824858 -0.009876707 -0.050028704
0.0019060782 0.016120221 0.019903375 -0.07031722 0.17479767 -0.0579512 0.00011922377 0.029054154
-0.005639793 0.005864926 0.012027515 0.016597535 -0.00697903 0.0028984062 -0.011039148 -0.011201951
0.0012903807 0.042063303 -0.020219594 -0.06573192 -0.014210114 0.113207296 0.0010728071 0.08102338
-0.0013943141 -0.06317623 -0.009738157 0.014484521 -0.014931993 0.009679905 -0.033192374 -0.036138915
-0.0050820005 0.0009833508 -0.023657575 -0.00819799 -0.0058219084 0.009854759 0.13417727 -0.03967715
-0.05562386 0.0072428593 0.024878675 -0.042662945 -0.0200251 -0.02068713 -0.071278155 -0.07273856
-0.025482904 -0.0039390204 -0.0068985424 0.103911 -0.07016973 0.048488885 0.020634675 0.017769521
-0.025844062 0.07244551 -0.0056707324 0.08105155 -0.018330147 -0.06719612 -0.08022009 -0.009861034
0.13405293 0.047410373 -0.053168416 0.0011469031 -0.0015951882 -0.0076110763 -0.0041801087 -0.04383825
-0.0048765847 0.0043286546 0.011383934 -0.001830107 -0.009100689 0.006869295 0.0072837565 -0.08319013
-0.0052043092 0.10116371 0.04414571 0.10322811 -0.0042541255 0.108834885 -0.00509266 -0.003002117
-0.0138005335 -0.02009156 -0.0136318365 -0.0088813575 0.05815213 0.019104341 0.11645597 -0.0041319802
-0.017780589 -0.015093839 -0.0011581075 0.009163193 0.0011058847 -0.01641872 -0.007036049 0.023570448
0.06214336 0.008734608 -0.0025004633 -0.0024042227 -0.00047039145 -0.027809948 -0.0114577515 0.090639636
-0.014942044 -0.011420763 -0.0077826125 -0.0020410118 -0.056238603 0.042991247 0.16352867 -0.07317043
0.11567585 -0.00043955952 -0.015060881 -0.0008221875 0.047125626 -0.019209117 -0.013070989 0.123072
-0.01724489 -0.0021019967 0.107147925 -0.0103067355 0.006903663 0.145229 0.026800266 0.0031562634
0.02276924 -0.04081664 -0.04495007 -0.044477466 0.022861453 -0.063497484 0.106928326 0.0054097506
0.0044024917 0.046242055 -0.0512332 -0.0694079 0.002810072 -0.009015265 -0.011692841 -0.01544486
0.122163646 -0.0574945 -0.062285658 -0.0063949865 -0.06528554 0.052290685 0.00089325773 0.014463578
-0.041035004 -0.07284013 -0.06599556 -0.030901816 -0.013975172 0.0070989924 -0.036119197 -0.07682701
00000000: 09b5 6cbd dc26 59bd e3a2 ffbb 8ec9 013e
00000010: d83c 87bb 0f0c 223e d79b 1b3d abef 32bd
00000020: cfcc 15bc cdaf 12bd 4b7d ae3d 1e5d 41bc
00000030: 615c 173e 44a7 98bc 9e6b 45bd a8b5 68bd
00000040: 578d 3bbb 5274 44bc 9561 b1bc c441 7bbc
00000050: 74cf aabb 4402 2abc aeef 0f3e de8f d6bb
00000060: 1288 81bc 4a67 393e d1ea 613b 13c9 cb3a
00000070: f1a8 bdbb e93b 5ebd 4dca 6cbd a8d8 78bb
00000080: 28c0 18bd ca52 bfbb 6db8 8cbc 3b7b 58bb
00000090: 7942 b0bc f33e 76bb 3bd6 b8bc d2a7 3bbc
000000a0: 01dc 28bc d825 533c c2bb 06bc 1fbc c739
000000b0: 7c9e 76bb 8941 9fbd fbad 07bc 61b7 253e
000000c0: f53b 95bd baf0 a23c 6beb e03d cf4d 803d
000000d0: 70d1 5639 a536 c1bb 7cda 29bb c332 a8ba
000000e0: 3860 913d acf7 3dbc f5f3 df3c 7f56 34bb
000000f0: 77a6 163d 2c8b db3b cc9c dabb c946 4e3d
00000100: 20be a63d 1741 84bc 9e85 1f3c ae04 2dbd
00000110: c729 5abc cfda a43c e152 dc3b f482 db3d
00000120: 3b66 b5bc 9b8f 01bd 3364 6e3a 22cd 443d
00000130: a6a9 0cbc 8c08 123b 6719 ad3d 27ac 8dbd
00000140: dabb aa3c 1561 90bc 85ee 39bc af88 1abc
00000150: 28f4 f3bb 51ee a8bd e9d1 21bc e6ea 4cbd
00000160: 5fd5 f93a 8e0e 843c 670c a33c 7a02 90bd
00000170: 29fe 323e 3d5e 6dbd c607 fa38 fa02 ee3c
00000180: 03ce b8bb 912e c03b 0e0f 453c 8ef7 873c
00000190: 59b0 e4bb 30f3 3d3b 8bdd 34bc 6388 37bc
000001a0: fe21 a93a 924a 2c3d 90a3 a5bc 759e 86bd
000001b0: 8ad1 68bc 3ad9 e73d 6f9d 8c3a 96ef a53d
000001c0: 6bc1 b6ba 8a62 81bd ca8c 1fbc 7c50 6d3c
000001d0: 51a5 74bc 7798 1e3c baf4 07bd 6606 14bd
000001e0: e986 a6bb c7e3 803a 88cd c1bc dd50 06bc
000001f0: b5c5 bebb db75 213c c465 093e 8284 22bd
00000200: d8d5 63bd 8255 ed3b 5dce cb3c 57bf 2ebd
00000210: ae0b a4bc 0e78 a9bc 48fa 91bd f4f7 94bd
00000220: 86c1 d0bc e612 81bb 2b0d e2bb 4acf d43d
00000230: 26b5 8fbd 489c 463d 0d0a a93c 6391 913c
00000240: edb6 d3bc 505e 943d 8dd1 b9bb 5bfe a53d
00000250: 1b29 96bc 1f9e 89bd 6e4a a4bd 2d90 21bc
00000260: 2c45 093e 6131 423d 20c7 59bd af53 963a
00000270: a215 d1ba 5666 f9bb 4bf9 88bb bd8f 33bd
00000280: c2cb 9fbb 63d7 8d3b ae83 3a3c 33e0 efba
00000290: 0e1b 15bc d317 e13b 94ac ee3b 965f aabd
000002a0: e988 aabb eb2e cf3d 22d2 343d 4269 d33d
000002b0: 3166 8bbb d3e4 de3d 54e0 a6bb 2abf 44bb
000002c0: a21b 62bc 0e97 a4bc 1158 5fbc 1d83 11bc
000002d0: ee30 6e3d b580 9c3c 7880 ee3d 9065 87bb
000002e0: 99a8 91bc 264c 77bc a4cb 97ba 3821 163c
000002f0: 55f3 903a 8d80 86bc a88e e6bb d016 c13c
00000300: 098a 7e3d 9a1b 0f3c d0de 23bb 2a90 1dbb
00000310: df9e f6b9 b0d1 e3bc 4bb9 3bbc 46a1 b93d
00000320: 7acf 74bc 271e 3bbc 4905 ffbb 7fc2 05bb
00000330: 735a 66bd 9717 303d 0f74 273e 61da 95bd
00000340: 76e7 ec3d ae74 e6b9 eac1 76bc 1288 57ba
00000350: cd06 413d 705c 9dbc b427 56bc 2c0d fc3d
00000360: 2845 8dbc a7c1 09bb 5f70 db3d 95dd 28bc
00000370: 1f38 e23b e9b6 143e 3b8c db3c 50d9 4e3b
00000380: 8f86 ba3c 592f 27bd 911d 38bd 012e 36bd
00000390: f147 bb3c f80a 82bd 3dfd da3d 4744 b13b
000003a0: c742 903b 4f68 3d3d e7d9 51bd bb25 8ebd
000003b0: 2f29 383b c3b4 13bc 5493 3fbc 700c 7dbc
000003c0: ef30 fa3d 5a7f 6bbd 3f1f 7fbd 098d d1bb
000003d0: 6db4 85bd c22e 563d 8329 6a3a a5f8 6c3c
000003e0: 5214 28bd 352d 95bd ae28 87bd ce25 fdbc
000003f0: 1ff8 64bc aa9e e83b b9f1 13bd 7b57 9dbd

network.6.weight f4 [256, 256]
-0.011738442 -0.08061224 -0.01769073 0.024640918 -0.014237665 0.05544465 0.28603753 -0.0028654188
0.029714843 -0.064650305 0.02889429 0.032959152 -0.0065049753 -0.01571754 -0.044496894 0.078916736
0.045467135 0.006601425 0.043145355 0.040127218 0.013378991 -0.055424597 0.05299198 0.037023418
-0.037203144 0.057333358 -0.031397734 0.05686653 -0.04313478 -0.4384592 0.0038859285 -0.032903448
0.03078532 -0.001943814 -0.023891114 -0.040757667 0.03884297 -0.0002924313 0.041724127 0.007577842
-0.06721561 -0.07513486 -0.005961569 -0.054212876 -0.046118043 0.05078484 -0.01955364 0.068433
-0.06338716 0.049778562 -0.036051366 0.010036071 0.34667996 0.011243125 -0.054800596 -0.03564329
-0.008062073 -0.06051476 -0.02388193 0.002323177 0.29377165 -0.058114614 -0.02960511 -0.038059793
-0.0495649 -0.032666113 -0.010247694 0.050113972 0.0006723538 0.74904424 0.1757469 -0.035884615
-0.020535948 0.04166148 -0.014847036 0.8502043 -0.0685029 -0.021032307 0.026999744 0.036195777
0.023366032 -0.04732246 0.024453776 0.06556786 0.0403366 0.05521311 0.001238781 0.014065169
0.042474594 0.048470195 0.6945569 -0.07267584 0.022248736 -0.0311803 0.024724789 0.25651804
-0.014558843 0.060429413 -0.007714973 0.061302446 0.36974913 0.018609898 -0.04751662 -0.043971397
-0.07940531 -0.022867471 0.05382357 -0.012136273 0.0017783247 -0.044940867 0.03540358 -0.053298317
-0.026126932 -0.006990645 -0.034003474 -0.04320613 -0.008539511 0.017141117 -0.012982781 -0.035030745
0.040850416 -0.07381575 -0.010788702 -0.03312379 -0.0920776 -0.0037515745 0.016405843 0.0082278075
-0.046497934 0.028656282 -0.017136784 0.014753576 -0.062735476 0.050833642 -0.8941585 -0.04820351
-0.029894259 -0.027521644 0.028447878 -0.03592041 0.07670828 -0.16491373 0.7583301 -0.049137883
-0.012118725 1.6530082 0.019739037 0.7248242 0.03217539 -0.05634991 -0.055346824 -0.04716793
0.024468264 0.012359444 -0.03776335 0.049179293 0.05358173 0.013376435 -0.018644206 -0.0118286945
0.21929935 -0.032860413 -0.012519148 -0.020418756 -0.023694834 -0.049756598 0.04470259 0.02728023
0.036198683 -0.0018973395 0.618379 0.05764569 0.05266522 -0.054373227 -0.038568545 0.011925023
0.0019179325 -0.00177214 -0.066007726 0.025833083 -0.050548077 0.07145734 -0.04613051 0.013243253
-0.00787982 -0.0011049779 -0.015774434 -0.025259992 0.035262536 0.00095697504 0.01883645 1.2940348
1.1685236 -0.042062007 -0.031161582 0.03675167 -0.068170756 -1.0246416 -0.027972605 0.0513889
0.042640515 0.053556465 -0.016601149 -0.07034607 -0.06531858 0.39293656 0.03185643 -0.009032635
-0.05826151 0.027856722 -0.0479229 -0.0049536894 -0.037661444 -0.037945773 0.021446116 -0.0066856826
-0.02741338 0.060005017 -0.012412628 0.029312452 0.044745337 0.031515148 0.038038354 -0.084855124
-0.022080183 0.03255707 -0.003855028 0.07959331 0.025004463 0.002844142 0.042768657 -0.065462045
0.033851303 0.11428051 0.016472649 0.06657267 -0.06343386 -0.03720286 0.010498477 0.04098752
-0.019596163 0.005085989 -0.034122586 -0.02107982 -0.034756225 0.052936886 0.19501457 0.050128143
0.009824925 0.03816142 -0.034627296 -0.01557992 -0.0830354 0.048038166 0.15375784 -0.07346627
00000000: 9852 40bc 0818 a5bd 26ec 90bc c0db c93c
00000010: 1845 69bc ee19 633d 8373 923e c0c9 3bbb
00000020: 8b6c f33c 6167 84bd b8b3 ec3c 2d00 073d
00000030: b027 d5bb 12c2 80bc 6042 36bd 199f a13d
00000040: bf3b 3a3d c450 d83b 2fb9 303d 705c 243d
00000050: 8e33 5b3c e704 63bd 1e0e 593d dea5 173d
00000060: 5362 18bd 62d6 6a3d e99a 00bd e1ec 683d
00000070: 18ae 30bd b97d e0be 10ab 7e3b c4c5 06bd
00000080: 7f31 fc3c 93c7 feba 4cb7 c3bc 83f1 26bd
00000090: ce19 1f3d 7751 99b9 ebe6 2a3d 8c4f f83b
000000a0: 56a8 89bd 4ee0 99bd 4459 c3bb 520e 5ebd
000000b0: 46e6 3cbd c403 503d f52e a0bc 9a26 8c3d
000000c0: 21d1 81bd 9be4 4b3d 99aa 13bd 556e 243c
000000d0: 0980 b13e 1635 383c 9776 60bd b3fe 11bd
000000e0: c916 04bc 53de 77bd 0aa4 c3bc 7140 183b
000000f0: 3d69 963e 9709 6ebd 6a86 f2bc 96e4 1bbd
00000100: 9104 4bbd e7cc 05bd f2e5 27bc 4f44 4d3d
00000110: e640 303a 5dc1 3f3f fff6 333e bffb 12bd
00000120: 013b a8bc 3aa5 2a3d fc40 73bc fda6 593f
00000130: 404b 8cbd f24b acbc 912e dd3c 0642 143d
00000140: 1f6a bf3c 32d5 41bd 4953 c83c 7148 863d
00000150: fe37 253d 2427 623d 985e a23a 9871 663c
00000160: d7f9 2d3d af88 463d 7bce 313f 12d7 94bd
00000170: fb42 b63c d46d ffbc a48b ca3c 5556 833e
00000180: 3788 6ebc d584 773d e2cd fcbb 4618 7b3d
00000190: c24f bd3e c973 983c caa0 42bd 5a1b 34bd
000001a0: 409f a2bd 9054 bbbc 1b76 5c3d 38d7 46bc
000001b0: ad16 e93a ea13 38bd 5803 113d 564f 5abd
000001c0: 2608 d6bc c811 e5bb 3a47 0bbd e9f8 30bd
000001d0: 4ee9 0bbc 876b 8c3c bbb5 54bc 667c 0fbd
000001e0: c452 273d b62c 97bd 19c3 30bc d0ac 07bd
000001f0: 2e93 bcbd fadc 75bb 8c65 863c edcd 063c
00000200: 9e74 3ebd 94c0 ea3c 7162 8cbc fcb8 713c
00000210: 757b 80bd f036 503d 92e7 64bf 0b71 45bd
00000220: cee4 f4bc 1275 e1bc 860b e93c 4821 13bd
00000230: 3b19 9d3d 25df 28be ec21 423f ce44 49bd
00000240: 9e8d 46bc c695 d33f c3b3 a13c 148e 393f
00000250: 57ca 033d 2acf 66bd 5ab3 62bd 2933 41bd
00000260: ab71 c83c 447f 4a3c bead 1abd 3a70 493d
00000270: 8478 5b3d d628 5b3c bcbb 98bc 24cd 41bc
00000280: 0290 603e a498 06bd 1d1d 4dbc 3c45 a7bc
00000290: ab1b c2bc 93cd 4bbd 101a 373d ca7a df3c
000002a0: 1245 143d 26b0 f8ba 164e 1e3f e31d 6c3d
000002b0: 7cb7 573d 76b6 5ebd 0dfa 1dbd 2c61 433c
000002c0: 2363 fb3a 2747 e8ba 0f2f 87bd e79f d33c
000002d0: 800b 4fbd 3a58 923d 58f3 3cbd 3bfa 583c
000002e0: 5c1a 01bc e8d4 90ba 6339 81bc 0bee cebc
000002f0: 736f 103d 82dd 7a3a e64e 9a3c efa2 a53f
00000300: 2e92 953f 3649 2cbd 9346 ffbc eb88 163d
00000310: 1c9d 8bbd 7527 83bf ce26 e5bc 2b7d 523d
00000320: d2a7 2e3d 065e 5b3d 22ff 87bc 9a11 90bd
00000330: bfc5 85bd fb2e c93e e37b 023d 9efd 13bc
00000340: 9fa3 6ebd c833 e43c ce4a 44bd 8f52 a2bb
00000350: e342 1abd 076d 1bbd c4af af3c 9213 dbbb
00000360: 0692 e0bc d2c7 753d 565e 4bbc ab20 f03c
00000370: e346 373d 0716 013d 1bce 1b3d 86c8 adbd
00000380: 80e1 b4bc 905a 053d a3a4 7cbb d101 a33d
00000390: 29d6 cc3c c964 3a3b 302e 2f3d f710 86bd
000003a0: aaa7 0a3d e60b ea3d a6f1 863c 4157 883d
000003b0: 9de9 81bd 0762 18bd ce01 2c3c 88e2 273d
000003c0: 2288 a0bc 5ea8 a63b 20c4 0bbd 96af acbc
000003d0: 8b5c 0ebd 59d4 583d e6b1 473e 2b53 4d3d
000003e0: b9f8 203c 264f 1c3d 5ad5 0dbd ec42 7fbc
000003f0: 770e aabd abc3 443d b272 1d3e 7c75 96bd

network.6.bias f4 [256]
1.4815692 -0.018851232 1.5482413 1.5440146 1.4684626 -0.38980317 1.560517 -0.06274943
-0.009218206 1.521527 -0.026146837 1.5526153 1.4556739 -0.021586258 0.3009318 -0.07676005
0.0061653787 1.4677356 1.4201207 -0.03551204 -0.0607917 -0.039996278 -0.056668736 -0.0022745621
-0.025202356 -0.007602452 0.31762365 -0.064578734 -0.0177274 -0.051477488 1.4715021 1.4897257
-0.020124648 1.4526505 1.526898 -0.018911608 1.4407673 -0.07352925 1.4951626 1.5104107
-0.024737393 1.4641827 -0.014208932 -0.039709844 0.03032398 1.5037658 1.5487038 0.3494788
1.4766966 -0.046402752 1.5404323 -0.038638197 -0.014394873 1.5700203 1.5508803 0.43206722
-0.045667686 1.5680621 -0.0143188 0.0021502236 -0.017741092 1.4176016 1.5251169 0.49821606
-0.010475786 -0.0028553363 -0.04406847 -0.058968473 -0.054682817 1.5496148 -0.00811658 1.5458096
-0.05805995 1.4378573 0.34377456 -0.05850814 0.58308333 0.009172709 1.4409883 1.4719926
1.5507619 1.4952925 -0.089845784 1.5400498 0.030538758 -0.01980663 1.5291418 1.5396595
1.5032499 1.4636742 -0.02143662 -0.019836709 1.4465433 1.4296145 -0.049048744 1.5367872
-0.018060131 -0.0726167 1.4498179 -0.014509252 1.4723767 -0.024298053 -0.032471526 -0.04715673
1.489099 1.5531399 -0.007643076 1.468617 0.3798743 -0.039476547 1.5519893 0.26827607
-0.058949307 -0.015431941 1.4370455 1.4573407 0.03949394 -0.0056777005 0.007248844 -0.029322071
1.5167859 -0.002661671 1.5475471 1.4942913 0.066117264 1.5680199 0.19652224 0.14044602
1.4073902 1.5200294 0.027458875 -0.0539231 1.4734173 1.4416809 1.5302005 -0.029049946
1.4581088 -0.021531323 -0.025888698 1.5456026 0.00436571 -0.06293238 -0.0022870265 0.6250331
-0.043501068 1.5123119 -0.078162044 1.4986076 1.5113544 0.008895887 -0.0498389 1.4873277
-0.05874689 -0.059144218 -0.06845089 -0.025276529 1.5786061 -0.060143914 1.4645954 -0.0095703425
-0.05768368 1.4853033 1.5602797 1.4312685 -0.0631147 -0.05898285 -0.05732772 0.4480984
-0.0064863176 1.4486334 1.5347425 0.012951693 -0.057375535 1.5687518 -0.04367833 1.4476212
1.5064182 0.10638231 1.5066812 0.031979237 1.2196356 1.4834243 -0.06491782 1.5223525
0.0005108327 1.5089483 -0.009499882 -0.05567813 1.5101776 1.551843 1.5315692 1.4178941
-0.0084836185 -0.0060637356 0.3709691 1.5385392 1.4804726 1.471764 0.023994058 1.5431466
-0.07219173 1.473208 0.71165365 -0.03368932 -0.06576151 1.4700326 0.014547537 1.44613
-0.12644444 -0.06647859 -0.04167752 1.5598117 1.4718724 1.4350988 -0.043395028 -0.02427615
1.5034556 1.4543688 1.5235529 1.4909562 -0.01107698 0.018744867 -0.016713584 1.546841
1.5350659 -0.061333366 1.4757277 1.4929829 -0.019678306 0.75490636 1.5726497 -0.07973287
1.5019327 1.437069 -0.029322676 -0.0074456176 0.5397557 1.5217878 1.5124688 1.4556783
-0.026349198 1.4741615 -0.04976958 -0.0756941 1.5074167 1.5018263 -0.046608616 1.491122
-0.052192785 0.12674145 0.1373407 1.4598185 -0.0072762594 -0.04865562 -0.06314819 1.5322841
00000000: 0fa4 bd3f e66d 9abc c52c c63f 45a2 c53f
00000010: 95f6 bb3f 4894 c7be 05bf c73f c682 80bd
00000020: f507 17bc 66c1 c23f e431 d6bc 19bc c63f
00000030: 8653 ba3f aad5 b0bc bc13 9a3e 6034 9dbd
00000040: f206 ca3b c3de bb3f 84c6 b53f 1375 11bd
00000050: b800 79bd 23d3 23bd 7a1d 68bd d210 15bb
00000060: 2c75 cebc fd1d f9bb 919f a23e db41 84bd
00000070: 0d39 91bc 0fda 52bd 2e5a bc3f 55af be3f
00000080: 72dc a4bc 74f0 b93f 6571 c33f 84ec 9abc
00000090: 106b b83f 8196 96bd 7d61 bf3f 2355 c13f
000000a0: 13a6 cabc 576a bb3f 95cc 68bc caa6 22bd
000000b0: ff69 f83c 667b c03f ed3b c63f e3ee b23e
000000c0: 6504 bd3f d010 3ebd e32c c53f 1643 1ebd
000000d0: 79d8 6bbc 6df6 c83f 3f83 c63f ea37 dd3e
000000e0: 0a0e 3bbd 42b6 c83f 6699 6abc c4ea 0c3b
000000f0: c455 91bc f873 b53f 0837 c33f 2d16 ff3e
00000100: a2a2 2bbc 9820 3bbb 2481 34bd ed88 71bd
00000110: 17fb 5fbd c759 c63f 67fb 04bc 17dd c53f
00000120: 45d0 6dbd b50b b83f 3803 b03e 3ba6 6fbd
00000130: f344 153f 2149 163c 4e72 b83f 416a bc3f
00000140: 5e7f c63f bf65 bf3f 1101 b8bd 5a20 c53f
00000150: 6b2c fa3c 8441 a2bc ebba c33f 9013 c53f
00000160: 7e6a c03f ad59 bb3f da9b afbc 9880 a2bc
00000170: 5528 b93f 9cfd b63f 56e7 48bd 71b5 c43f
00000180: d7f2 93bc 10b8 94bd a293 b93f 37b8 6dbc
00000190: d776 bc3f b60c c7bc dd00 05bd 6a27 41bd
000001a0: cc9a be3f 4acd c63f c572 fabb a4fb bb3f
000001b0: e27e c23e 29b2 21bd 96a7 c63f 7b5b 893e
000001c0: d474 71bd 40d6 7cbc 1bf1 b73f 248a ba3f
000001d0: 66c4 213d 010c babb b687 ed3b d734 f0bc
000001e0: 0a26 c23f 6e6f 2ebb 0616 c63f f044 bf3f
000001f0: 7d68 873d e0b4 c83f 203d 493e 15d1 0f3e
00000200: 5d25 b43f 5390 c23f 6ff1 e03c 78de 5cbd
00000210: f098 bc3f 0089 b83f 9cdd c33f 27fa edbc
00000220: 4fa3 ba3f 7562 b0bc 8914 d4bc 4ed6 c53f
00000230: 3b0e 8f3b b1e2 80bd f0e1 15bb 2b02 203f
00000240: 2d2e 32bd 7093 c13f 6c13 a0bd 60d2 bf3f
00000250: 1074 c13f 0ec0 113c e023 4cbd c160 be3f
00000260: 94a0 70bd 3541 72bd fb2f 8cbd b910 cfbc
00000270: c40f ca3f 7759 76bd dd77 bb3f edcc 1cbc
00000280: b945 6cbd 6b1e be3f 3fb7 c73f ce33 b73f
00000290: 4842 81bd 0098 71bd 79d0 6abd 276d e53e
000002a0: 2d8b d4bb d26c b93f 7172 c43f 5633 543c
000002b0: 9c02 6bbd dccc c83f 0ce8 32bd a74b b93f
000002c0: 50d2 c03f f8de d93d eeda c03f a9fc 023d
000002d0: 051d 9c3f d9e0 bd3f a2f3 84bd 72dc c23f
000002e0: 67e9 053a 3825 c13f 65a5 1bbc c00e 64bd
000002f0: 804d c13f cba2 c63f 760a c43f 8e7d b53f
00000300: e0fe 0abc 4db2 c6bb a9ef bd3e daee c43f
00000310: 2080 bd3f c362 bc3f 308f c43c d485 c53f
00000320: 42d9 93bd 1492 bc3f ef2e 363f d0fd 09bd
00000330: f8ad 86bd 072a bc3f cb58 6e3c ca1a b93f
00000340: a77a 01be ed25 88bd 0cb6 2abd e9a7 c73f
00000350: 5166 bc3f 51b1 b73f fcbe 31bd c7de c6bc
00000360: 3c71 c03f c228 ba3f c803 c33f a7d7 be3f
00000370: 397c 35bc d68e 993c edea 88bc e3fe c53f
00000380: 0a7d c43f b238 7bbd a5e4 bc3f 101a bf3f
00000390: 6634 a1bc 8b41 413f 964c c93f fd4a a3bd
000003a0: 553f c03f e1f1 b73f 1c36 f0bc 5efa f3bb
000003b0: 6e2d 0a3f f1c9 c23f 9498 c13f ab53 ba3f
000003c0: 46da d7bc 53b1 bc3f 30db 4bbd 8205 9bbd
000003d0: 08f3 c03f d83b c03f ade8 3ebd 16dd be3f
000003e0: 1ac8 55bd 83c8 013e 0aa3 0c3e 55db ba3f
000003f0: b06d eebb 1e4b 47bd d753 81bd e321 c43f

network.8.weight f4 [3, 256]
0.42918044 -0.023727935 0.33228183 0.30349264 0.29426306 -0.1619353 0.29980394 0.027202312
-0.0377832 0.29744068 0.01614633 0.29896596 0.275783 -0.052086443 -0.45686704 0.041726198
0.062486 0.32099622 0.27674162 0.03427834 -0.03849349 0.0374065 -0.049948946 0.015399294
0.022240754 -0.024590585 -0.50543684 -0.030159445 -0.08434896 -0.020468159 0.30002373 0.29336256
0.040024348 0.35282838 0.29744413 -0.009987799 0.29108676 0.04974985 0.2843192 0.32670313
0.025183957 0.2813173 0.0010029834 -0.0031110954 -0.045793995 0.35174638 0.29734278 -0.47988045
0.26707628 -0.054784507 0.32208297 -0.024464972 -0.008709578 0.32625574 0.29308745 -0.5609248
-0.004039041 0.35272518 -0.04329177 0.033017118 -0.009832052 0.28768697 0.31459278 -0.6158455
-0.004707392 0.029497517 -0.028543867 0.00082821824 0.04484929 0.3287333 0.009977819 0.3176714
0.029530559 0.37772188 -0.45869264 0.03204056 -0.6753039 -0.03172809 0.2880865 0.3011135
0.30724943 0.2873481 -0.08938468 0.38025862 -0.03983759 -0.018727466 0.2854209 0.35258445
0.30473256 0.6078508 0.0014309742 -0.056185957 0.27124578 0.25589833 0.04268 0.29955116
0.06709661 0.023556873 0.33172745 0.04855469 0.29997787 0.006055094 -0.025846133 -0.010533027
0.3172698 0.33578485 -0.04255921 0.2867022 -0.46893522 0.025711901 0.30596873 -0.37303102
-0.02195976 -0.05491987 0.42822617 0.30963105 -0.050407637 0.03334979 -0.008502853 -0.008077112
0.32962337 -0.07447902 0.34727767 0.3030481 -0.09348047 0.32460418 -0.26989284 -0.28067094
0.40025714 0.31787825 -0.018085074 0.053710848 0.3146615 0.32852736 0.3376455 0.0036392347
0.3225076 -0.0128178485 -0.032108914 0.29458198 0.005092763 -0.040482067 -0.05293742 -0.59809864
0.0019529635 0.27558795 0.013224196 0.30781883 0.32578927 0.07802052 -0.0041375533 0.3056756
0.037909713 -0.02985269 0.035017364 0.016897758 0.33824244 0.03463462 0.3201856 -0.03479257
0.041577492 0.3070222 0.30308148 0.30017835 0.05294534 0.036016833 -0.013123371 -0.5830437
0.005969424 0.8444998 0.30496716 0.0017664711 0.0016941578 0.33119285 0.0368616 0.2645914
0.30462486 0.101128414 0.33769193 -0.119216956 0.7982306 0.36597627 -0.021136455 0.36199984
-0.07597838 0.33159095 -0.012074989 -0.016471045 0.304699 0.29713964 0.315289 0.3909839
-0.014823547 -0.017769907 -0.5897175 0.30608517 0.28282717 0.35442722 -0.023136523 0.32719514
0.0041360874 0.27778375 -0.906891 0.05752122 0.021651076 0.3082992 -0.035010714 0.3200516
-0.072837986 0.024847712 -0.007826121 0.2930007 0.29706845 0.29819554 0.03894376 -0.013133673
0.35529712 0.27333125 0.32196364 0.28922215 -0.0024290013 0.051725037 -0.040119275 0.36247078
0.340183 -0.037116013 0.30126557 0.27738568 -0.0050661 -0.925168 0.3220762 -0.00793076
0.31029978 0.33376917 0.0048954827 0.00059210986 -0.7276631 0.3197858 0.3157406 0.30907154
-0.035265177 0.2703105 0.023499887 -0.05816292 0.33099273 0.30218205 -0.0236816 0.29843515
0.014209793 0.11818191 0.06665397 0.284618 -0.03165827 0.020330137 -0.0055565233 0.31048274
00000000: 8abd db3e 1661 c2bc d820 aa3e 6363 9b3e
00000010: a6a9 963e 5ed2 25be e77f 993e 62d7 de3c
00000020: 8fc2 1abd 254a 983e 4f45 843c 1112 993e
00000030: 6e33 8d3e 9858 55bd 7aea e9be 17e9 2a3d
00000040: 52f1 7f3d 9e59 a43e 14b1 8d3e 7267 0c3d
00000050: 5aab 1dbd 8f37 193d 4497 4cbd 524d 7c3c
00000060: 3e32 b63c 3272 c9bc 4f64 01bf f110 f7bc
00000070: 26bf acbd d7ac a7bc b69c 993e 9e33 963e
00000080: 92f0 233d eca5 b43e 994a 983e dea3 23bc
00000090: 5309 953e 80c6 4b3d 4992 913e a245 a73e
000000a0: 964e ce3c d208 903e 8a76 833a 85e3 4bbb
000000b0: 7c92 3bbd 1a18 b43e 503d 983e e4b2 f5be
000000c0: 39be 883e b865 60bd 0fe8 a43e c46a c8bc
000000d0: 9eb2 0ebc fe0a a73e 8f0f 963e c598 0fbf
000000e0: ef59 84bb 6598 b43e b652 31bd f53c 073d
000000f0: 9d16 21bc b54b 933e 4e12 a13e 0da8 1dbf
00000100: 7740 9abb c7a4 f13c d4d4 e9bc c91c 593a
00000110: e4b3 373d bb4f a83e 027a 233c d3a5 a23e
00000120: 12ea f13c c364 c13e c3d9 eabe f63c 033d
00000130: b7e0 2cbf 50f5 01bd 1380 933e 8c2b 9a3e
00000140: cc4f 9d3e 4a1f 933e 510f b7bd 42b1 c23e
00000150: be2c 23bd 586a 99bc b022 923e f385 b43e
00000160: e805 9c3e 1c9c 1b3f 878f bb3a 3f23 66bd
00000170: bae0 8a3e 1b05 833e 39d1 2e3d c55e 993e
00000180: f369 893d 58fa c03c 2ed8 a93e 48e1 463d
00000190: b396 993e cf69 c63b 45bb d3bc b892 2cbc
000001a0: 3071 a23e feeb ab3e 9152 2ebd a1ca 923e
000001b0: 4718 f0be c4a1 d23c efa7 9c3e ecfd bebe
000001c0: f4e4 b3bc a8f3 60bd 7640 db3e f687 9e3e
000001d0: 3d78 4ebd ca99 083d 8d4f 0bbc dd55 04bc
000001e0: 65c4 a83e 7588 98bd 61ce b13e 1f29 9b3e
000001f0: b072 bfbd 8532 a63e 652f 8abe 1ab4 8fbe
00000200: 81ee cc3e f0c0 a23e 2627 94bc e8ff 5b3d
00000210: 501b a13e bd34 a83e dfdf ac3e 3a80 6e3b
00000220: b71f a53e f401 52bc a384 03bd 73d3 963e
00000230: 31e1 a63b 86d0 25bd e8d4 58bd fe1c 19bf
00000240: 95fa ff3a dd19 8d3e 4caa 583c 6e9a 9d3e
00000250: dacd a63e 39c9 9f3d 5094 87bb 8381 9c3e
00000260: 3747 1b3d a18d f4bc 5e6e 0f3d 2b6d 8a3c
00000270: 1d2e ad3e 08dd 0d3d 5eef a33e a782 0ebd
00000280: 294d 2a3d 0432 9d3e 7f2d 9b3e fab0 993e
00000290: 36dd 583d 6386 133d 6803 57bc 5a42 15bf
000002a0: 289b c33b 2431 583f a824 9c3e ef88 e73a
000002b0: 810e de3a 1c92 a93e 30fc 163d 8678 873e
000002c0: caf7 9b3e 6a1c cf3d f5e5 ac3e 0528 f4bd
000002d0: d758 4c3f 3e61 bb3e 5c26 adbc 0b58 b93e
000002e0: 8e9a 9bbd 4ac6 a93e 2dd6 45bc 49ee 86bc
000002f0: 8201 9c3e b022 983e 8f6d a13e 0b2f c83e
00000300: 76de 72bc 3292 91bc baf7 16bf 32b7 9c3e
00000310: b9ce 903e 7c77 b53e ce88 bdbc 1f86 a73e
00000320: 0488 873b ac39 8e3e 022a 68bf 5f9b 6b3d
00000330: 995d b13c 65d9 9d3e 6567 0fbd cedd a33e
00000340: 152c 95bd 6e8d cb3c 2139 00bc 3004 963e
00000350: 5b19 983e 16ad 983e 7e83 1f3d 9e2e 57bc
00000360: 81e9 b53e 13f2 8b3e 6bd8 a43e ed14 943e
00000370: e12f 1fbb a2dd 533d 1c54 24bd c595 b93e
00000380: 772c ae3e f606 18bd 7b3f 9a3e 7f05 8e3e
00000390: 8701 a6bb cfd7 6cbf 2ce7 a43e 05f0 01bc
000003a0: 9ddf 9e3e cbe3 aa3e 496a a03b d237 1b3a
000003b0: 2148 3abf f7ba a33e c0a8 a13e a03e 9e3e
000003c0: 3872 10bd 2366 8a3e d682 c03c 3e3c 6ebd
000003d0: e177 a93e 9bb7 9a3e eaff c1bc 7ecc 983e
000003e0: 31d0 683c 5b09 f23d e081 883d 73b9 913e
000003f0: 1aac 01bd 638b a63c 7f13 b6bb 98f7 9e3e

network.8.bias f4 [3]
1.1034691 1.04783 1.1530691
00000000: 7a3e 8d3f 4b1f 863f c597 933f
