mountaincar_cl_project/mountaincar_cl/runs_mountaincar_No_EWC/abrupt/egp/seed_1/online_stream_model.pth (torch, 535757 bytes, 8 tensors)

network.0.weight f4 [256, 2]
0	0x3ee02402	0.43777472
1	0x3eeac7c2	0.45855528
2	0x3de4420a	0.111454085
3	0x3fff454e	1.9943025
4	0x3ec2da2a	0.3805707
5	0x400a2791	2.158665
6	0xbd4df333	-0.05028076
7	0x3ba10ba9	0.00491472
8	0x3e4f5dcf	0.20250629
9	0x3ffa6ebe	1.9565046
10	0x3e742978	0.23843944
11	0xbfb91dcc	-1.4462218
12	0xbf36162f	-0.711276
13	0xbf5e2384	-0.8677294
14	0xbea38fb7	-0.31945583
15	0xbee7f9ad	-0.45307675
16	0x3ec485d5	0.38383356
17	0xbf50e87e	-0.81604755
18	0xbe8270f4	-0.254768
19	0x3c48f540	0.012265503
20	0x3eedef11	0.46471456
21	0x3f07c5f4	0.5303643
22	0x3d3f5515	0.046712
23	0x40089721	2.1342242
24	0x3f26574f	0.6497697
25	0x3f545b02	0.82951367
26	0xbea86db0	-0.32896185
27	0x3f85daee	1.0457437
28	0x3e8e860c	0.27836645
29	0x3e36037c	0.17774767
30	0xbf21f095	-0.63257724
31	0xbdc86387	-0.09784608
32	0x3ef8ced6	0.48595303
33	0x3f2a8a99	0.66617733
34	0x3db1cbd0	0.08681452
35	0xbdd2d260	-0.10294032
36	0x3e4381a3	0.19092421
37	0xbeb12ce6	-0.34604567
38	0x3f03833b	0.51372117
39	0x3b4ec700	0.0031551719
40	0xbe843470	-0.25821257
41	0xbea7f98d	-0.3280758
42	0x3ecb9261	0.39760116
43	0x3fa43581	1.2828828
44	0xbef6d379	-0.48208216
45	0x3f48018e	0.7812737
46	0x3ddead54	0.108729035
47	0x3ffc451a	1.9708588
48	0xbe856754	-0.26055396
49	0xbf9892fe	-1.1919858
50	0x3eb6a3dc	0.3567189
51	0x3fde921f	1.7388343
52	0x3ef9fc33	0.48825225
53	0x3fd8bdc1	1.6932908
54	0x3cac6ee0	0.021048963
55	0x3e393360	0.18086004
56	0xbd798b1f	-0.06092369
57	0x3e28e178	0.1649226
58	0x3ea3a593	0.3196226
59	0x4008c098	2.136755
60	0x3e76f298	0.2411598
61	0xbfb8db7b	-1.444198
62	0x3f011f73	0.5043861
63	0xbf2d319e	-0.67653835
64	0xbe42357e	-0.18965718
65	0x3fb0e320	1.3819313
66	0x3f0b4684	0.54404473
67	0x3da3b576	0.07993595
68	0x3f24637c	0.642143
69	0x3d84ea4b	0.0649
70	0x3eb4e506	0.3533098
71	0x3f23dee9	0.6401201
72	0x3d7e91f0	0.062150896
73	0x3e99a08e	0.30005306
74	0x3e93a464	0.28836358
75	0x3fad4bc7	1.353875
76	0x3d935130	0.0719322
77	0xbda58ef8	-0.0808391
78	0x3e113f16	0.14184222
79	0x4001e648	2.0296803
80	0x3b1e330f	0.002413932
81	0x3facfa4e	1.3513887
82	0xbdaee7e0	-0.085403204
83	0x3fc079f1	1.5037214
84	0xbdc04809	-0.093887396
85	0x3ed99a7b	0.42500672
86	0x3f2c4a6b	0.6730105
87	0x3e5b4ffc	0.2141723
88	0xbdc94c7b	-0.098290406
89	0x3fbb85ed	1.4650246
90	0xbe45b9ce	-0.1930916
91	0xbf4ffa70	-0.8124151
92	0xbf058fb0	-0.52172375
93	0xbe7ed5e6	-0.24886283
94	0x3d48cf30	0.049025714
95	0xbe98f94c	-0.29877698
96	0xbe8a2218	-0.26979136
97	0xbf27fd6c	-0.65621066
98	0xbe673998	-0.22580564
99	0xbf2f454d	-0.6846512
100	0xbefd3305	-0.49452987
101	0xbe51c108	-0.20483792
102	0xbe59c1d0	-0.2126534
103	0x3d607115	0.054795343
104	0x3eaf6359	0.34255484
105	0x401bb125	2.432687
106	0x3c4eae86	0.012614852
107	0xbd442c77	-0.047893967
108	0xbeddf4a2	-0.43350703
109	0xbf5bfe57	-0.85934967
110	0xbd4091b0	-0.04701394
111	0x3fcb7f5d	1.5898243
112	0x3da3ecce	0.08004151
113	0x40059d53	2.0877273
114	0x3e689f62	0.2271705
115	0x3f937295	1.1519343
116	0xbe9e975b	-0.3097485
117	0xbea8717a	-0.32899076
118	0x3e4cedcf	0.20012592
119	0xbd0af089	-0.0339208
120	0x3e07990c	0.13241976
121	0xbeee8a1a	-0.46589738
122	0xbd978aab	-0.07399496
123	0x3e9fe2a1	0.31227592
124	0x3cbfea59	0.023427175
125	0xbfd02d3f	-1.6263808
126	0x3efa8cff	0.48935696
127	0x3c9cd939	0.019146549
128	0x3e3205a5	0.17384966
129	0xbfb538ae	-1.4157922
130	0x3efea71c	0.4973687
131	0x3c1dffde	0.009643523
132	0x3dadd149	0.084871836
133	0x3fd8084f	1.6877536
134	0x3eb9964a	0.36247474
135	0x3ef36c06	0.47543353
136	0xbe961037	-0.29309246
137	0xbf20d8fd	-0.628311
138	0xbdef8fa4	-0.11697319
139	0xbd20e318	-0.039279073
140	0x3e711e0c	0.23546618
141	0xbeba7e5c	-0.3642453
142	0x3ed5b10a	0.41736633
143	0xbe16ab14	-0.14713699
144	0x3ecbd6cf	0.39812323
145	0x401058be	2.2554164
146	0x3ebdd231	0.37074426
147	0x3fade95f	1.3586844
148	0x3b97cf80	0.00463289
149	0x3dc1da38	0.0946545
150	0x3eb71438	0.35757613
151	0x3ef96eac	0.48717248
152	0xbd84e86f	-0.06489646
153	0xbfcde6ec	-1.6086097
154	0x3dc1dd2b	0.094660126
155	0x3f92b464	1.1461301
156	0x3effb902	0.49945837
157	0x3f40ae81	0.7526627
158	0x3ec86286	0.39137667
159	0x3f12cc8b	0.5734336
160	0x3f052b73	0.52019423
161	0x3fa60753	1.2970985
162	0x3d192ae2	0.03739441
163	0x3ff1be62	1.8886225
164	0x3f1a8e7d	0.6037367
165	0x3f80ed83	1.0072483
166	0x3f0856a1	0.53257185
167	0x3fd858fc	1.6902156
168	0xbe343806	-0.17599496
169	0xbd090c58	-0.033459038
170	0x3f096b52	0.5367938
171	0xbec48d08	-0.38388848
172	0xbe8ea393	-0.27859172
173	0x3fa93aa1	1.3221017
174	0xbe1b9e2a	-0.15197054
175	0x3e401a21	0.18759967
176	0xbe912232	-0.283464
177	0x3fcd0ff1	1.602049
178	0xbd85e050	-0.06536925
179	0x3ea6b766	0.32561797
180	0x3d3aac04	0.045574203
181	0x40095c8e	2.146274
182	0xbeed91dd	-0.46400347
183	0xbf9a4be2	-1.2054408
184	0xbe01889c	-0.12649769
185	0x3ea65624	0.32487595
186	0x3e96eecc	0.29479063
187	0x3ecba448	0.39773774
188	0xbd5f5d15	-0.05453213
189	0x3f57e17c	0.84328437
190	0xbdd020a8	-0.10162479
191	0x3d1803e0	0.03711307
192	0xbf169a34	-0.58829045
193	0xbf475b7a	-0.7787396
194	0xbf19c4ca	-0.600659
195	0x3e88b635	0.26701513
196	0x3f03257d	0.5122908
197	0xbf1c33bd	-0.61016446
198	0x3ced508c	0.028969072
199	0xbfbad561	-1.4596368
200	0x3f183f1c	0.594713
201	0x3f75eaa7	0.96061176
202	0x3e247de4	0.16063648
203	0x40104e88	2.2547932
204	0xbe27b10e	-0.16376135
205	0xbfb50149	-1.4141017
206	0x3de49fa0	0.111632586
207	0x3f320e2d	0.6955288
208	0x3ebeac3e	0.37240785
209	0xbf1fdbe4	-0.624449
210	0xbe01e074	-0.12683278
211	0x3eb060f2	0.34448963
212	0xbddd0130	-0.10791242
213	0x3e2b29c1	0.16715147
214	0xbe4f847b	-0.20265381
215	0xbcfb3383	-0.030664211
216	0x3dad5e08	0.08465201
217	0xbbf50080	-0.0074768662
218	0x3eeac98a	0.45856887
219	0x3eed64ca	0.46365958
220	0xbd1cb317	-0.03825673
221	0x3fba46e9	1.455289
222	0xbeb31c1b	-0.3498238
223	0x3eda73c6	0.42666453
224	0xbcade080	-0.021225214
225	0x3e49c3f8	0.19703662
226	0x3ea900ae	0.3300833
227	0x3eb2c57e	0.349163
228	0xbe6d2153	-0.23157243
229	0xbfcdd655	-1.6081034
230	0x3f27b496	0.6550993
231	0x3fdea3db	1.7393755
232	0x3e2f6a4f	0.17130397
233	0x3fe94859	1.8225204
234	0x3ed45ad0	0.41475534
235	0x3ffd1f2e	1.977514
236	0xbc11cd40	-0.008899033
237	0x3e8699e4	0.26289284
238	0xbebea6cc	-0.3723663
239	0x3eb2efe6	0.34948653
240	0xbeaac03f	-0.33349797
241	0xbf2debb5	-0.67937785
242	0x3d768d5f	0.060193416
243	0xbfd28e60	-1.6449699
244	0x3ebb4110	0.36573076
245	0x3ee0e5f7	0.4392545
246	0x3d7cb660	0.061697364
247	0xbe55180c	-0.20809954
248	0xbef1b51f	-0.47208497
249	0x3f8ddedf	1.108364
250	0x3f42bd35	0.76069957
251	0x3f28444e	0.65729225
252	0xbeb9b805	-0.36273208
253	0xbf220080	-0.6328201
254	0x3ee97999	0.45600584
255	0x3ffd7a88	1.9803019

network.0.bias f4 [256]
0	0xbf13caf9	-0.57731587
1	0xbd0c1395	-0.034198362
2	0x3e00e0e4	0.12585789
3	0xbd77368c	-0.060354754
4	0xbd28ecce	-0.04124146
5	0x3dd74d36	0.10512774
6	0xbf197f3e	-0.5995978
7	0xbef6b3b8	-0.4818399
8	0x3e45f886	0.19333085
9	0xbf349c29	-0.7055078
10	0xbdc66470	-0.09687126
11	0xbd126546	-0.035741113
12	0xbad33032	-0.0016112386
13	0xbe80fee8	-0.25194478
14	0xbf0370a0	-0.5134373
15	0xbf36d18a	-0.7141348
16	0xbee75b13	-0.45186672
17	0xbf2a2e79	-0.6647716
18	0xbdc48ae2	-0.09596802
19	0xbf28e27f	-0.65970606
20	0xbf19b892	-0.60047257
21	0x3b1f2134	0.0024281265
22	0xbee2b45f	-0.44278237
23	0xbd267fb1	-0.04064912
24	0xbe3e67a0	-0.18594217
25	0x3d97efdf	0.07418799
26	0x3d692bd7	0.056926575
27	0xbeb7b732	-0.35881954
28	0xbdb05c1f	-0.08611321
29	0xbcdc3b91	-0.026883872
30	0x3ddb5e4f	0.10711347
31	0xbf0cb882	-0.54969037
32	0xbe1b45fc	-0.15163416
33	0xbda27a97	-0.079335384
34	0x3cb9f995	0.022702018
35	0xbf32055a	-0.69539416
36	0xbf14dad8	-0.5814643
37	0x3e2310c8	0.1592437
38	0xbec5b3ee	-0.38613838
39	0xbd2668a2	-0.04062713
40	0x3bc6a586	0.0060622124
41	0xbdb27c82	-0.08715154
42	0xbe03b266	-0.12861022
43	0xbee795b0	-0.4523139
44	0xbdba43ca	-0.09094961
45	0xbe061fb3	-0.1309803
46	0xbf12e33d	-0.5737799
47	0xbf03e069	-0.515143
48	0xbebf5cf3	-0.37375602
49	0xbe102e34	-0.14080125
50	0xbf049e75	-0.51804286
51	0xbe0aa55d	-0.13539644
52	0xbd9a2291	-0.07526124
53	0xbc0b64e7	-0.008507944
54	0xbe950e75	-0.29112592
55	0xbd576fa0	-0.05259669
56	0xbd217c92	-0.03942544
57	0x3d410133	0.047120284
58	0xbeaf6664	-0.34257805
59	0xbd3a997e	-0.045556538
60	0xbd6f11c5	-0.058366556
61	0xbdc4e91f	-0.09614777
62	0x3b112efd	0.0022153251
63	0x3e830f28	0.255975
64	0x3d9fcf72	0.07803239
65	0x383f7f92	4.5656758e-05
66	0xbcc4e6aa	-0.02403577
67	0xbeab1747	-0.33416197
68	0xbf271f4a	-0.6528212
69	0xbe17a5be	-0.1480932
70	0xbed9ab16	-0.4251334
71	0xbf0f7275	-0.5603402
72	0x3d80c96f	0.062884204
73	0xbd7f7f48	-0.062377244
74	0xbf1f7538	-0.62288237
75	0x3e49f40c	0.19722003
76	0xbd64e384	-0.05588104
77	0xbbd505f9	-0.006500956
78	0xbddbb055	-0.10726992
79	0xbead568a	-0.33855087
80	0xbdf04ff4	-0.11734
81	0x3ce33f6a	0.0277402
82	0x3e15a6c8	0.14614403
83	0xbcbf142f	-0.023325054
84	0xbe59d29c	-0.21271747
85	0xbe90148d	-0.2814068
86	0xbe64bb00	-0.2233696
87	0xbe3b0508	-0.18263638
88	0xbe6d14c5	-0.23152454
89	0xbef4c68b	-0.47807726
90	0xbd2b8e57	-0.041883793
91	0xbec7adbe	-0.38999742
92	0xbddab6c8	-0.10679394
93	0xbd9c50ea	-0.07632621
94	0xbd3ef189	-0.046617065
95	0xbf1634f5	-0.58674556
96	0xbf2586c1	-0.64658743
97	0xbf0bdbd8	-0.5463233
98	0xbf29b6a7	-0.6629433
99	0x3b877037	0.00413325
100	0x3d3ddeb8	0.04635498
101	0xbd268c4b	-0.040661138
102	0xbe039cb5	-0.12852748
103	0xbeae1b32	-0.34005123
104	0xbed9f563	-0.42570028
105	0xbf097562	-0.53694737
106	0xbe21cf76	-0.15801796
107	0xbe7b4285	-0.24537094
108	0xbe281b7c	-0.16416734
109	0xbf002a48	-0.50064516
110	0xbd1df5b8	-0.038564414
111	0xbf193064	-0.59839463
112	0xbee1b0d2	-0.44080216
113	0xbe9ecedc	-0.31017196
114	0xbe4b9f48	-0.1988498
115	0x3d9b3088	0.07577616
116	0xbcf59f5b	-0.029983213
117	0xbd8c59ac	-0.06853041
118	0xbe03ce14	-0.12871581
119	0xbf11f791	-0.5701838
120	0xbeff9028	-0.4991467
121	0x3ca970cd	0.02068367
122	0x3d7481a7	0.05969396
123	0xbe3d1b98	-0.18467557
124	0xbec2a9e4	-0.3802024
125	0xbc35d91e	-0.011099128
126	0xbe6ff484	-0.23433119
127	0xbd559445	-0.052143354
128	0xbee834b6	-0.45352715
129	0xbdbe701f	-0.09298729
130	0xbdccbf44	-0.099974185
131	0x3d193ddd	0.037412513
132	0xbe96d2a6	-0.29457587
133	0x3d7883a4	0.060672417
134	0xbf1d61da	-0.61477435
135	0xbe35ec27	-0.17765866
136	0xbde55eaf	-0.111997
137	0xbdb009bb	-0.08595606
138	0xbe6c0586	-0.23048982
139	0xbe07caf8	-0.1326102
140	0xbef3ee12	-0.4764257
141	0xbd2c0887	-0.04200032
142	0xbe508f50	-0.2036717
143	0xbdc78d91	-0.097437985
144	0xbd912495	-0.070870556
145	0xbe7cf4b4	-0.24702722
146	0xbe348af6	-0.17631134
147	0xbf2d410f	-0.67677397
148	0xbd29e7eb	-0.04148094
149	0x3e6deb53	0.232343
150	0xbf0728cc	-0.52796626
151	0xbf1d5926	-0.61464155
152	0xbf339978	-0.7015605
153	0xbe2892b0	-0.16462207
154	0xbb8e4ef1	-0.0043429066
155	0x3dd5fe7a	0.10448928
156	0x3df95d98	0.12176055
157	0xbd759e8f	-0.059965666
158	0xbee140d0	-0.4399476
159	0xbcc45c7b	-0.02396988
160	0xbdb5e335	-0.08881227
161	0xbef4f116	-0.47840184
162	0xbe1c8605	-0.152855
163	0xbec33df7	-0.38133213
164	0xbdcbe561	-0.0995586
165	0xbf19848c	-0.59967875
166	0xbf0f4534	-0.5596497
167	0xbd73da64	-0.059534445
168	0xbf084bec	-0.5324085
169	0x3e22f72f	0.15914606
170	0xbe26e468	-0.16298068
171	0xbe54f8ac	-0.20797986
172	0xbee625ea	-0.449508
173	0xbf0c305a	-0.5476128
174	0xbddb062d	-0.10694537
175	0xbe0bb3db	-0.13642828
176	0xbd5b78f4	-0.053582147
177	0xbe0a036b	-0.13477866
178	0xbeef8e30	-0.46788168
179	0xbd25c371	-0.04046959
180	0xbed7bd8c	-0.421368
181	0x3e2e64c3	0.17030625
182	0x3b48b964	0.003062808
183	0xbda7d7dc	-0.08195469
184	0xbef54636	-0.4790513
185	0xbde6d318	-0.11270732
186	0xbd5f16b7	-0.054465022
187	0xbe1e27b1	-0.15444829
188	0xbf00f454	-0.50372815
189	0xbd8569e4	-0.06514338
190	0xbf23a15d	-0.63918096
191	0xbd673f21	-0.05645669
192	0xbda6e4a8	-0.081490815
193	0xbe9f0d60	-0.31064892
194	0xbd656faf	-0.056014713
195	0xbd7dae62	-0.061933883
196	0xbe8393f6	-0.25698823
197	0xbb143fc4	-0.0022621015
198	0x3da278b2	0.07933177
199	0xbd209252	-0.039202042
200	0xbefcae16	-0.49351567
201	0xbeef75ae	-0.4676947
202	0x3bea16a9	0.0071438146
203	0xbebaae07	-0.36460897
204	0xbe3250ca	-0.17413631
205	0x3be8bde3	0.0071027144
206	0x3dc9a25a	0.09845419
207	0xbd59590e	-0.053063445
208	0xbe30101c	-0.17193645
209	0xbbb0675f	-0.0053834165
210	0xbefe4590	-0.49662447
211	0xbe2c3dfe	-0.16820523
212	0x3e20f13b	0.15717022
213	0xbf2866e1	-0.6578198
214	0xbf218e28	-0.6310754
215	0xbefafad4	-0.49019492
216	0xbd91a4bc	-0.07111499
217	0xbec3bd69	-0.38230446
218	0xbd216f04	-0.039412513
219	0x3c289414	0.010289211
220	0xbeb48001	-0.3525391
221	0x3df9dc36	0.12200205
222	0xbdf59e70	-0.1199311
223	0xbe5e1aaf	-0.21689866
224	0xbe8aba43	-0.2709523
225	0xbd96cd9b	-0.07363435
226	0xbeecf393	-0.46279582
227	0x3d9719d4	0.07377973
228	0xbe5ce842	-0.21572974
229	0xbf2d4cae	-0.6769513
230	0x3d69596b	0.05697004
231	0xbef712e9	-0.48256615
232	0xbefa88d1	-0.48932508
233	0xbd4c214d	-0.049836446
234	0xbde5c30f	-0.11218845
235	0xbf0f46e2	-0.55967534
236	0xbe91fcc8	-0.2851317
237	0xbd068dd5	-0.032850105
238	0xbd0a2e1b	-0.033735376
239	0x3d9a68e3	0.07539537
240	0x3e8b0726	0.2715389
241	0xbec12571	-0.37723878
242	0xbd203eac	-0.03912227
243	0xbb911b51	-0.004428305
244	0xbda8f848	-0.08250481
245	0xbb4f4185	-0.0031624746
246	0x3d87dac8	0.06633526
247	0x3dfac90d	0.12245379
248	0xbebf1d26	-0.37326926
249	0xbd7f19b1	-0.06228036
250	0xbef976f6	-0.48723572
251	0xbf1acd2e	-0.6046933
252	0xbdce26d7	-0.10066002
253	0x3b95007d	0.0045471773
254	0xbe05e2c7	-0.1307479
255	0xbf175849	-0.5911909

network.3.weight f4 [256, 256]
0	0xbd42fc76	-0.047604047
1	0xbedce9d6	-0.43147153
2	0x3c250813	0.010072726
3	0xbd21ab80	-0.039470196
4	0xbe89352f	-0.26798388
5	0xbcb96a86	-0.022633802
6	0xbe66eb14	-0.22550613
7	0xbd63216a	-0.055451788
8	0xbbf51e52	-0.007480421
9	0xbd05bf82	-0.03265334
10	0xbd5bd4f6	-0.053669892
11	0xbebafd7f	-0.36521527
12	0x3c86019f	0.016358195
13	0xbe23ded4	-0.16002971
14	0x3d76d544	0.06026198
15	0xbe2b71b1	-0.16742589
16	0x3d7ca6b4	0.061682418
17	0x3ccecb30	0.025243372
18	0x3d1705ab	0.03687064
19	0x3cca7b90	0.024717122
20	0xbb21d060	-0.0024690852
21	0xbc17796a	-0.009245256
22	0xbe9a6e6c	-0.3016237
23	0xbf392cf0	-0.72334194
24	0xbd8cedb3	-0.06881275
25	0x3cd4bc4a	0.02596869
26	0xbc882fd7	-0.016624374
27	0xbd455956	-0.0481809
28	0x3d222986	0.03959038
29	0xbe02779c	-0.1274094
30	0x3d01ef1f	0.031722184
31	0x3cb98528	0.022646502
32	0xbe504dd9	-0.20342197
33	0xbc487d52	-0.01223691
34	0x3c100cc6	0.008792108
35	0x3d126c8c	0.03574805
36	0xbccecb2c	-0.025243364
37	0xbd256f55	-0.040389378
38	0xbc6c3750	-0.014417484
39	0xbe70a6f9	-0.23501195
40	0xbdc637ac	-0.09678587
41	0xbf15b71b	-0.5848252
42	0xbc1d3e97	-0.009597442
43	0x3b3a2520	0.0028403476
44	0xbf0c15ed	-0.54720956
45	0xbda37a4e	-0.07982312
46	0x3a2e453f	0.0006647892
47	0x3ba53790	0.005042024
48	0x3ce98d76	0.028509837
49	0xbd8d9992	-0.06914057
50	0xbddab3c5	-0.106788196
51	0xbdb4672e	-0.088087425
52	0xbe65ea32	-0.2245262
53	0xbd373c18	-0.044735044
54	0xbe136f99	-0.1439804
55	0xbf238ae6	-0.6388382
56	0xbeece6d9	-0.46269873
57	0xbbf6a507	-0.007526997
58	0xbd23a8ec	-0.03995602
59	0xbc519299	-0.012791299
60	0x3c2f1a4d	0.010687423
61	0xbcba4fb4	-0.022743084
62	0xbe83443a	-0.2563799
63	0xbc60ad5e	-0.013713209
64	0x3d32b216	0.043626867
65	0x3c5e5d44	0.013572041
66	0xbe9c3f0e	-0.30516857
67	0x3ca98d4c	0.020697258
68	0x3ce94af0	0.028478116
69	0xbc7a2f09	-0.015270003
70	0xbd12b8a8	-0.035820633
71	0x3d759d0c	0.059964225
72	0xbd80507e	-0.06265353
73	0xbcfd58f5	-0.030926207
74	0xbd3f406e	-0.046692304
75	0xbd074457	-0.03302416
76	0xbe882651	-0.26591733
77	0xbdffee8e	-0.124966726
78	0xbd8c72ca	-0.06857832
79	0x3d50e3d4	0.050998524
80	0xbcdb205b	-0.026748827
81	0xbe07cb4b	-0.13261144
82	0xbd4a255e	-0.049352042
83	0x3ad437d4	0.0016190954
84	0xbd30e4e8	-0.043187052
85	0xbcd6e998	-0.026234433
86	0xbe3f498f	-0.18680404
87	0xbb84c76c	-0.0040520933
88	0xbe23c00f	-0.15991233
89	0xbac63200	-0.0015121102
90	0xbefa9fbd	-0.48949996
91	0xbe313de2	-0.17308763
92	0xbe2a8718	-0.16653097
93	0xbd5c4e2e	-0.053785495
94	0xbefb87e6	-0.4912712
95	0xbc3649e8	-0.011126019
96	0xbdca67d9	-0.098830886
97	0xbe97aef6	-0.29625672
98	0x3d7a2c9e	0.061077707
99	0xbe9fbb16	-0.31197423
100	0x3cf17ced	0.029478515
101	0xbe91dec5	-0.28490272
102	0xbe59ff0a	-0.21288696
103	0xbc547630	-0.012967631
104	0x3c9bc798	0.019016072
105	0xbd55ec0a	-0.052227058
106	0x3d374eee	0.044753008
107	0xbd81b2af	-0.06332909
108	0x3d45dd86	0.048306964
109	0xbd17be00	-0.037046432
110	0xbf08645c	-0.53278136
111	0x3d2c48c0	0.042061567
112	0xbd0957f4	-0.033531144
113	0x3d4fa528	0.050694615
114	0xbe88ced1	-0.26720288
115	0x3db16446	0.08661704
116	0xbe33101c	-0.17486614
117	0xbd1ec716	-0.038764082
118	0xbce8be7c	-0.028411143
119	0x3cac03bc	0.020997874
120	0xbca34828	-0.019931868
121	0xbcdef214	-0.027215041
122	0x3cc09368	0.023507789
123	0x36a90000	5.0365925e-06
124	0xbe341f1a	-0.1758999
125	0x3d82a15f	0.06378435
126	0xbd269a78	-0.040674657
127	0xbd7b3c1f	-0.061336633
128	0xbe00a251	-0.12561919
129	0xbdbb97a3	-0.09159782
130	0xbd138152	-0.036012
131	0x3ba6074b	0.0050667874
132	0xbdfa44b2	-0.12220134
133	0x3b564872	0.003269699
134	0x3c9f0138	0.01940976
135	0xbe1a3c1f	-0.15061997
136	0xbd1ef12c	-0.03880422
137	0xbf394656	-0.7237295
138	0x3b69c460	0.0035670027
139	0xbd8fe134	-0.07025376
140	0xbd121890	-0.035667956
141	0xbd32ca95	-0.04365023
142	0xbd39e80e	-0.04538732
143	0xbec5ba7b	-0.38618836
144	0xbee74daa	-0.4517644
145	0xbcdb2400	-0.026750565
146	0xbdafd69a	-0.08585854
147	0xbd7b7cea	-0.061398424
148	0x3cc754ed	0.024332488
149	0x3d5e0c2f	0.054210838
150	0xbec2ced9	-0.38048437
151	0x3c8a71e4	0.01690001
152	0xbd62e558	-0.0553945
153	0x3d6093fc	0.05482863
154	0xbee37614	-0.44426024
155	0x3b850095	0.0040589073
156	0x3bcb1c4a	0.0061984407
157	0xbe7ae959	-0.24503078
158	0xbd1bbb44	-0.038020387
159	0x3b3aed46	0.0028522774
160	0xbdd54974	-0.10414401
161	0x3cedd42c	0.029031835
162	0xbdd5b7a4	-0.10435417
163	0xb9f6e000	-0.0004708767
164	0x3b616fb0	0.0034398846
165	0x3cc6c5d8	0.024264261
166	0xbd6cc2ce	-0.057802968
167	0xbcf1f4ea	-0.02953573
168	0xbd0222a4	-0.031771317
169	0xbd81c0f0	-0.06335628
170	0xbd1f8dee	-0.038953714
171	0xbc7d87e8	-0.015474297
172	0xbe768b68	-0.24076617
173	0x3d3bdf08	0.045866996
174	0x3b543198	0.0032378193
175	0xbdd86ed6	-0.10568015
176	0xbe9cd038	-0.30627608
177	0xbdf0a733	-0.11750641
178	0xbe840f90	-0.25793123
179	0x3d6eb39a	0.05827675
180	0xbcc624a4	-0.024187393
181	0xbab0fa21	-0.0013502279
182	0xbd9b912b	-0.07596048
183	0x3cb3836f	0.021913258
184	0xbd1c356e	-0.038136892
185	0x3bee4fb0	0.007272683
186	0xbf0576f8	-0.52134657
187	0xbe52a7e6	-0.2057186
188	0xbe5d7daa	-0.21629968
189	0xbc1cfa9a	-0.009581232
190	0xbd299fde	-0.041412227
191	0x3d7ef44c	0.0622447
192	0x3b8b8ca3	0.0042587086
193	0x3d71a750	0.058997452
194	0xbdf5bbb0	-0.11998689
195	0x3a8fcaca	0.001097047
196	0xbd484f5a	-0.0489038
197	0xbcf0a1ff	-0.02937412
198	0xbd65f604	-0.056142822
199	0xbeadc411	-0.3393865
200	0xbcb14ef8	-0.0216441
201	0x3c227e58	0.009917818
202	0x3c9eec1c	0.019399695
203	0x3d12fec1	0.035887484
204	0x3cd4a0cf	0.025955586
205	0xbea789bd	-0.32722273
206	0xbd5e7334	-0.054309085
207	0xbdc6e4ee	-0.097116336
208	0xbd410ef9	-0.04713342
209	0xbd9b4126	-0.075807855
210	0x3c355250	0.011066988
211	0xbd41249a	-0.047154047
212	0xbd382e6f	-0.044966158
213	0x3ca88618	0.020571753
214	0xbc9360cc	-0.017990492
215	0xbaf16040	-0.0018415526
216	0xbdc94239	-0.09827084
217	0xbcf40018	-0.029785201
218	0xbe99b96b	-0.30024275
219	0x3d8e1735	0.0693802
220	0xbe0b87ff	-0.13626097
221	0x3c1249a1	0.008928687
222	0xbd1543d8	-0.036441654
223	0x3d2ffbad	0.042964626
224	0x3d342004	0.043975845
225	0xbd950467	-0.0727623
226	0xbd1ab516	-0.037770353
227	0xbd7bef2c	-0.06150739
228	0xbd729154	-0.059220627
229	0xbd101aee	-0.035181932
230	0x394abd93	0.00019334843
231	0xbcc2fdc8	-0.023802653
232	0x3cbcd050	0.02304855
233	0xbea8868d	-0.32915154
234	0xbe7f83c9	-0.24952616
235	0x3bf6d6d0	0.007532932
236	0xbd4f900c	-0.050674483
237	0xbeec4678	-0.46147513
238	0xbed35fa9	-0.4128392
239	0x3d52308b	0.051315825
240	0xbc91ec4a	-0.017812867
241	0xbc687829	-0.014188805
242	0xbecfd824	-0.4059459
243	0xbd11871e	-0.03552925
244	0x3b2ed840	0.0026679188
245	0x3d52a0cd	0.051422883
246	0x3cd2f43d	0.025751228
247	0x3993f8a5	0.0002822328
248	0x3d6d1518	0.057881445
249	0xbeffad66	-0.4993698
250	0xbd1e579d	-0.038657773
251	0x3d1339dc	0.03594385
252	0xbe0489b9	-0.12943162
253	0x3d51a16b	0.05117933
254	0xbd23f10d	-0.040024806
255	0xbe74133a	-0.2383546

network.3.bias f4 [256]
0	0x3e902d7b	0.281597
1	0x3e3d3d72	0.18480471
2	0x3e8cca25	0.27497974
3	0x3e9fe8ec	0.31232393
4	0x3e3c5bb3	0.18394355
5	0x3e78aa23	0.24283652
6	0xbce1a49d	-0.027544314
7	0x3e934c5c	0.28769195
8	0xbd930b2f	-0.071798675
9	0x3e90fc8b	0.28317675
10	0xbc0ee346	-0.008721178
11	0xbd9f15d4	-0.07767835
12	0xbd86daf7	-0.06584733
13	0x3ec94616	0.39311284
14	0x3e6796a2	0.22616056
15	0xbcc3bbee	-0.023893323
16	0x3e26c5bf	0.16286372
17	0x3e83c3d7	0.2573535
18	0x3e93f359	0.28896597
19	0x3e906239	0.28199938
20	0x3dead70e	0.114668
21	0x3eac91f7	0.33705112
22	0x3ea3c137	0.3198335
23	0xbd5b3461	-0.05351675
24	0x3ea2a9dc	0.31770217
25	0x3e7d7f44	0.24755579
26	0x3e8f976a	0.28045207
27	0x3e847a88	0.25874734
28	0x3e673c59	0.22581615
29	0xbcad2522	-0.02113587
30	0x3eb1564c	0.34636152
31	0x3e3af307	0.1825677
32	0xbd3bab69	-0.045817766
33	0x3e7b9afc	0.2457084
34	0xbbd4392e	-0.006476543
35	0x3e857edd	0.26073352
36	0xbd526b3e	-0.051371805
37	0x3e8ee56f	0.2790942
38	0x3e3de6c7	0.18545066
39	0x3e80abfb	0.2513121
40	0x3e79e160	0.2440238
41	0x3e75b671	0.23995377
42	0x3e8acda6	0.27110022
43	0x3e4f38ac	0.20236462
44	0x3e65fb4e	0.22459146
45	0x3eb0481e	0.3443002
46	0x3e2d0201	0.16895296
47	0x3e7eaad6	0.24869856
48	0xbd171b0a	-0.03689102
49	0x3e510c91	0.2041495
50	0x3dcfd3e7	0.10147839
51	0xbc925c5f	-0.017866312
52	0xbc8e0411	-0.017335923
53	0xbd22fa89	-0.03978971
54	0xbc03465c	-0.00801238
55	0xbd797ae3	-0.06090821
56	0x3e4e58cc	0.20151061
57	0x3e5e3c16	0.21702608
58	0xbc24bb80	-0.010054469
59	0x3ebe11a6	0.3712284
60	0x3e93c2c9	0.28859547
61	0x3e65a15b	0.22424833
62	0xbd840cd5	-0.0644776
63	0xbc63d940	-0.013906777
64	0x3e925b0e	0.28585094
65	0xbcda2bd1	-0.026632221
66	0x3da6a5f4	0.08137122
67	0xbd835082	-0.0641184
68	0x3d910df6	0.07082741
69	0x3e330978	0.17484081
70	0x3e644fe0	0.22296095
71	0xbc8299ad	-0.015942419
72	0x3e82c0f1	0.25537828
73	0x3e7c56b1	0.24642445
74	0x3e7b4101	0.24536516
75	0x3ebcf5f5	0.369064
76	0xbd99dfee	-0.07513414
77	0x3e93a1d8	0.28834414
78	0x3e5bb26d	0.21454783
79	0x3dd9ff6d	0.10644422
80	0x3e47cb45	0.19511135
81	0xbd724173	-0.05914445
82	0x3e985505	0.29752365
83	0xbc172bd0	-0.009226754
84	0x3e23bee1	0.15990783
85	0x3e9d4d5b	0.3072308
86	0x3ea10c5c	0.31454742
87	0x3e8199f4	0.2531277
88	0xbd177695	-0.036978323
89	0xbd1dae7a	-0.038496472
90	0x3e85ea71	0.26155427
91	0x3e8a9d59	0.27073172
92	0xbd2cdde1	-0.042203788
93	0xbcfae908	-0.030628696
94	0x3e5e37cc	0.21700972
95	0xbcce7018	-0.025199935
96	0x3e6c1af8	0.23057163
97	0x3e3b2f79	0.18279828
98	0x3e740de8	0.2383343
99	0x3e56c495	0.20973428
100	0xbbb63d2c	-0.0055614915
101	0x3e9ffb1e	0.31246275
102	0x3daa8ca2	0.08327605
103	0xbcbc8a97	-0.023015304
104	0xbc5ea1c0	-0.013588369
105	0x3d192818	0.037391752
106	0xbcc1f482	-0.02367616
107	0xbd8f5eb9	-0.07000489
108	0x3e98d164	0.29847252
109	0x3ddd9f5f	0.10821413
110	0x3d44b4f7	0.048024144
111	0x3e62c4a0	0.22145319
112	0x3e9daad1	0.30794385
113	0x3e939843	0.28827104
114	0x3e959f3b	0.29223046
115	0x3e835a3a	0.25654775
116	0xbd15791f	-0.036492463
117	0x3e4b9872	0.19882372
118	0xbd2b605c	-0.041839942
119	0x3d85b366	0.06528358
120	0x3dbb5a81	0.091481216
121	0x3e5d5072	0.21612719
122	0xbd8212bc	-0.063512295
123	0xbd3288c8	-0.043587476
124	0x3e7df51d	0.24800535
125	0xb9f92583	-0.0004752093
126	0x3e8ed9ee	0.27900642
127	0x3d53f19a	0.05174408
128	0xbd35b8b8	-0.044365615
129	0x3dd87371	0.10568894
130	0x3e9fab7c	0.3118552
131	0x3e9f84aa	0.31155902
132	0x3d74c0bd	0.059754122
133	0xbd481517	-0.048848238
134	0x3ec3afa7	0.3821995
135	0xbd81c390	-0.06336129
136	0xbb857a5f	-0.0040734257
137	0x3bf5165e	0.007479473
138	0x3e7ac4b7	0.24489103
139	0x3e957e26	0.29197806
140	0xbd9919f8	-0.07475656
141	0x3d1d97c6	0.03847482
142	0xbd8c3656	-0.06846301
143	0xbd0880b7	-0.033325877
144	0x3e4c81eb	0.19971435
145	0xbd0c430c	-0.03424363
146	0x3d41cabc	0.047312483
147	0xbd4be15f	-0.049775477
148	0x3e34ee7b	0.17669098
149	0x3e81cba0	0.25350666
150	0x3eb2e5bb	0.34940895
151	0x3eac2207	0.3361971
152	0xbda4dcdd	-0.08049939
153	0xbd4dbc6e	-0.05022853
154	0x3ea061b9	0.31324556
155	0x3e5d307f	0.21600531
156	0xbd305976	-0.043054067
157	0xbd48903f	-0.04896569
158	0x3e9e29a4	0.30891144
159	0xbd1ed16f	-0.03877395
160	0x3e4a10e9	0.19733013
161	0xbd3eaf11	-0.046553675
162	0xbc43225a	-0.0119100455
163	0xbc825d05	-0.015913496
164	0x3dd5d4ed	0.10441003
165	0xbd5ffe06	-0.054685615
166	0x3e20192d	0.15634604
167	0x3e328352	0.17432907
168	0x3bc7c341	0.006096274
169	0xbbe8f661	-0.007109449
170	0x3e943ec3	0.28954133
171	0x3e8405d0	0.25785685
172	0x3eb667ca	0.3562606
173	0x3e5d7197	0.21625362
174	0xbd114b2d	-0.035472084
175	0x3e82bb25	0.25533405
176	0x3e804ce4	0.25058663
177	0x3ea4609b	0.32104954
178	0x3e579a65	0.2105499
179	0xbad9709c	-0.0016589346
180	0x3e45ba6e	0.19309399
181	0xbd259ca2	-0.04043258
182	0x3e90bf27	0.28270838
183	0xbce8ebda	-0.028432775
184	0xbd13f105	-0.036118526
185	0x3dc21db2	0.0947832
186	0xbcb6e5b3	-0.022326326
187	0x3e7b12da	0.2451891
188	0x3e0fbd03	0.14036946
189	0x3ebec801	0.37261966
190	0xbbc9d35e	-0.00615923
191	0x3e9da0e0	0.307868
192	0x3e546c8e	0.20744535
193	0x3d2989c8	0.041391164
194	0x3eabf4ac	0.33585107
195	0x3e5f3ed9	0.21801318
196	0xbd45820d	-0.04821973
197	0x3e76378d	0.24044628
198	0x3e32203a	0.17395106
199	0xbd0d61cf	-0.034517106
200	0x3e4866aa	0.19570413
201	0x3e91ca51	0.28474668
202	0x3e6694b8	0.22517669
203	0xbd8bb018	-0.068206966
204	0xbced49a5	-0.02896578
205	0x3e64d6fc	0.22347635
206	0x3e1a137a	0.15046492
207	0xbc4febce	-0.012690498
208	0xbd944438	-0.07239574
209	0xbcb59800	-0.022167206
210	0xbd9f3d62	-0.0777538
211	0x3e2cf1f2	0.1688917
212	0xbbc2870f	-0.0059365104
213	0x3ec66865	0.38751522
214	0x3e8d2a39	0.27571276
215	0x3e8874a7	0.266515
216	0x3e8bdec6	0.273184
217	0xbd212c8e	-0.03934913
218	0x3e7c18d1	0.24618842
219	0xbd10a714	-0.035315588
220	0x3e447b72	0.19187716
221	0x3e818837	0.25299236
222	0x3e802e60	0.2503538
223	0xbd6bf7ba	-0.057609297
224	0x3e720f49	0.23638643
225	0xbd9b917c	-0.07596108
226	0x3e5a5fc8	0.213256
227	0xbd52ae6e	-0.05143588
228	0xbd9a7c93	-0.07543292
229	0x3ea38691	0.31938604
230	0xbd277967	-0.040887263
231	0x3e8e3dd0	0.27781534
232	0x3e9b4454	0.30325568
233	0x3e5689d7	0.20951019
234	0x3c8cc1dc	0.017182283
235	0x3dc5a47d	0.09650514
236	0xbd4e97a9	-0.050437603
237	0xbcfe2ef9	-0.031028258
238	0xbd3c288e	-0.045937113
239	0x3e027059	0.1273817
240	0x3e44f442	0.19233802
241	0x3eb13238	0.34608626
242	0xbd8f7298	-0.07004279
243	0xbd23cb96	-0.039989077
244	0x3e79e42b	0.24403445
245	0x3e582521	0.21107914
246	0x3e895f9f	0.26830766
247	0x3e8e6aa6	0.2781574
248	0xbd138cfb	-0.03602312
249	0x3e946723	0.28984937
250	0x3e854aef	0.26033732
251	0x3e5f988e	0.21835539
252	0x3e2f1947	0.17099486
253	0xbcbac5d4	-0.02279941
254	0xbda104ae	-0.07862221
255	0xbd1afb22	-0.037837155

network.6.weight f4 [256, 256]
0	0x3da1b8f3	0.078966044
1	0xbe298375	-0.16554053
2	0xbd82363b	-0.06358
3	0x3db900e6	0.090333745
4	0xbe698368	-0.22804034
5	0xbda1e0e3	-0.07904222
6	0xbd283a38	-0.041071147
7	0xbd718f37	-0.05897447
8	0xbd15db8d	-0.036586333
9	0xbdd90f6a	-0.10598643
10	0x3d3bbbe3	0.04583348
11	0x3cf66325	0.030076573
12	0x3bd74473	0.006569439
13	0x3e17b901	0.14816667
14	0xbcf5fa46	-0.030026566
15	0xb9600bc9	-0.00021366695
16	0xbe699de1	-0.22814132
17	0xbd38d98a	-0.045129336
18	0x3c8a0fe8	0.016853288
19	0xbca561f9	-0.020188319
20	0xbea982dc	-0.3310765
21	0x3d90464d	0.07044659
22	0x3df0b2e0	0.11752868
23	0x3d358b54	0.044322327
24	0xbd451049	-0.048111234
25	0xbda51cb8	-0.08062118
26	0xbb6be3d3	-0.0035993948
27	0x3da312b8	0.07962555
28	0x3d784c2d	0.060619522
29	0xbc25d7cb	-0.01012225
30	0x3dd085fc	0.101818055
31	0xbdda7bca	-0.10668142
32	0x3d077768	0.03307286
33	0xbcc777f1	-0.024349185
34	0xbd5232cb	-0.05131797
35	0x3c4429a2	0.011972817
36	0x3d744491	0.059635703
37	0x3d290c30	0.04127139
38	0xbe2561b1	-0.16150548
39	0x3c4d8088	0.012542851
40	0xbda1158a	-0.078654364
41	0xbe0eac6a	-0.13932958
42	0xbe11d7db	-0.14242499
43	0xbdb97cee	-0.090570316
44	0xbd928cbf	-0.071557514
45	0x3e014ea5	0.12627657
46	0xbe3500c7	-0.17676078
47	0xbc5960ce	-0.013267709
48	0x3d655866	0.055992506
49	0xbd86e6e5	-0.065870084
50	0x3d89c4fd	0.06727026
51	0x3d359ce6	0.044339083
52	0xbc828249	-0.015931265
53	0xbd58f412	-0.05296714
54	0x3b3e0e80	0.0029000342
55	0x3b544f60	0.0032395944
56	0xbe11f34c	-0.14252967
57	0xbdabf4d1	-0.083963044
58	0xbd2f659c	-0.04282151
59	0x3e311eca	0.17296901
60	0x3aaa51f4	0.0012994395
61	0xbd9e044e	-0.07715665
62	0xbc7b0750	-0.015321568
63	0xbc5cf006	-0.01348496
64	0x3dd0611c	0.10174772
65	0xbd2e609d	-0.042572606
66	0xbd882499	-0.066476054
67	0x3d7a1482	0.061054714
68	0xbeb0649d	-0.34451762
69	0xbe458fa2	-0.19293073
70	0xbe012973	-0.12613468
71	0x3d180416	0.03711327
72	0xbe27c50d	-0.16383763
73	0xbd9e0cb8	-0.0771727
74	0x3df1c88c	0.118058294
75	0x3e503118	0.20331228
76	0xbcba243f	-0.022722362
77	0xbce36b13	-0.027761018
78	0xbe28fd9b	-0.16502993
79	0xbea4cf8a	-0.3218959
80	0xbe5fc8ab	-0.21853893
81	0xbcf5b241	-0.029992225
82	0x3d828f24	0.06374958
83	0xbc0db609	-0.008649358
84	0xbe53aff0	-0.20672584
85	0x3d873fd7	0.06603973
86	0x3e0da960	0.13834143
87	0xbdb207d0	-0.08692896
88	0xbce6b3f0	-0.028161973
89	0xbd7b5ba8	-0.061366707
90	0xbdc35815	-0.09538285
91	0x3bdabcad	0.006675324
92	0xbd597d96	-0.053098284
93	0xbd376153	-0.04477055
94	0xbe406a32	-0.1879051
95	0x3cf90fa4	0.030402966
96	0xbc89b7bc	-0.016811244
97	0xbd5504b2	-0.05200643
98	0xbd7c5ddc	-0.06161295
99	0xbe2dcabe	-0.16971871
100	0xbd01010b	-0.031495135
101	0x3dae88d7	0.08522194
102	0xbc1e91f6	-0.0096783545
103	0x3c293758	0.010328136
104	0xbd6416c9	-0.055685792
105	0x3e0bf5bc	0.13667959
106	0xbc744cc0	-0.014910877
107	0xbd56a9c4	-0.052407995
108	0xbd2d3ddf	-0.042295333
109	0xbe45d8b3	-0.19320945
110	0xbe8d2d4e	-0.27573627
111	0xbd274335	-0.040835578
112	0x3c25792e	0.010099692
113	0x3cca289d	0.024677569
114	0xbd74769a	-0.05968342
115	0xbdcaf30e	-0.0990964
116	0xbc5d6471	-0.013512717
117	0xbe650ef2	-0.22368982
118	0x3ccfe264	0.025376506
119	0xbe732ac2	-0.2374678
120	0xbe87a804	-0.26495373
121	0xbe178d85	-0.14800079
122	0x3c977e85	0.018492946
123	0xbd3bd9ae	-0.045861892
124	0x3da94165	0.08264426
125	0xbc8efe98	-0.017455384
126	0x3cf5be92	0.029998098
127	0xbe63bd5e	-0.22240207
128	0x3d31dd0b	0.043423694
129	0xbec0dac2	-0.376669
130	0xbb08f334	-0.0020896913
131	0x3a970b17	0.0011523691
132	0xbe83c153	-0.25733432
133	0xbd07f836	-0.033195697
134	0x3e160a8a	0.14652458
135	0x3cc55bcc	0.024091624
136	0xbc01a034	-0.007911731
137	0x3dfe0500	0.124032974
138	0xbd8a5796	-0.06754987
139	0x3e03764e	0.12838098
140	0xbd6beb51	-0.057597462
141	0xbeab34da	-0.3343876
142	0x3d0cc54e	0.034367852
143	0x3ba53e30	0.0050428137
144	0xbdec1d67	-0.115290456
145	0xbd7d43be	-0.061832182
146	0xbe8bc48b	-0.27298388
147	0xbd76e08b	-0.060272735
148	0xbe7dda16	-0.24790224
149	0xbd0e9112	-0.03480632
150	0x3d3abfb2	0.04559297
151	0x3e47c8e3	0.19510226
152	0xbd441419	-0.04787073
153	0xbd55d00c	-0.052200362
154	0xbd3914c0	-0.045185804
155	0xbd1e2f85	-0.038619537
156	0xbc93e426	-0.018053126
157	0x3d657238	0.05601713
158	0xbbab8ee8	-0.0052355416
159	0x3cd82380	0.026384115
160	0xbdef6f77	-0.11691182
161	0xbd24ae88	-0.04020551
162	0x3ce74ca9	0.028234797
163	0x3c452e65	0.012034987
164	0xbe988e67	-0.29796144
165	0xbd0af695	-0.033926565
166	0xbe9b51b0	-0.3033576
167	0xbe5d60b5	-0.21618922
168	0x3d932f35	0.071867384
169	0xbcefcd83	-0.0292728
170	0x3d9e201c	0.07720968
171	0xbd7a1242	-0.06105257
172	0x3da62a85	0.08113579
173	0xbd8ab8f5	-0.06773559
174	0x3ca37043	0.019950991
175	0xbdcc73b4	-0.09983006
176	0xbe0240de	-0.12720057
177	0x3d15c016	0.03656014
178	0xbe3a0ec2	-0.18169692
179	0x3cc22b9b	0.023702433
180	0xbdb3ec71	-0.08785332
181	0x3cdcda94	0.026959695
182	0xbdb48958	-0.08815259
183	0x3d5b567a	0.053549267
184	0xbc949e9a	-0.018142033
185	0xbdfeb616	-0.12437074
186	0x3d933de7	0.07189541
187	0xbe119c02	-0.14219669
188	0xbda28d8c	-0.07937154
189	0x3dfc2468	0.123116314
190	0xbd6155a5	-0.055013318
191	0xbd2b901b	-0.041885477
192	0xbd8a9700	-0.06767082
193	0x3eb04cac	0.34433496
194	0x3e5148fd	0.20437999
195	0xbdd8ddbc	-0.105891675
196	0x3d33fc48	0.043941766
197	0xbb71548a	-0.003682407
198	0xbe0c6122	-0.13708928
199	0x3c960bac	0.018316112
200	0x3cddd148	0.027077332
201	0x3d943d33	0.07238235
202	0xbc2ca273	-0.010536778
203	0x3d823bcf	0.06359064
204	0xbd4f7c16	-0.050655447
205	0xbdff9e0c	-0.12481317
206	0xbe6e11e9	-0.2324902
207	0x3b7c50e0	0.0038500354
208	0xbd3c4936	-0.045968257
209	0x3d37bb71	0.044856492
210	0xbd61f678	-0.05516669
211	0xbe8982e9	-0.2685769
212	0x3d052195	0.03250273
213	0x3e5d53d7	0.21614014
214	0xbdcb6a1d	-0.09932349
215	0x3d7b5091	0.06135613
216	0xbc06f422	-0.008236917
217	0xbd64ac2c	-0.05582826
218	0x3da01c9b	0.07817956
219	0x3d663700	0.056204796
220	0xbe5a2114	-0.21301681
221	0x3c69d72a	0.0142724905
222	0xbd82c01f	-0.063843004
223	0xbd7e2971	-0.06205124
224	0x3c9d9021	0.019233765
225	0x3c0fef4c	0.00878508
226	0xbdc47bd7	-0.09593933
227	0xbc083dc0	-0.008315504
228	0x3cd37e28	0.025816992
229	0x3d73f2cd	0.059557725
230	0xbbf81330	-0.0075706467
231	0xbbb7a14d	-0.0056039453
232	0x3d640a82	0.055674084
233	0xbe1f6148	-0.15564454
234	0x3d3955e8	0.045247942
235	0xbdce5698	-0.1007511
236	0xbd500996	-0.05079039
237	0xbd12445c	-0.035709724
238	0x3d023f64	0.031798735
239	0xbe61f5f1	-0.22066475
240	0xbe0a7d4a	-0.13524356
241	0x3ddf137c	0.10892388
242	0x3d570d7e	0.0525031
243	0xba7347df	-0.0009280424
244	0xbd5c9a56	-0.053858124
245	0xbe2577d4	-0.16158992
246	0xbdc02479	-0.093819566
247	0xbba8a417	-0.005146514
248	0xbd6a21af	-0.05716103
249	0xbbd137df	-0.006384834
250	0x3d4ad832	0.049522586
251	0xbe16f1b0	-0.14740634
252	0xbe37394f	-0.17892955
253	0x3d55efee	0.052230768
254	0x3d0ae78a	0.03391222
255	0x3c869326	0.016427588

network.6.bias f4 [256]
0	0x3f52f183	0.8239977
1	0x3b8a2730	0.0042160973
2	0x3f52a761	0.8228665
3	0xbdd58d28	-0.10427314
4	0x3f4bf19a	0.7966553
5	0x3f036af6	0.51335084
6	0xbca4e383	-0.020128017
7	0x3f24abc0	0.6432457
8	0x3f945314	1.1587853
9	0x3f835dd1	1.0263005
10	0x3f81f142	1.0151751
11	0xbc29d898	-0.010366581
12	0x3f394111	0.7236491
13	0x3f82360d	1.0172745
14	0x3f8f62c7	1.120202
15	0x3f228deb	0.634978
16	0x3e5c56e6	0.21517524
17	0x3f92630f	1.143648
18	0xbcdfba4a	-0.02731051
19	0x3f0ef168	0.55837107
20	0x3f94587d	1.1589504
21	0x3f83d796	1.0300167
22	0x3f69b04f	0.9128465
23	0x3f1e07af	0.61730474
24	0x3f123ab4	0.57120824
25	0x3f9198e0	1.1374779
26	0x3f2dcdcb	0.6789214
27	0x3f5024bb	0.81306046
28	0x3da66817	0.08125322
29	0x3f8b9fbe	1.0908124
30	0x3f4ea2ef	0.80717367
31	0x3e6349b4	0.22196084
32	0x3f8995ab	1.07488
33	0x3f97b40a	1.1851819
34	0x3e41cbd9	0.18925418
35	0x3f7fadaa	0.99874365
36	0x3ec3d03f	0.38244817
37	0x3f89d99f	1.0769538
38	0x3f4a173c	0.789417
39	0x3f93792b	1.1521353
40	0x3f51d695	0.8196805
41	0x3f377ed7	0.7167792
42	0xbd6660e8	-0.05624476
43	0xbccfeb64	-0.025380798
44	0x3ea940be	0.33057207
45	0x3f585f77	0.8452067
46	0xbd42db55	-0.047572453
47	0x3e03952a	0.1284987
48	0xbdb28a55	-0.08717791
49	0x3e4a485c	0.19754165
50	0x3f8f5044	1.119637
51	0x3ecbc026	0.39795035
52	0xbd72b762	-0.05925692
53	0x3f90def2	1.1318038
54	0x3f8f354d	1.1188141
55	0xbbc976c4	-0.006148191
56	0x3f558148	0.8340039
57	0x3f7aed34	0.98018193
58	0x3f96cfe1	1.178219
59	0x3f10dcbc	0.56586814
60	0x3ee0cc8f	0.43906066
61	0x3e3f839f	0.18702553
62	0x3f90a53b	1.1300424
63	0x3eb11658	0.3458736
64	0x3f077ae5	0.529219
65	0x3f818102	1.0117495
66	0x3f3fafe3	0.74877757
67	0x3f88766c	1.066114
68	0xbda93fa0	-0.08264089
69	0x3f9200b0	1.140646
70	0x3f84e5cf	1.0382632
71	0xbd16689b	-0.036720853
72	0x3f369c51	0.7133227
73	0xbdb11c06	-0.08647923
74	0x3f884517	1.0646085
75	0xbd1f65d6	-0.038915478
76	0x3e877ded	0.2646326
77	0xbd0c4e21	-0.034254197
78	0x3f903223	1.12653
79	0x3ea5ba63	0.32368764
80	0x3f8c0dc6	1.0941703
81	0xbd083b0d	-0.03325944
82	0x3f94396c	1.1580024
83	0x3f463bb2	0.7743484
84	0x3f10e4f7	0.5659937
85	0x3f8d90fe	1.1059873
86	0xbd7d4a86	-0.06183865
87	0x3e9faa10	0.31184435
88	0x3e2992a6	0.16559848
89	0x3f84983e	1.0358961
90	0x3f338aeb	0.70133847
91	0x3f5d68b2	0.8648788
92	0xbda6baa8	-0.081410706
93	0x3f861fa8	1.0478411
94	0x3ed7560c	0.42057836
95	0x3f07c8fe	0.53041065
96	0x3f890f34	1.0707765
97	0x3f961b9d	1.1727177
98	0x3de518a5	0.11186341
99	0x3f008725	0.50206214
100	0xbd212be0	-0.039348483
101	0x3f8ebe77	1.1151875
102	0xbd7e3867	-0.06206551
103	0x3ecbaf56	0.39782208
104	0xbd355d79	-0.044278596
105	0x3f932842	1.1496661
106	0x3f82bbba	1.021354
107	0x3f88e2cc	1.0694213
108	0x3ef5468b	0.47905383
109	0x3f498e1c	0.78732467
110	0xbdafcb50	-0.08583701
111	0x3f1db36b	0.61601895
112	0x3f2ffedd	0.68748266
113	0x3e237f73	0.15966587
114	0xbd5a34d3	-0.053273033
115	0x3f10d64f	0.5657701
116	0x3f9394f7	1.1529835
117	0x3f92b7f5	1.1462389
118	0x3ed1d5a1	0.40983298
119	0x3f2d606f	0.6772527
120	0xbd82de43	-0.06390049
121	0x3e314c78	0.17314327
122	0x3f529a05	0.82266265
123	0xbc5cef25	-0.013484751
124	0x3f8d800e	1.1054704
125	0xbdb52c66	-0.08846359
126	0x3f955f34	1.1669679
127	0x3f8d3429	1.1031543
128	0x3f1e927c	0.6194227
129	0x3e305184	0.17218596
130	0x3f94eb5d	1.1634327
131	0x3f531abc	0.8246267
132	0x3dd80449	0.10547692
133	0xbd8ff3d6	-0.0702893
134	0x3f90f508	1.1324778
135	0x3f32931a	0.6975571
136	0x3f935edf	1.1513327
137	0x3f879828	1.0593309
138	0x3f4ddef5	0.8041833
139	0x3de46b15	0.11153237
140	0x3f09641c	0.5366838
141	0x3f4c47f2	0.7979728
142	0x3eecfd33	0.46286926
143	0x3f29462b	0.6612269
144	0x3f92e35c	1.1475635
145	0x3f92b997	1.1462888
146	0x3f56ba36	0.83877885
147	0xbd9c07c9	-0.076186724
148	0x3eea4397	0.45754692
149	0x3f4df084	0.8044512
150	0x3e238339	0.15968026
151	0x3f85ba51	1.0447484
152	0x3f94442e	1.1583307
153	0x3dd0329b	0.10165902
154	0x3f324b12	0.696458
155	0x3ec3da5c	0.38252532
156	0xbd5e5659	-0.054281566
157	0x3f7f7d5b	0.9980065
158	0x3f2da008	0.67822313
159	0x3f5402f3	0.82817
160	0x3f8e28d9	1.1106216
161	0x3f1fc9d4	0.6241734
162	0x3f843e53	1.033152
163	0x3f556e9b	0.83371896
164	0xbc822f0c	-0.015891574
165	0x3f8dbad8	1.1072645
166	0x3e92e6b1	0.2869163
167	0x3e9dd4b2	0.30826336
168	0xbd800b4c	-0.06252155
169	0x3f90b15a	1.1304123
170	0x3f8768a6	1.0578811
171	0x3f952787	1.1652688
172	0x3f3157e2	0.69274724
173	0xbd2da287	-0.042391326
174	0xbdc6c609	-0.09705741
175	0x3f38f0e6	0.7224258
176	0xbdf1408c	-0.117798895
177	0x3f4c49b8	0.79799986
178	0xbe1562a4	-0.1458841
179	0x3f33ce7b	0.7023694
180	0x3f8a9ebc	1.0829692
181	0xbd935c29	-0.071953125
182	0x3f8c40fa	1.0957329
183	0x3f8e66de	1.1125143
184	0x3f4f3a9a	0.80948794
185	0x3ef25960	0.47333813
186	0x3f59adca	0.85030806
187	0x3f357092	0.70874894
188	0x3f80c90c	1.0061355
189	0x3f8d55bd	1.104179
190	0x3f930ce0	1.1488304
191	0xbd2442ab	-0.040102642
192	0x3f88587d	1.0652004
193	0x3f873943	1.056435
194	0x3f5713ae	0.84014404
195	0xbde69fd1	-0.11260951
196	0x3eb042d9	0.34426
197	0xbda15952	-0.078783646
198	0x3f7fa41f	0.99859804
199	0x3f1393f9	0.57647663
200	0x3f91ba4b	1.1384977
201	0x3f10b8fa	0.5653225
202	0x3f89d2c8	1.076745
203	0x3e02b8f1	0.12765862
204	0x3f400f69	0.75023514
205	0x3e2a0daa	0.16606775
206	0x3f16dbf1	0.58929354
207	0x3f87267e	1.0558622
208	0x3f8c0460	1.0938835
209	0x3f39ba12	0.72549546
210	0x3f49d31a	0.7883774
211	0xbd478175	-0.048707444
212	0x3f2cd4d4	0.6751225
213	0x3f8ba944	1.0911031
214	0x3f8571b2	1.0425322
215	0x3f8e2145	1.1103903
216	0x3df61c06	0.12017064
217	0x3f8dfffd	1.1093746
218	0x3f875fb8	1.0576086
219	0x3f873260	1.0562248
220	0x3e7e3b7b	0.24827377
221	0x3f93320f	1.1499652
222	0x3f7eedf3	0.9958183
223	0x3f871a6d	1.055494
224	0x3f8f36c1	1.1188585
225	0x3f5638b6	0.83680284
226	0xbdbf383e	-0.09336899
227	0x3f8bc0d4	1.0918221
228	0xbdc56d66	-0.09640007
229	0x3f3e17cc	0.7425506
230	0x3f5f2b60	0.8717556
231	0x3f1b9d18	0.6078658
232	0x3f8ccf2f	1.1000727
233	0x3f561a53	0.8363392
234	0x3f88eadb	1.0696672
235	0x3f8a4a17	1.080386
236	0x3f6e0d60	0.9298916
237	0xbd13ea74	-0.036112264
238	0x3f09a259	0.5376335
239	0x3f3ec793	0.74523276
240	0x3f14151a	0.578447
241	0x3f96551d	1.1744725
242	0x3f898193	1.0742668
243	0x3f87b9c2	1.0603564
244	0x3f5a791b	0.8534104
245	0x3f2fde54	0.6869862
246	0x3f861a76	1.0476825
247	0x3f91c475	1.1388079
248	0xbc85dbd4	-0.016340174
249	0x3ed68b4f	0.4190316
250	0x3f837da1	1.0272714
251	0x3f878915	1.0588709
252	0x3f49a266	0.78763425
253	0x3f24331c	0.64140487
254	0x3f23f09f	0.64039034
255	0xbcc23614	-0.023707427

network.8.weight f4 [3, 256]
0	0x3ed68abb	0.41902718
1	0xbcc65f35	-0.02421532
2	0x3ec4d1db	0.38441357
3	0xbba79c40	-0.005115062
4	0x3ea91f18	0.33031535
5	0x3ec30704	0.3809129
6	0x3e559866	0.20858917
7	0x3eac771f	0.33684632
8	0xbe3d11a5	-0.18463762
9	0xbe17604a	-0.14782825
10	0xbdb7aa42	-0.08968021
11	0x3d35f545	0.04442336
12	0x3eb0a69a	0.34502107
13	0xbe2577f6	-0.16159043
14	0xbe359bc8	-0.17735207
15	0x3eac7c6d	0.3368868
16	0x3ea5cb34	0.32381594
17	0xbe46f91f	-0.1943097
18	0x3d28fcae	0.0412566
19	0x3ef7e395	0.4841582
20	0xbe0588d8	-0.13040483
21	0xbdd90d88	-0.10598284
22	0x3ee185ef	0.44047496
23	0x3ef27a50	0.47358942
24	0xbb82f3e7	-0.0039963606
25	0xbdfdaa73	-0.12386026
26	0x3e8bbd0b	0.27292666
27	0x3ecb129d	0.39662638
28	0x3c61725e	0.013760177
29	0xbe3df066	-0.18548736
30	0x3eb82a0a	0.35969573
31	0x3f034a57	0.5128531
32	0xbe248d73	-0.16069584
33	0xbe1ebb6d	-0.15501185
34	0xbf1b3290	-0.6062403
35	0xbe29e25c	-0.16590255
36	0x3ef056d1	0.46941236
37	0xbe02f53d	-0.12788863
38	0x3f0738dc	0.52821136
39	0xbde44193	-0.1114532
40	0x3ecd6a26	0.40120047
41	0x3d587601	0.052846912
42	0xbd54f2f7	-0.05198952
43	0x3c662f4c	0.014049362
44	0x3e9e77d9	0.30950812
45	0x3ec71c30	0.38888693
46	0x3d186c8d	0.037212897
47	0x3e9282a5	0.286153
48	0xbd08e8fc	-0.033425316
49	0xbb719843	-0.0036864437
50	0xbe25d25f	-0.16193531
51	0x3e67d8e2	0.22641328
52	0xbd14bcff	-0.036313053
53	0xbe108329	-0.14112534
54	0xbe30509a	-0.17218247
55	0xbee03861	-0.43793014
56	0x3eab3970	0.3344226
57	0xbe367df5	-0.17821486
58	0xbe20ab7b	-0.15690415
59	0x3f0bbd1d	0.5458544
60	0x3ede89e5	0.4346458
61	0xbf1c5881	-0.61072546
62	0xbe122666	-0.1427246
63	0x3eb4b5e2	0.35295016
64	0x3f39edaf	0.726283
65	0xbe360fa0	-0.17779398
66	0x3f01f478	0.50763655
67	0xbe31c544	-0.17360407
68	0xbbd13e4c	-0.0063856
69	0xbe2b37ac	-0.16720456
70	0xbe156cbd	-0.14592262
71	0x3ce7c2cc	0.028291129
72	0x3ecc6f7f	0.39928815
73	0x3d0c5733	0.034262847
74	0xbe24bb30	-0.16087031
75	0x3cbbe4e6	0.022936296
76	0x3e64ccdc	0.22343773
77	0xbd63f168	-0.055650145
78	0xbe096700	-0.13418198
79	0x3f0e9d21	0.5570851
80	0xbdf61dfc	-0.12017438
81	0x3bec3c87	0.007209364
82	0xbe325663	-0.17415766
83	0x3eb7597d	0.35810462
84	0x3f1ed575	0.6204446
85	0xbe3892aa	-0.18024698
86	0xbcdac5f4	-0.02670572
87	0x3ecba3e8	0.39773488
88	0xbf3ad278	-0.729774
89	0xbdef3372	-0.11679734
90	0x3eb5162c	0.35368478
91	0x3ed41121	0.41419318
92	0xbc6e373c	-0.014539536
93	0xbe024053	-0.1271985
94	0x3dd66390	0.10468209
95	0x3dcf2213	0.10113921
96	0xbdf190c3	-0.11795189
97	0xbe200d8a	-0.15630165
98	0x3e92081e	0.28521818
99	0x3ef471f2	0.47743183
100	0x3cd443a6	0.025911164
101	0xbe6f66fd	-0.2337913
102	0x3d2187aa	0.03943602
103	0x3f0605db	0.52352685
104	0xbd812bf8	-0.063072145
105	0xbe1672d7	-0.14692245
106	0xbe484416	-0.19557223
107	0xbe274e81	-0.1633854
108	0xbe9e61d2	-0.30934006
109	0x3ec2e232	0.38063198
110	0xbbc56b44	-0.00602475
111	0x3f2fb414	0.6863415
112	0x3e6f6076	0.2337664
113	0x3e4c16bc	0.19930547
114	0xbca19aa0	-0.019727051
115	0x3ec6c76e	0.38824028
116	0xbdfcc857	-0.12342899
117	0xbe41d6b3	-0.18929558
118	0x3ee6e9a8	0.4510014
119	0x3e977ada	0.29585916
120	0x3d249f72	0.04019112
121	0x3d16e010	0.036834776
122	0x3e982a79	0.29719904
123	0xbd11394d	-0.035455037
124	0xbe08df18	-0.13366354
125	0xbc55bcc0	-0.01304549
126	0xbe26f503	-0.16304402
127	0xbe11f155	-0.14252217
128	0x3ea57aee	0.3232035
129	0x3e4b62c1	0.1986189
130	0xbe2f89be	-0.17142388
131	0x3ec12b63	0.37728414
132	0x3dfc6d90	0.12325585
133	0x3cf1d44b	0.029520174
134	0xbdf3cf29	-0.11904747
135	0x3e9ae9f3	0.30256614
136	0xbe44a6f2	-0.1920431
137	0xbe069abe	-0.13144967
138	0x3ec0be15	0.3764502
139	0xbee7449c	-0.45169532
140	0x3ec01ca0	0.3752184
141	0x3ec16fa3	0.37780485
142	0x3f03ae7f	0.51438135
143	0x3e3c5416	0.18391451
144	0xbe3a8f16	-0.18218645
145	0xbe1ac280	-0.15113258
146	0x3ec218b8	0.37909484
147	0x3c2474cb	0.010037611
148	0x3f177f41	0.5917855
149	0x3eceb6e7	0.40373918
150	0x3cf5af09	0.02999069
151	0xbddfd51f	-0.109293215
152	0xbe339147	-0.17535888
153	0xbe86a93b	-0.26300988
154	0x3eb9a655	0.36259714
155	0x3f0e1b01	0.55509955
156	0x3c48121b	0.012211348
157	0xbf07f900	-0.5311432
158	0x3e3aa08e	0.18225309
159	0x3ddf4ef1	0.10903729
160	0xbe252aad	-0.16129561
161	0x3d94e947	0.072710566
162	0xbe32d430	-0.17463756
163	0x3e8c7971	0.27436402
164	0x3c41a1e3	0.011818382
165	0xbe1324c6	-0.14369497
166	0x3dc04121	0.09387422
167	0x3e6abc20	0.22923326
168	0xbca8575f	-0.020549474
169	0xbe34c3c7	-0.17652808
170	0xbe2dffdc	-0.16992134
171	0xbe0f2cdf	-0.1398196
172	0x3d80bcb2	0.06285991
173	0xbd1d2edf	-0.038374778
174	0x3c96d6eb	0.018413028
175	0x3f06e4c1	0.526928
176	0x3d11fec0	0.03564334
177	0x3dd2743a	0.10276075
178	0x3e6efc09	0.23338331
179	0x3e9b8470	0.3037448
180	0xbe1f10e4	-0.15533787
181	0x3d03059d	0.031987775
182	0xbe00d56d	-0.12581415
183	0xbe0d0a94	-0.13773566
184	0x3eb53897	0.35394737
185	0xbd1f5b17	-0.03890523
186	0x3eb5772d	0.35442486
187	0x3eac7d4e	0.3368935
188	0xbe461b32	-0.19346312
189	0xbe2219fb	-0.15830223
190	0xbe340fc9	-0.17584147
191	0xbbe676b8	-0.0070331953
192	0xbe0c21dc	-0.13684791
193	0xbeec849b	-0.4619492
194	0x3ebd8d90	0.37022066
195	0xbc73aad0	-0.014872268
196	0x3e8cb90b	0.27484927
197	0x3d522c06	0.051311515
198	0xbe324b95	-0.17411645
199	0x3ed98b1c	0.42488945
200	0xbe0f0b60	-0.13969183
201	0x3edda419	0.4328926
202	0xbe20fa6d	-0.1572053
203	0xbf277107	-0.6540684
204	0x3e212fc3	0.15740876
205	0x3d598dc2	0.053113706
206	0xbe3aaea5	-0.18230684
207	0xbe21e3f2	-0.1580961
208	0xbe3ea358	-0.18616998
209	0x3eca692b	0.39533362
210	0x3eb6ed2a	0.35727817
211	0xbd9ab77d	-0.07554529
212	0x3e326fe8	0.17425501
213	0xbe1e2bd3	-0.15446405
214	0xbde183ce	-0.11011468
215	0xbe3c4601	-0.1838608
216	0x3c28cc19	0.010302567
217	0xbe2b87bc	-0.16750997
218	0xbe8b837a	-0.27248746
219	0xbe2284ab	-0.15870921
220	0x3ec164ac	0.3777212
221	0xbe1a6481	-0.15077402
222	0xbe31f6c6	-0.17379293
223	0xbe01e851	-0.12686278
224	0xbe257ac4	-0.16160113
225	0x3ec139b7	0.37739345
226	0xbcd8a7b1	-0.026447149
227	0xbe1f2c50	-0.15544248
228	0x3cd5decd	0.026107216
229	0x3e50765b	0.20357649
230	0x3e86bcfd	0.26316062
231	0x3f30d396	0.69072855
232	0xbe21d05a	-0.15802136
233	0x3ebf4417	0.37356636
234	0xbe0d3664	-0.1379028
235	0xbe0ae5bc	-0.13564199
236	0x3e83737a	0.2567404
237	0x3d3b3987	0.04570916
238	0x3e27988e	0.16366789
239	0x3ed93236	0.4242112
240	0x3c5fb5eb	0.0136542125
241	0xbe2b0c3a	-0.16703883
242	0xbe219eef	-0.15783285
243	0xbe6a710a	-0.22894683
244	0x3eb9dcae	0.36301178
245	0x3ee674b7	0.4501092
246	0xbe2d1797	-0.1690353
247	0xbe12c4ea	-0.14332929
248	0x3c54682f	0.012964292
249	0x3dd249fd	0.102680184
250	0xbf37751f	-0.7166309
251	0xbec227f9	-0.37921122
252	0x3e8a5350	0.27016687
253	0x3edfbca1	0.436986
254	0x3ecb5a52	0.39717346
255	0x3ac0993e	0.0014694107

network.8.bias f4 [3]
0	0xbf6cfdf0	-0.9257498
1	0xbf52e1d2	-0.82375824
2	0xbf42fe92	-0.76169693
