mountaincar_cl_project/mountaincar_cl/runs/abrupt/egp/seed_2/online_stream_model.pth (torch, 536437 bytes, 8 tensors)

network.0.weight f4 [256, 2]
00000000: e031 733f 15e0 1640 a4b7 1b3d c59f 4140
00000010: f02e 793e 880f 2dbe 10b3 b7be 5723 2c3f
00000020: f80f 613f bc5c 2640 31e5 dd3e 6970 b63f
00000030: 2623 babd f28c 0640 0286 a93e e0c5 f1be
00000040: a81c 0abf 957c 10c0 6f03 a4bd baec 02c0
00000050: e657 d03e 9cca 423f c4da 763e 20dd 223d
00000060: 745d b0be 8f75 ff3e 12b9 96be fb98 1840
00000070: f61f d3be 4606 14bf dc6c 153e defe f63e
00000080: 0a55 ea3d 10a1 2b40 0beb 07be 2a9b 8540
00000090: 7471 afbe 38cf 2c40 02b9 95be 7a1c 1240
000000a0: 0fbe 1fbf 7082 17c0 5241 f03e 9b9c 133f
000000b0: e684 e43e 3dba 103f 8872 dc3d d2ad f23e
000000c0: 6c4b ecbe 12a2 eabf 55a5 ecbd c7e5 7540
000000d0: 7eaf 18bf a40c 28c0 9d2e 80be 8bbd 08c0
000000e0: daf3 f13e 3a28 b93e 93f6 edbd ab28 9140
000000f0: de4e bc3e ce09 19bf 0e06 553e e0f7 2440
00000100: e701 23bf 53ac 0ebe 394f 80be 9b07 bd3f
00000110: 535c 043f d1f1 ac40 a08f fe3c 57a6 123f
00000120: 90b6 bd3d 7628 d03e 0b98 d53e 3596 f43f
00000130: 7f85 a7be 5303 0440 2f21 5abd 1e09 7640
00000140: 251f 193f ab5a 5b3e a819 af3d 9f0e 1c3f
00000150: a168 fa3e 148f d53e c455 06be 3090 4dbe
00000160: 5399 313f 2b8e 0c40 2c66 09be 6fd1 5c40
00000170: 11f8 fa3d cbd6 4b40 4fd8 ea3e 355f 1d40
00000180: dc1f 26be 7e8a e53e a974 a7bd 059f 47c0
00000190: 144d cd3e 554f 3d40 27c8 343f b592 f13f
000001a0: 727a 3d3e 9a64 4e40 65c8 013f d1e6 1940
000001b0: 32d5 8f3e 5639 3940 3baa a8bd e8e9 5940
000001c0: 74b6 7e3e 45ff 063f 61ea 29bf dd71 2dc0
000001d0: cabf 98be 9baa 773d 189c d53d 523e d73e
000001e0: b2a7 883e f40a 8f3e edac 05bf 13b9 28c0
000001f0: 6bdf 313f 5e57 af3e dc81 a5be e07a 53be
00000200: 03f1 bcbe 7688 0840 4d19 a0be 0254 72c0
00000210: 4e9d b83e 1b82 2040 b3df 023f 8ee6 e53e
00000220: 964a c8be f8af 9c3d 5a87 25be be71 4540
00000230: 8cff 843e 65a8 0cbf 62f1 46be e176 2540
00000240: b482 e0be 48e2 23c0 565a 9f3e 453c 2c40
00000250: b274 6fbe c409 22bf 306b dc3e 71c9 b43f
00000260: 995b 273f 6070 fd3c 6a4f d43e e42b 6f3e
00000270: 8633 e4be 29ba 5d40 1f12 1b3f ce2e 4bbe
00000280: 94e5 013f 2291 e5bc 594a 4b3f b43d 1fbf
00000290: e245 9f3e b262 1ebf 4b93 1c3f cf7d 85be
000002a0: f128 83be e23d b93e e500 98be df0b 2dc0
000002b0: fc12 0abe 07f4 0c40 a52e 2d3f 70e4 75be
000002c0: 53d4 0ebf fbbe 10bf 7061 d13e a30c fe3f
000002d0: 5c0e 0f3e 98cd 2d40 0730 b0be 82ed 0740
000002e0: 6f6d 1fbf bba3 1e3f 6240 793c 083f 0a40
000002f0: f213 8fbd 0077 0a40 8a80 47bd ac06 7240
00000300: d455 25be 9f31 1b40 2ef3 9dbe 21b9 3940
00000310: 8dbe 193f 5ab0 2bbf 8ebb 363f 6620 b640
00000320: 32b0 c03e 90b2 55be f410 9abe 562b d03f
00000330: 1ba9 083e 3813 85c0 c6b8 083f cfea 2840
00000340: 4fb8 403f a0a1 8540 e26d 0c3f 1347 3d40
00000350: 4bbe 223f 20c1 ff3c bf16 2a3e 7533 4140
00000360: 4cad 7c3e 216a 3340 fa65 b03e d0db 1cbe
00000370: 5b3f 3dbe 68b0 3540 83b5 6b3e 3e73 5d40
00000380: b024 553d 4ffe 253f 151d eb3e ba61 2140
00000390: 9262 83bd 7fae 1840 8003 da3e feb6 2840
000003a0: 1cc2 ca3e a366 4340 5f8b b13e 2a7f 3240
000003b0: e712 293f deeb ab3e 44a1 5fbe 6930 e23f
000003c0: 007d 2bbc 6863 423e 05c0 c8be 6bd8 3640
000003d0: e352 7c3f 49ec 8f3f 5508 babb 95c6 5f40
000003e0: 44cb 683e 1509 2a3f e5f7 243f dbcf 323f
000003f0: 58b9 07bf c61d cabf 3e32 f7be 720f 32bf
0.9499798 2.357427 0.03801693 3.0253766 0.24334311 -0.16900456 -0.358788 0.67241424
0.8791499 2.59941 0.43338922 1.4253055 -0.09088735 2.1023526 0.33110052 -0.4722128
-0.53949976 -2.257604 -0.080084674 -2.0456986 0.4069206 0.7609041 0.2410689 0.039761662
-0.344463 0.49894378 -0.29438072 2.3843372 -0.41235322 -0.5782207 0.14592308 0.48241323
0.11442001 2.6817055 -0.13273256 4.175191 -0.34266245 2.7001476 -0.29242712 2.282988
-0.6239938 -2.3673363 0.46924835 0.57660836 0.44632643 0.5653418 0.107640326 0.4739824
-0.46151292 -1.833071 -0.11554972 3.8421495 -0.5964278 -2.6257715 -0.25035563 -2.1365688
0.47256356 0.36163503 -0.11619296 4.5362144 0.3677892 -0.59780586 0.20803091 2.577629
-0.6367478 -0.13932924 -0.25060442 1.4767946 0.51703376 5.4045186 0.031074345 0.57285064
0.09263337 0.4065587 0.41717562 1.910834 -0.32719037 2.062703 -0.053254303 3.8443065
0.5981315 0.21421306 0.085498154 0.6095981 0.4890795 0.41710722 -0.13118654 -0.20074534
0.6937458 2.1961772 -0.13417882 3.4502828 0.12254346 3.184985 0.45868155 2.458936
-0.16223091 0.44832224 -0.08176548 -3.1190808 0.40097868 2.957967 0.7061791 1.8872896
0.1850374 3.2248902 0.506964 2.404713 0.28092343 2.8941245 -0.08235594 3.4049015
0.24874288 0.5273326 -0.6637326 -2.7100747 -0.29833823 0.060465436 0.10430163 0.42039734
0.2669044 0.27938044 -0.5221699 -2.636296 0.69481534 0.34246343 -0.32325637 -0.20652342
-0.36902627 2.133329 -0.31269303 -3.7863774 0.36057514 2.507941 0.5112259 0.44902462
-0.39119405 0.07650751 -0.16164914 3.0850673 0.25976217 -0.5494445 -0.19428018 2.5853808
-0.4384972 -2.560686 0.31123608 2.6911786 -0.2338436 -0.6329615 0.43050528 1.4123975
0.6537414 0.030937374 0.41466838 0.23356587 -0.4457056 3.4644873 0.60574526 -0.19842073
0.50740933 -0.028023306 0.7941032 -0.62203526 0.31108004 -0.6186935 0.6116225 -0.26072547
-0.25617173 0.36180025 -0.29688182 -2.7038496 -0.13483804 2.2023942 0.676493 -0.24012923
-0.5579273 -0.56541413 0.4089465 1.9847606 0.13970321 2.7156734 -0.34411642 2.1238713
-0.6227636 0.6196858 0.015213104 2.1600971 -0.06986226 2.1635132 -0.04870657 3.7816572
-0.16146022 2.4249036 -0.30849594 2.9019244 0.6005638 -0.67065966 0.71379936 5.691455
0.37634426 -0.20868897 -0.3009106 1.6263225 0.13345759 -4.158596 0.5340694 2.6393316
0.7528123 4.1759796 0.5485517 2.957463 0.63571614 0.031220019 0.1661024 3.0187657
0.24675483 2.8033526 0.34452802 -0.15318227 -0.184812 2.838892 0.2301846 3.4601588
0.05203694 0.6484117 0.45920625 2.5215898 -0.06415285 2.3856504 0.42580795 2.636169
0.3960122 3.0531394 0.34676644 2.7890115 0.6604447 0.3357839 -0.21838862 1.7671024
-0.010466814 0.18983233 -0.39209 2.856959 0.98563975 1.1243984 -0.005677263 3.4964955
0.2273379 0.6642011 0.6444076 0.6984841 -0.5301719 -1.5790336 -0.4828052 -0.6955482

network.0.bias f4 [256]
00000000: 3609 5d3e 41f8 acbd fafb 00bf f883 04bf
00000010: 7fc5 b03e bc4d c83d 07ef 8a3c c633 0bbf
00000020: da0b f1be 1c51 eabd c6ef c43d edab 93be
00000030: 0b8e 9fbe 4075 91be 6a37 c5be 2a88 0dbf
00000040: 3549 923c 6cd1 40bd 1390 c5bd 2c43 8bbe
00000050: 37db a7be 17d1 1abf 5326 c2be 678f debe
00000060: a80b cebe f7b9 23bd 5e82 a3be 8d37 6fbe
00000070: 00ae 40be dc30 12bd eefe bebe 35db dd3b
00000080: d00a 0dbf 451e c3bd 8487 f73d 8d17 babe
00000090: a011 afbd d4fe 1d3e c364 e0bd d448 cbbc
000000a0: c42f 103e 045c f5be dd04 513e 7e1d 08bf
000000b0: 9a41 a53d a242 4abe 2155 253c 0b41 2a3d
000000c0: ecf1 51be 87ab 16be 3d83 2f3e e6f9 313e
000000d0: e61b 58b9 9a19 4e3e 690e 9c3c ed8e a6bd
000000e0: 8bca b5be 5620 b2be 1822 87be c6b2 16bf
000000f0: f0f0 19bf 3e93 b1be dd61 d3be f0d7 c5be
00000100: 8aa7 00be e176 29be 1e19 343d de55 70be
00000110: b57c acbe 882d 76bd e007 59be 5efd 4fbe
00000120: ca9c d4be d0c7 153d fcf2 50be 1c15 ce3d
00000130: 51b2 b8be c3ba abbe f504 19be 2a70 8c3e
00000140: 81ae f33d 5840 b73e e84d 10be 9974 d2be
00000150: a476 dfbe 6a51 9dbe 3321 1cbe a6d1 71be
00000160: 2e22 9dbe d11b 203e 6762 cb3c 1c36 f4bd
00000170: 0143 1ebf 527b 503d 62d2 bf3c 4a8a 24bd
00000180: 465f abbd 96e9 bebd bf65 ccbe 6e14 673e
00000190: 2a32 2b3e e185 ccbd 0a0b 883d d6fb 193e
000001a0: ad10 9e3e 9319 7c3d 7211 9cbe 8f68 f43c
000001b0: ec32 c23c 909c 3dbe 141d 4ebe d17e 793d
000001c0: 7ebc f1be d601 743d e686 153d 24dc 2b3d
000001d0: 1479 ab3d 5d08 073d b349 a3be a4bc f6bd
000001e0: 5e48 0fbf 9079 09be 1278 a23e de51 0cbe
000001f0: 1031 39be f043 51bd 1c86 93be 0729 a3be
00000200: 70f8 883e 4aaa 803e 35f5 0ebf c562 b33d
00000210: f617 bcbe a49c f9be 6026 17bf 4084 17bc
00000220: c809 8bbd 50b6 7dbe 8b78 663c 8a59 363e
00000230: 155b 18bf 5819 333e 4884 afbe 6e85 afbe
00000240: c430 06bf ae76 f1be c4db 283e 3cec 86bd
00000250: 22b4 7d3d d05a 2abe dec0 edbe 27a6 323d
00000260: 4edb 263d d787 8bbe ebf8 8ebd 4ed0 5bbd
00000270: 1137 43bd 7eb5 b7bd cc89 20be f34c babd
00000280: 8957 5c3e a0f5 2e3e 06ec c1be fff9 a0be
00000290: b8ab 81be 7bbc aabe e056 2a3c 8dea 2fbe
000002a0: 68c7 c03e c1ba 093b f41e 4fbe 9909 503e
000002b0: 22b3 7ebe 8e12 813e 4660 f4bc e82c 8bbd
000002c0: b748 f1be 1cbb 163d 28ff ed3e 8830 a1be
000002d0: 37b8 ee3b 4f62 18be 5861 383e 49be 4abe
000002e0: 7065 18bd e95c 8abe 9b02 8cbd 6663 02be
000002f0: 4db6 823e f979 a7be da8b 193d 270d d6be
00000300: defd 6a3e cd98 14be c9c3 0ebf f8cd 36be
00000310: 74a0 55be c951 3ebd d14c 7abc 5472 1bbe
00000320: 7840 7f3b 4f79 afbd 6f7c e2be e9ba bebe
00000330: d345 303e c8e1 98bb f440 53bc 6c92 b13b
00000340: b811 c0be 6063 f0bd c536 f4bd c615 00bf
00000350: 89ed 09be d8b3 00bf cee8 6abe d34d 9e3d
00000360: 10af e8be 58d0 cbbd dae4 073e 803c d4bb
00000370: dbd1 e7bd 2d8f 873e 4d9c 2dbf ae04 113d
00000380: 51d4 30bf 308f 1b3e 7c3d 4cbe e616 98be
00000390: 8e6c 0dbf 9c9b a6be a0f1 5fbd bd9e 84be
000003a0: 7fe2 28bf 2f07 2fbf 1f56 783c 35f7 d33e
000003b0: 2720 1e3d d149 16bf d479 11be 1c85 aebe
000003c0: 666c 12bf e2d0 ddbe 3eca d5be 55ce 9a3e
000003d0: fe22 463d deb7 c5bc abe1 c1bd 2412 0dbf
000003e0: fab9 9ebe d80d 5dbe 8ea6 86bd 0044 4cbe
000003f0: b8d6 47be 5e80 cebd 965f 3a3c 2edf 243d
0.21585545 -0.08445788 -0.50384486 -0.5176387 0.34525678 0.09780452 0.01695968 -0.54375875
-0.47079355 -0.11441252 0.09616046 -0.28842106 -0.31163058 -0.28409767 -0.3851884 -0.55285895
0.017857173 -0.04707472 -0.096466206 -0.27199686 -0.32784435 -0.60475296 -0.37919864 -0.43468782
-0.40243268 -0.03997227 -0.319354 -0.23361035 -0.18816376 -0.035691127 -0.3730387 0.0067705163
-0.55094624 -0.09527258 0.120863944 -0.36346093 -0.085482836 0.1542924 -0.10956719 -0.024815
0.14080721 -0.47921765 0.20412011 -0.5317 0.08069153 -0.19751981 0.010091097 0.041565936
-0.20502442 -0.1471387 0.17139907 0.17380485 -0.00020609758 0.20126954 0.01904984 -0.0813273
-0.3550609 -0.34790295 -0.263932 -0.58866537 -0.60133266 -0.3468265 -0.412856 -0.3864131
-0.12563911 -0.16549255 0.043969266 -0.23470256 -0.33688894 -0.060102016 -0.2119441 -0.20311496
-0.4152587 0.03656751 -0.20405191 0.1006262 -0.36073545 -0.33540925 -0.14943297 0.27429324
0.11898518 0.35791278 -0.14092219 -0.41104582 -0.43645203 -0.30726177 -0.1524704 -0.23615131
-0.3069014 0.15635611 0.024827195 -0.11924383 -0.6182099 0.050898857 0.023415748 -0.040170945
-0.08367781 -0.09321897 -0.39921376 0.22566387 0.16718355 -0.09986473 0.066427305 0.15037474
0.30872098 0.061547827 -0.3048206 0.029835014 0.023705922 -0.18516755 -0.2012828 0.060911957
-0.4721412 0.059572063 0.036505602 0.04195799 0.08372703 0.03296696 -0.31892166 -0.12047699
-0.559698 -0.13425279 0.3173223 -0.13703105 -0.18085122 -0.05109018 -0.28813255 -0.3186724
0.26752043 0.2512992 -0.55842906 0.08759073 -0.3673703 -0.4875232 -0.5904293 -0.009247839
-0.06788975 -0.24776578 0.014066826 0.17807594 -0.5951398 0.17490137 -0.3428061 -0.34281486
-0.5241816 -0.47160858 0.16490084 -0.06588027 0.061939366 -0.16636205 -0.46436208 0.043615486
0.04073649 -0.27252075 -0.06981071 -0.05366545 -0.047659937 -0.08970164 -0.15677565 -0.09096708
0.21517767 0.17085886 -0.37875384 -0.31440732 -0.25326324 -0.33346924 0.010396689 -0.17179318
0.37652135 0.0021015855 -0.20226651 0.20316161 -0.24873021 0.2520947 -0.029831063 -0.067956746
-0.4712579 0.036799535 0.4648373 -0.3148234 0.0072851437 -0.14881252 0.18005884 -0.1979915
-0.037206113 -0.2702401 -0.068364345 -0.1273323 0.2552971 -0.32710245 0.03748689 -0.4180691
0.22948405 -0.14511414 -0.55767494 -0.17852008 -0.2086199 -0.046464715 -0.0152771035 -0.15180331
0.0038948338 -0.0856806 -0.4423556 -0.37251976 0.17214136 -0.004665587 -0.012893904 0.005419066
-0.37513518 -0.11737704 -0.11924509 -0.50033224 -0.13469519 -0.5027442 -0.2294037 0.077296875
-0.45446062 -0.09951848 0.13270894 -0.0064769387 -0.11319324 0.26476422 -0.6781662 0.035404854
-0.6907397 0.1519134 -0.1994533 -0.2970497 -0.55243766 -0.32540596 -0.05467379 -0.25902358
-0.65970606 -0.68370336 0.015157252 0.41399541 0.03860488 -0.58706385 -0.1420663 -0.3408593
-0.5719665 -0.43323427 -0.4175586 0.30235544 0.048373215 -0.024135526 -0.09466871 -0.55105805
-0.31001264 -0.21587312 -0.065747365 -0.19947815 -0.19515502 -0.10083078 0.0113753285 0.040251903

network.3.weight f4 [256, 256]
00000000: fb7e 4fbd 1431 32be aa13 4abd fa3f 7c3d
00000010: 4853 36bd d227 973d c305 fcbc c018 523b
00000020: 6c5b 983b a943 62be 0c72 363d 50cf b8bc
00000030: 859e 9d3c d234 b2be 6052 8a3b 20ac 543c
00000040: 2436 113e 9a40 f83c f6a0 68bb f289 94be
00000050: 1dc8 46bc 6887 a03c c092 893b 6208 24bd
00000060: 6fe8 263d 71e5 793d 01ab f4bd 911c 36be
00000070: 6661 233d 17f6 a63d f88a 223d 7384 ce3d
00000080: 3d7d 9d3c 8317 9d3d 94f9 b2bd aa43 76bd
00000090: 5cca 5d3d 2887 d0bd 486c 833d 2f18 9db9
000000a0: 5983 c93d f092 cb3c 6369 f3bc 9007 603c
000000b0: bb5e fa3e 0189 13bf 82a7 843b 7513 ed3e
000000c0: 3c1c e03c 0a00 49be 1510 42bd 5c91 e93c
000000d0: b0d9 7abd 0bf1 d5bd df02 7d3e 2eea 0e3e
000000e0: 0050 e03a e552 fbba 8cbd 9ebd 3c5d e1bc
000000f0: 4060 6abc 11f5 d63d b00a b5bb 2053 39bb
00000100: 6af6 3a3c 2900 bcbe 312f 49bb b8b2 a1bc
00000110: 9e7d 16bd d9db de3c dca1 253d fe4b 56be
00000120: 746b e5bd 59fb c03c a271 6bbd 6bea a2bc
00000130: 7434 a93c 807e 753d e02a b13d 82de 32bd
00000140: a291 b13d 47c0 a3bd 207a 5ebb 84f7 82bc
00000150: 8002 2abc 1326 b3bc 1d0d 033f ce29 443d
00000160: 22ca e9ba 30d4 ebbd afa4 c3bb 221a 0b3d
00000170: 98ae 52bd c864 89bd 3562 95bd c6dc c33c
00000180: 974d 2ebc cea1 6f3d 38f1 f1bc d21d 35be
00000190: 91ff 98bd b56b 06bd def7 f9be 4130 b2bc
000001a0: 5ab4 93bd db88 673f 46f2 1cbd 8038 d43d
000001b0: bd6b 8d3d 90ff ff3b 3f53 efbe 64ab ae3c
000001c0: 4e84 673d e1d7 06bd c80d e4bd 87d0 7b3d
000001d0: 3cb3 2b3d b302 553e be0c 48bd a337 b03c
000001e0: e08e 893b 67e3 8f3d fcc7 5dbd e8fd 66be
000001f0: a090 c13b fc74 f8bc 8192 bf3c 7c2f 683e
00000200: 756a 5dbc a230 12be b051 bcbc 2154 b9bd
00000210: 40f3 0abb 68a6 803c 30ec 05bc a0a9 65bd
00000220: 8c40 483d d32c 693b 447a 3d3e 9408 52bd
00000230: 20ab 533c bab2 15bd 061e 02bd e4d1 98bc
00000240: a45e 01bd 70ae 75bd 678a d7bd 6375 ef3d
00000250: 23c1 ffbe bc60 01bd 04e6 6f3d 1fac ce3e
00000260: d03f 41bc 3823 bcbc ef1a 4d3d 73df 123d
00000270: 8879 873d e777 09bf a64c 0dbd 47c8 ca3b
00000280: 3397 823c a47a 8cbd dcd5 bdbc 24c1 c2bc
00000290: 1e4a 8f3c a660 2c3d 1ec5 45bc 458c 0dbe
000002a0: 35cc 80bd 0f30 be3d d08e d5bb 8cd7 313a
000002b0: 80c2 163a e5c9 afbd 9bcf 753d fac9 a63d
000002c0: f282 663d 5316 d43d f45b 25bd b816 6abc
000002d0: e99e 92bc b037 bcbe 1ba2 fcbc 7ccd d93d
000002e0: ccf2 c63c aa95 42bd ff03 f13c 640f 26be
000002f0: 742c 43bd acfd 0cbd ab85 4a3e 70cf f7bc
00000300: 8023 82bd dcb8 7cbe a648 4fbd e4a6 083d
00000310: 60a9 9e3c 3c39 033f a0e7 c2bc a6c3 3fbd
00000320: 0fb2 b83d 6407 42bd 40cf 04bb 1dac 173d
00000330: b57f 19bd 8edf 90bd 5e4a 65bd 9479 edbd
00000340: 90e5 30bc 806f 0b3d dbf4 56be 7a10 75bd
00000350: dac8 99be 983c 3a3d 44b0 223d 3141 f1be
00000360: f463 12bd 14c0 12bf bac4 4a3d d484 d03c
00000370: 9419 be3c 4859 42be e844 1ebd 7004 833e
00000380: d206 2bbd 5f3b 17be 8079 813a 8f23 0c3d
00000390: c086 4ebc 001a 193d 9f9f a83d 60b5 e53b
000003a0: 3cba 203d 385f 1fbd 86fb 9ebd 7398 13be
000003b0: e495 9f3d 6092 91bc b42c cf3c 278d 0b3f
000003c0: 6cef 6bbd eec2 5c3d 0225 5f3d 5947 c1bd
000003d0: 8931 343f fcb3 6a3c b8ab 1bbf a4cd f5bc
000003e0: 0445 a4bd 208e 2c3b b700 f13d 7a2d 17bd
000003f0: a6c4 de3c cbf5 c2bd 6fa5 d13c f211 363e
-0.050658207 -0.17401534 -0.04933516 0.06158445 -0.044513017 0.07380642 -0.030764466 0.003205821
0.00464957 -0.22096123 0.044542357 -0.022559792 0.019240627 -0.34805924 0.0042212456 0.012980491
0.1418081 0.030304242 -0.003549633 -0.29011494 -0.012132672 0.019595817 0.004198402 -0.040047057
0.04074901 0.061009828 -0.11946679 -0.17784335 0.03988781 0.08152407 0.039683312 0.100838564
0.019224757 0.076705 -0.087390095 -0.060123123 0.054148063 -0.10182029 0.064171374 -0.00029963392
0.09839506 0.024850339 -0.029713338 0.013673678 0.489004 -0.57630926 0.004048289 0.46303907
0.027357213 -0.19628921 -0.04737862 0.028511696 -0.06124276 -0.10446366 0.24708126 0.1395652
0.0017113686 -0.0019174485 -0.07750997 -0.027510278 -0.014305174 0.104959615 -0.0055249557 -0.0028278306
0.011411289 -0.36718872 -0.0030698294 -0.01973854 -0.03674089 0.02720444 0.040437564 -0.20927426
-0.11202136 0.023557352 -0.057481416 -0.01988717 0.020654894 0.059935093 0.08650756 -0.04366923
0.086703554 -0.07995658 -0.0033947304 -0.015987165 -0.010376573 -0.021868741 0.51191884 0.04789143
-0.001783673 -0.11515081 -0.0059705595 0.03396047 -0.051436037 -0.067086756 -0.07294122 0.023908984
-0.010638616 0.05850392 -0.029533967 -0.17687157 -0.074706204 -0.03281756 -0.4882192 -0.021751525
-0.07212134 0.904432 -0.038316987 0.10362339 0.06905315 0.007812448 -0.467432 0.02132196
0.05652266 -0.032920722 -0.11135441 0.061478164 0.041918978 0.20801811 -0.048840277 0.021510905
0.00419794 0.070257954 -0.054145798 -0.22557795 0.005907133 -0.03032922 0.023385288 0.22674364
-0.013514151 -0.14276364 -0.02298817 -0.090492494 -0.0021202117 0.015704349 -0.008173987 -0.05606997
0.04888968 0.0035579696 0.18503672 -0.051277712 0.012919217 -0.0365474 -0.031766914 -0.018654771
-0.031584397 -0.05998081 -0.10524445 0.116923116 -0.4995204 -0.031586394 0.05856897 0.40365693
-0.011794999 -0.022966012 0.050074514 0.03585763 0.06614977 -0.5369858 -0.034496926 0.0061884257
0.015941238 -0.06859329 -0.023173265 -0.023773737 0.017491397 0.04208436 -0.012070922 -0.1382304
-0.062889494 0.0928651 -0.0065172687 0.0006784133 0.00057510287 -0.0858343 0.06001244 0.08143993
0.056277223 0.103558205 -0.040370896 -0.014287643 -0.01789804 -0.36761236 -0.030839017 0.10634896
0.024285696 -0.047506012 0.02942085 -0.16216809 -0.047649816 -0.034421608 0.19777553 -0.030250281
-0.06354427 -0.24679893 -0.050606392 0.033362284 0.019367874 0.5125921 -0.023792088 -0.046817444
0.09018337 -0.04737033 -0.0020265132 0.037029374 -0.037475307 -0.0707389 -0.055979125 -0.11595455
-0.010796919 0.03404188 -0.20991842 -0.059830166 -0.3003605 0.045467943 0.03971888 -0.4712005
-0.035739854 -0.5732434 0.04950402 0.025453962 0.023205556 -0.1897937 -0.038639933 0.25589323
-0.04175455 -0.14768742 0.0009878129 0.0342136 -0.012605369 0.03737831 0.0823357 0.007010147
0.039240107 -0.038909167 -0.07762818 -0.14413624 0.07792261 -0.017769992 0.02528987 0.54512256
-0.057601377 0.053896837 0.054478653 -0.094374366 0.70388085 0.014325138 -0.60808897 -0.030005284
-0.08020976 0.002632983 0.117677145 -0.036908604 0.027193379 -0.095195375 0.02559158 0.17780283

network.3.bias f4 [256]
00000000: 28cc e73d bd87 2b3e f746 2f3e 27a9 343e
00000010: beaf f2ba ba97 49bd c869 dabb 3008 173e
00000020: bed9 17bd 1903 a1bd 4b1e 083e 2332 043e
00000030: 5350 21bd 68a2 c8bc 2816 273e 00a7 07be
00000040: 70c5 fdba 8110 2c3e f294 4b3e 0364 0e3e
00000050: a88b 3f3e 4380 2f3e b1e7 80bd f5c1 2f3e
00000060: f337 f7bb 5215 04bd fc67 363e ce19 1e3e
00000070: 9068 573e ba29 203e e6ed 043e 5dc7 ccbc
00000080: 64f0 053e e2c3 bbbb 1856 863d a41b 313e
00000090: 68a2 203e 154a 533e 9826 e73d c128 f13d
000000a0: 9dfb 403e 5a7b 2e3e b2d7 3f3e f88a 06bc
000000b0: a50d 96bc c0d7 15bd bad8 093e 0eb9 2cbd
000000c0: 4247 bbbb 8138 adbd f5a0 753d 47b6 55bd
000000d0: 5e1e 193e c2be f53d eccb 8ebd f9ae 9abc
000000e0: c6f5 33bc 6a43 283e b9e2 3d3e 10b2 0a3e
000000f0: ac6b 90bc 84e2 1c3e b8dc 253e 90ca 363e
00000100: c27b 253e c9a3 b3bc 8355 1c3e 3558 2b3e
00000110: f741 1b3e 4c20 203e 2a90 7cbd 6364 0c3e
00000120: d031 e43d dd35 3a3e 585c 91bd 8086 273e
00000130: b38e 8939 7d2a 9abc 9847 6cbd f47c ff3d
00000140: bd1a 173e 588d 28bd edd3 053e 5326 79bd
00000150: 68a4 333e 28ff 92bd eb0f 2fbd 89f2 3abc
00000160: 3d95 7cbd 4964 dc3d 0c43 f23d d2ba 41bc
00000170: 471c 363e 6bc1 4bbd cf36 2c3e 6c2a 81bd
00000180: 2040 253e 4967 0b3e 488f 2c3e 0788 8cbd
00000190: 8390 f7bc 1a58 8abd d926 873e 60c5 1d3e
000001a0: 01ac 03bd 72e8 303e a0eb 033e b4a6 033e
000001b0: c32b 90bc 5742 3a3e adf1 92bc 1465 463e
000001c0: 3b78 9abd 77f8 2a3e 553d 3a3e cd54 2d3e
000001d0: bb13 363e aeab 19bd 61cc f93d 1a94 103e
000001e0: 4acf 333e d705 93bc 2a2d 013e 3926 73bd
000001f0: 9108 183e 5fa3 263e 8132 11bd c124 393e
00000200: deea 003e aba3 373e 6022 d63d df73 b0bc
00000210: b40a 563e b8d8 3d3e 5836 2e3e 18fa 3bbd
00000220: b3b9 e7bb e113 92bd dc8e 0a3e 11d8 833b
00000230: f169 d2bc fc5b 1d3e 3873 4cbd 39a1 5aba
00000240: 2520 2f3e 3777 613d 6551 3b3e 9c39 0c3e
00000250: 94e3 8b3d 1383 c13d 0333 383e 340c 34bd
00000260: 5a63 b5bb 6ad1 283e 3c68 1cbc bc5e 19bd
00000270: 690a 87bd 2500 0a3e cac6 213e 14ca 063e
00000280: 9dab 3e3e 158c 243e 987b 83bd 692e 84bc
00000290: e86f fbbc c18c 163e 75db 093e 2027 7fbd
000002a0: f07e 7d3e 1580 82bd aced 943d d34d 3c3e
000002b0: fc4a 163e adf8 143e fc1b b8bc 0430 053e
000002c0: 6bf0 acbd 725a 77bd c822 e83d 35c3 233e
000002d0: fbf6 0abd b9ef 37bd c63b 87bd 06c8 46bd
000002e0: ec97 22bd 3cf2 50bd 908e 533e d0f2 2f3e
000002f0: 2fd8 133e 5d9a 93bd efdb 0c3e 894d b83d
00000300: 0be1 7cbd c56f 493e b9eb 37bb 02a8 26bd
00000310: b5e8 513e 5958 efbb f6b8 c63d 9b73 4c3e
00000320: 23b9 303e 4965 1b3e 0b9c 163e 9c7b 9abc
00000330: 150a 353e efe6 86bd 1468 9e3d a4e5 243e
00000340: c2b8 31bd dafb 62be 0211 a5bc 1318 2b3e
00000350: 9afa 383e 034d 9fbc 9f14 143e 5c79 213e
00000360: 8266 9fbd 30a0 78bd 73ed 453e 471f 3cbd
00000370: d60e c7bc 8e01 4fbd 55ee 90bd f5ec b7bb
00000380: ffca 70bc 65a9 f33d 0e00 1f3e 527b 043e
00000390: e513 5ebc 647a 353e 8277 f13d 21c3 2d3e
000003a0: c51b 3c3e 0c66 b33d 9685 123e f5d9 5ebd
000003b0: beb6 783d 18f9 7fbd 12f1 81bd 868a fc3d
000003c0: 25c0 e1bc 35dc 113e 897f 193e f724 533d
000003d0: ec19 083e 50bb 3ebd 4ca9 72bd 4fa4 033e
000003e0: 0363 ff3d e775 62bc 7600 28bd 0d52 063e
000003f0: 13a4 bcbb cb41 82bd 6b3a 4d3e ec95 043e
0.113182366 0.16750999 0.17116915 0.17642651 -0.001851551 -0.049216963 -0.006665442 0.14749217
-0.03707289 -0.07861919 0.13292806 0.1290975 -0.039383244 -0.024491504 0.16317046 -0.13247299
-0.0019361209 0.1680317 0.19881037 0.13905339 0.18705618 0.17138772 -0.06294192 0.17163832
-0.0075445115 -0.032246895 0.17813104 0.15439531 0.21035981 0.15640917 0.12981376 -0.024997408
0.13079983 -0.005730138 0.0655939 0.172957 0.15686953 0.20633729 0.11286658 0.11775351
0.18845983 0.17039242 0.18734625 -0.008211844 -0.018317053 -0.03658271 0.13461581 -0.04216867
-0.0057152817 -0.08458043 0.059967954 -0.052175786 0.1495299 0.11999275 -0.06972489 -0.018882262
-0.01098389 0.16431966 0.18543519 0.13544488 -0.017629467 0.15320784 0.16197479 0.17850709
0.16160491 -0.021928685 0.15266995 0.16732867 0.15161882 0.1563732 -0.061660923 0.1371017
0.111423135 0.1818461 -0.07097691 0.16359901 0.00026236995 -0.018819088 -0.057685465 0.12475005
0.14756294 -0.04115042 0.13069125 -0.060827564 0.17543185 -0.071775734 -0.04273979 -0.011410364
-0.061665762 0.107613154 0.118291944 -0.011824327 0.17784224 -0.049745005 0.16817783 -0.063069195
0.16137743 0.13613619 0.16851532 -0.06861883 -0.030220276 -0.06755085 0.26396826 0.15407324
-0.032146458 0.17276171 0.12882853 0.12856561 -0.017598992 0.18189369 -0.017937506 0.19374496
-0.075424634 0.16696344 0.18187459 0.1692688 0.17780964 -0.037517242 0.12197185 0.14118996
0.17559543 -0.01794712 0.12614885 -0.059362624 0.14847018 0.16273259 -0.035448555 0.18080427
0.12589595 0.17933528 0.10455775 -0.021539627 0.2090252 0.18539703 0.17012918 -0.045892805
-0.0070716976 -0.07132698 0.13531059 0.00402356 -0.025685282 0.1536712 -0.04991457 -0.0008340064
0.17102106 0.055045333 0.18292768 0.13693851 0.068305165 0.094488285 0.1798821 -0.04395695
-0.0055355253 0.16486135 -0.009546336 -0.03744386 -0.065937825 0.13476618 0.15798488 0.13163024
0.18620153 0.16069062 -0.06420058 -0.016135411 -0.03069301 0.14702131 0.13462622 -0.062293172
0.24755454 -0.06372086 0.07271895 0.18389063 0.14677042 0.14547987 -0.022474281 0.13006598
-0.084442936 -0.06038899 0.11334759 0.15992434 -0.033926945 -0.04490635 -0.06603198 -0.0485306
-0.039695665 -0.051012263 0.20659852 0.1718247 0.14437936 -0.07207177 0.13755773 0.08999164
-0.061738055 0.19671543 -0.0028064086 -0.04068757 0.20498927 -0.007304233 0.09703247 0.19965975
0.17258124 0.15175356 0.14707963 -0.01885777 0.17679627 -0.06587016 0.07734695 0.16103226
-0.04338909 -0.22166386 -0.020149712 0.16708402 0.18064347 -0.019445902 0.14460991 0.15768951
-0.07783224 -0.06069964 0.19328861 -0.045928266 -0.024299067 -0.050538592 -0.07076708 -0.0056129643
-0.014696836 0.11897544 0.15527365 0.12937668 -0.013554548 0.1772247 0.117903724 0.16968967
0.18369968 0.08759698 0.14308771 -0.05440708 0.06072115 -0.062493414 -0.06344809 0.12331109
-0.027557442 0.14244159 0.14990057 0.051548924 0.13291138 -0.046565354 -0.059243485 0.12855648
0.12470057 -0.013822055 -0.041016065 0.13117237 -0.005756864 -0.06360205 0.20041816 0.12947816

network.6.weight f4 [256, 256]
00000000: c346 3e3e 4c25 09be d35b d1bd 6c41 23bc
00000010: bf1d 403d f0f6 0cbd d68e 1bbd df77 a23c
00000020: d8da 09bd b024 e6bc fbd5 4cbe 9e89 62ba
00000030: 528e 253d fdf8 7d3d 7f53 d7bd 8a63 073e
00000040: 6644 1b3b 78d5 eebd 768b 9b3d 9413 d0bd
00000050: 91c3 44be 014d 7e3d 10d7 d5bb 6495 033c
00000060: f903 373d 8d79 183c 6cf5 1ebc ed4b 8fba
00000070: 35d4 f1bd b3c1 c2bd f538 253b b2c8 7d3d
00000080: c486 76bd 09b6 163d 4d44 0f3e d691 4abd
00000090: 0f74 e1bc acf3 59be 4b1c 29be 228c 063c
000000a0: 0e91 023c a322 81bd 5ad9 61be 8d51 bebb
000000b0: c3f8 80bd 43b2 94bd bb1a 3ebd c454 4a3d
000000c0: 0f9d 213d 0a4a 683d e581 9abe c868 593d
000000d0: 2208 1a3d 3cb0 f83d cffe 293c b45c cabc
000000e0: 9c31 4f3d 40f2 24bd 498a c0bd ebfa 603d
000000f0: 4b71 d13c 25f1 9abd c403 273d 9eb5 07bd
00000100: 8336 02bd c213 553b 3e23 f9bb 8f5c b2bd
00000110: 7257 833d 050b 84bd 756c 12bd 0102 ed3d
00000120: 359f 20bc ea3a 9a3d 56de 7b3d dab0 b8bd
00000130: 5118 413d 9483 22bd 2436 a73c 5df8 3ebd
00000140: c501 24be 10ae b23c d40b 57be 3057 0f3c
00000150: ae9b fdbd 2ca7 3a3d 4537 333d fefb a4bc
00000160: b5d0 55bd 0384 d5bc bc48 9b3e e36c 54be
00000170: 050a efbd b08f df3b 41e2 38be 4309 643b
00000180: fb46 3fbd e51f 8e3d 3661 ec38 e07f 44bd
00000190: 0d90 f83b 3b40 e7bc 69ed a6be 16d0 0abe
000001a0: 96d9 7c3d 6e8a 17bc 86a0 14be 02e5 b7bd
000001b0: 49a0 6dbc 2c7c cf3d 6250 58bd eb9c ed3d
000001c0: 6433 843c 9422 863d de52 c5bb bbe3 3a3d
000001d0: 76b5 a8bd 5112 2f3d 1120 cdbd 5221 07bd
000001e0: e381 80bd 4a6c 753d 6c41 2dbd 664a 083d
000001f0: 0069 a53d 6b32 26bd 0a56 72bc 8192 68bd
00000200: 618d 5cbd 75b7 6d3d bc19 243e a30f 233d
00000210: 7c1b 63be 8729 6fbd 4bdc 30be 0d8a 34bc
00000220: cf0b 7e3c e04c 6f3c fe5b d03d ffb2 aabb
00000230: 6b18 72bd 7022 253d 7801 20bc 5071 69bd
00000240: 56d2 2b3e fce5 46bd 0ffd 5abc 174e 61bd
00000250: 35f0 a8be 3ae8 b13d f75a 063d 0741 63bd
00000260: 00d2 623d a453 3f3d 666a c7bc d967 13bc
00000270: 249d 7a3d 11f7 bfbd 8fd8 033d 5154 603d
00000280: 8e02 b8b9 2c1d 08be f995 07bc 4094 07bb
00000290: 648e 5abd bc01 2dbd cac6 bb3b 6a35 713d
000002a0: aecf 8dbe 6c93 21bd 20b9 40be 9668 0dbc
000002b0: b73f b13c c380 bc3d 3792 c2bb d972 d63c
000002c0: 762b 7a3d 207b 8abb f4a0 31bc af54 43bd
000002d0: a70e cabc 4feb 8b3b 2b65 333d 4006 10bd
000002e0: 024d f73b 3c2c 513d fbeb bfbd e2dc c3b9
000002f0: e98c 653c d439 76bd 9dfd c7bd bc9a 72be
00000300: 1466 523d fb8b 71be 6e79 25bd 0039 babb
00000310: 6323 a8bd 8812 4b3d 9c97 0ebe 8145 f4bd
00000320: c3db b93c a931 08be 3b7f 3cbd e045 8bbc
00000330: 694f 23be 97b3 783d 1493 28be b49e 8c3c
00000340: 5ed1 84bc df6d 5f3e e8ec a43d 7424 28bd
00000350: eda2 c6bb b047 40bc 2923 663e 9f5b 093e
00000360: ccad e2bc e206 0fbd 8437 a5bd 6efe 3c3d
00000370: 0af5 a3bc 0a60 26bd 973a 333c d64d 763b
00000380: b078 47bc b264 bbbd 8dc6 da3d 6a29 773d
00000390: 2d26 8dbc 0b82 8fbd e7cb d43d 6bce b93b
000003a0: 1953 383d d1d1 74bd 68bb e33c e873 833d
000003b0: 77e2 f9be e463 ecbc a011 04bd f744 32be
000003c0: cb59 4bbc acef dbbc a378 6cbd c303 bebd
000003d0: 7e67 6ebe 4029 ba3b be98 fbbc 2b10 f13d
000003e0: 7c14 15be d9f2 e93c 60ac 3abd dc3c 973d
000003f0: 2357 1e3c a388 f4bc 7a11 72bd e72a 59be
0.18581681 -0.13393134 -0.10222592 -0.009964328 0.046903368 -0.034415185 -0.037978016 0.01983255
-0.03365597 -0.028093666 -0.20003502 -0.00086417224 0.04041893 0.06200503 -0.105139725 0.13221565
0.0023691892 -0.1166181 0.075949594 -0.10159984 -0.19215228 0.062085155 -0.0065258816 0.008031223
0.044681523 0.009306324 -0.009702068 -0.0010932662 -0.118080534 -0.095096014 0.002521095 0.061958976
-0.060187116 0.036794696 0.13990898 -0.049455486 -0.027521161 -0.2128436 -0.16514699 0.008212121
0.007969154 -0.063054346 -0.2205557 -0.0058080615 -0.062974475 -0.07260563 -0.04641221 0.049397245
0.039456423 0.056711234 -0.30177227 0.053078443 0.037605412 0.12142989 0.0103756925 -0.024702407
0.05058442 -0.04027009 -0.09401376 0.054926794 0.025566718 -0.07565526 0.040775076 -0.033132188
-0.031790268 0.0032512997 -0.007603078 -0.087090604 0.06413163 -0.06447414 -0.035747964 0.11572648
-0.009803583 0.07530768 0.061491333 -0.09018107 0.04714233 -0.039676264 0.020411558 -0.046623576
-0.160163 0.021811515 -0.21000606 0.008748814 -0.12383209 0.045569584 0.04375388 -0.02013969
-0.05220099 -0.026063925 0.3032893 -0.20744662 -0.11671833 0.006822549 -0.18055059 0.003479556
-0.04669855 0.06939677 0.00011271464 -0.047973514 0.0075855316 -0.02822887 -0.32603005 -0.13555941
0.061730944 -0.009249313 -0.1451436 -0.08979227 -0.014503547 0.10131106 -0.052811034 0.11602195
0.016137786 0.06549564 -0.0060218414 0.045627337 -0.08237736 0.042742077 -0.10015882 -0.03299076
-0.06274774 0.059917726 -0.04229872 0.033274077 0.08076668 -0.040575426 -0.014791021 -0.056780342
-0.053845767 0.058036286 0.16025442 0.039809834 -0.22178453 -0.058389213 -0.17271535 -0.011019242
0.015505745 0.014605731 0.10173796 -0.0052093263 -0.059105318 0.040316045 -0.009765975 -0.05699283
0.16779456 -0.048559174 -0.013365998 -0.055006113 -0.32995763 0.08686872 0.032801595 -0.055481937
0.055376053 0.046710625 -0.024342727 -0.008996927 0.061185017 -0.09373296 0.03218895 0.05476791
-0.00035097118 -0.13292378 -0.008275502 -0.002068773 -0.05335845 -0.042237982 0.0057304846 0.05888883
-0.2769751 -0.039447233 -0.1882062 -0.008630892 0.021636827 0.09204247 -0.0059378403 0.02617781
0.061076604 -0.0042261034 -0.010841597 -0.047688182 -0.02466519 0.0042699943 0.043797653 -0.03516221
0.007547022 0.051067576 -0.093711816 -0.0003735787 0.014010646 -0.060113743 -0.0976517 -0.23691839
0.05136688 -0.23588555 -0.040399007 -0.0056830645 -0.082098745 0.04957822 -0.13925022 -0.11927319
0.022687798 -0.13300194 -0.046019774 -0.017001092 -0.15948261 0.060718145 -0.16462356 0.01716552
-0.016213115 0.21819256 0.08052999 -0.04105039 -0.0060619027 -0.011735842 0.2247435 0.13413857
-0.027670763 -0.034918673 -0.080672294 0.04614108 -0.020014305 -0.040618934 0.010939262 0.0037583015
-0.01217477 -0.091500655 0.10682402 0.06034223 -0.017230118 -0.070072256 0.10390454 0.005670359
0.045001123 -0.05977041 0.027799323 0.06418592 -0.4880559 -0.028856225 -0.03224337 -0.1740912
-0.012411545 -0.026847683 -0.057732236 -0.09278061 -0.23281667 0.005681187 -0.030712482 0.11770662
-0.14558595 0.028558182 -0.045574546 0.07384655 0.00966433 -0.02985031 -0.0590987 -0.21207772

network.6.bias f4 [256]
00000000: b6bf e73d b804 6dbc 6306 eabc 7de9 0bbd
00000010: 75f7 0640 c472 0b40 0484 0d40 0be7 42bd
00000020: db39 b83e 1bc6 44bd ccc2 a93e a419 2fbd
00000030: 7554 0e40 b211 9ebd 7587 0d40 680b 58bd
00000040: ae85 0d40 65f3 40bd 1647 93bc 176e 0e40
00000050: fb1f 1140 aa91 c6bc 8434 0f40 9092 0f40
00000060: c9b4 d6bc 11be 1040 3b91 d8bc 1fc8 0c40
00000070: f1a3 0c40 ee7e 65bd 3102 5cbd 9050 ac3e
00000080: de05 0d40 459b 50bd 95f1 ed3e 7118 0f40
00000090: 435c 04bd 8771 b5bc 7480 ea3d 07e4 a3bd
000000a0: b43b d6bc 806b 0f40 1fc7 0d40 254b a23e
000000b0: 9f85 bbbc f1b9 8ebd 945e 0d40 1377 0e40
000000c0: 7960 9fbc 15bf 0b40 5b7f 0e40 12fe 0a40
000000d0: 4c06 0c40 4348 1040 916b 0c40 9821 35bd
000000e0: b31a 1bbd 5ef4 7e3e de5a b83e 0149 0840
000000f0: 3de3 0c40 412a 0f40 43a3 ddbc b0e5 3f3e
00000100: cb39 0d40 1054 27bd e59c 9dbc ded8 6abd
00000110: 68b6 0940 a979 0940 609e 40bd ebf8 92bc
00000120: 8045 95bd efe9 69bc 4a0d 0d40 ec6d 0840
00000130: 13ca acbc b5ce 0940 a3f4 3abd b5dc 6d3e
00000140: f13e 05bd f0b2 1fbd f4d1 06bd e7da d33e
00000150: b2cb 8fbd a908 0f40 89e2 0b40 0de7 fc3e
00000160: 02ae f03e 1bf7 28bd 735b 0f40 e140 0d40
00000170: 8dbd 0c40 c355 25bd d1c6 09bd 025a b73e
00000180: 81dc 23bd 59a7 0e40 32bd a53e ece0 0b40
00000190: 9958 0b40 22f5 0f40 2279 55bd c85f fc3d
000001a0: e452 fabc e7cf 25bd 5a6b 0e40 b71b 0a40
000001b0: 9d48 0e40 7f6f 0840 ef82 84bc c8e5 0d40
000001c0: 3dca 1040 1857 94bc 29a0 dd3f 0833 8abd
000001d0: 842e 6ebd d51a 24bd 0efe 85bd 1002 a0bd
000001e0: f549 0840 57ec 0840 28c6 0d40 228b 0c40
000001f0: 1baf 8fbd 7f5d 69bd 8a67 0940 dbb1 edbc
00000200: 0d9b 0d40 6762 b33d 3dc8 8a3e 1b2d c33e
00000210: 5497 95bc b7b3 0c40 3a01 1bbd a90a ecbc
00000220: 4e54 3b3e a8b9 d6bc a953 0b40 9c81 0d40
00000230: 1b14 0940 a1c3 0640 b071 0f40 64ce 0f40
00000240: 0ddc 0740 60b4 5d3e 52d8 01bd c30e 0b40
00000250: 9118 703e 0412 a9bc 5e3b 763e 19c9 0740
00000260: e779 4abc 9a36 0f40 d9ab 1040 c479 bb3e
00000270: d05f 0f40 acf6 53bd ad0e a33e 54c4 013f
00000280: a50a a03e 1a58 5cbd ce0e 1040 cd8c 9cbc
00000290: 4838 74bd ad4d 1dbc 9623 d6bc c13f 1fbd
000002a0: 2a34 04bd fc56 13bd d22a 0c40 2055 aa3e
000002b0: dc4c 41bd ed1d 0c40 65a0 833e 1007 07bd
000002c0: d8c4 f0bb 86f8 80bd 9995 83bd 39d1 b13e
000002d0: cbad f6bc b60b 153e bb62 0c40 4f7a 0b40
000002e0: 4a03 0840 5f02 0d40 ee8c 8fbc 0766 d1bc
000002f0: 96cc 8dbd 31de 88bd fb74 0940 6740 0640
00000300: 1831 0a40 9de2 46bd 4918 edbc 4e4b 0840
00000310: 5722 0d40 3437 0c40 50f8 42bd 22df a93e
00000320: 02f2 0840 f52b 0e40 a594 0e40 675d 0840
00000330: 5077 0d40 aae4 6abd 92d2 03bd 2465 8c3e
00000340: 84dd 19bc a907 253f c8f0 bcbc 86af 0940
00000350: 0d99 67bd 01ac 26bd 9b7c 94bc 7c78 e9bc
00000360: 5d5b 993e f67e f83d 3762 31bd 4ca5 0f40
00000370: 2f82 0a40 7d7e 0a40 221a 8b3e 4816 ca3e
00000380: 6a37 a6bd b327 1040 ebb9 0c40 d05e 84bd
00000390: 8342 0840 1dd2 bfbc d60d 0f40 1bfa 0d40
000003a0: 32ed 1040 1fe4 8d3e 72bf 43bd 0c39 0740
000003b0: 9261 0740 9d0c 56bd 54f7 86bd c3c8 0d40
000003c0: d8a6 0e40 3136 0c40 f113 0b40 0694 49bd
000003d0: 6ba2 0f40 8540 0e40 565a 5cbd 6aa7 03bd
000003e0: 5285 c03e 5b40 babc 3274 dcbc b602 a7ba
000003f0: cdb3 a93e ad0c 9bbd 6537 873e dc2f 0640
0.11315863 -0.014466457 -0.028567499 -0.03415822 2.1088536 2.1788797 2.2111826 -0.04758362
0.3598164 -0.04804049 0.3315643 -0.042749062 2.2239048 -0.07718219 2.2113926 -0.052745253
2.2112842 -0.04710712 -0.017978232 2.2254694 2.267577 -0.02423938 2.2375803 2.2433205
-0.026209252 2.2616007 -0.026436439 2.1997144 2.1975062 -0.056029253 -0.053713027 0.33655214
2.203483 -0.050929327 0.46473375 2.2358668 -0.03231455 -0.02214886 0.11450282 -0.08002477
-0.026151516 2.2409363 2.2152784 0.31697956 -0.022890864 -0.06969059 2.2088976 2.2260177
-0.019455181 2.1835377 2.2265232 2.1717572 2.1878843 2.2544105 2.1940653 -0.04422149
-0.03786726 0.24897906 0.36006826 2.1294558 2.2013695 2.236954 -0.027055388 0.18739963
2.2066524 -0.040851653 -0.019239852 -0.057335727 2.1517582 2.1480505 -0.04702604 -0.017940959
-0.07288647 -0.0142769655 2.203936 2.131709 -0.02109245 2.1532414 -0.04564346 0.23228724
-0.03253073 -0.038989007 -0.03291507 0.41377947 -0.07021274 2.2349036 2.1857016 0.49395028
0.47007757 -0.041251283 2.2399566 2.207085 2.1990693 -0.040364992 -0.03363687 0.35810858
-0.04000521 2.228964 0.32370907 2.1856031 2.1772826 2.2493367 -0.052117474 0.12322956
-0.030557103 -0.040481474 2.2253022 2.1579416 2.223182 2.1318052 -0.016175715 2.2171497
2.2623436 -0.018107936 1.7314502 -0.06748015 -0.05814983 -0.04006465 -0.06542598 -0.078128934
2.129514 2.139425 2.2152195 2.195992 -0.070158206 -0.05697393 2.1469445 -0.029015472
2.2125885 0.08759003 0.27105895 0.3812035 -0.018260635 2.198469 -0.037842967 -0.028813677
0.18293878 -0.026211575 2.1769812 2.2110357 2.1418521 2.1056902 2.241314 2.246972
2.1228058 0.21650839 -0.03170044 2.172776 0.23446871 -0.020638473 0.24046084 2.121649
-0.012358165 2.2377076 2.2604887 0.36616337 2.240223 -0.051748917 0.31847134 0.506902
0.3125812 -0.053794958 2.2509036 -0.019110108 -0.059623986 -0.009601039 -0.026140016 -0.03887916
-0.03227631 -0.035971627 2.1901135 0.3326807 -0.04719244 2.1893265 0.2570831 -0.03296572
-0.0073476844 -0.06297402 -0.06425018 0.34729937 -0.030112168 0.14555249 2.193526 2.1793401
2.1252007 2.2032697 -0.017523255 -0.025561346 -0.06923787 -0.06683005 2.147765 2.0976808
2.1592464 -0.04855596 -0.028942244 2.1295962 2.205221 2.1908693 -0.04760009 0.3317805
2.139771 2.221433 2.2278225 2.1307008 2.2104073 -0.057346977 -0.032183237 0.27420914
-0.009391192 0.64464813 -0.023064032 2.151338 -0.056542445 -0.04069138 -0.018125823 -0.028499834
0.29952517 0.12133591 -0.043306556 2.244464 2.1641958 2.1639702 0.27168375 0.39470124
-0.08116038 2.252423 2.1988475 -0.064633965 2.1290596 -0.02341562 2.2352195 2.2183902
2.2644773 0.27713105 -0.04779 2.1128569 2.1153302 -0.052258123 -0.06590143 2.2153785
2.2289333 2.1908076 2.1730921 -0.04921343 2.2442882 2.222688 -0.05379709 -0.03214208
0.37601715 -0.022735765 -0.026910875 -0.0012741897 0.3314499 -0.07570777 0.2640945 2.096671

network.8.weight f4 [3, 256]
00000000: 2ce4 993e fd01 f8bb 8d99 15ba 69da 2c3b
00000010: 2143 ee3e fb83 fa3e 0836 d93e 8c73 333d
00000020: 982e 01bf 0f50 12bd 1be6 e7be 26e9 f23b
00000030: e590 d93e 13c7 6a3c c2e9 003f c117 cbbc
00000040: bf47 ee3e e6a8 c1bb 6a44 32bd 9044 ec3e
00000050: 5e7c df3e 68c0 a1bc 1e99 de3e dba6 e53e
00000060: 1738 1cbd 4a44 de3e 4425 1b3d 5cc2 ec3e
00000070: a3c3 f23e 7595 313c a5ad b23c 08e1 d6be
00000080: 3c28 d73e deee 31bd 9fac b73f 04de e83e
00000090: 9c8d cb3b d60c 063c b1c8 383e 43f3 20bc
000000a0: 893c 4e3c 067b d63e 9ffb e23e efa9 87bd
000000b0: 2242 88bc 9e96 9fbc 07e3 e33e d112 d73e
000000c0: 012c 5dbd 68cd d73e 88bd e43e 3859 e73e
000000d0: d42c cc3e 7606 de3e 36a9 d23e 9ba1 cebc
000000e0: 8b42 9b3c fd1c 8bbe 0f0a a1be 45ad ed3e
000000f0: 293c e13e 787f de3e baa3 4bbc f90e 003f
00000100: b856 ce3e 5841 19bd 4474 24bc ce88 673c
00000110: 3af7 053f 1364 133f 2dce bc3c 8043 ebbc
00000120: 195d 52bd 8c57 91bd 85dd e23e d04d e83e
00000130: ada1 fabc 40ac df3e 181a 9dbb bccc 20be
00000140: c06f 09bc 1809 0a3d 74a3 3fbc ae1b 073f
00000150: ca90 f6bc e95d e33e 65db c63e 2162 c03f
00000160: 1c43 ccbc 11d3 51bc 068e ea3e 645b de3e
00000170: 9843 e63e e793 96bc 81ed 4a3d 6f5f 02bf
00000180: 6114 37bd f2f4 f03e ca99 f4be 02a9 c73e
00000190: c50d ed3e 16b9 ea3e 8cd2 6c3c 8b22 04be
000001a0: 9617 a0bc 7297 033d 757b d53e 7f5d e83e
000001b0: 7a87 eb3e 2e2e ff3e 9a0b b5bc 45dd e63e
000001c0: 07e1 d43e da11 293c ae7b b53f 24ad 463b
000001d0: 1d2c 583c c9c3 273c 2344 ffbc a5fc 45bd
000001e0: d34b e43e 16fe 043f 5010 fb3e a9b8 f03e
000001f0: 33f7 1cbd 4547 003d 1e92 e83e 67ba 74bd
00000200: 1a27 e13e c3c1 2f3e 1e63 25bd f8d1 c5bd
00000210: d03e 383e e373 cf3e d176 b4bb 7835 56bc
00000220: 9a0d 873d 1b88 74bb a64b eb3e 62ec e63e
00000230: 97c0 cd3e f158 193f fa6e e13e 22e5 d93e
00000240: 4ed8 e93e d0d6 1bbe 1ee5 3bbd 17f9 cc3e
00000250: 42d6 9dbe 8662 2a3c 03b2 503f 4276 f33e
00000260: 1ca7 c7bc 2f72 d23e c7c4 e63e 42e2 933f
00000270: ebd1 e43e 449b 0ebd 02b0 e2be 0dbf ec3d
00000280: 70fe aabd ca8b 35bc 4a55 d43e 431d aabb
00000290: 4f9d 1ebd af39 bcbc c8a2 d73c 6cb4 85bd
000002a0: d88d 5fbb 6534 22bc ecf6 db3e aebe f8be
000002b0: e6ec 18bd 3d1a d13e 6b2d 56be 6af6 36bc
000002c0: c61a 17bd 0432 e43c 57fa 493c 3636 e2be
000002d0: 6a05 28bd 3416 fe3e fe5c eb3e b168 da3e
000002e0: b1ee fa3e 2e32 d43e ad07 863b f78b 543d
000002f0: 08aa 9cba 718f 8a3d 07cc dc3e 0fb1 f43e
00000300: 8ffb c23e 3989 3fbd 93c1 6fbd 4245 d63e
00000310: 4bae d03e f79a c83e 1417 393d d57a afbe
00000320: f76f ce3e d0e6 ed3e eb93 dc3e c085 ff3f
00000330: ff81 f13e 85c6 333d 2b3f 58bd ee91 cdbe
00000340: f6f0 97bd 9bf3 1c3f f03a f93b 5dba f83e
00000350: 06e8 3c3d 208c 74bd a45f 013d 789e 4dbc
00000360: 0cdc 9d3e ff11 0fbe 9472 febc 2e3d d53e
00000370: 0058 e13e 1fb7 e13e 13c4 b13e 111a 833e
00000380: f85d 64bd 0cbe dc3e 9a92 e73e 83a7 e03b
00000390: 8675 ec3e 6aec cebc b70e e83e 5d57 e33e
000003a0: 2715 d03e bc13 42be 7368 30bc 65e3 e43e
000003b0: 770f 003f c113 9fbc 4758 c0bc 9f08 d73e
000003c0: 3af5 d83e aa3d cd3e ae12 dc3e c659 59bd
000003d0: 6cbc d43e cc6c ef3e 2f7b d0bc 8cc1 2a3d
000003e0: ffae 523f 66c8 243d be80 16bd 8b6a cc3d
000003f0: b58d af3f e076 9e3c a318 ce3e 22ac e63e
0.30056894 -0.0075685964 -0.000570678 0.00263753 0.4653559 0.48928818 0.42424035 0.043811366
-0.5046172 -0.03572088 -0.45292744 0.0074130474 0.42493358 0.01432969 0.50356686 -0.0247916
0.46539113 -0.005910027 -0.043522276 0.4614606 0.43649572 -0.019745067 0.43476194 0.44853863
-0.03813943 0.43411475 0.037877336 0.46242034 0.47414884 0.010838856 0.021811316 -0.4196856
0.42022884 -0.043440692 1.4349555 0.45481884 0.0062119495 0.008181771 0.18045308 -0.009823623
0.012587675 0.41890734 0.44332597 -0.06624209 -0.016633097 -0.019481 0.44509146 0.42006543
-0.053997044 0.421489 0.4467585 0.45185256 0.3987795 0.43364304 0.41144723 -0.025223544
0.018952629 -0.27170554 -0.31452987 0.46421257 0.4399121 0.43456626 -0.012429172 0.50022846
0.40300536 -0.037415832 -0.0100374855 0.014131738 0.5233036 0.57574576 0.023047531 -0.02871871
-0.051358316 -0.07096776 0.4430963 0.45371866 -0.030594671 0.43686104 -0.0047943704 -0.157031
-0.00838846 0.03370008 -0.011696685 0.5277661 -0.030098338 0.44407585 0.3883926 1.5029947
-0.024934344 -0.01280667 0.4581148 0.434291 0.44973445 -0.018381072 0.049542908 -0.5092687
-0.04469717 0.47061878 -0.47773582 0.3899613 0.46299568 0.45844334 0.014454495 -0.12903802
-0.019542497 0.03212685 0.41695753 0.45383832 0.46001798 0.4983992 -0.022100259 0.4509069
0.41577932 0.010319198 1.4178369 0.0030315602 0.013194111 0.01023955 -0.03116042 -0.048336644
0.445891 0.51950204 0.49035883 0.47015885 -0.038321685 0.031317968 0.4542398 -0.05974808
0.43975145 0.17163758 -0.04037773 -0.09659189 0.17992711 0.40518102 -0.005507328 -0.013074271
0.06594391 -0.003731257 0.45956153 0.4510222 0.40185997 0.5990134 0.4402998 0.42557627
0.4567284 -0.15218663 -0.0458728 0.4003379 -0.30827528 0.010399466 0.81521624 0.4755116
-0.024371676 0.4110274 0.45072004 1.1553423 0.44691405 -0.03481604 -0.44274908 0.115598775
-0.08349311 -0.011080692 0.4147132 -0.0051914765 -0.03872424 -0.022976724 0.026322737 -0.06528553
-0.0034111645 -0.009900187 0.42961824 -0.48582977 -0.0373353 0.4084033 -0.20915763 -0.011167148
-0.036890768 0.02785588 0.012327752 -0.44181985 -0.04102079 0.49626315 0.45969385 0.42657998
0.49010232 0.41444534 0.0040902705 0.051891293 -0.0011952529 0.067656405 0.4312441 0.47791335
0.3808255 -0.046761725 -0.058534216 0.41849715 0.40757975 0.3918073 0.045188025 -0.342734
0.40319797 0.46465158 0.43081602 1.9962692 0.47169492 0.043890495 -0.052794617 -0.40150398
-0.074190065 0.6130921 0.007605903 0.48579684 0.046119712 -0.059703946 0.03158535 -0.012549989
0.30831945 -0.13971709 -0.031060494 0.4164824 0.4401245 0.44085023 0.34719905 0.25605825
-0.055753678 0.43113744 0.45229036 0.0068559065 0.46183413 -0.025259215 0.45323727 0.4440259
0.40641138 -0.1895284 -0.01076709 0.44704738 0.500236 -0.0194186 -0.023479594 0.41998765
0.42374593 0.40086108 0.42983 -0.05306413 0.41550004 0.46762693 -0.025449364 0.041688487
0.8229827 0.040230177 -0.036743872 0.09981259 1.371512 0.019343793 0.4025317 0.45053202

network.8.bias f4 [3]
00000000: 7e22 a03f 03d7 a83f 4e1c ed3f
1.2510526 1.3190616 1.8524263
