mountaincar_cl_project/mountaincar_cl/runs/abrupt/egp/seed_2/online_stream_model.pth (torch, 535757 bytes, 8 tensors)

network.0.weight f4 [256, 2]
00000000: 8713 9d3d 2df8 b9bf 1055 293d 8c4d ffbf
00000010: afee 3a3e c33f c3bf 4337 eb3e 7189 22bf
00000020: 5715 c93e ef5e 8d3f d7ff 293d e7a0 53bf
00000030: 2294 843e 0b68 143f 4b7e 0fbf d78f a2be
00000040: fd95 103f baf3 76bd 0e2f 553e d689 8b3f
00000050: c73d 133d faa6 89bf 001f d0bd 871a f6be
00000060: 4bfb 0dbd a0cb d0bf 3ace 1f3f 19b6 6e3f
00000070: 825f be3e 6a22 be3e d913 b43b 42fe fc3b
00000080: 6dc4 233f 8189 c3bf e8af b4be 7d0c bfbf
00000090: ba6b 8c3e 6cf0 34be 8d1a 173d 08c8 eebf
000000a0: ae7b e03e ea0b a23e 4683 70bc dc0c e2bf
000000b0: 3baf 27bf b52d 9dbf afe1 d23d 3558 e3bf
000000c0: c7df 88be 4be6 06c0 70a3 e3bc 7637 9bbf
000000d0: a034 77bd 4c4a 18bf 4228 c63e 7fd9 26bf
000000e0: 425f 3a3d f8fc 9dbf ca44 cb3e 64f9 123e
000000f0: ac8b f5be 309c 9abf c242 9ebe 54c1 153c
00000100: d5da 00bf 4cc0 423f 5412 15be 003a 743e
00000110: 33bf c6bd 9ca9 05c0 21f7 d43e 6852 44bf
00000120: b683 0ebf 9949 0c3f f6fc cc3e c0b6 1dbc
00000130: 4b06 ef3e c304 9b3f df11 80bb b5ad 07c0
00000140: 14cb 163e 0fc6 283f f7b8 0abf e498 473f
00000150: d7d0 543f fc70 563f c0d9 1e3c 48fa 49be
00000160: 03d4 fa3d 3d49 03c0 f7ed 1a3f 323c de3f
00000170: d0cb dc3d 4baf eabe d36a 253f 4c30 9d3f
00000180: 4426 05be 13d7 193f 1cd2 003d 7d96 11c0
00000190: f05e 9ebd 514b 1cbf 128d f2be 565a 87bf
000001a0: 1535 4a3f 493c 183f 4875 1f3e b345 263f
000001b0: 3113 34bd b296 e9bf 0d56 283f 940c 6a3e
000001c0: ac86 773e 703c 88bd b592 873d aa98 d1bf
000001d0: c25b fa3e e9f2 c4be 1195 c43e 3c41 923f
000001e0: b41a e33e 34c2 2c3f 15fe 593e f4bb 0fc0
000001f0: 57a5 fa3d 8dec a2be a487 5e3e c6bc 9d3e
00000200: 3e70 c93e 93b3 093f 8a58 8a3e 39b4 183f
00000210: f88b c03e e9dd 763f 8084 d93c 98df c8bd
00000220: 6f22 2c3e b304 b7bf c4a3 363d bcdd d7bf
00000230: 6be2 113d 1386 e6bf d43f 08bf 502c 76bf
00000240: 7aaf f23c b191 afbf 5447 55be c635 02c0
00000250: 65de dc3c f7cf bcbf 8eed 3d3f efed 0e40
00000260: c672 343f 29ae a8be ec97 99be f0e9 a4bf
00000270: 7d9b 133f f11d e53f 3963 403f 5467 b03e
00000280: d8d5 033d 5465 d6bf 48e4 b13d 089d 1fbe
00000290: 6507 a13e e2ff ce3f 3acc 953e 4a67 2740
000002a0: 8022 e13e bf59 e83f 6077 4b3d ae61 f6bf
000002b0: 3032 9dbd 80d8 ac3d b353 b33d 3339 c1bf
000002c0: 91d3 a53c 15cc 0ac0 4186 1f3f cd1e 213f
000002d0: 33aa 2c3e 4229 1abf 3b63 993e 6983 f53e
000002e0: 1482 473f a7f5 0340 0cd2 b1be 263c 01c0
000002f0: a4fb 00bd f008 30c0 b8e7 c93e 6e88 bebf
00000300: 3067 1e3d 45fe e0bf 4835 973d 6565 d0be
00000310: 931a c03d 41df bdbf e0e7 1e3d dd58 9dbf
00000320: 6d4f 87bd b565 f8bf 70ac 523d b640 e43e
00000330: 0923 c0be 462a 1cbf 7b6a 103f d7e8 da3f
00000340: f20e e33e 43e0 5e3f dc75 9bbe 4d75 7bbf
00000350: a2ba 08bf d003 5abb 2022 fe3c 81ed 83bf
00000360: 98a0 543e bd31 17bf cf7f 08bf 29f1 e93e
00000370: 18f3 f8bd 196e b9be 0086 c1bb 57bb 26bf
00000380: 0038 433d 2c91 26bf 74b4 5ebe c05f 4f3d
00000390: d34f aebe 66f3 c1bd 716e 923d 5045 e8bf
000003a0: 53ca 683f f846 cc3f afc9 c6be 4488 f03e
000003b0: 0a7b b23e 27c9 503d d676 e7be 5e87 043f
000003c0: 0d0e 77be 4d36 ba3c 00d1 ed3b b618 fd3e
000003d0: c780 0d3e 4d79 d6bf e637 013f 2bea b73f
000003e0: 400f e23e d27e 57bf 5bd7 28bf 82c0 fabe
000003f0: f85b 1ebe 9c47 2a3f 0882 403e 5688 10bf
0.0766974 -1.4528862 0.041340888 -1.994554 0.18255113 -1.5253834 0.459406 -0.6349097
0.39274094 1.1044596 0.041503754 -0.8266739 0.25894266 0.57971257 -0.5605208 -0.31750366
0.56478864 -0.06029103 0.20818731 1.0901439 0.035947587 -1.0754082 -0.10162163 -0.48067114
-0.03466348 -1.6312141 0.6242405 0.9324661 0.37182242 0.3713563 0.00549553 0.0077207396
0.63971597 -1.5276338 -0.35290456 -1.4925686 0.2742594 -0.17669839 0.036890555 -1.8654795
0.4384436 0.31649715 -0.0146797355 -1.7660174 -0.65501755 -1.2279574 0.10296952 -1.7761294
-0.2673323 -2.107806 -0.027787894 -1.21263 -0.06035292 -0.5948837 0.3870259 -0.6517562
0.045501 -1.2342825 0.3970092 0.14352947 -0.47958124 -1.2078915 -0.30910307 0.009140331
-0.5033391 0.7607467 -0.14557773 0.2385025 -0.09704437 -2.0884771 0.41594794 -0.7668824
-0.55669725 0.547998 0.40036744 -0.0096260905 0.4668449 1.2110828 -0.0039083804 -2.1199772
0.14725906 0.65927213 -0.54188484 0.7796767 0.83131164 0.8376615 0.00969547 -0.19724381
0.12247469 -2.051345 0.60519356 1.736212 0.10781062 -0.45836863 0.64616126 1.2280364
-0.13002878 0.600938 0.031450376 -2.27481 -0.07732952 -0.61052424 -0.47373253 -1.0574443
0.78987247 0.5946699 0.15572083 0.649501 -0.043963615 -1.8249114 0.65756303 0.2285636
0.24172467 -0.066521525 0.06619779 -1.6374714 0.4889813 -0.38466576 0.3839498 1.1426158
0.4435631 0.6748383 0.21288331 -2.2458467 0.12238567 -0.318211 0.2173143 0.30808085
0.39343446 0.53789634 0.27020675 0.5965 0.37606788 0.9643236 0.026552439 -0.09808272
0.1681001 -1.4298309 0.044589773 -1.6864543 0.03561632 -1.8009666 -0.53222394 -0.96161366
0.02962469 -1.3716336 -0.20827991 -2.034532 0.026961515 -1.4750966 0.74190605 2.2332723
0.7048763 -0.32945374 -0.2999872 -1.2883892 0.5765913 1.7899762 0.751514 0.34453833
0.03218636 -1.6749673 0.08686119 -0.15587246 0.31450954 1.6171839 0.29257375 2.6156793
0.43971634 1.8152388 0.04967439 -1.924856 -0.07675588 0.084397316 0.08756199 -1.5095581
0.020242484 -2.1687062 0.6231423 0.62937623 0.16861801 -0.60219204 0.2995852 0.4795182
0.7793286 2.0618684 -0.34730566 -2.0192962 -0.031489983 -2.7505455 0.394346 -1.4885385
0.038672626 -1.7577597 0.073832095 -0.40702358 0.09380069 -1.4833757 0.038795352 -1.2292744
-0.06606946 -1.9406039 0.05143398 0.4458062 -0.3752673 -0.61002004 0.56412476 1.7102307
0.4434734 0.87060946 -0.30363357 -0.9822586 -0.5340978 -0.0033266433 0.031022131 -1.0306855
0.20764387 -0.5906027 -0.5332002 0.45691803 -0.121557415 -0.3621681 -0.0059058666 -0.6512961
0.047660828 -0.65065265 -0.21748525 0.050628424 -0.34045276 -0.09470253 0.07149971 -1.8146152
0.9093372 1.5959158 -0.38825747 0.46978962 0.34859496 0.050973084 -0.45207852 0.51769054
-0.24126454 0.02273097 0.0072575808 0.49432915 0.13818656 -1.6755768 0.5047592 1.4368337
0.4415226 -0.8417789 -0.65953606 -0.48974997 -0.15464771 0.6651552 0.18799603 -0.5645803

network.0.bias f4 [256]
00000000: ffa0 f83d 690d 093e 8796 4e3e c055 5e3e
00000010: 1bd7 223e 82be 893d 213e 08bf f821 f2be
00000020: c748 0a3e 05ee d13d e8bb a03d a23d fabe
00000030: 9883 cabc b180 c8bd 3439 06bf 2699 1dbc
00000040: a5db 8c3e 4f03 46be b09a 1cbf b4bc 003e
00000050: 9a27 ebbe 758f 9cbc effa a9be ce87 1e3e
00000060: 3cdd 34be 0bf7 783d 8217 d7be 132d adbe
00000070: 2321 b63d e37e cdbe 246e 91be 0a3e 08be
00000080: e5d0 1bbf 564c 95be ac79 ddbd ac70 173d
00000090: 9d2d 2bbf 8cce f3be 4216 323d 80b8 fe3d
000000a0: f82d 55be b682 27bf 68cf 44be 16f3 e0be
000000b0: 45b6 443d 2940 9ebd 6049 11bf 59c1 6c3e
000000c0: a0cf 14bf 35d9 df3d 2d8f 28bf 4067 a1be
000000d0: 7324 26be fb1c cabe 806e 07bd f7f9 1bbf
000000e0: fdff 0abf 868a f63d 5ba8 2fbf 16c9 413e
000000f0: d6c6 df3d 4558 823e b6b5 87bd d55e 88be
00000100: 3fa7 2ebf 0b59 d2be bd7e ae3d da07 6abe
00000110: 6f84 2b3d 36f4 ec3d 3589 e53d 73e5 dcbe
00000120: 32b3 c03d 81cd 09be 73d7 c83d fbe0 1fbd
00000130: d59e b53d 0edd 29be 9bc9 b13c dfda 283e
00000140: b721 d33d e2f6 fcbe eec9 a1bc b16e 053e
00000150: 854a 4d3e c8f0 093e 321c 0abf fc88 1d3d
00000160: e08a 003e 5dfa 0abf b460 d5bb ab48 c93d
00000170: 49c6 65bd 7078 8ebe 8774 2abd 9c43 383e
00000180: 3f02 ed3d 105c 22be 0554 1e3d d681 af3d
00000190: 0639 47bd 5faf 19bf 007a bdbe 6d19 de3d
000001a0: fb5c 533d bf2c 85be ecd5 24bf 9efc 913d
000001b0: ba84 ecbe 4272 8cbe 1c75 16bf a0dc c3bd
000001c0: 58bd c1bd 01f6 bcbe 5fc2 e4be 00f7 073e
000001d0: a871 3cbe aa34 55be 06ef 9bbd 0422 80be
000001e0: 3081 c4bd 98cf 29be dc08 313e 5ff1 cfbc
000001f0: d2c0 553e c147 03bf cef7 54be e8be 11bf
00000200: 8ff3 dabe 627b 66bd efba 4a3e 8ccf 06bd
00000210: 2be9 47be b7a1 31bf f587 ab3d 8bf3 023e
00000220: ff4b 803d 088d 0a3e b260 20bf 57ac 1fbf
00000230: eb7d fd3b 80f2 fbbe 64c7 34bf 85f0 50bd
00000240: 3b3b 883c b289 0d3e 72d0 a63c 46d6 5bbe
00000250: 888e 74be a477 2cbf c796 9cbe a66f 2cbd
00000260: c68a bfbe 08dd 6b3d 335e eb3c 25f5 91be
00000270: 87a2 003e a899 9bbe a43c 483e 8eb0 56bd
00000280: 946a 0ebf d3f5 123d 3e21 033e c80c 6dbe
00000290: de87 1a3e 26be 27be 72cf 82bd 74c0 ec3d
000002a0: bd61 80ba 9839 13bf c3d0 a0be 7183 f23d
000002b0: e82e 783e 8e78 203e f22f 633e 77dd 8f3d
000002c0: 3e7a e8bc d72a 0e3e a568 2bbe 1528 a13d
000002d0: 0165 ccbd c88b 473e 23ba d2be 5444 84bc
000002e0: 6802 21bf a1a9 a33d b53b 0d3d 4158 61be
000002f0: 9235 bebe 7a52 dabc 811c b03d 0f7a 6abd
00000300: 202d 043e 852b d93c 7b7b 2fbf a9e8 17bd
00000310: ca7e ffbe a09c 343e 88dd 47bd f4ed 25be
00000320: 297a fdbe e80e fdbd 342e e93d c5fc 0a3e
00000330: 76c5 8e3d f31f 2ebd 70a8 913e f67c 433e
00000340: d993 3e3e bf84 72bd 1a58 34be 2d69 3dbf
00000350: 9610 523c 928a 9b3e ae91 2b3e 0c9d 173e
00000360: b8c3 2fbf 92ff b2bd 5e5d 5b3e a81d e93d
00000370: 03d4 2ebf 7c15 e7be 031e 1dbf f3e7 033e
00000380: 25e9 1dbf 4be7 19bf 8e83 713d 9a2d 8f3e
00000390: 7adb c0be 7ab3 7cbe f19b 073e 4199 093e
000003a0: 4cff 48be 2def 5ebd 1289 bd3d 14ed e93d
000003b0: 6231 b4be 8ca8 22be 657c 163e ac74 46be
000003c0: 7a43 33bf 6a55 2abf 8177 15bc 28af dc3d
000003d0: 72f8 1dbf 8c53 0dbf fd89 09bf 8236 1d3e
000003e0: cbcb f4bd 72d9 49be 1e53 afbe 727d 20bc
000003f0: 736b 0dbd eb5a 293d a2ad 9e3d cff8 20bf
0.121400826 0.13384022 0.20174609 0.21712399 0.15902369 0.067257896 -0.532198 -0.4729154
0.13504325 0.10250477 0.0784834 -0.48875147 -0.024720952 -0.09790171 -0.52431035 -0.009619033
0.27511325 -0.193372 -0.61173534 0.12571985 -0.4592865 -0.019111374 -0.3319926 0.15481493
-0.17662519 0.060782474 -0.42010123 -0.3382345 0.08893039 -0.4013587 -0.28404343 -0.13304916
-0.6086562 -0.29159802 -0.10814223 0.036972687 -0.66866475 -0.4761852 0.043478258 0.12437534
-0.20818317 -0.65433824 -0.19219744 -0.4393546 0.04802539 -0.07727081 -0.56752586 0.23120631
-0.5812931 0.10930101 -0.6584347 -0.31524086 -0.16224842 -0.39475235 -0.033064365 -0.6092829
-0.5429686 0.1203814 -0.68616265 0.18924364 0.10926597 0.2545797 -0.066264555 -0.2663485
-0.6822395 -0.4108356 0.08520267 -0.22854558 0.041874345 0.11570017 0.11207811 -0.43143806
0.09409179 -0.134573 0.09806719 -0.039032917 0.088681854 -0.16588232 0.021702578 0.16489743
0.10309165 -0.49407107 -0.019749608 0.13030507 0.20047958 0.13470757 -0.5394927 0.038460717
0.12552977 -0.54288274 -0.006511772 0.098283134 -0.056097303 -0.27826262 -0.041615035 0.17994541
0.11572694 -0.15855432 0.038654346 0.08569686 -0.048638366 -0.6003322 -0.3700714 0.10844693
0.051602345 -0.260107 -0.6438892 0.07128261 -0.46195012 -0.27430922 -0.58772445 -0.09563565
-0.094599426 -0.36906436 -0.44679543 0.13277817 -0.18402731 -0.20820871 -0.076139495 -0.25025952
-0.09594953 -0.16583097 0.17288536 -0.02538365 0.20874336 -0.5128136 -0.20797655 -0.56931925
-0.42763945 -0.05627001 0.19797872 -0.032912776 -0.1952254 -0.6938738 0.08375541 0.12788217
0.06264495 0.13530362 -0.62647545 -0.62372345 0.007735958 -0.4920845 -0.70616746 -0.051010627
0.016629806 0.13822058 0.020363066 -0.21468458 -0.23882496 -0.6737006 -0.30583784 -0.042098664
-0.37410563 0.05758384 0.028731441 -0.28507343 0.12562 -0.30390668 0.19554383 -0.05241447
-0.55631375 0.035878967 0.1280565 -0.23149407 0.15090892 -0.1638113 -0.06387223 0.11560145
-0.0009794753 -0.57509756 -0.31409273 0.11841477 0.24236643 0.15670988 0.22186258 0.07024663
-0.028378602 0.1388353 -0.16739137 0.07868973 -0.099802025 0.19486916 -0.41157636 -0.016145863
-0.62894297 0.079913385 0.03448077 -0.22006322 -0.37150246 -0.026650656 0.08599187 -0.05724531
0.12907839 0.02651001 -0.6854779 -0.037087116 -0.4990142 0.17637873 -0.048795253 -0.16204053
-0.49507263 -0.12356359 0.11385766 0.13572986 0.069712564 -0.042510938 0.2844882 0.19090638
0.18611087 -0.059208628 -0.17611733 -0.7398861 0.012821337 0.30379158 0.16754791 0.14806002
-0.6865802 -0.087401524 0.21422336 0.113826096 -0.68292254 -0.4513358 -0.6137392 0.1288145
-0.61683875 -0.6011855 0.05896335 0.2796448 -0.37667447 -0.2467784 0.1324308 0.13437368
-0.19628638 -0.054427315 0.0925466 0.11422172 -0.35193926 -0.15884608 0.1469589 -0.19380444
-0.70024836 -0.6653658 -0.00912273 0.10775596 -0.6170722 -0.5520561 -0.5372618 0.15352824
-0.11952933 -0.19711855 -0.342431 -0.0097955335 -0.0345263 0.04134647 0.077479616 -0.6287965

network.3.weight f4 [256, 256]
00000000: dbe1 493d 4fb7 993c 62b8 4cbd 88bf 21bd
00000010: 52ad 1fbd e2a4 0abd 3485 0a3d f5f8 c33c
00000020: 4588 963c 3ab4 85bd 3a18 21bd c83a 21bc
00000030: 600c 69bc d0bf 8a3c 40d7 27bd 0d18 9bbc
00000040: d2ee 02bd b48e a0bc cce6 febc 11e7 ffbc
00000050: 1075 c23c d1c9 36bd 477f 51bd 063b f4bc
00000060: 5ad5 15bd 6f7c 13bc 9c07 4dbd 00ab a2bc
00000070: c1ed 62bd 445d db3c cf12 5bbd 5108 1b3b
00000080: f6f8 50bd 70cb 3c3d bca5 3bbd d518 d5bc
00000090: 881d c0bc 4cdd fabc 983f cf3c ba3f c53c
000000a0: 007b 9fbb 00d0 f73a 7eb7 78bd 28b6 513d
000000b0: 2dc6 183c f48b 91bc 289e be3c a59d e8bc
000000c0: d898 793c d49b 9dbb 9092 3d3d 74e7 313d
000000d0: 368d 4dbd 2cf0 94bc ea87 013c fc15 94bc
000000e0: f030 11bc 257b 8ebd 80e8 23ba 7093 0a3d
000000f0: eab2 16bd 95c0 26bd 3092 38bc ece6 a33c
00000100: a0d0 17bb 70ec 7dbd d29c 943c 6000 b9bb
00000110: d29f fd3c 5e6e a03b 3649 283d 800c 6d3c
00000120: e6ea 82bd 6356 0ebd 830b 1f3d 0c7d bcbc
00000130: 4c75 19bd ba75 8dbc 667a 533d 2e56 fb3c
00000140: add6 60bc 98e2 893c 5066 34bd 0a4c 8dbd
00000150: 061e 3b3c 8233 a83c c821 9c3c 1b07 053c
00000160: d921 e53a 12bb 673d 074f ce3c 9e91 bd3c
00000170: 5e31 10bd 0076 613d c64c edbc 9752 8d3c
00000180: 04ae 363d 8055 dabb 3f6d bdbc 9a2e 18bb
00000190: 51fa 4b3d 405f ffbc 92d8 ae3d 257c 4e3d
000001a0: 1f10 a43a 103e cfbb 0838 3c3c 9556 c63c
000001b0: c24f 523d 7dcd 45bd 0ed4 323d 90e4 e03c
000001c0: f480 ab3c 209b 7ebd 38b4 cbbc 8567 383d
000001d0: 7425 0e3d 618c 813c a288 3bbd d069 dd3b
000001e0: 3446 343d befd 093d 5493 093d 406d fcbb
000001f0: baad 09bc d470 18bd 4049 323d 54bd 783d
00000200: c05a ae3c 504c 87bc 30f1 31bc 1681 3d3d
00000210: db9f ed3c 1c4b 0abd 1650 203d c4e9 01bd
00000220: 0c8b fcbc a7e1 77bd 0e74 2fbd 3e00 1dbd
00000230: 9463 6abd dc33 90bc fe76 61bd a08b 58bd
00000240: 2a7f 3bbd 8a3a f53b 6780 40bd 64c9 40bd
00000250: 8759 80bc 3070 123d 2411 fc3c 124a 42bd
00000260: e0fd cfbc 4a24 6b3d c84a 3d3d 373c 033d
00000270: f9b7 d2bb 8c22 df3c 4914 6b3c 963d 69bd
00000280: b0e7 22bd efc6 1d3d 13fa e3bc ddcc 06bd
00000290: dd52 7bbd 79db 3ebd e52e 10bc a79e 82bc
000002a0: f648 953c 20e1 efbb cc5f 203d 2060 2dbd
000002b0: deed 08bc c372 b8bb e658 b03c 1847 f93c
000002c0: 1cd9 793d a25e 783d 7979 34bb a1ee 153d
000002d0: 58a3 a03c a8ce 103d 8475 c7bc 26a5 28bd
000002e0: 6434 753d 1cc5 73bd d786 8abd a168 2d3d
000002f0: 7425 7b3d bd79 083c d406 31bd 189c 0abd
00000300: afd4 0bbd 0d5d bbbc 18c9 08bc 1c3b 73bd
00000310: 2003 28bb 1a1c 87bd 2235 79bd 2ed6 54bd
00000320: 2485 2abd 9676 2fbd 458d 13bd 4961 0e3d
00000330: 7932 2dbd 8b0e 69bd c86d 7dbd 8e94 733c
00000340: f6e8 32bd 1e81 063a 8e38 bfbc 60c6 93bc
00000350: 5977 d7bc 82ab 023c 9cac c63c 4747 38bd
00000360: 92f0 0ebd a953 293d cd03 933c 74de 52bc
00000370: 8045 ec3c 80bb acbb f86e dd3c da2d 43bc
00000380: b8f9 8a3c d0b3 413c 4447 9abd 4dfd b3bc
00000390: 22db 58bd 4f57 9e3b 83ae 023c afc6 2ebd
000003a0: 8a32 46bd 9c46 19bd 6cf0 e9bc 4540 03bc
000003b0: 8876 353c 2822 1dbd bca0 8b3c 40c9 b43a
000003c0: 90cd c5bb b034 1c3d 7a83 cfbc 7a2f 25bd
000003d0: bec8 12bd 2071 75bc 2885 643d 3c5a e83c
000003e0: 8074 68bc b41d 853c 22db 1d3d d04b 80bb
000003f0: 2ad0 2b3d 1e47 d03c f7ad cc3c 5a9f 0e3d
0.04928766 0.018764166 -0.04998053 -0.0394893 -0.03898365 -0.03384865 0.03381844 0.023922423
0.018375525 -0.06528516 -0.039329745 -0.009840675 -0.014224142 0.016937166 -0.040976763 -0.018932367
-0.031966038 -0.019599296 -0.031115912 -0.03123811 0.02373746 -0.04462606 -0.05114677 -0.0298133
-0.03658042 -0.009001835 -0.050056085 -0.01985693 -0.05540252 0.026777871 -0.053484734 0.002365608
-0.051018678 0.04609245 -0.045812353 -0.026012817 -0.023451582 -0.0306231 0.025298879 0.024078239
-0.0048669577 0.0018906593 -0.060721867 0.05119911 0.009324593 -0.01776693 0.023268774 -0.028395483
0.015234195 -0.004809836 0.04628235 0.04343362 -0.050183497 -0.01818093 0.00790594 -0.01807689
-0.008861765 -0.06957082 -0.0006252602 0.033832014 -0.03679172 -0.040711004 -0.011265323 0.020007573
-0.0023165122 -0.061993062 0.018141184 -0.0056457967 0.030959997 0.0048959693 0.041085444 0.014468312
-0.063924596 -0.034750354 0.038829338 -0.023008846 -0.03746538 -0.01726805 0.0516304 0.030680742
-0.013723058 0.016831681 -0.044042885 -0.06899269 0.011420732 0.020532373 0.019059077 0.00811937
0.0017481401 0.05657489 0.025184168 0.023140725 -0.03520333 0.055044174 -0.028967272 0.017251296
0.044599548 -0.0066630244 -0.023123382 -0.0023221136 0.049799267 -0.031173348 0.08537401 0.050411362
0.0012517011 -0.006324537 0.011487968 0.024211207 0.051345594 -0.048291672 0.043659262 0.027452737
0.020935513 -0.062159657 -0.024866208 0.0450206 0.034703687 0.015814008 -0.0457846 0.0067569986
0.044012263 0.033689253 0.03358777 -0.0077034533 -0.008403236 -0.037216976 0.043526888 0.060727432
0.021283507 -0.01651588 -0.010860726 0.046265684 0.02900689 -0.033763036 0.039138876 -0.031717077
-0.030828021 -0.060517933 -0.042835288 -0.03833031 -0.05722387 -0.017602853 -0.05504512 -0.05286753
-0.04577557 0.007483785 -0.046997454 -0.04706706 -0.01566769 0.03575152 0.030769892 -0.04743392
-0.025389612 0.057407655 0.046213895 0.032039847 -0.0064306227 0.027238153 0.014348098 -0.0569435
-0.039771736 0.038519796 -0.027829206 -0.032910217 -0.06135832 -0.046596024 -0.008800243 -0.015944792
0.018223267 -0.007320538 0.03915386 -0.042328 -0.008357493 -0.005628915 0.021526765 0.030429408
0.060998067 0.060637124 -0.0027538224 0.036604527 0.019609138 0.035353333 -0.024348028 -0.041173123
0.059864417 -0.05951415 -0.06764 0.04233611 0.061315015 0.008329806 -0.043219402 -0.03384027
-0.034138378 -0.022871519 -0.008348726 -0.059382543 -0.0025636628 -0.06597157 -0.060841687 -0.05196207
-0.04163088 -0.0428377 -0.036023397 0.034760747 -0.042284463 -0.056898635 -0.061872274 0.014866961
-0.0436792 0.00051309343 -0.023342397 -0.018038929 -0.026302027 0.007975461 0.024252228 -0.04498985
-0.034897394 0.04133955 0.017946148 -0.01287042 0.028841734 -0.005271375 0.027030453 -0.011912787
0.016964778 0.011822656 -0.07533124 -0.02197137 -0.052943356 0.0048321853 0.007976177 -0.04266995
-0.04838804 -0.037420854 -0.028557025 -0.0080109285 0.011075623 -0.038362652 0.017044418 0.0013792887
-0.006036468 0.038136184 -0.025331248 -0.04032848 -0.035835974 -0.014980584 0.05579105 0.02836334
-0.014187932 0.016249515 0.03853906 -0.0039152876 0.041946568 0.025424536 0.024985297 0.03481994

network.3.bias f4 [256]
00000000: 8203 31bd ab08 dd3e 7557 31bd a735 5f3e
00000010: e176 df3e aa78 553e 3fc0 a33e a4a5 c33e
00000020: e636 d93e b664 e73e d70a 3dba 4237 9fbd
00000030: 52a9 47bd 2cf3 7e3e a38a 8b3e d3df d7bc
00000040: 7aaa 303e 80ef 5f3e b920 62bd 9d54 c23e
00000050: 7402 b2bc 5881 b73e 299b a53e ad7c bc3e
00000060: 59e0 713e 73c4 61bd 2681 223e 25e3 cb3e
00000070: 24dc c63e 051c e83e 433f c33e 6bc6 85bd
00000080: fde7 adbc 7ae4 2d3e 4291 cabc deb9 9e3b
00000090: 7a1f 203e 6550 c63e 882b 903e 2287 7a3e
000000a0: c7db 8b3e 3686 263e 724d cd3e d8b6 133a
000000b0: da23 61bd d4f0 d13e 2d32 79bc 3023 953e
000000c0: 40f4 473e ac4a a73e ce84 0b3d f090 853e
000000d0: c61d 553e ff0b a13e bb70 c63e c705 3b3e
000000e0: a932 913e 94b9 833e d433 f53a 5b36 ee3e
000000f0: ce53 1f3e fcef 35bd 759d 13bd de26 a83e
00000100: a4e4 14bd f91c 1abd 1208 a3bc 560f 1dbd
00000110: f82f 453e 2f16 6abc bf14 6cbd b378 523e
00000120: ee89 913e fd5c 963c ebf0 8b3e 0b96 a03e
00000130: 8b84 7abd be7a b13e 968e ce3e 0954 8fbd
00000140: 7f1d a93e bb3c 9d3e 36a5 bb39 4d17 2fbd
00000150: a716 2bbd 1a14 643d 633a 3c3e aa97 133d
00000160: f9e6 f4bc 72be 803e f7c2 943e 7e3d a33a
00000170: 1516 7a3e aaa9 e93e 3bc9 093e cbd2 8dbd
00000180: 1fd8 a83e 18a8 993e 145d d33e b393 aebc
00000190: df8d cfbd 5286 963e 1276 c93e b56a 763e
000001a0: a087 86bd e9f8 c23e 805e ce3e 1bfb b73e
000001b0: 0c91 52bd 2828 23bd 3907 94bc 2f58 893e
000001c0: 1744 31bd b48b 90bd 7946 4b3e 3b79 27bc
000001d0: 6cf3 753e d3fd b9bc 6bda 753e 8ffc 663e
000001e0: 6377 3e3e 246a 04bd 051c 973e 4ea1 b83e
000001f0: d1ff b53e ce4a 24bd 2d20 d53e 8a14 ce3e
00000200: b958 76bd 7850 05bd 7753 353e 652f d63e
00000210: 5e83 6abd 4afa d83e e58f e93e f8b0 353e
00000220: b026 ddbd 70b2 c93e cbf1 17bd 89e1 03bd
00000230: cbf1 3abd 3270 8abd a125 3fbd 659c a83e
00000240: 7ed1 ef3e 9b63 463e ec67 da3e 7761 423e
00000250: f6df 833e 7214 a13e 5987 19bd 5710 99bd
00000260: 245a d93e af9b 8c3e aa1f ca3a 174c c23e
00000270: fa02 18bd 99a3 0dbc 911e d3bc 600a a93e
00000280: 3459 e9bc a012 7d3e 9a5d 5e3d 2038 9abd
00000290: c762 cd3e 3ffa febc 1283 a93e d76a 8abd
000002a0: e829 ad3e 4691 09bc 111f 833b 0128 44bd
000002b0: a21f 4a3d c62e d43e 5d83 813e 82a1 13bd
000002c0: fbbc 833e 115c 9c3e 9b8c 943e 5cd6 5bbd
000002d0: e621 77bd 62e1 503e 4217 52bc 82e6 41bd
000002e0: 590d 7c3e f176 df3d ca94 623e fbed 8abd
000002f0: 811f c03b bf83 843e c6a5 6c3e f813 9b3e
00000300: 2a1b 973e 12d5 773e be34 4bbb 6575 8cbc
00000310: 4e73 88bd 9e06 ed3e d297 ab3e 0912 74bd
00000320: 82b1 de3e d4cb 623e 596b 4ebd 9d99 0e3e
00000330: f09f 81bd a4ed a43e 2afa 6c3e abf4 5b3e
00000340: 3c59 abbc 3501 78bd 70c7 163e e698 69bd
00000350: cc31 eb3e 30c7 d43e 8489 2f3b 584b 32bd
00000360: cd3e 35bd e526 c93e f7d8 dbbc b994 623e
00000370: 1ce1 bd3e dae1 2dbd 6f98 43bd 3ad1 29bd
00000380: 9013 5fbc cc1c 333e aeb4 12bd aa20 c73e
00000390: 0208 99bd 9fbd 803e c52f 803e 6679 9e3e
000003a0: 455e 94bc 31e2 833e 64ee 733e b653 0e3e
000003b0: e480 933e caf5 543c f8c3 e13e 1c81 d6bc
000003c0: 9560 46bd 4003 603e 4a01 a73e fe94 683e
000003d0: a39c bb3e 539d c73e ffc7 433e f27a 5a3e
000003e0: 0ece 643e 991b 2b3e 2756 ac3e 69dc b83e
000003f0: bf78 d53c cf9f 99bc 743b a8bc d24f 6f3e
-0.043216236 0.43170676 -0.043296296 0.2179781 0.43645385 0.20846811 0.3198261 0.3821231
0.42424697 0.45194024 -0.0007211393 -0.077742115 -0.04874546 0.2489745 0.2725421 -0.026351845
0.17252532 0.21868706 -0.055206988 0.3795518 -0.021729685 0.3584087 0.3234494 0.3681387
0.23620738 -0.05511899 0.15869579 0.39821735 0.3883983 0.45333877 0.38134202 -0.06531986
-0.021228785 0.16981688 -0.024727467 0.0048439344 0.15637007 0.3873321 0.28158212 0.24465612
0.27316114 0.16262135 0.4009815 0.0005634851 -0.05496583 0.4100405 -0.015209717 0.29128408
0.19526768 0.32674158 0.0340622 0.2608714 0.20812139 0.31454465 0.38757882 0.18263923
0.28358963 0.25727522 0.0018707463 0.46525845 0.15559313 -0.04441832 -0.036038835 0.32842153
-0.03635086 -0.037625287 -0.01990131 -0.038344704 0.1925658 -0.014287516 -0.057636973 0.20553856
0.28425545 0.018354887 0.27332243 0.31364474 -0.06116156 0.34663957 0.4034316 -0.0699845
0.33030316 0.30710396 0.0003579051 -0.04274683 -0.04176965 0.055683233 0.18381648 0.03603331
-0.029895293 0.25145298 0.29054996 0.0012454239 0.24422486 0.45637256 0.1345567 -0.06924971
0.32977387 0.30011058 0.4128195 -0.021310663 -0.10134482 0.29399353 0.39347893 0.24064143
-0.06568837 0.38080528 0.40306473 0.35933766 -0.05140786 -0.039833218 -0.01806985 0.2682509
-0.043277826 -0.07057896 0.19851102 -0.010221775 0.2401864 -0.02270404 0.24009101 0.22557281
0.1860023 -0.032327786 0.29513565 0.36060566 0.35546735 -0.0401104 0.4162611 0.40250045
-0.060143206 -0.032547444 0.1770762 0.41833034 -0.057254188 0.42378455 0.45617595 0.1774329
-0.10798395 0.3939395 -0.037095826 -0.03219751 -0.045640748 -0.06759681 -0.046666745 0.3293182
0.46839517 0.19373934 0.4265741 0.18982492 0.25756806 0.3146091 -0.037482593 -0.0747382
0.42451584 0.27462527 0.0015420814 0.37948677 -0.037112214 -0.008644962 -0.025771411 0.33015728
-0.028484918 0.24714136 0.054288484 -0.07530236 0.40114424 -0.031125186 0.3310781 -0.06758659
0.33821034 -0.008396452 0.004001506 -0.047889713 0.049346574 0.41441935 0.25295535 -0.036042698
0.25730118 0.3053899 0.29013523 -0.053671226 -0.060335062 0.20398477 -0.012822928 -0.04733897
0.24614467 0.10911358 0.22127071 -0.067836724 0.0058631306 0.25881764 0.23110113 0.30288672
0.29512912 0.24202374 -0.0031006779 -0.017145822 -0.066626176 0.4629411 0.33514267 -0.059587512
0.43494803 0.22148067 -0.050395343 0.13925786 -0.06329334 0.32212555 0.23142305 0.21480052
-0.020916574 -0.060548026 0.14724517 -0.05703058 0.4593643 0.41558218 0.0026784847 -0.043528885
-0.044249345 0.39287487 -0.026836855 0.22127046 0.37085807 -0.042451717 -0.047752794 -0.0414593
-0.013615504 0.17491454 -0.03581684 0.38892108 -0.074722305 0.2514467 0.25036445 0.30951995
-0.018111357 0.25758508 0.23821408 0.1389912 0.28809273 0.012998054 0.44094825 -0.026184611
-0.04843195 0.2187624 0.3261817 0.22713086 0.36642942 0.38987216 0.19119261 0.21335962
0.22344229 0.16709746 0.3365948 0.3610566 0.026058553 -0.01875296 -0.020536162 0.23370293

network.6.weight f4 [256, 256]
00000000: dd55 f43c 7661 53bb f2fc a43c 3412 873d
00000010: 33ce 42bd f582 8f3d 4dda 99bc c304 d93d
00000020: 0e75 cb3a 0db3 33bd a804 77bd 2a63 7e3b
00000030: 8845 fa3b f888 263d 1be6 f13c b28a 793c
00000040: 118e f4be 09bb 8bbc a71d 3f3d 913d 003e
00000050: ffab aa3c 9d83 4e3d ac23 513c fbee 503b
00000060: 2609 a33c 0005 8e3d 8fa7 28be 7f85 ea3c
00000070: 38a6 a03d 21cf 73bd 212b 84bc f8ec 873d
00000080: d7cc 99bc ca03 3bbe ba62 053d 84da db3c
00000090: e46f ea3c 5229 473c f73b 2bbd aac0 823d
000000a0: 0b6d d4bc 16b1 00bf b922 0e3e 281b bbbc
000000b0: 5c1f 20bd 8333 6c3b 02dc 36bd 9fbd 9d3d
000000c0: d27d acbe 6f78 263b 4897 bb3c 4979 6dbd
000000d0: 2de3 0d3c cebe c73d 6f1b 9ebc e538 9cbc
000000e0: 8c1f 8f3d 1cc0 10bd a97b 943c 6908 a7bc
000000f0: 1ccb 18bd 78a4 95bc 8cc8 63bb ad69 983d
00000100: a104 06bd 180e 12bd f6cc 2cbb 29c6 babb
00000110: 2791 b53c 8cb4 723b 4551 603d 0937 993b
00000120: b318 ef3b 7608 f2bc fbbf bb3c a740 573d
00000130: 31f7 563d 1f97 c23d 408a 183c 3329 e23c
00000140: fb8e 893d 1a46 223e f5f2 f03c e3df 343a
00000150: f533 13bd b092 f1be ffb4 90be df15 56bd
00000160: b642 a63c e0c6 073e 5350 0abd 1315 07bd
00000170: 45e5 233c b632 a8bb ad42 66bd 777c 16bd
00000180: 082e 833d c3bb 8bbc 08d5 49bc 8e6e 87bc
00000190: df31 1dbe f1a0 103d d547 dc3c ada0 d53c
000001a0: 70f9 07bc ae53 a33d d713 cd3d 4a6a 903d
000001b0: 816f 973d 3e31 06bd fb98 cd3c 65c2 8b3d
000001c0: eb1f 883d a3e9 3d3d b55d 813d 80ab a3bc
000001d0: 4a23 80bd 35a1 2fbd 13af 1f3e c444 8abc
000001e0: efc6 d3be 9d10 713d 95d9 ed3a 6982 bebc
000001f0: 31bf 2abd bfb4 063d 6647 693d 4b24 a43d
00000200: 5cb4 26bc 0f0a 7c3a b70c 8b3c 9bdc 86bd
00000210: aeeb 19bc e6d4 893d 5dc6 85b9 6526 f6be
00000220: a5ee 6e3d 42c1 c8bc 1b8b 153d 617c 03bb
00000230: e20b 25bd dbfc 7bbc becf 7abc 3291 073d
00000240: af24 6bbd d779 edbd 65b1 4c3b c394 b63d
00000250: f3fe a93d adca 5f3d 23a8 853c 5a18 6c3b
00000260: f331 62bd be9e 463d 9e8c adbc e33b 06bc
00000270: 5e58 0d3c c01a a4bd 597e 8e3d e744 373c
00000280: 1d00 95bd 5bf6 21bd e490 8c3d 307d 1cbc
00000290: 28eb 3c3c 04f3 9dbc 30c2 20bd 00d8 52bb
000002a0: b750 883c 06af 9c3c 0265 623d 4dd9 61bc
000002b0: b493 cfbd 5abe 833d a5eb 503d 1725 2abd
000002c0: 3135 1e3e bcf2 8abd 5a6a 093d 93af 3c3d
000002d0: 17ef b3bc 9064 dbbb a93e 493c 7ff1 0a3c
000002e0: eda1 f2ba b807 24bd 74f2 623d af33 4fbc
000002f0: 60a5 6f3d 8751 9bbc 2829 2b3d ecb7 c03c
00000300: b60e 323d dc6a d23d 5ad2 22bd 344c c9bc
00000310: 6a25 c63c 5357 c6bd 1427 c23d ab58 59bc
00000320: 88c0 78bc 295b 933d d8b9 2ebd 5679 323d
00000330: 4273 c2bc 1016 c2ba 4a69 28bd 8900 af3b
00000340: 8db4 673d 2641 4bbc eb33 57bd e47f 93bc
00000350: e3d6 14bd 9c75 cd3d 03e7 183c e866 4c3c
00000360: ae97 c43c c118 203d 4e19 91bc 86d6 b23c
00000370: 2565 433e 76ab 2bbc 03bf 883d b9cb 583d
00000380: 5018 8fbd 722e 193c de64 353d 5613 073e
00000390: 1321 10bc 0a88 4b3d 2008 4b3d 3293 a33d
000003a0: 10cc 5b3d a683 8b3c 649e f73c c9f9 abbe
000003b0: 66bb 463c 2c43 fabd 4f3e 19bd 92c9 1d3d
000003c0: 2a28 69bd fbea 273b 5909 a23d 2e3b 353d
000003d0: 52bd 443d 7036 143d ffdc acbe b54a 893d
000003e0: b412 66bd eea5 d1be 3680 983d 0ac9 fd3c
000003f0: 1205 693e fb51 a03c 172b a73c 92b8 c33c
0.029826099 -0.0032254136 0.020140145 0.06595269 -0.04755993 0.070074 -0.018780852 0.10596611
0.0015522556 -0.043871928 -0.060307175 0.003881643 0.0076376833 0.040657967 0.029528668 0.015230821
-0.47764638 -0.017056959 0.046659138 0.12523486 0.020833967 0.050418485 0.0127648525 0.0031880725
0.019901823 0.069345474 -0.16470169 0.028628109 0.07844204 -0.059523705 -0.016133847 0.06636995
-0.018774433 -0.18263164 0.032564856 0.026837595 0.028617807 0.012155848 -0.041805234 0.06384404
-0.025930902 -0.5027021 0.13880433 -0.022840098 -0.039092407 0.0036041446 -0.04464341 0.07702183
-0.33689743 0.0025401374 0.022899285 -0.057976995 0.00866012 0.0975319 -0.01930019 -0.019070098
0.06988439 -0.03533946 0.018125372 -0.020389752 -0.037303075 -0.018266901 -0.0034756986 0.07442031
-0.03271926 -0.035657972 -0.0026367283 -0.005699892 0.02216394 0.0037033884 0.054765005 0.00467575
0.0072966455 -0.02954505 0.022918692 0.05255189 0.052481834 0.0950148 0.009310305 0.027607536
0.067167245 0.15847054 0.029412726 0.0006899817 -0.035938222 -0.47182226 -0.2826309 -0.05226695
0.020295482 0.13259459 -0.03376801 -0.032979082 0.010003393 -0.0051329983 -0.05621593 -0.036739793
0.06405264 -0.017057305 -0.012318857 -0.016532209 -0.15351056 0.035309736 0.026889721 0.026077593
-0.008299217 0.07974945 0.1001355 0.07051523 0.073943146 -0.032761805 0.02509736 0.06824187
0.06646713 0.04636539 0.06316701 -0.019979239 -0.06256731 -0.04287835 0.1559413 -0.016878493
-0.41362712 0.058853734 0.001814651 -0.023255544 -0.04168624 0.032887217 0.056952856 0.08014735
-0.010174837 0.0009614536 0.016973836 -0.06585046 -0.009394569 0.0673006 -0.0002551553 -0.48076168
0.058333058 -0.024506215 0.036509614 -0.002006315 -0.040294535 -0.01538011 -0.015308319 0.033097453
-0.05740803 -0.11595505 0.0031233665 0.08915093 0.08300581 0.054636646 0.016315525 0.0036025257
-0.055223417 0.048491232 -0.021185216 -0.008192989 0.008627025 -0.08012915 0.06957693 0.011185861
-0.07275412 -0.039541584 0.06863573 -0.009551331 0.011530675 -0.019280918 -0.03924769 -0.0032172203
0.01664005 0.019126426 0.05527211 -0.013784719 -0.10135594 0.06432791 0.051005978 -0.041539278
0.15449978 -0.06784579 0.03354869 0.046065878 -0.021964593 -0.0066953376 0.012283006 0.008480429
-0.0018511392 -0.040046424 0.055407003 -0.0126466 0.058507323 -0.018959774 0.041787297 0.0235252
0.04347106 0.10274288 -0.039751388 -0.02457247 0.024187762 -0.096846245 0.0948011 -0.013265769
-0.015182622 0.07195122 -0.042657703 0.043572746 -0.0237366 -0.00148076 -0.041116036 0.00534064
0.05656867 -0.012405669 -0.052539747 -0.018005319 -0.036337744 0.10032198 0.009332421 0.012475707
0.023998108 0.039086107 -0.017712262 0.021830808 0.19081552 -0.010477891 0.066770576 0.05292866
-0.06987059 0.009349452 0.044285648 0.1319097 -0.008796948 0.049690284 0.049568295 0.0798706
0.053661406 0.017030548 0.030226894 -0.33589008 0.01212964 -0.12219843 -0.037412938 0.03852231
-0.05692307 0.0025622237 0.07911939 0.04424589 0.048032112 0.03618473 -0.33762357 0.06703702
-0.05617018 -0.40946907 0.07446329 0.030979652 0.2275584 0.019570341 0.020406289 0.02389172

network.6.bias f4 [256]
00000000: 33ee 923f a660 273f 978f c1bc 6f23 b0bd
00000010: 103e 073f 1a0f 873f 6b7f 123e bcfd ff3e
00000020: 051a 55bd 180c 4dbc 18dc 953e 7180 9c3e
00000030: 6c76 af3e bf83 193f 3231 653e 4e00 ea3e
00000040: c60a 0a3f 3320 843f b5b4 9dbd 16cb 873f
00000050: 905d f43d 8f98 6c3f 6c2d 8c3f de53 a03e
00000060: 282d 4e3f 7840 903f 79ac 8c3f 84d5 e23e
00000070: e7ae 043f 33f8 8a3f 6ca1 033f ad60 033e
00000080: aad2 863f e10a 24bd 4d0c 903f 0480 2a3f
00000090: 08b6 bc3e 236f 8e3f 3c89 943f f004 903f
000000a0: 5224 8e3f 13d3 8c3f 6473 893f 00a6 9b3e
000000b0: 9a43 51bd 62d0 153f b1d1 8e3f da07 7a3f
000000c0: b185 8e3f ecc2 843f 1a7c 883f d89c 8b3f
000000d0: 6396 903f 0650 8a3f 8ccc 293e 2a9f 383f
000000e0: 8165 7a3f fa33 8b3f c8fa df3e 1b95 233f
000000f0: ddc9 883f a805 e33d 750f 113f b780 183f
00000100: bb96 163f 6dc8 963f a552 2e3e cc60 933f
00000110: 3fd2 873f e715 8c3f 407c 823f bd0d a53e
00000120: 9546 e33e 0eea 8abd e2be 443f 3a0f 133f
00000130: 5c34 803f 675f 8f3f ee96 903f 279d 843f
00000140: 4abc e53e 0896 113f 656b 8f3f 7d1a d23d
00000150: 815f a63e 0dcd 843f 793c cd3d 95c8 863f
00000160: 8962 7f3f df19 a63e 9cb5 4d3f 3411 4a3e
00000170: 17eb 433f bddc 163f b800 933f fc40 8e3f
00000180: bce0 243f 9747 2abd 07af 32bd 4d6f a73e
00000190: b15c 953e 33d2 033f ef0a 933f 1cb1 23bd
000001a0: ab2e 8b3f 3bbc 843f 4492 cd3e 95af c0bd
000001b0: c714 903f 5eac 873f dc75 8d3f abca c13d
000001c0: f264 913f 7abf 1a3e 0c61 8d3f 0982 0f3f
000001d0: 25d9 873f d75b 343f cdaf 883f 89f2 133e
000001e0: da5e 073f 4cab 7cbd b554 3a3f 9023 1d3f
000001f0: 0473 afbd 37f9 8c3f fbd9 153f 4d1c 313f
00000200: ee30 0d3f fca9 9f3e ea7e 903f af9e ed3e
00000210: bf97 c33e 8d43 2c3e 9b3e 903e 580a 6c3f
00000220: e834 103f 60d8 c63e 714f 8f3f 9be8 913f
00000230: 7a38 94bd d8ea 893f c981 67bd 38bf 0d3f
00000240: 307c 143f d847 163f ddc5 073f 6d7a 863f
00000250: 082a 223f 2bbe 1b3f 6f8f c0bd 6224 3e3f
00000260: f10b 71bd c652 c23e 5a0f 8d3f 0394 c93e
00000270: 9975 a63e ecf7 d6bd e4ff 923f cc6b 773f
00000280: 448d 903f 9896 083f d210 243f e4b5 493d
00000290: 4c65 973f 3b9c dfbc b8d4 973d ed92 1d3f
000002a0: d1de 8c3f bc42 1cbd 218f 823f 5fba 083f
000002b0: 47b5 9abc 62d4 883f 2157 883f ca28 0f3f
000002c0: f980 2f3f f393 223f 1879 aa3d 1020 943f
000002d0: e140 113f 2a04 e23d 2421 283f 0dc0 513e
000002e0: 8bd1 ce3e 6546 9bbd 4ea1 673e 3364 41bd
000002f0: bf9d 183f 0bd1 8d3f d810 8b3f 5653 fb3e
00000300: 5e28 943f 450a 553e 9bb8 973f 7e19 933f
00000310: 5f2d fa3e 5858 783e d847 923f 5ede 223f
00000320: 97c6 863f b893 8b3f b694 913f c189 3c3f
00000330: 9ce0 de3e ea49 08be 98e0 933f 15b7 7d3f
00000340: 753b 9bbd 0d1b a73e 2dd5 8d3f 286a a53e
00000350: 8718 243e f269 8c3f 2d65 883f b7ec 123f
00000360: 8218 8e3f e2e3 4d3d 885c f9bd 9b7e 893f
00000370: c047 883e 28db 203f fe6b 893f 513a 513e
00000380: 9284 883f bc15 953e eac8 4b3f 1b5a 2a3e
00000390: 4b9a 4b3e 76b6 fe3e 1bcc 8d3f d9f6 8d3f
000003a0: f690 193f 7bb0 413e 6d17 273f 0982 d23e
000003b0: de85 113f b8f6 d93e dae0 963f 7410 cebc
000003c0: 4026 923f de8d 8e3f da3b 073f 5c52 2c3f
000003d0: 79c7 863f d5d2 8c3f 5946 ab3e 5539 873e
000003e0: a5bb 213f 6d14 f63e 41cb 923f 6a10 0cbb
000003f0: 6ef9 883e 2ec6 8e3f c785 8c3f daf4 a03e
1.1478943 0.6538185 -0.02362804 -0.086005084 0.52829075 1.0551484 0.14306419 0.4999827
-0.052026767 -0.01251509 0.2926948 0.30566743 0.34270036 0.59966654 0.22382048 0.45703357
0.5392269 1.0322326 -0.07700483 1.0608852 0.11931908 0.92420286 1.0951362 0.31313986
0.8053765 1.1269674 1.0990134 0.44303524 0.5182938 1.0856994 0.51418185 0.12829848
1.053304 -0.040049437 1.1253754 0.66601586 0.3685763 1.1127666 1.1604381 1.1251507
1.1104834 1.1001915 1.073834 0.30400085 -0.05108986 0.5852109 1.1157743 0.9766823
1.1134549 1.0371985 1.0662873 1.090724 1.1295894 1.0805671 0.16581935 0.72117865
0.9781113 1.0875237 0.43746018 0.6389939 1.0686604 0.11085063 0.5666421 0.59571403
0.58823746 1.1779915 0.17023714 1.1513915 1.0611037 1.0944184 1.0194168 0.32237044
0.44389787 -0.06782924 0.76853764 0.5744511 1.0015979 1.120099 1.129606 1.0360459
0.44870216 0.56869555 1.1204649 0.102589585 0.3249474 1.0375077 0.100213 1.0529963
0.9975973 0.32441613 0.8035524 0.19733125 0.76530594 0.5893057 1.1484594 1.1113582
0.6440542 -0.04157218 -0.04362395 0.32702103 0.2917228 0.51492614 1.1487712 -0.039963827
1.0873617 1.0369943 0.40150654 -0.094084896 1.1256341 1.0599477 1.1051593 0.09462484
1.1358931 0.15112105 1.1045241 0.5605779 1.0613142 0.70452636 1.067865 0.14447989
0.52879107 -0.0616868 0.727855 0.6138239 -0.08566859 1.1013554 0.58535737 0.6918381
0.55152786 0.31184375 1.1288731 0.46410128 0.3820171 0.16822644 0.28172764 0.92203283
0.5633073 0.38836956 1.1196119 1.139911 -0.072373345 1.0774794 -0.056520257 0.553699
0.58001995 0.58703375 0.5303629 1.0506111 0.63345385 0.6083705 -0.09402358 0.74274266
-0.05884928 0.37953776 1.102031 0.39370736 0.32511595 -0.10496506 1.1484342 0.9664886
1.1293111 0.5335479 0.64088166 0.04924573 1.1827788 -0.027296176 0.0741362 0.61552316
1.1005498 -0.03814958 1.019993 0.5340938 -0.018885268 1.0689814 1.065159 0.55921614
0.6855617 0.63507 0.08323878 1.1572285 0.5673962 0.110359505 0.6567557 0.20483418
0.40394244 -0.07581786 0.22620127 -0.047214698 0.596157 1.107942 1.0864515 0.49087018
1.1574819 0.20804699 1.1853212 1.1492155 0.4886274 0.2425245 1.1428175 0.63620555
1.0529355 1.0904455 1.1373508 0.73647696 0.43530738 -0.13309446 1.1552916 0.99107486
-0.075797 0.32637826 1.1080681 0.32307553 0.16024981 1.0969832 1.0655876 0.5739245
1.1101229 0.050266154 -0.12175852 1.0741762 0.2661724 0.62834406 1.0736082 0.20432402
1.0665457 0.29118145 0.79603446 0.16635935 0.19883077 0.49748582 1.1077913 1.1090957
0.5998682 0.18914978 0.6527012 0.41114834 0.5684489 0.42571044 1.1787369 -0.02515433
1.1417923 1.1137044 0.528257 0.6731317 1.0529624 1.1001841 0.33452109 0.26410928
0.6317695 0.4806246 1.1468278 -0.0021372088 0.267528 1.115423 1.0978326 0.31436807

network.8.weight f4 [3, 256]
00000000: c770 22be 7248 983e 0d81 a13c 0b7a 853c
00000010: ec20 a33e f5b3 3dbe c4de cf3e 87db b93e
00000020: 235d 423d 7ac5 e53d ed88 4b3e d3fb 883e
00000030: a905 853e a165 bb3e b124 713e 6f4b 923e
00000040: a3f4 cc3e 79eb 0fbe e50a 4d3c 63c4 38be
00000050: c5c0 f6bc eb83 16bf cb31 28be f4cf ed3e
00000060: 4a32 b03e cbc8 1ebe f306 34be 40ae d63e
00000070: 126b 853e 0ebb 38be 2c3e c53e 520d 823d
00000080: 6e4d 1ebe b691 133d 09fe 37be c1bb bd3e
00000090: b62f d33c 19ad 14be 853d ffbd 69ee 04be
000000a0: 2e55 25be 4a57 34be 36a6 11be 7e2a cc3e
000000b0: e86e 37bd ab9a c13e 70f6 03be e7a4 60bf
000000c0: a67d 26be a679 edbe 0794 4bbe bb48 4dbe
000000d0: cd62 19be ef22 23be 2bf2 6d3d bd5a b53e
000000e0: 6ca6 3ebe 760f 2fbe 8280 d53e ac3a a53e
000000f0: 1fc5 0fbe 513c 9a3e 8b40 ab3e bf0c 9e3e
00000100: 80b6 b33e 5c47 44be 0f1c 443e 96f6 42be
00000110: 89e5 2abe 0c85 17be 0f77 2bbe e1c5 913e
00000120: 2910 d13e dd91 87bb 094d b53e c85c ae3e
00000130: 0a2d d2be 65a0 4ebe 26f9 2ebe 0041 41be
00000140: 2b5e ae3e 730b a43e c909 4dbe fba0 7d3e
00000150: 01e2 dd3e 3d75 8abe b112 b53d 7f4f 46bf
00000160: ff90 f1bd 0ec6 e53e 508e ba3e ee60 273e
00000170: 86f5 953e fd5b 983e a435 4cbe 6988 40be
00000180: 65b9 be3e d6fd 223d 1475 79bb a6c5 7f3e
00000190: 460b 423e 308b 843e 92eb 3dbe ca9e 81bc
000001a0: 6e18 3dbe 4a88 10be e106 a23e eee2 aabc
000001b0: 9ee7 2dbe cb03 08be bf11 32be b1b8 223e
000001c0: 4d64 3cbe 0050 5e3e 5a9a 0bbe b1cf 943e
000001d0: c182 40be f7df b83e 1b38 31be 0c7d 0a3e
000001e0: 7a61 843e 6397 873c 360d b83e 1c08 c63e
000001f0: d399 2b3d 0e68 2dbe d59c d83e ae74 bc3e
00000200: 9252 683e f625 a23e b9e7 29be 449e 2b3e
00000210: 7025 c33e c52d 683e dee8 213e 9c23 2abe
00000220: ae14 dc3e 7afb bf3e 580a 24be daa5 40be
00000230: 11c4 f0bc 268e 2bbe d388 233d 23ed 943e
00000240: c9bf 9f3e 951a 953e 2450 883e c4b0 1cbe
00000250: 9baf b43e b67e df3e 042f c33b 9cf8 b83e
00000260: ea09 42ba 3711 b83e c4dc 03be 9903 993e
00000270: eb13 cd3e e4f6 07bc 5e82 22be f806 2bbe
00000280: bbbe 19be 683c b13e 8968 cc3e 61df 843d
00000290: 7a94 41be 3b6f cbbb bc60 d43c 506a ce3e
000002a0: a2bd 06be 5aec e1ba 8b0e 3ebe 1fcf c13e
000002b0: 10be 013e afb9 22be 4950 29be 2329 e13e
000002c0: 3b06 d13e cf02 bc3e cf64 4f3d e37d 39be
000002d0: 8313 cd3e 6773 3c3e 227a 9a3e ae38 b23e
000002e0: 8f8f 553e 759c 0b3d 6ff1 d93d f997 173c
000002f0: b135 8a3e d64c 3ebe f95e 2bbe e396 623e
00000300: 6ab5 42be 450d 813e 9ef1 19be ed48 44be
00000310: bc2f e13e e333 4e3e 70e0 45be 53ec c83e
00000320: ba1a f7bd 68ed 1dbe f209 26be 932e b63e
00000330: b1aa 943e cc5f 29bb bd8e 4abe dcec 37be
00000340: d870 933d 351c c33e d634 0bbe 1b12 683e
00000350: 5fdf 893e fff7 fdbd 0b19 34be 52e9 db3e
00000360: 3051 31be 2911 68bc accb 3cbb d8ce 39be
00000370: ddc5 3b3e 7150 c53e c2a8 29be 65e8 683e
00000380: 048a 6dbe 4fa0 9a3e 13b8 a83e 07fe 163e
00000390: 1629 8f3e 52ed b43e 1d28 40be af57 0cbe
000003a0: 870a a93e 2daa 833e c885 ba3e 1f9c c33e
000003b0: 92e9 b13e 55a5 a83e d4d0 22be a457 803c
000003c0: 2c10 2abe a51d 0ebe 0c4b ac3e 8a94 a23e
000003d0: 3868 f4bd 4003 1ebe eba6 d13e 0a57 c33e
000003e0: 0bf7 c63e 610d 903e dfc0 3bbe 293f 2ebe
000003f0: 5728 b53e 7463 35be 8db0 2cbe eb78 333e
-0.15863334 0.2974277 0.019714857 0.016293546 0.31861055 -0.1852568 0.40599644 0.363003
0.047452103 0.11219306 0.19876452 0.26754627 0.2598088 0.36600974 0.23549153 0.28573176
0.40030393 -0.1405467 0.0125148045 -0.18043666 -0.030121217 -0.5879504 -0.16425245 0.46447718
0.34413368 -0.15506284 -0.17580776 0.41929817 0.2605825 -0.18040106 0.38523996 0.06350197
-0.15459225 0.036027633 -0.17968 0.37057307 0.025779586 -0.14519157 -0.12462906 -0.12981571
-0.16145775 -0.17611423 -0.1422356 0.3987617 -0.044783503 0.37813315 -0.12886977 -0.8775162
-0.16258869 -0.46381873 -0.19880687 -0.20047276 -0.14979096 -0.15931295 0.058092277 0.3542079
-0.18618172 -0.17095742 0.41699606 0.32271326 -0.1404004 0.30124143 0.3344768 0.308691
0.35100174 -0.19167846 0.19151329 -0.19039378 -0.16689123 -0.14796847 -0.16744636 0.28471282
0.40832642 -0.0041372613 0.35410336 0.3405516 -0.41049987 -0.20178373 -0.1708723 -0.18872452
0.3405622 0.32039985 -0.20023264 0.2476844 0.4333649 -0.2704257 0.08841456 -0.7746505
-0.11795234 0.44877666 0.364367 0.1634557 0.29288882 0.2975768 -0.19942337 -0.18802036
0.3725082 0.039792858 -0.0038064169 0.2497774 0.18949613 0.25887442 -0.18546894 -0.015822787
-0.1846635 -0.1411449 0.31645873 -0.020860162 -0.16982886 -0.13282697 -0.17389582 0.15890767
-0.18397637 0.21710205 -0.13633099 0.29064706 -0.18799879 0.36108372 -0.17306559 0.13524264
0.2585562 0.016551679 0.3594758 0.38678062 0.041894745 -0.16934225 0.42307153 0.3680777
0.22687748 0.31669587 -0.16592301 0.16759592 0.381145 0.2267371 0.15811488 -0.16615146
0.42984527 0.3749655 -0.16019571 -0.18813267 -0.029390367 -0.16753444 0.039925408 0.2908717
0.31201008 0.29121843 0.26623642 -0.15301806 0.35290226 0.4365136 0.0059565324 0.36127174
-0.000740199 0.35950634 -0.12877184 0.29885557 0.4005426 -0.008298609 -0.15870044 -0.16701877
-0.15014164 0.346164 0.39923504 0.06487919 -0.18904296 -0.006208328 0.025925033 0.40315485
-0.13158277 -0.0017236576 -0.18560235 0.37853333 0.1267016 -0.15891145 -0.16534533 0.43976697
0.40825066 0.36720893 0.050633248 -0.18114428 0.4005395 0.18403398 0.30171305 0.34808868
0.20855545 0.034084756 0.10641753 0.009252542 0.26994088 -0.18583998 -0.16735448 0.22127871
-0.19014516 0.25205436 -0.15033576 -0.19168444 0.4398173 0.2013698 -0.19323897 0.392428
-0.120656446 -0.15422595 -0.16214731 0.35582408 0.29036477 -0.0025844453 -0.19781013 -0.17961448
0.071992576 0.38107458 -0.13594374 0.22663157 0.2692823 -0.12400817 -0.17587678 0.42951447
-0.17316127 -0.014164248 -0.0028807921 -0.18145311 0.18337198 0.38537934 -0.16568282 0.22744901
-0.2319718 0.3020043 0.32952937 0.14745341 0.27961034 0.3533731 -0.18765302 -0.13705324
0.33015844 0.2571577 0.36430192 0.38205048 0.34748513 0.32938638 -0.15899974 0.01566679
-0.16607732 -0.13878496 0.33651006 0.3175395 -0.11933941 -0.15430927 0.4094766 0.38152343
0.38860354 0.28135207 -0.18335293 -0.17016281 0.3538234 -0.1771372 -0.16864224 0.17526595

network.8.bias f4 [3]
00000000: d4a4 64bf c217 3ebf bb38 55bf
-0.8931401 -0.74255 -0.8328969
