mountaincar_cl_project/runs/abrupt/none/seed_2/online_stream_model.pth (torch, 536437 bytes, 8 tensors)

network.0.weight f4 [256, 2]
00000000: e41a 87be 8aac fc3e c861 363f fc27 3cbf
00000010: a04e f73c be64 f8be a79b fa3e 9581 bf3f
00000020: e91b a2be d6c9 3dbe 6453 683e d8c2 adbd
00000030: 9e6f e93d 1ae8 0440 2150 0b3f 1067 483d
00000040: f0f3 773d 883b ed3d 0d05 093f 7e54 d33e
00000050: ad72 343f 3279 043d 0553 e63e 6782 073f
00000060: 8988 c9be 986f 423f 1b2c 973c 56bc ccbf
00000070: 7d54 333e ffa3 2e40 ef8f 513d 5ab5 0dc0
00000080: 40ee d2bc d0ec 5bbe 28a0 703e f880 993d
00000090: df15 25bf 4942 d8bf 37af 603f 5a93 c53f
000000a0: 56ff 4d3f b1ce 55bd fc3a ddbe 2392 7ebf
000000b0: 40ca f8bd 1ccd 4ebe 70fb 643d 171d 0b40
000000c0: e213 a3be 053b 2fc0 d741 143f 9a0f 123f
000000d0: e457 b3be 4f5f 3ac0 011a 093e dbb0 aebf
000000e0: 941b 753e 2b3d 0d3f 7e38 323e 4d34 d23f
000000f0: bafb a3be b1a0 6b3f 39fd a4be 753b 793f
00000100: a69e 163f ba64 293f 3055 683d 6a2b e0bf
00000110: d812 973d 2b68 80be 007d b5bb 00db 7cbc
00000120: a33c f3be 6162 0cc0 98e3 fcbe cc1d 45be
00000130: 41ff e8be 1e17 9bbd 5ac2 b93e 3053 e9be
00000140: 6dee 57bd b952 30c0 1ea5 9c3d b43a ebbf
00000150: 2653 8c3e c892 93bd 8d78 b73e 6206 2740
00000160: 0e06 183f 3217 9abd 381e 053f a166 b03f
00000170: 7cf7 03bf 03cb 293f 7e35 32bd 39a8 12be
00000180: 6fda ea3d 4eff adbf 0cc6 0f3e 3086 c83f
00000190: 409b a83e ef6d 0dbf 46f8 963e 50ca 503e
000001a0: e4d4 08bf 91b4 f03e 6008 babe 82d8 94c0
000001b0: de21 503e 168d edbf 343c 1a3f 6ebb db3f
000001c0: da3c ca3e 87fc 593f 45e4 133f a9c3 ab3f
000001d0: 24ed f63d d868 aebf 9516 173f 650e 683f
000001e0: 6a7d 6dbe 95c8 1d3f d0f1 bb3d ad57 023f
000001f0: d001 babd e127 283f 3fd2 b93e b678 c03f
00000200: a4d2 49be fa9e 1cbf de19 253e fbc2 1040
00000210: cfac 223c 116f d03e 2bcd 4f3e 424e dcbf
00000220: fba0 e43c 5add a9bf 0d15 753d 1fd0 35c0
00000230: a408 23be e914 2bbf 73b9 f43d 3172 f0bf
00000240: 3ee2 da3d dfbd 07c0 5b30 af3d d7fb f4bf
00000250: 579e 953d 6dac babf c0ff 5abd d036 6ebe
00000260: 1602 ce3e 35f5 0abf 3ef6 be3e 7b08 01bf
00000270: 3265 d43d 7604 c7bf 934f e2ba 0200 f53f
00000280: ce35 3ebe f154 89be 9008 083e c025 61be
00000290: 19da 5a3f d06d c93f c4e5 5c3e c9e2 cbbf
000002a0: e8e9 2cbe fe75 f03e f3da acbe 6cfd 153f
000002b0: cc32 ba3e 5d0b c53f 0f5a 8a3e 0eef e63f
000002c0: 49b0 563d d80a ad3f e24a 373f 21e2 86be
000002d0: 4979 a23d 3c18 d9bf 920b 4c3c 2fce 40c0
000002e0: 2b15 aabe fe14 02c0 59b3 da3e 1139 d63f
000002f0: e1f5 38bd 9f13 de3f a72f ca3e 4358 b1bf
00000300: 70f9 6f3d b35d 213f ada1 c0be 94a4 2b3f
00000310: 1d34 c23c 9fde a1bf df7f b43e ee72 963f
00000320: ecd1 c53d 571a 0a40 52cf f23e 9a58 9e3e
00000330: e199 a1be d083 8fc0 b90d 8dbe dae8 ba3e
00000340: 8054 b7bc 90b4 2abf c454 753e 9c52 0e3e
00000350: e525 363e 2378 53be 9fa7 d4bc f136 d6bf
00000360: 1ad2 6e3d 66bf 00c0 dc4a 8e3e 3aa5 5340
00000370: 2926 18bd 4abd 21c0 9125 0c3f 98f0 c7bd
00000380: a2ad f3be e04f 0a3e 6276 933e c05e a2bd
00000390: 8362 e33d b3ac 9dbe b2eb 43bd 33ce b43f
000003a0: c72b f93d d806 d6bf e02f 3a3d 3021 1bbf
000003b0: c10d 1a3e f18e d23f 446a 913d 9826 98bf
000003c0: 4888 2d3e 67c3 f3bf 00c0 b3bd bc91 ec3f
000003d0: 0a61 db3e 16fa 0f40 bd3b b1be 3a0c 0fbf
000003e0: 44b4 c43e a10a f33f 5dde 843e 44d2 ba3f
000003f0: 9abb 49bc 3b60 edbf 8c7b 0e3f 7e08 9abe
-0.26387703 0.49350387 0.7124295 -0.7349851 0.030188859 -0.4851436 0.48946878 1.496142
-0.3166192 -0.18534026 0.22688061 -0.08484429 0.113982424 2.0766664 0.5441914 0.048926413
0.06053537 0.1158362 0.5352333 0.412754 0.7048748 0.032342143 0.44985214 0.52933353
-0.3936198 0.7595153 0.018453648 -1.5994976 0.17512698 2.7287595 0.051162656 -2.2141938
-0.025748372 -0.21477056 0.23498595 0.07495302 -0.644865 -1.6895229 0.87767357 1.5435593
0.80467737 -0.05219907 -0.43209064 -0.99441737 -0.12147951 -0.2019543 0.055903852 2.1736505
-0.31851107 -2.7379773 0.57912964 0.57055056 -0.35027993 -2.9120672 0.13388826 -1.3647722
0.23936301 0.5517146 0.17404363 1.6422211 -0.3202799 0.9204207 -0.32224444 0.9735635
0.5883583 0.6616932 0.056721866 -1.7513249 0.07376641 -0.25079474 -0.005538583 -0.015433073
-0.475072 -2.1935046 -0.4939239 -0.19249648 -0.45507243 -0.07572769 0.3628109 -0.4557128
-0.052717615 -2.755049 0.07648681 -1.837729 0.27407187 -0.07205731 0.3583416 2.6097646
0.5938424 -0.075239554 0.51999235 1.378132 -0.51549506 0.66325396 -0.043508045 -0.14321984
0.11467444 -1.3593538 0.14040393 1.5665951 0.32930946 -0.5524587 0.29486293 0.20389676
-0.53449845 0.4701276 -0.36334515 -4.651429 0.2032542 -1.8558681 0.6024811 1.7166574
0.3949955 0.8515095 0.57770187 1.3419086 0.1205695 -1.3625746 0.5901883 0.90646964
-0.23192373 0.6163419 0.091769814 0.5091503 -0.09082377 0.6568585 0.36293218 1.5036838
-0.1970926 -0.6118008 0.16123149 2.2619007 0.009928896 0.40709737 0.20293109 -1.7211382
0.027908793 -1.3270676 0.05983453 -2.8408277 -0.15921265 -0.6682878 0.11949434 -1.8784848
0.106876835 -2.1209638 0.08554145 -1.9139355 0.073055916 -1.458387 -0.05346656 -0.23263097
0.40235966 -0.54280406 0.37297243 -0.50403565 0.10370864 -1.5548236 -0.0017266147 1.9140627
-0.18575212 -0.26822618 0.13284516 -0.21987057 0.8548904 1.5736637 0.21572024 -1.5928584
-0.16886103 0.4696502 -0.33760795 0.58589816 0.3636688 1.5394093 0.27021834 1.8041704
0.052414212 1.3518934 0.7159864 -0.26344398 0.079332896 -1.6960521 0.01245393 -3.0125844
-0.33219275 -2.0325313 0.42714956 1.6736165 -0.045156363 1.7349738 0.3948948 -1.385506
0.05858749 0.630336 -0.3762335 0.67048 0.02370649 -1.2646064 0.35253808 1.1753824
0.0965918 2.1578577 0.47423798 0.30926973 -0.31562713 -4.4848404 -0.27549532 0.36505777
-0.02237916 -0.66681767 0.23958117 0.138987 0.17787893 -0.20651297 -0.025958834 -1.6735517
0.058305837 -2.011682 0.27791488 3.3069596 -0.037145767 -2.5271783 0.5474482 -0.097626865
-0.4759341 0.13507032 0.28801256 -0.079282284 0.11102774 -0.30795822 -0.0478322 1.4125427
0.12166553 -1.6720839 0.045455813 -0.60597515 0.15044309 1.6449872 0.07100347 -1.1886778
0.16946518 -1.9044007 -0.087768555 1.8481975 0.42847472 2.249639 -0.3461589 -0.5587803
0.38418782 1.8987619 0.259509 1.4595418 -0.012312794 -1.8544992 0.5565727 -0.30084604

network.0.bias f4 [256]
00000000: 4bdc 19bf da92 b8bc 9052 f8bd 3df0 adbd
00000010: 87ea d7be 967f fbbe 98dd 46bd 4621 96be
00000020: 7739 aabe bcb5 f3be 7d80 13bc 92f2 22bc
00000030: f8ec f3be b2f2 a23d 1d83 92bd 8e1d 673c
00000040: 78f8 c2bd 14cf 6abe fce3 fbbe 9791 49be
00000050: 1cb6 78be 55f6 abbe d00b 16bf 592b 91bd
00000060: d435 6fbe 0961 c4bc 64e9 91be 4392 0b3e
00000070: a1fa 03bf 3dc8 b8bc dbb7 7dbe bdec 3fbe
00000080: 975a 47bd 4cca dc3d 9abb 1bbf 302f 6abe
00000090: cd8b babe 4a75 1fbf 6b3a 12bf 7440 47be
000000a0: 2ffd 8cbd db4b 353d 80bb e0be 47f9 c6bd
000000b0: 42ef a23e 1da8 2c3c 3107 2ebf 4390 7abd
000000c0: dbdd 683d fd53 2bbd a317 403e de5e cdbe
000000d0: 4435 24bf 4aac 9bbe 416b 4c3e 92ac e5bd
000000e0: f05f 6f3e 346f 00be 9827 8e3d 8508 d2bd
000000f0: 5a45 11bf 78d5 a6bd 83d7 34bf 14f3 94bd
00000100: 8dcf 18bf 1f5b 76bd 092f 2cbd c8bd 493e
00000110: f2cc 9e3d 48c8 143c b6af 79be 1409 1d3e
00000120: a7f0 2e3d adc5 3a3d 34ae e73c 1dfb 05bf
00000130: 353c 583e 58a2 b8be d4bd 4f3d dce8 4ebb
00000140: 2010 75be 8007 f3bd c11b 28be 696d ef3d
00000150: 0934 83be c366 67be b7ab fdbb 0762 3bbd
00000160: 678f 9bbc 7e29 6abc ddb4 fc3c a287 f5bc
00000170: 1b63 7dbe 1acf d8bd de39 b0bd 45a7 653e
00000180: 74e6 4abe 1b98 e8be a62c 853d ec51 223d
00000190: 6965 77bd 7e0d 26bf 420d 85be b1d8 2fbf
000001a0: 2035 9dbd 82c0 1dbf 66df c23c e295 9f3d
000001b0: 3dc8 d13c e9b9 d2bd 0f07 2dbd 0e5e 16bf
000001c0: 4aa4 12bf 2de1 f9be 4409 9bbd 7063 9abd
000001d0: a7f5 073e 6a09 04bf 4cd9 b73d 164e b73d
000001e0: e7d9 373e 3cf6 44bd a929 c7bd 9f1e efbe
000001f0: 06c7 673e c2ef 7fbc c298 b13d afc2 7ebd
00000200: 983d 2cbe d9f3 0dbf c0fa 9ebe a4c9 edbd
00000210: 1844 14bf a5b5 ff3d 8b74 ebbe deb5 f4be
00000220: eeba a73d 1805 cebe dca4 f0bc d06e a5bc
00000230: 3f4a 0c3e bcc8 1a3e bece 9c3d ed73 edbe
00000240: 6830 7abe f2ca 9fbd 8e50 233d a039 b9bd
00000250: 46b5 b93c 4700 89bd c406 51be a8ad 2dbe
00000260: d44b 00bf b278 eebc 463f 843e a18e 6abd
00000270: a723 bfbe 5fc6 9e3d 5a24 ccbe d43a 28bf
00000280: c5b1 babe 5a35 2ebf c62d fdbe c586 09bf
00000290: 5416 2ebe 9a10 d73d 64ec 8abd 4857 5fbd
000002a0: b7ff 88bd d896 77be 7c65 82be 1633 bf3d
000002b0: 149b 1fbf 3dac 17be 0c59 193e c52e e7bc
000002c0: 4208 88be c5c4 d23d 0009 f5be bbf6 743d
000002d0: 75be f6bd 73fe 6a3c 117c 80bd 7ac6 133e
000002e0: fd70 9fbe 9832 6dbd 9fb1 0dbe 3b55 f03c
000002f0: fe77 86be fbd3 30bf 8367 0bbf eff5 b2be
00000300: 214f b13d cbe9 2fbe 567f cdbe e795 0abd
00000310: 0c21 1e3d bcb2 3c3e 6086 95bd dce8 a2be
00000320: 7f75 28bf e877 2cbe cba0 2abd bf80 29bc
00000330: 0bc1 16bf 7d26 dabe d884 0f3e fcb7 d4be
00000340: 569d 293e 214e 103d d2f7 bcbd 9859 b9be
00000350: f465 7bbd d81f 61bc e823 603d 9da7 87be
00000360: 62dd 08bf 5d97 9a3d db34 b83d 6e9f 40bf
00000370: 3865 2cbf 34fa 89be 0b9e 92be 4728 c33d
00000380: 18ec f2bd 9d52 933d 1ef3 d2bc 773e d5be
00000390: b828 4ebd 7adf c8be 102f 27bf 63b9 f1bc
000003a0: 74be b43d f6c0 c43c 670d 8dbd b045 9bbd
000003b0: cb94 09bf a452 83be 12c9 993e 2896 9bbc
000003c0: 4dfe 14bf 5049 02bd 8bda 38be fd6b c7bd
000003d0: 600f bbba f446 cebe 1ac3 e43b 4682 03bf
000003e0: b648 853d 83fb c83b 4267 68bd 1d0b b23b
000003f0: 96c9 56be d9bc 81be ab35 94be b66e 983d
-0.60101765 -0.022530962 -0.121251225 -0.084930874 -0.42171118 -0.49120778 -0.048551172 -0.2932226
-0.33246967 -0.4759959 -0.009002802 -0.009945529 -0.4764173 0.07956447 -0.07153914 0.0141061675
-0.09520048 -0.22930557 -0.49197376 -0.19684444 -0.24288219 -0.33586374 -0.58611774 -0.07088346
-0.23360378 -0.023972051 -0.28498375 0.13630013 -0.51554304 -0.022556419 -0.24777167 -0.18742652
-0.048670378 0.107807726 -0.6083313 -0.22869563 -0.36434785 -0.62288344 -0.5712039 -0.1945818
-0.068842284 0.044261795 -0.4389305 -0.09715515 0.31823164 0.010538128 -0.67979723 -0.061172735
0.056852203 -0.041828144 0.18759017 -0.4011144 -0.64143777 -0.30404884 0.19962789 -0.11214556
0.23376441 -0.1254242 0.06941146 -0.10255531 -0.5674645 -0.08146185 -0.70641345 -0.07272926
-0.596917 -0.060145494 -0.042037044 0.19701302 0.07753934 0.009080954 -0.24383435 0.15335494
0.042709973 0.045598675 0.028281309 -0.52336293 0.21116717 -0.36061358 0.050718144 -0.00315719
-0.23931932 -0.11866665 -0.16416837 0.1169079 -0.25625637 -0.22597794 -0.0077414173 -0.045747783
-0.018989278 -0.014292119 0.030847961 -0.029971901 -0.24744837 -0.105863765 -0.08604787 0.2242709
-0.19814473 -0.45428547 0.06502657 0.039628908 -0.060399447 -0.6486434 -0.25986677 -0.6869002
-0.076761484 -0.6162187 0.023788165 0.0779226 0.025608176 -0.10289366 -0.04224306 -0.58737266
-0.57281935 -0.48804608 -0.07570127 -0.075384974 0.13277303 -0.51576865 0.08976993 0.089504406
0.17954217 -0.04808639 -0.09724743 -0.4670305 0.22634515 -0.015621128 0.08671714 -0.062197383
-0.16820371 -0.55450207 -0.31050682 -0.116107255 -0.579164 0.12485818 -0.45987353 -0.47795004
0.08189951 -0.4023826 -0.029375486 -0.020194441 0.13700198 0.15115637 0.076566204 -0.46377507
-0.24432528 -0.078023806 0.039871745 -0.09044194 0.022669446 -0.06689506 -0.20412737 -0.16960776
-0.50115705 -0.029110286 0.25829524 -0.057264928 -0.37331888 0.0775268 -0.39871484 -0.65714765
-0.36463752 -0.6805016 -0.49448985 -0.53721267 -0.17000705 0.10501213 -0.06783369 -0.054526597
-0.06689399 -0.24178636 -0.2546805 0.09335916 -0.62346005 -0.14811797 0.14975375 -0.028220544
-0.265688 0.10291437 -0.4785843 0.059805613 -0.120480455 0.014342892 -0.06273664 0.14431182
-0.3114089 -0.057909578 -0.13837288 0.029337516 -0.26263422 -0.69073457 -0.5445482 -0.34953257
0.08657671 -0.17179029 -0.40136212 -0.033834364 0.038605735 0.18427557 -0.073010206 -0.31818283
-0.65804285 -0.16842616 -0.04165725 -0.010345637 -0.5888831 -0.4260749 0.1401552 -0.4154662
0.16563925 0.03523076 -0.092269555 -0.36201167 -0.061376527 -0.013740502 0.054721743 -0.26495066
-0.53462803 0.075484015 0.089944564 -0.7524327 -0.6734195 -0.26948702 -0.28636202 0.09529167
-0.118614376 0.071934916 -0.025750693 -0.4164922 -0.0503318 -0.39233 -0.65306187 -0.029507345
0.088253886 0.024017792 -0.06887322 -0.07581651 -0.53742665 -0.25648987 0.30036217 -0.018992499
-0.5820053 -0.031808197 -0.18052118 -0.09737394 -0.001427155 -0.40288508 0.0069812657 -0.51370656
0.06508009 0.006133498 -0.0567391 0.0054334537 -0.20975336 -0.25339392 -0.28947195 0.074429914

network.3.weight f4 [256, 256]
00000000: 8042 303c 6fbb bcbd 90af ec3c 2b85 5abc
00000010: 567a 583d 96fa 793d 796c dcbd bc02 ecbc
00000020: d4bd 783d e839 8a3c 2a7b 99bd b788 033c
00000030: 3e4d c23c 98ca 7dbd 31b6 a2be 1b9f 53be
00000040: 02ab 103d 14ec ca3c 87b0 1bbf 207b d13b
00000050: 5e6e 0dbd d5c9 eebe a25a 41bd 2c17 1fbf
00000060: 8233 acbd cef1 33bd 7913 efbe 4d31 a83c
00000070: 4a54 793d 744c d6bd cec9 78be 0d23 663d
00000080: 3665 433e 4342 69bc 7451 b6bc 0634 5c3d
00000090: 2e11 03bf cc0a 573d 42e9 493d f40f 4ebd
000000a0: fc33 74be fcc0 bdbc 5042 82bc d07d 5cbe
000000b0: bf94 5fbf ecd2 72bd 7c09 d73c 179f ec3c
000000c0: cf51 82be 1ca4 ac3c b27c efbe be2e 473d
000000d0: f235 94bd 069f b7be 906e d33c ec4c 07bd
000000e0: 6efa b8bf 046a 3b3e e344 2d3d e819 9bbd
000000f0: e66c 17bd bcb4 99bc cc26 d4bc ac7a 25bd
00000100: e037 563b ceb8 18be 8ab4 debc d4f4 4f3d
00000110: f02d 1ebd 306e b0bd 0da2 68bd 82d4 0d3c
00000120: 58a0 65be ed5b 18be dbe9 e2be ae7a 7bbd
00000130: d6bd 0cbf 549b eb3c 9b77 8dbe 8d6b 09bf
00000140: 0bfb 4c3d acdb 59bd 8055 683b 789e 46be
00000150: b66c 23bd 47ca b83d c7af c9bd 251a ffbd
00000160: e741 debe 5b82 1ebd 4945 e8be 6f9d 76be
00000170: 6afe 9cbe fcc4 ca3b 68e2 66bf f1c7 ccbe
00000180: 5eb0 5cbd d211 1bbd cb06 3abc 7f9d 23be
00000190: 7a97 76be b4bd 66bd f988 57be 00a8 40bb
000001a0: bc4f 6b3d 6239 443d b3c9 6ebe 15a6 86bd
000001b0: 8a7c e9bd 6fbc 6cbe 9e59 b9bd 32d2 2bbd
000001c0: 475c fbbc 64a9 113d 14a4 533d 5d90 8abf
000001d0: 2e13 cb3d f887 f53c f18b 83bf 3661 513d
000001e0: 89f3 003d eb73 acbe 6429 053d 039e a6bc
000001f0: 83db c5bf 5093 e23a 2dcf 1dbd c017 33bd
00000200: 84f4 463d 0875 e63c e2a4 81bf 6a03 98be
00000210: 3c20 6cbd 365b 1c3d 9021 4ebd 1a8c 75bd
00000220: 8bd2 3dbd 78a1 223d a8fe 48bd cb14 0bbe
00000230: 2fa9 cb3b 22b0 e1be 7c3a 3cbd 3c9a 5c3d
00000240: 2879 073c 6bc1 78bf 5ac5 c6bd d450 bcbe
00000250: 61db f7bd b14c 913a 9504 a8be 34cb 2dbd
00000260: 8f2d 17bf fbe1 86bd 810c 15bf 7020 a6bd
00000270: 2ebc 193d 279f 0abc aa76 5a3d 9025 c9bb
00000280: 72b1 12bf 5050 0a3d 804c ffbc 16e6 2dbf
00000290: 881e 64bd 08f0 01bd 3936 36bf 774b ddbe
000002a0: 1868 27be c2d3 323d 6872 55bd 9084 263d
000002b0: e601 30bd 1e8a 183d 784b 4fbe 777d 0cbf
000002c0: 2c84 14bd 6201 21be e96c 05bf 394e 51bc
000002d0: bbf0 2fbf e77d 02be 722a 333d 4703 38be
000002e0: d40e b83c 3061 55bf 8168 c0be 4005 a6be
000002f0: ea0c 61bd 1cdc cbbc cc7f 32bd af41 15bd
00000300: 62bb f4bc e83c e1bd bb01 82be 2d6d 81be
00000310: acd4 11bf 7ba2 dbba fcce 1ebf e8fd c6bc
00000320: e07b 51bb a271 393d c123 45be bef7 e3be
00000330: 78d1 29bd 768e a1be ac89 b7bf c8df 603c
00000340: 8b6f 9e3d 468b b3bd 6d52 83be 92e8 1cbd
00000350: 6ede a6be 2214 55bb e36a d9be e06a 6ebc
00000360: 802c 9a3a 354d 28be 8f03 7cbd d883 90bd
00000370: dc5e d4bc 7239 c6bc 6286 43bd 5ef2 31bd
00000380: c8d5 803c dd14 883b 0c27 ea3c f056 f13c
00000390: 8d45 19bf fcfd c8bc 806c 803a 8361 73be
000003a0: f451 203d deb9 c9bd 4b8d adbe b7a2 e7bd
000003b0: 20e7 173c dfb0 96ba 25b9 afbe 02c6 4a3e
000003c0: d877 103c 0807 9bbd 9221 e2be 8e28 09bc
000003d0: 1c7d 56bc d66b 3f3d b993 8ebe 5b50 72bf
000003e0: 755d 74be 7e64 e2bd 5561 b0bd 1a59 41bd
000003f0: b53e 8dbd ce26 1d3d e68c 2e3d f09b 253d
0.010758042 -0.092154376 0.028892308 -0.013337414 0.052851044 0.061029993 -0.10762877 -0.028809898
0.06072791 0.016873315 -0.07494195 0.008028201 0.023718473 -0.061960787 -0.31779626 -0.20666163
0.035319336 0.024770774 -0.60816234 0.0063928515 -0.034529082 -0.4663836 -0.047205575 -0.6214473
-0.08408262 -0.043931775 -0.46694544 0.020531321 0.0608714 -0.10463801 -0.24295732 0.05618577
0.19081578 -0.014236989 -0.022255637 0.05376055 -0.5119809 0.05250053 0.049294718 -0.050308183
-0.23847955 -0.023163311 -0.01590076 -0.21532369 -0.87336344 -0.059283182 0.02624964 0.028884454
-0.2545304 0.021074347 -0.46774822 0.04862856 -0.07236852 -0.35863513 0.025809556 -0.033032343
-1.4451425 0.1830216 0.042302024 -0.075733006 -0.036969088 -0.018762939 -0.025897406 -0.040400192
0.0032687113 -0.14914247 -0.027185697 0.050770596 -0.03861803 -0.086147666 -0.05679517 0.008656623
-0.22424448 -0.14878817 -0.44319043 -0.061396293 -0.54977167 0.02876059 -0.27630314 -0.53679734
0.0500441 -0.05318801 0.0035451353 -0.19396389 -0.039898597 0.09022956 -0.0984798 -0.124561585
-0.43409654 -0.038698535 -0.4536536 -0.24083494 -0.30662853 0.006188033 -0.9018922 -0.39996293
-0.053879134 -0.03785879 -0.011354159 -0.15978049 -0.24081221 -0.05633326 -0.21048345 -0.002939701
0.057449088 0.047906287 -0.2331913 -0.065746464 -0.11400707 -0.23118757 -0.09050296 -0.041948505
-0.03068365 0.035561934 0.05167015 -1.0825306 0.099157676 0.029972062 -1.0277082 0.0511181
0.031482253 -0.33682188 0.032510176 -0.020339018 -1.5457615 0.0017286334 -0.038527656 -0.04372382
0.048573032 0.028131977 -1.0128443 -0.29690105 -0.05764793 0.038172923 -0.050324976 -0.059948064
-0.046343368 0.03970477 -0.049070984 -0.1358215 0.0062152366 -0.4407969 -0.045954213 0.053858027
0.008268632 -0.9717013 -0.097056106 -0.36780417 -0.1210239 0.0011085478 -0.32815996 -0.042430118
-0.5905389 -0.06586071 -0.58222204 -0.08111656 0.037532978 -0.008460796 0.053335823 -0.006138511
-0.5730201 0.033768 -0.031164408 -0.6792921 -0.05569318 -0.031723052 -0.7117649 -0.43221638
-0.16348302 0.04365898 -0.05211106 0.040653765 -0.04297056 0.037241094 -0.20243633 -0.54878944
-0.03625886 -0.15723184 -0.5211931 -0.012774997 -0.687267 -0.1274334 0.04374165 -0.1797
0.022468008 -0.8335142 -0.3757973 -0.3242588 -0.054943956 -0.02488523 -0.043578908 -0.036439594
-0.029874507 -0.10997945 -0.25391945 -0.25278607 -0.56965137 -0.0016756797 -0.62034583 -0.024290994
-0.0031964704 0.045274384 -0.1925192 -0.4452495 -0.04145953 -0.31554002 -1.4338889 0.013725229
0.07736119 -0.08766799 -0.25648823 -0.038307734 -0.32591575 -0.003251322 -0.4246436 -0.014551848
0.001176253 -0.16435702 -0.06152683 -0.07056397 -0.025924139 -0.024197314 -0.04773558 -0.04344403
0.015726939 0.0041528777 0.028583072 0.0294604 -0.5987175 -0.024535172 0.000979796 -0.23767667
0.039140657 -0.098499045 -0.3389686 -0.11310332 0.009271413 -0.0011496803 -0.34320942 0.19802096
0.0088176355 -0.075697005 -0.44166237 -0.008371485 -0.013091352 0.0467337 -0.27847078 -0.9465386
-0.23863776 -0.110543236 -0.086123146 -0.047204114 -0.06896726 0.038367085 0.04261484 0.040431917

network.3.bias f4 [256]
00000000: 495a 0f3e 326d 91bd ea87 143e d712 60bd
00000010: f6f4 cf3d c6bc 363e 4997 22bd d633 a33c
00000020: b3b5 6c3c 6cad 4fbd 363e 923c 95d5 7dbd
00000030: a27d 2cbd b19b 8bbd a5fa df3d 2a31 e23d
00000040: 9743 d63d 2b6a 323e 375c 473d 10d8 aabd
00000050: d09c 8cbd 4cbb 3f3e 98dd 573e b392 c53d
00000060: 6ee4 5f3e f664 b0bc 8630 98bc 4147 8dbd
00000070: 0799 ac3d c488 6bbd 3988 e73d 06d1 c83d
00000080: 20c1 153e 6d96 66bd 5b24 723d 4292 37bb
00000090: 8172 3c3e 46bb 24bd 240d 323e acff 8f3e
000000a0: bdfe 4abd fb5b adbd d635 52bd d081 283e
000000b0: aed2 39bc 77a9 03bd 8b9e d03d 2b8b 373e
000000c0: b5bc fd3d 5e3f 46bd 84b8 433e 9f5e 663e
000000d0: 149a 4a3e 715c 8e3d 7681 b7bc 7b32 3dbe
000000e0: 4c6d 803e f74f 89bd ad7e 31bc 056d 463e
000000f0: a263 f2bc 1afd 3f3d a99c b3bc f855 a73d
00000100: c2f0 7bbd fcdf 5d3e 8321 633e 4f22 bb3d
00000110: 618e e63d 69c3 323e e1e7 373e dc66 2f3e
00000120: 3c06 3c3b 3ab6 5e3e 851c 0ebc 27a1 333e
00000130: 8352 e7bc b720 3b3e 148f 753e 41a7 61bd
00000140: 1b75 07bd 2840 43bd 0b98 07bd bef1 9bbd
00000150: bde3 043e 34d3 c6bc c44a 043d 50c9 873e
00000160: a8b0 003d 0ac9 82bd a865 12bc 0b72 b4bc
00000170: 4f73 17bd 0820 b5bd 39f3 22bd c306 8e3b
00000180: 77cb 07bd 7152 473e 7a61 2abd 7f9d 0fbd
00000190: 3bee 7abd 280c e3bc 7d62 433e 8558 93bd
000001a0: e6b3 80bd eb78 0a3e 667b 8ebd 3458 d839
000001b0: 12dd 82bd 3d61 153d 78fc 893d 5afb 143e
000001c0: 2894 053e bcdf 89bd a040 6b3e d860 e73c
000001d0: bebc a53e ac44 9c3e 0df0 4ebd c0eb bbbc
000001e0: 4037 7d3d 40e6 613e d299 843e a7fe 6b3d
000001f0: 7e63 353e ca61 abbc 6e4b c4bc 9ece 77bc
00000200: c039 68bd 7692 ecbc c6d1 23bd 16f5 f73d
00000210: aa6f 3ebd 9c96 d5bc 9f91 833e 1800 28bd
00000220: 4b31 1fbd 7f07 2f3e fa14 2b3c 3af3 663d
00000230: 1d00 e03d d179 81bd 1335 9dbc b64f 3c3d
00000240: 4155 7abd f4a6 583a 73e3 4b3e cf9d 843e
00000250: 797a 1fbd 2c22 35be 03b6 cbbc bafa e63d
00000260: 93a2 a03e 4906 56bd d775 68bd 576a 803e
00000270: d5ac 2f3e c319 2d3e af88 073e 425f 7dbc
00000280: f917 803d bf5c 313e f9db 943d 3d29 88bd
00000290: 0928 5f3e 20e5 c73d cb80 033e 5002 d43d
000002a0: 1f6f 1dbd f56d 73bd 4028 5b3e 665c 76bd
000002b0: 9fb2 cabc d98c 9f3d e477 0e3d 041a 04bc
000002c0: 6aa7 1abc 35cb 78bd ee38 a93d cf1b 32be
000002d0: 4ae3 4dbd d726 4f3e 469b 943e 8cd9 fe3d
000002e0: 8450 eabc 0b95 23bd 27cc 7abc 9a16 4bbd
000002f0: 9f9b 863d 9cb9 8ebd 3684 8bbd de85 963e
00000300: b70e 43bd 2e2e 993d cbe7 36bd 5eed 49bd
00000310: f9b9 28bd 0fad 7d3e 4cce 32bd c77c c93d
00000320: ea84 22bd 92c0 81bd 9111 4e3e b256 b43c
00000330: 2c76 633e 3906 163e 80b7 073e 61ed 37bd
00000340: 5af6 173e 11a3 d83d e118 57bd 0403 683d
00000350: 5111 0d3e a5c2 35bd 9969 0c3e 892c 5b3e
00000360: 5c40 88bd 18be 663e e68a 073e 98e2 843d
00000370: c0bf 333e 361f 563e 77e5 8dbd a371 853d
00000380: 48c3 2a3e 0482 303e eef3 c53d 3a06 63bd
00000390: 8b7b a23d c877 3e3e 16a4 453e 5b0d bd3d
000003a0: ac1b 15bd 59e0 e137 ede5 9e3d 3c0e 543d
000003b0: 2cec ef3d c327 a1bc d9a7 143e c65f 333e
000003c0: 2f68 9d3e 6ab9 71bd 3f67 283e 24de 8fbd
000003d0: f136 c33d ab35 1f3c f295 34bd 5ff2 433e
000003e0: 71ac 85bc 5e5c ffbc 67e9 b73d a3c5 32bd
000003f0: ebd6 41bd 07b1 26bd 1c7e 143d 868d 6abd
0.13999285 -0.071009055 0.14504972 -0.054705467 0.101541445 0.17845449 -0.039695058 0.019922178
0.014447617 -0.050702497 0.01785193 -0.061971266 -0.042112 -0.06816805 0.109364785 0.110445336
0.104621105 0.17423312 0.048671927 -0.08341992 -0.06865847 0.18723792 0.21080625 0.09647121
0.21864483 -0.021532517 -0.018577825 -0.06898356 0.08427625 -0.057503477 0.11305279 0.09805493
0.14624453 -0.0562958 0.059116703 -0.002801076 0.18403055 -0.04021766 0.17387825 0.2812475
-0.049559344 -0.084648095 -0.051320873 0.1645577 -0.011341734 -0.032144036 0.1018649 0.17924182
0.12389509 -0.048400275 0.19113356 0.22497033 0.19785339 0.069512255 -0.022400599 -0.18476288
0.25083387 -0.06704705 -0.0108334245 0.19377525 -0.029588524 0.046872236 -0.021925287 0.08170694
-0.0615089 0.21667475 0.22180752 0.09137403 0.11257625 0.17457356 0.17959549 0.17129081
0.002869024 0.21749201 -0.008673792 0.17541943 -0.028237587 0.18274198 0.23980361 -0.055091146
-0.033070665 -0.047668606 -0.033103984 -0.07614468 0.129775 -0.024270631 0.032297865 0.26520777
0.031418473 -0.063860014 -0.00893537 -0.022027036 -0.0369752 -0.08844 -0.039782736 0.004334302
-0.033153024 0.19465043 -0.041596867 -0.03506231 -0.06126235 -0.027715757 0.19080539 -0.07194618
-0.06284313 0.13522689 -0.0695713 0.00041264447 -0.06389822 0.036469687 0.06737608 0.14549008
0.13044798 -0.06732127 0.22973871 0.02824442 0.3237056 0.30521142 -0.0505219 -0.022939563
0.06182027 0.2206049 0.25898606 0.057615902 0.17713735 -0.020920653 -0.023961749 -0.015124945
-0.0566957 -0.028878432 -0.039994977 0.12107293 -0.04649321 -0.026072793 0.25697038 -0.041015714
-0.03886537 0.17092703 0.010442013 0.056384303 0.109375216 -0.06322063 -0.019190347 0.045974456
-0.06111646 0.0008264624 0.19910984 0.25901648 -0.03893516 -0.17688817 -0.024867063 0.11278291
0.31374034 -0.052252088 -0.056753006 0.2508113 0.17155774 0.16904359 0.13235734 -0.015464606
0.062545724 0.17320536 0.07268519 -0.066484906 0.21792616 0.09760499 0.128421 0.103520036
-0.03843605 -0.059431035 0.21402073 -0.06014671 -0.024743376 0.077905364 0.034782305 -0.008062843
-0.009439329 -0.06074067 0.082628116 -0.1739342 -0.050265588 0.2022966 0.29024714 0.124438375
-0.028602846 -0.03993706 -0.015307463 -0.0495821 0.06572651 -0.06968996 -0.068123266 0.29399008
-0.047621455 0.07479511 -0.04465465 -0.049298637 -0.041192982 0.24773048 -0.04365377 0.098382525
-0.039677538 -0.06335558 0.20123889 0.022013996 0.22213048 0.14650811 0.13253593 -0.044904117
0.1484007 0.105779774 -0.05251396 0.0566435 0.13776137 -0.04437508 0.13712157 0.21403708
-0.066529006 0.22533453 0.1323658 0.06488532 0.17553616 0.20910344 -0.069285326 0.06515815
0.16676056 0.17237097 0.096656665 -0.05542586 0.0793372 0.1860038 0.19300875 0.09231063
-0.036403343 2.692656e-05 0.077586986 0.051771387 0.11714968 -0.01967228 0.14517154 0.17517003
0.30743548 -0.059014715 0.16445635 -0.07024792 0.095319636 0.009717385 -0.04408831 0.19135426
-0.016317578 -0.031171974 0.08980065 -0.043645512 -0.047324102 -0.04069617 0.03625308 -0.057263874

network.6.weight f4 [256, 256]
00000000: 0db6 afbe a2cf 7f3d 22ab 0cbe c008 86be
00000010: bedb 043e 594d 0a3d 0153 80be a444 febd
00000020: 9552 28bf cadc 73bd 5513 81be 0f8e 353c
00000030: cf6a 873c 3d89 023d 2da7 5bbe 54e9 d8be
00000040: f7ec efbe 21ce 29bd fb82 1bbf 93cd 4e3d
00000050: ee60 623d 91e2 e23b 7cc9 b23e bedf 1c3c
00000060: ea89 a9bd e121 593c e247 adbd ba04 58bd
00000070: 33de cbbb 7fd5 84b9 0a84 a9be 0fda 82be
00000080: 1887 9bbe 63bc 163d a59b 07bf d680 85bc
00000090: 5362 153e ea82 ba39 cf77 d43e 0bfa 57bd
000000a0: 84ae 8bbc caf4 2cbd 301c 273c a316 8c3e
000000b0: 3821 fbbd f8f9 e23c e233 42be f53e 393d
000000c0: e96e d3bd dddd b33b b856 893e aeb2 173e
000000d0: c990 b53d 7f4e c0be c45b 58bd b370 51be
000000e0: 501a 4cbd 7d27 323d e160 313d 730d 1b3e
000000f0: ac58 0cbd c0c1 11bf 662f 963c 613d 36be
00000100: 4d14 28bd ef19 1c3e 7896 b83d 9873 18bf
00000110: 2941 7c3e 4c9d 57be b266 3f3e dc1c 143e
00000120: bad6 5e3d ae30 68bd d783 383d 6a27 a7bd
00000130: 92b6 e8bb fd1a fe3c 2cce e5bc a019 7d3c
00000140: 3c80 2a3c 4edd 0d3d c8c2 6d3c 3efb 223d
00000150: 6c93 8cbe 36c6 5abf 4b27 0cbf 42e9 f43d
00000160: 5aa3 2dbf f65c 63be 1020 e3bc 5f83 7abc
00000170: 27dd 33bf a47c 29bd a8be 85bc 54c0 4fbf
00000180: 02cb 53bd 821d a03d 2c40 27bf 3ee7 dc3b
00000190: 7f97 e0bc b0af 8b3c fc79 d2bd e4e1 1abd
000001a0: 6218 4a3d 3fee 0cbd 66cf 1d3d 919c 7bbd
000001b0: 962b 123d 8fe9 bdbe 2076 10bf 073b 7bbd
000001c0: 2ec4 5fbe e00e 0abd 85d4 a5bd 7b99 21bf
000001d0: 0a6e 153e b484 2b3e 78fc 13bd 1ec0 163e
000001e0: 9bde b33d 9cde 4e3e 4e70 a53d 73b1 19bf
000001f0: a2d4 99bd 9042 c73b b012 4f3c 67c1 efba
00000200: ad2b e83c b7a7 3c3d 84f3 6ebd 9ded a4be
00000210: cb0a f43c 1ebe 17bd 7cb9 a23d aea5 59bf
00000220: 8324 38bd 3f43 55bd d810 36bf c346 d8be
00000230: 67c4 d9bb 08e7 dcbc 9628 ee3b d2a9 94be
00000240: 4dd9 d8bb 93e4 8a3c 53a6 5a3e 99ec 8c3d
00000250: 95e8 4f3d 52dc a5be d287 3dbc f639 d9bd
00000260: 8a83 253e 3ccd 63bd 1a1a 4a3d fb79 fe3d
00000270: 9774 c0be fba3 843e bb9f 4abe 982d e1bc
00000280: cc18 0abf 668f 1a3e 08ba a53d 1f5c 67bd
00000290: 58d7 273e ec93 83bd 6d8f 60be fdad 77be
000002a0: 20ce 123c 42a5 56bd 2b30 6a3e cf35 063d
000002b0: d091 15bc a514 8abe b8cc 83be 17ff ca3c
000002c0: c10f 87bd 7b04 4bbe 7685 efbe f4ed 41be
000002d0: 1746 8e3d 132a e03d ffe1 4dbc 4505 c7bd
000002e0: 14e3 80be 287e e23c 2a5c 0cbd ee9b 1bbe
000002f0: e42a aabe b821 a4bc b8f6 3c3d b8f4 1e3c
00000300: 5b35 c43b ea27 3ebe 9140 4bbe fff9 63bd
00000310: 7544 41bc a242 ab3d a767 c93c 864b b0be
00000320: abe6 82bf 46f8 55bc 9b95 2abd 220b e6be
00000330: 958c 523e 4d75 e8be 0df9 4fbe c670 783d
00000340: f577 14bd 4d21 2cbe 54dd c83c b591 d7be
00000350: bd01 8cbd 1bb5 33be cc40 0bbe 886b 143e
00000360: f1e6 2abd d7a7 463d d95c 0ebe d375 e7be
00000370: 9f7d 503c 1d3b f13e c09d 58bc 749b 30bf
00000380: a455 a63d 2835 bcbd a0d2 10be a030 f13c
00000390: 3f08 c9be 28eb 8dbc 3aeb 64be 0589 d53c
000003a0: 3eff 93be f6c8 29bd 182c c03d cbd3 0abe
000003b0: 627f ebbe 1c7c 8d3c 93fd febd 10c4 d5bd
000003c0: 8ff8 043e 3032 dfbb de27 ebbe 1061 693c
000003d0: 725e 593e 5d69 87bd 14dc 2bbd 19dc 103e
000003e0: 5a74 da3a e443 35bd f5f3 ebbc f5c4 8abd
000003f0: 4fdb 67bf 5eb9 5abb 4b73 13bf 9031 05bd
-0.3431858 0.062453873 -0.13737157 -0.2617855 0.1297445 0.03376517 -0.25063327 -0.12415436
-0.6575101 -0.059536733 -0.25210062 0.011081233 0.016530422 0.031869162 -0.21450491 -0.42365515
-0.46860477 -0.041456345 -0.60746735 0.05048902 0.05526822 0.0069239815 0.34919345 0.009574829
-0.08278258 0.013252706 -0.08460976 -0.052738883 -0.0062215566 -0.0002533607 -0.3310855 -0.2555699
-0.30376506 0.036800753 -0.5297187 -0.016296785 0.14588289 0.00035574223 0.41497657 -0.052728694
-0.017050989 -0.042225637 0.0101995915 0.2736102 -0.12262195 0.027707085 -0.18965104 0.045226056
-0.10323889 0.0054890946 0.26823974 0.14814255 0.08865506 -0.37559888 -0.05282189 -0.20453148
-0.04982978 0.04349469 0.04330528 0.15141849 -0.03426425 -0.56936264 0.018333148 -0.17796852
-0.041034985 0.15244268 0.09013075 -0.5955138 0.24634232 -0.21056098 0.18691519 0.14464134
0.054403998 -0.05668705 0.045047607 -0.081618145 -0.007101842 0.031018728 -0.028052412 0.015448004
0.01040655 0.03463488 0.0145117715 0.039790384 -0.27456224 -0.85458696 -0.54747456 0.11958553
-0.6782738 -0.2220343 -0.02772525 -0.01529011 -0.70259327 -0.041378632 -0.016326264 -0.81152844
-0.051707275 0.07818128 -0.65332294 0.0067414334 -0.027415989 0.017051548 -0.10277173 -0.037813082
0.04933966 -0.034406897 0.03852787 -0.06142861 0.035686098 -0.37092254 -0.56430244 -0.06133559
-0.2185218 -0.033705592 -0.080971755 -0.6312482 0.14592758 0.16749841 -0.036129445 0.14721724
0.08782693 0.20202106 0.08078061 -0.6003639 -0.075112596 0.006080933 0.012638733 -0.0018291891
0.028341139 0.046058383 -0.058337703 -0.32212535 0.029790303 -0.037046544 0.079455346 -0.8501843
-0.044956695 -0.052066084 -0.7111945 -0.42241487 -0.0066457274 -0.026965633 0.007268022 -0.29035813
-0.006617701 0.016954696 0.2135251 0.06881065 0.050758917 -0.32394654 -0.011568027 -0.10606758
0.1616346 -0.05561565 0.0493413 0.1242561 -0.3758895 0.25906357 -0.19787495 -0.027487561
-0.5394409 0.15093765 0.08092123 -0.056484338 0.16390741 -0.06424698 -0.21929713 -0.24187465
0.008960277 -0.052403696 0.22869937 0.03276616 -0.009129003 -0.26968876 -0.25742126 0.02477984
-0.06594802 -0.19825928 -0.4678151 -0.18938428 0.06946962 0.10945525 -0.012566089 -0.09717802
-0.25173247 0.027648047 -0.034267582 -0.15196201 -0.33235848 -0.02003561 0.046133727 0.0097019
0.005987806 -0.18569914 -0.19848849 -0.055658337 -0.011796107 0.083623186 0.024585558 -0.3443262
-1.0226644 -0.013059681 -0.04164658 -0.4493037 0.2056144 -0.45401993 -0.20309849 0.060654424
-0.036247212 -0.16809578 0.0245196 -0.42103353 -0.06836269 -0.17549555 -0.13598937 0.14494145
-0.04172415 0.04849991 -0.13902606 -0.4520708 0.012725263 0.47115412 -0.013221204 -0.689872
0.081218034 -0.09189826 -0.14142847 0.029442132 -0.39264104 -0.017324045 -0.22355357 0.026066313
-0.28905672 -0.041451417 0.0938341 -0.13557355 -0.45995623 0.017271094 -0.12450709 -0.104377866
0.12985443 -0.0068114027 -0.45928854 0.014244333 0.21227434 -0.06611893 -0.04195793 0.1414646
0.0016666756 -0.0442542 -0.028802851 -0.06775848 -0.90569013 -0.0033374648 -0.575978 -0.03251797

network.6.bias f4 [256]
00000000: cffc a53f 4877 653f e58f 86bd 36b2 a63e
00000010: 6557 a53f 7b53 793f 7b7b 993f 9bbb 883f
00000020: 9894 2d3f d27e 823f 891c 503f f9db 163e
00000030: e939 a63f cd14 a93f c267 863f a02f ec3e
00000040: 2adb 7a3f ac78 5a3f 04c7 a23f 0327 8f3e
00000050: e0b2 b53f 599a a03f e915 853f 3909 a43f
00000060: fc09 b53f 334d a53f b5ce a83f a3f6 9b3f
00000070: 0729 b13e 615f af3f 1325 8a3f d35e 9b3f
00000080: 297c 9c3f 9868 b13f 4225 9d3f 0e91 a93f
00000090: 4d26 b13f eee6 b6bd 789c 853f e42a 813f
000000a0: ec81 8e3f 37e0 853f 7646 133e 0a9a f03e
000000b0: 4312 9f3f 304c 873f 7d53 813f 0f53 b73e
000000c0: 2384 5d3f 6d37 773e 8f26 a33f 986d a43f
000000d0: 18d1 6cbd 5a07 143f 7148 c33f 655b a93f
000000e0: 40cb 8d3f ed56 8a3f dbb9 b03f 3de5 733f
000000f0: 8576 1a3e b123 c2bd ed63 b43f 513c 9c3f
00000100: ac11 4e3f 96a7 833f 75f6 9f3f 8e9a 443b
00000110: c9de 633f c531 9f3f 39ba a53f 6099 1a3d
00000120: bdf4 893f e7de 583f 671f 9d3f 48f4 6d3f
00000130: 76a0 8e3f adab 9bbd c963 b23f ad0b 88bd
00000140: 198b d33e f001 b63f 6f53 7e3e ce5d 813f
00000150: 4f1b 843f d2a7 533f fc77 84bd e822 87bd
00000160: 732d eabd 5fa2 c23e 541e 633f 7eda a03f
00000170: 386d b13f 650d 903f c24f 053f 6724 6e3f
00000180: 7ca3 853f 4b4a 823f 9b47 8b3f aa80 753f
00000190: 8b18 5a3f 5e16 9b3f 873f 9d3f 912d 37bd
000001a0: 1a33 683f 0a58 9b3f bee3 8f3f a3dd b53f
000001b0: db43 af3f 570e ae3f cc47 833f 7e47 993f
000001c0: b6bf 7e3f 21b9 cabd df54 33bd f32c a83f
000001d0: 9dc2 743f 4cbb 8d3f a34d 9b3f ea00 b13f
000001e0: 5937 51be c038 8f3f de71 883f 8a4e a23f
000001f0: ed41 923f b3cd 803f d2e4 5abd 83b8 6f3f
00000200: 17dd 8f3f b272 663f 6764 823f 1236 5c3e
00000210: 9f0c b33f b397 6b3e fcad 6a3f c8f0 ef3e
00000220: 8d67 843f 36e2 8d3f 476e 963f 59e2 893d
00000230: 09c6 a33f ebc8 483e 3769 1dbe 17e3 713f
00000240: d3fe 713f 9113 a23f c07c ad3f d6de ab3e
00000250: 32f9 98be f5b2 593f 1a0f 683d b6df 7c3e
00000260: 1e81 6b3f 59b4 2f3e 1579 823f 17a3 a03f
00000270: c467 7e3f 4fc2 b83f 4498 8e3f 4941 a43f
00000280: e086 7e3f 3ff6 b43f b222 9e3f cf45 963f
00000290: 8f44 903f 8bc3 9d3f da7c 583f 5a83 963f
000002a0: f1b5 8f3f 9f70 9b3f df16 603f 48dd 3e3f
000002b0: 01b6 823f 74ff 8b3f 1d2a 863f 0948 963f
000002c0: ede8 353e 8904 913f defb a93f f1da 5f3f
000002d0: 8aed 963f fe4c 9a3f 1192 543f 0aea a63f
000002e0: e4ec 8a3f d419 563f 47d9 b03f 10c0 88bd
000002f0: e4b5 893f 046c b23f 4b4c 943f a745 2f3e
00000300: 20cf 6b3e f78d a53f 250a b53f e297 c7bd
00000310: e566 973f 308b 6c3f f824 1c3f ef8b 603f
00000320: b86d 953f b8ce 893f 4e48 8e3f 79fe ae3f
00000330: 09e9 8a3f c78b 013e 100e a73f 1c2c b03f
00000340: 81fc ad3f d3e9 983f d38e 9f3f b60e 913f
00000350: a4de 823f 1044 b73f 5f97 9c3f c0bf 813f
00000360: 3ffc e13e 1be5 833f 1148 303f 84df 883f
00000370: 6341 a53f 1b19 9f3f d1b9 e13e 436d 6e3f
00000380: 62d8 7c3f e2cb 813f 74d3 973f 2f29 5b3f
00000390: f239 783f ff4b 4d3f 7fa7 903f 5120 9b3f
000003a0: c538 873f 9d84 9a3f 97be a13f 8363 b3be
000003b0: 3022 883f 9a24 36bd 025c 873f 46d0 3a3e
000003c0: c5a5 963f 60c8 af3f c841 3a3f c559 01be
000003d0: 77ce a83f 8ea9 7e3f 7d2f 633d ad9b 233f
000003e0: 42c3 4d3f 28fd 903f 7ee3 ab3f 7987 923f
000003f0: e318 a63f fd5b 5f3f 1d65 a33f deda 953f
1.2967776 0.89635134 -0.065704145 0.3255784 1.2917296 0.97393006 1.1990808 1.0682253
0.6780486 1.0194952 0.8129354 0.1473235 1.2986423 1.3209473 1.0500414 0.46130085
0.9799067 0.8534038 1.2716985 0.2795945 1.4195213 1.2547103 1.0397311 1.2815315
1.4143672 1.2914184 1.3188082 1.2184643 0.34601614 1.3700982 1.0792564 1.2138313
1.2225391 1.3860044 1.2276995 1.3247392 1.3839813 -0.08930765 1.0438375 1.0091214
1.1133399 1.045905 0.14382347 0.46992522 1.2427448 1.0570126 1.0103604 0.35805556
0.8652975 0.24142237 1.2746142 1.2845945 -0.057816595 0.5782372 1.5256482 1.3231016
1.1077652 1.0807778 1.3806719 0.95271665 0.15084274 -0.09479464 1.4092995 1.2205907
0.80495715 1.0285518 1.2497088 0.0029999348 0.8901182 1.2437063 1.2947456 0.037743926
1.0777813 0.8471512 1.2275208 0.9295087 1.1142719 -0.07601104 1.3936702 -0.06642852
0.4131706 1.4219341 0.24836515 1.0106752 1.0320834 0.8267795 -0.06468198 -0.06598455
-0.1143445 0.38014504 0.8871815 1.2566679 1.3861456 1.1254088 0.52074826 0.93024296
1.0440516 1.0178922 1.0881227 0.9589945 0.851937 1.2116201 1.2285012 -0.04472119
0.90702975 1.2136242 1.1241376 1.4208263 1.3692583 1.3598126 1.0256286 1.1974943
0.9951128 -0.09898592 -0.04378211 1.3138717 0.95609456 1.1072783 1.2133068 1.3828404
-0.2043127 1.1189194 1.065975 1.2680218 1.1426369 1.0062774 -0.053440876 0.9364092
1.1239346 0.9001876 1.018689 0.21505001 1.3988227 0.23007087 0.9167173 0.4686339
1.0344101 1.1084659 1.1752404 0.067326255 1.279481 0.19607894 -0.15372168 0.94487137
0.94529456 1.2662221 1.3553696 0.33568448 -0.2987762 0.8503869 0.056655027 0.24694714
0.9199389 0.17158641 1.0193201 1.2549771 0.99377084 1.4434298 1.1140218 1.2832423
0.9942455 1.4137648 1.2354338 1.1740054 1.1270922 1.23253 0.8456551 1.1758835
1.1227399 1.2143744 0.875349 0.745564 1.0211793 1.0937333 1.0481602 1.1740733
0.17764635 1.1329509 1.3279989 0.87443453 1.1791241 1.2054746 0.8303538 1.3040173
1.0853543 0.8363316 1.3816308 -0.06677258 1.0758634 1.3939214 1.1585783 0.17116414
0.2302823 1.2933949 1.4143721 -0.09745766 1.1828276 0.92399883 0.6099391 0.8771352
1.1674109 1.076621 1.1115816 1.3671409 1.0852367 0.12650977 1.3051167 1.3763461
1.3592683 1.1946357 1.2465461 1.1332614 1.0224195 1.4317646 1.2233695 1.0136642
0.4413776 1.0304292 0.68859965 1.0693212 1.291058 1.2429537 0.4408708 0.9313547
0.98767674 1.0140345 1.1861405 0.85609716 0.9696342 0.80194086 1.1301116 1.2119237
1.05642 1.207172 1.2636288 -0.3503686 1.0635433 -0.0444685 1.0574954 0.18243513
1.1769339 1.3733025 0.72756624 -0.126319 1.3188008 0.9947747 0.05546521 0.6390942
0.80376065 1.1327257 1.34288 1.1447593 1.2976345 0.8724974 1.2765232 1.1707418

network.8.weight f4 [3, 256]
00000000: fb35 0c3f f9c4 9bbe 0b6d 883c 6d76 ad3d
00000010: f997 8abe 4dd4 14be 1693 0a3f 2836 383f
00000020: aabb 933f 8540 9bbe 5dac babc 79aa d13e
00000030: c489 2d3f 8e0a 073f 2966 f23e 6e39 4c3f
00000040: 58f4 483f ba4d eabc 697a 83be 7667 673f
00000050: 74bf 033f b5cc 6bbe 1090 91be 8352 a93e
00000060: 71b4 e43e dfb2 d13e b55a 5c3f b2de 353e
00000070: d4b5 fd3e da78 c23e 7da5 75be 7880 923e
00000080: 6e33 6fbe 61d4 fa3e 0957 90be e10b 043f
00000090: a524 0c3f 594d d23a b144 53be 3a6b a4bd
000000a0: ffc6 89be 591e d6bd 7af8 093e 2a5e 3b3f
000000b0: 9d45 1d3f 5765 c5bd 3d52 89be 9757 ef3e
000000c0: 73fa 913e 3406 2a3e 718f 173f 6e96 a03e
000000d0: c22a 21bb adde 47bf ca5b e23e fadc fd3e
000000e0: d5e9 213f ee52 8c3e 40b7 ef3e 5ccf 7cbe
000000f0: 212e 953d b63e bebe 1207 e33e 5eff ce3e
00000100: e60e 463f 0f14 9a3e 6846 53be bd23 dabe
00000110: 19d2 b0bd ab5e 7ebe 308d ea3e 1a4f 00bf
00000120: 99ad 96be a1ee babd c70b 033e cf10 78be
00000130: 1c62 223f c193 203c fe5f 2b3f 980e abbc
00000140: 9051 223f 4c17 343f 1bd9 113e 7b0a 82bd
00000150: e5ff 9ebe a7bc 8ebd 5b52 343a 16c7 f83e
00000160: e87d 983c d423 18bf a64d 9b3e 6eef 8dbe
00000170: 5b99 d03e f879 e7bd 9fd2 b7bf b211 783f
00000180: 71c8 3b3e a1ef 80be 5b11 00be 710d 1abe
00000190: 708a dbbc 1545 92be 7dd8 903e b46a 36bf
000001a0: ea56 673f 9233 f53e 34f4 51be 0592 013f
000001b0: 09fe 0a3f 05c1 0a3f f0ae edbd 37ce 3a3f
000001c0: 98f5 afbd 9880 973c ce11 973b 1aa2 63be
000001d0: e4ad be3e c0b8 013d 73c4 1a3e 5355 c83e
000001e0: 8be7 13bf 435f da3e 8cfa 30be f06a 9a3e
000001f0: c29b 62be ee68 69be fcbd 38bd 1d02 fb3e
00000200: 9dca 203f be01 45bd e76e 88bf c98f 6abf
00000210: 6987 b63e c1a8 a0be 4f45 bbbd c5b9 c73e
00000220: af71 5cbe 6efb 1dbe e852 033f 2c13 8d3d
00000230: f1ef 77be 325c ccbe 8123 4e3c 92fe b0bd
00000240: 9842 f1bd f0d3 8cbe 07a5 be3e b80b af3e
00000250: 4131 25bf 9238 5e3f d83f ec3e 785e fe3e
00000260: 2049 98be c8e9 f3bc 7582 033f a6f2 043f
00000270: 4568 92be af2a 0d3f 3820 47be 8f21 5abe
00000280: 432d 14be baee d43e 8b28 ac3e 9523 24be
00000290: b9f0 67be b527 163f 1072 823f 5564 4cbe
000002a0: cb43 12be 3d5b 72be 6994 bfbd ca5d 3a3e
000002b0: 920f b5bd 6f4f 1d3f 7e49 363f b19f 103e
000002c0: 7bbe a93e 1cda 9cbe db5e 553f 3873 8d3f
000002d0: 9f4f 873e 23d6 60be d609 35bd 566f e73e
000002e0: 7090 173f 19ba 8abd bae3 183f a137 1ebc
000002f0: 5bc9 0abe 7bc7 093f 5b43 cd3e b627 3f3f
00000300: a497 0b3e c94e 333f c829 ac3e 17ad 5c3c
00000310: 5664 a13e 13ad 2d3f 9ae5 6a3f bd4b 39bd
00000320: edcf 5abe 960e 30be 281a 66be f105 833e
00000330: 7416 7abe d55d 843d 5dc0 87be 4a9d 1d3f
00000340: 548f fe3e 48ad 5bbe 80ce 483f 2ac2 11be
00000350: 494d 1ebe 2982 df3e d790 d83e 1527 48be
00000360: 0965 8b3e aac3 243f 9e58 12be 7f18 d83e
00000370: e049 56be 5212 e73e 7410 5fbf 303a 173f
00000380: 2cdf 11be 07d6 50be b9a3 72be 3ab2 81bd
00000390: d74e 00be d0be 0ebe 2a87 dfbd c3e9 64be
000003a0: 6b83 16be 573f 2abe f25a c23e 99a8 cf3d
000003b0: 5218 8cbe dbda 02bd 360b 2e3f a488 52bf
000003c0: c176 79be 07e7 d73e 9fc5 4f3f 2a83 3a3a
000003d0: cc98 b83e ec10 80be 14f4 a7be e013 4a3f
000003e0: 1bdb d83e 592f 88be 064c 423f a999 ca3e
000003f0: 0e96 c93e cf38 92bd 345c 85be bdfd 60be
0.5476987 -0.30423716 0.016653558 0.084698536 -0.2706907 -0.14534111 0.54130685 0.71957636
1.1541646 -0.30322662 -0.022787267 0.40950373 0.6778834 0.5275048 0.47343567 0.7977513
0.7849784 -0.028601516 -0.2567933 0.90392244 0.5146401 -0.23027308 -0.28430223 0.33070764
0.44668916 0.4095678 0.8607591 0.17760733 0.49552786 0.37982827 -0.2398891 0.2861364
-0.23359463 0.48990157 -0.28191403 0.51580626 0.54743415 0.001604478 -0.20631672 -0.08028264
-0.26909634 -0.10455007 0.13473693 0.7319056 0.61434346 -0.0963847 -0.26820555 0.46746513
0.2851139 0.16603929 0.5920325 0.3136477 -0.0024592136 -0.7807415 0.44210654 0.49582654
0.63247424 0.2740702 0.46819496 -0.24688476 0.07284189 -0.3715722 0.44341332 0.40429205
0.77366483 0.30093428 -0.20632327 -0.4260539 -0.08633823 -0.248408 0.45810843 -0.501207
-0.2942932 -0.09127546 0.12797461 -0.24225162 0.63430953 0.009800852 0.6694335 -0.020880982
0.63405704 0.7034805 0.14242975 -0.06349655 -0.31054607 -0.06969576 0.0006878727 0.4858939
0.018614724 -0.5942967 0.3033268 -0.27721733 0.40742 -0.113025606 -1.4361151 0.96902
0.18338181 -0.25182822 -0.1250662 -0.1504419 -0.02679941 -0.2856833 0.28290167 -0.71256566
0.90366995 0.47890908 -0.20503312 0.50613433 0.54293877 0.54200774 -0.11605632 0.7297091
-0.08591765 0.018493935 0.004610277 -0.22229806 0.37242043 0.031670332 0.15114002 0.39127597
-0.5777518 0.42650804 -0.17283076 0.30159712 -0.2212973 -0.22793934 -0.04510306 0.4902505
0.62809163 -0.048097365 -1.0658845 -0.9162565 0.35650185 -0.3137875 -0.09144079 0.39008918
-0.21527742 -0.15427944 0.5129838 0.06888422 -0.24212624 -0.3991409 0.012581707 -0.086423054
-0.1178028 -0.27505445 0.3723528 0.34188628 -0.6452828 0.8680507 0.4614246 0.4968145
-0.2974329 -0.029774562 0.51370937 0.5193275 -0.28595176 0.55143255 -0.19445884 -0.21301864
-0.14470391 0.41588384 0.33624682 -0.16029198 -0.22650422 0.5865434 1.0191059 -0.19960149
-0.14283673 -0.23667617 -0.09354479 0.1819984 -0.088408604 0.6144933 0.7120589 0.14123417
0.33153138 -0.30635154 0.8334786 1.1050787 0.26427934 -0.21956687 -0.044198833 0.4520213
0.5920477 -0.067737766 0.59722483 -0.009656818 -0.13553374 0.5382001 0.4009045 0.7466997
0.13632065 0.7004209 0.33625627 0.013469002 0.31521863 0.67842215 0.91756594 -0.045238245
-0.2136838 -0.17193064 -0.22470915 0.2559047 -0.24422628 0.064632095 -0.2651395 0.6156813
0.49718726 -0.2145282 0.78440094 -0.14234224 -0.1545917 0.43653992 0.42298004 -0.19546159
0.2722552 0.6436106 -0.14291617 0.4220619 -0.20926619 0.45131165 -0.8713448 0.5907316
-0.1424529 -0.20394145 -0.23695268 -0.06332822 -0.12530075 -0.13939977 -0.109144524 -0.22354798
-0.1469857 -0.16625725 0.3796001 0.10139579 -0.27362305 -0.031946998 0.67985857 -0.8223975
-0.24361707 0.42168447 0.8116092 0.0007114882 0.36054075 -0.2501291 -0.32803404 0.78936577
0.42354664 -0.26598623 0.7589725 0.39570358 0.39372295 -0.07139742 -0.26046908 -0.21971793

network.8.bias f4 [3]
00000000: da14 13bf 4ea6 27bf 510c ddbd
-0.5745369 -0.65488136 -0.10793365
