mountaincar_cl_project/mountaincar_cl/runs/abrupt/none/seed_2/online_stream_model.pth (torch, 536437 bytes, 8 tensors)

network.0.weight f4 [256, 2]
00000000: 904a 09bd 00ad 2bbe 9ae8 993e 1ea8 16bf
00000010: 740f 4f3d 8e90 4540 f2b9 8cbd e77a 2140
00000020: 0767 23be 7fa4 2d40 f308 e33e 998f ce3c
00000030: 9d3c 2ebd e13d 2340 bbb2 313f 985d 38be
00000040: 55c0 32be 1f70 4c40 fc4f 8f3e 8660 ca3e
00000050: 126b 1abe 8082 9c3f 0d21 f13e b86d 1740
00000060: 78ab 18bf 68b3 ccbf a03f 923d bb10 053f
00000070: 1c72 b5be aadc 4dc0 0c14 553e 1a06 2d40
00000080: 0467 54bd a35b 4240 098e c9be 46e0 a53e
00000090: 45b4 473f fb50 af3f 6508 b23e 5eb4 5740
000000a0: 08a6 9a3d 5870 84bd 0634 b63e 644c 10bf
000000b0: d9bf 25be 8d44 3040 04f2 7bbe 755b d1be
000000c0: 38b6 e53d c904 0b3f f4ca 14bf 6bb5 ac3f
000000d0: aa61 06be e9fa 84c0 fd51 c2be 63bb 1c40
000000e0: 9557 203f 28ba 123e 4ee8 4f3f 0f70 503f
000000f0: e9b6 0fbf e27c adbe d76c 1e3f ed5c 81bf
00000100: 82a4 8b3e e334 3d40 c418 203f 9a87 4e40
00000110: 2e64 a6be fba6 6ebf 3023 2f3d c05d cd3c
00000120: 2dbb 093f de6b 8fbe cea8 a63e d9ac 313f
00000130: 4a3a 07bf 72c2 983e 6d53 f4be fc06 0340
00000140: b849 ea3d 2734 edbe c864 603e 0047 823c
00000150: 1758 d53e 5b7a 2040 f8b6 273e 3d21 efbe
00000160: d031 1f3e 98da 87bd d0ec c63d b065 343d
00000170: 1b9d 1a3f 8ff0 1240 7e04 1e3f a6b6 3c40
00000180: 006b 81bb 64e5 5a3e 1e01 c23e 9f4c dfbe
00000190: 0ee9 1fbd 5399 5040 ae2e ba3e f9a3 313f
000001a0: a68a bbbc ebcb 6a40 ddbf c93d bdb9 a3c0
000001b0: c0bb 16be 68fe 3cbe 4921 813e b48e 6e40
000001c0: d007 6abe 7d82 27bf 5adc 3e3e 74e8 f53f
000001d0: dea3 54be 9820 03be 216a b03e 3503 2f40
000001e0: 9473 8b3e 5007 4b3e 4b96 1d3f 84b8 673e
000001f0: 10ba 293f fc47 fdbf 1e9c 583f ac10 bcbf
00000200: 84a1 ee3d dfcc 6640 7097 c23d 84f7 0fbf
00000210: dc2a 1b3f 53f5 2d3f e4ca 4fbe fced 673e
00000220: fe21 eb3e 57ce 313f e8d0 d2be ad37 3440
00000230: c33c d2be eff6 a13f 3582 593f d124 373f
00000240: a9ad 123f 5635 06bf a1a4 2b3f 5c90 5940
00000250: 93d6 1d3f d3fa 2abf 64b0 4c3e 6e5d 3840
00000260: 40be e13c 2d53 99be c94b 5f3f 527c 0fc0
00000270: 601c 053d b685 c63e cd3f 253f 4e2a 1240
00000280: 49fc 163f 65c3 313f 14e6 123e 30f1 ed3d
00000290: b033 233f 2dbb 5340 64e1 833e a8c5 43be
000002a0: ccf5 8fbb d80f 2340 fad9 d83e 6c08 733e
000002b0: c1f8 95be 0f39 fa3f 5f83 0cbf 8e05 eebe
000002c0: 5c50 9bbe a4c1 3540 40b8 cabd c2ab f83e
000002d0: a2b4 ccbd 16e0 4740 4dc6 e3bd 5d5f e53f
000002e0: f14a 393e 46ca 1b40 724b df3e abeb 243f
000002f0: b043 d03d 987a 80bd a1a3 303f 9826 0340
00000300: 0f7f f03e 0ac6 a53f 63bf 303f 085a 4e3e
00000310: c58c 093f 9431 2f40 edbb 29bd f163 4640
00000320: 5800 fc3e bf35 5f40 5834 cfbe a402 f43f
00000330: c8bd b83d 5f6b 6540 5024 663e e0b1 da3c
00000340: 96ef 9f3e 9846 cbbd 656d 1fbe bd27 0940
00000350: bf18 853e 6927 4840 c00e 13bc 8088 3dbc
00000360: ed4d 0d3f 07ae 023f e8b6 e0be 277e e43f
00000370: 196a 223f 49d6 abbe 1a6a b4be 4e45 6c3f
00000380: 25d9 8fbe fcea 4040 0b22 88bd f081 1e40
00000390: ae59 e63e 265e 07bf e8d8 e03d c1a2 2dbf
000003a0: bfd8 bcbe da9d 05bf a047 86bc d20d c53e
000003b0: 1504 013f ac0f 023e ab2e eebc 304e 3a40
000003c0: e63d 06bf d079 60be 83c0 173f fc34 d23e
000003d0: 2c87 a03e f204 063f e042 dcbc 8669 e03e
000003e0: 7624 973e 6b30 7640 c093 993e 25e8 6140
000003f0: a373 7d3d 7cab 0540 9582 333f df3d 91be
-0.033518374 -0.16765213 0.30060273 -0.58850276 0.050551847 3.086948 -0.06871404 2.5231264
-0.1595727 2.713165 0.44342765 0.025214957 -0.042538274 2.5506518 0.69413346 -0.18004453
-0.17456181 3.1943433 0.2799071 0.39526767 -0.15079907 1.2227325 0.47095528 2.3660717
-0.5963664 -1.599225 0.07141042 0.51978654 -0.3543862 -3.2165933 0.20808429 2.7034974
-0.051856056 3.036843 -0.39366177 0.3239767 0.78009444 1.3696588 0.3477203 3.3703837
0.07551199 -0.0646674 0.35586566 -0.5636656 -0.16186465 2.754184 -0.2460404 -0.4089009
0.11216396 0.54304177 -0.5812218 1.3492864 -0.13123193 -4.1556287 -0.37953177 2.4489372
0.6263364 0.14328825 0.81213844 0.8142099 -0.56138474 -0.3388434 0.61884826 -1.0106484
0.27273947 2.956353 0.6253779 3.2270265 -0.32498306 -0.9322354 0.042758167 0.025069118
0.5380123 -0.28011984 0.32550663 0.6940437 -0.5282332 0.2983585 -0.477199 2.0473013
0.11439842 -0.46328852 0.21913445 0.015902996 0.4166877 2.507468 0.16378391 -0.46705046
0.15546346 -0.0663349 0.09713137 0.04404229 0.60395974 2.2959325 0.61725605 2.948648
-0.003949523 0.21376568 0.37891477 -0.43613145 -0.039040618 3.2593582 0.3636374 0.6939083
-0.022893261 3.6686962 0.09851048 -5.116423 -0.14720058 -0.18456423 0.25220707 3.72746
-0.22854543 -0.65433484 0.18638745 1.9211564 -0.20765635 -0.12805402 0.3445597 2.7345707
0.27236617 0.19827008 0.61557454 0.22628981 0.66299534 -1.9787593 0.84613216 -1.4692588
0.116519004 3.6062543 0.09501541 -0.56237054 0.60612273 0.6795246 -0.2029224 0.22649378
0.4592437 0.69455475 -0.41175008 2.8158982 -0.41061983 1.2653483 0.84964305 0.7154055
0.57296234 -0.52425134 0.6704808 3.399436 0.6165554 -0.6678898 0.19989163 2.8807025
0.027556539 -0.2994627 0.87225014 -2.241963 0.032497764 0.38773888 0.6455048 2.283832
0.58978707 0.69438773 0.1434558 0.116182685 0.63750744 3.3082993 0.25757897 -0.19118369
-0.004393315 2.547842 0.42353803 0.23733681 -0.29291347 1.9548663 -0.54887956 -0.46488613
-0.30334747 2.839944 -0.09898424 0.4856854 -0.099953905 3.1230521 -0.11121807 1.7919728
0.18094994 2.4342208 0.43612248 0.644221 0.1016916 -0.06273383 0.6899968 2.0492306
0.46971938 1.2951062 0.6904203 0.20151532 0.5373042 2.737401 -0.041438986 3.09985
0.49219012 3.4876554 -0.40469623 1.9063306 0.09020573 3.5846784 0.2247479 0.026696146
0.31237477 -0.09925574 -0.15569074 2.1430504 0.25995442 3.1274054 -0.008975685 -0.011568189
0.5519703 0.51046795 -0.43889546 1.7850999 0.6344314 -0.33561924 -0.352372 0.9229325
-0.28095356 3.0143423 -0.06647118 2.4766808 0.44990295 -0.52878034 0.109788716 -0.6782647
-0.36884114 -0.5219399 -0.016391575 0.38487107 0.50396854 0.12701291 -0.029074987 2.9110222
-0.524382 -0.21921468 0.59278125 0.4105605 0.31353128 0.52351296 -0.026887357 0.43830508
0.29520005 3.8467052 0.29995537 3.529794 0.061877858 2.0885916 0.7012113 -0.28367516

network.0.bias f4 [256]
00000000: 7832 b5bd bd18 22bf 10ef 353c 1ee5 22be
00000010: 8e8e 72bd 6df8 87bc c1fa b5bd f5bd 07bf
00000020: 5611 84bd 74e7 14bf 6457 e2bd 3693 3d3e
00000030: af14 8dbe 5fb3 03bf b027 cebe 6b0f 6f3d
00000040: 5a91 e8bd 6991 e1be 4ebd ad3e 1e6d c43d
00000050: efb4 88be 1428 20bf d63c 66bd f5e8 afbe
00000060: 0d83 1abf 3096 4fbe 5083 debd 54d0 15be
00000070: ecba 16be 0d34 ad3e 781e bcbe 1135 c7bc
00000080: d6ec a03d 6ca2 423e 490e 44be c3de 16bf
00000090: c0f0 02be 6075 72bd d0cd 21bf f970 31be
000000a0: 7476 07be c119 c4be 9b5e ff3d ecc5 63be
000000b0: b91d d2be f8bf 27be a7ee 743e c1fa 7f3e
000000c0: 97d6 a5be af7f abbe 845b 9dbb f7e5 d4be
000000d0: e101 b9ba 5713 6d3d b8fd 2bbe 136d 893d
000000e0: 8a23 96be 5e1b 843c 0fc3 00bf 0d27 e03d
000000f0: f020 12be 6b1c 10bf 2a4c 903e a1cd b63e
00000100: a96f b53c 8c24 31be 5ec5 7b3e 7adb 61be
00000110: c0e1 05bf 5ddd 20be 2be4 10be b80b 853e
00000120: 63a6 cfbe 498e 8a3e df0d f3be a5ba 9bbc
00000130: 38b2 8fbd 15fa bd3e 8372 10bf 2636 873e
00000140: 09a0 89be fda4 a0be 3795 813e 5a3b 33bf
00000150: 1f9c 9dbd c874 34be e3f2 dabd 537d 16bf
00000160: 23d2 e3bd c1ff fabe ec86 07bd 4f0c 0abd
00000170: 9746 553d d8e1 6abe cf8e a9be c2cd 8d3e
00000180: da86 403e b329 99be c38c 263e faa4 dfbb
00000190: 3b2c 423e c114 35be 9ea2 993c e70e 9ebe
000001a0: 6049 79bd 229d 01be ec8e 963d 6e6b c3be
000001b0: 1599 c7be 45f2 29be f8e3 acbd c222 f3bd
000001c0: 9066 62be af4d 1abd d9b4 e2be dec4 18bf
000001d0: 5231 fabe a7ab 30bf 6d1c a2be 58e8 5abc
000001e0: e12c 08bf aa29 bdbc 0d34 89bc 8e43 05bf
000001f0: 8a49 a63d c729 af3d 54e5 34bd 980c e6bd
00000200: 1b9b e1be 25c6 e7be 7eb4 13bf 0970 fdbd
00000210: af5f 8fbe 5844 b8bd d8c0 06bf e779 7f3e
00000220: 46ad efbb 0de1 d63d 6cf5 09bf ced8 25bf
00000230: 87cb c83d 5703 aebe 0441 d4bc f85f fbbd
00000240: c43e a6bd d9a6 cfbe 7eb0 7ebc 3e81 b5be
00000250: 2a1e 00bf 042c 79be 0fc2 2abf f3ab cdbe
00000260: 0ce7 94bc d0e0 89be cc92 77be 4420 3dbd
00000270: c4c5 e4bc 537b dbbe c69f 0ebf 33ae 20bf
00000280: 9453 83be 6012 9dbd 90c8 b93d 58a9 9dbd
00000290: 7267 eebd b9c7 09bf ad1c de3c fadc 33bf
000002a0: bb7e 9f3d bc14 c73c 6472 8ebe 973c 8bbe
000002b0: a5b6 6f3e 5593 22bf 5db9 84be 4586 bf3c
000002c0: adb7 03bf 6cd3 683d 888c debc 7b28 b1bc
000002d0: 2be0 c5be 4901 3fbe e46e f1be 7387 ac3d
000002e0: 42c3 f2be cbb5 80be f36e 32bf 34d4 0b3e
000002f0: f8cf 623d 74b0 01bf a522 d63d 4d14 f03d
00000300: 161e fd3b 9e7c 15be 8a5c 12bf d02c 35be
00000310: 0551 23bc 1686 f73b f8f7 6dbd 8a56 09bd
00000320: 1381 e03d 8199 5dbd eaa8 cfbc c3c4 31bf
00000330: 2e4e 38be 2f6b 00bf 8ac6 53bd 59a2 17bd
00000340: b9b2 09bf 876f 02bf a421 abbe c416 24bf
00000350: 96fe 333e afb8 903d 10b7 19bf 36f0 76bd
00000360: 2363 08bf a65e 1fbf 18db 81bd db14 d5be
00000370: 1110 d6be 6f1e cfbe be7f 743e 268b 1ebf
00000380: 6b26 9c3e 9215 90bd d7cd 91bd 969b 83be
00000390: 9cec efbe 27f3 1ebe 4935 e33d f4b8 d5be
000003a0: d4af a3bc 6cf6 39be 077f 14bd 7c28 693e
000003b0: bc8f f1bb 425d 36be e339 c73d 6025 3bbe
000003c0: 7ce4 a0bc 04a6 53bd 9720 38be 4063 dbbc
000003d0: 471e 97bd d313 85be 5af1 c2be 0795 e33d
000003e0: 52f8 053c 983b d9bd 80b3 7bbd 0551 0cbf
000003f0: 5d59 64be d27d 8bbe 60e1 61be 5505 22be
-0.08847517 -0.63319 0.01110436 -0.15907714 -0.059217982 -0.01659795 -0.08885718 -0.53024226
-0.06448619 -0.5816567 -0.11051825 0.18513188 -0.27554843 -0.51445574 -0.40264654 0.058364313
-0.113558486 -0.44056252 0.3393349 0.09591125 -0.2670054 -0.62561154 -0.05621036 -0.3435742
-0.6035622 -0.20272136 -0.108648896 -0.14630252 -0.14719743 0.33828774 -0.36741996 -0.024317296
0.07857673 0.19007272 -0.19146074 -0.5893366 -0.12787151 -0.05919397 -0.6320467 -0.17328252
-0.1322878 -0.383009 0.124692164 -0.2224347 -0.41038302 -0.16381824 0.23919164 0.24997999
-0.32390282 -0.33495852 -0.0048021693 -0.415817 -0.001411494 0.057879772 -0.16796005 0.067102574
-0.2932399 0.016126331 -0.50297636 0.10944948 -0.14270377 -0.5629336 0.2818311 0.35703757
0.02214797 -0.17299098 0.24587008 -0.2205638 -0.5229759 -0.15709443 -0.14149539 0.25985503
-0.4055663 0.2706168 -0.4747152 -0.019009897 -0.070164144 0.3710486 -0.5642473 0.264085
-0.2687991 -0.31375876 0.25309154 -0.7001244 -0.07695793 -0.17622674 -0.10690858 -0.5878498
-0.11124065 -0.4902325 -0.033087656 -0.033703145 0.052069273 -0.22937715 -0.33116767 0.27696043
0.18801442 -0.29914626 0.16264634 -0.0068250867 0.18962185 -0.17683698 0.0187543 -0.30870745
-0.06086099 -0.12657598 0.07351479 -0.381679 -0.3898398 -0.16596325 -0.08441919 -0.11871864
-0.22109437 -0.03767174 -0.442786 -0.59675395 -0.48865753 -0.6901192 -0.31662312 -0.013361059
-0.5319348 -0.023091156 -0.016748453 -0.52056205 0.08119495 0.0855289 -0.044164017 -0.11232871
-0.4406365 -0.4526836 -0.57697284 -0.12374885 -0.28002688 -0.089974105 -0.52638006 0.24948846
-0.007314357 0.10492144 -0.5389011 -0.6478394 0.09804445 -0.33986923 -0.025909908 -0.12274164
-0.0811744 -0.40556982 -0.015545009 -0.35450166 -0.50046027 -0.24333197 -0.6670236 -0.4017025
-0.018176578 -0.2692933 -0.24177092 -0.04617335 -0.027926333 -0.42867526 -0.55712545 -0.62765807
-0.25649703 -0.076695204 0.090714574 -0.076983154 -0.116408244 -0.5382038 0.027113283 -0.7025906
0.07787844 0.02430188 -0.27821648 -0.27194664 0.23409517 -0.6350606 -0.2592267 0.023379454
-0.5145214 0.056842253 -0.02716662 -0.021625748 -0.3864759 -0.18652834 -0.47154915 0.084242724
-0.47414595 -0.25138697 -0.69700545 0.13655168 0.055374116 -0.5065987 0.10455827 0.11722622
0.007724534 -0.14598319 -0.57172453 -0.17692876 -0.009968047 0.007553826 -0.05809781 -0.033529796
0.10962119 -0.05410147 -0.0253491 -0.6944086 -0.17998573 -0.5016355 -0.051703013 -0.03702006
-0.53788334 -0.5095143 -0.33424103 -0.6409724 0.17577586 0.070664756 -0.60044956 -0.060287677
-0.5327627 -0.622538 -0.06340617 -0.41617474 -0.41809133 -0.40452906 0.23876855 -0.61931074
0.3049806 -0.07035364 -0.07119339 -0.2570464 -0.46860206 -0.15522443 0.11094148 -0.4174267
-0.019981302 -0.18160409 -0.036253955 0.2276935 -0.007371871 -0.17809013 0.09727838 -0.18275976
-0.0196402 -0.051671997 -0.17981182 -0.026780725 -0.07378822 -0.25991687 -0.38074762 0.11112409
0.00817688 -0.1060707 -0.06145048 -0.54811126 -0.22299714 -0.2724443 -0.2205863 -0.15822347

network.3.weight f4 [256, 256]
00000000: e86b 1bbd 6080 f4bc cb05 ccbe a542 a03c
00000010: 9ce1 b53c d2ab 97bb 6aaa 15bf 00e3 febb
00000020: 6e57 33bd 4684 17bd 9f10 a5bd fe30 34bf
00000030: c774 f1bd 2c10 13bd a11b 873e 2c48 563d
00000040: 6a39 48bf 0a51 33bd fb6d 26bf ab54 11bc
00000050: e4a9 07bd c4df 4f3d b1de 4fbd fad7 34bd
00000060: 30ad 0dbd 3369 26bd 2d75 b6be 5748 acbd
00000070: f497 653d 1d6e 04bf cc3f 6ebd fb5c 9e3c
00000080: 00c4 4dbf 3929 fd3c ab0f bdbc e09a 27bc
00000090: 2001 c9bb b82e 633d 0026 37ba 171c a2bd
000000a0: 90c1 843b 6ab2 05bd 3b57 d3bd 704a 9bbb
000000b0: aed3 16bd 204b e7bb bf93 09bf 9d36 4abf
000000c0: f487 573d d005 3fbd 67cf 7f3d eadc 473d
000000d0: 73ed 333e 2288 33be 9c05 17bd 4dd8 00bf
000000e0: 6c39 1f3d 1c51 b13e 10d8 7b3c 8ccf e33e
000000f0: 3011 5abd 1034 683d 0af2 34bf ce0e 14bf
00000100: a25f 00bf 5642 2bbd 371e 19bf 16eb 793d
00000110: e88c 19bc ea96 c2bd 4ef1 8d3c cb93 cb3b
00000120: 48f2 65bd 1331 7abf 3037 f3bc aba7 a3bd
00000130: 6877 473c 6aac 33bf ee0c 4ebd 0ad1 11bf
00000140: 22e6 33bd 80dd d1bb dd71 5bbf 10aa 9a3b
00000150: a712 1bbf 70b9 2d3c 0ac5 78bd a6f6 3d3d
00000160: d17f 8bbd e80a 173d 32b9 883d f430 9f3d
00000170: 0fcc ae3e 3c2f 683d 80c1 42bb 56c0 e7be
00000180: 6e9f f7bd 3e95 043d 3bd1 cdbd 15d2 7fbe
00000190: 28a6 88bf 6076 1abe 7930 86be a0d8 193c
000001a0: 2c6a fa3c bb0d 20bf 952f 06be 18f9 6e3d
000001b0: 4c8d d93c 3823 10bc 8a3d 1d3d 329a 40bd
000001c0: adcc efbe 697d d2be 4c54 91bc 8e3b 7ebd
000001d0: 1a2b 673d dad7 24bd 6ee7 383d 90b0 d33d
000001e0: ece3 923c 947c 883c 0ccf 3d3d ac6b 9a3c
000001f0: 029d d1be 3f90 09be a8ca 41bd c25d 52bd
00000200: eb98 2dbe f5aa d73d 7a6e 0c3d feb4 85bd
00000210: 35ba 20be e0a3 40bb b23f 5d3d 9159 1cbf
00000220: fb66 d63d 1ed6 80be 980d ccbc 00ac 453d
00000230: d65a 43bf 78c3 d73c cbae 14bf 3cfd 6dbd
00000240: ea19 18bf b337 abbd 601e f63c 3d37 c73c
00000250: 40f7 ebba 3479 5dbd b4d6 ab3c 7998 8f3e
00000260: c7d4 4e3d 1452 0fbd f84f 61bd 72b5 2fbf
00000270: e32b d73c 7ca7 713d a06f 923b 142c 063c
00000280: 1695 3e3d a0c2 3a3c 1ac1 64bf 24f1 f9bc
00000290: 28f6 36bd a70b d9bb 9cef e7bc 68d5 68bd
000002a0: b468 bfbd 9c58 55bf b012 9ebb 36c4 593d
000002b0: 1196 32bf 0031 f83b 16bc 753d cb23 48be
000002c0: 690a 1c3d 04c7 1cbe a08a 333c 47f1 d23b
000002d0: 00d1 e43b 0224 2cbe 80ec 663c 1062 4cbe
000002e0: 98a0 aebc 763a 683d c24e 0b3d 4a68 2abf
000002f0: e245 d9be b4d2 613d 2a64 38bd 8efb 78bd
00000300: ee01 c3bd 5171 b7bc c068 c43b 5ea6 313d
00000310: bf33 4a3e 6242 163e c5de 3ebd b3f5 713d
00000320: 243f 5ebe 02a6 18bf ce2d f2be a034 7fbc
00000330: 1b45 d8bc 48c4 21bd c558 823d 3a18 6ebd
00000340: c600 bd3c 6ed6 333d f0dc 2bbc 36f9 4ebd
00000350: f0df 25bf 58c7 bd3e 72d1 7e3d a98e e33b
00000360: 28f3 843c 2062 d7bc 4b81 36bd d86d 78bd
00000370: c8a9 493d 0078 093d 00b0 bcbe bcc3 a93c
00000380: 7ded 2fbf 43dd 553c e9b7 0c3e 18a4 34be
00000390: 12a7 24bd 9241 8abd 3ac1 62bf 7d84 7dbd
000003a0: 79a6 fabc 0c39 b33c 2d88 683d 2977 70bd
000003b0: f887 af3d 0e47 07bf 6ada 273b 0088 2238
000003c0: a018 313b 23fe b43d 5d34 1dbe e0d6 2b3c
000003d0: d060 9d3c 707c f4bd 9ef6 113d 5e90 da3e
000003e0: aec5 91be 6029 df3c 0298 453d 60f6 963c
000003f0: 5b08 b63c 20b3 7cbd b592 a5be 7ce4 a4be
-0.037944704 -0.02984637 -0.3984817 0.019563029 0.022202305 -0.004628637 -0.58463156 -0.0077785254
-0.04378455 -0.03699138 -0.08059811 -0.70387256 -0.11789852 -0.035904095 0.26388267 0.052314922
-0.78212607 -0.043778457 -0.65011567 -0.008870284 -0.033121005 0.05075051 -0.050749484 -0.044151284
-0.034588993 -0.04062767 -0.35636273 -0.08412235 0.056053117 -0.5173052 -0.05816631 0.019331446
-0.803772 0.030903446 -0.02307876 -0.010229796 -0.0061341673 0.055464476 -0.00069865584 -0.07915514
0.0040513948 -0.032640852 -0.10319372 -0.0047390983 -0.036822967 -0.007058516 -0.5374107 -0.78989583
0.05261989 -0.046636403 0.062453654 0.048794664 0.17571048 -0.175324 -0.036870584 -0.5033005
0.03887312 0.34632194 0.0153713375 0.44494283 -0.053239048 0.056690276 -0.7068182 -0.5783509
-0.50145924 -0.04181131 -0.5981173 0.06101521 -0.009371974 -0.09501441 0.017326977 0.0062126867
-0.05613926 -0.9773113 -0.029689401 -0.079909645 0.012174465 -0.7018496 -0.0503053 -0.56959593
-0.043920644 -0.0064045787 -0.85720617 0.00471998 -0.60575336 0.010603294 -0.060734786 0.0463778
-0.068114884 0.036875635 0.06675948 0.07773009 0.3414006 0.05668567 -0.0029717386 -0.45263928
-0.12090956 0.03236889 -0.10049673 -0.24982484 -1.0675707 -0.15084219 -0.26208857 0.009390026
0.030568205 -0.6252095 -0.13104089 0.058343023 0.026556633 -0.008797459 0.038388766 -0.047022052
-0.46835843 -0.41111305 -0.017740391 -0.062068515 0.05643759 -0.040244915 0.045142584 0.10336411
0.017930947 0.016660966 0.046340033 0.01885017 -0.409401 -0.13433932 -0.04731241 -0.051358946
-0.16952865 0.10530654 0.034285046 -0.06528662 -0.15696032 -0.0029394552 0.054015823 -0.6107417
0.10468861 -0.25163358 -0.024908826 0.048259735 -0.7631048 0.026338324 -0.5807921 -0.05810283
-0.5941454 -0.08360233 0.03004378 0.024318332 -0.0018002763 -0.054070666 0.020976402 0.28046015
0.05049589 -0.034990385 -0.055007905 -0.6863624 0.026266044 0.058997616 0.004468873 0.00818922
0.0465289 0.011398941 -0.8935715 -0.030510493 -0.044668347 -0.0066237035 -0.028312497 -0.056844145
-0.093461424 -0.8333833 -0.004824005 0.053165637 -0.69760233 0.0075742006 0.059993826 -0.19544904
0.038095865 -0.15310293 0.010958344 0.006437454 0.0069829226 -0.16810611 0.014094472 -0.19959283
-0.021316811 0.056696378 0.034010656 -0.6656538 -0.4243613 0.055132583 -0.0450174 -0.060786776
-0.095218524 -0.0223929 0.0059939325 0.04337155 0.19746302 0.1467376 -0.04659917 0.059072208
-0.21703774 -0.5962831 -0.4730057 -0.015576512 -0.02640014 -0.03949383 0.06364588 -0.058128573
0.023071658 0.043905668 -0.010489687 -0.050530635 -0.64794827 0.3706615 0.06221146 0.0069444967
0.016229227 -0.026291907 -0.044556897 -0.06065163 0.04923418 0.033561707 -0.36853027 0.020723216
-0.68721753 0.013053241 0.13742031 -0.17640722 -0.040198393 -0.06750788 -0.8857609 -0.06189393
-0.030596958 0.021877788 0.056770492 -0.05870739 0.08570856 -0.52842796 0.0025612363 3.875047e-05
0.0027022734 0.08837535 -0.15352006 0.010488242 0.019211203 -0.11937797 0.035635583 0.42688268
-0.2847113 0.027241409 0.04824067 0.018428028 0.022220781 -0.061694264 -0.3233849 -0.3220557

network.3.bias f4 [256]
00000000: 5cf2 083c 2ae6 95bd 2fc6 7abd e3eb 28bd
00000010: a274 c5bc 3cf4 5ebc a402 babc 20b6 743e
00000020: 4f3e 3e3e 3c56 263e 3c51 673e 2ad6 5d3e
00000030: 71ac 2c3e 186d c9bc 8a3e 413e 46fc 30be
00000040: fc2e b7bc 168c 363e 409f 693e 63d9 8bbc
00000050: 4469 3f3e 09f0 563e 4620 543e f85b 423e
00000060: b1ae 2f3e fe23 5a3e 46fb 3b3e e99a 303e
00000070: 4f56 2a3e b536 d63d b6f3 33be 08a2 c03c
00000080: 11d4 31bd 9b05 3cbd 4318 2d3e cc7e 60bd
00000090: 2ee2 1f3e 2162 1e3e 6431 1ebd b605 2f3e
000000a0: f3f0 b23d 412d 5b3e 6913 493e ba2a 383e
000000b0: 47ce 503e 8b4b 553e fdf1 5b3e 376b 68bd
000000c0: 069d 583e 2d51 80bd c8c4 37bd f1ae 1f3e
000000d0: 1139 c1bc 08f2 493e 76d7 373e a893 543e
000000e0: 4276 0cbd 57e9 693d 09cc 3f3e 33e6 25bc
000000f0: 3246 373e 083e 4d3e 65e9 6cbd 80ed 3b3e
00000100: f436 503e 2c05 5cbd c115 523e acd2 553e
00000110: ff80 cd3b 242f 393e f70c 573e 896d 4b3e
00000120: 4245 583e b670 263e f1a1 7d3c 2284 1e3e
00000130: 30fd 523e 8b60 4d3e b152 3e3e 7b18 3d3e
00000140: fea5 703e 73f3 453e 20b3 89bc 9de8 493e
00000150: b9a3 bd3d 4e2b 633e 1829 6ebd f278 223e
00000160: fcb2 373e 3d29 6b3e 155e 473e d506 593e
00000170: f4c9 e93d 4ba5 3d3e bd61 4c3e 8a96 ee3d
00000180: 63d7 2e3e c32b 383e 28a3 6d3e db2f 553e
00000190: a2cf 653e 882e 363e a321 3e3e 5e70 383e
000001a0: a360 a8bc 8d76 5f3e b621 34bd d844 0abd
000001b0: e459 603e 8fe3 453e 55e3 603e 41bc fb3d
000001c0: bce2 423e 65b5 393e 2d0c 6e3e e61a 523e
000001d0: 4065 573e 21c2 0abd 1823 443e dcfe 393e
000001e0: 9398 1bbd 5ac6 423e 3000 90bc 30e6 193e
000001f0: 826a 133e b03e 63bd d810 6a3e a178 3b3e
00000200: a006 3dbd 2842 c5bc 1a32 843e 8cd4 2dbd
00000210: 61c6 383e b75b 1fbd 2d32 0bbc 345b 39bd
00000220: ea9b 98bd 9a7b fcbc f53c 3cbc 84b5 3a3e
00000230: a402 acbc 971b ddbc 983c 9bbd 919f 433e
00000240: d780 453e 943c 24bd 718a 693e 86c9 76bd
00000250: 651f cebb 48b0 9ebd 18ae 633e 0900 7ebd
00000260: bfe1 28bd 11d3 903d 458c 153e 9794 47bd
00000270: 0428 703e 8ef4 75bc eef7 5ebc 0c35 703e
00000280: 26cc 433e 5ab2 8bbd 7884 b8bc dedd 493e
00000290: f99d 223e 376b ec3d 20c4 413e 176e 173e
000002a0: 8dfd 4b3e ed59 95bc b214 683e 4203 243e
000002b0: 5cea 323e d56f 1e3e 34f1 5a3e 3598 163e
000002c0: 424d 703e d3a9 2dbd 546e b0bc 8d8e 44bd
000002d0: e6b9 99bd db21 66bd db83 4abd 26d5 babc
000002e0: f94b 513d 589d 053e 4e1e 423e 9184 533e
000002f0: 47c3 97bd 70ff 5b3e f26f 283e fa6c 3c3e
00000300: 912b 05bd 4fca 8abd 8d27 463e 52af 113e
00000310: 59a1 80bd 9968 ecbb 6b5c 7ebc 630a fcbc
00000320: 5012 293e 97bc 3a3e 3bf0 5f3e c0a4 86bd
00000330: de8c 4c3e 1612 a0bc b506 333e e66b 8ebd
00000340: 6c62 df3d ace7 603e 4ef6 4dbd a1e3 663e
00000350: 9b06 043e 36cc 443e d42a 263e 44d3 4f3e
00000360: 210d 9f39 5136 b1bc d1ad 503e 69b6 4a3e
00000370: 43c3 813e 07bb 443e e1ee 363e c949 093e
00000380: 7b17 cebc b510 6dbc 4aba 0bbd 18ba 163e
00000390: d7db 4c3e 15c2 ef3d 4e0d 85bd 0025 43bd
000003a0: 1e64 563e ba43 73bd 1f69 523e 6bdf 4f3e
000003b0: 7df9 273e 60b8 273e 97d5 593e 713d 4e3e
000003c0: 08b7 2f3e 701d 6e3e f44b 603e d8d8 4ebd
000003d0: 049e 353e 5411 233e 798a 8ebd 67c8 8b3e
000003e0: 4475 3c3e 23ea 2b3e 1240 21bd 50a7 243d
000003f0: 3b0b 613e 381e 5e3e e2ee 533e 9292 503e
0.008358564 -0.07319291 -0.06122416 -0.041240584 -0.024103466 -0.013608035 -0.022706337 0.238976
0.18578456 0.16243833 0.22589582 0.21663728 0.16862656 -0.024588153 0.18871513 -0.17283735
-0.022361271 0.17826876 0.22814655 -0.017071432 0.186925 0.20990004 0.20715436 0.18980396
0.17156483 0.21302792 0.18357572 0.17246594 0.16634487 0.10459653 -0.17573437 0.023514763
-0.043415133 -0.045903783 0.16903786 -0.054808423 0.15613624 0.1546712 -0.03862132 0.17092022
0.08737364 0.21403982 0.1963631 0.17985049 0.20391189 0.20829599 0.2147903 -0.056742873
0.2115365 -0.06265483 -0.0448654 0.15594079 -0.023586782 0.19721234 0.17953286 0.20759451
-0.034292467 0.057107296 0.18730177 -0.010125685 0.17897871 0.20043194 -0.05783977 0.18352318
0.20333463 -0.05371587 0.20516111 0.20881146 0.006271481 0.18084389 0.2100104 0.19866003
0.2112017 0.16253933 0.015480504 0.15480092 0.20604396 0.2005636 0.18586232 0.1846637
0.23500821 0.1933115 -0.016809046 0.19717641 0.09259743 0.22184488 -0.05814466 0.1586645
0.17939371 0.2296495 0.19469483 0.21194012 0.114154726 0.18520086 0.19959159 0.11649807
0.17074351 0.17985444 0.2320677 0.20819037 0.22442487 0.17791188 0.18567519 0.18011615
-0.020553892 0.21822567 -0.04397746 -0.03375706 0.2190929 0.19325088 0.2196172 0.12291766
0.19031805 0.18135603 0.23246832 0.20518073 0.21034718 -0.033876542 0.19154012 0.18163627
-0.037987303 0.19020978 -0.017578214 0.15029216 0.14396098 -0.055479705 0.22857988 0.18307735
-0.046148896 -0.024079397 0.25819474 -0.04243903 0.18044426 -0.038905825 -0.00849585 -0.045252994
-0.07451613 -0.030820657 -0.011489143 0.18233305 -0.020997353 -0.026990695 -0.07579917 0.19103839
0.1928743 -0.040096834 0.22806717 -0.06025078 -0.0062903636 -0.07748467 0.2223438 -0.062011752
-0.041230913 0.07071508 0.1460429 -0.04872569 0.23452765 -0.01501192 -0.013608916 0.23457736
0.19120845 -0.06821127 -0.022524104 0.19713542 0.15880574 0.11543887 0.18922472 0.1478809
0.1992094 -0.018231357 0.22664145 0.16016868 0.17472214 0.15472348 0.21381074 0.147065
0.23466972 -0.042398285 -0.021536984 -0.04798751 -0.075061604 -0.05618463 -0.049442153 -0.022806715
0.051097844 0.13048303 0.18956873 0.20656039 -0.07410293 0.2148416 0.16448954 0.18400946
-0.03251225 -0.067768686 0.19351025 0.14227036 -0.062807746 -0.0072146174 -0.015524964 -0.030766672
0.16510892 0.18236004 0.21868984 -0.06574392 0.19975612 -0.019539874 0.17483027 -0.06954174
0.10907444 0.21963376 -0.050283723 0.22547771 0.12893145 0.19218525 0.16227275 0.20295435
0.00030336625 -0.021632345 0.20378806 0.19796146 0.25344285 0.1921197 0.17864563 0.13407053
-0.02515768 -0.014469315 -0.034113206 0.14719427 0.20005737 0.1170694 -0.06496678 -0.047642708
0.20936629 -0.05939076 0.20547913 0.20300071 0.16403766 0.16378927 0.21272884 0.20140626
0.17159665 0.23253417 0.21903974 -0.050499767 0.1773606 0.15924579 -0.06960005 0.27301332
0.18404108 0.16788535 -0.039367743 0.040198624 0.2197694 0.21691215 0.20696595 0.20368412

network.6.weight f4 [256, 256]
00000000: c858 fd3e 9e34 153b b5e5 713d b8a5 58bd
00000010: c732 b0bb 2cdc e0bc 049f 24bb 76ab 353d
00000020: 99d8 cd3d 5d64 3d3d 2c62 cf3c 4ba1 bd3d
00000030: dedb 143d a233 5abd 3d74 c83d 5ed5 273e
00000040: 8ffc f6bc c885 d33c c0bf 8a3d 093a 47bd
00000050: f00e 983d 80a0 733d 9e83 02bd a795 1d3d
00000060: 1d63 38bd f66a 25bc e452 a83a 91e1 573d
00000070: ba89 093e fd35 63bd 2ad8 8a3e bbf3 1ebd
00000080: 983d 643d 90be b43b 276f aebc ec5a 323d
00000090: d836 0bbb e123 59bc f916 263d dfd4 2fbc
000000a0: 5eab 0abe 71f7 7d3d ea0a 7a3d a6bd 123e
000000b0: f058 1cbd 8ddf de3d 721d a73d f847 203d
000000c0: aee9 803d 4d05 e63c 5b2e 47bd cc50 003e
000000d0: a88b 3c3d 10ee 873d 2a4b e23c 0b76 adbb
000000e0: 1b33 833d df5d c8be bdf9 383d 592d 683d
000000f0: a21e 5b3d 37b8 96ba c791 d43c 85a4 593d
00000100: caa2 203d 8afa 54bd 8a80 1e3d f540 423d
00000110: 7adc 5dbe b162 563d 9692 e83c 701c c13d
00000120: abfc a63d 9130 ec3c 765b 14bd b689 9a3c
00000130: 3abd a83d d0f3 8d3d 0dfb c03c b6d0 023d
00000140: f99c 933d 038f 15bb 40ba 073d 20b2 3bbc
00000150: c932 e23c 2df6 283d 8009 a63a 6ebd 8a3d
00000160: e839 0b3d bd42 e03c 62cd 033c 90a1 b93d
00000170: e949 863c 09a4 023d 218e 1bbd 2354 143e
00000180: 6090 183e dff4 ea3b a71e 793d 59f3 ff3c
00000190: 684b 323d 2c3f ac3d 2fa4 9a3d 0c8e 15bd
000001a0: cebe 8e3d 51eb 16bd 0795 933c 2e37 78bd
000001b0: 3b9c fa3b 51fd 88bb 15c4 c93d 00fe f4bd
000001c0: ba6d 65bc 9829 f53c 07fb 113d bc5c 3d3d
000001d0: 1ea8 8b3c c295 8dbd c5d0 d53c 5b0f 043d
000001e0: 1926 833d 7d01 a13b fccb cbbc 031d d93c
000001f0: bbfb 483e d40c d0bb ab58 adbb e0ae 5a3c
00000200: 8513 24bd 0102 3ebc 9bc1 df3c 2f59 4dbd
00000210: 980d b3bb 8988 9cbc 9289 ff3a a14c 42bd
00000220: 1317 4bbc aa54 693d 97a7 09bc 5786 1cbc
00000230: ed2e 7fbd d9c8 55bd ff85 413d 48c7 45bc
00000240: 0f2d 843d 2282 493d 9139 9c3d d64f de3a
00000250: 5779 223b 1ab3 8c3d 42f5 9d3d 51d5 0b3c
00000260: 642b 13bd 7b4b 83be c8b2 04bd 83d1 41bc
00000270: 0613 cd3d e9b3 2e3d 3b4d 99bd 23e8 073d
00000280: 4f3d ff3c e6d4 063d cfa7 67bd bcde 923c
00000290: 91a5 6cbc c21b 0fbc bed4 61bc 7847 463d
000002a0: adf3 0bbd a92d 22bc 7cdf 8e3d f57c 1a3d
000002b0: 2c4d 113d d95e 82bd a459 9dbc ec93 dabc
000002c0: bcb6 af3d 1c8f b83c a7d6 2ebd 59a4 91bb
000002d0: 8bb5 47bd 66d2 713c ba2a 0b3d 5d7d 333c
000002e0: e174 78be 2aad 74bd fc5d 5cb9 1776 483d
000002f0: 6515 4abc 9d43 c63c 2649 97bd 8b26 9b3b
00000300: 2574 db3c 76e6 523d da9e ca3c cf69 57be
00000310: 8306 273c 85db 1f3d 8013 68bd 05d4 813d
00000320: e8ea ac3d bf86 803c 76ba 6dba e5ef 2d3c
00000330: f5e1 323d ff92 193b d04e ef3c ca1a 203d
00000340: 79a2 50bd 9d16 c83d 7ff6 d83c 3cb3 c239
00000350: 74a6 043e fafa 833d e6f0 afbc a865 aabc
00000360: 71c8 dd3a f42e 6abc 1641 5f3d ef56 a33d
00000370: 6a53 f9bc 82ab 063c 30a6 f6bc 0c61 bebd
00000380: cf88 c33c d7af c03c 433b 2ebd 41f5 9cbb
00000390: 0937 d83d 633b 9bbd f251 67bd 9233 d9bc
000003a0: 58c8 f43c 1b61 e43b 82fb 0f3d 3d01 983d
000003b0: ac97 723d 6d38 983c 6eb0 953d 1487 933d
000003c0: 6e22 b2bb 2c32 843b c8b3 f5b9 a291 6cbd
000003d0: b4c8 a83d 3e49 cebd 6961 5a3d 1293 93bc
000003e0: f024 0e3d 646b 973d dc94 67bd 2f1a 373c
000003f0: 1d43 513d af46 71bc ccf4 7b3b ab08 9b3d
0.49481797 0.0022766958 0.059056956 -0.052892417 -0.005377147 -0.027448736 -0.0025119195 0.04435297
0.10051078 0.046238292 0.025315367 0.0925928 0.036342494 -0.053271897 0.09787796 0.16389987
-0.030149726 0.025820628 0.06774855 -0.04863933 0.07424724 0.059479237 -0.0318638 0.038472798
-0.045016397 -0.010096302 0.0012842086 0.05270535 0.13431445 -0.05547141 0.27118045 -0.03880666
0.055722803 0.005515881 -0.021293236 0.04354374 -0.0021242406 -0.013253183 0.040549252 -0.010731905
-0.13541934 0.062003557 0.061045565 0.14330158 -0.038170755 0.10882483 0.08159913 0.039131135
0.06294571 0.0280787 -0.048628192 0.12530822 0.046031624 0.06637204 0.027623732 -0.005293613
0.06406232 -0.39134118 0.045160044 0.056683872 0.05349601 -0.0011498992 0.025948418 0.053135414
0.039217748 -0.051996745 0.038696803 0.04742523 -0.21666136 0.052340213 0.02839021 0.09429252
0.08153661 0.028831752 -0.036220036 0.018864494 0.08239217 0.06931269 0.02355721 0.031937324
0.072076745 -0.0022820837 0.033136606 -0.0114560425 0.027612107 0.041250397 0.0012667626 0.06774412
0.03399077 0.027375573 0.008044573 0.09064019 0.016392665 0.031894717 -0.03797734 0.1448522
0.14898825 0.007170304 0.060820248 0.031243967 0.043528944 0.084104866 0.07550847 -0.03651242
0.06969987 -0.03684551 0.018015398 -0.0605995 0.0076480187 -0.0041805883 0.09851853 -0.11962509
-0.014003212 0.02992706 0.03563979 0.046231017 0.017047938 -0.0691333 0.026100526 0.032241207
0.06403751 0.0049135075 -0.02487754 0.026503092 0.19627278 -0.0063491855 -0.005290111 0.0133473575
-0.040057678 -0.011597157 0.027313998 -0.05013388 -0.005464267 -0.019108074 0.0019495955 -0.04743636
-0.012395638 0.056965508 -0.008401773 -0.0095535135 -0.06230061 -0.052193496 0.04724693 -0.012071438
0.06453907 0.04919637 0.076281674 0.0016961049 0.0024791562 0.068700984 0.07712795 0.008534745
-0.035930052 -0.25643525 -0.03239706 -0.011829737 0.10013394 0.042652044 -0.07485434 0.033180367
0.031157164 0.03291788 -0.05655652 0.017928474 -0.014443771 -0.008734645 -0.013783632 0.048408
-0.034167934 -0.009898582 0.0697622 0.037716825 0.035473987 -0.06365747 -0.019207783 -0.026681863
0.08579776 0.022529177 -0.042685177 -0.0044446406 -0.048757117 0.014759636 0.033976294 0.010955182
-0.24263336 -0.059735455 -0.00021015847 0.048940744 -0.012334202 0.024202162 -0.07386999 0.0047348193
0.02678878 0.051489316 0.02473395 -0.21036457 0.010194424 0.03902771 -0.05665922 0.06339268
0.08443242 0.015689252 -0.00090686174 0.010616277 0.04367252 0.0023433564 0.029212385 0.039088048
-0.050936196 0.09769938 0.026484726 0.00037136103 0.12954122 0.06444354 -0.021477174 -0.020800427
0.0016920698 -0.014293421 0.05450543 0.07975566 -0.030435283 0.008219602 -0.030108541 -0.09295854
0.023868946 0.023521347 -0.042536985 -0.0047899787 0.10557372 -0.075796865 -0.056474634 -0.026513848
0.029880688 0.0069695837 0.035151966 0.07422111 0.059226677 0.018581593 0.07309042 0.072034985
-0.0054362332 0.0040343013 -0.0004686399 -0.057756074 0.08241406 -0.100725636 0.053315554 -0.018014465
0.034703195 0.0739353 -0.056538448 0.011175676 0.051089395 -0.014726325 0.003844547 0.07570013

network.6.bias f4 [256]
00000000: 2a15 0c40 8dae 8bbd 6875 0e40 ae0f 9fbd
00000010: f919 67bc 2635 a83c 465f a33f f1b9 28bd
00000020: ec81 073c 8d61 5abd c4c3 02bd cd8b 213f
00000030: 2904 0f40 ed98 1040 d4ea 97bd 0a1e 25bd
00000040: 8f12 0e3c d869 0740 8cff 44bc e92c 3ebd
00000050: 592c a0bd 2703 85bd ba8f 0c40 cd2a 90bd
00000060: 616c 253c 9383 0b40 c5d5 56bd eb18 2f3b
00000070: 58b2 0f40 b3e2 2abd 461c 8c3b 9bbf 04bd
00000080: e108 0c40 a455 e13e 0f86 cabc 3433 0640
00000090: d442 2b3e cbca 873e ed7c 593c d816 7f3e
000000a0: c60e 1bbd 00c8 96bc 2a72 0d40 0f8d 0b40
000000b0: 8ecd 42bb c205 bcbc 3148 623c d363 6bbb
000000c0: 1657 0c40 f9be b03e 0c2c 8fbc 7538 8f3c
000000d0: b98b 8139 88e8 25bd 3fe3 96ba f2ac 06bd
000000e0: 92a5 0c40 a5d3 aabc 0cfe 0940 cde3 0a40
000000f0: 36c4 35bb c323 0b40 e872 0f40 1823 0840
00000100: 851f 0e40 d8d1 1040 928a 15bd 0187 17bd
00000110: 72f6 0d40 2ca0 71bd 82ac 0f40 666b 0d40
00000120: 5714 0d40 d4db 0a40 d16a fc3a 95fa a93e
00000130: 8967 793c 7cff 1e3f 0b61 9bbd 32e2 32bd
00000140: 8ab1 0c40 2f01 0f40 0eb9 48bc d7df 17bc
00000150: 0760 1140 4c5e 5dbd 2b9c 0d40 f99d 1cbc
00000160: c36f ec3c d74a 0d40 4281 cd3f b173 78bd
00000170: 0eb9 0840 4c6d 1fbb f414 89be 8779 71bd
00000180: 1ae4 9fbc c9b1 8bbd 01cc 0d40 0b8b ea3b
00000190: 696d 0f40 bd59 30bc 5be4 4ebd 4cb3 9a39
000001a0: fc62 6dbd 8c2a 12bd f74a bbbc 2aa5 18bd
000001b0: 272c 81bd dfca 903e 6589 0a40 452e 0a40
000001c0: 96ad 0e40 eac6 0d40 385d 0b40 943b 5cbc
000001d0: 2a23 03bd ac28 0840 405a adbc 9d74 0b40
000001e0: 5f62 0940 238a c43c 1944 0f40 7a4f 4c3d
000001f0: e71c 08bd 237e 0b40 f85a 1040 96a7 48bd
00000200: fe35 cd3f 8da2 b2bc d8b2 1140 6121 913e
00000210: a147 0740 f3f6 0f40 8f69 993d 9812 0f40
00000220: eb3d a3bc 2025 99bd 2a26 0a40 9284 22bd
00000230: 0f1c 0e40 97cd 1040 138c 96bd f90e 1040
00000240: 98e4 0b40 6324 0f40 5299 0abd 780e 0d40
00000250: a4a6 0c40 edf7 0840 130c 0c40 720f 0d40
00000260: 9c1b 0d40 9ee7 07bd 791e 37bd 01f3 12bc
00000270: b69c d33e ad67 5abd bc10 0d40 b052 373c
00000280: 0d53 0f40 1f0a 0b40 8f12 9ebd c11f b63c
00000290: 27b3 0d40 eacc 55bd 1b31 0b40 58c0 77bd
000002a0: 61d2 1abc b9b7 1cbc 221f 02bd f00e 01bd
000002b0: 35b0 0940 aa7b 0f40 cffe 11bd 9552 3a3c
000002c0: 9806 33bc 0be0 7dbd 3cd9 1040 436a c1bb
000002d0: 896f 0a40 d91e 0f40 2b09 8cbd abf3 0a40
000002e0: 3a18 45bd a704 f4ba b516 9f3c 16c6 0e40
000002f0: 71d7 0940 fc7a c9bc 4572 1040 72f6 bebb
00000300: 9401 c33f 39d2 1140 bece 32bd 774b 0c40
00000310: c518 273e f77d 0940 da15 78bd 3ad3 78bd
00000320: c5fd 0f40 9142 08bd d18f f73f c702 803c
00000330: 69ca 0740 f98f 0e40 87ba 0f40 a90a 0d40
00000340: c670 8dbc d541 4f3a bf6d 1040 43aa dfbc
00000350: df89 8bbd e5a7 36bd 6fe8 0d40 4543 7d3e
00000360: b602 3ebd 8512 c63d d606 0f40 8139 9cbd
00000370: 1c7d 48bd d27e e93c 6e64 5abd 3bc2 0840
00000380: c118 0a40 683a 28bc 3964 0f40 471a 49bd
00000390: 0c8f 1040 54b7 7dbd 3115 3f3b 0e86 c63e
000003a0: ec72 8fbd 949d 0d40 669b 0e40 7a62 0a40
000003b0: d8ed 0b40 fd6e 033e 16ae f23b 50ee 0440
000003c0: f37c af3e 9cfc 903c fc10 0e40 d894 6fbc
000003d0: 597f bbbc cd06 0a40 22c7 a4ba 20bb b33a
000003e0: 8b6e 86bd 50fb 1fbd f5cb 0940 a248 0f3c
000003f0: e8c4 1040 e6aa 23bd 8829 0a40 511f 82bc
2.1887918 -0.06820402 2.225916 -0.077666625 -0.014105313 0.020533156 1.276345 -0.041192953
0.008270722 -0.053315688 -0.031924978 0.63103944 2.234629 2.2593338 -0.07417837 -0.04031185
0.008671417 2.1158352 -0.012023818 -0.04642955 -0.07820959 -0.06494742 2.1962724 -0.070394136
0.01009664 2.1799057 -0.05244996 0.0026717733 2.2452602 -0.041720103 0.0042758314 -0.03240929
2.188042 0.4401065 -0.024722127 2.0968752 0.16724712 0.26521906 0.0132744135 0.24911058
-0.037855886 -0.018405914 2.210093 2.1804845 -0.002972457 -0.022951964 0.013811157 -0.0035917654
2.1928153 0.345207 -0.017477058 0.017482975 0.000247089 -0.040504962 -0.0011511816 -0.032879777
2.1976056 -0.020852873 2.1561308 2.1701539 -0.002773536 2.1740577 2.2413883 2.127142
2.2206738 2.2628078 -0.036509104 -0.036993984 2.2181668 -0.058990642 2.244904 2.20968
2.2043664 2.1696672 0.0019257908 0.3319899 0.015222439 0.6210859 -0.07586869 -0.043672748
2.1983361 2.2344472 -0.012251152 -0.009269676 2.271486 -0.054045007 2.2126567 -0.009559148
0.028861886 2.2076929 1.6055071 -0.060657207 2.1362948 -0.002432662 -0.26773798 -0.058953788
-0.019517947 -0.06821019 2.2155764 0.0071576885 2.2410529 -0.010763583 -0.050510745 0.00029506756
-0.057955727 -0.035685107 -0.022862894 -0.037266888 -0.063072495 0.28279778 2.164636 2.159074
2.2293448 2.2152658 2.1775646 -0.013441939 -0.032015957 2.1274824 -0.021161199 2.1789925
2.146629 0.02399165 2.2385314 0.049880482 -0.03323069 2.1795738 2.2555523 -0.048987947
1.6032102 -0.021806026 2.2765408 0.2834578 2.113747 2.2494476 0.07490837 2.2355099
-0.019926986 -0.07477784 2.1585793 -0.03967721 2.2204626 2.2625482 -0.07350936 2.2509139
2.1858273 2.2365959 -0.033837624 2.204008 2.197671 2.1401322 2.188237 2.2040677
2.2048101 -0.03317987 -0.044706795 -0.008969069 0.41330498 -0.05332153 2.2041464 0.011189148
2.239444 2.1724927 -0.077183835 0.022231938 2.2140596 -0.052197374 2.1748722 -0.060486168
-0.009449572 -0.009565287 -0.03176797 -0.031508386 2.1513798 2.2419229 -0.035643395 0.011372228
-0.010926865 -0.061981242 2.263259 -0.00590256 2.1630576 2.2362578 -0.06837686 2.1711223
-0.048118807 -0.0018617109 0.019420007 2.2308402 2.1537745 -0.024594776 2.2569745 -0.0058277184
1.5234857 2.278456 -0.043654196 2.192106 0.16318043 2.1483133 -0.060567714 -0.060748316
2.2498639 -0.033266608 1.9340764 0.015626324 2.1217291 2.2275374 2.2457597 2.2037756
-0.017265689 0.0007906233 2.2566984 -0.027302867 -0.06813406 -0.04459371 2.2173116 0.24732693
-0.046389304 0.09671501 2.2347922 -0.076281555 -0.04894744 0.028502855 -0.053318433 2.136855
2.1577609 -0.010267831 2.240492 -0.049097326 2.258731 -0.061942413 0.0029156918 0.3877415
-0.070043415 2.2127428 2.2282348 2.1622605 2.1863918 0.12835307 0.0074060066 2.0770454
0.34275016 0.017698579 2.2197866 -0.014622889 -0.022887873 2.156665 -0.0012571553 0.0013712384
-0.06564053 -0.03905803 2.1530735 0.008745344 2.2620182 -0.039957903 2.1587849 -0.015884073

network.8.weight f4 [3, 256]
00000000: 79ae ab3e d482 d73c 5896 c63e 6a1a 4d3d
00000010: e7a1 d23b a553 1e3c aac4 8c3f a51c dabc
00000020: 4611 c0bc 5f73 543d 309f 873d 652a a93e
00000030: 542d b63e 69e1 d73e bc07 a8ba aeea 3dbd
00000040: 2209 e9bc 9222 bb3e 10a7 d9bb 8233 edbc
00000050: f0c4 f43c c4d8 92bc 2fd9 383f 9c6d 7d3d
00000060: 094a c43c b315 aa3e 8ec5 293d 49fa 0f3d
00000070: ec1a bc3e d1a4 24bd 3c0c f7bc 08b1 29bd
00000080: a1e3 bf3e f001 6a3f 488a 403c d164 e73e
00000090: c2f7 81be 6de1 9a3f 45b9 043d accb 0e3f
000000a0: 5d2e 343c d2f9 f4bc 529f 9f3e b789 c93e
000000b0: cf78 6f3c ee6a 1ebd b530 cfbc 5ffa 1d3d
000000c0: 5b99 d53e 8c34 f33e f172 aebc 9150 1d3d
000000d0: 1375 2c3d 4216 45bd b160 4dbc d922 05bd
000000e0: 5a7a c73e f8af 133d e25e bb3e 1254 c53e
000000f0: 5c93 763d 2373 d73e 5158 cb3e ab1d b03e
00000100: e597 b83e c50a b63e 0020 c1b9 a121 213b
00000110: 0228 ed3e 640e 363d 9222 bd3e 0d21 de3e
00000120: df1f e43e 34dc db3e f92e 21bc cb22 8c3f
00000130: 930c fb3b 60e7 b63f 10b6 19bc 209b 973c
00000140: 90ff b83e 3575 c83e d060 a9bc 3e91 443d
00000150: f0d4 d63e 083f 26bd 4f87 133f 0fe7 263c
00000160: 76ec e83c 7dba d03e 1222 eb3f 5618 13bd
00000170: 7ff2 db3e 3f3c 72bc f8e6 0a3f 0110 e8bb
00000180: 7a7c 25bd 9132 11bd faf4 cc3e a61d e4ba
00000190: 333e f43e 725d a2bc d706 83bc f851 403c
000001a0: d430 4f3c a6a2 f0bc 8370 2cbd afc1 853d
000001b0: ea7f 103c cdb3 4f3e 35fe c63e f951 193f
000001c0: 0ed2 bf3e 0147 b53e f1cc e03e f36e c43c
000001d0: 4bbe 323d a016 a73e 51f2 02bd 53d8 9f3e
000001e0: ec1b a43e b71e 2d3b 8735 da3e cfe6 a93d
000001f0: e20e 82bd b482 fc3e b89f cf3e 3f2f 86bb
00000200: 1adb e63f d693 a13c 962b c13e f5f8 5f3f
00000210: 32d2 b33e fb8d b93e 0d4a 813c 1f3e c53e
00000220: a7bb 1dbc 8672 6f3d 384a cb3e 5e63 ae3c
00000230: d35a b23e 0e10 d83e 9eb0 70ba dbb3 d53e
00000240: 9b51 d43e 5e5e b53e 33b8 2fbd 8b7f d73e
00000250: a710 b13e ab13 ad3e 1444 ae3e 3ddf be3e
00000260: 4317 c03e f741 2dbd 74ee 27bd 246e dbbc
00000270: 805a 2d3f af51 863d 230a be3e 4b4c 0dbd
00000280: d44d be3e 80df c73e fec8 fbbb 7a59 12bd
00000290: 9e9e bc3e 3ce7 083d 9cea db3e 535d 063d
000002a0: c1ec 5d3d 39c4 36bd 8a42 42bd d1cb 9a3c
000002b0: 9371 9e3e 9125 c13e 53d1 20ba 2b9d 8cbb
000002c0: 2ec2 cd3b b2e0 38bd c08e bd3e 475d 52bd
000002d0: 24b9 743f c43b d53e 2066 203d 88a3 d83e
000002e0: fb62 c7ba 2c9a 52bd 0295 063d 4419 df3e
000002f0: 9289 ce3e 843e 4739 b3bd ee3e 032d 4dbd
00000300: 0883 a33f b26e d73e 3b76 35bc b106 bb3e
00000310: 7845 523e 37bf ad3e 8cfa 703c 07c5 68bc
00000320: 884e ca3e 7bcf fbba c32f a53f 7b61 df3c
00000330: 3726 f03e b4d5 c93e eede f53e aa51 f33e
00000340: c8dd 62bd 7a2a b13c b716 d33e a262 17bc
00000350: 9e6d fabc f216 b53c 08e8 b63e c92f 883e
00000360: 18ce 08bc d4b4 d4bc db44 c53e fbdb dfbc
00000370: 2cf3 ae3c 67c1 783d 87fb 583d 6ecc e43e
00000380: 2979 e83e 8f90 433d 27d3 c83e e208 ddbc
00000390: b13d c83e 7582 bf3c 8c9a 853d f4b3 103f
000003a0: 5859 003d 71d0 d13e 4bee bf3e 2e78 d53e
000003b0: 8b30 a33e 8149 713e e49b 54bc fef7 fa3e
000003c0: 8d43 263f cb69 c83b 9ad3 d53e b959 03bc
000003d0: 7754 2fbc 7b10 d23e 9982 27b9 d6d3 7d39
000003e0: a0c2 e83c 708c 2d3c 8c88 be3e 2ec4 0abd
000003f0: a867 ce3e 221b 37bd 7ad9 b23e f9cd 023c
0.3353155 0.0263075 0.38786578 0.05007402 0.0064279917 0.009663497 1.0997517 -0.026624987
-0.023445737 0.05186784 0.066221595 0.33040157 0.35581458 0.42164162 -0.0012819688 -0.046366386
-0.028446738 0.36549813 -0.00664223 -0.028955225 0.029879063 -0.017925628 0.72206396 0.06187211
0.023961084 0.3321968 0.04144817 0.0351508 0.3673929 -0.040196244 -0.030157201 -0.041428596
0.37478355 0.91409206 0.011751719 0.45194104 -0.25384337 1.2100044 0.03240325 0.5577953
0.010997382 -0.02990428 0.3117624 0.3936288 0.014616205 -0.038676195 -0.02529178 0.03856885
0.41718563 0.47501028 -0.021295043 0.038406912 0.04210384 -0.04811693 -0.01253526 -0.032503936
0.38960534 0.03605649 0.36595827 0.38540703 0.060199127 0.4208003 0.39715818 0.34397635
0.36053386 0.35555092 -0.0003683567 0.0024586695 0.46319586 0.044447318 0.36940438 0.4338459
0.44555566 0.4294144 -0.009837859 1.0948118 0.007661411 1.428936 -0.009381786 0.018506587
0.3613248 0.39151922 -0.020676047 0.047990076 0.41959333 -0.040587455 0.5762834 0.010186925
0.028433066 0.4076728 1.8369772 -0.03591188 0.42958447 -0.014784872 0.5425868 -0.007081986
-0.040401913 -0.035448615 0.40030652 -0.0017403855 0.47703704 -0.019819949 -0.015994472 0.011738293
0.012645919 -0.029374432 -0.042099487 0.06531083 0.00881956 0.20283432 0.3886582 0.59890705
0.37464947 0.35405734 0.43906358 0.023978686 0.04363851 0.3263445 -0.031969372 0.3121973
0.32052553 0.0026416013 0.42618963 0.08295976 -0.06350495 0.4931847 0.40551543 -0.0040949876
1.8035614 0.019723814 0.37728566 0.87489253 0.35121304 0.36241135 0.01578238 0.38523957
-0.009627259 0.058458827 0.39705062 0.021287616 0.34834918 0.4219975 -0.00091815914 0.4173878
0.4146851 0.3542356 -0.042900275 0.42089495 0.34583017 0.33804068 0.34036314 0.37279692
0.37517747 -0.042299237 -0.04099889 -0.026785918 0.6771622 0.06558549 0.3711711 -0.034496587
0.37168753 0.39037704 -0.0076838722 -0.035729863 0.36839765 0.033423647 0.4295243 0.032803845
0.054180864 -0.044620726 -0.047426738 0.018896015 0.30946025 0.37723973 -0.00061347074 -0.004291197
0.0062792515 -0.04513616 0.37022972 -0.051358487 0.95595 0.4164716 0.039159894 0.42312264
-0.0015211994 -0.05141656 0.03285695 0.43573964 0.40339333 0.00019001408 0.46629104 -0.050091755
1.2774363 0.4207664 -0.011075552 0.36528543 0.20534313 0.33934948 0.0147081725 -0.014207131
0.3951304 -0.0019211614 1.2905201 0.027268162 0.46904156 0.39420855 0.48021644 0.47523242
-0.05538729 0.0216267 0.41228268 -0.0092398245 -0.030569848 0.022105668 0.357239 0.26598957
-0.008349918 -0.025965132 0.38529095 -0.027326575 0.021356188 0.060731318 0.05297425 0.44687217
0.45404938 0.047745284 0.39223596 -0.026981775 0.39109567 0.023377636 0.06523618 0.56524587
0.031335205 0.4097934 0.3748649 0.41693252 0.31872973 0.23563196 -0.01297662 0.49017328
0.64946824 0.006116127 0.41763002 -0.008016997 -0.01070129 0.410282 -0.00015975013 0.00024206875
0.028413117 0.010592565 0.37213552 -0.033878498 0.40313458 -0.04470361 0.34931546 0.007983678

network.8.bias f4 [3]
00000000: 60ec ac3f b335 ac3f ef14 e33f
1.3509636 1.3453888 1.7740763
