mountaincar_cl_project/mountaincar_cl/runs/abrupt/fixed/seed_1/online_stream_model.pth (torch, 536437 bytes, 8 tensors)

network.0.weight f4 [256, 2]
000000 d1 12 f1 bd 74 51 4a 40 17 2f 75 bd 2d f2 54 40
       -0.11771167 3.1612215 -0.05985936 3.3272812
000010 89 d0 15 3e de 17 55 40 08 17 7c 3f 37 4d 54 40
       0.14630331 3.3295817 0.9847264 3.3172128
000020 d2 8c 96 3e 38 c8 35 40 ee 85 ee bd e3 16 1c 40
       0.29404312 2.8403454 -0.11646639 2.438897
000030 1a 29 75 3f bc c8 43 3f d8 f2 6f 3e 0f bc fe 3f
       0.9576584 0.7647817 0.23432481 1.9901141
000040 e0 a4 9f bd 90 02 17 3d 02 1f bc 3e 49 6d 29 3f
       -0.07795119 0.03686768 0.36742407 0.6618238
000050 74 58 a1 be 98 85 07 bf e3 a7 8c 3f e8 c8 5c 3e
       -0.31512797 -0.5293822 1.0988735 0.21561015
000060 d6 0a d1 3e 55 bc 8d be 6b c8 f3 3e bb a0 43 40
       0.4082858 -0.27682748 0.47613844 3.0566852
000070 18 8b 3a 3e 5a 1a 18 bf c3 d4 6e bd bf 8b 3b 40
       0.18217123 -0.5941521 -0.058308374 2.9304044
000080 99 c3 37 bf ce 69 c4 3e 85 eb 91 be 44 55 44 40
       -0.71782833 0.38361973 -0.285 3.0677042
000090 0e 66 dd 3e 7b 36 c8 be 58 32 13 3f 30 bb 56 40
       0.43241924 -0.39104065 0.57498693 3.355175
0000a0 63 1d 1a bd 84 86 13 40 4d 88 9e be ae 8e 21 40
       -0.03762568 2.3050852 -0.30963364 2.5243335
0000b0 c3 3b 0d bf 71 62 bd 3d d7 3a 22 be 48 de 1a 40
       -0.55169314 0.09247292 -0.15842758 2.419817
0000c0 b5 0c 61 3f c7 fc 0f 40 1a 10 d4 3e c8 7a 92 3e
       0.87910014 2.2498033 0.41418535 0.286093
0000d0 5b 7f 14 3f 5c a2 87 bf d0 7f 20 3e 40 a5 00 3d
       0.5800683 -1.0596423 0.15673757 0.031407595
0000e0 d5 8a 56 3e b0 fb 3a 40 c7 3f be bd 2e 40 b1 3e
       0.20951398 2.9216118 -0.09289508 0.34619278
0000f0 f0 ee c1 3d 9c 91 26 3e a0 1b c5 3c f4 db 60 3e
       0.09469402 0.16266483 0.024061024 0.21958905
000100 19 42 72 3e 3f 93 2d bf 18 f3 a1 bd d8 38 26 3e
       0.23658027 -0.67802805 -0.079076946 0.16232622
000110 7b 45 a8 be d7 91 20 3f 69 f4 3e 3e d5 fc d8 3f
       -0.3286551 0.62722534 0.18647923 1.6952158
000120 20 d7 2b 3e 18 6c ab be cb ce 00 3f 71 31 1f bf
       0.16781282 -0.33480906 0.5031554 -0.62184817
000130 18 e7 8b 3d dc b0 ba be 11 75 1e 3f f0 eb 24 40
       0.06831187 -0.36463058 0.6189738 2.5769005
000140 82 9d e5 be 8d 99 fa bf 6e d3 07 3f c7 f9 7b 40
       -0.4484673 -1.957811 0.5305699 3.9371202
000150 a2 6e 18 3e 7c 38 37 40 2e de 9b be 43 2b 1e 3f
       0.14885953 2.8628225 -0.30442947 0.6178476
000160 e0 5e 68 3f a5 cb 8e bf 1c 42 de 3d 88 c0 4e 40
       0.9076977 -1.1155897 0.10852453 3.2305012
000170 e9 28 e3 3e e7 c4 4e c0 85 cb ec 3d f7 5c 1d 40
       0.4436715 -3.230768 0.11562256 2.4587991
000180 72 70 d6 be 4e a2 15 c0 4e cd 56 be f8 0c 78 be
       -0.41882664 -2.3380313 -0.20976755 -0.24223697
000190 e7 f7 20 bf 68 04 b2 be cf f2 2b 3f c0 df 20 bc
       -0.6287827 -0.34768987 0.6716737 -0.009818971
0001a0 5b 2e 82 be 6a 2d 1f 40 6c be 0d 3e 40 25 f7 3d
       -0.2542599 2.4871469 0.13842171 0.12067652
0001b0 c3 31 40 3f 3e e3 3c 40 20 28 a2 bd 6d b2 c7 be
       0.7507593 2.9513698 -0.079178095 -0.39003316
0001c0 9c e3 9b 3e c1 fe 26 40 b0 31 2e 3d e0 0c 51 3d
       0.3044709 2.609299 0.042527854 0.05103767
0001d0 7e 4c a8 bd 34 65 69 40 c3 d2 7b 3d 60 af 81 c0
       -0.08217715 3.646802 0.061480295 -4.052658
0001e0 20 84 8c 3c 2c 63 6b 3e 5f a0 80 3e 7a 65 33 40
       0.017152846 0.2298705 0.25122353 2.8030686
0001f0 89 fa 19 3f 05 04 07 3f 00 2e 3b 3d c5 f0 06 3f
       0.6014791 0.5274051 0.045698166 0.52711135
000200 68 cf 66 3e 7a 13 dc 3e 7d b3 a1 be ce 2c df 3f
       0.22540057 0.4298361 -0.3158225 1.7435548
000210 ee a4 68 3e f0 bd 2d 40 99 ab 05 3d e3 f2 89 c0
       0.22719166 2.7147179 0.03263435 -4.3108993
000220 a9 63 7d 3e 89 0d 40 40 5d c4 87 bd c0 28 4b 40
       0.24745049 3.0008261 -0.0662925 3.1743622
000230 c2 e5 2a 3f ba d2 08 40 82 90 c1 3e 29 77 3a 40
       0.6675683 2.1378617 0.37805563 2.913523
000240 c0 60 cd bc ae d6 e1 3e 71 e8 8c 3d dd 74 29 40
       -0.025070548 0.441091 0.06880272 2.6477578
000250 61 7a b4 3e d4 1d 51 40 04 d6 56 3e 71 10 23 bf
       0.35249618 3.2674456 0.20980078 -0.6369696
000260 4a 1b d9 3e 3c 17 44 40 43 81 11 bb 88 bf f0 3f
       0.42403632 3.063918 -0.002220229 1.8808451
000270 40 a8 91 bd 60 05 d2 3c 64 45 2c 3e f3 c1 d8 be
       -0.07112169 0.025637329 0.16823345 -0.42335472
000280 35 78 a9 be be 00 51 40 5c 8c 30 be 8a 69 3a 40
       -0.33099523 3.2656703 -0.17241043 2.9126916
000290 1d 90 1e 3f c0 5a 3a 3e 05 6f 2e be 3a 45 35 40
       0.6193865 0.18198681 -0.17034538 2.8323503
0002a0 db 4a 10 3f 80 6a db bc 7f 3b ed 3e 6c 15 21 40
       0.5636422 -0.026784182 0.46334454 2.5169325
0002b0 15 a4 58 bd 7d 46 48 40 ae 20 2d 3e db 43 1b 40
       -0.052890856 3.1293023 0.16906998 2.4260166
0002c0 68 54 7c 3e 6b ff c4 be 4c 4a 03 bf 07 db 46 be
       0.24641573 -0.38476118 -0.51285243 -0.1941949
0002d0 ed df aa bd 31 45 54 40 4b d9 b8 3d 2a fb e3 3f
       -0.08343492 3.316723 0.0902582 1.7811024
0002e0 ee 00 a9 bd 04 4f 90 c0 d0 96 d4 bd 16 f1 85 3e
       -0.082521304 -4.5096455 -0.10380328 0.26160496
0002f0 cc 93 76 3e 5e b8 b2 3e 3c 85 42 3e 4b 9f 51 40
       0.24079818 0.34906286 0.18996137 3.2753475
000300 22 e9 a5 3e 56 e6 72 40 2b a5 18 3e 02 d5 29 40
       0.3240443 3.7953086 0.14906757 2.653626
000310 80 0b 5b 3d 38 63 ae 3d 90 6a 8a 3e b8 ef 5a 40
       0.053477764 0.08515018 0.27034426 3.4208813
000320 db 39 76 3e ec f9 2e 40 45 e2 c8 3c fd ec 61 40
       0.24045508 2.734004 0.024521956 3.5300896
000330 10 fa 20 3f 46 a7 16 40 26 51 22 3e 29 a1 59 40
       0.62881565 2.3539596 0.15851268 3.4004614
000340 da 8d 13 bf 6e 6a 1c c0 92 4d 6d be 28 d1 32 40
       -0.57638323 -2.443996 -0.23174122 2.794016
000350 b4 7b bf be b8 16 2b 40 68 89 49 be 1b 03 8d be
       -0.37399065 2.6732616 -0.19681323 -0.27541432
000360 0e 15 2a 3f 35 99 a5 3d 80 7e ab bc d9 2a bd be
       0.66438377 0.080858625 -0.020934343 -0.36946753
000370 5e 29 96 be ba 42 5d c0 a3 f0 09 3f 80 d3 15 bc
       -0.29328436 -3.4571977 0.5388281 -0.009144664
000380 32 fb 01 3f 24 0d c4 bf f0 a9 2f bf 87 28 36 be
       0.5077392 -1.531651 -0.6861868 -0.17788897
000390 11 6b a5 3e 0b 42 1c 40 96 44 0b bf fc bf a5 be
       0.32308248 2.441531 -0.5440153 -0.32373035
0003a0 bb 2d d0 be 48 5c 03 3f fc 03 8b 3e b8 ba 49 40
       -0.4065989 0.51312685 0.27151477 3.1520214
0003b0 88 9c 6d 3e b6 f8 c9 3e 78 83 c1 bd c9 95 01 3f
       0.23204243 0.39447564 -0.09448904 0.5061918
0003c0 f7 0e f7 be e9 c9 85 3e 80 c2 03 bd c6 47 fb 3e
       -0.48253605 0.26130608 -0.03216791 0.49078196
0003d0 5b 6d 4e 3f a3 e1 46 40 2d dc 22 3f 01 04 56 3d
       0.80635613 3.1075218 0.6361721 0.052249912
0003e0 17 93 49 be 59 30 01 bf 2c 8f 2c be 6f 5a f4 3f
       -0.19685017 -0.504644 -0.1685149 1.9090098
0003f0 21 c9 17 3e 6e 44 5d 40 58 0d 46 3e ed 49 1c 3f
       0.14822818 3.4573016 0.19341028 0.610503

network.0.bias f4 [256]
000000 d1 2a ec bc 82 47 a3 bc 72 63 38 3d 5d 55 2e 3e
       -0.02882901 -0.019931559 0.045016713 0.17024751
000010 c6 75 3b 3d 9f a3 2a bd 20 e3 64 bd fb 2e 2f bd
       0.045766614 -0.041659947 -0.055880666 -0.042769413
000020 87 8e e9 be bd bd 84 be 35 7f d0 be 17 9f 90 bd
       -0.45616552 -0.2592601 -0.4072205 -0.07061594
000030 7c 61 28 bf c9 08 9d 3d 10 85 ed be 63 40 1c be
       -0.6577375 0.07667691 -0.4639058 -0.15258937
000040 a7 6c ee be 74 44 e7 bd c1 0b b3 be e9 78 8a 3e
       -0.4656727 -0.11292353 -0.34969905 0.27045372
000050 7e 00 db 3b 96 c8 8a be fc e7 2c bf 3b 64 6c bd
       0.0066834083 -0.2710616 -0.6754148 -0.057712775
000060 f2 2f b4 3e 21 76 9c be 7e 3b 78 3e 18 10 db bd
       0.3519283 -0.30558875 0.24241444 -0.10696429
000070 dd 79 b5 bd 43 86 cc bd 89 98 8f be 86 86 60 be
       -0.08861134 -0.09986546 -0.28046063 -0.21926317
000080 49 31 a5 bd 5a e5 9d be ff 91 b6 be 32 6c 55 3d
       -0.08066041 -0.30839044 -0.3565826 0.052105136
000090 b7 70 af be fc b4 20 bf 7c 35 96 be 3e 51 cc 3d
       -0.34265682 -0.6277616 -0.2933768 0.09976433
0000a0 9c 5e b4 be 08 6d 91 3e 17 4f 3c 3d 12 3d 08 bf
       -0.3522843 0.28403497 0.045973863 -0.53218186
0000b0 d9 9a c1 3e 31 0d 08 3d 6b 37 43 3e f5 c5 d5 3c
       0.37813452 0.033215705 0.19064109 0.02609537
0000c0 5e 5c 54 be 86 df a0 be 46 e0 15 bf 76 bf 12 bf
       -0.2073836 -0.31420535 -0.5854534 -0.57323396
0000d0 bb a6 04 be 80 b0 48 be ac 83 46 bd e9 d1 8b be
       -0.12954228 -0.1959858 -0.048465416 -0.27308586
0000e0 8e b9 c1 3d 58 bd 14 be ef 31 cd bc 27 a0 29 3d
       0.0945922 -0.14525354 -0.025048224 0.0414125
0000f0 07 bd 31 bf e9 72 a6 bd a0 59 0b bf e7 3a ae be
       -0.6942906 -0.08127386 -0.5443363 -0.34029314
000100 bf b3 1f bf 4f 5d a7 be 3c e6 a4 bd 41 91 0b 3d
       -0.62383646 -0.32688376 -0.08051726 0.03407407
000110 e3 70 1e 3e 31 3e 8f bc d1 38 5e 3e cb 64 56 bd
       0.1547275 -0.01748571 0.21701361 -0.052342217
000120 c8 06 eb bd 1c c4 dd bd 78 91 21 3e 44 6d 1c be
       -0.11475903 -0.108284205 0.15778148 -0.15276057
000130 71 11 36 3e 41 12 93 3c db 9e 2f bf ec 19 0d bf
       0.17780091 0.01795304 -0.6860177 -0.5511768
000140 76 04 07 be 02 98 bf bd 7f ef 2b bf d9 39 85 bd
       -0.13185295 -0.09355165 -0.6716232 -0.06505174
000150 97 86 e4 be 73 b7 18 3e 82 87 60 bc 1c 63 17 bd
       -0.44633934 0.1491373 -0.013704183 -0.036959752
000160 f3 27 c6 bc 21 c5 af be 97 18 dd bc 98 83 1b 3c
       -0.024188971 -0.34330085 -0.026989264 0.009491824
000170 0f 71 83 bd e8 78 29 be e8 39 23 bf 41 ea 2b 3d
       -0.064180486 -0.16550028 -0.6376023 0.04197145
000180 fc 47 f7 3d 74 18 5a 3d 68 0f c3 bd 7f ac 97 3d
       0.12074277 0.053245977 -0.09524423 0.07405948
000190 65 eb 93 bd 38 16 54 bc 67 5c 96 3e 1b af 2f 3d
       -0.07222632 -0.0129447505 0.29367372 0.042891603
0001a0 1b 79 9c be 1b 02 49 be 6b d3 a0 be 34 3a db be
       -0.30561146 -0.1962971 -0.314113 -0.42817843
0001b0 43 a5 02 be f5 4b 2c bf d6 3d 1d be 14 28 26 bf
       -0.12758355 -0.673034 -0.1535562 -0.64904904
0001c0 28 ea 74 3e 29 1c e9 be db 69 05 3d b0 c2 20 bf
       0.23917449 -0.45529297 0.032571655 -0.6279707
0001d0 56 0d e9 be 66 9f 0a 3e e0 da 82 bd 86 6d 89 be
       -0.45517987 0.13537368 -0.06389403 -0.26841372
0001e0 c4 f8 16 bf f9 03 e8 be ee 9b c0 3e b2 c1 fd bc
       -0.58973336 -0.4531553 0.37618965 -0.03097615
0001f0 02 2a 74 be e3 c1 b1 bd 5a 6d 1d 3d 8a 9e c3 be
       -0.2384415 -0.08679559 0.038434364 -0.38206893
000200 f5 73 3f 3e c6 67 a7 3e 6b 03 d6 be 03 8d d3 bd
       0.18696578 0.3269636 -0.41799483 -0.1032963
000210 09 8d c5 bd de 4f 08 bf 33 1d db be ef e9 e1 bd
       -0.09646041 -0.5324687 -0.42795715 -0.110309474
000220 32 ca 06 bf 34 49 98 be 4a 06 58 bb c4 86 ab 3e
       -0.52652276 -0.2974335 -0.0032962733 0.33501256
000230 60 a4 fd bc 66 f2 38 3e ac ef 98 be e9 01 6f bd
       -0.03096217 0.18061218 -0.29870355 -0.05835143
000240 55 0a 2f bf c0 8b ea be c5 33 23 bd 73 ee 0a 3c
       -0.6837514 -0.45809746 -0.039844293 0.008479702
000250 c4 38 ea be 0c eb ca be f1 bd 65 be 64 47 20 bf
       -0.45746434 -0.39632452 -0.22435738 -0.62608933
000260 80 b9 02 bf 24 82 45 bd ff fd 84 be 81 5d f2 3d
       -0.510643 -0.048219815 -0.25975034 0.11834241
000270 cc 50 0e be 90 39 df 3c bb b1 2f 3d 5b f8 23 be
       -0.13898009 0.027249128 0.042894106 -0.16012709
000280 2a c3 5c 3d b3 bc 14 be 6a 10 8d 3e e8 51 19 bc
       0.05389706 -0.14525108 0.27551585 -0.009357907
000290 89 1a 45 3c 61 fd 4f be 35 f2 49 3d 0a 70 f7 be
       0.012030252 -0.203115 0.049303252 -0.48327667
0002a0 57 38 99 be 08 cc f3 bd e9 31 4f 3e ba 42 0d 3e
       -0.29925796 -0.1190415 0.20233883 0.13794985
0002b0 e0 d9 22 bd f8 6f ed 3d 45 00 00 be a0 d7 67 bc
       -0.039758563 0.11593622 -0.12500103 -0.01415053
0002c0 b9 38 ed 3d d4 e1 64 bd 8c e7 1f bf 76 33 fb be
       0.115830846 -0.05587943 -0.6246269 -0.490627
0002d0 21 31 5e 3d 00 b0 c6 bd d4 ed d5 ba 5c 1c c1 bd
       0.05424607 -0.09701538 -0.0016321489 -0.09429237
0002e0 ff a1 fc be f3 22 b5 3e a4 f4 5f 3e 3e 69 a7 be
       -0.49342343 0.35378227 0.21870667 -0.3269748
0002f0 a0 c3 fa be 66 5f 75 3e 40 72 f7 be 01 ef 11 be
       -0.48977375 0.23962173 -0.48329353 -0.14251329
000300 b7 53 d0 be 49 76 e4 3d 74 23 ed bd 9c 57 3a be
       -0.4068887 0.111553736 -0.11579028 -0.18197483
000310 67 9d 1c bf 76 a2 bf be 3c e4 72 3e a2 a6 e2 be
       -0.61177677 -0.37428635 0.23719877 -0.44267756
000320 19 96 51 3d 96 c0 5c bc 8e d3 0a bf c9 39 53 3e
       0.051168535 -0.01347365 -0.54229057 0.20627512
000330 59 09 af be da ad 0b 3d 60 10 d2 3d bb 07 e2 3c
       -0.3418682 0.034101345 0.102570295 0.027591577
000340 a3 5b 61 bd 2a 53 12 bf 3c ee ff be 50 d4 13 bf
       -0.055019032 -0.5715815 -0.49986446 -0.5774584
000350 05 84 85 be 17 97 7a bd eb 20 c1 3e 00 28 88 be
       -0.26077285 -0.061179247 0.37720427 -0.26593018
000360 70 a2 29 bf be 4e ad 3e a0 0b 47 3e c2 15 32 bd
       -0.66263485 0.33849138 0.19438028 -0.04347778
000370 d7 a4 fb be 20 1e 17 bf a5 6f e3 be 20 6f 1a bf
       -0.491492 -0.5903034 -0.44421116 -0.60325813
000380 fa cc 20 bb 0b e9 f9 be 98 21 1e bf a0 3f 07 bf
       -0.0024536238 -0.4881061 -0.6177001 -0.5283146
000390 29 c9 8d be 4c 95 b9 3e e6 15 e2 3d 74 cb 39 be
       -0.27692536 0.36246717 0.11039333 -0.18144017
0003a0 d2 e4 4e bd dd 25 56 bd c8 ec ca be c9 d0 f8 be
       -0.05051119 -0.052282203 -0.39633775 -0.4859679
0003b0 f1 43 b8 be cb 4b 42 3d c1 19 a8 3d 29 9a 9b be
       -0.35989335 0.047435563 0.08208037 -0.30391052
0003c0 20 ab 2f bf 92 17 8a bd 99 c2 f4 be e1 68 24 bd
       -0.6862049 -0.06742777 -0.47804716 -0.040139083
0003d0 47 5c b9 be 14 c7 28 bf cf cd 02 bf 60 c3 03 3e
       -0.36203215 -0.6592877 -0.5109529 0.12867498
0003e0 03 d6 f2 3d 93 72 2a be 30 f2 d3 bd 77 12 b2 3e
       0.11857226 -0.16645269 -0.10348928 0.34779713
0003f0 a0 aa 1e be 4c 95 3d 3d ac 67 8e bb cc 87 1b 3d
       -0.15494776 0.04628496 -0.0043458547 0.037971303

network.3.weight f4 [256, 256]
000000 b8 6d 4a 3d 4a 82 25 bd 02 b1 31 3d 4e ad df 3d
       0.049421042 -0.040407456 0.0433817 0.10921727
000010 d0 78 68 3c cd fb b9 3d ff a5 00 3d 03 a7 37 3e
       0.01418896 0.0908123 0.031408306 0.17934804
000020 a4 20 b2 3c 40 50 7f bb 72 96 88 3c 0a 0c a1 bd
       0.02174408 -0.0038957745 0.0166733 -0.078636244
000030 f0 72 82 bb 6a 82 bd 3e 60 e4 df bc 6f b6 1a 3f
       -0.003980987 0.3701356 -0.027330577 0.6043462
000040 f1 a2 8a 3d 0d 5c 62 3d 80 fb 37 bc 02 a7 d8 ba
       0.0676936 0.055263568 -0.011229396 -0.0016529264
000050 5a dd a4 bc 6b a9 c3 bd 3f e3 35 3d 64 8f 8e 3d
       -0.02012508 -0.09553798 0.044406172 0.06960943
000060 12 78 79 bd e8 21 e9 3c 08 d8 05 bd f6 d2 40 bd
       -0.060905524 0.02845855 -0.032676727 -0.047076188
000070 ca da 5e 3e 48 82 20 3b 5a e4 0f bd dc 4c 7f bd
       0.21763149 0.0024491716 -0.035129882 -0.06232916
000080 60 2d 2e 3d 90 1c ba bb 91 90 ec 3c 59 0c 32 3d
       0.04252374 -0.0056796744 0.028877528 0.043468807
000090 00 bb 9d 3c 62 30 1c 3d 6a 32 49 3d d0 17 fc 3d
       0.019254208 0.03813208 0.049120344 0.123092294
0000a0 27 7c 5a 3c ec c4 de bc f5 de 9e 3d c4 6e 01 3d
       0.013335264 -0.027193509 0.077573694 0.031599775
0000b0 e9 05 cc 3c fc f8 ae 3d a4 76 30 bd b3 38 cc 3d
       0.024905162 0.08543584 -0.043081895 0.09971752
0000c0 67 5b 40 bd 00 a0 b7 38 43 23 f7 3c d4 a3 d4 bc
       -0.046962168 8.755922e-05 0.030168181 -0.025957026
0000d0 83 47 c3 3d 74 f1 d0 3c 78 b2 d2 bd 9a cf 0f bd
       0.09535124 0.025505759 -0.102879465 -0.035110094
0000e0 ae 6a e2 3d 04 e3 29 bd 7a 8f 29 3d cb ec 2f bf
       0.11055504 -0.041476265 0.041396596 -0.6872069
0000f0 00 40 39 3a 8b 87 10 3f c0 69 cc bc 94 44 84 3c
       0.00070667267 0.5645682 -0.02495277 0.016145982
000100 20 de 50 3d e6 ee bd 3e c5 0c 04 3f c4 a9 ea be
       0.050993085 0.37096328 0.51581985 -0.45832646
000110 f5 c9 50 3d fe 46 63 3d 55 78 19 3e d5 0c 90 3e
       0.05097385 0.055487625 0.1498731 0.2813479
000120 40 81 4f bd 68 31 46 3f 6f 01 8e 3c 9c 23 0a bd
       -0.05066037 0.7741914 0.017334668 -0.033725366
000130 3f c2 83 bb c1 22 33 3d f4 1e d8 3c 6c 9f 2b 3d
       -0.0040209587 0.043734316 0.026381947 0.041900083
000140 2c eb 5f 3d 24 b9 82 3d 24 b6 a7 bc f6 1f 61 3d
       0.054667637 0.06382969 -0.020472594 0.05496212
000150 3c 35 de 3c 66 8b 37 3d fc 49 9a 3d e1 9e 33 3e
       0.027124994 0.044810675 0.07533643 0.17541076
000160 e6 9e 46 bd 68 fd 13 3d 67 02 a6 3d 33 71 ae 3d
       -0.04849138 0.03613034 0.08105927 0.08517685
000170 41 0e ac be e8 35 05 3d 82 a5 68 bd de 49 4f 3d
       -0.33604625 0.032522112 -0.056798466 0.050607555
000180 5f a5 c2 bd 2d 61 9c 3d a6 6e 0a bd 16 34 e5 3c
       -0.09504198 0.07635722 -0.03379693 0.027978938
000190 a0 5b 23 3e b5 12 8f bd c9 4c 13 bd 73 20 54 bd
       0.15952921 -0.0698599 -0.0359619 -0.05178876
0001a0 1a 2a 83 bd e6 ce a4 be 29 da 19 be 76 78 23 3d
       -0.064045146 -0.321891 -0.15024628 0.039909802
0001b0 48 7c 0d 3c 30 89 b8 3b d4 da 93 be fe 82 3b bd
       0.008635588 0.0056315884 -0.2887789 -0.04577922
0001c0 da fa ab bb 44 da 90 3e 60 5c 56 3d 7e ba 56 bb
       -0.0052484097 0.28291523 0.05233419 -0.0032764967
0001d0 bf 29 58 3d 76 98 77 bc d8 d5 a6 3c 8a 27 73 3d
       0.052774187 -0.015112033 0.02036564 0.05936388
0001e0 d7 00 1b 3c c0 17 c2 3c 88 79 6f 3b 66 94 d1 bd
       0.009460649 0.023692966 0.0036540944 -0.10233383
0001f0 09 e1 91 3c 2d a9 df 3d bf 51 a8 3d 48 1d 11 3d
       0.0178075 0.109209396 0.08218717 0.035428315
000200 11 1b 13 bc d1 e7 7f bc 7a 46 4a 3d 3a 3e ac 3d
       -0.008978621 -0.015619234 0.049383618 0.08410306
000210 0a a0 29 3f 8c 5e 1a bd b6 29 73 3d 63 95 99 3c
       0.66259825 -0.037687823 0.05936595 0.018747991
000220 0a 75 02 3d a0 a2 62 3b d0 aa da 3c ad 7a 1c bd
       0.0318499 0.0034581795 0.026692778 -0.03820293
000230 98 0c 40 3c db 95 40 bb 88 8b f3 bb cd 34 8a 3c
       0.011721753 -0.0029386196 -0.007432405 0.01687088
000240 04 39 13 bd f0 c9 11 bc c6 b5 c8 3c 8a f8 09 3c
       -0.035943046 -0.008898243 0.024500739 0.008421073
000250 d2 76 1f bd 9e 93 1c 3d 4f ed a7 be 08 24 64 3d
       -0.038931675 0.038226716 -0.3279824 0.055698425
000260 7c e3 57 3d bb f4 72 3d 58 53 12 bc 7a af 1f bc
       0.05270718 0.059315424 -0.0089310035 -0.009746427
000270 5a 39 01 bd c2 ab 89 3d 19 65 b1 bb b4 1d 91 3d
       -0.031548835 0.06722213 -0.005413663 0.070857435
000280 d3 07 80 3d 58 a9 03 be e3 fb 28 3d 4f c8 95 3b
       0.06251492 -0.12857568 0.041255843 0.004570998
000290 59 48 70 3d 97 e6 24 bd 87 f0 7f 3d 8d f1 a4 3d
       0.058662746 -0.04025897 0.062485244 0.08053885
0002a0 74 88 4c be c8 c9 6a bd 89 9d 40 3d 78 43 69 bd
       -0.19973928 -0.05732134 0.047025237 -0.05694911
0002b0 70 ad 5d 3d 74 a8 96 3d 11 19 9d be 94 bd ee 3c
       0.05412048 0.07356349 -0.30683187 0.029143132
0002c0 52 04 bf bc 43 64 9d be a8 35 df 3c 90 48 94 bb
       -0.02331749 -0.30740556 0.027247265 -0.0045252517
0002d0 c4 10 90 3d 5a c6 38 3d 2b a6 00 3c 92 f6 cf 3d
       0.07034448 0.045111038 0.0078521175 0.101544514
0002e0 fa 4a 47 3d 6c 1b ae bd 81 48 9e 3c 28 95 32 bc
       0.048655488 -0.08501324 0.019321682 -0.010899819
0002f0 fa 5a 1e bd a4 51 d8 3b 44 cf fa 3c 26 fe 29 3d
       -0.03866098 0.006601529 0.03061641 0.04150214
000300 d9 ae 57 bd 3a 6b 37 3e a5 3d 84 3c f0 30 2f 3d
       -0.052656982 0.17911997 0.016142676 0.04277128
000310 b8 fb 30 3d c0 a3 4b 3d 4f 1a 55 bd 5c cb 19 3e
       0.043208808 0.04971671 -0.052027043 0.15018982
000320 ef be ab bc 10 44 a5 3d 51 70 2c 3d ac 93 44 3d
       -0.020965068 0.080696225 0.0420993 0.047992393
000330 70 1a af bd 44 4a 85 3d 5a 42 24 3e d9 bd 80 3e
       -0.085499644 0.06508306 0.16040936 0.25144842
000340 96 46 56 be f0 bc 79 3c 1c e5 54 3d c0 16 41 bd
       -0.20925364 0.0152428 0.05197631 -0.047140837
000350 6a f0 38 3c 6c 00 0e 3e 20 12 c8 39 70 32 2a 3d
       0.011287788 0.13867348 0.00038160477 0.041552007
000360 fc 21 ca 3c d8 83 84 3d 49 d1 be 3d cb 50 73 3d
       0.024674408 0.0647046 0.09317262 0.059403222
000370 38 2a 19 3d b2 41 58 3d 59 5e 10 3d 7c f0 e5 3c
       0.03739378 0.052797027 0.035246227 0.028068773
000380 73 45 8e 3b ec 31 a1 3c 9c ea 9b 3c 50 03 eb bb
       0.004341775 0.019677125 0.019032769 -0.0071720257
000390 bc 57 cb bd bb 3b 22 3d 20 ae 7b bd ac c6 8d bc
       -0.099288434 0.039607745 -0.061445355 -0.017306648
0003a0 4d 44 ee 3d b9 9b aa 3d 0a 7a 6d 3d 60 7a 30 3c
       0.11634121 0.08330483 0.057977714 0.010771364
0003b0 25 de 5c 3d dc bf f3 bc a5 d9 b8 3d 52 a6 37 3d
       0.05392279 -0.029754572 0.090258874 0.04483635
0003c0 36 a8 6b 3d a6 c3 ec 3d b4 d3 a3 3c d0 e4 20 3d
       0.057533465 0.115607545 0.019998409 0.039280713
0003d0 c4 75 e6 bc 3e 9c 07 bd 00 f5 38 bd 52 6b 9e 3d
       -0.028132327 -0.03310799 -0.045155525 0.077353135
0003e0 f3 60 a3 3d c6 9f ad bd cc 8e e7 3c 80 61 1c 3c
       0.07977476 -0.0847774 0.028266333 0.00954473
0003f0 ab 68 39 3d 41 73 8f 3d a9 47 7d 3c 1d 45 13 bc
       0.045265835 0.07004405 0.01545898 -0.008988646

network.3.bias f4 [256]
000000 08 77 09 3e 46 dc 1b 3e 12 9f 45 bd 5f 3a e9 bc
       0.13424313 0.15220746 -0.048247404 -0.028470216
000010 3b c3 92 bd 4b 13 01 3e 56 87 26 3e 56 c5 af bc
       -0.071661435 0.12605016 0.16262564 -0.021456402
000020 31 77 0c 3e 69 a3 05 bd 1f a4 11 3e c5 6f 0d 3d
       0.13717343 -0.032626543 0.14222763 0.03453042
000030 83 3a 55 bd 9f 7e 8a bb d8 14 f6 bc 30 f6 01 3e
       -0.052057754 -0.00422652 -0.030039236 0.1269157
000040 b9 f4 48 bd 9c 06 c3 bc 98 7d 06 3d ce f2 7f bd
       -0.04906151 -0.023806863 0.03283462 -0.062487416
000050 70 e1 86 bd ad 51 2a 3e 68 bd 20 3e 32 c0 84 bd
       -0.065859675 0.1663272 0.15697253 -0.06481971
000060 26 47 e2 3d 41 5a ef bc f5 5a fc bc b5 e1 0e 3e
       0.11048727 -0.029217841 -0.03080509 0.13953288
000070 17 fa 22 3e a6 8a 05 3e ab 8d ad bd 59 be 0d 3e
       0.15915714 0.13041171 -0.08474287 0.13842143
000080 d3 f7 06 3e 18 20 98 bd 54 c0 05 3e 30 36 5c be
       0.13180475 -0.074279964 0.13061649 -0.21505046
000090 cd 26 19 bd c8 fc 23 3e 94 c0 11 3e 70 74 1d bc
       -0.03739052 0.16014397 0.14233619 -0.00961028
0000a0 c9 64 01 3e fa d3 2c bd b5 84 48 bd a4 2a 87 bc
       0.12636103 -0.042194344 -0.048954684 -0.016499825
0000b0 1c b8 91 bd 82 5f 42 3e 85 17 26 3e f2 e7 23 3e
       -0.07115194 0.18981746 0.1621991 0.16006449
0000c0 35 92 72 bd 72 17 29 3e 38 ba ed bc 05 ce 16 3e
       -0.059221465 0.1651285 -0.02901946 0.14727028
0000d0 4c f4 f3 3d da ac f8 3d 6f a3 03 3e ec 8a 0e 3e
       0.1191183 0.12142344 0.12855314 0.13920182
0000e0 8d d8 0b 3e bc f3 3c 3e b3 16 9e 3d da d0 10 3e
       0.13656826 0.18452352 0.07719173 0.1414217
0000f0 52 0a 2d 3e 75 bf 32 bd 0d 49 16 3e 85 a7 1c 3e
       0.16898468 -0.04363962 0.14676304 0.15298279
000100 96 0c d3 3d dd 72 d1 bc ec 5a 30 3e 1a 84 9b 3d
       0.10305135 -0.025567466 0.17222184 0.07593556
000110 99 ca 21 3e 28 8b 20 3e 4e 6a 3f bd d8 04 e7 3d
       0.15799941 0.15678084 -0.04673224 0.11280221
000120 eb 90 f1 bb 4b a0 58 bd 85 7b 47 bd 2a 01 43 3d
       -0.007372012 -0.052887242 -0.04870178 0.047608532
000130 02 29 f2 bc 19 c5 12 3e 3b 21 19 3e ce 8e 37 3e
       -0.02956057 0.14333 0.14954083 0.1792557
000140 43 f8 94 bc 12 70 24 3e d6 d5 40 bd d2 46 fa 3d
       -0.018184787 0.16058376 -0.04707893 0.12220539
000150 6f 09 91 bd 52 d6 45 bb b1 7b a2 bc 6f 1a 23 bd
       -0.070818774 -0.003018756 -0.019834371 -0.03982013
000160 23 ce 32 3e d7 7c 19 3e 39 fd 10 3e b1 8c 20 3e
       0.17461447 0.14989029 0.14159097 0.1567867
000170 73 ed 44 3d da dd 38 3e ce 61 2e 3e df 8c 18 3e
       0.04807801 0.1805338 0.17029497 0.14897488
000180 4f 67 5a 3e 04 66 8d bd c5 d9 11 bd 11 4a 38 3e
       0.21328472 -0.069042236 -0.03560807 0.17997004
000190 4b 7f a0 bc 5c fe 1f 3e 25 b6 85 bd 5d c0 d5 bc
       -0.019591948 0.15624374 -0.06528882 -0.026092703
0001a0 35 b9 f8 3d 7c 2f fe 3d d2 b8 4b bc 36 87 52 bd
       0.121447004 0.12411401 -0.012434201 -0.05139848
0001b0 bc 67 3d 3e 48 23 df 3d fe 9f 2a 3e 3f 13 36 3e
       0.18496603 0.10895401 0.16662595 0.1778078
0001c0 9d 0e 12 3e 0f f8 19 3e 17 10 21 3e 5e 71 0c 3e
       0.14263387 0.15036033 0.15728794 0.13715121
0001d0 1b 80 21 bd 3c 22 0a 3e 28 29 0a 3e f2 a1 36 bd
       -0.03942881 0.13489622 0.13492262 -0.044588037
0001e0 0d 48 1a 3e dd 7b de 3d 50 66 30 3e da d9 15 3e
       0.15066548 0.10863469 0.17226529 0.14633885
0001f0 0f 7b f2 3d 86 83 3f bd 14 4c f8 3d 46 a5 39 bc
       0.11839878 -0.04675629 0.12123886 -0.011330908
000200 b0 6a f4 bc 15 c0 6b bd b8 9a e0 bc e6 ba 16 3e
       -0.029836029 -0.05755623 -0.027417526 0.14719734
000210 55 78 9a be 14 33 4d bd 16 54 f8 3d 18 c9 25 bd
       -0.3016993 -0.05009754 0.12125413 -0.04047498
000220 27 26 97 bd 63 2a 1b 3e ed 2b 43 3e 48 78 8b bc
       -0.07380324 0.15152888 0.19059725 -0.017025128
000230 01 82 1c 3e 5f 1b a4 ba 77 16 30 bd 89 24 fe 3d
       0.15283968 -0.0012520364 -0.042990174 0.12409312
000240 aa 57 a4 bc 31 23 1b bd ca 6f 9f 3d 8e 8c 64 bd
       -0.020061333 -0.037875358 0.07784994 -0.055798106
000250 56 74 39 bc 77 2e 6d bc e0 e1 05 3e 3d 98 90 bd
       -0.011319241 -0.01447641 0.13074446 -0.07060287
000260 03 b6 34 bd 83 3f 65 bd 2a 61 3f bc 70 c9 41 3e
       -0.044118892 -0.055968773 -0.011680881 0.18924499
000270 59 f8 e7 bb 3f 72 04 3e f3 5a 01 3e d7 67 5d bc
       -0.007079166 0.12934206 0.1263235 -0.013513527
000280 a8 f4 58 bd 0b 86 05 3e 26 0e 28 3e 4e a3 81 bd
       -0.052967697 0.13039415 0.16411647 -0.06329976
000290 ff 65 1d 3e 22 f1 0e bc 51 a7 11 3e 6f d0 24 3e
       0.1537094 -0.008724483 0.14223982 0.16095136
0002a0 c5 9f 8a bd d2 dc 4a 3e b8 a2 bb 3d 8c 20 20 3e
       -0.06768755 0.19810799 0.091618955 0.15637416
0002b0 cc 98 2d bd 48 e4 b1 3d df 42 13 bd 0f f0 0f 3e
       -0.042382047 0.08686119 -0.035952445 0.14056419
0002c0 41 86 2a 3e 27 6f 03 bd 24 f6 01 3e d7 d2 b5 bc
       0.16652776 -0.032088425 0.12691551 -0.022195263
0002d0 54 a5 20 3d 69 d7 27 3e c8 19 49 bc 91 00 05 3e
       0.03922017 0.16390766 -0.012274213 0.12988497
0002e0 53 6a 29 3e 69 72 51 3d 08 82 73 bd 72 41 1b bd
       0.16544466 0.0511345 -0.05945018 -0.03790421
0002f0 d2 fd 25 3e 8e e0 c3 bb 76 73 e8 3d 4c f5 28 3e
       0.16210106 -0.0059776967 0.113501474 0.16499823
000300 11 7b 52 be 20 e5 05 3e 96 c9 f2 3d 39 e0 7e bd
       -0.20554759 0.13075686 0.11854856 -0.062225554
000310 2c 5e 91 3d ea 4b a6 3c a9 19 06 3e 1c a4 36 3e
       0.0709804 0.02029987 0.13095726 0.1783604
000320 a6 47 4d bd 8c 9f 1a 3e 06 c9 f1 3d d3 59 34 3e
       -0.050117157 0.15099925 0.1180592 0.1761239
000330 3f d1 0c 3e f5 d5 3b bd b5 77 4c bc 9d 25 9c bc
       0.13751696 -0.045858342 -0.012479712 -0.019060904
000340 a7 25 f6 3d 89 1f 18 3e 20 06 18 bd 5f e1 2d 3e
       0.120189 0.1485578 -0.037115216 0.16980503
000350 73 33 39 3e 82 96 2a 3e 56 af 34 bc ab 95 49 bd
       0.18086033 0.16658977 -0.0110281315 -0.049215
000360 33 04 51 bc a8 fe e7 bc c7 39 0b 3e 0f 60 1f 3e
       -0.012757349 -0.028319672 0.13596259 0.15563987
000370 0e 07 80 3d 78 58 d5 bc fe 93 18 3e f2 01 29 3e
       0.062513456 -0.026043162 0.14900205 0.16504648
000380 cd d7 fe bc fd cb 74 bc fd bc 13 3e 94 dc 8d bc
       -0.031108761 -0.014941213 0.14427562 -0.017317094
000390 23 63 a0 bc 5d 53 1b 3e ad d1 28 3e 71 cd 52 3c
       -0.019578522 0.1516852 0.16486235 0.012866364
0003a0 2a d1 01 3e 3b 73 f4 3d b4 0e 93 3b 4a 3e 1f 3e
       0.12677446 0.11936041 0.0044878367 0.15551105
0003b0 1f 84 3d 3e 11 be 6a bd a6 6d 3c 3e 01 4a e8 3d
       0.18507431 -0.057310168 0.18401203 0.1134224
0003c0 85 58 11 3e b4 3e 11 3e b0 75 1b bd c0 ea 0b 3e
       0.14193924 0.14184076 -0.037954032 0.13663769
0003d0 b6 93 86 bd 0b c1 1d bd da 03 27 3e 7a 07 65 bc
       -0.065711424 -0.03851418 0.16310063 -0.013978833
0003e0 14 a4 3c 3e bd 66 55 bd 5b 03 08 3e 0f 6a 73 bd
       0.18421966 -0.052099932 0.1328253 -0.059427317
0003f0 7e e3 1c 3e fe 3a 7a bd d9 1f 31 3e b8 3b ef 3d
       0.15321156 -0.061091416 0.17297305 0.11681312

network.6.weight f4 [256, 256]
000000 46 b0 df 3b 26 a6 d8 3d cc ec 30 3d df 2f 94 3b
       0.0068264334 0.10578565 0.043194577 0.0045223082
000010 63 72 6c 3b 0d 10 eb 3c a0 8c e3 be 49 34 66 3d
       0.0036078922 0.028694177 -0.44443226 0.056202207
000020 cd fb bd 3d fc e4 86 3c 3c d0 7d 3d 8e 8b 03 bd
       0.09276543 0.01646661 0.061966166 -0.03211551
000030 1c fc 1d 3d 95 a8 00 bf f4 79 8f 3d f0 5b a6 be
       0.03857051 -0.50257236 0.070056826 -0.32492018
000040 e6 a2 06 bd 07 d3 ef bb 80 bc 3c 3b fe a8 09 3d
       -0.032870196 -0.0073188576 0.0028798878 0.03360843
000050 9f 93 ab 3c 20 34 d8 3d fc 23 f2 bc e7 90 bc 3a
       0.020944415 0.10556817 -0.029558174 0.0014386446
000060 c6 30 fd 3c d1 da 3e 3d 5f b8 97 3d 52 61 bd bc
       0.030907046 0.0465954 0.07408213 -0.023117695
000070 8b a6 9b 3d 65 ea 96 3d 52 ad 60 bd 0a 20 f1 3c
       0.07600125 0.07368926 -0.05485279 0.029434223
000080 57 5b 2f 3d 7d 2c 69 bc d6 cd ac 3d dd f5 5e 3e
       0.042811718 -0.014231798 0.084376976 0.21773477
000090 2d 99 15 3d 91 11 2c 3d 12 4b b1 3d e7 e4 47 3d
       0.036523033 0.04200894 0.08656897 0.048802283
0000a0 7e 9f f4 3b 03 d1 66 bc a4 b9 60 3d 40 7f 65 bb
       0.007465302 -0.014087918 0.05486454 -0.0035018474
0000b0 db 1f ad 3c 99 01 ac 3d db 21 a1 bc af 2e 9a 3d
       0.021133354 0.08398742 -0.019669464 0.075284354
0000c0 c4 82 00 bd 33 b7 c1 3d 24 0e 2f 3d fe 3e 7c 3d
       -0.031374708 0.094587706 0.042738095 0.06158351
0000d0 f9 f1 2f 3c 19 5f 85 3d e1 52 36 3d 6d 14 b3 3d
       0.010738843 0.06512279 0.044512633 0.0874413
0000e0 45 b8 d7 3c 95 32 85 3d fd 3f ad bc fd 57 01 3d
       0.026332984 0.065037884 -0.021148676 0.031578053
0000f0 6c 01 09 3c 61 dd 62 bd 88 b8 96 bc d4 97 93 3d
       0.008362155 -0.055386905 -0.018398538 0.07206693
000100 7f 76 86 3d 2a 82 49 bc a6 5b 52 bb 80 44 30 be
       0.0656557 -0.0122991 -0.0032098084 -0.1721363
000110 88 93 8d 3c da 02 6c be 91 00 29 bd 62 35 b4 be
       0.017282262 -0.23047963 -0.041260306 -0.35196978
000120 0f 54 e2 ba c9 a0 44 bd 20 2a 39 3d 98 30 a4 bc
       -0.0017267483 -0.0480049 0.04520619 -0.020042703
000130 65 68 1e 3d 1a 8c f9 3b 17 1c a2 3d c9 62 d1 3d
       0.038673777 0.0076155784 0.07915514 0.1022392
000140 ed 3e 56 bc 15 39 cc be d8 cd f2 bc 5a 6f 9d 3d
       -0.013076526 -0.398873 -0.02963917 0.07687254
000150 a0 08 9c bc 1c 83 07 3d f0 9d 7e bc ea ac 97 3d
       -0.019047081 0.03308402 -0.015540585 0.074060276
000160 1c 4a 87 3d f0 db b4 3c fc c1 88 3d 2b 40 dd 3d
       0.06605932 0.02207753 0.066776246 0.10803255
000170 07 6f a6 3c 5c 84 5e bc 93 9d 5f be cb 4d a0 3d
       0.020316614 -0.013581362 -0.21837454 0.07827338
000180 6b 9b 02 3e d3 44 be 3b 05 f8 75 3c 32 99 88 3d
       0.127546 0.0058065443 0.015012746 0.06669845
000190 35 a6 1f 3d 04 c0 25 3c bd 0d d8 3c a3 54 45 bc
       0.038976867 0.010116581 0.026373738 -0.012044105
0001a0 01 fd b0 bc c3 ed ae 3c 18 95 0e 3d ec 94 93 bc
       -0.021605017 0.021353608 0.034810156 -0.018015347
0001b0 44 d8 08 3d 65 5f 0c bf 03 fa c8 3d a4 a6 66 3d
       0.033409372 -0.5483306 0.09813311 0.056311265
0001c0 a3 ca 09 3d 14 5a 1d bc f4 b1 54 bb 50 f3 fa 3c
       0.033640515 -0.009603996 -0.00324547 0.030633599
0001d0 47 f6 c3 3b 03 bb e7 3d ca 08 cb 3b 3e f3 2e 3d
       0.0059802863 0.113149665 0.006196116 0.042712443
0001e0 ef 99 06 3e b5 c3 c0 3c 64 78 36 3d 50 c1 80 3b
       0.13144659 0.02353082 0.044548407 0.0039292946
0001f0 5a d9 31 bc 7d 73 73 bb bf d2 00 bd b6 16 a5 3d
       -0.010855043 -0.0037147694 -0.031450983 0.080609724
000200 c0 fe 83 3d 40 85 0e bd e7 f1 cf bc 22 85 0a 3d
       0.06445074 -0.034795046 -0.025383903 0.03381837
000210 3d 78 d5 be 7b aa cb bc 52 ac 97 3d 31 17 26 3c
       -0.41693297 -0.024861565 0.07405914 0.010137365
000220 d3 47 47 bc d3 ae f4 3c a6 68 b1 3d 88 15 c9 3b
       -0.01216312 0.029868519 0.08662538 0.0061366
000230 b6 59 70 3d 78 ba 1b bb 01 8e 8b 3d 04 22 dc 3d
       0.058679305 -0.0023762267 0.068141945 0.107486755
000240 93 95 23 bd 8d 58 b7 3c 5b b9 60 3d ae 10 9a 3b
       -0.039937567 0.022381091 0.05486427 0.0047016954
000250 14 59 62 bd 19 2d 1f bd 45 fb 6f be 2e 46 50 3d
       -0.055260733 -0.038861368 -0.23435695 0.05084818
000260 d7 8f 92 3d e7 90 43 bd 31 7a bf 3c 10 bc b1 3c
       0.071563415 -0.04774561 0.023373695 0.02169612
000270 ea d2 57 3d 9a e8 ce 3d 06 e5 42 3d d8 33 3e bd
       0.052691378 0.10102959 0.047581695 -0.04643616
000280 41 fa 94 3d 27 ed 91 3b 17 2e f6 3c 86 0b 9b bc
       0.07274295 0.0044533196 0.030051274 -0.018926393
000290 44 ff 3e 3d 0b b7 2b 3d 32 aa 97 3d 02 76 de 3c
       0.04663016 0.04192261 0.07405509 0.02715588
0002a0 87 2c 98 3c 3f 6b 95 3d 2c 0e 28 3d 09 a5 11 3c
       0.01857592 0.07295846 0.04102914 0.008889445
0002b0 c8 46 e9 3c ad d1 d3 3d 85 31 2a 3d b9 c3 b6 3d
       0.028476134 0.10342727 0.04155113 0.0892405
0002c0 e0 83 d4 3b 42 c0 65 3d c8 e0 13 3d 47 16 73 bd
       0.0064854473 0.056091554 0.03610304 -0.059347417
0002d0 12 a3 a2 ba df e6 0b 3d af cc 21 bd 55 31 0b bb
       -0.0012408218 0.034155723 -0.039501842 -0.002123912
0002e0 4b fc d0 3c d2 04 97 bc c7 70 c2 bc b4 c0 e4 3c
       0.025510928 -0.018434916 -0.023735417 0.02792392
0002f0 d8 83 bb 3d 87 d2 22 bd 89 b5 30 3d c7 72 fd bc
       0.091560066 -0.039751556 0.043141875 -0.03093852
000300 cd 25 3b 3e e6 a3 83 3d e6 84 33 bb 9d e5 e4 bc
       0.18276139 0.064277455 -0.0027392446 -0.02794152
000310 68 9f a4 3e 8b e3 8e 3d b8 d4 c4 3c f7 c8 47 3d
       0.32152867 0.06976994 0.024027213 0.04877564
000320 35 3f 96 bc 4e 0e eb 3d c2 07 db 3d 70 a7 01 3c
       -0.018340686 0.11477338 0.10694839 0.007913455
000330 46 1e 22 3d 90 bc 96 bc 65 db 83 3b 3a 58 cd 3d
       0.039579652 -0.01840046 0.0040239566 0.100265935
000340 00 d1 ce bc 92 b0 0e 3b 9e 25 13 bd 90 98 8e 3d
       -0.025246143 0.0021772725 -0.035924546 0.06962693
000350 22 c5 8e 3d 19 b1 09 3c 74 33 6e bd 61 90 fc 3c
       0.06971194 0.00840404 -0.05815454 0.030830564
000360 cf 49 2a bd 0b 07 2b 3d 8c 87 db 3d 6d dd 82 3d
       -0.041574296 0.041754764 0.10719213 0.0638989
000370 11 46 8f 3d 54 fc 56 3d b6 8f 0f 3d c9 75 f6 bb
       0.06995786 0.052486733 0.035049163 -0.0075213653
000380 dd 86 53 bd dc f7 87 bc 68 c9 b5 3c a6 a3 6a bd
       -0.051642288 -0.01659768 0.022190765 -0.057284974
000390 be a8 9a bd bf 59 a4 3d 09 6f da 3d 1a dc af 3c
       -0.07551716 0.0802493 0.106657095 0.021467257
0003a0 00 1e b0 3c b1 f6 cd 3c 3a ef 54 bd 0d c8 84 be
       0.02149868 0.025142046 -0.051985957 -0.25933877
0003b0 3b 47 83 3d bf b6 a0 3d 77 6f a4 3d 54 37 c6 be
       0.064100705 0.07847356 0.08029073 -0.38714087
0003c0 f2 b7 7c 3c b7 c4 00 3c 9f db 9c bc 80 e4 01 3d
       0.015424715 0.0078594005 -0.019147692 0.031712055
0003d0 13 51 c0 bc ba 78 89 bb 3a 06 13 bf ab 98 84 3c
       -0.02347616 -0.0041953 -0.57431376 0.016186079
0003e0 d3 09 b7 3d 79 82 30 bd 5a b6 21 3d ed df f1 bc
       0.08937421 -0.04309318 0.039480545 -0.029525721
0003f0 39 f3 d8 3d 32 64 ef bb 2b ea 06 3d df ec fb bc
       0.10593266 -0.0073056454 0.032938164 -0.030752597

network.6.bias f4 [256]
000000 50 30 05 40 db e6 0b 3f d9 85 fe 3f 4b 73 2c 3f
       2.0810738 0.5464913 1.9884597 0.67363423
000010 6f 7c 28 3f fc 94 ca 3e 64 22 03 40 ff 92 00 40
       0.6581487 0.3956679 2.048974 2.008972
000020 71 62 04 40 c7 28 45 bd 3b 0a 83 bd 96 de 52 3f
       2.0685084 -0.04813459 -0.06398436 0.8237089
000030 9e 76 a0 bc c7 cb 44 bd 0f 96 ff 3e b2 6b d8 bc
       -0.019587811 -0.0480459 0.49919173 -0.02641854
000040 49 36 03 40 28 4a 02 40 50 2c 68 bc 32 05 75 bd
       2.0501883 2.0357761 -0.014170721 -0.059819408
000050 96 b9 6d bd df 25 01 40 87 7f 52 3f ca 19 fc bd
       -0.058038317 2.0179365 0.8222584 -0.123096064
000060 47 ce 05 40 d6 e8 be 3f 60 b9 c5 3e 0d 44 2e 3b
       2.0907152 1.4914806 0.38617992 0.0026590854
000070 7a 9e 80 bd 4c 9b 05 40 d4 74 61 bd ee 5d 05 40
       -0.06280227 2.0876036 -0.055043057 2.083858
000080 55 98 85 bc f8 6a 34 3b f2 65 1a bd c1 11 71 bd
       -0.01630799 0.0027529579 -0.03769488 -0.058854822
000090 ff 68 41 bd 0e ec 37 bd 3f 6a af 3e 3a 50 01 40
       -0.047219273 -0.044902854 0.34260747 2.0205216
0000a0 dc 42 00 40 de 97 83 bd 3e 6a 0d 3f 0f 63 07 40
       2.0040808 -0.06425451 0.5524024 2.115421
0000b0 31 39 04 40 e6 77 07 40 9e 1d 07 40 12 14 1b bc
       2.0659907 2.116693 2.1111827 -0.009465234
0000c0 de 4b 30 bd cf 02 02 40 f9 ef bf 3d 42 e2 23 ba
       -0.043041103 2.0314214 0.09371943 -0.00062516716
0000d0 e3 52 84 bd c1 c8 22 3f 62 d7 05 40 ee 8e 7f 3f
       -0.06461122 0.63587576 2.091271 0.9982747
0000e0 61 56 a0 bd f8 89 02 40 45 94 39 bd 56 95 04 40
       -0.078289755 2.039671 -0.045307416 2.0716147
0000f0 0f 16 00 40 3b 32 03 40 16 bd 8d bd 98 ff 88 bd
       2.0013463 2.0499408 -0.06920831 -0.06689376
000100 aa 8d 03 40 fe 26 0b 3f c5 da a1 bd 2e a2 04 40
       2.0555215 0.5435637 -0.07903055 2.0723987
000110 c8 9a 04 40 d0 5e fd 3f 4a 4a 57 bd 9a c5 9a 3d
       2.071947 1.979456 -0.052561082 0.07557221
000120 47 c3 01 40 79 c1 c1 bc 4e 8b 8c bc c1 84 2b bd
       2.0275438 -0.023651825 -0.01715627 -0.04187465
000130 7c ae 03 40 94 a3 81 bd 2b fb 04 40 31 a3 ff 3f
       2.0575247 -0.06330028 2.07783 1.9971677
000140 3a f8 05 40 00 4c 8d bd 4d d0 17 3f e8 ba 40 3f
       2.0932755 -0.068992615 0.59302217 0.75285196
000150 e4 c2 ff 3f b2 99 4f bc fe 06 1d bd e2 6b 04 40
       1.9981351 -0.012670921 -0.038336746 2.0690846
000160 9b f9 80 bd 3f 05 ff 3f f6 cf 69 bd e1 58 3a bd
       -0.062976085 1.9923476 -0.057083093 -0.045494918
000170 a9 0c 07 40 be 8f ff 3f 39 62 04 40 37 86 3d 3f
       2.1101477 1.9965742 2.068495 0.7403292
000180 e5 f2 fe 3f ea 3d 14 3f 3b af 6c 3e a7 3c 01 40
       1.9917876 0.57906973 0.2311372 2.019327
000190 ed 8e 15 bd 89 54 ff 3f 58 c2 68 bd cc 87 21 3f
       -0.036513258 1.9947673 -0.056825966 0.63097835
0001a0 54 c8 22 bc b6 d1 04 40 e7 67 04 40 cd a7 36 bc
       -0.009935457 2.0752997 2.0688417 -0.011148405
0001b0 ba 6f ff 3f ce 60 09 bd 7e 5d 12 bd 5e ee 04 40
       1.9955971 -0.033539586 -0.035733692 2.0770488
0001c0 63 7a fc 3f 7d 85 01 bd 76 23 59 3e 38 e1 82 bd
       1.972485 -0.031621445 0.21204934 -0.06390613
0001d0 53 75 02 40 5f 9a 07 40 f0 ac 03 40 45 a7 9d bd
       2.038411 2.118797 2.0574303 -0.0769792
0001e0 1f 4f e3 3d 30 da a6 bd 19 68 07 40 39 7b 00 40
       0.110990755 -0.08147085 2.1157286 2.007521
0001f0 ed a5 06 bc a1 18 81 bd c1 55 7b bd 47 44 04 40
       -0.008218271 -0.06303526 -0.06136108 2.0666673
000200 57 60 05 40 ca cc 67 3e 31 f6 00 40 75 e9 02 40
       2.084005 0.22636715 2.0150263 2.045499
000210 0e 6f 8e bd 12 e1 d3 bb 7b f3 9f bd a7 08 08 3e
       -0.06954776 -0.0064660395 -0.07810112 0.1328455
000220 0c 88 08 bd 35 1a 01 bc 75 82 02 40 a2 c0 02 40
       -0.03333287 -0.007879783 2.0392125 2.0430074
000230 c9 09 63 bc 28 3d 65 bd 26 30 3d bd 24 cf 7a 3e
       -0.013857313 -0.055966526 -0.046188496 0.2449308
000240 34 79 06 40 ec 28 01 40 c3 0a 9e bd 57 e8 05 40
       2.1011477 2.0181227 -0.077168964 2.092306
000250 9a a1 07 40 5b d6 e0 bc 76 b8 61 bd f4 65 06 40
       2.1192384 -0.027445963 -0.055107556 2.0999727
000260 58 df e4 bc 38 81 01 40 a6 8f 07 40 4f d6 02 40
       -0.02793853 2.023512 2.1181426 2.0443304
000270 8e cf 03 40 ab d9 10 3f 71 5b cc bc 55 08 b0 bc
       2.0595431 0.56582135 -0.024945946 -0.021488348
000280 83 bc f7 3f 1b 4f 00 40 4b cf 47 3e 08 71 fd 3f
       1.9354404 2.0048282 0.1951267 1.9800119
000290 51 ae 22 3f 4e f6 16 bd d0 ae d6 bb 10 ed 00 40
       0.63547236 -0.03685599 -0.006551601 2.0144691
0002a0 77 74 e1 bc 88 ee 4e 3f 32 c0 16 bd 87 d1 d7 3d
       -0.027521355 0.8083272 -0.036804385 0.10538011
0002b0 23 99 30 bd 5c b7 28 3e 7e 6d 28 3f 46 b4 48 bd
       -0.043114793 0.16476196 0.6579207 -0.049000047
0002c0 5e 8e 03 40 27 5b e5 3d 62 7b 7e bd d1 95 1c 3e
       2.0555644 0.111990266 -0.062129386 0.15291525
0002d0 7a ec 89 3f ca ed 8f bd 0b e1 86 bd 08 ae 02 40
       1.0775292 -0.070277765 -0.06585892 2.041872
0002e0 62 04 03 40 69 6a 00 40 16 9e 02 40 f2 a0 03 40
       2.0471425 2.0064948 2.0408988 2.0566983
0002f0 12 7c a5 bd 53 a2 92 bd 5c 4f 5f 3e a9 75 78 bd
       -0.08080305 -0.07159867 0.21807617 -0.060659084
000300 a4 6f 00 40 f3 59 5e 3e b3 a1 15 bd 28 ff 67 bc
       2.006814 0.21714 -0.03653116 -0.014159955
000310 40 b8 04 40 d9 50 02 40 52 cb e2 3d b2 27 51 3d
       2.0737457 2.0361845 0.110739365 0.051063247
000320 7c fb 04 40 21 10 f8 3f d1 8f 0b bd 98 1e 04 40
       2.0778494 1.9379922 -0.0340727 2.0643673
000330 53 fa 31 bd 32 37 47 bc 91 2f a2 bb 4d 02 bd 3d
       -0.04345162 -0.012159156 -0.004949518 0.092289545
000340 f1 e6 ce 3d 14 f5 8c 3e 51 78 fc 3f 59 47 01 40
       0.10102642 0.2753073 1.9724218 2.0199797
000350 e6 d6 51 3e 79 c2 54 bd 5a 44 02 40 8c 94 9c bd
       0.20492133 -0.051943276 2.0354218 -0.076455206
000360 86 ab 37 bd a3 e0 87 bd 14 03 42 3f 7b fc 81 bd
       -0.044841312 -0.06634643 0.75785947 -0.06346985
000370 f0 d1 8d bd a0 ce 06 40 56 64 04 40 28 bd 02 40
       -0.06924808 2.1063614 2.068624 2.0427952
000380 cf d3 20 3e a0 70 06 40 40 25 04 40 91 7b 03 40
       0.15705799 2.100624 2.0647736 2.054417
000390 64 b6 46 3e 6e 6f 04 40 0b 8b 43 bd 39 8e 03 bd
       0.19405514 2.0693011 -0.047740024 -0.032118056
0003a0 5e 7b 82 bd 3e c4 09 3f 56 94 c6 3e c8 96 02 40
       -0.06371187 0.53815067 0.38785046 2.040453
0003b0 cc ea 02 40 f2 9a 01 40 04 c8 07 40 b6 bd 04 40
       2.0455809 2.025082 2.121583 2.074079
0003c0 ca 95 07 40 c6 f9 00 3f f7 dd fe 3f fc 56 96 bc
       2.1185174 0.50381124 1.9911488 -0.018352024
0003d0 b4 15 02 40 09 48 06 bd b8 5a 50 bd e2 f8 aa bd
       2.0325747 -0.03278354 -0.050867766 -0.08348252
0003e0 0b 01 06 40 51 7b 01 40 aa 7a 03 40 34 57 03 40
       2.0938137 2.0231516 2.0543618 2.0521975
0003f0 83 6b 03 40 8b ad 83 bd 02 89 fe 3f 72 10 04 40
       2.053437 -0.06429585 1.9885561 2.0635037

network.8.weight f4 [3, 256]
000000 7f 12 c9 3e bc 63 5c 3f b7 02 d7 3e f8 96 23 3f
       0.39271924 0.8608968 0.4199426 0.63902235
000010 b7 fb fd 3e e7 c8 fd 3e c6 ce 11 3f c3 80 d5 3e
       0.49606106 0.4956734 0.56956136 0.416998
000020 d7 b3 eb 3e fc f3 2e bd 86 15 3c 3d 40 e7 55 3f
       0.46035644 -0.04271315 0.045918964 0.83555984
000030 da cb 43 3d 8e 0b 31 bd 3d 5b 3e 3f 20 86 4c 3d
       0.04780183 -0.04322391 0.7435797 0.0499326
000040 a2 47 c3 3e de 8c af 3e 8c 07 c3 3c 30 c4 fa bc
       0.3814059 0.3428716 0.02380731 -0.030611128
000050 94 45 38 bc e2 75 d8 3e ca f9 47 3f 31 d5 c8 3e
       -0.0112470575 0.42277437 0.7811552 0.39225152
000060 57 4c df 3e 70 cd dd 3f b6 84 08 3e 96 5e a3 3c
       0.4361293 1.732832 0.13331875 0.019942563
000070 9a 26 24 bd 21 01 e4 3e 2e 5f 5c bd e5 8c d3 3e
       -0.040075876 0.4453211 -0.053801708 0.41318431
000080 ae 00 5d bd e7 57 07 bd 5f a0 ee bc 58 77 55 bd
       -0.053955726 -0.033042815 -0.029129205 -0.05211577
000090 60 ae 59 bb 7b 7c 04 bd 9d 03 17 3f a1 7c d1 3e
       -0.0033215508 -0.032345276 0.5898989 0.40915397
0000a0 c0 a8 bc 3e f1 dc d0 bc 2b ca 0c 3f 1d 74 c2 3e
       0.36847496 -0.025495978 0.54995984 0.37979212
0000b0 b9 cb df 3e 79 1c cf 3e 4f 81 bb 3e 47 d9 55 bb
       0.43710116 0.4045141 0.36622092 -0.0032630728
0000c0 3c 58 55 bc 32 ac dc 3e 7f a8 a1 bc 78 e1 2e bb
       -0.013021525 0.43100125 -0.019733666 -0.0026684683
0000d0 c9 c0 19 bc 17 cc 68 3f 66 9c e9 3e 59 3d 8c 3f
       -0.0093843425 0.90936416 0.45627135 1.0956222
0000e0 55 f3 61 bc 25 7e e7 3e dd 3c 07 bc df 9c ea 3e
       -0.013790925 0.45213428 -0.008254257 0.45822808
0000f0 ed 0d bf 3e dc e8 bf 3e bb 97 77 3d ef 1c f3 bc
       0.37315312 0.37482345 0.060447436 -0.029676883
000100 ce 8a e8 3e 4d e1 09 3f f8 e6 c6 bc f4 c6 e1 3e
       0.454184 0.53859407 -0.024280056 0.44097102
000110 e8 46 ee 3e d5 d2 0b 3f f8 41 e0 bc 25 bd 9d bd
       0.46538472 0.5461858 -0.027375206 -0.07702092
000120 1a 15 dd 3e 8c 98 ff bc 7c 60 18 bd 58 5b 18 bd
       0.43180162 -0.03120067 -0.03720139 -0.037196487
000130 d3 9b de 3e db f2 0a bd 07 77 c9 3e 9b 23 d7 3e
       0.4347826 -0.03392301 0.39348623 0.42019352
000140 7c a2 da 3e bc 54 6d 3d e3 fd ed 3e 17 6a 85 3f
       0.4270209 0.057942137 0.46482763 1.0423001
000150 28 59 e1 3e db 79 ec bb 91 a8 2e 3c bc 1c ce 3e
       0.44013333 -0.0072166747 0.010660307 0.40256298
000160 25 35 a2 bc 4b 40 e6 3e 55 92 4c bc 85 b5 c4 3d
       -0.019800732 0.44970927 -0.01248606 0.096049346
000170 4a ab df 3e 96 cf 09 3f 60 a2 cb 3e 6b 51 12 3f
       0.4368537 0.53832376 0.3977232 0.57155484
000180 a6 c0 ba 3e 96 a5 58 3f 8e 89 26 3f c3 43 c7 3e
       0.36475104 0.84627664 0.6505364 0.38918886
000190 69 68 ea 3c f8 9d bd 3e fa ea 69 bd 33 96 48 3f
       0.02861424 0.37034583 -0.057108857 0.78354186
0001a0 90 82 28 bb 1f 5e dd 3e 85 34 de 3e 5c d5 51 3b
       -0.0025712587 0.4323587 0.43399444 0.0032018041
0001b0 5a cf b6 3e 02 04 69 bb 32 e2 df b9 40 3a c4 3e
       0.35705072 -0.0035555367 -0.00042702403 0.3832569
0001c0 92 d8 09 3f 4e 29 17 bd 1b 5e 52 3c e8 d4 9b ba
       0.53846085 -0.036904626 0.012839819 -0.0011889013
0001d0 a3 8e f2 3e 71 16 cb 3e 87 2f cc 3e cc 66 32 bd
       0.47374448 0.3966556 0.3988001 -0.043555066
0001e0 a3 cb 72 3d 53 70 ad 3b 6b 65 ca 3e 47 c3 b9 3e
       0.059276234 0.005292931 0.395305 0.36281797
0001f0 38 79 c3 bc 87 50 8d bc 7d 10 02 39 b0 58 e5 3e
       -0.023861513 -0.017250312 0.00012403908 0.44794226
000200 aa 0f cb 3e c3 70 34 3f 8a c4 cf 3e 9c f0 cb 3e
       0.39660388 0.7048456 0.40579635 0.39832008
000210 ac 99 f9 bc c7 c0 08 bc 34 d9 05 bb 50 7d b6 3d
       -0.030468784 -0.008346743 -0.0020423653 0.0891062
000220 53 50 54 bd 33 15 6a 3c c0 f2 cb 3e f0 8a e2 3e
       -0.051834416 0.014287281 0.3983364 0.44246626
000230 01 ef 71 bd d2 8b a1 3c f7 19 51 3c 0c 71 58 3f
       -0.059065823 0.019719992 0.012762538 0.84547496
000240 92 83 d8 3e d3 ed bf 3e 69 cd 42 3d a4 63 ce 3e
       0.4228788 0.37486133 0.047559176 0.40310395
000250 e3 1f ce 3e 7a 10 2f 3d e9 61 e8 bc 71 47 d0 3e
       0.40258703 0.042740323 -0.028367 0.40679505
000260 4f f9 8f bc 09 3a db 3e 39 65 db 3e 9b 6f e8 3e
       -0.017574934 0.42817715 0.42850664 0.45397648
000270 60 6f c6 3e fa 29 5e 3f b5 b7 ef bc 52 85 4e bd
       0.38756847 0.867828 -0.029262403 -0.050420113
000280 4d e4 94 3f 14 a1 ca 3e fd 6f 21 3f fd 9f d4 3e
       1.1632172 0.39576018 0.63061506 0.4152831
000290 44 eb 85 3e 10 e4 d7 3c 6c 3a 02 bd 50 04 bd 3e
       0.26156056 0.026353866 -0.031793997 0.36917353
0002a0 76 a4 1d bd ec e0 79 3f d5 49 37 bd 2b e5 aa bc
       -0.03848692 0.9760883 -0.044748146 -0.020861229
0002b0 04 b0 b7 3c b1 5d 36 be 3e b1 24 3f fa 59 e1 bb
       0.022422798 -0.17809178 0.6433295 -0.006877181
0002c0 98 41 da 3e 76 94 a3 3c 4a 18 7f 3c b5 6f 61 bd
       0.4262817 0.019968253 0.015569756 -0.055038173
0002d0 1c 54 96 3f 61 d0 f7 3b 41 50 9f bc 6b b6 c6 3e
       1.1744418 0.0075626825 -0.019447448 0.3881105
0002e0 a7 d1 e8 3e 62 a2 c1 3e 5c 36 bd 3e c9 92 e9 3e
       0.45472452 0.378192 0.36955535 0.456198
0002f0 6d aa 69 b8 79 b1 15 bd e2 9f 8e bb d1 34 65 3d
       -5.571025e-05 -0.036546204 -0.0043525556 0.055958573
000300 ab 25 dc 3e 40 3c 08 3f 7b 55 31 bd 6f df 7c 3d
       0.42997488 0.53216934 -0.04329441 0.06173652
000310 eb e1 df 3e 6b dd c0 3e 39 22 f7 3c b3 95 3f 3d
       0.4372705 0.37668929 0.030167686 0.046773624
000320 9f 89 dc 3e b3 3c 03 3f 14 82 a5 3c 91 1b da 3e
       0.43073747 0.51264495 0.020203628 0.42599156
000330 64 9f 88 bc 2a c5 c1 bc 72 0c c6 bc 6a 5a 65 bd
       -0.016677566 -0.023653585 -0.024175856 -0.05599443
000340 ff fe 80 3d d8 11 42 3f 1d 7b c9 3e 2d f4 32 3f
       0.06298637 0.7580848 0.3935174 0.6990383
000350 b7 f8 14 3f 83 65 69 3d 9d a0 c9 3e 25 bb 03 3d
       0.5819201 0.056981575 0.3938035 0.032160897
000360 30 25 22 3d 11 1c 7b 3c a6 55 87 3f c2 15 be 3c
       0.039586246 0.015326516 1.0573013 0.023203734
000370 b2 23 62 3d 5f 49 da 3e 60 96 b6 3e 1e 0a d7 3e
       0.055209823 0.42634103 0.35661602 0.41999906
000380 b9 68 50 3e 96 06 c4 3e a7 4f c3 3e 95 ab e9 3e
       0.20352449 0.38286275 0.38146707 0.4563872
000390 f3 e5 0b bd c6 e4 b7 3e 26 54 86 bc b6 d6 51 3d
       -0.034154844 0.35916728 -0.016397547 0.051230155
0003a0 5e 3d 5d bc 1c 74 21 3f 09 57 d3 3e 12 41 de 3e
       -0.013503401 0.63067794 0.4127734 0.4340902
0003b0 4b b9 de 3e 4a 60 cd 3e ab 8e dd 3e aa 47 df 3e
       0.43500742 0.40112525 0.4327291 0.43609363
0003c0 ee 2d bb 3e c8 33 24 3f a7 5b d8 3e 64 60 ff ba
       0.3655848 0.6414151 0.42257425 -0.0019483683
0003d0 14 e5 f5 3e a4 39 07 bd 0f 81 87 bc b2 66 42 bc
       0.48026335 -0.033013955 -0.016541032 -0.011865305
0003e0 07 36 e7 3e 1f c7 c6 3e f6 f2 df 3e 5c c0 c5 3e
       0.45158407 0.38823792 0.43740052 0.3862332
0003f0 e4 29 b9 3e e2 d7 b5 bc 85 11 e7 3e a9 fb c3 3e
       0.36164773 -0.022197668 0.45130554 0.3827794

network.8.bias f4 [3]
000000 18 cd 94 3f dd d6 b2 3f af f1 cf 3f
       1.162509 1.3971821 1.6245631
