mountaincar_cl_project/runs/progressive/egp/seed_1/online_stream_model.pth (torch, 536437 bytes, 8 tensors)

network.0.weight f4 [256, 2]
000000 fc 4f 41 3f 21 c1 0f 40 76 1f 2d 3f a5 be de 3f
       0.7551267 2.2461627 0.6762613 1.740193
000010 3a fb bf 3e 50 8b 05 bf 39 76 1f bf 29 20 99 bf
       0.37496358 -0.521657 -0.6228977 -1.196294
000020 60 6e 59 3d 02 c1 b7 3e ce 64 0e 3d 29 94 a6 bf
       0.053083777 0.3588944 0.034764104 -1.3013965
000030 a0 43 e0 be be a7 f5 be 2f 25 26 3d 43 a4 9c 3f
       -0.43801594 -0.4797954 0.040562805 1.2237629
000040 4c 1e 84 3e cc 12 8a be 64 f6 4a 3d 81 ef 05 c0
       0.25804365 -0.26967466 0.049551383 -2.0927432
000050 3c 11 3e 3e 6c 54 ef bf f0 10 61 3d e5 14 1c 3f
       0.18561262 -1.8697639 0.054947793 0.6096938
000060 0f 4f 98 3c 74 66 0c c0 9c db 30 3e 10 0d e1 3e
       0.018592386 -2.1937532 0.17271274 0.43955278
000070 d9 06 bb 3e f7 bc 2f 40 ee 18 85 3e e8 c5 09 40
       0.36528662 2.7459085 0.25995582 2.1527042
000080 af 88 f2 3d 83 4a b7 be a9 07 ed 3e 2a fd 04 40
       0.118424766 -0.35799035 0.46294907 2.077952
000090 a4 4d ca bd f5 e0 e6 3f 10 a0 f7 bd 2c 86 60 be
       -0.0987809 1.8037401 -0.120910764 -0.21926183
0000a0 71 d8 00 3f 13 7a 8b be 1f f3 c4 3e 73 4e 18 40
       0.50330263 -0.27241573 0.38466737 2.3797882
0000b0 71 cd 54 be 91 0e 2d c0 c9 b2 2a 3f 40 29 79 3e
       -0.20781495 -2.704014 0.66679054 0.24332142
0000c0 14 f7 1a be ed b9 32 3f 2c c6 18 3f 6b dd 22 3f
       -0.15133315 0.6981495 0.59677386 0.63619107
0000d0 6e c2 3e 3e 6f a7 1e 40 00 34 79 3d 6d 3d e1 bf
       0.18628857 2.4789693 0.060840607 -1.7596871
0000e0 48 04 13 be 59 df d1 3f ec b0 1e 3e 58 a6 90 3e
       -0.14357102 1.6396285 0.15497178 0.2825191
0000f0 0c 0e 2d 3e b5 d2 13 3f 05 2c b2 3e e0 16 ae 3f
       0.1689989 0.5774339 0.3479921 1.3600731
000100 44 68 25 bc fb 21 28 c0 80 43 fb bc 79 a3 1d bf
       -0.01009566 -2.627074 -0.030671835 -0.61577564
000110 be 15 f2 3d 57 5a b6 bf ae b6 25 3f 87 b1 09 40
       0.11820553 -1.424632 0.6473187 2.1514604
000120 a0 31 7d 3d 1c e7 57 be ed 9b 6b 3e cc 24 0b 40
       0.061814904 -0.21084255 0.230087 2.174121
000130 e0 de 84 be ff 5d 28 3f fc c4 0a 3f b4 43 63 3f
       -0.2595129 0.65768427 0.54206824 0.8877518
000140 0a 3b e4 3e 25 7c 85 3f c0 4e 83 be 1e 21 19 40
       0.44576293 1.0428511 -0.2564602 2.3926463
000150 a6 5c 97 3e 2b 7b 62 bf 9f fc 1c 3f 3e 7d fd be
       0.29562873 -0.8846919 0.6132297 -0.49509615
000160 6a 4e 33 be e7 60 44 c0 85 66 a0 3e 6e 71 17 40
       -0.17510381 -3.0684144 0.31328216 2.3662982
000170 0e e7 ce bd af 0a 3f 3b 32 c0 b4 3e d4 4a 38 3e
       -0.10102664 0.0029150655 0.35302883 0.17997295
000180 fc c3 6a 3e ca c9 e8 3e 89 f2 12 3f a0 ad 5f bd
       0.22926325 0.45466453 0.5740133 -0.05460894
000190 63 97 af bd 8d 8a a2 3e e6 30 86 3e a3 5a ff bf
       -0.085737966 0.3174633 0.26209182 -1.9949535
0001a0 73 91 43 3e d7 05 25 40 f1 05 01 3f da b7 e5 bf
       0.19098453 2.5784814 0.5039969 -1.7946732
0001b0 5b 32 29 3e 9a 19 2e 40 9a 22 a3 3d b1 ee d4 bf
       0.16523115 2.7203126 0.07965584 -1.6635343
0001c0 60 6e 97 3d ac 6d d9 bf 67 11 aa 3c 6d 3f 21 40
       0.07394099 -1.6986594 0.020760251 2.5194962
0001d0 83 02 27 bd 2d d2 1d 40 e9 95 3e 3f bd 28 45 3f
       -0.04077388 2.465953 0.74447495 0.77015287
0001e0 a0 9e f4 3d 82 b7 2b bf f6 cf 18 be 29 d4 35 c0
       0.11944318 -0.67076886 -0.14923081 -2.8410742
0001f0 48 9f 8c bd 2f 95 14 bf c4 0d a0 3d 68 13 9a 3f
       -0.06866318 -0.58040136 0.078151256 1.2037172
000200 c7 8b 39 bd 05 85 e5 3f d5 39 f2 be 4e e5 62 3f
       -0.045299318 1.7931219 -0.47309747 0.8863114
000210 64 cf f4 3e 24 0a ca 3f 46 59 0e 3e 62 ba 81 3f
       0.47814476 1.5784345 0.13901243 1.0135005
000220 8c fa ea 3d e6 b1 ab bf 33 50 0b be d2 5c 9b 3f
       0.11473569 -1.3413665 -0.13604812 1.2137702
000230 32 40 de 3e 80 1e 7e 3e 92 3b 8f 3d d6 09 be bf
       0.43408352 0.24816322 0.06993784 -1.4846752
000240 20 65 a8 be 73 01 9c 3f c9 00 08 3f 65 e4 c5 3f
       -0.32889652 1.2187942 0.531262 1.5460325
000250 aa a8 c7 be c8 a7 9e 3f 6d 4b 43 3f 1d d6 d7 3f
       -0.38995868 1.2394953 0.76286966 1.6862217
000260 40 1b 17 3d 00 e5 2f bb fa ee 0e bf c7 24 c6 3e
       0.036891222 -0.0026839375 -0.558334 0.38699934
000270 9c d9 89 be 40 1a 95 3e 56 f8 8e 3c 40 a2 0f c0
       -0.26923835 0.2912159 0.0174524 -2.244278
000280 6d e3 a5 bd 6e 07 d8 3f 38 e6 49 be 20 92 d3 3d
       -0.08100019 1.6877267 -0.19716728 0.103306055
000290 23 c5 51 3d 63 98 87 bf d0 ad 00 3e 1d 2b c3 be
       0.051213395 -1.059338 0.12566304 -0.3811883
0002a0 38 a0 a2 be 8e bf 44 3f 6d 61 f9 3d ea f0 31 bf
       -0.31762862 0.7685479 0.121767856 -0.6950823
0002b0 c0 74 68 3c 48 d4 c5 bd 5f 8e d3 be d4 80 39 bf
       0.014187992 -0.0965963 -0.41319558 -0.724622
0002c0 80 c0 f3 be 9d 71 08 3f cf 05 9a be 98 de fb 3d
       -0.47607803 0.5329836 -0.30082557 0.12298316
0002d0 19 21 fa 3e 4c 18 26 40 00 de d7 bb 1f 3e 34 bf
       0.48853377 2.595233 -0.0065877438 -0.7040729
0002e0 0c eb d0 3e 9c b4 2f 3f e8 3e 53 be 20 87 71 3e
       0.40804327 0.68634963 -0.20629466 0.23586702
0002f0 9d 78 27 3e 5b 64 12 40 cc 50 00 be 10 5c 94 3d
       0.16354604 2.2873752 -0.12530822 0.07244122
000300 b8 d3 91 3d 2e c3 ea bf a0 8e ae 3d 3e a1 b0 3e
       0.0712046 -1.8340814 0.08523297 0.34498018
000310 61 63 60 3e e8 fe 16 40 0c 2e 48 3d e7 2e 47 bf
       0.2191291 2.3593082 0.04887204 -0.7780594
000320 39 07 d9 be 10 8f bd 3c 7e 0d 8c 3e 8c aa 77 3e
       -0.42388323 0.023139507 0.27354044 0.24186152
000330 8c de bd 3d 9e a2 83 bf 39 02 ce 3d 52 f9 d7 be
       0.09270963 -1.0284002 0.10059018 -0.42182404
000340 d8 e2 5a 3d 0d cf 0e 40 5b 08 81 3e 9c 36 d0 3f
       0.05343899 2.2313874 0.25201687 1.6266665
000350 4f 1e 43 3e fe dc 19 40 ed 25 52 bb 46 d4 d7 bd
       0.1905453 2.4041133 -0.0032066063 -0.10538535
000360 c9 c3 2c 3f bc 7c 0f 3e 70 c4 7d 3d 25 7b 24 3f
       0.67486244 0.14012426 0.061954916 0.64250404
000370 f8 03 e6 be 09 50 cf bf 04 70 9d be 85 ee e9 be
       -0.44924903 -1.61963 -0.30749524 -0.45689788
000380 d2 9b c8 3e 1c 8c b8 3f 5b dd a8 3d c9 c9 f4 bf
       0.3918138 1.4417758 0.08245345 -1.912408
000390 04 ab 15 3f fa 77 0b 3e 44 94 4f be 5a 9c cb be
       0.58464074 0.13619986 -0.20271403 -0.39767724
0003a0 ee 93 40 be ca f7 ec bf ba ce ed 3e 2c b6 37 3e
       -0.1880643 -1.8513119 0.46446782 0.17940587
0003b0 be 50 13 3f 39 35 7b 3f 9e 46 3e 3e d0 37 8c 3f
       0.5754508 0.98128086 0.18581626 1.0954533
0003c0 58 c6 3d bc fa bc 80 3d 2c 96 27 be 7a 57 b3 3e
       -0.011582933 0.062860444 -0.1636588 0.35027677
0003d0 20 89 a0 bd b6 29 7e be d0 20 1f be 83 f8 0e 3f
       -0.078386545 -0.24820599 -0.1553986 0.5584795
0003e0 07 83 8e 3e 01 ba 01 40 7f 83 0f 3d c2 95 08 c0
       0.2783434 2.0269778 0.035037514 -2.1341405
0003f0 00 28 8b 3c 21 98 cc be 67 ea ad 3d 9f d4 a7 3f
       0.016986847 -0.39959815 0.08491974 1.3111762

network.0.bias f4 [256]
000000 ba 04 63 be c9 35 2d be 88 26 8e be 54 94 21 bf
       -0.22169772 -0.16915049 -0.27763772 -0.63116956
000010 71 5f 1d bf 45 6c 6e 3d b0 71 0f bf 42 7a c5 3c
       -0.6147376 0.058208723 -0.5603285 0.024106149
000020 5c d8 05 be 6f 1f 1a 3c af 0a a9 3d ce e7 ab be
       -0.13070816 0.009406908 0.08253991 -0.3357529
000030 7b be ba bc 09 b5 80 3d 80 78 32 bd 85 d3 97 bd
       -0.022795906 0.0628453 -0.04357195 -0.07413391
000040 50 f9 2c 3d fb c6 01 be 2a 82 fc bd 40 19 ed be
       0.04222995 -0.12673561 -0.12329514 -0.46308327
000050 3b 9a e9 be b9 54 b4 bd f9 1b 49 be 49 ec 13 bf
       -0.4562548 -0.08805222 -0.19639577 -0.5778242
000060 5e 17 1e bf 27 20 ab bd 46 57 9b bd fd c7 c7 3d
       -0.61754405 -0.08355742 -0.075850055 0.097549416
000070 f8 8a 10 be f2 f6 24 bf fe a5 7c be 79 9a 6d bd
       -0.14115512 -0.6443931 -0.24672696 -0.058008645
000080 31 cb 20 bd 2c 20 20 be a1 ae 35 3d 13 f1 05 be
       -0.03925628 -0.15637273 0.044355992 -0.13080244
000090 a7 59 34 bf 27 38 94 bd 8a e7 a5 be 6f 0d 9d 3e
       -0.704493 -0.07237273 -0.32403213 0.30674312
0000a0 fb 15 03 be 03 64 7c be 34 b2 30 3e e2 fe 14 bf
       -0.12801354 -0.24647526 0.17255479 -0.5820142
0000b0 22 b9 34 be c6 0f a6 bd 81 b0 04 be e8 51 e9 be
       -0.17648748 -0.08108477 -0.12957956 -0.45570302
0000c0 10 e4 34 be b8 18 d8 be 08 2b e0 bd 3c 7b 22 3e
       -0.17665124 -0.4220636 -0.109457076 0.15867323
0000d0 f4 17 a9 bd 2c 0a 8f 3e 75 a0 83 bd 4a 07 ec 3d
       -0.08256522 0.27937448 -0.06427089 0.11524828
0000e0 2b 8d 93 3c 7d 52 30 bd 5b 8c 09 bd f1 1f 5d be
       0.01801165 -0.043047417 -0.03358112 -0.21594216
0000f0 ba 37 1a bf 4e 87 13 be cf 7f c2 be 52 3c 95 bb
       -0.6024128 -0.14407083 -0.37988135 -0.00455431
000100 12 f7 c7 bd 5f 83 c9 be 21 8e c9 bd 76 80 22 3c
       -0.09763922 -0.3935804 -0.09841562 0.009918323
000110 03 58 2f 3d fe 88 f2 bd 92 88 ca be 6c 80 d2 3c
       0.042808544 -0.118425354 -0.3955732 0.025696002
000120 48 5c 67 be 91 4f 96 3e 31 fc a1 be 43 1a 1f be
       -0.22593796 0.2935758 -0.3163772 -0.15537362
000130 be 26 96 be 3d d6 2b bf e5 79 a6 be 29 6e 8f bc
       -0.29326433 -0.67123777 -0.32514873 -0.017508583
000140 be ef 86 bd 66 c2 9c be 1d 80 0c 3d 04 2e 21 bf
       -0.06588696 -0.30617064 0.034301866 -0.6296084
000150 24 d0 c7 be 6d 51 51 3d 81 9c a4 be 46 49 b0 be
       -0.39025986 0.051103044 -0.32150653 -0.34430903
000160 86 a3 15 bf ae 40 16 bf e3 be cf bd 37 9c f2 be
       -0.5845264 -0.58692443 -0.101438306 -0.47384807
000170 0c d3 2d bd 63 16 9b be 02 a0 90 bd b1 4a d4 be
       -0.042437598 -0.30290517 -0.07061769 -0.41463235
000180 4c e8 c4 3d dc e4 8f be 30 bf a6 bd ba 37 27 3d
       0.096146196 -0.28104293 -0.08141935 0.04082463
000190 55 39 af be fe 7a 01 bf aa 52 76 3d ee da 1f 3d
       -0.34223428 -0.50578296 0.06013743 0.039027147
0001a0 9d eb 8e bd 84 1f 8b 3b b2 c1 a1 bd e5 73 85 bc
       -0.069785334 0.0042457003 -0.078982726 -0.016290614
0001b0 f0 0a d9 be 88 27 34 be b4 05 c0 be 2b 03 fd be
       -0.42391157 -0.17593205 -0.3750435 -0.4941648
0001c0 62 dd 9a bd d2 8d ea 3c 75 d2 56 be 1d 92 d1 be
       -0.07561757 0.028632078 -0.2097872 -0.40931788
0001d0 2d af 29 be 4c 3a e2 be a0 c6 b7 bd 6f 31 fa 3a
       -0.1657073 -0.44185102 -0.089734316 0.0019088219
0001e0 44 1c a2 bc a1 83 02 bf 63 9c cf be 8b b9 a1 be
       -0.019788869 -0.509821 -0.40549 -0.3158687
0001f0 c9 13 8c bd 41 48 79 3c d3 71 ac be bf bc 9f bc
       -0.06839711 0.015214981 -0.3368059 -0.01949918
000200 64 d8 fd bd ce a7 13 bf 28 da c7 bd 44 fb d8 3d
       -0.12394789 -0.57677925 -0.09758407 0.105948
000210 42 a4 a5 bd b7 85 f6 be 16 6f 78 be 94 3e 5b be
       -0.0808797 -0.4814889 -0.24261126 -0.2141059
000220 3a a1 cd be 9a 78 17 bf 72 2f 11 bf 3e 7d 65 3c
       -0.4016207 -0.591684 -0.5671302 0.014006911
000230 a2 d5 aa bc 35 25 86 bd c6 6d 32 be f3 75 df bd
       -0.020853821 -0.065500654 -0.17424688 -0.10911169
000240 fa e0 1f bf 9a c4 2f be f6 95 af be e2 25 aa 3d
       -0.6245266 -0.17164841 -0.342941 0.08308007
000250 d6 66 9c bd 7d b7 aa bd 1f 60 4a bd 04 e7 6f 3e
       -0.07636802 -0.08335779 -0.049408074 0.23427969
000260 fa 6d 14 bf 38 1e b5 bd 00 a5 d2 be 56 a5 14 bf
       -0.5798031 -0.088436544 -0.4114151 -0.5806478
000270 14 d3 45 be ba e5 25 bf 6a d0 e7 bd 72 2b 06 bf
       -0.19318801 -0.6480366 -0.11319049 -0.5241004
000280 a4 16 36 3d 15 f9 07 bf fd 8f c4 bd cd 6c d3 be
       0.044455186 -0.53114444 -0.09597776 -0.41293946
000290 93 8a 03 bd bc 40 02 bf 30 7b e4 be 54 7e 40 be
       -0.032114577 -0.50880027 -0.44625235 -0.1879819
0002a0 fa 72 64 be e8 a1 2f be 8a 6c ec bd 80 ff b4 bd
       -0.22309485 -0.17151606 -0.1154414 -0.08837795
0002b0 58 26 95 bd cd 7b 75 3c 70 d9 f2 be 3a 68 ce bc
       -0.07282704 0.01498313 -0.47431517 -0.025196183
0002c0 36 36 9a be 5e 89 c2 3d a6 1b 1e bf 5b 7e 69 3d
       -0.30119485 0.09498857 -0.6176094 0.057005268
0002d0 45 c1 d5 ba 19 c0 a8 bd 0c 1d 9a bd 1a d1 e0 be
       -0.0016308209 -0.08239765 -0.075250715 -0.43909532
0002e0 e0 1a 2e bd ca 7b 06 bf 09 ef 60 be bb 14 eb be
       -0.0425061 -0.5253264 -0.21966185 -0.45914254
0002f0 3b f7 09 bc f2 e1 2a bf 6b 25 c0 bd 06 e8 84 be
       -0.008420761 -0.66751015 -0.09382137 -0.2595827
000300 58 c9 8e 3d 2d 87 13 bf 61 63 e6 bc c2 58 9d be
       0.06971997 -0.57628137 -0.02812356 -0.3073178
000310 ae 1e d9 be 76 f0 6d 3e 04 ad 13 bf 92 19 1e bf
       -0.4240622 0.2323626 -0.57685876 -0.6175777
000320 31 12 b6 bd 43 b0 ac be ce 60 20 bf ef f1 b5 bd
       -0.088901885 -0.33728227 -0.6264771 -0.08884036
000330 f0 5a e6 be 4a 5a 2b bf 54 e3 f5 3c 18 90 e3 be
       -0.44991255 -0.66934645 0.030015625 -0.44445872
000340 18 08 7b be 14 c9 23 be ae 8a ee be 17 da e9 3d
       -0.24514806 -0.15994674 -0.4659018 0.114185505
000350 cf bd 26 bf 4b e4 28 be 64 7d 33 bf 50 29 ee bd
       -0.65133375 -0.16493337 -0.70113206 -0.116289735
000360 2d 05 51 be 9e 67 b9 3d 3c 70 6f be ac a2 cf bd
       -0.2041213 0.090529665 -0.23382658 -0.10138449
000370 d3 41 c2 3d e0 97 97 bd c6 bc 94 3c a4 df f4 be
       0.09485211 -0.07402015 0.01815642 -0.47826874
000380 68 f7 38 be 1d 46 87 3d ad 39 a3 bb 9a 6f a5 bd
       -0.18063128 0.0660517 -0.0049812407 -0.08077927
000390 a3 3c 8f bd 78 33 e0 be 54 8f c5 be f1 bb 91 bd
       -0.069939874 -0.43789268 -0.38585913 -0.07115925
0003a0 c2 f8 1c bf 57 fa fa bd 07 e1 6c be 4f 9d 99 be
       -0.61317074 -0.1225478 -0.23132716 -0.3000283
0003b0 03 b8 d5 bc fc f7 28 bf 0b c7 37 bd eb b6 45 3c
       -0.02608872 -0.66003394 -0.044867557 0.012067537
0003c0 28 96 6a be 09 83 1f bf 22 18 a5 bd 77 71 84 bd
       -0.22908843 -0.6230932 -0.080612436 -0.06466954
0003d0 2e a3 14 bf 0f 63 52 bc c4 90 c2 be 99 da 8e 3c
       -0.5806149 -0.012841 -0.38001072 0.01743822
0003e0 32 dc d5 be c2 12 0d bf f3 fd f0 bc aa 41 1f bf
       -0.41769558 -0.5510675 -0.029417967 -0.6220957
0003f0 22 c1 c2 3b 86 f8 df 3b 53 2b 43 be 6c be 28 3e
       0.0059434334 0.006835046 -0.19059496 0.1647889

network.3.weight f4 [256, 256]
000000 4e 84 29 3d 26 cf 27 bd 00 12 ef 3c f4 df e8 3c
       0.04138594 -0.040969037 0.029183388 0.028427102
000010 3c e4 81 bc 95 13 82 bd 6e 99 6c 3d f0 66 cb 3c
       -0.015855901 -0.06351391 0.05776351 0.024829358
000020 18 54 d1 3c cc 10 d4 3c c1 19 c2 bc 30 b8 88 3b
       0.025552794 0.025886916 -0.023693921 0.0041723475
000030 32 45 7c bd e2 fa a2 bd 57 a7 2c 3d bc 29 7f bd
       -0.061589427 -0.07958008 0.042151775 -0.06229566
000040 3d e0 47 bd 10 c6 7d bd e9 52 13 bd fc cd a3 3c
       -0.048797835 -0.061956465 -0.03596774 0.019995682
000050 94 59 ce 3c 4a 99 a2 3d 31 5d 8d bd f0 72 d9 3c
       0.025189199 0.07939394 -0.069025405 0.026544064
000060 4c c2 85 3c 71 82 ab ba fd e0 00 3d 0a 04 26 bd
       0.016328 -0.0013085139 0.031464566 -0.040531196
000070 0e 02 88 bd f8 db 3f 3c f0 f6 d0 3c ed 1d 6e bd
       -0.06641017 0.0117101595 0.025508374 -0.05813401
000080 6a ed a3 bd 70 87 66 3d 2e 58 d0 bc 0b b2 51 bd
       -0.080042675 0.056281507 -0.025432672 -0.051195186
000090 9c 82 e4 3c 4c 10 e5 3c b4 51 4e bd c9 a0 98 ba
       0.02789431 0.027961873 -0.050370887 -0.0011644597
0000a0 49 b9 45 bd ef 37 82 bd 4b f8 fb 3c 24 5c ac 3c
       -0.048272405 -0.06358325 0.030758044 0.02104003
0000b0 3c e0 8a bd 4e 8f 77 bd eb b9 48 bc a8 d6 29 bc
       -0.067810506 -0.0604394 -0.012251358 -0.010366119
0000c0 ee 22 31 3d 10 7e cc 3b 03 82 87 bd 25 d6 c7 3c
       0.043246202 0.0062406138 -0.06616595 0.024394104
0000d0 8f f1 41 3d 40 6f 19 bd a8 f5 3f 3d d8 67 f6 3c
       0.04734951 -0.037459612 0.046865135 0.030078813
0000e0 ca c1 25 bc 59 c4 40 bc 7c 49 f6 bc 90 6f dd bc
       -0.010117004 -0.011765563 -0.030064337 -0.027030736
0000f0 a8 a4 d7 bc c1 b8 bd bd 0e 97 6f bd f2 87 2d bd
       -0.026323631 -0.09263755 -0.058493666 -0.042365976
000100 c1 e9 07 bc 24 55 8a bd a8 aa 09 3c 8f 96 44 3d
       -0.008295477 -0.067545205 0.008402504 0.047995146
000110 da d3 89 bd 16 e6 e6 bc 84 de df 3c c5 2b 59 bb
       -0.067298606 -0.028185885 0.027327783 -0.003313766
000120 dc 43 d6 bd fb 3c 3f bd d4 80 05 bd 2a c1 4d bd
       -0.10462162 -0.046689015 -0.032593563 -0.050233044
000130 76 d4 62 3d c0 75 4d 3b 68 61 0a bc 87 9b f1 bd
       0.0553784 0.0031350702 -0.008446075 -0.117972426
000140 80 64 0e 3d 32 bd 67 bd 40 c7 6e bc c0 91 4f 3d
       0.034763813 -0.056576915 -0.014573872 0.050676107
000150 70 f5 93 3b 84 cf d0 3c 7c 30 f4 3c 54 a7 d1 bd
       0.0045153424 0.025489576 0.029808275 -0.102369934
000160 02 01 36 bd 90 36 ff bb fd b5 af bc 70 a6 68 3d
       -0.044434555 -0.007788487 -0.021449083 0.056799352
000170 18 4b a7 3c d4 d5 56 bd 25 76 23 bd de 3d 0c bd
       0.02042155 -0.052450016 -0.039907593 -0.03423869
000180 8b 23 42 bd 50 7b 8e bb 16 13 69 3c cc 06 61 bd
       -0.047397178 -0.004348196 0.014225742 -0.054938123
000190 a0 82 50 bc a6 44 4d bd 86 bf 2e 3d 46 9c a4 bd
       -0.012726456 -0.050114296 0.04266312 -0.08037619
0001a0 8e 2a 57 bd 73 b5 63 bd 68 02 5c bc 06 19 b3 bd
       -0.052530818 -0.055592965 -0.013428308 -0.08745007
0001b0 c4 34 84 bc 34 aa f1 bc d0 ef da bd 1c 09 8f bc
       -0.016138442 -0.029500104 -0.10690272 -0.017460398
0001c0 d9 e5 74 3d 81 71 72 bd cc a1 ac bc 72 91 0c bd
       0.059789512 -0.059190277 -0.021073245 -0.034318395
0001d0 7b bd b5 bd 6a 40 13 bd 40 e9 2a 3d 18 16 73 bd
       -0.08874031 -0.035950102 0.04172635 -0.059347242
0001e0 d0 b7 68 3b 36 03 53 3d b8 d2 0f bc 40 87 47 3b
       0.0035509951 0.051516734 -0.008778267 0.0030445606
0001f0 1c 95 57 bd 93 57 fa bc 80 4a c0 3b 66 37 2a 3d
       -0.052632436 -0.030559337 0.005868256 0.04155674
000200 b3 3c 5f bd 38 74 97 3c a1 1f c1 bc bb 26 a8 3b
       -0.054501247 0.018488035 -0.023574652 0.00513157
000210 33 32 c3 bd 6a 86 e8 3c c2 dc 5d bd 6a f5 1e bd
       -0.09531059 0.028384406 -0.05416561 -0.038808264
000220 7b 4d 19 bc 0a 8f 4d bd d0 11 0c bc cd a1 8d 3c
       -0.009356852 -0.05018524 -0.008549169 0.017289067
000230 44 f9 34 bd 2e 6d 6f bd 90 a6 35 bd 05 8a 95 3d
       -0.04418303 -0.05845373 -0.0443483 0.07301716
000240 90 9d 72 bd df 99 d6 bc 23 f1 8b bd 42 69 0d bd
       -0.059232295 -0.026196418 -0.068331026 -0.03452421
000250 f0 16 4a bc b9 8d 2e 3d a4 e9 3d 3d be de 89 bd
       -0.01233457 0.042615626 0.046365395 -0.06731938
000260 24 7e e4 3c 19 1e 0b be b2 b2 53 bd 6c 40 4f 3d
       0.02789218 -0.135857 -0.05168409 0.050598547
000270 f7 64 05 bd b8 f4 6e 3d 99 e6 bf bd b2 4c 31 bd
       -0.03256699 0.05833885 -0.09370155 -0.043286033
000280 38 f7 f2 3c 00 b2 54 3d 15 cf 35 bd 88 1f 25 3c
       0.029658899 0.051927567 -0.044386942 0.010078318
000290 1c d5 00 3d 52 0a 2b bd 76 88 71 3d 6b aa c7 3c
       0.031453237 -0.04175789 0.05896803 0.024373254
0002a0 63 2e c7 bd 81 7f 48 bd 32 da 96 ba 34 e9 a3 bc
       -0.097256444 -0.048949722 -0.0011509119 -0.02000866
0002b0 5a d9 86 bc cf 22 26 bd 10 09 05 bc a0 c7 a8 3b
       -0.016461063 -0.04056054 -0.008119836 0.0051507503
0002c0 fd f8 a8 bd 8c df 3b bd 3c 63 ea 3c 9e 2c aa 3b
       -0.08250616 -0.045867488 0.028611772 0.005193307
0002d0 4c c3 a2 bb 8d 5c 63 3d 2e c0 aa bc d0 f6 6e bc
       -0.004967129 0.055508185 -0.020843592 -0.014585212
0002e0 54 a7 60 3d 10 6c 10 bc fc a8 ac bd c8 9a 6e bc
       0.054847077 -0.008814827 -0.08430669 -0.01456327
0002f0 0b ca 89 3d 80 f7 00 3d a7 b5 84 3d fa 5e 46 3d
       0.0672799 0.031486034 0.0647996 0.04843042
000300 5e 84 e2 3c ea 5a 09 3d 94 a2 33 bc bc 3e 57 3d
       0.027651008 0.033533968 -0.010964055 0.052550063
000310 70 96 83 bc 8c ab 91 3c 00 03 d5 bc 9c a2 33 bd
       -0.016062945 0.017781995 -0.026002407 -0.04385625
000320 15 0c 86 3d 00 d6 35 39 8c 2a d6 bc 01 1c fc bd
       0.06545273 0.00017341226 -0.026143335 -0.12310029
000330 1c 7b d5 3c 68 53 13 bd b4 d4 08 bd e8 f6 59 bc
       0.02605968 -0.035968214 -0.033405975 -0.013303496
000340 80 b3 7c ba 74 1e a1 bd 80 9c 54 bb 8b 2a 80 bb
       -0.00096397847 -0.078671366 -0.0032441914 -0.0039113215
000350 4c 03 2a 3d d7 c3 88 bd c0 03 72 bd b4 b2 b9 3c
       0.04150705 -0.066779785 -0.059085608 0.02266822
000360 96 78 1d bd 62 7c 7d bd 98 03 9f 3c 70 ec 62 3b
       -0.038445078 -0.0618862 0.019410893 0.003462579
000370 be c4 75 bb 9e 44 07 bd c3 eb 53 bd 10 33 4c 3d
       -0.00375013 -0.033024423 -0.05173851 0.049853384
000380 94 c1 03 3d 77 f2 42 3d fb 67 11 3d fa c4 31 3d
       0.032167032 0.047594514 0.035499554 0.043400742
000390 36 e5 5f 3d 80 60 12 bc ff d3 89 bd bf a1 23 3d
       0.054661952 -0.00893414 -0.06729888 0.039949175
0003a0 0c c7 ba bc d8 9f 66 bd cc 6f b7 bd 58 cc d8 bc
       -0.022799991 -0.056304783 -0.089568704 -0.026464626
0003b0 2b cc a4 bd 10 cc 1c 3c e6 84 84 bd 92 7a 85 3c
       -0.080467544 0.009570137 -0.06470661 0.016293798
0003c0 80 26 82 bb 7c cd fa 3c 42 dd f4 3b 5e 4a f8 3b
       -0.0039718747 0.03061556 0.007472665 0.0075772246
0003d0 b8 13 cb bc ce 6f de bd 4b dc cd 3c 0f 26 8f bd
       -0.024789676 -0.10861169 0.025129458 -0.06989681
0003e0 e8 88 7c bc 04 d8 12 bd b2 ed 91 3c f2 32 46 bd
       -0.0154135 -0.03585054 0.017813537 -0.04838843
0003f0 65 e1 e8 bc f4 3e 54 bd 3f 3f 26 bd 19 e4 bb 3c
       -0.028427789 -0.05181785 -0.04058766 0.022935914

network.3.bias f4 [256]
000000 9c 74 ac bd 97 06 16 bd d5 db 4e 3c c7 a2 a2 bd
       -0.08420679 -0.03662738 0.012625654 -0.079412036
000010 8b b7 ce bc ee 9b ef 3c 37 35 98 3d d2 0c 61 3d
       -0.025234004 0.029249158 0.07432025 0.054943867
000020 88 c7 4f 3e a8 33 f8 bb b4 7b 6d 3d a1 0e 07 3e
       0.20290959 -0.0075745173 0.0579793 0.13189174
000030 94 01 9d 3d 24 7d a1 3d 5b 1b 88 3c 81 f4 d0 3d
       0.07666317 0.07885197 0.016614607 0.102028854
000040 53 61 f1 3b b5 d3 a6 3b 2e 1a 60 3d 70 fd 6b bd
       0.0073663383 0.0050911554 0.054712467 -0.057614744
000050 68 31 b8 3d 0d 56 51 39 a9 07 89 3c 84 6f 79 3d
       0.089937985 0.0001996385 0.016727285 0.060897365
000060 eb 61 c5 3d 9d 38 04 bd a6 0c 99 3d ec af e8 3d
       0.09637817 -0.032280553 0.074731156 0.113616794
000070 b7 0a 68 bd d0 af e7 3d aa ac 43 3e c7 de f5 bb
       -0.056650843 0.113128304 0.19108835 -0.007503364
000080 7d 4b fb 3d c2 9f 1c bc dd df 78 3e 03 c4 6c bc
       0.122702576 -0.009559574 0.24304147 -0.01445103
000090 9d 65 93 bc 15 7c 45 bc eb 8d 03 3e c9 af 2b bd
       -0.017992789 -0.012053509 0.12847106 -0.04191569
0000a0 e1 0b 35 3e 43 f4 fb 3d 57 58 65 bc b9 3a 89 bd
       0.17680313 0.123024486 -0.013998113 -0.067006536
0000b0 26 d3 5f 3d 07 92 13 3d cf 22 4a 3d 9f e7 a9 bc
       0.054644726 0.036027934 0.049349602 -0.020740328
0000c0 40 da b8 bc 79 92 20 3e a7 3b 0b 3e f8 17 62 3d
       -0.022565007 0.15680875 0.13596974 0.05519864
0000d0 c4 3e ac 3d 73 3b 91 bd e3 44 16 3e 68 42 25 3e
       0.08410409 -0.07091417 0.14674716 0.16138613
0000e0 fd c4 94 bc 6f dd ff 3d d4 93 0f 3e ac f1 14 bd
       -0.018160338 0.12493407 0.14021236 -0.03636329
0000f0 3b ac ce 3d e8 eb 1c 3e f2 f0 44 bd df 50 be 3b
       0.10091444 0.15324366 -0.048081346 0.0058079804
000100 fd bc 9a bd 04 02 b3 bc c1 8f d6 3d 91 18 5b bd
       -0.07555578 -0.021851547 0.10476638 -0.053490225
000110 6b 3d 0a bd 9c 03 53 3d 9b 68 60 3e 31 b2 12 3e
       -0.03374998 0.051517114 0.21914904 0.14325787
000120 91 a5 85 bd 7d d7 c6 bc 37 f0 75 3d 8e 5c ae 3c
       -0.0652572 -0.024272675 0.06004354 0.021284368
000130 f3 92 36 3d 00 e9 67 bd 07 44 95 bd 78 94 0f bc
       0.044573735 -0.05661869 -0.07288366 -0.008763425
000140 43 d8 e2 3b dd ba 06 3e ba aa f0 3d 46 bf 2c 3e
       0.006922753 0.1315722 0.117513135 0.1686984
000150 62 7d b5 bc ab 9c 12 3e 3e 1c 69 bd 92 33 0f be
       -0.022154514 0.14317577 -0.0569117 -0.13984516
000160 f2 58 51 bc af e5 3a bc ae af 6c bd 87 25 23 bd
       -0.012777554 -0.0114073 -0.05778473 -0.03983071
000170 8a 02 4f bc d6 d4 3c bd 67 f1 0a bd f6 b1 14 bd
       -0.012634883 -0.046101414 -0.033921625 -0.03630253
000180 0e 03 6c 3e 6a d6 82 3d 19 d5 1e 3e 28 fd c9 bb
       0.2304804 0.063885525 0.15510978 -0.006164212
000190 74 38 c5 bb 1f f0 80 3d bd 0a f8 3d e0 4b ed bc
       -0.0060186926 0.062957995 0.12111423 -0.028966844
0001a0 7c 43 78 3d 8f f9 66 3d 9e e3 25 3e 89 6f 6c 3d
       0.060611233 0.05639034 0.1620011 0.057723556
0001b0 93 84 73 bd 0f d5 a7 3d 76 b3 99 bc f8 dc 60 bd
       -0.059452605 0.081949346 -0.018762331 -0.054898232
0001c0 a7 72 39 bc bd 29 04 3e aa 19 0f bd df e9 ca bc
       -0.011318839 0.12906547 -0.034936585 -0.024769722
0001d0 b8 de 13 3e 41 2c 9e 3d a5 fe 9e 3b 1c 81 dc bc
       0.14440429 0.077232845 0.0048521333 -0.026917033
0001e0 1d 9e a1 3d 61 e0 5f bd 95 f9 68 3d 6b 90 a0 bd
       0.07891486 -0.054657344 0.056878645 -0.078400455
0001f0 bb 98 18 3e c2 c8 b5 3d d0 e0 e7 bc c4 2c f2 3d
       0.14902012 0.08876182 -0.028305441 0.118249446
000200 8e 51 53 bd 65 96 1b 3d a6 49 d5 bc cf f5 ab 3d
       -0.05159145 0.037985224 -0.026036095 0.08396494
000210 78 f5 e7 3d 0e ee 7c bd 4c 81 0f 3e 93 e4 14 bc
       0.11326116 -0.061750464 0.14014167 -0.009087699
000220 f3 79 07 3e 55 71 17 3e 01 a9 9d bc d1 8c 24 3d
       0.13230114 0.14789326 -0.019245626 0.040173355
000230 c1 5c fe 3d 17 73 ee bc a1 b9 38 bd c8 fe 25 3e
       0.12420035 -0.029107613 -0.045098905 0.16210473
000240 3f 06 cd bc 10 8a 1e 3e 47 c7 8d 3d 0e 52 22 3e
       -0.025027392 0.15482354 0.06922775 0.15851614
000250 e3 5b 4b bc 40 3c ac 3d a9 01 11 bc 63 8d 34 bc
       -0.012412044 0.08409929 -0.0088504935 -0.011020037
000260 f2 c6 7f 3e d4 93 a0 bd 18 7f ab 3d e3 68 0f 3e
       0.24978235 -0.07840696 0.083738506 0.14004855
000270 69 9b d7 3d bc da 85 bd 98 2b 26 3e 40 55 df ba
       0.10527689 -0.06535861 0.16227567 -0.0017038956
000280 90 4c f8 3c 97 17 73 3d f4 a1 24 3e e0 85 7c 3d
       0.030309945 0.05934867 0.16077405 0.06165111
000290 58 07 65 bc cc 65 54 bb bb 15 8e 3d 24 40 1e bd
       -0.013978802 -0.0032409308 0.069377385 -0.038635388
0002a0 ed e4 12 3e 41 3f 9a 3d e7 ea 52 3d ea 09 c7 3d
       0.14345141 0.07531596 0.05149355 0.09718688
0002b0 31 a5 7d 3d 11 28 ea 3d 29 21 09 3e c8 b3 51 bd
       0.061925117 0.11433423 0.13391556 -0.051196843
0002c0 e2 35 9d 3d a7 7e 37 3d 2b ac ea 3d 37 0b 49 3e
       0.07676293 0.04479852 0.1145862 0.19633184
0002d0 86 e4 a9 bc 5b 51 39 3e e3 11 c9 3d 6e cc ff bb
       -0.020738851 0.18097441 0.09817865 -0.0078063523
0002e0 90 a7 e4 3d 7e a1 b5 3c 2c ae d1 3d 33 95 b7 bc
       0.111647725 0.022171732 0.10238299 -0.02241001
0002f0 7f 72 ef bb 94 80 72 bd 5f 07 20 bd 38 bd 9f 3d
       -0.00730735 -0.059204653 -0.03906953 0.077997625
000300 31 eb 2f 3e f3 f0 7a 3d 9a 03 90 bc bb 0f 20 3e
       0.17179562 0.061264943 -0.017579842 0.15631
000310 a8 2b 3b 3e db b3 2f 3c ec 39 45 3e 14 41 c9 3b
       0.18278372 0.010724033 0.19260377 0.006141791
000320 bd 61 81 bd ec b0 e8 3c dc 55 2b 3d 7b 2f 38 3e
       -0.0631747 0.028404675 0.04182993 0.17986862
000330 68 25 9d bc af 21 8c bd 79 0f 5a bd 0d 67 83 bc
       -0.019182876 -0.06842362 -0.053237412 -0.01604035
000340 fa 80 00 3e 3d 00 6a 3d d5 88 1d 3e 38 fb 20 be
       0.125492 0.057129133 0.15384229 -0.15720832
000350 f0 95 47 3e 47 41 14 bc e8 00 b0 3d 3a e0 0b 3e
       0.1949079 -0.009048766 0.08593923 0.13659754
000360 c0 9f 7b bd 6e 60 cc 3d a5 62 86 bc 17 f7 18 3d
       -0.061431646 0.0997933 -0.01640446 0.03734502
000370 35 c8 00 3d eb ea 72 3c 70 eb 87 bd e1 dc e0 3d
       0.031440932 0.014826517 -0.06636703 0.10979629
000380 0e 9c 7a 3d 5f 06 3c 3d 57 15 86 3d 78 3f 19 3e
       0.06118398 0.045904513 0.06547039 0.14965618
000390 dc 40 d3 3c c4 f9 1e 3e 92 4b 62 bd f1 ea 66 bc
       0.025787763 0.15524966 -0.05524785 -0.0140941
0003a0 eb d2 11 bb a7 44 8a bd 25 7e 40 bd 82 6e 97 3d
       -0.002225096 -0.06751376 -0.0469953 0.073941246
0003b0 53 21 23 bd 11 de 65 3d 58 a3 96 bd 46 40 42 3d
       -0.039826702 0.056119982 -0.07355374 0.047424577
0003c0 02 94 08 3e 8c fe 24 be b8 39 73 3d 95 1c bc 3d
       0.1333771 -0.16112727 0.059381217 0.09185139
0003d0 62 c0 8d bd 21 d1 15 bd dc 9d e4 3d 8e 71 1f 3e
       -0.0692146 -0.036576394 0.11162922 0.15570661
0003e0 11 9b ae 3d b9 82 aa bc 76 78 47 bd c6 05 66 3e
       0.0852567 -0.020814287 -0.048698865 0.2246314
0003f0 0a ed 5b 3c 73 da b9 bc b3 e4 30 3d d5 1c a7 bc
       0.013423214 -0.022687173 0.043186855 -0.02039949

network.6.weight f4 [256, 256]
000000 52 23 37 3d 20 54 3e 39 1d a4 3e be 95 dc 32 bd
       0.04471142 0.00018151151 -0.18617292 -0.043667395
000010 9e d0 d8 bc b2 cf 7d bc e1 4c 3a 3e 9f 5c 8a be
       -0.026466664 -0.015491413 0.1819339 -0.2702379
000020 6f 3a 23 3e bb cd 89 bf b0 90 3c bf f0 bd ac 3d
       0.1594026 -1.0765909 -0.73658276 0.08434665
000030 2e ac 57 bf 5f da d9 be 3b e9 06 3f 01 fd 79 bf
       -0.842471 -0.42549416 0.5269963 -0.9765168
000040 3d 04 f5 be 74 97 9f 3e b9 f1 00 bf 5f 75 9d 3c
       -0.47854796 0.31170237 -0.5036884 0.019221006
000050 98 1c 22 bf 9d 6c 36 bd 73 9b 02 bf 2d 3a b5 3d
       -0.6332488 -0.044537175 -0.51018447 0.08848987
000060 6b 5d 47 3e 53 35 48 3d 83 7d ac 3d 2e 63 20 bf
       0.1946923 0.04887898 0.08422377 -0.62651336
000070 b7 fc 74 3d eb bd b5 3d b9 72 6d 3e eb 73 f1 bb
       0.05981132 0.088741146 0.23188294 -0.007368555
000080 2c 0e 82 bd e6 24 8c 3e 17 be 0d 3e 51 96 e7 bc
       -0.06350359 0.273719 0.13842045 -0.028269919
000090 6c 8f 26 bc 74 f2 14 3d 4b 6b cb bc 8d 9f 2d bb
       -0.01016603 0.036364034 -0.024831435 -0.0026492805
0000a0 3d 2f ac bd 2b 0a 34 be a6 c8 25 bd 3a 21 11 bd
       -0.084074475 -0.17582004 -0.040474556 -0.035432078
0000b0 be 2b 48 3e b9 bc 67 bf e9 42 28 bf 11 9f 41 3d
       0.19547936 -0.9052234 -0.65727097 0.04727084
0000c0 96 75 b8 bc 54 c9 89 3d d8 ba aa 3c e3 67 28 bf
       -0.022517007 0.067278534 0.020841047 -0.6578352
0000d0 b2 0d f5 be c8 bb 63 bc c5 40 ee 3c 92 b2 20 3e
       -0.4786201 -0.013899751 0.029083619 0.15693119
0000e0 ba 5f 46 bd cf 81 d0 3d dc 9e 7a bd 9d 3f 49 bd
       -0.048431136 0.10181009 -0.061186656 -0.049132932
0000f0 1c 25 42 3e 23 3f f3 bc f8 b4 11 bc 84 93 3c 3e
       0.18959469 -0.029693192 -0.008893244 0.18415648
000100 ae 53 4c bd 44 46 1b 3d d8 92 08 3e 02 0e 35 3d
       -0.04988449 0.037908807 0.13337266 0.044202812
000110 88 d9 a0 be 3d ec b6 bf 86 ac 13 bd 75 6e f7 bc
       -0.31415963 -1.4290844 -0.036053203 -0.030204037
000120 74 95 58 be c1 1b 67 3d 51 39 3f 3e a2 0b 75 bf
       -0.21150762 0.056422953 0.18674208 -0.95720875
000130 d0 b6 0e bf 5f 0b 33 3d 43 25 8a bd 3a b8 f8 3b
       -0.557477 0.043712016 -0.06745388 0.007590321
000140 f1 58 2b bd fc 1d 76 3e 45 d9 2c 3d bb a7 0e 3d
       -0.041832868 0.24034876 0.042199392 0.03482793
000150 40 2a bc 3c 9e 70 3e be bf 91 9d 3d fe 63 03 3e
       0.022969365 -0.18597648 0.076938145 0.12831113
000160 c3 fb 84 bd bc c9 db 3c 28 fe 6d bc 24 1e fa 3c
       -0.06493332 0.026829593 -0.014525928 0.03053195
000170 1c 15 e7 be bb 84 a6 3c 96 49 3a bd ad 63 41 bd
       -0.45133293 0.020326963 -0.045480333 -0.0472142
000180 d4 39 e3 3c de 67 a7 3e 7a 26 49 3e a2 2c e8 bc
       0.027737536 0.32696432 0.19643584 -0.028341595
000190 5b 72 6e bc db 69 35 3e 66 09 4b 3d 55 bf 59 3d
       -0.014553632 0.17716162 0.04956951 0.053160984
0001a0 74 cb 92 bf a8 22 3e 3e 9c 8e fe bd ae b8 b9 3d
       -1.1468339 0.18567908 -0.12429544 0.09068428
0001b0 63 b7 5b 3d 10 d9 8c bf fb 91 6b 3d e4 76 3b 3d
       0.053641688 -1.1003742 0.057512265 0.04576768
0001c0 27 67 88 3c 0a b3 69 3e 2f 66 54 bc 6b ba 65 3d
       0.01665075 0.22822204 -0.012963816 0.056085985
0001d0 b8 a7 c2 3d fc bd 04 bf 03 51 2a bf ad 6e ff bd
       0.09504646 -0.51852393 -0.66529864 -0.124722816
0001e0 64 d7 04 3d 13 db 32 3d 42 9b 52 be 1e b0 0d bc
       0.032431975 0.043665957 -0.20567039 -0.008647947
0001f0 72 5e c0 bd 9a 8c 4d 3c 0c f0 e5 bc 64 e2 af 3e
       -0.09393014 0.012545729 -0.028068565 0.3435241
000200 bd d4 68 3d 45 24 33 3c 51 7d ac 3e a1 35 d6 3a
       0.056843508 0.01093394 0.3368936 0.0016342887
000210 2f 8f e4 be b6 30 79 bd 15 ea 69 3e 07 d6 25 3c
       -0.4464049 -0.06083747 0.22843201 0.010121829
000220 e5 db 2c be 7a 1a 9f 3e 5c 6e 01 bd e2 49 9c bf
       -0.16880758 0.31074888 -0.031599388 -1.2210047
000230 32 e9 d2 be d8 ce 16 bd 0b 45 4b bd e3 ee 3a 3d
       -0.4119354 -0.036818355 -0.04962639 0.045637976
000240 f3 c8 50 bd fc 65 a2 bf 95 43 04 be 08 12 f8 3d
       -0.05097289 -1.2687373 -0.12916405 0.12112814
000250 80 81 a1 bc 45 a0 25 bd e2 33 0c bd bd 33 22 bd
       -0.01971507 -0.040436048 -0.034229167 -0.039600123
000260 6b 68 7f 3d cb 72 07 bd 96 7a 0c bf 1a e9 4c bd
       0.06235544 -0.03306846 -0.5487455 -0.05002699
000270 bc a1 b0 bd c6 fb 4d 3d 2f c0 14 be 3d cc b2 3c
       -0.086245984 0.050288938 -0.14526437 0.021825904
000280 d5 d2 10 3e 50 fa 5e 3c b9 2f 8f 3e 07 05 ad be
       0.14142926 0.013609484 0.27966097 -0.33792898
000290 10 f6 30 3d 29 94 46 bd f5 9d 17 bf 23 8d af be
       0.043203413 -0.04848114 -0.592254 -0.34287366
0002a0 f3 50 17 be 6f a6 05 3e 79 54 e3 3d fe 93 a2 bf
       -0.14776973 0.1305177 0.11100096 -1.2701414
0002b0 2a c0 33 bf 8a 73 b2 bf c8 28 c3 bd 98 66 36 3d
       -0.70215094 -1.394151 -0.09529263 0.044531435
0002c0 ba ac 28 3e 24 96 2b 3e df 9a 43 3e a7 e3 fc bd
       0.1647214 0.16756493 0.19102047 -0.12348109
0002d0 1b 56 53 bd 50 4c ff 3d ea b7 5d 3e 3c 92 00 3c
       -0.05159579 0.12465727 0.21652189 0.007847365
0002e0 0b b5 c5 bd bb c5 b1 3e 48 b6 c1 3d 6b 9c d7 3b
       -0.09653672 0.3472117 0.094585955 0.006579926
0002f0 31 73 b4 3c 43 ec 4d bd 22 a7 42 39 ab 3e 24 be
       0.022027584 -0.050274145 0.00018563544 -0.16039531
000300 25 37 06 3e 9a 33 51 be c8 5c 56 3b fa 2a 79 3d
       0.13106973 -0.2042984 0.003270911 0.060832
000310 a5 30 3f be 04 d3 40 be 33 31 92 3e cf b3 b0 bf
       -0.186709 -0.18830496 0.2855316 -1.3804873
000320 a6 73 87 3c d0 28 09 3f bc d8 65 be bb de b0 bd
       0.016534638 0.535779 -0.22445959 -0.086362325
000330 81 7c 58 3c f0 dc 54 bc 5f 0c 9a 3c 52 2f ae bc
       0.013213278 -0.012992129 0.018804727 -0.021262798
000340 7d 14 77 be 5d 1b 88 be f6 ed b8 bd 5f 12 03 3f
       -0.2412891 -0.26583377 -0.090297624 0.5119991
000350 33 72 ea 3c fc d1 3a bd 8e 31 3c bd b7 06 d8 3d
       0.028618908 -0.045610413 -0.045945697 0.10548156
000360 4a 22 f5 bd 79 be 99 3e 54 2f 2b 3d 5f 73 8e bf
       -0.11969431 0.30028132 0.041793182 -1.1128958
000370 ad 4d 61 3e 11 84 af 3d 41 15 58 bd 8a 9b 83 bf
       0.22002287 0.085701115 -0.052754644 -1.0281842
000380 9e 2a 54 bd d4 55 5f 3d ee 07 6e bf 22 15 aa 3e
       -0.051798455 0.05452521 -0.9298085 0.33219248
000390 3e fc 4c be 0f 76 72 3b 25 85 90 3c 2d c9 6f 3d
       -0.20018098 0.0036996638 0.017641613 0.058541466
0003a0 4e 90 54 bf 52 4e a0 3c a7 1a 28 bc 85 de 86 3e
       -0.8303269 0.019568596 -0.010260261 0.26341644
0003b0 38 f5 43 3d 23 82 20 3f 55 ac 03 bc 8e 14 6f 3e
       0.04784128 0.6269857 -0.008036693 0.23347685
0003c0 3a 5f e8 3d 57 78 9b bd 6f ab 4c 3d 2d 9d 70 3c
       0.11346288 -0.075913124 0.04996818 0.014685911
0003d0 21 e9 05 3d 08 95 e8 3c 3e 89 24 3e 9b bf e1 bd
       0.032693032 0.028391376 0.16067979 -0.11022874
0003e0 f6 11 63 bd 12 05 72 3f ac a8 70 3c c5 58 29 be
       -0.05543705 0.94538987 0.014688652 -0.16537769
0003f0 77 79 60 bf 5c 2b ac bc b7 12 70 bf 7b 4f 1e bf
       -0.8768534 -0.02101677 -0.93778557 -0.6184003

network.6.bias f4 [256]
000000 00 c0 d7 3e e3 17 50 3f da 15 67 3f 20 9e b3 3f
       0.42138672 0.8128645 0.9026772 1.4032631
000010 1b 3e 4b 3f e4 15 3e 3f d5 81 72 3f 87 ee 6c 3f
       0.7939164 0.7425215 0.9472936 0.92551464
000020 d5 8a 83 3f fd cf 6d 3e 35 eb 76 3f b0 0e 4c 3f
       1.0276743 0.23223872 0.9645265 0.7970991
000030 be f4 ac bd dc 19 b8 3f 5a 2f 53 bf c6 f3 a1 be
       -0.08445118 1.4382892 -0.8249413 -0.31631297
000040 b9 21 91 3f f2 a8 58 3f ae 34 59 3f aa ea 48 bd
       1.1338416 0.8463279 0.8484601 -0.049051918
000050 57 60 12 3f a3 cf 6e 3f 81 a5 00 3e 43 88 6e 3f
       0.5717825 0.9328558 0.12563135 0.9317667
000060 6d a2 bb 3e 24 63 72 3f 66 da 60 3f bc a3 a1 3f
       0.3664736 0.94682527 0.8783325 1.2628093
000070 f2 9a a2 3f a4 84 a3 3f 56 e5 a5 3f 05 a0 a0 bd
       1.2703536 1.2774854 1.2960613 -0.07843021
000080 6f 40 e6 3f e7 0a 2e 3f 71 a1 9c 3f 93 7a 77 3f
       1.7988414 0.67985386 1.2236768 0.9667141
000090 3a bf 63 3f 95 cc a2 3f f4 a1 52 3f 17 6b 4a 3f
       0.88963664 1.2718683 0.8227837 0.79069656
0000a0 b0 9a 54 3e 60 88 80 3f a3 4c 9b bd b8 7e 5f 3f
       0.20762134 1.0041618 -0.07582977 0.8730273
0000b0 57 a4 6e 3f bf f8 b2 3e 57 2e 4f 3f 3a b0 4d bf
       0.9321951 0.34955403 0.80930084 -0.80347025
0000c0 70 fe a6 3f 55 a6 56 3f aa 4d 2f 3f 49 d6 b9 3f
       1.3046398 0.8384755 0.6847788 1.451852
0000d0 c5 0a 55 3f bf 57 9c 3f cc bf 99 3f 57 d5 52 bf
       0.8321956 1.2214278 1.2011657 -0.8235678
0000e0 15 c8 95 3f 52 19 59 3f 08 ff e9 bd 39 45 39 3f
       1.1701685 0.8480426 -0.114255965 0.7237125
0000f0 86 54 8b 3f 16 a3 ad 3f 40 91 5b 3f 93 18 99 3f
       1.088517 1.3565395 0.8576851 1.1960624
000100 f5 ac 71 3f be 30 76 bd 48 8d af 3f f7 34 5a 3f
       0.94404536 -0.060105078 1.3714991 0.8523707
000110 ba 71 e2 bd e3 c4 93 3e ea 31 5c bc e8 ea ab 3f
       -0.11056848 0.2886115 -0.013439635 1.3431063
000120 c4 21 a4 bd 25 28 5e 3f bd 9e 5d 3f 3f 6b 9b 3f
       -0.08014253 0.86780006 0.8657034 1.2142104
000130 65 a8 08 3f ba e1 77 3f 8b 4d 93 bd 79 e8 67 3f
       0.5338195 0.96828806 -0.071925245 0.905891
000140 eb 0f 49 3e 61 0d 42 3f ba 00 93 3f a7 e4 38 3e
       0.19634978 0.75801665 1.1484597 0.18055974
000150 88 f4 65 3f a4 ce a6 3f b2 0a 38 3f fe e4 86 3f
       0.8982625 1.3031812 0.7189132 1.0538633
000160 ad 55 aa 3f 9e 29 54 bd 6a 91 45 3f 67 71 ca 3e
       1.3307396 -0.0517975 0.7717501 0.39539644
000170 d8 28 34 3e 05 3e 60 3f 77 35 5b 3f 7e 92 a0 3f
       0.17593706 0.87594634 0.85628456 1.2544706
000180 51 a1 60 3f 13 ed 94 3c 45 fe 55 3f bb 36 65 3f
       0.8774615 0.018179452 0.8359111 0.8953664
000190 12 cb a9 3f 5e a4 a0 3f 1d b8 89 3f b5 fe 72 3f
       1.3265097 1.2550161 1.0759312 0.949199
0001a0 bf 90 5a 3f 59 77 a0 3f e0 9f b4 bd b0 6c 2c 3f
       0.85377115 1.2536422 -0.08819556 0.67353344
0001b0 72 3a 26 3e c6 f8 77 3f 61 21 a1 3f d7 5a 27 3f
       0.16233233 0.96863973 1.2588311 0.65372986
0001c0 92 67 7a 3f b9 a6 c4 3e 58 fc 5e 3b 8f 95 a3 3f
       0.97814286 0.3840845 0.003402492 1.2780017
0001d0 88 fb ac 3f c9 da 20 3f 21 bf 59 3f 32 4f 6d 3f
       1.3514261 0.6283384 0.85057265 0.9269897
0001e0 8f 0c 5b 3f 9a e5 96 bd 52 18 bd 3f 57 4a 4b 3f
       0.8556604 -0.07368012 1.4773047 0.7941031
0001f0 a8 01 6a bf 07 25 15 bc 0d c7 64 3f 30 29 52 3f
       -0.9140878 -0.009103066 0.8936623 0.820941
000200 fa 18 a7 3f 23 d0 60 3f e3 ae 8a bd ba 3d a5 3f
       1.3054497 0.8781759 -0.06771638 1.2909462
000210 37 cf 92 3e ba c4 6a 3f 48 5d 50 bd db c0 4e 3f
       0.28673717 0.9170643 -0.05087021 0.80763024
000220 18 1e 50 3f 6d 18 63 3f fa 58 a7 3f 3a e7 b1 3f
       0.8129592 0.88709146 1.3074028 1.389869
000230 f3 d4 65 3f 9f bb 67 3f 42 c2 70 3f 7b 90 f0 3f
       0.8977806 0.9052066 0.94046414 1.8794092
000240 33 55 17 3f 32 ca 8c 3f dd 5f 9d 3f e3 f4 ab 3f
       0.5911438 1.0999205 1.229488 1.3434108
000250 aa cc 98 3f 28 00 78 3f 5b 5d 69 3f 57 15 4a 3f
       1.1937459 0.9687524 0.91158074 0.7893881
000260 5f 23 56 3f f0 4f 76 3f 7d 66 dd 3e 4a da 58 3f
       0.8364772 0.96215725 0.43242255 0.8470808
000270 88 2d 61 3f 7d 51 75 3f 45 05 48 bd 80 2d 3b bd
       0.879601 0.95827466 -0.04883315 -0.04569769
000280 40 0d b1 3f 0e 17 be 3a 19 42 c0 3f 90 02 82 3f
       1.3832169 0.001450272 1.5020171 1.0157032
000290 4d b1 76 3f 5b e4 59 3f 99 0f bc bc b4 d0 5a 3f
       0.9636429 0.8511407 -0.022956656 0.85474706
0002a0 62 14 4a 3f 58 c5 7a 3f da 12 d2 3f 86 1b a9 3f
       0.7893735 0.9795737 1.6412003 1.3211524
0002b0 87 73 9a bd 80 c5 9f 3f c0 8a 73 3f e1 55 73 3f
       -0.07541566 1.2482147 0.9513359 0.95052916
0002c0 23 04 90 3f 95 a1 60 3f a2 43 66 3f b8 22 95 3f
       1.1251262 0.87746555 0.8994695 1.165122
0002d0 ef 04 39 3b 03 d5 9a 3f 39 85 91 3f 61 2c 79 3f
       0.00282317 1.2096256 1.1368781 0.9733334
0002e0 fe 68 69 bd e5 72 e5 3e 3f 40 59 3f f7 b9 8d bd
       -0.056984894 0.4481422 0.84863657 -0.069202356
0002f0 24 df fd 3f d2 ea 9e bd da 75 54 3f dc 53 bb bd
       1.9833722 -0.07759632 0.8299233 -0.09146854
000300 b2 5d 6e 3f cc 2d 50 3f 62 04 b5 3f 6f 76 76 3f
       0.9311172 0.8131988 1.4141963 0.96274465
000310 3a e4 5a bf 6c e7 7e 3f 45 40 71 3f 10 f7 a7 3f
       -0.85504496 0.9957187 0.9423869 1.3122272
000320 f7 11 61 3f 92 3d 19 3c 3d b5 2d 3f 07 85 9e 3f
       0.8791804 0.009353058 0.6785467 1.2384347
000330 5c 29 4f 3f 30 9f 1e 3f a4 c3 46 3f 57 b5 47 bf
       0.80922484 0.6196165 0.77642274 -0.7801108
000340 09 fe 92 3f 32 7e 6b 3f 36 14 4f bf 6e 94 59 3f
       1.1483775 0.91989434 -0.80890214 0.8499211
000350 e3 2a 7f 3f d8 a1 99 3f cd a3 56 3f 9d 6b 1c 3f
       0.99674815 1.2002516 0.8384369 0.61101705
000360 95 81 7c bf 7f 05 48 3f 87 c3 70 3f 7a 10 53 3f
       -0.98635226 0.78133386 0.9404835 0.82447016
000370 36 31 74 3f 36 af 4f 3f 42 f1 ae 3f 38 97 58 bf
       0.9538759 0.81126726 1.3667376 -0.8460574
000380 27 1e 79 3f bd b0 5a 3f 8d 09 40 3f 21 e0 8c 3f
       0.97311634 0.8542593 0.75014573 1.1005899
000390 ea 29 a7 3f 17 06 5a 3f c4 5c 25 be 86 32 da 3f
       1.3059666 0.8516554 -0.16148669 1.7046669
0003a0 d5 0e 66 3f 51 b6 a1 3f a0 68 6e 3f b1 b9 3e 3f
       0.8986638 1.2633764 0.93128395 0.7450209
0003b0 ce 57 62 3f 72 7b 2f 3e 97 91 63 3f 85 67 5f 3f
       0.8841523 0.17136934 0.8889403 0.87267333
0003c0 51 83 62 3f 48 3a 3b 3f 76 46 a1 3f 3b 60 80 3f
       0.8848162 0.73135805 1.2599628 1.0029367
0003d0 f5 d7 a4 3f 01 e4 96 3f 7d 4a 8d 3f 54 45 47 3f
       1.2878405 1.1788331 1.1038357 0.7784016
0003e0 b3 90 7c 3f 19 5e 6d 3f 4b 49 6e 3f 03 83 81 bd
       0.98658293 0.92721707 0.93080586 -0.063238166
0003f0 6d bf 6d 3f be 4a 8f bd 98 a4 48 3e a1 d5 fd 3f
       0.9287022 -0.06996678 0.19594038 1.9830819

network.8.weight f4 [3, 256]
000000 bc 09 73 3f 9e 4a ec bd a6 44 66 bf cc 41 fa 3e
       0.9493673 -0.115376696 -0.899485 0.48878324
000010 21 0e 6f bd 00 7f b2 be bb d8 54 3f 10 0d f9 bd
       -0.058363084 -0.34862518 0.83143204 -0.121606946
000020 fc 78 30 3f 8c e1 74 be 8e a4 92 bd 58 6e b9 3e
       0.6893461 -0.23914164 -0.071602926 0.36216998
000030 e0 14 d3 3b ef de 29 3f f4 8e 12 bf 96 63 e5 3e
       0.0064416975 0.66355795 -0.5724938 0.4480254
000040 16 07 6a 3f 84 65 fa bd 09 da 45 be 48 72 12 bd
       0.9141706 -0.12226394 -0.19321455 -0.03575352
000050 a9 91 7e bf 3f 26 a0 bd 55 25 f2 3d 00 47 23 be
       -0.9944101 -0.07819795 0.11823527 -0.15945053
000060 2f 33 9b 3e 54 15 4b be 26 d8 1c be 17 58 8e 3e
       0.30312487 -0.19832355 -0.15316829 0.27801582
000070 59 15 25 3f 30 5d 1b 3f 75 1b c9 3e 1a 74 70 bc
       0.644857 0.6068907 0.3927876 -0.014676118
000080 65 ce 0b 3f cd 5b 47 3f 76 d0 0d 3e 60 e6 01 be
       0.5461181 0.7787445 0.13849053 -0.12685537
000090 8c 4d 00 be 8a f2 0f 3f 2f 89 7b bd 07 51 db bc
       -0.12529582 0.5622946 -0.061410125 -0.026772035
0000a0 35 e3 89 bf e6 c9 0a 3f d4 bb 16 3d 25 f7 03 be
       -1.0772463 0.5421432 0.03680022 -0.12887247
0000b0 30 10 49 be cd 06 65 3e 8e 71 99 be 99 35 be be
       -0.19635081 0.22365876 -0.29969448 -0.37150267
0000c0 e2 d3 26 3f 16 f2 0d be 92 d3 97 3f 43 a8 e9 3e
       0.6516706 -0.1386188 1.1861441 0.45636186
0000d0 57 cc 14 be 77 d5 4e 3f 59 0b 48 3f 5d 45 70 be
       -0.14531074 0.8079447 0.78142315 -0.2346396
0000e0 b4 d1 65 3f 80 a0 df 3b ba 82 fd b8 87 97 0a 3f
       0.89773107 0.006824553 -0.0001208833 0.5413746
0000f0 5d f3 65 3f 17 cd b6 3e be 18 eb bd 9d 30 67 3e
       0.8982447 0.35703346 -0.114793286 0.22577138
000100 89 07 01 be c3 fa f1 bc c7 b8 e5 3d b3 d4 f0 bd
       -0.1260053 -0.029538518 0.11216884 -0.11759319
000110 e3 33 80 3c df 67 60 3f c5 fb 76 3d 03 c4 15 3f
       0.015649742 0.87658495 0.0602987 0.58502215
000120 58 2b 85 bb bc 96 cb bd 44 bb b7 bf 7c a0 56 3f
       -0.004064005 -0.0994086 -1.4354024 0.8383863
000130 bc 02 22 3f f3 38 35 be 58 2e a7 b9 1f 8d ae bd
       0.6328542 -0.17697506 -0.0003188725 -0.085230105
000140 ce 1f bf be 94 e3 57 3d ae 55 15 3f 4a f4 1b 3f
       -0.37328953 0.05270727 0.5833386 0.6091963
000150 cd ba d6 bd 0a 86 87 3e 0d 8a 36 be d7 24 37 3e
       -0.10484848 0.2646945 -0.178261 0.17885147
000160 15 ac 19 3f 13 c4 d5 bc 24 54 46 be 5d fb 6d 3f
       0.600282 -0.026094472 -0.19368035 0.92961675
000170 71 c0 20 3f 09 74 0a be a3 81 c8 bd 62 09 4d 3f
       0.6279364 -0.13520826 -0.09790351 0.8009244
000180 17 5a e2 bf 73 61 0a bf 90 46 aa bd 47 35 f2 bd
       -1.7683743 -0.54054946 -0.0831424 -0.11826568
000190 c5 a1 b5 3e 59 3e ca 3d c9 0e 3a 3f 19 6f 06 be
       0.35474983 0.09875173 0.7267881 -0.13128318
0001a0 d8 6a f7 bd 4a 8e 1a 3f 02 4f e9 3d 6e 0b c4 be
       -0.12080926 0.60373366 0.11392023 -0.3828997
0001b0 06 b3 39 3e 35 8f 13 be c1 3f 30 3f d3 f6 cd be
       0.18134698 -0.14410098 0.6884728 -0.40227374
0001c0 75 c8 41 be f2 6c 3e 3f 45 70 da 3d b1 e6 ae 3e
       -0.18924125 0.7438499 0.10665945 0.3416038
0001d0 f0 cd e2 3e ea fd 57 3f c2 27 07 bb 64 99 4c be
       0.44297743 0.8437182 -0.0020623063 -0.19980389
0001e0 19 68 e8 bd f1 9c a7 bc 8f dd db 3e 36 17 a2 bd
       -0.1134798 -0.020460578 0.42942473 -0.079145834
0001f0 45 7c 09 bf e0 32 f0 3d 64 e9 1a be d0 9f ab 3c
       -0.53705245 0.11728454 -0.15128094 0.020950228
000200 9e ee ac 3e fa 28 7d bd 00 56 a2 be 0c a1 9f 3e
       0.337758 -0.061806656 -0.31706238 0.31177557
000210 cc f7 fd 3e e1 2f 82 bd 24 75 bc 3e 2d d0 00 be
       0.49603117 -0.063567884 0.3680812 -0.12579413
000220 4b 08 13 be de ea 99 be df 08 95 3e e8 22 89 3e
       -0.14358632 -0.30062002 0.2910833 0.26784444
000230 5b 33 92 bd 62 9d f2 bd 86 b3 f1 3d 4d e2 82 3f
       -0.071387015 -0.11846425 0.118018195 1.0225312
000240 70 c1 75 3f ea b1 78 3f 50 c1 97 3d ef 81 fa 3e
       0.9599829 0.97146475 0.07409918 0.48927256
000250 0e 70 45 3f f4 f4 48 be e4 25 eb bd ad c8 e5 bd
       0.77124107 -0.19624692 -0.114818364 -0.112199165
000260 b2 43 65 be a3 41 44 be 81 e1 36 3f 55 a3 f8 bd
       -0.22389105 -0.19165663 0.7143784 -0.12140528
000270 3e 55 d7 bd 29 0d a9 bf 61 c1 ad 3c b8 f0 04 3c
       -0.105143055 -1.3207141 0.021210374 0.008114032
000280 09 48 08 3f 9a 08 04 3f 22 e6 4d 3f ec 80 81 3d
       0.53234917 0.51575625 0.8042928 0.06323418
000290 39 12 9f be 1f 2c 63 3b e7 90 28 3f ff b3 08 bf
       -0.3106859 0.003466375 0.65846103 -0.5339965
0002a0 3e 22 68 be 66 4c 40 be 8b 4d 24 3e 5d e4 10 3f
       -0.22669312 -0.18779144 0.16045205 0.56598455
0002b0 b7 83 2e bc df 82 25 3f 1e 51 4c be 2e 09 33 3f
       -0.01065152 0.6465282 -0.19952819 0.6993588
0002c0 f6 25 5d 3f d1 15 f2 3c 1c 3b 35 be b7 cc 14 3f
       0.8638605 0.029551418 -0.1769833 0.5812487
0002d0 64 79 35 be 9f 62 7b 3e 87 48 2b bc 86 ae 5d be
       -0.17722088 0.2454934 -0.010454304 -0.21648607
0002e0 3e d0 ce 3c a6 b6 07 3f 3e 2c cd be 8a 9d c0 bb
       0.025245782 0.53013074 -0.40072817 -0.005878155
0002f0 f9 5f 85 3f 96 18 38 3c c2 a9 33 bf 09 d9 6b 3c
       1.0419914 0.0112363305 -0.70180905 0.014395007
000300 ca 30 2b 3e 85 5c 0b bc 0d 49 1d 3f f0 2a 2e 3f
       0.1671783 -0.008505945 0.6143959 0.6803427
000310 9f 50 97 be 6d d3 f8 3c 84 67 6e be 3a b3 63 3e
       -0.29553697 0.030374253 -0.23281676 0.22236338
000320 17 5b 1d be 9e 99 11 3f 1e 30 84 3f 60 19 f3 3e
       -0.1536678 0.56875026 1.0327184 0.47480297
000330 85 10 af bd 41 b0 5a 3f 54 94 1a 3f 9f a4 8c bd
       -0.08548073 0.8542519 0.6038258 -0.068673365
000340 af c5 a7 3d cb 4d c9 3e d6 15 c1 bd 7e 59 0f be
       0.08192002 0.39317164 -0.09427993 -0.13998982
000350 04 7c 87 3f 3f 7b 20 3e 98 80 90 be 04 78 a4 be
       1.0584722 0.15672015 -0.2822311 -0.32122815
000360 2b a9 1f bf 1b 6c e0 bc d7 9c 01 3e 3b f0 2e bd
       -0.62367505 -0.027395299 0.12657486 -0.04270957
000370 01 3e 41 be 97 5f 9b bb 9e 11 8d 3f cb 90 55 bf
       -0.18871309 -0.00474162 1.1021001 -0.8342406
000380 b8 4b b1 3d ec 2e a8 bd 75 dc 74 be 47 ec 74 3f
       0.0865702 -0.08212075 -0.23912223 0.9567303
000390 c9 f8 d7 3e 30 fb a6 bd c3 01 83 3e 5a 28 60 3e
       0.42181996 -0.08153379 0.25587282 0.21890393
0003a0 e2 49 a4 3e b2 3a 55 3f eb 4b eb bd 99 5f 43 3f
       0.32087618 0.83292687 -0.114890896 0.76317745
0003b0 06 16 d7 be e7 8e e8 3e 12 7e 2e be 92 04 a3 bc
       -0.4200899 0.45421526 -0.1704028 -0.01989964
0003c0 09 2f 02 be c6 e5 55 be 5e 15 c7 3c d0 01 44 be
       -0.12713255 -0.20888433 0.02430218 -0.19141316
0003d0 68 66 94 3e 55 a0 20 3f 1e eb 59 be a5 b9 f6 3a
       0.2898438 0.6274465 -0.21281096 0.0018823637
0003e0 d0 5f d3 bd 32 85 1b be 1f 05 0f be 4f 9a 07 bd
       -0.10321009 -0.15187529 -0.13966797 -0.033106145
0003f0 ba 15 5c be 01 88 2f bd 08 91 d3 3e d9 a9 8c 3f
       -0.21492663 -0.042854313 0.41321588 1.0989333

network.8.bias f4 [3]
000000 a2 e0 fc be bc af f5 be 65 8c 59 be
       -0.4939013 -0.47985637 -0.21244963
