mountaincar_cl_project/runs/periodic/none/seed_2/online_stream_model.pth (torch, 536437 bytes, 8 tensors)

network.0.weight f4 [256, 2]
00000000: 3484 753e 1ee8 ba3e 74a7 033e 2802 eebf
00000010: 9a2f e23e 1431 0cbf 7783 98bd 4e60 313e
00000020: bb8f 1e3f e32a b7be a338 563f b82a eebd
00000030: 1c69 a23e 723d 8ebf 1bf4 013e 0aff e5bf
00000040: c6f0 c93e 6fbc d0be 4aa2 743f c1c4 bb3f
00000050: b14d 6f3c 9a6d 4fbf 105b a23d 0801 d83d
00000060: f648 993e 6210 833e 52ff dc3e 8d73 253f
00000070: 1974 013f 1eac b13e c0d4 b2bc da75 a5be
00000080: 82fd 93be 95c8 d43e 66bf 97bc a2a5 dc3f
00000090: 99e4 45be 8702 183f 4776 aabd c363 ab3f
000000a0: 3e17 b93e a881 26be 3630 d83e da6d 0f40
000000b0: 56ea 743e 2b33 ad3f 1693 a23e 90ad 0f3d
000000c0: 2855 e43d 0f04 cebf 9391 7f3e b94b 5640
000000d0: 79fa 9bbe 0ec4 cf3e 883a 863d 9a52 863e
000000e0: f6e0 143f 4d9d 2340 c50f 62be b9d0 833f
000000f0: 4877 b03d 0a72 9c3e f04c 1dbe e6da 34bf
00000100: 53c8 f7bd 362f 3ebf 32d8 da3e 9ec5 63be
00000110: 426f b13e 0879 a2bd 3d76 243f 262a dc3e
00000120: acbf eabe 0335 0cc0 a04d eebc f035 69bd
00000130: 49f2 5d3f db07 b63f 7426 f53e 831b 023f
00000140: 96cf 303f f71a 153f f679 afbd 9f1c ad3f
00000150: 0608 f43e 11f4 d13f 4e53 413f 03f8 c33f
00000160: 4474 6f3d 05a9 07c0 28ab 79be 533d 2e3f
00000170: 75de a0bd c6d5 003d d85e 90bd 3ab3 f83e
00000180: 820a db3d 2fed 00c0 29b9 8e3d 34c1 d7bf
00000190: effb 6cbe f45d 353e 2233 9b3e ccd1 babe
000001a0: 8c9a 9a3d 2e9b 9cbf 0054 a53c 7614 07c0
000001b0: 2e54 a2be 6b5b 11be c2e0 10be a407 56bd
000001c0: b8dc bd3d abec 08bf d0bf 1d3e 4020 433d
000001d0: 803d 16bc 7564 b8bf e097 d83d 80dd 4f3d
000001e0: b8f0 9a3d c402 953e 0619 b33d 96d4 bc3f
000001f0: 30b9 2fbe d86a 00c0 7420 603f 0289 833e
00000200: 9c30 17be 9023 cb3d d5d2 1c3f 8176 c53f
00000210: ced7 fd3d 4701 4f40 8246 bc3e 5cfe a83f
00000220: e064 03bd c066 0dbf 04a5 963e 00a7 a23f
00000230: f64e a9be 6520 29bf 8424 8ebd 7c4b 613b
00000240: afce 76bd cd0b 08c0 c5a7 af3d cba1 1dc0
00000250: 7d6e 8fbe e2e2 95be 8aa0 013f 8792 3bbf
00000260: 6403 303e ad10 c7be 4032 993d b027 d0bd
00000270: 7c77 6b3e fc6f 313e e6ab eb3e 6a47 643f
00000280: 8088 3f3c 754c 293f e8fd 1c3f 3945 12bd
00000290: 2033 e9be b419 a2bf 47f6 a03c 7e58 adbf
000002a0: 8b20 aa3d 378f f4bf 0906 34bf 8b38 f8be
000002b0: b52b 8c3e 7962 d8be 4066 77bc 934e 94be
000002c0: d151 36be dbe8 83bc d82a 953d e0ec 393e
000002d0: afa9 80be 3a9d 23c0 7af5 223d 7ea4 0cc0
000002e0: c9b8 8abb a49b b9bf 50cf bebe 0027 c13d
000002f0: 27bc fa3c fb71 ecbf 291a 133e 32c9 75bf
00000300: 0849 05be 15bf 7bbf 442d b0be f0d1 7c3f
00000310: 741c 843e 5857 dd3f 8e99 10be 0398 a13f
00000320: 0385 a2be d6eb b93e c240 3c3d 0978 cebf
00000330: 56c9 a4be 9d23 15c0 c0fd f53d 8818 02be
00000340: 75bf 9d3d d4dc 05c0 20cb 173d 40e0 30bf
00000350: 55fb 5e3c 6b33 95bf 1cad 0f3e 72b5 813e
00000360: 3a1e b43e d4e6 303f 2130 243f 4d26 de3e
00000370: f5f6 31be bde0 2f3f 6240 0b3e 5cf6 fcbf
00000380: 736f 703e e91f 9a3f 1b29 233f cceb a63f
00000390: 10ed 0fbe 0500 213f ec4b cfbe 8c82 1c3e
000003a0: 99a5 76be 00a4 2cc0 b33b 67bd 7227 03c0
000003b0: d62b 813e 1ce8 74be 8829 a0bc 3ded 12c0
000003c0: d19e db3e b6a5 823f bf77 913d 9cb7 c23f
000003d0: ae5e bd3d ae8e c5bf 4d30 f53c 56ca c83f
000003e0: c2e3 9c3e 6f47 8ebe 0bcf 97be b6a5 efbf
000003f0: 3359 593e 3101 4040 7811 bd3d 60c5 00bd
0.23976213 0.36505216 0.12856847 -1.8594408 0.44176942 -0.5476239 -0.0744695 0.17321894
0.61938065 -0.35774907 0.8368017 -0.11629242 0.31720817 -1.1112502 0.12690775 -1.7968457
0.39441508 -0.40768763 0.95560133 1.466942 0.014605925 -0.81026614 0.07927525 0.10547072
0.29938477 0.25598437 0.43163544 0.6462944 0.50567776 0.34701627 -0.021829963 -0.32316476
-0.2890435 0.41559282 -0.018523883 1.7238047 -0.19325484 0.59378856 -0.08323341 1.338982
0.36150545 -0.16260397 0.42224282 2.2410798 0.23917517 1.353124 0.31752843 0.03507763
0.11149055 -1.6094989 0.24957876 3.3483717 -0.30464533 0.40579265 0.06554133 0.26234895
0.58155763 2.5564759 -0.22076328 1.0298072 0.08616501 0.30555755 -0.1536138 -0.7064651
-0.12098756 -0.7429079 0.4274307 -0.22243354 0.34655195 -0.07933241 0.6424292 0.43000907
-0.4584936 -2.1907356 -0.029089749 -0.056936204 0.8669782 1.4221147 0.478809 0.5082323
0.6906675 0.5824427 -0.08568184 1.352436 0.4766237 1.6402608 0.7551774 1.5310062
0.05846049 -2.1196911 -0.24381697 0.68062323 -0.0785493 0.03145387 -0.0704934 0.4857424
0.106953636 -2.0144765 0.0696891 -1.6855836 -0.2314298 0.17711622 0.3031245 -0.36488187
0.07549009 -1.2234857 0.020181656 -2.1106238 -0.3170485 -0.1419503 -0.14148238 -0.05225338
0.092706144 -0.53486127 0.15405202 0.047638178 -0.009169936 -1.4405657 0.10575843 0.05074835
0.07565445 0.29103673 0.08745007 1.4752376 -0.17160487 -2.0065212 0.8754952 0.25690466
-0.14764637 0.099188924 0.61259204 1.542679 0.12394677 3.234453 0.36772543 1.3202624
-0.032078624 -0.5523491 0.29422772 1.2707214 -0.33068055 -0.66065055 -0.069405586 0.0034377268
-0.060255703 -2.1257203 0.085769214 -2.463 -0.28013983 -0.2927466 0.5063559 -0.7327046
0.17188793 -0.3887991 0.074802876 -0.1016382 0.22994798 0.17327875 0.46029586 0.8917147
0.011690259 0.6613229 0.6132493 -0.035710547 -0.45546818 -1.2664094 0.019648684 -1.3542631
0.08306988 -1.9106206 -0.7032171 -0.4848064 0.27377096 -0.4226263 -0.015100062 -0.28966197
-0.17804648 -0.016102245 0.072835624 0.18156767 -0.25129458 -2.5564713 0.039784886 -2.1975398
-0.004233454 -1.4500623 -0.37267542 0.09431267 0.030607296 -1.8472284 0.14365448 -0.96010125
-0.1301614 -0.98338443 -0.34409535 0.9875784 0.25802958 1.729228 -0.14121076 1.2624515
-0.31742105 0.3631274 0.045960195 -1.6130382 -0.32184857 -2.3302987 0.120112896 -0.1270467
0.07702533 -2.0916033 0.03705895 -0.6909218 0.013609727 -1.1656317 0.1403088 0.25333744
0.3517931 0.69102216 0.6413594 0.43388596 -0.17379363 0.687023 0.13598779 -1.9762683
0.23480015 1.2040988 0.63734597 1.304071 -0.14055276 0.62890655 -0.4048761 0.15284175
-0.24086608 -2.6975098 -0.056453418 -2.0492826 0.25228757 -0.23916668 -0.019551054 -2.2957299
0.42894605 1.0206821 0.07102918 1.5212283 0.09246574 -1.5434167 0.029930258 1.5686748
0.30642515 -0.27788875 -0.2965015 -1.8722446 0.21225433 3.0000727 0.092318475 -0.03143823

network.0.bias f4 [256]
00000000: b7fe 1abf db8b 793d fa15 22bf 1cf8 fcbd
00000010: 29ee a33e 04a9 c1bd 33e0 16be 245e 5d3d
00000020: ca41 ffbe 1edb 32be 4867 4e3d 5006 a3be
00000030: 7cab 0ebf 2765 04bf 28bd a7be 20f9 6abd
00000040: 7a7e 5cbe d796 a1bd 242c 80be 0468 7bbd
00000050: 64e1 25bf d906 b3bd 1544 3bbd 442e 34bf
00000060: b684 423d a877 d7bd 33c0 1fbf 1839 dfbd
00000070: bc45 03be fdbe 3ebe 4bcb e3be 9002 79be
00000080: c19d 5fbe e9c8 05bf 3660 12bf 5ac2 1ebf
00000090: ce22 07bf 13ea 8bbe 273e 56be 2f67 c73d
000000a0: 2d5f a6bd 38d2 bebd 62c8 cb3b 0bb0 7bbe
000000b0: 87a8 9f3c 8644 a6be 5672 c5bd 15f5 d8be
000000c0: 60dd 1a3e 5b42 e83d e445 92be 08ac fbbe
000000d0: c225 c23d 26a5 8dbc c212 c8be 018d 35be
000000e0: 9a54 c1be fae6 28bf d650 843d c66c e1be
000000f0: b6e9 bdbe 6667 1cbd e7c3 14be 83ba 17be
00000100: 6884 35be e4e2 46be ced2 d2bd c738 453e
00000110: 408c 02be a9a9 07bd f095 29bf 8d0a bcbd
00000120: 3a4e ac3d 6a9d 843c a1d3 b4be 9049 8a3e
00000130: 54b3 1fbf 9883 9fbd 187d 1dbf 674f 523d
00000140: 6779 f6be c166 37bd fc6c b9be 8098 a83d
00000150: 1b46 063e fed6 15bf 5d93 0ebe 8cda 2ebf
00000160: 921d 80be e174 92be 667c 64be 9fe9 013e
00000170: 071d 893d e547 2dbf 7e13 d83d 22c5 9a3d
00000180: 684a 62be dcc4 92be c04f 83bd 8f8e 00be
00000190: 4d3d 19bf eb77 cc3d b694 90be 40c3 52be
000001a0: 5e48 a43c cb34 d0be 2aa5 8a3d a01b 14be
000001b0: 931f 183d 5f8b e9bd e359 0bbe c70a 6e3d
000001c0: b5c7 f63d 03e8 d73c 476c 86be 81ec 34bf
000001d0: e07c 4bbe d54d ab3d a0dd 06bf 0a4e 75bd
000001e0: cc3d 5f3e 9f21 20bd d26e f33d 5050 5a3c
000001f0: 143c abbe 4db7 abbe 9166 b9bd 4b16 ecbe
00000200: a3fd 92be f631 9abe 45a3 923d 15b0 18bd
00000210: b754 14bd a851 7fbe 44a2 67bd 6805 c73d
00000220: 1e7d 0cbe 7177 21bf 10fe 1abf 2cde 2ebe
00000230: 7477 8cbe b317 12bf 8808 edbd 62e8 bd3d
00000240: 9dc4 00bf 83c0 2cbf 0f44 703b 6ca2 95bd
00000250: 7d0f c6be 5b7a f03d 76ee a5be 12cb 73be
00000260: 7640 f03c 3a36 c3bd 50d2 adbd 4093 22bf
00000270: 4493 dfbe e7f0 dbbe 1fec e2be 1cc6 5ebd
00000280: d6fa 02bf 641b 833d 4b8b 21bf 3247 b7bd
00000290: cb75 9f3d 5609 01be 6c6d 40bd 5f2c 3cbc
000002a0: 12e7 2cbe ad89 a8be a392 00be d904 a7be
000002b0: 231d acbe 3b79 0abe 7f19 b13c 53c3 6c3d
000002c0: 53b9 6bbe 9c6e edbd ffa5 6bbe 87ca 29bf
000002d0: 36da 1cbf aa7c b4bd 7189 1ebe 15aa 8a3d
000002e0: 7d05 d7be 4a01 87be 0257 12bf 5241 8dbd
000002f0: f5e6 8cbc c14c 26bf 82a9 e83d abb5 dc3a
00000300: 06ec 27be ebcd d7bd 142a 5cbe c566 8dbe
00000310: 55a6 64be efba c5be e386 913d 7648 32bf
00000320: 3f76 b4be 7d89 4fbe 29c9 dbbe e1d5 773d
00000330: 6968 a9bd a041 05bf a17f 20bf 6b37 34bf
00000340: 3a9d a0be b3e6 b1bd 792a 903d 30ce 7dbe
00000350: 6b1d 873d 890b 48be ef61 3dbe 80ee a83d
00000360: 5f1f 6abe 4c3c 8a3d b8c6 4cbe 7821 d4be
00000370: d7fb 17be 463a 12bf 24c1 41be 6c29 4fbe
00000380: dbd0 e73d 48b1 a43d 00d1 37bd 0678 b2be
00000390: 65cf eb3d f4b4 e3bc ba9a 15bf 7f29 17bf
000003a0: ccb7 9abc aed9 bcbe 1e68 06bd 273f 31be
000003b0: b182 05bf 2fc6 94be f0a5 a2be 56a6 22bf
000003c0: 6ba6 21bf 7234 063e e27a 8fbe 0e8f aabe
000003d0: 2cd2 80bc 07da ff3d b160 0dbf 399c 2bbf
000003e0: 148e 2fbe 0849 9cbd a0f9 75bd eab3 0c3a
000003f0: 5334 20bf 303a babd 6548 60ba c98f 25bf
-0.60544914 0.060924392 -0.63314784 -0.123520106 0.3201764 -0.09456065 -0.14733963 0.054044858
-0.4985488 -0.17466399 0.050391465 -0.31840754 -0.55730414 -0.51716846 -0.32761502 -0.05736649
-0.21532622 -0.078900985 -0.25033677 -0.061378494 -0.64797044 -0.087415405 -0.045719225 -0.70383096
0.047489844 -0.105208695 -0.6240265 -0.10899562 -0.1281957 -0.18627544 -0.44491038 -0.24317384
-0.21837522 -0.5225969 -0.57178056 -0.62015307 -0.5278748 -0.27327022 -0.20922147 0.097364776
-0.08123622 -0.0931744 0.006218956 -0.24578874 0.01948954 -0.32474154 -0.096409485 -0.42374483
0.1512351 0.11340781 -0.28568947 -0.49154687 0.09479858 -0.017290663 -0.3907681 -0.1772957
-0.37759858 -0.6597744 0.06460731 -0.440283 -0.3709237 -0.038184546 -0.14527856 -0.14817242
-0.1772629 -0.1942249 -0.10294114 0.1925994 -0.12748814 -0.033120785 -0.6624441 -0.091817
0.08413358 0.016188342 -0.3531771 0.2700925 -0.6238301 -0.077887714 -0.61519 0.051345255
-0.48139498 -0.044775728 -0.3621596 0.08232212 0.1311268 -0.5853118 -0.13923402 -0.68302226
-0.2502256 -0.28604797 -0.22313079 0.12686776 0.0669499 -0.6768783 0.10550593 0.07557131
-0.22098696 -0.28665817 -0.064116955 -0.12554382 -0.5985916 0.0998381 -0.28238457 -0.20582294
0.020054039 -0.40665278 0.06769784 -0.14463663 0.037139487 -0.11403536 -0.13608508 0.058115747
0.1204981 0.026355749 -0.26254484 -0.70673376 -0.19871855 0.08364455 -0.5268192 -0.059888877
0.21800917 -0.039094564 0.11886372 0.013324812 -0.33444273 -0.33538285 -0.09052766 -0.46110758
-0.28709134 -0.30116242 0.071600474 -0.0372773 -0.036213603 -0.24933493 -0.056551233 0.09717828
-0.13719603 -0.6307288 -0.6054392 -0.1707694 -0.27434886 -0.5706741 -0.11573893 0.09272839
-0.5030001 -0.6748125 0.003666166 -0.0730637 -0.38683692 0.117420875 -0.32408494 -0.23807934
0.029327612 -0.09531827 -0.084873796 -0.63505936 -0.43667042 -0.4295723 -0.4432077 -0.05438815
-0.51163995 0.06401709 -0.6310317 -0.08949126 0.07786139 -0.12601218 -0.046979353 -0.011485188
-0.16885021 -0.32917538 -0.12555937 -0.32620886 -0.3361598 -0.13522808 0.021618603 0.057803463
-0.23019914 -0.11593363 -0.23012541 -0.6632466 -0.61270463 -0.0881284 -0.15482117 0.06770722
-0.41996375 -0.2636817 -0.57164013 -0.068972245 -0.017199973 -0.6496087 0.11360456 0.0016838809
-0.1639863 -0.105373226 -0.21500427 -0.2761747 -0.22329076 -0.38619182 0.07105806 -0.69641817
-0.35246465 -0.20267291 -0.4292691 0.060506705 -0.08271868 -0.5205326 -0.62694746 -0.7039706
-0.31369954 -0.086865805 0.07039351 -0.24785686 0.06597408 -0.1953565 -0.1849439 0.08248615
-0.2286353 0.06749782 -0.1999768 -0.41431785 -0.14842163 -0.5712017 -0.18921334 -0.20230645
0.11319133 0.08041626 -0.044877052 -0.34857196 0.11514167 -0.027796246 -0.5843922 -0.59047693
-0.01888647 -0.36884826 -0.032814138 -0.17309247 -0.52152544 -0.29057452 -0.31767225 -0.6353506
-0.6314456 0.13105944 -0.2802344 -0.33312267 -0.015725218 0.12492757 -0.55225664 -0.6703525
-0.17144042 -0.07631117 -0.060052514 0.00053673855 -0.6257984 -0.0909313 -0.00085557095 -0.64672524

network.3.weight f4 [256, 256]
00000000: d067 153c 7f1b 84be ce81 3f3d d0fb 5b3d
00000010: b66d aabe 9454 c7bd 2002 3c3c 7719 aabe
00000020: 2cfa ffbc daa5 c8bd 8164 9fbb a28c 1ebd
00000030: a8a6 eabc c092 ecbc 1048 8bbb 90f0 d83c
00000040: 57f6 d0be 5ca1 eebe 4e42 96bd 59d9 5c3d
00000050: e046 e13c 0add 99be 0f6d ccbd 4838 993c
00000060: 2e02 8cbe c4be 40be 5e6d 693d 08e2 41bc
00000070: 0926 bfbd 0622 38bf f0fc b93c f020 083d
00000080: 22bb 8fbd 28b0 81bc 083e cf3c 60ec 113d
00000090: de1f a3bd a00c 69bb bb3e 2f3e 817f 0ebf
000000a0: 0fd2 b43a 8fbf e8be 855b 9dbe f0ee a239
000000b0: 5c6f a9bd 2c85 1b3d da82 14bd 7a11 53bd
000000c0: 9dc8 433c 937a 6a3d 13b7 0b3d 4444 773d
000000d0: 8f44 423d 783f f8bd eeac 043e 0ab6 56bc
000000e0: c852 97bc 1a09 573d 6d94 8b3d 38f8 43bc
000000f0: 8aa5 6a3d fd21 16bf f01d dfbe 245a 073d
00000100: 405d 0abd d4da 8fbd 8ec7 38bf a541 36be
00000110: d0dd 0c3c c06e 9bbc 50e7 673d a76e 723d
00000120: 7b89 a8bc cb04 82be 58c8 36bc 166f babe
00000130: 0002 54ba 403e 53bd f20a 7b3d 9f7a 28be
00000140: 80a2 21bd fb75 173c 612b a2be 89a5 d9bc
00000150: 1204 813d 2e7c a5be c8e2 b93c c89b 49bd
00000160: 6c45 683c b801 16bd d64b 70bf 3336 34bd
00000170: 0760 eb3b 9e43 54bd 758e b33d 6545 30bf
00000180: f536 c7bc 7ec1 4dbf a5d4 e7bc c97d e0be
00000190: 8014 7cba 7bb1 ee3c 6556 0cbf 4463 1abd
000001a0: b8b0 8bbe 008b 99ba 6a8e 1f3d cc68 593d
000001b0: 604e 69be 439a e33d e57a c0be 8ff8 c1be
000001c0: 0679 29be 048e 15be b8c5 67bd 00ed 27bc
000001d0: 222d 91be 85dc a8bd e079 52bd 6b2e 1fbf
000001e0: 3872 4ebe af58 37bf db54 a0b9 18dd 37be
000001f0: 00b2 8bb9 6815 24be a917 82be c0c0 623c
00000200: ef46 f23c fca5 3fbe 63fb babd 1c67 ebbd
00000210: 0fbb 82be 38cb 6ebe e424 1ebf 0530 71be
00000220: 7c24 d1be 08df b63c 4e1b 263d f0ce e1bb
00000230: 3d28 0b3d fe6e 0dbf 5af2 3fbb 2032 80bc
00000240: 3099 51bf 6a16 2dbd a080 8f3d 35fd 77bd
00000250: a495 48bd d4dd 2e3c e0bd 76bf 1379 d13c
00000260: 494c 43bd a01f c0be cc42 acbe 4315 96be
00000270: 3a2f 54bd f0d8 12bc a82e 1dbf 53e6 1ebd
00000280: 18d9 403d 1b30 38be a08f 44bb 4ab9 25bd
00000290: 6662 e5be 2413 fdbe a518 9fbd e8c1 dbbd
000002a0: f286 cebc 9a44 66bd ead1 603c fc13 35bf
000002b0: a8a5 eabc f5bd 82be e1e1 3ebe 5a73 b5be
000002c0: 6e78 77bb dc1f 4f3d ee8a 15bd b6db 653d
000002d0: 8081 93bc 8bce 6dbe 9d27 82be 52d5 f8bd
000002e0: 54f7 a13c c09c 6ebd 1d1a 0d3e 9868 01bf
000002f0: 6b45 5bbd a03b 52bc 17e6 113d 0673 6ebe
00000300: 4b91 20bf a225 e4be 0fe2 d13d 07c4 9ebc
00000310: 6e1c 0dbf ec04 8ebc 52c1 4ebd 80ae 2c3a
00000320: f488 3dbd 9716 1f3d 0640 6f3d 50e8 79be
00000330: 2149 b0be 76fa 713d 1e96 55bd 80d4 05bd
00000340: cd7d 05bf 77c4 183e 1147 1b3d 3044 79bd
00000350: 464a ee3c b854 703d a310 403d c3ec 83bc
00000360: 1831 7abd 0faa 983d 3b3a 25bf a0ff 8ebc
00000370: 20cf 7cbc c4df a2bc c9d8 0bbe 40c6 b63b
00000380: d328 3d3d 8a3c 50bf b315 15be b0bc 983c
00000390: 7c9d 453d de1e 48be 8430 54bd c0fd c53a
000003a0: 38b3 69be f33a 643e 78e9 86bd b05d 0bbf
000003b0: 8a95 213d c078 143b 462e 40bd f8ca 9b3c
000003c0: 7b10 fc3d 1e41 f9be b347 cd3b 041e a039
000003d0: 102d dcbd 17f2 533c 68c0 2c3d 8e5d 453d
000003e0: 8cbe dbbc d82d 3f3d 4c9c 443d 9b07 91bd
000003f0: 94db ee3c 289a 133d 9d8f d5bd cc28 7b3d
0.009118989 -0.25802228 0.04675465 0.053706944 -0.33286828 -0.09732929 0.011475116 -0.33222553
-0.031247221 -0.09797259 -0.004864276 -0.038708337 -0.028643921 -0.02887857 -0.004250534 0.026481897
-0.40812942 -0.46607482 -0.07336865 0.053918216 0.027499616 -0.30051452 -0.09981739 0.018703595
-0.27345413 -0.18822771 0.056989066 -0.011833675 -0.093334265 -0.71926916 0.022703618 0.033234537
-0.070181146 -0.015831068 0.025298133 0.035625815 -0.079650626 -0.0035560504 0.17113774 -0.55663306
0.0013795512 -0.45458648 -0.30733886 0.0003107707 -0.08273193 0.0379688 -0.036257602 -0.05153034
0.011949685 0.057245802 0.03411014 0.060367838 0.047428664 -0.12121481 0.12956592 -0.013104925
-0.01847209 0.052498914 0.06815419 -0.011961035 0.057286777 -0.5864561 -0.43577528 0.03304495
-0.033780336 -0.0702416 -0.72179496 -0.17798479 0.008597806 -0.018973708 0.05661708 0.059187558
-0.020573368 -0.25394282 -0.011156164 -0.36412877 -0.0008087456 -0.051573038 0.061289735 -0.16453026
-0.039461613 0.009244437 -0.3167372 -0.026568191 0.062996045 -0.32321304 0.022691146 -0.04922083
0.014176708 -0.036622733 -0.93865716 -0.043997 0.007183078 -0.051822297 0.08767406 -0.6885589
-0.024318198 -0.8037337 -0.028299639 -0.43845966 -0.0009616092 0.029137364 -0.5481933 -0.037692323
-0.27283263 -0.0011714399 0.038954176 0.053078458 -0.22783804 0.111134075 -0.3759376 -0.37884948
-0.16550073 -0.14604956 -0.056585044 -0.010249376 -0.28354746 -0.08245186 -0.05138576 -0.62180203
-0.20160758 -0.71619695 -0.000305808 -0.17955434 -0.00026644766 -0.16023791 -0.25408676 0.0138399005
0.02957484 -0.18715662 -0.091299795 -0.11494276 -0.2553334 -0.2331971 -0.6177504 -0.23553474
-0.40848148 0.022323146 0.040553384 -0.006891124 0.03397392 -0.55247486 -0.002928874 -0.015648901
-0.8187437 -0.042257704 0.07006955 -0.06054421 -0.048970833 0.010673005 -0.96383476 0.025570428
-0.047680173 -0.37524128 -0.33644712 -0.29313096 -0.05180285 -0.008962855 -0.61399317 -0.038793873
0.047082037 -0.17987101 -0.0029992834 -0.04045991 -0.44801635 -0.49428666 -0.077683724 -0.10730344
-0.025210831 -0.056217767 0.013721922 -0.7073362 -0.028643444 -0.2553555 -0.18640853 -0.3543957
-0.003776099 0.050567493 -0.036509447 0.056117736 -0.018006086 -0.23223321 -0.25420848 -0.121500626
0.019771256 -0.058254957 0.13779493 -0.5055022 -0.053533 -0.0128315985 0.03561982 -0.23286065
-0.627217 -0.44559962 0.102481954 -0.019380582 -0.55121505 -0.017336331 -0.050477333 0.0006587282
-0.046273187 0.038839903 0.058410667 -0.24405026 -0.34430793 0.05907675 -0.052145116 -0.03267336
-0.5214508 0.14918695 0.03790957 -0.060856044 0.02908815 0.058674544 0.046890866 -0.016104108
-0.061081976 0.07454311 -0.6454198 -0.017455876 -0.015430242 -0.01988209 -0.13656916 0.0055778325
0.04618151 -0.81342375 -0.14559059 0.01864466 0.048245892 -0.19543025 -0.05180408 0.0015105531
-0.22822273 0.22288112 -0.065874994 -0.5443983 0.039449252 0.002265498 -0.04691913 0.019017681
0.12307831 -0.48682493 0.0062646507 0.00030539942 -0.107507825 0.012936137 0.04217568 0.048184924
-0.026824258 0.04667458 0.04800062 -0.07081529 0.029157437 0.036035687 -0.10427783 0.061318204

network.3.bias f4 [256]
00000000: 37fb b93d 7ae4 82bd 63eb abbc 7264 6d3d
00000010: 25f6 66bd cb85 a23b 8086 a73d f078 ae3d
00000020: cf10 0fbe e8b5 363e 270d 82bd f7b6 1bbc
00000030: c971 a33d 5fd8 1b3e 9d18 813a 96fb 6fbc
00000040: 265b f1bc 6fe5 753d 81d6 4fbd df28 2f3e
00000050: cf97 013e a77b 033e 7e3f 953d e7c2 453d
00000060: cd36 b9bb fa7b e0bd 5da4 b93d 9ff0 c8bb
00000070: 0c57 153e 7de0 823e 432d 3cbd dba8 60bd
00000080: 627d b5bb 92ac 0ebc 8db9 4a3e 1700 e23d
00000090: a037 d4ba cf2c 423e 2e52 44bc 28ae 54bd
000000a0: 2c8a 01bc 7a33 22bd a767 1b3e 4f16 743d
000000b0: 9470 e7bc 8c50 31bb fb67 90bd 0f3e 773d
000000c0: aed5 a73d 385d 6dbd 2cdf 33bd b609 ad3d
000000d0: 1f3e 6f3e 2df3 33bd d066 52bd fae5 233d
000000e0: 1d49 893e a9be a2bc 88ac 1cbc e1bf d53d
000000f0: a1df 023e ca26 17bd 83c4 5abd 4ad1 9bbd
00000100: 573a 083e c999 073e 08d2 303d 75ff 39bd
00000110: e1ba 813b 9a78 3c3d 28ef 8a3e cb99 fb3d
00000120: 858a 83bd f935 ce3d 4a31 8a3d 3629 38bc
00000130: 7848 c6bb b3af 7ebc f7e0 da3d 403f 033e
00000140: 35be 13bd 6cfc 87bc 5a62 b73c f6b7 303e
00000150: 38cb 053d 8494 c53d 49b8 cc3d ba68 8fbd
00000160: edca d8bc d06f b53d 8fd5 72bd 4a2f 5fbc
00000170: 5266 2a3d 95d6 cd3d c047 19bd 97b0 c33d
00000180: bb0b 7cbd 24c1 7abc 38d2 17bc f40b 18bc
00000190: ef86 4bbd 76e5 3bbd 8dec 893d 8c2f 803d
000001a0: ac75 f33d 9b05 c7bc b602 fa3d 4977 8dbd
000001b0: d0f5 99bd 60ec d93d 436f 5e3d f40c d6bb
000001c0: 515d a23e 6d04 853d 9ff1 a5bc d199 a4bc
000001d0: 47c4 4c3e 5a83 88bd eb93 f6bc bd4e 183e
000001e0: 03cf 793d ff51 c6bb 718d 5c3d 552f 573d
000001f0: 97c1 d2bb 2cfa 833d 1b92 13bd 971b 8abd
00000200: 0b4c 983b 9c49 1b3e dd38 a93d 663f 003e
00000210: d551 083e 8a57 8b3d 2189 92bd d496 59bd
00000220: c37e 6a3d fe7b 663d 5953 d13d 7fdd 263d
00000230: 5ac7 6dbe 8562 133e f96e 1d3e 2613 6bbd
00000240: 597e 8a3d 1ae2 633e 25fd 2bbd 43f9 d1bc
00000250: 2b31 913d 5fa5 9fbc 2a20 9c3d 72e4 3b3e
00000260: e955 82bd e46e 86bc f97b 243e ef3c bd3d
00000270: 4cae 3f3e dff0 c23d 99a8 e63d 971a 0fbd
00000280: f3b0 043e 665c 153e 370c 033b 62ba fe3d
00000290: dacc 693c 7c43 1c3e 0fe1 003d ae2e ff3d
000002a0: 4e44 b23d 097e 933d 966f a33d 522b dd3d
000002b0: d646 fabb 3095 643d 4ab9 f63d ec7b 973d
000002c0: ef93 54bd a42f 08bd 506e e8bc 75a1 7c3d
000002d0: 12a4 513d f79d f8bc 39ed 03bd f01b 9a3d
000002e0: a2af 323d ca25 273e 221a 32bd 03d6 a33d
000002f0: e3bd 213e a1df 3f3e 511c 323e a12e ce3d
00000300: f1b0 c63d 516a 3ebd 1557 863d ab03 40bd
00000310: 3195 c63d 2f6e 6bbc 4226 2b3d 7341 17bd
00000320: 89f6 e13b 6585 8cbd 7608 eb3d 1448 d73d
00000330: d8dc d3bc 7b53 2c3e 47fd d43d 24a3 bcbc
00000340: 616c 8fbd f666 683d b998 843e 7eb0 9ebc
00000350: 6b2d 38bd a01a 71bd 4585 f33d d7e7 1cbd
00000360: cecc b73c 3ab9 a6bc 4535 01bd ad04 113e
00000370: 4958 553e 112b d33d b0a7 f53d f778 e9bc
00000380: 1405 713d d455 943d f7d5 e7bb 5855 b03d
00000390: 1ab7 df3d e76b 1b3e 3bfd b3bc cf71 c5bc
000003a0: bd5c 133e 9d97 633d ad8c 873c afbf ca3d
000003b0: 54d2 1abd f3fa a03d 878b 933d 6ac6 05bd
000003c0: 89cb 60bd 29c3 943d fec1 be3d e9de 533d
000003d0: 0e01 493d 3687 9dbd 7e63 153e 4492 c63d
000003e0: 7a3a bd3d 654b 82bd 70fe 58bd 0dcd 1e3d
000003f0: 649b ccbc 5796 903d e21f 0d3e f3fc 47bc
0.090811186 -0.06391235 -0.020986265 0.05795712 -0.056387085 0.004959797 0.08179951 0.08519161
-0.13971256 0.17842829 -0.06350165 -0.009504071 0.07980687 0.15219258 0.0009849254 -0.014647385
-0.029462408 0.060033258 -0.050741676 0.17105435 0.12655567 0.12840138 0.07287501 0.048281576
-0.0056522847 -0.10961147 0.09064553 -0.0061322 0.14583987 0.25561896 -0.045941602 -0.054848533
-0.0055386284 -0.008708136 0.19797345 0.110351734 -0.0016190894 0.18962406 -0.011982484 -0.0519239
-0.007906478 -0.039599873 0.15176259 0.059591588 -0.028251924 -0.0027056066 -0.07051083 0.060361918
0.08195053 -0.05795023 -0.043914005 0.08449118 0.23363541 -0.043933082 -0.05136758 0.040014245
0.26813594 -0.019866304 -0.009562619 0.104369886 0.1278062 -0.036902227 -0.053410064 -0.07608278
0.13303505 0.13242258 0.04316905 -0.04540964 0.0039590453 0.046013452 0.27135587 0.12285193
-0.06422905 0.10068888 0.067476824 -0.011240294 -0.0060511194 -0.01554482 0.1068744 0.12817097
-0.036070067 -0.016599856 0.022385765 0.17257676 0.032664508 0.09647468 0.09996087 -0.07002397
-0.02646395 0.08859217 -0.059285697 -0.013622114 0.041601487 0.10050694 -0.03742194 0.09555166
-0.061534625 -0.015304837 -0.009266429 -0.009280194 -0.04968923 -0.045873128 0.067345716 0.06259069
0.118876785 -0.024294665 0.12207548 -0.069075175 -0.07517588 0.10640788 0.054305326 -0.006532306
0.3171182 0.06494985 -0.020256815 -0.020092877 0.19996749 -0.06665678 -0.03009983 0.14873786
0.060988437 -0.006052255 0.053845827 0.052535374 -0.006431769 0.06444201 -0.03602801 -0.067435436
0.004647737 0.15164798 0.08262799 0.12524185 0.13312466 0.06803806 -0.071550615 -0.053122357
0.057249796 0.056270592 0.102209754 0.04073858 -0.23220578 0.14393051 0.15374364 -0.05739131
0.0676238 0.2225422 -0.041989464 -0.025631553 0.07089456 -0.019488035 0.07623322 0.18348864
-0.06364042 -0.016410299 0.16062917 0.09240138 0.18718833 0.09518599 0.11262626 -0.034937467
0.12958126 0.14586028 0.0019996294 0.124378935 0.014270032 0.15260118 0.031464633 0.12460075
0.08704434 0.07201774 0.07980268 0.10799278 -0.007637839 0.05580634 0.1204706 0.07396683
-0.051898893 -0.03324856 -0.028372914 0.061677415 0.05118186 -0.030348761 -0.032208655 0.0752486
0.043624528 0.16323009 -0.043481953 0.07999804 0.15795092 0.18737651 0.17393614 0.100674875
0.09701718 -0.04648811 0.06559578 -0.046878498 0.09696425 -0.014369532 0.041784532 -0.03692765
0.0068958444 -0.068613805 0.11476223 0.10511795 -0.025862142 0.1682872 0.10399871 -0.02302701
-0.070030935 0.056738816 0.25897768 -0.019371267 -0.04496519 -0.058863282 0.118906535 -0.038307037
0.022436526 -0.020351995 -0.031544942 0.1416194 0.2083446 0.10310949 0.119948745 -0.028500063
0.058842734 0.07242933 -0.007075067 0.08610028 0.10923596 0.1517788 -0.021971336 -0.02410212
0.14390846 0.05556451 0.016546572 0.09899842 -0.03779824 0.07860365 0.07204347 -0.032659926
-0.054881606 0.07263786 0.09314345 0.051726256 0.04907327 -0.07691805 0.14588735 0.09695867
0.09239669 -0.063620366 -0.052977026 0.03876977 -0.02497644 0.07059925 0.13781694 -0.012206304

network.6.weight f4 [256, 256]
00000000: 14f0 40be 2c64 df3c 6453 853c a393 8fbd
00000010: 1c97 a0bc 6f06 05bd fdc5 dc3c e419 78bd
00000020: 8863 913d 19b4 9e3a 8aa1 56bd 2875 8fbc
00000030: e6fb 3e3d f351 ab3d 2b55 86be 6268 01bd
00000040: f0be 823c 8277 a4bd b9b7 fe3c fde4 62be
00000050: 3fe1 e53d c4f8 86be 67db e0bd 36c3 34bf
00000060: 1a52 33bf 5f82 733e e52f 863d a08f 3c3c
00000070: 4602 9abd c40e 7a3e b66b 623d 768c 343d
00000080: 889b 423c a625 283d 41ef 783e cf97 3dbd
00000090: 1167 023d caf9 c8bd 9755 743d 6c1f bdbc
000000a0: 006b 8139 36b0 2ebc a8c1 8bbc 5d3e b3bd
000000b0: e045 34bd 20ca 66bd 6034 2cbb 7787 9dbe
000000c0: fe9c 29be 0032 953a 90c1 f0bb 8ffa 1ebe
000000d0: 6cb5 193e 4099 5bbb 3092 b8bc 8781 14bf
000000e0: f525 003e c9e1 eabc 00b4 253d 35f7 1ebe
000000f0: f232 83bd 32bb 62bd 4883 b9bc b10b cb3b
00000100: 415c e8bc 2b32 f2bc ec11 59be f8e5 703c
00000110: cc27 2abd ab0f e03c 22d1 583e c176 d8bd
00000120: bc89 ab3c b2e2 dbbd 0125 d6bd 40fa a33b
00000130: 8610 3dbd 98e0 75bc 64ab 38be 0756 b43b
00000140: e031 0fbc acf8 943c 90a5 cdbe a2bd 37be
00000150: bc88 983e e23b 5dbd 4fef 133e 16eb 2cbd
00000160: cda9 c1bc 6c21 eebc c0c0 73bb 88ea e3be
00000170: 87c7 24be 6dac 90bb acd8 de3c 1c1f 11be
00000180: 1648 013d b048 203c b6f2 3bbd 407e f0bb
00000190: 50d4 ebbb f231 b43c c38f 2a3d b1f1 84bd
000001a0: cae1 7a3c 681e ccbc 69cf a1bc e024 a23c
000001b0: 40d3 2dbd ab15 b9bd e255 d83d 50d3 8e3b
000001c0: 0c68 4f3e fc73 473b 04cc 153d 6a83 7bbd
000001d0: 2102 11be 5ea6 b039 f2f0 313d fac1 d13d
000001e0: 97e3 dfbc fb03 36bd 486f d3be 20f4 ffbe
000001f0: 5ace 51bd b04e 9d3d a097 e73b 3056 cd3b
00000200: 3f4d 983d a540 35be 641d a43d 18ea bd3c
00000210: ee51 2c3d 57c3 5ebd c85a 20bc f817 abbc
00000220: 6296 57bd 6834 35be d45b 1fbe 1fc4 adbe
00000230: f07a 833e 5f59 963e 3561 d3bd b06c 9c3b
00000240: 82f7 8cbe d809 73bd 64e1 233d 2a6b 00bd
00000250: 62c1 9dbe bcfa 233d 2185 05bd ac9f db3d
00000260: ea50 58bd 0063 3bbb 6fa4 6ebe 62b0 99bd
00000270: 05a1 c9bd 2b26 f3bd 0cdb 9dbe 00ad c23b
00000280: fac2 aabd ec97 03be 63d1 0ebf c829 113e
00000290: fd0d 123d a254 52bd 8219 0abe bdd5 e0bd
000002a0: 22e3 0f3d b592 99be c6d9 33bd df27 993d
000002b0: 2ef3 54bd c675 d6bd 6a85 12be cb67 8dbe
000002c0: 8414 f23c 62e4 9d3c 63d3 f43d 1723 b93d
000002d0: 73e8 59bd ce53 0b3d 6d9c 13bd b7b3 0cbe
000002e0: 72b1 47be a5ce 0fbe 12e2 5b3c e732 13be
000002f0: d3e4 0f3e 23de 8b3e d139 8abd 6219 80bd
00000300: 6e89 a9be 04f5 fe3c b60c 78bd 787b 51bc
00000310: 7cdd c2bd d8af edbc 94c3 16bd 4034 643c
00000320: 0430 6b3d d093 d1bc 8507 0cbe 6ab8 87bc
00000330: a3fa 1a3c 0cd0 ca3b 6969 f33d d824 43bc
00000340: 195d 8e3d 3907 1cbe 550a 10bc 7c72 32bd
00000350: 146b 96bc ec0e 0f3d e1fd a8bd 1ceb 7ebd
00000360: e231 26bc 30aa a6bb d8b2 983c 8015 d93b
00000370: 8035 85bd 999c 803b 954e 25bd 6017 853c
00000380: 2359 6abe 5ccb 58be 0031 d4b9 0979 a4be
00000390: fd90 35be 83d5 15be a2be 6fbd d6b2 463d
000003a0: 9810 1c3d 4fed 78bd 295b 1ebe c7e7 7ebe
000003b0: 465d 083d 1eaf 3bbb 9131 8fbe c81b 463c
000003c0: fe26 063d 044c dfbd fba5 5abe d79d 29be
000003d0: 35ed eabe ea16 7bbd 1d5a 1e3c 7bd9 4fbc
000003e0: 0ac6 053d 0030 fc38 0c84 5cbd bfb1 1ebf
000003f0: f051 78bd a494 4cbd 82f5 d83e 6296 3f3d
-0.18841583 0.027269445 0.016275115 -0.07010581 -0.019603305 -0.03247684 0.026949877 -0.060571566
0.07099062 0.0012108117 -0.05240015 -0.01751192 0.046626948 0.0836524 -0.26236853 -0.031593688
0.015960187 -0.08030607 0.031093465 -0.22157665 0.11224603 -0.26361668 -0.10979348 -0.7061037
-0.7004715 0.23780201 0.06552104 0.011508852 -0.07519965 0.24419695 0.055278502 0.044079266
0.011877902 0.04105153 0.24310018 -0.046287354 0.031836573 -0.098132685 0.059651937 -0.023086272
0.0002468452 -0.010662129 -0.017060116 -0.08752129 -0.04401195 -0.056345105 -0.0026276335 -0.30767414
-0.16563794 0.0011382699 -0.007347293 -0.15525268 0.15010613 -0.0033508092 -0.022530645 -0.58010143
0.1251448 -0.028672116 0.040454865 -0.1552399 -0.064062014 -0.055354305 -0.022645608 0.006196462
-0.028364303 -0.029564938 -0.21198243 0.014703266 -0.04154186 0.027351221 0.21173528 -0.105695255
0.0209397 -0.10736598 -0.10456277 0.0050041974 -0.046158336 -0.015007161 -0.1803413 0.0055034193
-0.0087399185 0.018184982 -0.40165377 -0.17943433 0.2979182 -0.054012187 0.14446758 -0.042216383
-0.023640538 -0.029068671 -0.0037193745 -0.4451487 -0.16091739 -0.004415086 0.027202927 -0.14172024
0.031562887 0.009782955 -0.045885764 -0.007339269 -0.0071969405 0.021996472 0.041641008 -0.064914115
0.015312621 -0.024916843 -0.019752221 0.019792974 -0.04243779 -0.09037336 0.10563256 0.0043586865
0.20254534 0.0030434122 0.036571518 -0.061404623 -0.14160968 0.0003369329 0.043442674 0.10242076
-0.027330203 -0.04443739 -0.41295838 -0.4999094 -0.051222183 0.07681024 0.0070676357 0.006266378
0.074366085 -0.17700441 0.08013418 0.023182914 0.04207032 -0.05438551 -0.009787269 -0.020885453
-0.05263365 -0.17695773 -0.15562373 -0.3393869 0.2567973 0.2936506 -0.10321275 0.0047736987
-0.27532583 -0.05933556 0.04000987 -0.0313522 -0.30811602 0.04003404 -0.032597665 0.10723814
-0.05281154 -0.0028592944 -0.23304914 -0.075043455 -0.09845165 -0.11872514 -0.30831182 0.0059410334
-0.0833797 -0.12850922 -0.5578825 0.14176095 0.03565787 -0.051350243 -0.13486293 -0.10978267
0.03512872 -0.2999474 -0.043908857 0.07478308 -0.051989727 -0.10471682 -0.14308706 -0.2761825
0.029550798 0.01927394 0.11954381 0.09039896 -0.053200196 0.03401547 -0.03603785 -0.13740431
-0.19501284 -0.14043672 0.013420599 -0.14374886 0.14052133 0.27317914 -0.06749309 -0.062548414
-0.33112663 0.031122692 -0.060558997 -0.012785785 -0.09514901 -0.029014513 -0.03680761 0.013928473
0.05741884 -0.025583178 -0.13674743 -0.016567428 0.0094591705 0.006189352 0.1188534 -0.01191064
0.06951351 -0.1523713 -0.008791526 -0.043566212 -0.018361606 0.03492634 -0.082515486 -0.062235937
-0.010143729 -0.005086206 0.018639967 0.0066248775 -0.06504345 0.003924918 -0.040358145 0.016246498
-0.22885565 -0.21171325 -0.000404723 -0.32123592 -0.1773109 -0.1463223 -0.05853141 0.048510395
0.038101763 -0.06077319 -0.15464462 -0.24893104 0.033292077 -0.0028638314 -0.27967504 0.0120915845
0.03275203 -0.10903171 -0.21352379 -0.16564117 -0.458841 -0.06130115 0.009665039 -0.012686129
0.032659568 0.00012025237 -0.053836867 -0.6198997 -0.060625017 -0.049946442 0.42374808 0.046774276

network.6.bias f4 [256]
00000000: f6b3 763f 8a41 7c3f 2b22 003f 8a92 cf3f
00000010: 5964 3f3f 01fd bd3f 9473 633f d0a9 993f
00000020: 2e32 763f 8438 6e3f 1d0c 983f 10bb c1bd
00000030: 4ea2 98be a7a7 d93f a5fe 2c3f d497 753f
00000040: 199a 6d3f 8e2f 723f 5830 253f 9452 ee3e
00000050: 504e a03f a54b bdbd 275a b03e 6959 5b3f
00000060: 6070 733f 725d 543f baef 4c3f dd0e 853f
00000070: dd1f 963f 022a 003f 9233 8c3f b1e0 643f
00000080: c624 853f 8001 67bd a07a 943f f1b4 9e3f
00000090: da2f c63f 9589 6d3f ed77 743f 93be 8c3f
000000a0: dfe0 afbd ff60 753f 861a 6d3f 7105 70bf
000000b0: 542d 243f e3c3 733f 8cf6 943f f3b5 85bd
000000c0: 4c2b 763f fc30 7fbc ca29 6e3f 1a93 8e3f
000000d0: 996e 0940 6af7 973f 7dab 8f3f 958f 613f
000000e0: 9ae7 443f cc24 613f 3cdc 7f3f 1c7b 813f
000000f0: bdf2 813f 1d93 793f 5876 9ebd 1169 683f
00000100: e2af 783f edb3 603f 2bbf f43c f6a5 753f
00000110: eb7c 893f 1edc 7ebd 9933 6d3f 35fd 80bd
00000120: d4f2 833f 7ef1 6b3f 54ab 803f d2e6 5e3f
00000130: 2ba6 c13f aebf 783f 2b3c 743f c212 6f3f
00000140: 55fc 5f3f 8a1b 693f 6570 673f 293d 993f
00000150: 1204 4c3f c32b a53e 02c6 cf3f 4bea abbd
00000160: 7016 463f 40ae 743f 4d91 ae3f d4a2 6d3f
00000170: 70f7 083f c506 d23f 3dfd 743f 544d 72bf
00000180: 2c61 8dbd 8032 643f b15c 743f 64d2 5e3f
00000190: 1522 853f 5449 573f 2326 36bd 1be3 623f
000001a0: 865b 173f db04 903f 1f77 8d3f a429 463f
000001b0: 43ec 573f 69ab a53f fdc9 423f fac1 663f
000001c0: 8d2a 963c 4f60 823e b9da 513f abf5 973f
000001d0: 7892 c83f 3533 c7bd cf0d 5e3f 13e4 6a3f
000001e0: 6dd2 8c3e 22e0 d03f 1b9e 6c3f 9711 b7bd
000001f0: 1437 1c3f 3781 133e e556 843f dd65 623f
00000200: 6cd7 5b3f a414 753f 5c50 5b3f 2215 733f
00000210: b6a4 66bd c843 8a3f 5a93 903f b760 663f
00000220: d794 343f cf0f 883f 1486 663f 7f0a 613f
00000230: e635 98bd 3b51 d23f fd55 753f 7dc2 7a3f
00000240: 479a 6c3f 8935 8f3f feaa 923f 64f0 793f
00000250: 6ec0 593f 136c 453f 4711 503f 5eb4 adbd
00000260: 983d 913f 6c21 b73f d7f1 24bf b4be c33f
00000270: 7feb 993d 71f5 2bbe 419f 6abf 4583 8bbd
00000280: b27b 4b3f 3f3e 633f 471f 4ebd 93a2 763f
00000290: 7891 713f 7058 023f b4e2 8f3f 7a81 a93f
000002a0: df46 773f 4fd8 933f 25f7 4f3f a836 6b3f
000002b0: eb34 623f 5f47 713f 90a7 893f 57ff 883f
000002c0: 3c5a 823f 7081 113f d148 b93d 807e 733f
000002d0: cee1 c0bc a2fb 94bd b1c2 80bd 4b9c 893f
000002e0: 1461 6a3f c9d6 413f e3f8 6f3f 6348 ba3f
000002f0: b402 5a3f 37d7 c13f 368d 983f d680 753f
00000300: aa79 d43b 80ab 843f c908 093e a0c4 613f
00000310: eb42 cd3e 01d8 6a3f f79a ca3e fefa 7a3f
00000320: 8b22 6b3f 4e50 6e3f 94ec b03f 744d 5c3f
00000330: 8ae2 603f f889 853f 61d6 733f 3588 c5bd
00000340: 2334 383e 1ec2 843f fe75 733f a68b a23f
00000350: 7180 8f3f 18ea a03f 77f2 483f e05f 3c3f
00000360: 28d0 7f3f 199a 39bf 3b49 993e 863e 2ebe
00000370: dca1 6b3f c5cf 643f 7003 673e 3755 813f
00000380: 6997 b13f 48a3 963f 6b20 0b3f cfbb ad3e
00000390: 79bc 593f 4dfa 9d3f 67d9 21bf 9f31 683f
000003a0: 1b19 403f 5733 36bd 9d58 7f3f 5be1 4f3f
000003b0: 48cb 7f3f bf8b 8abd ce81 643f 76e2 8fbd
000003c0: b85e 563f 33f3 733f 9718 973f 3e28 623f
000003d0: c787 7ebd ccfe 7d3f 8d5b 663f 167f 753f
000003e0: 39f3 903f e508 753f f507 6f3f ec0c 6f3f
000003f0: 61fe 5c3f 2401 643f da82 043f 25ab 8c3f
0.9636835 0.98537505 0.50052136 1.6216595 0.74762493 1.4842836 0.88848233 1.2004948
0.9617032 0.93054986 1.1878697 -0.094595075 -0.2981133 1.7004288 0.67576057 0.95934796
0.9281326 0.9460381 0.6452689 0.46547377 1.2523899 -0.09242944 0.3444378 0.85683304
0.95093346 0.82955086 0.80053294 1.0395161 1.1728474 0.500641 1.0953238 0.8940535
1.0401847 -0.056397915 1.1599922 1.2398969 1.5483353 0.9278806 0.9549549 1.0995659
-0.08587813 0.9585113 0.92618597 -0.937583 0.64131665 0.95220774 1.163774 -0.06528845
0.96159816 -0.015575644 0.93032515 1.1138642 2.1473753 1.187238 1.1224209 0.88109714
0.76915896 0.8794677 0.99945426 1.0115695 1.0152203 0.974901 -0.07737416 0.9078532
0.97143376 0.87774545 0.029876312 0.9595636 1.0741247 -0.06222164 0.92656857 -0.062982954
1.030848 0.9216536 1.0052285 0.87070954 1.5128835 0.9716748 0.9540431 0.93388
0.87494403 0.91057646 0.90405875 1.197179 0.7969371 0.3225995 1.6232302 -0.08394297
0.77377987 0.95578384 1.3638092 0.9282658 0.5350256 1.6408316 0.9569891 -0.94649243
-0.069033 0.89139557 0.95453936 0.8703978 1.0401026 0.84096265 -0.044469964 0.88627785
0.5912403 1.1251482 1.1051978 0.7740729 0.8434488 1.2942935 0.7608946 0.90139735
0.018330837 0.25464103 0.8197437 1.1871847 1.5669699 -0.09726564 0.8673982 0.91754264
0.27504292 1.63184 0.9242875 -0.08938902 0.6102154 0.1440476 1.0339018 0.8843668
0.8587558 0.9573462 0.85669494 0.9495412 -0.056309424 1.0801935 1.1294968 0.89991325
0.7053961 1.0629824 0.90048337 0.8790664 -0.07432155 1.643104 0.9583433 0.97953016
0.9242291 1.1188213 1.1458433 0.9763243 0.8505925 0.77118033 0.81276363 -0.08481668
1.1346922 1.4307075 -0.6443152 1.5292573 0.075156204 -0.16792847 -0.9164925 -0.06812147
0.7948562 0.88766855 -0.050322797 0.9634182 0.9436259 0.50916195 1.1241059 1.3242638
0.96592516 1.1550387 0.8123649 0.91880274 0.88361996 0.9424953 1.0754261 1.0702924
1.0183787 0.5683813 0.09047092 0.951149 -0.023545172 -0.07274558 -0.062871344 1.0750822
0.9155438 0.7571836 0.93739146 1.4553341 0.85160375 1.5143803 1.1918094 0.95899713
0.00648423 1.0364838 0.13382258 0.8819065 0.40090117 0.91735846 0.39571354 0.98039234
0.91849583 0.93091285 1.3822198 0.86055684 0.8784567 1.043273 0.9524899 -0.0964512
0.17988639 1.037174 0.95101917 1.2698867 1.1211072 1.257144 0.7849497 0.73583794
0.99926996 -0.7250076 0.29938683 -0.17016038 0.9204385 0.8937953 0.22559905 1.010413
1.3874332 1.176858 0.5434634 0.3393235 0.8505321 1.2342011 -0.63222355 0.90700716
0.7503831 -0.044482555 0.9974459 0.8120324 0.9991956 -0.06764936 0.89260566 -0.07025616
0.8373828 0.9529297 1.1804379 0.88342655 -0.062141206 0.99216914 0.89983445 0.9589704
1.1324226 0.95716697 0.93371516 0.9337909 0.8632565 0.8906424 0.51762164 1.0989729

network.8.weight f4 [3, 256]
00000000: fded d63e 13d9 bfbd a2db c33e ed5d 823f
00000010: 70ed 26be 5cfe 7d3f 67a7 12be 996d 663e
00000020: 1ede 5dbd de7a d6bd 1e52 d33f 6d02 aa3d
00000030: 4f53 2dbf 8414 643f 389e 1b3f 6c92 d1bd
00000040: 2f3f a4bd cffe 27bd f365 10bf 59a2 dd3e
00000050: 757f 1f3f 6d26 1b3d abb7 953e 3ab3 293d
00000060: 924f 8e3e d858 2cbd 8409 893d 31a9 03be
00000070: 1026 033f 5910 2b3f 16e1 843e 5a58 dcbd
00000080: 5cc1 ccbd 8c3c c13c b608 6b3e 7c17 103f
00000090: 86d9 923f 24a6 26bd f9ce e53d 80b7 f13e
000000a0: 4bdb 5b3c 87b0 d2bd 7503 d2bc 1769 a0be
000000b0: b054 b43c 878d eebd 9cf8 f63e 7cb6 003d
000000c0: d2fc fbbd 3a43 383e 1605 1fbe 8868 933e
000000d0: 9139 0540 d442 bd3e e402 e73e 3794 1cbd
000000e0: b724 643f 7ce6 11be 96ce b7bd 979b e83d
000000f0: 84d3 ffbd 9c3d e23e fb26 de3b 473f ddbd
00000100: c955 c83e ff4a 9fbd 6fcd d5be e45e e83e
00000110: d42f 5e3e 65ec 8fbc e551 2bbd ed05 963b
00000120: 5ca6 4abd 834a 2b3d e8fc d1bd 1aff cfbd
00000130: 89bf 4a3f 1330 ecbd 7006 c4bd fc4e 27be
00000140: 49ef 2bbe 0a29 09be 5279 f5bd 370d e43e
00000150: dedb a5bd 831a 283f 6cdf 793f e6d9 8a3c
00000160: 4966 bc3e 321d ffbd fe6f b63e b6c8 0abe
00000170: bd94 003f e2aa 833f 33a6 f23e 5737 7abe
00000180: 7e32 9ab9 1e8b cabd c6f5 93bd ec1e 063f
00000190: 1320 6b3f 2224 a4bd 4da4 e23c 8318 17be
000001a0: bef3 35bd 7cfa 0d3e 09a4 483e a068 e43b
000001b0: 69c5 67bd eb26 833f 7b28 13be ae74 093f
000001c0: 2484 8c3e 12f9 413e 57df 1ebe 8d75 fb3e
000001d0: cc7b 313f 254f 16bb e25b 06be 4234 b3bd
000001e0: 305e c13e 9d8f 803f 2d76 16bd 1b50 ba3b
000001f0: b82a d03e 27d1 a23e 0cca b93e 5ccc d6bd
00000200: 73ba 973e 48e2 4ebd 3218 2abd 13e8 673e
00000210: 4ae9 e13d 6489 103f 33a8 a23e 770b 34bd
00000220: 354e c13d 317f b83e c2dc c3bd 23c8 b5bd
00000230: 5c6d ca3c 4023 913f 8d02 13bc 96b1 f8bd
00000240: 64db ac3c 4fe4 2b3f fddc 933e a6e4 c1bd
00000250: fb86 07be 286f 72bd efa6 1fbe 10d9 d3bc
00000260: 042b ba3e db71 3d3f a3c4 01bf dcbf 4f3f
00000270: 4afd 043f 60d3 573e 0a24 2ebe 038a 683c
00000280: 5444 2cbf 78dc b8bd 7b75 423d 6ec9 2dbc
00000290: a807 01be 3bf3 91bd b1a4 b33e 22ec fb3e
000002a0: ec80 f1bc 0d85 a33e f7c8 1bbe 8f1e 58bf
000002b0: f2b9 d0bd c6b0 c7bd bcb0 363e d189 103f
000002c0: 18a7 02be 2cb5 9bbd 7e31 713f c63e f5bd
000002d0: 84b0 f1bb 77f0 b73d 7a73 583c 6834 163e
000002e0: b30a 10be 84bc 73bf 6b0e a5bd ae8a 513f
000002f0: a80f 56be 65a1 333f 58a0 043f 5d69 9bbd
00000300: b24d 23be 6524 0b3e abd7 083f 7273 ccbd
00000310: 0d16 bd3e 19bf 1cbe 91de 9e3e 0f70 3a3e
00000320: 4378 f23e d7c1 b13e 6c5e 413f 534b 9cbd
00000330: 3362 ddbc 4fb8 9ebd e16c 4a3f d85a 14bc
00000340: 617e 8d3e cf85 c0bd 281d d5bd 7685 903e
00000350: e586 3d3e f235 443f 31a9 f33e e31d 52bf
00000360: 6927 ecbd 7283 80be 1530 d13d badc edbd
00000370: a1a3 17be ea4a cf3e f8e3 a3be 7080 f6bd
00000380: b496 713f 092d 573e 5393 233f 57ac 6c3e
00000390: 6101 643f a181 203f 4572 083c 4cc5 08be
000003a0: 472c 3fbf 2cca 9ebc ef12 1cbe 69a3 00be
000003b0: ae72 28bd d61a 9e3b 67a4 ed3d 55ca 1b3d
000003c0: 59f7 2bbe 1ac7 f6bd 86dd f13e ed0c 7bbd
000003d0: f278 96bc 40f1 b7bd bfce d0bd 7af1 a6bd
000003e0: 6ade 903e 58bf dabd 8f6d 5dbd 406a e9bd
000003f0: b975 20bd d05b 4b3e 2504 e63d 97fa 033f
0.41978446 -0.093675755 0.38253504 1.0184914 -0.16301513 0.99216247 -0.14321671 0.22502746
-0.054166906 -0.10472654 1.6509435 0.08301244 -0.67705244 0.89093804 0.607883 -0.10233006
-0.08019864 -0.04101449 -0.5640556 0.43287924 0.6230386 0.037878443 0.2924169 0.04143069
0.27795082 -0.042076916 0.06691268 -0.1285751 0.51229954 0.6682182 0.25952977 -0.10759039
-0.09997818 0.023588441 0.22952542 0.56285834 1.1472633 -0.040685788 0.112211175 0.47210312
0.013418983 -0.10287576 -0.025636414 -0.31330177 0.022013038 -0.11648088 0.4823655 0.03142403
-0.12304081 0.17994395 -0.15529284 0.2879069 2.0816386 0.36965048 0.45119393 -0.038227286
0.8911852 -0.14248079 -0.0897495 0.113578014 -0.12491515 0.4418763 0.006779549 -0.10803085
0.3912795 -0.07777976 -0.41758296 0.45384896 0.21697932 -0.017568776 -0.041826148 0.004578343
-0.04947506 0.041819107 -0.10253316 -0.10156079 0.7919851 -0.11532607 -0.0957154 -0.16338724
-0.16790499 -0.13394561 -0.11986031 0.44541332 -0.08098577 0.65665454 0.9760654 0.016949605
0.36796787 -0.124567404 0.35632318 -0.13553128 0.50226957 1.0286524 0.47392425 -0.24435173
-0.0002941079 -0.09889816 -0.07224612 0.52390933 0.91845816 -0.08014704 0.027666235 -0.14755444
-0.044421904 0.13865083 0.19593824 0.00697048 -0.05658475 1.0246252 -0.14370911 0.53693664
0.27444565 0.18942669 -0.15514885 0.49113122 0.69329524 -0.0022935357 -0.13120988 -0.08750202
0.37767172 1.0043827 -0.036733795 0.005685819 0.40657592 0.31800196 0.36286962 -0.10488197
0.29634437 -0.050508767 -0.04152698 0.22647123 0.110308245 0.5645964 0.3176895 -0.043956246
0.09438745 0.3603454 -0.095635906 -0.08876064 0.02471035 1.1338882 -0.008972776 -0.12143247
0.021100707 0.67145246 0.28879538 -0.09467439 -0.13235085 -0.059188038 -0.15591024 -0.02586034
0.36360943 0.74001855 -0.5069067 0.8115213 0.5194899 0.21076727 -0.17005935 0.014193061
-0.6729176 -0.09026426 0.04747532 -0.010607107 -0.12600577 -0.07126471 0.35086587 0.49203593
-0.02948042 0.31937447 -0.15213381 -0.8442163 -0.10191716 -0.09750514 0.17840856 0.5646029
-0.12759054 -0.07602915 0.94216144 -0.11974864 -0.0073757786 0.08981412 0.0132111255 0.14668429
-0.14066581 -0.95209527 -0.08059391 0.81852233 -0.2090441 0.70168144 0.51807165 -0.07588456
-0.15947607 0.13588102 0.53454083 -0.09982957 0.36930886 -0.15307273 0.3102918 0.1820681
0.47357377 0.347182 0.755347 -0.076315545 -0.027024364 -0.07749998 0.79072386 -0.009054862
0.27635482 -0.09400522 -0.10405952 0.28226823 0.1850849 0.76644814 0.4759002 -0.82076854
-0.115309544 -0.25100285 0.10214249 -0.11614366 -0.14808513 0.40486842 -0.32009864 -0.12036216
0.9437058 0.21013273 0.63896674 0.23112617 0.89064604 0.626978 0.008328025 -0.13356513
-0.74676937 -0.019383512 -0.15241598 -0.12562336 -0.041124992 0.0048249764 0.11603623 0.038034756
-0.16793574 -0.12049694 0.4723932 -0.061291624 -0.018368218 -0.08981562 -0.10195684 -0.08151527
0.28294688 -0.10681027 -0.05405956 -0.11397219 -0.03917477 0.19859242 0.11231259 0.51554245

network.8.bias f4 [3]
00000000: 3ffb 0fbf 5c19 1ebf 345f 3ebe
-0.56242746 -0.61757445 -0.18591005
