mountaincar_cl_project/mountaincar_cl/runs/abrupt/none/seed_1/online_stream_model.pth (torch, 536437 bytes, 8 tensors)

network.0.weight f4 [256, 2]
00000000: 0c57 5b3e ff65 3740 b3a6 a93e ebe5 2b40
00000010: b9d8 d43e 3910 cbbe 8321 4d3f 2405 403f
00000020: cba5 b13e d740 2640 208b c63e 0421 213f
00000030: ebe1 d83d e5ed 2c40 005f 39be a1b3 d73f
00000040: 2e4b ff3d 95bb fabf 7160 253f e4bd 22be
00000050: a564 373f ad2e 3540 def5 00bf ee39 e9bf
00000060: b23b bdbe 1080 db3d 6bf6 d6be d888 02c0
00000070: 5d22 12be ea63 2f40 e04b ff3d 3233 d23e
00000080: a86c c1bd 5055 7a3e 202d e93d e6f7 29bf
00000090: f654 94be c7b0 0540 e0dd 2bbd f3a9 dbbe
000000a0: eb7f 5d3f f6c7 003f 4982 033f 11d9 2cbf
000000b0: fd09 cdbe 5a3f e5be ca09 373f 10f7 a4bf
000000c0: 923e 543f c731 fe3f 2d45 c0be f28e 3cc0
000000d0: e429 d2be bf71 e4be 46f9 e53e 23ba d0be
000000e0: 9db7 d5be 09cf cfbe 5951 cc3d 225e 76c0
000000f0: 511a 703e ce8a 0f40 53a0 a4be c7b6 0440
00000100: 98b5 3cbe 607b 0abe 52c0 033f 83ed be3f
00000110: c3ae 13be 7625 1840 5060 343d 005a 993d
00000120: c666 833d a7ee 4640 5728 18bf 900a c8bd
00000130: ce74 ab3e c825 b93f cd5b 0a3f c836 883e
00000140: 3cda 463e fa7a fc3e aa1e f63e 1675 d73e
00000150: 90ab 9bbd e24d 8c3e 767b f1be ca93 f83e
00000160: e28d fcbe 81ae f4bf 0bf1 f03e 3182 4f3c
00000170: 0ff6 cbbe 5c30 36c0 d55a 363f 156d 1840
00000180: e9f2 c23e f4a6 1b3f 6cfd 9f3e 3a59 3040
00000190: 7af4 7e3e 047e b03e bd88 24be eec2 ed3d
000001a0: 4990 8c3d 0446 8ac0 1b21 b53e 323b ae3f
000001b0: a769 403e 96a3 4440 e36c 22be 9c43 d23f
000001c0: 1fa3 73be 2980 cfbf 04af f2be 03dd fb3f
000001d0: 1306 f33d c480 5a40 340a 11bf 4b6d 2fbe
000001e0: 4cb6 9c3f 3f46 d33d 08f7 8e3e 79e8 053f
000001f0: b24f 913e a9f6 d73f 5d87 213f b697 0640
00000200: 41e7 aabe 8d60 27c0 2a8b e4be 1064 8b3d
00000210: c807 f43d 8c81 2c40 77dd 9bbe cf50 2dc0
00000220: 534b 0e3f 4ac9 02bf 1fd0 023f 46cd 7ebe
00000230: a4ed 3cbe 000b a03b 97c5 b13e 5194 c63f
00000240: 1679 293f fc02 9d3f 9d9d 483e c5f4 fb3f
00000250: 2c37 aebe 0ede bc3d b7d9 89be e37d f53f
00000260: 92cf ca3e c6b4 eabe 0859 25bd e85e 34c0
00000270: f1c2 dbbc 5db4 1640 86ef aebe afc4 9abe
00000280: e19b 16bf afce fb3c dd7c 5c3d f9c6 1140
00000290: 3d4a de3e 1185 b73d 8bf2 0c3f fd8d 6b40
000002a0: cc06 20bf 7a4f c63e 80c7 e43c c425 28be
000002b0: ea7a 063e 8b62 32c0 250d e5bd 67ee 1940
000002c0: 6178 263f afea bc3f ad12 403f 936c 2e40
000002d0: ce8c 5ebe 267a 0bbf fbac ebbd f1f7 8f3f
000002e0: 0429 293d 7a75 93c0 8144 65be 6468 fc3f
000002f0: d37e 243f 1401 bebe 0034 b63e eeb2 e9be
00000300: 487d d4be 400f 47c0 7bb4 e13e cdd7 2d40
00000310: 000d a93b 309f 66bd da7e 6abe 8a79 933f
00000320: 726c cd3e fc76 19be f16e 873d bbdb 6dc0
00000330: 97b3 0c3f 4314 4c40 0284 45be 9dc5 2240
00000340: 67ed 203f 5738 333f d06e 203f 141e 173f
00000350: ca31 62be 7aa2 1940 5c75 0d3f 5aaf 80be
00000360: 780f abbe a3bf 993f 8023 e2be 82e8 1540
00000370: 3038 3d3d a032 2b3e 7f5b 313f 8a5b b83e
00000380: 85d6 863d 63cc 3340 ecd7 333e 2a03 d13e
00000390: 781f b7bd af98 203f eb78 ca3e 909b 1c40
000003a0: bcfb 493f 034e 6940 29e1 08be df22 dc3f
000003b0: b468 3f3f 3039 f63f 1b57 2b3f 26fe 72be
000003c0: bfcd 293e df7c 4440 f2b1 9f3e 2a96 993e
000003d0: 264e fd3e c595 34bf 0f87 14bf 00d8 aebf
000003e0: 949e a73e 09cf d03f c6ae 06bf b30f f4be
000003f0: fe2b a4be d0c2 0d40 f226 b9bc 6c33 983f
0.21419924 2.8656003 0.33134994 2.685908 0.41571596 -0.39660814 0.8012926 0.75007844
0.34696802 2.5977075 0.3877802 0.62941 0.105899654 2.70202 -0.18102646 1.6851693
0.12465511 -1.9588495 0.6460028 -0.1589275 0.71637946 2.8309739 -0.50375164 -1.8220804
-0.36959606 0.10717785 -0.41984877 -2.0396023 -0.14270921 2.7404733 0.12465644 0.41054684
-0.09444553 0.24446607 0.1138556 -0.6639389 -0.2897107 2.0889146 -0.041959643 -0.42903098
0.8652331 0.50305116 0.51370674 -0.6751872 -0.40046683 -0.44774896 0.7149931 -1.2887897
0.82907975 1.9858941 -0.37552777 -2.9462247 -0.41047585 -0.4461803 0.44916743 -0.4076701
-0.41741648 -0.40587643 0.09976453 -3.8494954 0.23447539 2.242847 -0.32153568 2.0736558
-0.18428648 -0.13523626 0.5146533 1.4916233 -0.14422135 2.3772864 0.044037163 0.07487869
0.06416087 3.1083162 -0.59436554 -0.0976764 0.33487552 1.4464655 0.54046327 0.26604295
0.19419187 0.49312574 0.4807027 0.42081517 -0.07601082 0.2740317 -0.47164506 0.48550254
-0.49326998 -1.9115754 0.470589 0.012665317 -0.39836165 -2.8467016 0.7123235 2.3816578
0.3807595 0.60801625 0.31248033 2.755446 0.24897948 0.34471142 -0.16067787 0.116094455
0.06863458 -4.321047 0.3537682 1.3611815 0.18790303 3.0724845 -0.1586185 1.6426883
-0.23792695 -1.6210986 -0.4739915 1.9676822 0.11866393 3.4141092 -0.56656194 -0.17131536
1.2243133 0.10316133 0.27922845 0.5230785 0.28381115 1.687215 0.6309717 2.1030097
-0.33379558 -2.615268 -0.44637424 0.06806195 0.11915547 2.695407 -0.30442402 -2.7080572
0.55583686 -0.5108839 0.5109882 -0.24882993 -0.18450028 0.004884124 0.34721062 1.5514013
0.6620039 1.2266536 0.19591375 1.9684073 -0.34026468 0.09222041 -0.26923916 1.9179043
0.3961149 -0.45841044 -0.04036811 -2.8182926 -0.026826354 2.3547585 -0.34167117 -0.30228183
-0.588316 0.030738203 0.053830016 2.2777693 0.43416014 0.08960927 0.5505759 3.6805413
-0.6251037 0.3873251 0.02792716 -0.16420656 0.13132825 -2.7872646 -0.11184148 2.405176
0.65027434 1.475912 0.75028497 2.7253768 -0.217334 -0.5448326 -0.11507603 1.1247541
0.04129888 -4.6080904 -0.22389413 1.9719357 0.6425602 -0.37110198 0.35586548 -0.45644325
-0.41501832 -3.1103058 0.44083008 2.7162964 0.0051590204 -0.056304157 -0.22899953 1.1521466
0.401218 -0.14986795 0.06612957 -3.7165363 0.5496153 3.1887367 -0.19288638 2.5433114
0.6286225 0.7000784 0.62669086 0.5903027 -0.22089306 2.4005418 0.552572 -0.25133783
-0.3341024 1.2011608 -0.4416771 2.3423162 0.046196163 0.1671853 0.69280237 0.3600734
0.06583885 2.8093498 0.17562836 0.40822726 -0.08941549 0.62732977 0.39545378 2.4469948
0.7889974 3.6453865 -0.13367142 1.7198142 0.7476914 1.9236202 0.6692979 -0.23729762
0.16582392 3.0701215 0.3119045 0.2999738 0.49473685 -0.7054103 -0.58018583 -1.3659668
0.32738173 1.6313182 -0.52610433 -0.47668228 -0.32064813 2.2150154 -0.022601578 1.1890693

network.0.bias f4 [256]
00000000: 5260 a63d 61e7 0d3e 42af 1a3e ce54 5e3e
00000010: 5514 163e ec60 e93d 1541 ab3c 9237 8abd
00000020: 0f3d 0dbd 8333 80be 8ff9 a33e fea6 02bf
00000030: 18bc 05bf 7085 99be 1783 57bd 9f83 f0be
00000040: 1a96 cbbe 30de a2bd ec5e c5bd 4042 03bf
00000050: 6682 d53e 46bc bebe 97f7 d5be 64f5 8f3e
00000060: d8c7 a03e 43a3 37be 0e36 cbbe f17d 0fbf
00000070: 2f4e efbe c667 623d 6481 c83d be83 e1bd
00000080: f1b2 e3be 1756 113e 279e 35bd 3ace 1dbf
00000090: 3c25 f33c 473d 17bf 48f5 a83d fbb5 bdbe
000000a0: b8da f0be 8866 e6bd 0861 f5bd 27b2 11bf
000000b0: 91c9 abbe 0f41 4b3e c182 c7be b9e3 883e
000000c0: b8c5 193e ce79 a73d 91d7 02bd 6187 f3bd
000000d0: 6ad6 ea3c e8d5 af3d c7c4 493d 8220 39be
000000e0: a5be 85be 1ecb 22be 6c0c 453d f612 0cbf
000000f0: 036f b0bb d84d 00bf 275d 963d b54c 9c3e
00000100: 772f a7be a3c5 26bf a2a6 a83c b7e3 a2be
00000110: 47a4 2dbf a429 43be a240 20bf 473c b53d
00000120: 3ed9 603e d4f6 30bd 7632 71be 00ad 9fbd
00000130: bcdb b9be 315b 35bd 3add ccbd a7b8 a9be
00000140: 0eec cbbe feea 6fbd 0e3a a73c 751f 153e
00000150: 3488 1cbf bf30 e5be 5cd6 643d dacb f1bc
00000160: e7be 4c3e 5e75 913e 8fef 1dbf 8bac fbbd
00000170: fe36 ed3c 19eb 14be 4a96 20bf 0bfe eabc
00000180: b193 cfbe f145 3e3e 1a13 17bf 1e84 75be
00000190: a6cd 2dbf 84f6 513c dfc7 673e f352 99bd
000001a0: 5c28 fbbe 8237 723e 86a0 a4bd e0cc 863e
000001b0: f418 89be 8bd4 19be 889c e1bd df67 2fbf
000001c0: 596c a93c 63e9 14bf d06c 04be f261 2a3e
000001d0: f3b2 b43e a3e1 25be d137 8f3e af63 e7be
000001e0: 9cce 853d 0c00 1cbe b90e d3be 100a 03bf
000001f0: 59f9 213d cba8 1dbf 869f e1bd e33f 71bd
00000200: 99bf d8be d136 1dbe b204 bab9 8c21 e3bd
00000210: 0161 ddbe 22e1 60be 8ebe 69be 0f39 d4bd
00000220: a638 bcbd fa53 f33d 3427 acbe 0cf4 dcbe
00000230: d8b1 d0bd 02e9 dc3d 38af 31bf 22d1 08bf
00000240: ef15 0c3e 9601 513e e0a4 6abd 0969 073e
00000250: d004 68be c7c0 7fbd 2c3f c73e fc19 74be
00000260: 9ccb f1be 958a 22bf 07e3 203e f040 edbe
00000270: 3615 b1be 10e9 0bbe 2c0f 48be f36c 38be
00000280: 641a 12bf a806 88bd 897a 8abe 4617 0bbe
00000290: 1f79 61bd 11ba 62bc 9731 fbbd ba30 a2bc
000002a0: 7033 21be 809d 82bd 7662 a3be d8f1 073e
000002b0: f815 bdbd 6021 4a3d c8b8 a43e 5253 79be
000002c0: 8123 92be dec4 d23d abd1 183e b071 74be
000002d0: ec15 87bd 9e97 993d 64dd 15bf 2b07 83bd
000002e0: 7c19 83be c228 4a3c 5676 963d 01b4 603e
000002f0: a530 403d a7cc 89be e87f c2be 9546 fc3d
00000300: 915e 30bd ee9a 2cbe d25a 303d c97e 403e
00000310: 1906 ccbc d150 993e fc61 843d ea77 62bd
00000320: 35c8 2dbf ffb3 edbe b401 aabd 1c3b 30bd
00000330: 575d 14bf cb33 14bd d720 25bd 05ec 48bd
00000340: fab3 a3be 7864 d2bd 90e1 f5bc 3fab 123e
00000350: 5752 11bf 9a44 aebd 4c64 21bf c49b 2bbf
00000360: 4098 babc a1a8 f4bd ac8e 4bbd 812b e0be
00000370: e0cd c53c 35a8 7f3e b4ae c7be 1a17 5fbd
00000380: 8223 433e 9685 05bf ae02 03bf a0d4 eabc
00000390: 33f6 be3d 88c7 79be 8e67 debe ec2c 563d
000003a0: 60a7 e2bd c33d 7cbc 4c48 48be 829e 383d
000003b0: 61b7 dbbe 1aa7 2bbf 4462 643d 2e9f fdbe
000003c0: 429e 4cbd 0fa5 9b3e 4900 473e 7aba 953e
000003d0: 3428 c2be dad8 03bf d0ab 4ebe aa85 91bd
000003e0: 4ef1 67be 0af0 1bbf 512f 88be dbfe eebe
000003f0: 008e 94bd 16fa bdbe e775 c7be d11a 23bd
0.081238404 0.13857795 0.15105918 0.21712038 0.14656194 0.113954395 0.020905057 -0.067488804
-0.03448206 -0.250393 0.32026336 -0.5103606 -0.52240133 -0.29984617 -0.05261525 -0.4697542
-0.39762956 -0.07952535 -0.096372455 -0.51272964 0.4170105 -0.37253016 -0.4179046 0.28116906
0.3140247 -0.17933373 -0.39689678 -0.56051546 -0.46739337 0.055274747 0.09790304 -0.11011456
-0.4447246 0.14192997 -0.04434028 -0.616428 0.02968084 -0.59077877 0.08249909 -0.37052903
-0.4704187 -0.11250025 -0.11981398 -0.56912464 -0.3355222 0.19849037 -0.38966945 0.2673624
0.1501683 0.08177529 -0.03194386 -0.11891056 0.028666694 0.08585721 0.049259927 -0.18078807
-0.26122013 -0.15897796 0.04810755 -0.5471643 -0.0053843274 -0.5011878 0.07341986 0.30527273
-0.326534 -0.6514532 0.02058727 -0.31814358 -0.6782879 -0.19058853 -0.6259862 0.088493876
0.21957871 -0.043204144 -0.23554406 -0.07796669 -0.36300457 -0.04427642 -0.10003133 -0.3314869
-0.39828533 -0.058573715 0.020413425 0.14562781 -0.6114533 -0.44763753 0.05586849 -0.02951615
0.19994698 0.28409857 -0.6169366 -0.12288769 0.028956886 -0.14542808 -0.6272932 -0.02868559
-0.40542367 0.18581368 -0.5901352 -0.2397618 -0.6789192 0.012815122 0.22634839 -0.074865244
-0.4905423 0.23653987 -0.0803843 0.26328182 -0.2677685 -0.15022485 -0.11016184 -0.6851787
0.020681547 -0.5816862 -0.12932134 0.16638926 0.35292777 -0.16199355 0.27972272 -0.4519324
0.06533548 -0.15234393 -0.4122217 -0.5118723 0.039544437 -0.6158568 -0.11016755 -0.058898818
-0.42333677 -0.15352942 -0.00035480183 -0.11090383 -0.4323807 -0.21960881 -0.22826597 -0.103624456
-0.09190492 0.11881252 -0.3362366 -0.43154943 -0.10190171 0.1078663 -0.6940799 -0.5344411
0.13680242 0.20410761 -0.057286143 0.13223661 -0.22658086 -0.062439706 0.38915384 -0.23838037
-0.47225654 -0.6349271 0.15711604 -0.46338606 -0.34586495 -0.13663125 -0.19537038 -0.18010311
-0.5707152 -0.066418946 -0.27046612 -0.13583097 -0.05504715 -0.013838307 -0.12265318 -0.019798625
-0.15742278 -0.06377697 -0.31911057 0.1327585 -0.09232706 0.049348235 0.32172227 -0.2434819
-0.28542712 0.10291456 0.14923732 -0.23871493 -0.06595978 0.07499622 -0.5854094 -0.063978516
-0.2560538 0.012338819 0.073467895 0.21943666 0.04692139 -0.2691395 -0.3798821 0.1231815
-0.043058936 -0.16855976 0.043055363 0.18798365 -0.024905251 0.2994447 0.064640015 -0.05529014
-0.67883617 -0.4642639 -0.08301106 -0.04302512 -0.57954925 -0.036182206 -0.04031452 -0.04905321
-0.3197325 -0.10273069 -0.030014783 0.14323138 -0.56766266 -0.085091785 -0.63043666 -0.67034554
-0.022777677 -0.11946226 -0.04969661 -0.4378319 0.02414602 0.2496651 -0.39000475 -0.05446539
0.19056514 -0.5215696 -0.51175964 -0.02866584 0.093243025 -0.24392521 -0.4343838 0.052288935
-0.110670805 -0.0153955845 -0.19558829 0.04507304 -0.42913345 -0.6705185 0.055757776 -0.49535507
-0.049955614 0.30399367 0.19433703 0.29243833 -0.37921298 -0.51502764 -0.20182729 -0.071055725
-0.22650644 -0.60913146 -0.265986 -0.46678814 -0.07253647 -0.37104863 -0.3895714 -0.039820496

network.3.weight f4 [256, 256]
00000000: 18ba 42bd 86f3 283d 363a a6bd ce0d 40bd
00000010: 83ae 133d ac46 f93c ff9c b0bd 226b d53c
00000020: ce9f a9bb 04bd 963c 0c7d e63c e4dc 463d
00000030: e0fb 033c 564b 1ebd d861 c9bc 8c26 183d
00000040: 82ac 4ebd 74a5 46bd bfa7 103d 7826 fe3c
00000050: cc6a 4cbd 601f 9fbb 1052 75bc 0df3 103d
00000060: a2f4 c03b d00c 89bd f6c7 8c3d ec43 d83c
00000070: 7086 71bc 1b3d 85bc efca beba 2a21 b53c
00000080: d426 6dbd 9373 30bd 4133 173d 125d 65bd
00000090: b4dc 983c f850 553c 0b91 25bc dc1c 383d
000000a0: b878 c83c f2fb 7cbd 40d1 9a3c 9839 59bd
000000b0: 1764 743d ffce a4bd 36ea 1cbd 65f2 9cbd
000000c0: bec0 ce3c 8dbd ef3c 10be 41bc e17f 62bc
000000d0: acf4 2f3b e412 373d 6c70 0fbd ba10 3bbd
000000e0: 453b 2bbd 65ca 22bc c62f 9bbd e0ae 673c
000000f0: 30c7 dfbc 24e3 a03c cb5e 393d b68f 0ebd
00000100: 9324 bc3b cce3 97bc 37f8 9bbd 1d6e f0ba
00000110: e00f f7bc 4abe 15bd f28b 29bd 4ad7 153d
00000120: e3a2 f2bb ae6d 32bd a29e 3bbb 9484 b3bc
00000130: 188b 0b3c 09a7 43bd 2ce0 0dbc db74 07bd
00000140: 8b32 01bd b1cd 10bd f031 74bd 3f8a dabc
00000150: 78df 5bbd bca6 b2bc c5c0 2bbc cc12 043d
00000160: b59c 8e3b 8c4e 02bc 0292 6c3d 6629 edbc
00000170: 494c d63c 6166 113d 90a5 6ebc 60be fe3c
00000180: 2b6c 2fbd 9b00 ddbc a091 123d e8c7 d0bc
00000190: f03a b5bb d461 e6bb 5539 54ba 5c1f 8abd
000001a0: c48e 29bd 7fb3 c9bb 95fa 48bc f8d9 1dbd
000001b0: 2524 ecbc ee1f 0fbd 40e9 fbba b46b cc3c
000001c0: 7462 a0bd e01d ba3b 3494 62bd a7ed bc3c
000001d0: 5d66 cebc b9db 30bd 41f1 1a3a 7ca0 003d
000001e0: 0da4 7dbd a604 4d3d 1a8d 1abd e00c 4cbb
000001f0: f91c 07bd 1e6b 0bbd 691d c23c 6bb9 92bd
00000200: ccf8 f3bc abba 54bd 8c95 bebc d560 9cbc
00000210: 00fe 97bb 39da 4b3d fe83 41bd c82f 4abd
00000220: 040a 093d b997 69bd 0c26 95bc d1ae 523d
00000230: a64d 773d 5cb3 723d c4c8 123d be34 1d3d
00000240: 8769 fa3b 2883 45bd 12c9 313c 0a1e 22bd
00000250: 80a1 353a 52d2 5ebd 4275 aebd b572 fdbc
00000260: 8e3c 573d b8f3 f2bc 72a4 013d 18f7 de3c
00000270: 0446 a13c 4c1b 7d3d 001a bf3b d6c2 f9ba
00000280: d8b2 75bc 319d 48bd b3b5 3abc 9ade e13c
00000290: 8abb 86bd 6af8 b4bd 676c 39bd a38e 3cbd
000002a0: 64f5 13bd e8e4 b03c 086a 4ebd 78e2 d23c
000002b0: 704e c03c 256a 31bd 654e b0bc e82e 1a3c
000002c0: 8a45 41bd d0b1 4e3d 75e8 e93c 5664 76bd
000002d0: ae75 46bd e65e 5a3c 4c58 263d e5be acbd
000002e0: 4af6 06bd 4b95 8abc f6de e73c 1853 b03b
000002f0: 2913 ea3c 1c77 703d 3d95 a93d b8c0 6e3d
00000300: e33d 67bd 1bc5 423c c781 513c 84d4 743d
00000310: 48ed 01bd 960b 3cbd 64f7 cb3c 9c9c 3bbd
00000320: e00d fa3b 181e 12bd 5f30 93bb b87b 70bd
00000330: a87d 4cbc 4452 64bd 3e8e a53b bcdd ad3c
00000340: 162b 7c3d 60e2 5cbc 106b 92bd 2ff3 62bd
00000350: 1411 9b3c 0090 15bd 6823 78bd 048c fb3c
00000360: 24db d7bc a199 d1bb a0f6 013c 6020 6bbd
00000370: 4f5e 133b bca1 b93c b8d1 ffbc 3802 d43c
00000380: 8e67 143d a836 3dbc e679 79bd 2875 57bd
00000390: fb55 c83c 646b c23c e50d 55bd 9623 aebd
000003a0: 5442 babc 5229 14bd a079 2bbd 9597 33bd
000003b0: ea0d 74bd a8ee 903c 5695 85bd 2858 e7ba
000003c0: f98a d23c 89c5 4c3c 57b0 683c d789 4dbd
000003d0: 0049 303c 60fa 53bd 0c54 03bd 9ae0 09bc
000003e0: c4d0 ab3b 60e4 f13b 5841 bcbc 565a 273d
000003f0: 5dce e53c b395 a83c 70e6 a63c c405 873c
-0.047540754 0.041247867 -0.081165716 -0.046888165 0.0360551 0.030429207 -0.08623695 0.026052061
-0.005176521 0.018400677 0.028135799 0.0485505 0.008055657 -0.038646065 -0.024582788 0.037146136
-0.050457485 -0.048497632 0.035316225 0.031024203 -0.049906537 -0.004856035 -0.0149731785 0.03538804
0.0058885375 -0.06691897 0.06874077 0.026399575 -0.014741525 -0.016264489 -0.0014556329 0.02211054
-0.057898358 -0.04307897 0.036914114 -0.055996962 0.018659927 0.013019793 -0.010105382 0.044949397
0.024471626 -0.06176371 0.018898606 -0.05303344 0.059665766 -0.08047294 -0.0383093 -0.076634206
0.025238391 0.02926519 -0.0118251 -0.013824434 0.0026848717 0.04469575 -0.035019323 -0.04567025
-0.04180457 -0.00993595 -0.075774714 0.014140815 -0.02731666 0.01963956 0.045256417 -0.034805022
0.0057416647 -0.01854124 -0.076157026 -0.0018343363 -0.030158937 -0.036558427 -0.041393228 0.03658227
-0.0074046715 -0.04356163 -0.0028628488 -0.021913804 0.008517049 -0.04776672 -0.008659404 -0.033070426
-0.031542342 -0.035352413 -0.059617937 -0.026677249 -0.053679913 -0.02180802 -0.010482972 0.03224449
0.004352177 -0.007953297 0.05775643 -0.028950404 0.026159422 0.035498027 -0.01456584 0.031096637
-0.042827766 -0.026977828 0.03578341 -0.025485948 -0.0055307075 -0.007030705 -0.00080957013 -0.067442626
-0.041395918 -0.006155431 -0.012266775 -0.03853795 -0.028825829 -0.03494256 -0.0019219294 0.0249537
-0.078312784 0.005679831 -0.05531712 0.02306254 -0.025195295 -0.043178294 0.00059105834 0.03140305
-0.06192403 0.05005326 -0.03773222 -0.0031135604 -0.032986615 -0.0340377 0.023695664 -0.07164272
-0.029781722 -0.051935833 -0.023264669 -0.019089142 -0.0046384335 0.04976866 -0.04724502 -0.049361974
0.033456817 -0.05702946 -0.018206619 0.05143625 0.060376786 0.05925308 0.035835996 0.038380377
0.0076419744 -0.048220783 0.010851162 -0.03957943 0.00069286674 -0.054399796 -0.08518459 -0.030938486
0.052547984 -0.02965723 0.031650968 0.027217433 0.019686706 0.06179361 0.005831957 -0.0019055258
-0.014996253 -0.048978034 -0.0113958595 0.027571965 -0.06578739 -0.08836444 -0.045269396 -0.046034466
-0.036122695 0.021593526 -0.050394088 0.025742754 0.023474902 -0.043314118 -0.021521756 0.009410597
-0.04718546 0.050462544 0.028553227 -0.06015428 -0.04845207 0.01332829 0.04061155 -0.08434848
-0.032949723 -0.016916892 0.028304558 0.0053809993 0.02857359 0.05870734 0.08280418 0.05828926
-0.056455504 0.011887814 0.012787289 0.059772983 -0.03172043 -0.045909487 0.024898238 -0.04580365
0.0076310486 -0.03567323 -0.0044918503 -0.058711737 -0.012481131 -0.055742517 0.005052357 0.021223895
0.061564527 -0.013481706 -0.07149327 -0.0554077 0.018929042 -0.036514282 -0.06058064 0.030706413
-0.026349612 -0.006396488 0.007932335 -0.057403922 0.0022486632 0.022660129 -0.031227931 0.025879964
0.03623157 -0.011548676 -0.060907267 -0.052601963 0.024455061 0.023732848 -0.052015204 -0.08502881
-0.022736706 -0.03617222 -0.041864038 -0.04384573 -0.059583582 0.017691925 -0.06522624 -0.0017650174
0.025701033 0.012498268 0.014202199 -0.050180282 0.010759592 -0.051752448 -0.032062575 -0.008415366
0.0052433927 0.0073819607 -0.022980377 0.040857635 0.028052503 0.020579195 0.020373553 0.016482241

network.3.bias f4 [256]
00000000: 2cb1 a2bc 7040 483e fae5 3cba ed0d 17bc
00000010: de6e c83d ee54 833a 955f 183e 7f49 0f3e
00000020: 4950 98bc d0f7 6c3e fbf4 9cbd a692 283e
00000030: af1f 4b3e dc38 35bd 587a 14bc faca e33d
00000040: cbcb 3bbc 303f 063e 2548 30bd ba8e 54bd
00000050: 5f3e a13d 9e34 333e b779 8cbd 5210 203e
00000060: aa27 5fbd 7a13 1f3e 8db3 413e e363 5dbd
00000070: 8103 73bd 6db6 cb3d 2067 b9bc e947 013e
00000080: d6c7 d8bc 3317 ff3d 74d4 4b3e 9ba2 203e
00000090: 49ad 3dbd 1651 f43d aeba 83bd 0b09 0dbd
000000a0: e697 873c 6ade d83d 298b 16bd f447 84bd
000000b0: a3fa d63d 6857 a8bd c006 d53d 3951 f33d
000000c0: 9e70 0f3e 2354 153e 0a6c 61bd eeec 37bd
000000d0: 7bd6 143e a4e5 093e ab23 b6bc e5d3 583e
000000e0: 0111 e13d d5c5 17bc cb49 553e e95a 093e
000000f0: e3b0 0fbd 3fd5 2c3e 77fc e33d 4aba f6bb
00000100: 084e 6b3e 74ed 1ebd da92 1f3e 78ca 0c3d
00000110: 6df9 bf3d 8c55 b1bc 6598 95b8 d153 67bd
00000120: c10b 97bd e2c2 f03d 9d55 6ebd 3742 093e
00000130: 607a 0c3e 7954 47b9 1d44 073e 402e d7bb
00000140: fd5e 253e 6e1a d6bc d5a8 5e3e 8c79 6fbd
00000150: f11b 3abc 9914 323e 869a a0bd e37c 91bd
00000160: f36d 393e 6911 453e 5844 513e 95fc b4bc
00000170: 4717 2a3e 97fb a1bd 50a5 9abc d8e3 0a3e
00000180: 4cf5 62ba d622 8abd d180 98bb 492a 60bd
00000190: 76a0 1e3e 8223 d53d f128 493e 9153 8fbd
000001a0: 15be 17bd 0bc7 e73d bbb8 2e3e 7a98 aabc
000001b0: 1032 51bd d478 99bd 76fb 103e 3d92 553e
000001c0: 2ad4 203e 07e6 bf3d 6605 e83c 0694 c13c
000001d0: b37d f13d 5627 2b3e 7b7e 88bd 8176 173e
000001e0: 8162 0a3e 0480 7cbd 2a1a 483e acf8 e53d
000001f0: 99f7 2abc 03e5 5a3e 872c ccbb 6652 953d
00000200: e505 5abb 742a b63d eb95 f83d 83d3 373e
00000210: 0c41 b63d 1060 3c3e b3ae 143e 1ca7 a43d
00000220: a85f 3c3e c293 bc3d ec34 cc3d 9ba3 133e
00000230: 602d 5dbc 03aa 4fbd 86e3 92bd d296 aaba
00000240: 5d05 0b3e a728 463e d344 0b3e 18b8 fe3d
00000250: c3fa 81bc 9ef8 ddbc 524a 0e3e fa0a 8cbd
00000260: 3437 523e 2760 35bd 2cf8 c43d 0299 6bbb
00000270: ac83 073e 447d 1abb ba7e 773e 5c49 5fbd
00000280: b1e1 d8bc a9ec e23d 8e3f 493e 8f21 1b3e
00000290: e62e 2e3e 6ee9 223e f068 d93d 9fa5 1dbe
000002a0: 086c 2abd 8a21 39bd feac 363e 1812 243e
000002b0: 8faf ab3d 0dff 74bc 2ccc 85bc f819 46bc
000002c0: 46a9 a7bc af23 88bd 7638 2e3e 3136 263e
000002d0: dc81 053d ad44 62bd dd99 1f3e e529 d83d
000002e0: 2be7 143e 8bbe 53bd caea f5bc 970a 313e
000002f0: 4a6f 433e 38f5 993d 8ee7 0a3e 9918 213e
00000300: 3fb1 6f3b e011 97bc 1564 b3bc 86e1 2c3e
00000310: bff2 f73d 9b52 0abd 89e7 2a3e 905a b5bc
00000320: 1f1b 45bd b780 2fbd 0d77 273e 78b6 1b3e
00000330: 0a97 e03d d515 78bc c4ff 9ebd 39bc 72bd
00000340: e4e9 3c3e 2587 5f3e 3b35 bcbc 3d60 143e
00000350: a900 0abd c9d8 5b3e 43b5 4abd 6a56 393e
00000360: ba03 1a3e 6c5b 0b3e a5bd 43bc d2a1 9f3d
00000370: 90d3 55bc 3dc4 353e 1405 7dbc 8da3 273e
00000380: f9a5 5ebc 80e6 073e 95f6 233e 57fb 1bbb
00000390: 771f f63d 8d12 303e f849 013e 4d72 f33d
000003a0: 248b 96bc b264 3a3e fb82 9ebc 27a9 79bd
000003b0: 2750 5c3e dbf5 59bc 1d45 73ba bf97 f03d
000003c0: fbca 133e 4655 dc3c f89c 02bd 5908 323e
000003d0: f2e6 3f3e 53e5 0dbe 7c47 85bd b376 073e
000003e0: b90b 9dbd 1b22 143e 1db1 6cbd e3c0 123b
000003f0: 4b23 313e ae71 643e 4c16 193e 307c 9dbb
-0.019859873 0.19555831 -0.00072059 -0.009219629 0.09786771 0.0010019818 0.14880212 0.1399288
-0.01859297 0.23141408 -0.07663914 0.16462192 0.19836305 -0.04424368 -0.009062372 0.11122699
-0.011462162 0.13110042 -0.043037552 -0.051893927 0.078732245 0.1750054 -0.06859153 0.15631226
-0.054481186 0.15534773 0.1891615 -0.054050338 -0.059329513 0.09946904 -0.022632182 0.12625088
-0.026462477 0.12455597 0.19905263 0.15687029 -0.046307836 0.119295284 -0.06432091 -0.034432452
0.016551923 0.10589297 -0.036753807 -0.064590365 0.10497024 -0.082197964 0.10401678 0.11880726
0.14007804 0.14582877 -0.055034675 -0.044903688 0.14534943 0.13466507 -0.022233805 0.21174581
0.10989571 -0.009263475 0.20828931 0.13413586 -0.0350808 0.16878222 0.11132138 -0.0075295316
0.22978985 -0.03880067 0.15583363 0.034372777 0.09373746 -0.021647237 -7.133259e-05 -0.056476418
-0.07375289 0.11755921 -0.058187116 0.13404165 0.13718557 -0.00019009587 0.13209577 -0.0065667927
0.16149516 -0.02613565 0.21744092 -0.058465526 -0.011359201 0.1739067 -0.07841973 -0.071038984
0.18108349 0.19244923 0.20436227 -0.022093097 0.16610442 -0.07909315 -0.018877655 0.13563478
-0.0008657768 -0.06744926 -0.004654028 -0.054727826 0.15490898 0.10407163 0.19644524 -0.06998361
-0.03704651 0.11317261 0.17062657 -0.02082466 -0.051073134 -0.07493749 0.14158425 0.20856567
0.15705934 0.09370046 0.028322887 0.023630153 0.11791553 0.16714224 -0.06664749 0.147913
0.13514139 -0.061645523 0.19541231 0.11229071 -0.010435008 0.21376424 -0.006230894 0.07291107
-0.0033267674 0.08894816 0.121379696 0.17951779 0.088991255 0.1839602 0.14519767 0.08039686
0.18395865 0.0920787 0.099710315 0.1441788 -0.013499588 -0.050699245 -0.07172303 -0.0013014919
0.13576265 0.19351445 0.13600473 0.12437457 -0.015866643 -0.027096089 0.13895538 -0.06838031
0.20528871 -0.04428115 0.096176475 -0.0035949354 0.13233823 -0.00235732 0.24169436 -0.05451332
-0.026474806 0.110802956 0.1965315 0.1514952 0.17010078 0.15909359 0.10615718 -0.1539521
-0.041606933 -0.045198 0.17839429 0.16022527 0.083830945 -0.014953387 -0.016332708 -0.012091152
-0.020466458 -0.06647431 0.17013726 0.1623161 0.032594547 -0.055241276 0.15586038 0.10554866
0.14541309 -0.051695388 -0.030019183 0.17289196 0.19085422 0.07517475 0.13564894 0.1573204
0.0036574153 -0.01844114 -0.021898309 0.16882905 0.12106847 -0.033770185 0.16689886 -0.02213791
-0.048121568 -0.04284736 0.16354008 0.15206325 0.109663084 -0.015141924 -0.07763627 -0.059261534
0.18448597 0.21828897 -0.022974601 0.14489837 -0.033692036 0.21469416 -0.04948927 0.1809937
0.15040484 0.13609093 -0.01194707 0.07794537 -0.013050929 0.1775064 -0.015443105 0.16370983
-0.013589376 0.13271523 0.16012032 -0.0023800933 0.1201772 0.17194577 0.12625873 0.118870355
-0.018376894 0.18202475 -0.019349566 -0.060952332 0.2151495 -0.013303245 -0.0009280013 0.11747693
0.144329 0.02689613 -0.03188798 0.17385997 0.18740442 -0.13857011 -0.06507775 0.13228874
-0.076682515 0.14466135 -0.057786096 0.0022392801 0.1729862 0.2230899 0.14949912 -0.004806064

network.6.weight f4 [256, 256]
00000000: a760 7cbd 512b 00bd f0fa 7fbd 433f 29bd
00000010: 2875 27bc 53b7 513c 8873 38be ea70 113d
00000020: c2fa aabc 5076 253c 3499 203c 3811 643d
00000030: 8256 5a3c 6e9a 5d3d dea6 e53b fcc8 c3bc
00000040: 9d43 593d f959 373e b1a2 363d a095 283d
00000050: 737b 603e 0a26 243d 14c1 cb3c 1efb aaba
00000060: 2d25 bbbc 9517 d73c 552b d53d aba2 7fbd
00000070: 837a 16bd 08af 8c3d 6057 12bd 5456 803d
00000080: e98d 1ebc a1fd 573e dd56 823b 652c afbb
00000090: 0ab3 34bd f942 83be a86e f73b 5934 93bc
000000a0: b341 3b3c 6c8e c6be c583 ecbc 127e 513d
000000b0: e41a 263d b8fa a7bc 6479 023d 5284 923d
000000c0: d0e7 3d3d 1861 613d 571d a7bc 3788 e3bc
000000d0: 8c4e eebc 2566 5c3d 65fd 4abd bad8 0f3c
000000e0: b6ff 0bbd 37c1 d13b f752 e83d cd32 eb3c
000000f0: 7f33 033d 83ee f03c a95b 1c3c 57d4 753d
00000100: 9bb3 063c a88b 373c b4cc c93c 4a98 84bd
00000110: 5e2d a93d 302d b73c df88 30bb 7689 ba3c
00000120: d562 49ba 6cb9 c8bb 903f 853c 9043 363d
00000130: 8612 d5bc 897e c4bc f76e 963d c9ad 8fbd
00000140: dfb3 163d afa6 2d3d 9cbe 813c 8eab 2dbd
00000150: 067a ebbb f098 db3b c42c 4abd 6496 97b8
00000160: 6d01 e53b 0f2d fc3c 359f e93c be4d e6bc
00000170: 62fb 8a3d 631e 473d faf6 793d b914 c0be
00000180: 7e40 b2bb ef82 8e3d 1ae6 13bd dca0 8d3d
00000190: eb35 debc b714 8a3d 3812 6a3d 6e39 d43c
000001a0: 3ade 9b3b d84e e73b 2a81 debc 5e78 633c
000001b0: e157 283d cd04 35bd 43f6 7f3d 4a14 be3d
000001c0: 982a cabc dcb1 a33b 5b55 18bd da82 7a3d
000001d0: 8b9b cc3d 7f16 bc3c 28b6 14bc 3fe4 9dbc
000001e0: b319 8d3d a010 d13b 0ced 6b3a d2c3 8e3d
000001f0: 8144 57bd f810 013d 1016 1ebd a441 f53b
00000200: 4096 863d 17fd 2e3c 74c4 f8ba 6652 713e
00000210: 3855 283e d417 723c 36ca a03c 2ec4 273d
00000220: e638 bb3c 59dd 9c3d 88ba 0a3d 11e6 07bb
00000230: c340 283d 273a 323b 4581 79bd 99a5 33bd
00000240: 7efc 5c3c 3299 f8b9 5d53 8a3d 4d7c a33d
00000250: 38d9 923c 95df 5fbc 1286 863d bba0 ddbc
00000260: 84ca b33d 07e0 123d 2018 99be d821 81bd
00000270: b186 953d b63a fb3c 6c08 be3c b6e0 8e3d
00000280: 0f5a 123d 0ae5 b0be 2c1b 2d3c b693 0bbc
00000290: b9b9 603d 64a0 c63d 2a70 033d e8e1 e73d
000002a0: cd54 0dbd 19d2 96bd 57bc 81bc 0586 833d
000002b0: d0d7 9bbc 5e9b 2c3d 11bb 713c c224 8e3c
000002c0: 0fd4 e03a 1fbe 09bd 1e40 99bb ff4e a73d
000002d0: 71f1 37bc a7c1 8cbe 22b2 2f3d 6496 5c3d
000002e0: 3883 893c 8552 c53c bcbd 2abc 7258 dc3c
000002f0: dd48 bbbc bba3 fb3d baf7 8c3d 4af0 713d
00000300: 9f75 14bc 7f2d aa3c 8fca 633d 1a98 183d
00000310: 9cc8 a93d bdd0 e23b 46e7 183d b828 36bd
00000320: 2b8c 4ebd 43bd 103c b530 a23d d280 14b9
00000330: 0ed9 1abd fa70 29bc 5826 313d cd98 d1bc
00000340: 8109 6d3d 8719 1a3c ba3d 86bd f872 c53c
00000350: 3c76 ecbc d595 3d3b ec51 84bd 86a6 e8bc
00000360: 84a9 143d 98c1 bbbb 6fae 11bb 1463 11be
00000370: bc7a 373d 7166 a9bc 9b9e 88bd 45bf 2d3e
00000380: 8b89 7bbb 23ad 423d d27b 193d 256d 10bd
00000390: 52e4 6c3d c454 743d f25c da3b 8742 a63e
000003a0: 4bdf ab3d cd24 d33c 647e 0f3d 2c6a c33c
000003b0: 8165 3fbc 5549 1bbd b445 373c 3706 c63c
000003c0: 3aa4 bf3c abc9 e1bc dfc6 a9bb 45c9 193d
000003d0: 3d51 583d fcb6 96bd e61b 57bc 46ca 913d
000003e0: 131b 5ebc 1ca1 143c adde 003c caef 8abe
000003f0: a127 383d 07dc d13c a84e 92be 193d 123d
-0.061615612 -0.03129131 -0.062495172 -0.041320097 -0.010220803 0.012800056 -0.18012822 0.035508074
-0.020871524 0.010099009 0.0098021515 0.055680484 0.013326289 0.054102354 0.0070084175 -0.023899548
0.053042997 0.17905416 0.04458875 0.04115832 0.21922092 0.04007534 0.02487234 -0.001304481
-0.022844875 0.026256362 0.104086556 -0.06241099 -0.03673793 0.06869322 -0.03572786 0.06266466
-0.009677389 0.21092845 0.00397764 -0.0053458684 -0.044116057 -0.25637034 0.007551033 -0.017969297
0.011429238 -0.38780534 -0.028871426 0.05114562 0.04055299 -0.020505294 0.03185405 0.07154144
0.04636365 0.055024236 -0.020399733 -0.027774913 -0.029090188 0.05380835 -0.049558062 0.008779699
-0.03417941 0.006401207 0.11343949 0.028710747 0.032031532 0.029410606 0.009543338 0.060016956
0.008221532 0.01120273 0.024633743 -0.06474359 0.08260606 0.022360414 -0.002693705 0.022770625
-0.00076822686 -0.0061256196 0.01626566 0.044498026 -0.02600981 -0.023986118 0.073453836 -0.07015569
0.036792632 0.04239529 0.01583796 -0.042399935 -0.007186177 0.006701581 -0.049359098 -7.2282535e-05
0.0069886954 0.030783204 0.028518299 -0.028113242 0.06786229 0.048612963 0.06102655 -0.3751581
-0.005439817 0.06958567 -0.036108114 0.06915447 -0.02712532 0.06742232 0.05714628 0.02590629
0.004756716 0.0070589595 -0.0271612 0.013883678 0.041099433 -0.04419403 0.062490713 0.092812136
-0.024678513 0.0049955677 -0.037190776 0.061159946 0.09990605 0.022959946 -0.009076633 -0.019273875
0.06889667 0.0063801557 0.00089998613 0.069709435 -0.052555565 0.031510323 -0.03859526 0.0074846316
0.06571627 0.0106804585 -0.0018979446 0.23566589 0.16438758 0.014776189 0.019627672 0.040958576
0.02285428 0.07659406 0.033869296 -0.0020736495 0.041077387 0.0027195306 -0.060914297 -0.043859098
0.013487933 -0.00047416385 0.067541815 0.07982693 0.017925844 -0.013664146 0.06568541 -0.027054181
0.08778861 0.03585818 -0.29901218 -0.06305283 0.07301081 0.030667644 0.023197375 0.06976454
0.035730418 -0.34549743 0.01056556 -0.008519104 0.05486462 0.09698561 0.03208939 0.11322385
-0.0345047 -0.07364292 -0.015836878 0.064220466 -0.019023806 0.042140357 0.014754073 0.017351512
0.0017153042 -0.03362858 -0.004676833 0.08169364 -0.011226998 -0.27491495 0.04289449 0.05385436
0.016786203 0.0240872 -0.010421213 0.026897643 -0.022861892 0.122870885 0.068831876 0.059067048
-0.009061246 0.020773647 0.055613097 0.03725443 0.08290216 0.006921856 0.037329935 -0.044472426
-0.050426643 0.008834186 0.079194464 -0.00014162369 -0.037804656 -0.010341877 0.043249458 -0.025585556
0.05787039 0.0094055 -0.06554742 0.024102673 -0.028864972 0.0028928418 -0.06460938 -0.028399717
0.036294475 -0.0057298653 -0.0022229215 -0.14197952 0.044794783 -0.02067873 -0.066708766 0.16967495
-0.0038381543 0.047528397 0.0374716 -0.03526034 0.05783493 0.05965115 0.006663912 0.3247263
0.08392199 0.025774384 0.035032645 0.023854338 -0.011681915 -0.03791173 0.011186052 0.024172885
0.023393739 -0.027561983 -0.005181178 0.03754546 0.05281185 -0.0735912 -0.01312921 0.07118659
-0.01355626 0.009071615 0.00786559 -0.2713607 0.044959668 0.025617613 -0.28575635 0.0357028

network.6.bias f4 [256]
00000000: 3e2e 0440 b84a e13e 5b7d 0340 8ba0 0040
00000010: 7bae 0440 131e 543e 0b33 2cbd a04a 0040
00000020: 68fc 0040 93c9 73bd a75a 5d3e d41e 0240
00000030: 3860 0240 ca3d d1bc 9d47 9d3d 82a5 0040
00000040: bd45 0240 b10d 053f 7000 61bd b134 ab3f
00000050: 7739 fb3f d6b1 96bd 9c7e eabc 2785 0040
00000060: 2bcc 0140 caa6 6abd 6fcb a3bc af45 0340
00000070: 9216 46bd 06f7 0440 cecc 0640 fe40 383d
00000080: 9fcb 15bd dcec a7bc bdf4 de3e a5a7 fe3d
00000090: 252b e93e d46a 0640 39b3 0040 cdcd fe3f
000000a0: 4d61 fb3f dd0e 0140 ac42 533e 6b6b 87bd
000000b0: d788 a33e 2247 51bd 1e98 0540 3ff2 4fbc
000000c0: 83e4 4dbd 9ea9 0340 e4e0 07b9 2243 45bd
000000d0: baa5 e63e cbad 553e 41ec 0640 245a 293f
000000e0: 28e0 0440 4f8c c23e 35fd 19bd 3fb6 8c3e
000000f0: 009d 413d 64e3 29bd 14f5 0340 8b32 ae3e
00000100: a143 75bd 39b7 bebc 293e 0440 d0c2 ddbc
00000110: 128d 0140 bba0 fe3f 90ae 203e 3dd2 0440
00000120: 26d0 0640 e151 c83e 852f 683e 2f96 0240
00000130: 3980 0340 7d6b 0140 94c2 60bd 2b59 013e
00000140: 0c49 0040 a105 d23e 8f31 3cbd 56f3 40bd
00000150: 0c83 273f 8a3c 37bd 2990 fa3f 7bdc 953e
00000160: 6a01 0140 6567 d53e ab4d acbc cecd 91bd
00000170: 1b8c 3cbd cedc 563e 3538 f3bc 22e1 e23e
00000180: 09e2 0440 7381 f63f 684e e13e b94b 36bd
00000190: 7435 ebbc b80a 3bbd ebf8 913e 4881 0040
000001a0: 6be8 0240 5156 0440 b0d8 0040 67b7 b33e
000001b0: ed8c 55bd 516f fe3f 0ad9 56bd 1288 84bd
000001c0: 9e85 0640 3781 33bd 2ae9 0040 24fc 0440
000001d0: 810c 643e ca4e 413e 5e9f ff3f 0ea3 0240
000001e0: a011 74bd d1e3 4ebd 8d8d 0640 b166 fe3f
000001f0: 0ba0 e83f b28e 0040 803f f0bc 58a6 d7bc
00000200: c086 0540 d3e8 0440 8e8f fc3f 519a 6f3e
00000210: 5250 0540 a3ab fb3f 922f 0440 f5b8 b83e
00000220: b7ae 0440 43b7 0240 20aa 87bd 5f5d f33f
00000230: ff5a fe3f 93bf fb3f 5bff 71bd ed09 0440
00000240: 28ac 0240 c0f7 5bbd 6344 0340 eb30 41bd
00000250: 4d4a 0440 e7de 9abd bd8a f93f 4470 f93f
00000260: af93 40bd 5f18 c63e 6f48 07bd 0245 0640
00000270: f93e 0440 1e98 87bd 05aa 4dbd 3cc8 0640
00000280: a3a2 2bbd aad1 52bd d7be 9cbd 69e9 4cbd
00000290: c52e aa3e ba28 1cbd ed5c ff3f 359b 8dbd
000002a0: 50d1 f93f 7ca7 dd3e dc68 52bd 5782 0440
000002b0: 0afb 0040 a686 fe3f b102 72bd ad33 0540
000002c0: 81b2 043f 1b43 6fbd ff26 0540 cb4f 92bd
000002d0: 06f8 ff3f 640d 0240 c6ce 0040 05f8 9b3d
000002e0: c717 92bd 58e4 0440 8a05 0440 a3b4 0540
000002f0: bbdc 32bd 7adf fd3f b033 f73f cbb1 0240
00000300: b43b 0240 72a3 0440 c7bb 5dbd 106e fb3f
00000310: ec51 0540 b3ad fd3f 4215 0240 a5cb 0540
00000320: 2e1f 0140 8828 40bd 83d7 febc a2b5 1bbd
00000330: fa13 0140 2028 0040 eea5 9b3e c008 9a3e
00000340: 62a5 8bbd dac7 08bc 7103 2cbd 37a7 fa3f
00000350: cafc d2bc 58b8 0140 6a2f 3e3e ad7c 2dbd
00000360: cd98 32bc fe92 93bd 3c92 fc3f 5c51 38bd
00000370: 36c2 88bc 9295 ff3f 4b31 fb3f 1c6b cd3e
00000380: bd01 fe3f 2721 0340 c25f 0240 c7e0 77bd
00000390: d98d 28bd 5600 0240 9165 7bbd 9902 0140
000003a0: 5ee3 0140 7649 0540 910c fd3f 2140 89bd
000003b0: adcf 8fbc 22d3 16bd 73d2 063e 70d2 0240
000003c0: 9d5e 07bd 75e6 47bd adf8 0540 b0ff 81bd
000003d0: edc6 0340 ffa6 b73e f69d 43bd 6768 74bd
000003e0: ce2e ae3e 2e0b 4d3e 974e 9ebc 8b31 0040
000003f0: d0de dcbc 97f4 00bd 84ba 5dbd 55de c83e
2.0653224 0.44002318 2.054526 2.0097988 2.0731494 0.20714597 -0.042040866 2.0045547
2.0154057 -0.059518408 0.21616612 2.0331316 2.0371227 -0.025542159 0.07679675 2.0101018
2.0355065 0.51974016 -0.054932058 1.3375455 1.9626912 -0.07358138 -0.028624825 2.008127
2.0280864 -0.05728797 -0.019994466 2.0511281 -0.04836137 2.077577 2.1062503 0.044983856
-0.03657114 -0.020498686 0.43546095 0.124343194 0.4554073 2.1002703 2.010939 1.9906555
1.9639069 2.0165322 0.20630902 -0.06612285 0.31940338 -0.05109323 2.0874095 -0.012692033
-0.050266754 2.0572276 -0.00012958382 -0.048159726 0.45048314 0.20867078 2.1081698 0.6615317
2.0761814 0.37997672 -0.037594993 0.27482793 0.047268867 -0.041476622 2.0618334 0.34022936
-0.05987895 -0.023280727 2.066294 -0.027070433 2.0242352 1.9892801 0.1569159 2.075332
2.1064544 0.3912497 0.22674377 2.0404165 2.054701 2.0221856 -0.054873064 0.12631671
2.0044584 0.4101992 -0.0459457 -0.047107063 0.65434337 -0.04473547 1.9575244 0.29269776
2.0157113 0.41680446 -0.021033129 -0.07119332 -0.046032052 0.20982668 -0.029689888 0.44312388
2.076296 1.9258255 0.44005132 -0.04450581 -0.028712012 -0.04566452 0.28510222 2.0078907
2.0454357 2.0677683 2.0132256 0.35100862 -0.05213635 1.9877721 -0.05245308 -0.06471266
2.1019053 -0.0438244 2.0142312 2.0778894 0.22270395 0.18877712 1.997051 2.041202
-0.05958712 -0.05051023 2.1023896 1.9875089 1.8173841 2.0087094 -0.029327154 -0.026324436
2.0863495 2.0767105 1.973131 0.23398711 2.0830274 1.9661754 2.0654035 0.3607861
2.0731637 2.0424354 -0.06624246 1.901287 1.987152 1.9667839 -0.059081417 2.0631058
2.0417576 -0.05370307 2.051049 -0.047165792 2.067035 -0.075620465 1.9495465 1.9487386
-0.047015842 0.3869047 -0.033028062 2.097962 2.0663435 -0.06620811 -0.05021097 2.1059713
-0.04190315 -0.051469482 -0.07653587 -0.050027285 0.33238807 -0.038124777 1.9950234 -0.06914369
1.9517002 0.43291843 -0.051369533 2.0704553 2.0153222 1.9884841 -0.059084598 2.081279
0.51834875 -0.058413606 2.0805051 -0.071441256 1.9997566 2.0320673 2.0126204 0.07615665
-0.071334414 2.076437 2.062838 2.0891502 -0.043667536 1.9833825 1.9312649 2.0421016
2.034894 2.072476 -0.054134157 1.9642963 2.083125 1.9818634 2.0325475 2.0905545
2.017528 -0.046913654 -0.031108623 -0.038015015 2.0168443 2.002449 0.30400032 0.300848
-0.06818654 -0.00834843 -0.04199547 1.958228 -0.025755305 2.0268764 0.18572775 -0.04235523
-0.010900688 -0.07205771 1.9732127 -0.044999465 -0.01669417 1.996752 1.9624418 0.4012078
1.984428 2.0488985 2.0370946 -0.0605171 -0.0411509 2.0312705 -0.06137616 2.0157835
2.0295024 2.0826087 1.976946 -0.06701685 -0.017555082 -0.036822446 0.13166218 2.044094
-0.033049215 -0.048803765 2.093303 -0.06347597 2.0590165 0.35869595 -0.047758065 -0.05966988
0.34020084 0.20023796 -0.019324584 2.0030239 -0.026961714 -0.03148326 -0.054132953 0.39232126

network.8.weight f4 [3, 256]
00000000: b24e cb3e 465a 3fbe 8abd 0b3f b9e8 d83e
00000010: 4d6c cc3e b990 b03e eaca dfbb 0de6 b73e
00000020: fd78 cc3e 4ea7 893c e28a 983e e9b2 e33e
00000030: ed35 d63e e9ac 263c 6deb 5a3e 9ec2 b93e
00000040: f6e4 e63e 79be f7bd 14d9 cd3c 2d04 5e3f
00000050: f6be dc3e 2275 363d 14ef a73c 078f ca3e
00000060: 08ee ab3e ce7a 9dbc 61bc 263d 0117 d13e
00000070: 3e19 a13c 2618 e83e 9e24 6d3f ad4b 9e3d
00000080: d0f4 4fbd 2b64 a1bc 264a 193f c925 093f
00000090: 51a8 25be 4533 cf3e 1b95 103f 2b6e de3e
000000a0: b469 eb3e fe80 ee3e 644b 2b3f fcb9 0d3d
000000b0: 9000 a2be 384c 0e3d cd24 cc3e 92c8 f5bc
000000c0: 6001 a0ba 5ed7 e63e ff64 2c3b 7f49 103d
000000d0: 16b2 c0bd 230f fbba 02f0 c03e b5b7 253f
000000e0: 1d26 dd3e f5ca 19be c0da 3bbd 14b4 8f3e
000000f0: 49be 21be 000a 0ebd 4f9e c03e 65ce 3c3e
00000100: 025a 833c 089b b4bc 89a7 d03e 1b19 913d
00000110: 3134 dc3e 9d44 963f 0607 60be a271 c13e
00000120: 1e64 c83e bf3c 643e 0e7a 323f abb0 e63e
00000130: 5391 d83e 46ed de3e 3b0c 0bbd 8dba 563f
00000140: 122d da3e baf6 aa3d 7ef9 50bd 0bc4 35bd
00000150: 5646 f63e 690f 523b e46b cb3e a54e aabd
00000160: 1bbf d93e 189e 75be a0ba 92bc a288 5fbd
00000170: 27b3 ecbc a4ed 923e b3b5 2ebc 95dd a53e
00000180: cd6c c83e 11cd dc3e 74cd 6dbe 2774 6bba
00000190: 46ec 9dbc ea29 b4bc 33d2 88be 8c8e e03e
000001a0: 2452 c83e 5942 d33e 08b2 d03e fc16 c33e
000001b0: 12cc 00bd 32f2 e23e 9325 b0bd 01ca 85bb
000001c0: 23b2 c53e 3247 e63c 88d1 c43e 246e 323f
000001d0: 987e c93e 3a69 d2bd e42b ce3e 4227 c83e
000001e0: f4e0 a4bc a8d1 c8bc a50c c53e a08a e33e
000001f0: 23f7 213f a122 cc3e 4bc2 27bd 58c3 1fbd
00000200: bd19 c13e fd63 e53e e9c7 e83e bca5 a93e
00000210: 951c ed3e 256a dc3e 2225 763f 5ded e43e
00000220: 307a d23e adc2 d93e c335 91bc 7b32 033f
00000230: b262 c13e 8df1 dc3e 53a1 0c3d d74c c93e
00000240: 5d0c c53e 406f 57ba ed79 d93e 7302 8d3c
00000250: eb94 d93e 079e 36bd 6a90 ef3e 0f05 013f
00000260: 46eb 27bd 58f7 0bbe 98a4 3dbc e7d9 cf3e
00000270: 8f8f d23e 3c5f 223d 48f3 2b3d 59c5 c73e
00000280: 608d 1f3d 7c3a 26bd 7ef9 3f3d 702f 6cbd
00000290: 7b7d 23be 09bc 413d 59c4 d13e 8a24 ad3d
000002a0: 3763 513f d63e 39be 3071 093c ef4f dd3e
000002b0: dbda cd3e a6e7 b33e c1a4 46bd 86c4 cb3e
000002c0: a495 9f3e c0d0 9e3c 59a9 ce3e 93be 7a3c
000002d0: 9592 bb3e 2073 cf3e 3a06 da3e 739e e0bc
000002e0: 7757 7b3c e6c4 ea3e fc5d e73e 27f2 c93e
000002f0: 1296 9ebb aa93 bc3e 3e4e 013f fd62 7a3f
00000300: c2b9 d73e ac6f e03e 6336 3abd d892 d53e
00000310: 9c37 e23e 4055 b53e c10f cc3e b6bb d83e
00000320: 25ac c43e 3a9b 9cbc c31e a2bc c6a3 c5bc
00000330: f537 d13e 4f39 c93e 116f 793e 26cd 503f
00000340: 5ba6 7e3c 3691 9f3d 815d f2bb 00b1 d13e
00000350: 57fb 3b3d 41fc da3e 29c3 473f bebb 213b
00000360: e8bd a53e e57e 1b3d a3c9 e03e 119d 13bc
00000370: ce65 6a3c 42f6 d43e 8c2c de3e fb6f 93be
00000380: 20a0 cd3e 74aa db3e 3582 d03e ad81 b6bc
00000390: e852 14bd 7190 e03e b0fe bdbc 8cad df3e
000003a0: b0cf e53e ef6e e13e cb07 de3e 0c72 143d
000003b0: 0636 0ebc 8bff 983c ab69 7f3f 35b0 b93e
000003c0: 11d7 68bb 3505 82bc 710f b93e 2b3a 5a3d
000003d0: 5cce cf3e 6f64 0abe 0d17 2abd 3459 96bb
000003e0: f77c d63e d309 783e 14ca 92bc 6b8e d73e
000003f0: 7ee6 1ebd c892 99ba 4b4a 0fbd e42c 28be
0.39708477 -0.1868678 0.5458609 0.42365053 0.39926377 0.34485415 -0.006829609 0.35917702
0.39936057 0.01680341 0.2979346 0.44472435 0.41838017 0.010173061 0.2137887 0.36281294
0.45096558 -0.12096877 0.025127925 0.8672512 0.43114442 0.0445453 0.020499744 0.39562246
0.3358004 -0.019223597 0.040706996 0.40837863 0.019665357 0.45330924 0.92634 0.07729278
-0.05077058 -0.019701084 0.59878767 0.5357328 -0.16177489 0.40468803 0.56477517 0.43443426
0.45979083 0.46582788 0.6691191 0.034601197 -0.31641054 0.034740657 0.39871827 -0.030002866
-0.0012207441 0.45086187 0.0026305316 0.03522634 -0.09408967 -0.0019154291 0.3768311 0.6473344
0.4319314 -0.15018828 -0.045862913 0.28067076 -0.15795244 -0.034677505 0.3762078 0.18438108
0.01603413 -0.02204658 0.4075282 0.070848666 0.4300857 1.1739689 -0.21877679 0.37782007
0.39138883 0.22288798 0.6971749 0.45056662 0.42298374 0.435404 -0.03394721 0.83878404
0.4261251 0.083478406 -0.051019184 -0.044376414 0.48100537 0.0032052642 0.39730752 -0.083157815
0.42528614 -0.23986089 -0.017911255 -0.054573663 -0.02889402 0.2869693 -0.010663438 0.32395616
0.39145508 0.43125203 -0.23222905 -0.00089818466 -0.019277703 -0.021992642 -0.2672287 0.43858755
0.39125168 0.41261557 0.40760827 0.38103473 -0.031444617 0.44325405 -0.08600917 -0.0040829186
0.3861247 0.02811012 0.3844111 0.6969931 0.39354396 -0.102739766 0.4026786 0.3909245
-0.020126797 -0.024514034 0.3848621 0.444417 0.63267726 0.3987017 -0.040956777 -0.039004654
0.3771495 0.44802848 0.4546502 0.33134258 0.4631087 0.43049732 0.9615041 0.44712344
0.41108847 0.42531338 -0.01772583 0.512489 0.3777061 0.4315304 0.03433354 0.39316437
0.38485995 -0.00082181767 0.42475834 0.017213082 0.42496428 -0.0445843 0.46789867 0.50398344
-0.04099586 -0.13668573 -0.011574887 0.40595934 0.41125152 0.039641604 0.041980058 0.39017752
0.038953185 -0.04058312 0.046868794 -0.057662427 -0.15965836 0.047298465 0.40970114 0.08454235
0.81792015 -0.18090376 0.008388802 0.43225047 0.40206036 0.3513767 -0.048496965 0.39798373
0.31168854 0.01938665 0.40363577 0.0153042255 0.3663527 0.4051752 0.42582875 -0.027419304
0.015340677 0.45853347 0.45188892 0.3944256 -0.004839667 0.3683141 0.50510013 0.97807294
0.4213391 0.438352 -0.045462023 0.41713595 0.44183052 0.35416603 0.3985577 0.42330712
0.38412586 -0.019116987 -0.019790059 -0.024125945 0.40863004 0.39301535 0.24358775 0.8156303
0.015542592 0.07791369 -0.0073964004 0.40955353 0.045893993 0.4277058 0.78032166 0.0024678553
0.3237145 0.037962813 0.43903837 -0.0090096155 0.014306499 0.4159413 0.43393362 -0.28796372
0.40161228 0.42903483 0.4072434 -0.022278631 -0.036211878 0.438602 -0.023192734 0.43687093
0.44885015 0.44029948 0.4336532 0.036241576 -0.008679872 0.01867654 0.9977061 0.36267248
-0.003552858 -0.015871624 0.36144593 0.05327813 0.40587127 -0.13514875 -0.04152589 -0.0045882706
0.41892216 0.24222498 -0.017918624 0.42100844 -0.038794033 -0.0011716718 -0.03498296 -0.16423374

network.8.bias f4 [3]
00000000: 4012 913f 4418 a53f 06a8 d33f
1.1333694 1.289803 1.6535652
