mountaincar_cl_project/runs/progressive/fixed/seed_1/online_stream_model.pth (torch, 536437 bytes, 8 tensors)

network.0.weight f4 [256, 2]
0.059218876 -2.096714 0.026948543 1.4539763 0.5826406 -0.4084297 0.21154419 -1.9638683
0.13894387 -0.39633295 -0.06302356 1.7431937 -0.5746215 -1.1856614 0.052723587 1.714961
0.58846766 -0.04294318 0.06597768 -2.2838907 -0.22836843 -2.1803062 0.088376485 -1.6538327
0.16474307 1.9466519 0.4175679 0.4395097 0.44378334 1.6175812 -0.10162534 1.7259018
0.0069244504 -0.38081092 0.40662172 -1.1685076 0.58543396 0.6637974 -0.1049965 0.004427612
-0.30876073 1.1619779 -0.18944769 -1.0165517 0.3528549 1.136261 0.14975578 1.6862673
-0.42329445 -0.076000035 -0.37239465 -1.0166345 -0.08258229 1.5771887 0.23174661 0.46911627
0.3671664 2.0283327 0.024912158 -1.3517386 0.34136093 -1.7627078 -0.43128192 -1.9845053
0.59684306 1.7771958 0.6496789 2.0589414 0.38242805 1.8386918 0.10966635 -0.48223776
0.0059013176 -1.4914632 -0.5728411 -1.8375474 0.06094108 -2.5054264 -0.6616641 -1.1057522
-0.24703185 1.4510157 0.251862 2.2843127 -0.2843307 -3.1014125 0.22431022 0.024929523
0.5874651 1.8722602 0.02504464 -1.4793981 0.34133145 1.4135131 0.06397229 1.6970754
0.37180942 0.34549195 0.66989964 -0.6518897 0.06094493 -0.54098165 -0.02980094 -2.3462574
-0.26529253 -4.198277 0.26487643 3.2485452 -0.10757208 -0.31275296 0.59068775 0.4902586
-0.024640456 1.3999721 -0.19919844 -1.565916 0.18811873 1.7681177 0.48944485 0.7034099
-0.20132771 1.4008301 0.5763718 0.8494699 -0.38159928 -0.3727686 0.06531885 1.9368142
0.44849336 2.41383 0.46564183 -0.83121216 0.5611561 1.3978548 0.13622649 1.9728186
0.121264994 0.41594464 -0.37226602 0.48155847 0.3124329 1.9668891 -0.019781291 0.16342193
0.74766165 -0.6948312 0.053831045 -1.1103141 -0.28886077 0.47900122 0.20380116 0.5532395
-0.21021095 0.2374168 0.15026756 2.1587093 0.30752987 -0.5898795 -0.69286716 0.95166135
0.49186662 0.2425527 0.76693565 0.23447715 -0.26992258 -0.5489001 0.18088374 1.2871759
0.39420265 -0.36782295 -0.30754718 1.1130263 0.14636214 -1.8768243 0.4439978 0.04764861
0.57647353 1.3434302 -0.31817448 -0.23637104 -0.5759051 0.2770903 0.34531003 0.63465494
0.009248793 0.29434818 -0.17823568 1.4836895 0.7056671 0.56493574 0.08381212 -0.6866531
0.6342785 0.70987886 0.3578551 1.6425384 0.13421807 2.070828 0.27403927 0.1413835
0.26734313 -0.06533848 -0.274005 -2.4663303 0.38257802 0.522186 0.05253643 -2.250451
0.59317654 0.69707173 0.35612828 -0.51459384 0.5222178 -0.27902916 0.34043008 0.24146438
-0.08521873 1.853726 0.106184974 2.5360649 -0.29125774 0.91254395 -0.093751505 -2.6866803
0.41922167 1.583102 0.237314 -1.4073061 0.19497508 2.4506803 -0.43808717 -3.7277505
0.078404486 2.1295912 -0.040828027 1.3256948 0.38568825 0.4649678 -0.10463524 0.4445047
-0.3365554 0.23390454 0.29528126 2.0643528 -0.011890108 1.6950939 0.23471513 -2.3400555
0.17618541 2.7458959 0.06641893 2.3968105 0.7723307 0.08487893 0.04613572 1.5291188
00000000: 7e8f 723d 9030 06c0 31c3 dc3c e51b ba3f
00000010: ef27 153f b31d d1be 0a9f 583e 0960 fbbf
00000020: 4d47 0e3e 27ec cabe 7f12 81bd f920 df3f
00000030: 651a 13bf c1c3 97bf b0f4 573d d883 db3f
00000040: d1a5 163f 30e5 2fbd 4e1f 873d 442b 12c0
00000050: 6ad9 69be 238a 0bc0 bbfe b43d cab0 d3bf
00000060: 68b2 283e e42b f93f 76cb d53e 6a07 e13e
00000070: 9237 e33e e70c cf3f f220 d0bd 5aea dc3f
00000080: 80e6 e23b a6f9 c2be b930 d03e a891 95bf
00000090: 00df 153f a0ee 293f 6808 d7bd 8015 913b
000000a0: e315 9ebe b1bb 943f 93fe 41be 5e1e 82bf
000000b0: 66a9 b43e 0071 913f 9459 193e 9bd7 d73f
000000c0: 0dba d8be e8a5 9bbd 83aa bebe 1421 82bf
000000d0: e720 a9bd 52e1 c93f fc4e 6d3e 0230 f03e
000000e0: 3cfd bb3e 34d0 0140 9514 cc3c c505 adbf
000000f0: dcc6 ae3e 69a0 e1bf fcd0 dcbe 4504 febf
00000100: b5ca 183f 277b e33f 5b51 263f b2c5 0340
00000110: 9ccd c33e 415a eb3f c098 e03d dee7 f6be
00000120: d75f c13b 44e8 bebf b7a5 12bf c134 ebbf
00000130: 5b9d 793d e858 20c0 d262 29bf 4a89 8dbf
00000140: ebf5 7cbe e2ba b93f 0ef4 803e 2e32 1240
00000150: cb93 91be 8b7d 46c0 94b1 653e 0039 cc3c
00000160: 1d64 163f 39a6 ef3f 6b2a cd3c eb5c bdbf
00000170: ffc2 ae3e ffed b43f e703 833d c439 d93f
00000180: ce5d be3e 52e4 b03e 8b7e 2b3f 3ee2 26bf
00000190: 64a1 793d c67d 0abf 1a21 f4bc 1529 16c0
000001a0: 6cd4 87be 4958 86c0 e29d 873e 2ae8 4f40
000001b0: c04e dcbd 2821 a0be 5037 173f 2d03 fb3e
000001c0: c8da c9bc 4932 b33f adfa 4bbe ef6f c8bf
000001d0: 32a2 403e ae51 e23f 8498 fa3e ac12 343f
000001e0: da28 4ebe 674e b33f 1a8d 133f dc76 593f
000001f0: fb60 c3be 87db bebe e4c5 853d 87e9 f73f
00000200: eca0 e53e 317c 1a40 9b68 ee3e 52ca 54bf
00000210: eda7 0f3f e8ec b23f f57e 0b3e 5285 fc3f
00000220: c859 f83d b2f6 d43e a799 bebe d58e f63e
00000230: 34f7 9f3e 06c3 fb3f 600c a2bc 1458 273e
00000240: c166 3f3f 75e0 31bf f17d 5c3d c61e 8ebf
00000250: 8fe5 93be a63f f53e 40b1 503e 1ba1 0d3f
00000260: 8a41 57be 641d 733e bddf 193e 4b28 0a40
00000270: 8e74 9d3e 5802 17bf be5f 31bf 14a0 733f
00000280: f1d5 fb3e bc5f 783e e555 443f c71a 703e
00000290: 4b33 8abe b884 0cbf 9639 393e 2ec2 a43f
000002a0: eed4 c93e 4a53 bcbe d376 9dbe a577 8e3f
000002b0: f5df 153e c73b f0bf ae53 e33e 302b 433d
000002c0: c593 133f 85f5 ab3f c4e7 a2be 400b 72be
000002d0: 846e 13bf c8de 8d3e 7acc b03e bf78 223f
000002e0: 4088 173c ceb4 963e 6a83 36be 8ae9 bd3f
000002f0: 99a6 343f a19f 103f b0a5 ab3d 7fc8 2fbf
00000300: 1360 223f 9fba 353f c938 b73e b33e d23f
00000310: 7670 093e 7288 0440 e04e 8c3e d6c6 103e
00000320: 33e1 883e 2ed0 85bd 624a 8cbe 5bd8 1dc0
00000330: 44e1 c33e fbad 053f 7130 573d 6407 10c0
00000340: 6bda 173f 4b73 323f 7256 b63e 6cbc 03bf
00000350: 11b0 053f e9dc 8ebe da4c ae3e 7042 773e
00000360: 2887 aebd e546 ed3f 8277 d93d e34e 2240
00000370: bc1f 95be 7b9c 693f ca00 c0bd 92f2 2bc0
00000380: 39a4 d63e 16a3 ca3f 7102 733e 9b22 b4bf
00000390: 8ca7 473e f2d7 1c40 f64c e0be 7793 6ec0
000003a0: 8892 a03d 394b 0840 4a3b 27bd 5eb0 a93f
000003b0: ee78 c53e 4210 ee3e 004b d6bd 1f96 e33e
000003c0: fd50 acbe ac84 6f3e 1b2f 973e 5b1e 0440
000003d0: bace 42bc d6f8 d83f 2a59 703e 78c3 15c0
000003e0: f369 343e c2bc 2f40 a606 883d 5865 1940
000003f0: 77b7 453f 01d5 ad3d cff8 3c3d 2aba c33f

network.0.bias f4 [256]
0.0053335777 -0.0394347 0.32484683 -0.03701872 -0.06900789 -0.09703702 -0.61077756 -0.028561983
-0.39879298 0.002381668 -0.41575417 0.02872774 -0.064561315 -0.23461127 -0.08372763 -0.11732244
-0.47251758 0.18549863 -0.2119191 -0.3894619 -0.2692962 -0.1734625 -0.040251173 0.08935572
-0.64406323 -0.26047912 -0.10003995 -0.46966997 -0.08811519 0.0075883544 0.18886603 -0.4740306
-0.13191412 -0.18009804 -0.079216026 -0.2826655 0.041788217 -0.6165912 0.0051541165 -0.55542684
-0.21610655 -0.08101548 -0.25406843 -0.1351608 -0.11288269 0.07302547 -0.07112951 -0.05617361
-0.42776495 -0.4027588 -0.050689757 -0.063684024 -0.27252364 -0.106352895 -0.2704999 -0.236975
-0.064140856 -0.17656018 -0.05225476 -0.15563062 -0.1764964 -0.10578981 -0.30508247 -0.060768627
-0.10951269 0.08437018 -0.11982445 -0.05638067 -0.5416476 -0.4496301 0.17788139 -0.17292935
-0.16519383 0.008985495 -0.60372746 -0.59491843 -0.32246628 -0.06331138 -0.45655978 -0.5879915
-0.28276038 -0.15386367 -0.6857952 -0.046493597 -0.32872146 -0.22488971 0.06662095 -0.4135168
0.27309 -0.4188018 -0.7084472 -0.6217759 -0.214706 -0.16877277 -0.52540076 -0.063509166
-0.1907709 -0.045901366 -0.061197665 -0.14930671 -0.13381828 -0.2336296 0.21916395 0.009224554
-0.5251911 -0.40043154 -0.4214486 -0.66343296 -0.06506329 -0.050460152 -0.24051456 -0.11027401
-0.089881785 -0.024285916 -0.07514131 -0.4650574 -0.034480315 -0.0509112 -0.5335401 -0.13021183
-0.5142917 -0.08449016 -0.07073127 0.11870393 -0.078402504 -0.05415484 -0.057966266 -0.04042051
0.01089172 -0.13494992 0.17694001 -0.461626 -0.22736925 -0.17934652 -0.50112367 0.15262122
-0.53059214 -0.023814896 -0.5883359 -0.33611277 -0.3453453 0.05194047 -0.015338947 -0.09459246
-0.5539897 -0.05256266 -0.037199188 0.26050255 -0.36058062 0.065061696 -0.1422783 -0.07027964
0.0050023217 0.37584436 0.046598118 -0.04866136 -0.10021888 -0.30190518 -0.33536634 0.021339951
-0.6890341 -0.06661292 0.053857986 0.035024557 -0.2685657 -0.068840615 -0.18348211 -0.64809823
-0.16335298 -0.60251164 -0.062961966 0.035626944 -0.02418932 -0.55721223 -0.3052193 -0.089752056
-0.5875831 -0.3527784 -0.29204398 -0.20979849 0.049932126 -0.081429146 -0.16839555 -0.617238
-0.31769958 -0.41241592 -0.26006085 -0.07505898 -0.17284292 -0.13714178 -0.019583762 -0.23083861
-0.29854748 -0.081898935 -0.3302241 -0.32785916 -0.08065504 -0.2378355 -0.05818008 -0.0687279
-0.18030825 -0.053291842 -0.5630886 0.073544964 -0.47216415 -0.074402645 -0.06438337 -0.16657127
-0.16418314 -0.2510941 0.054508243 -0.11019103 0.07928493 -0.14723668 -0.51912236 -0.6464395
-0.15983129 -0.04005796 -0.15464647 -0.189296 -0.15006922 -0.5901163 -0.15308166 -0.004242686
-0.08356565 -0.06309665 -0.59119654 -0.17170124 -0.66870105 -0.21597914 -0.08627 -0.5717522
-0.43999562 -0.28528512 -0.70270526 -0.62811285 -0.061575796 -0.5095088 -0.5287096 0.06633949
-0.19259363 0.05167631 -0.38647085 -0.49483895 0.09104398 -0.09992691 -0.5549017 -0.5680016
-0.06243927 -0.07833763 -0.19532096 -0.31299016 -0.09344107 -0.30461305 -0.07765437 -0.34626952
00000000: 4bc5 ae3b 4886 21bd 5352 a63e f1a0 17bd
00000010: 0254 8dbd 58bb c6bd eb5b 1cbf d2fa e9bc
00000020: 982e ccbe c215 1c3b bbdd d4be 7056 eb3c
00000030: b938 84bd f03d 70be 6479 abbd bf46 f0bd
00000040: d3ed f1be 5af3 3d3e 5201 59be 8d67 c7be
00000050: 31e1 89be 27a0 31be 6ade 24bd 2200 b73d
00000060: 54e1 24bf 855d 85be bfe1 ccbd 9578 f0be
00000070: bd75 b4bd bba7 f83b 1966 413e 24b4 f2be
00000080: 7f14 07be 9f6b 38be 033c a2bd 88b9 90be
00000090: 1f2a 2b3d ecd8 1dbf dde3 a83b 7430 0ebf
000000a0: 094b 5dbe 72eb a5bd 4215 82be 9867 0abe
000000b0: 0a2f e7bd 618e 953d 59ac 91bd 4d16 66bd
000000c0: 0204 dbbe 6736 cebe 10a0 4fbd c56c 82bd
000000d0: 3888 8bbe 8ccf d9bd f77e 8abe 93a9 72be
000000e0: 485c 83bd 31cc 34be 1609 56bd a25d 1fbe
000000f0: 79bb 34be 54a8 d8bd c533 9cbe 86e8 78bd
00000100: 3048 e0bd 46ca ac3d 8566 f5bd 6bef 66bd
00000110: 6ba9 0abf eb35 e6be 8a26 363e 6414 31be
00000120: 9228 29be e637 133c e28d 1abf 934c 18bf
00000130: 4d1a a5be 66a9 81bd 34c2 e9be 9c86 16bf
00000140: f8c5 90be 708e 1dbe 4690 2fbf 1270 3ebd
00000150: 2e4e a8be 7d49 66be 9170 883d 79b8 d3be
00000160: 74d2 8b3e 316d d6be cc5c 35bf b52c 1fbf
00000170: e4db 5bbe c5d2 2cbe aa80 06bf 1811 82bd
00000180: 7259 43be 1203 3cbd 67aa 7abd dce3 18be
00000190: a907 09be 993c 6fbe 846c 603e 9522 173c
000001a0: ed72 06bf 5d05 cdbe 1cc8 d7be bed6 29bf
000001b0: e73f 85bd 4eaf 4ebd 7349 76be 57d7 e1bd
000001c0: f113 b8bd 42f3 c6bc b0e3 99bd 011c eebe
000001d0: 3b3b 0dbd 4388 50bd 1696 08bf 4056 05be
000001e0: 9fa8 03bf 2d09 adbd 8edb 90bd 0c1b f33d
000001f0: 7e91 a0bd 77d1 5dbd 096e 6dbd fa8f 25bd
00000200: 2f73 323c 5030 0abe c32f 353e 3e5a ecbe
00000210: 7cd3 68be 9da6 37be a449 00bf bd48 1c3e
00000220: e3d4 07bf 7517 c3bc 2e9d 16bf f916 acbe
00000230: 19d1 b0be 88bf 543d 3550 7bbc b1b9 c1bd
00000240: 45d2 0dbf f24b 57bd 2d5e 18bd 9760 853e
00000250: 069e b8be 113f 853d 67b1 11be c6ee 8fbd
00000260: 84ea a33b ac6e c03e abdd 3e3d 2251 47bd
00000270: 8e3f cdbd 5193 9abe 23b5 abbe 1fd1 ae3c
00000280: 8a64 30bf 5b6c 88bd 319a 5c3d e975 0f3d
00000290: 7281 89be 4ffc 8cbd bce2 3bbe c4e9 25bf
000002a0: 0146 27be 343e 1abf 34f2 80bd 8fed 113d
000002b0: ae28 c6bc 76a5 0ebf b445 9cbe edcf b7bd
000002c0: d96b 16bf 5f9f b4be ca86 95be 6ad5 56be
000002d0: a185 4c3d 53c4 a6bd e26f 2cbe 4f03 1ebf
000002e0: 85a9 a2be 2e28 d3be b226 85be 86b8 99bd
000002f0: bcfd 30be e56e 0cbe 206e a0bc f560 6cbe
00000300: 37db 98be a1ba a7bd 2213 a9be 28dd a7be
00000310: 782e a5bd 268b 73be 3c4e 6ebd 37c1 8cbd
00000320: baa2 38be 8c48 5abd 9326 10bf be9e 963d
00000330: 80bf f1be 6a60 98bd 6edb 83bd a991 2abe
00000340: a01f 28be 688f 80be 0944 5f3d d6ab e1bd
00000350: 2360 a23d 36c5 16be 34e5 04bf 0f7d 25bf
00000360: d0aa 23be d113 24bd a55b 1ebe d0d6 41be
00000370: bfab 19be dd11 17bf 70c1 1cbe 3b06 8bbb
00000380: 7824 abbd d138 81bd a858 17bf 73d2 2fbe
00000390: fe2f 2bbf a329 5dbe 53ae b0bd 5a5e 12bf
000003a0: 1b47 e1be e410 92be 7ee4 33bf 01cc 20bf
000003b0: e736 7cbd 2b6f 02bf 8359 07bf 00dd 873d
000003c0: 4437 45be 8aaa 533d 82df c5be 885b fdbe
000003d0: 4475 ba3d 7ba6 ccbd 0a0e 0ebf 8e68 11bf
000003e0: 52c0 7fbd 7b6f a0bd 3802 48be 3f40 a0be
000003f0: 085e bfbd 3ef6 9bbe 4109 9fbd 3d4a b1be

network.3.weight f4 [256, 256]
0.49136496 -0.23658356 -0.016687352 0.14711712 0.052539065 -1.1202856 -0.77965546 -0.09822948
0.038988978 0.36217302 -0.26974213 0.11655881 -1.4811994 -0.053647727 -0.048640784 -0.90836626
0.051009074 0.047003593 -0.13120967 -0.012275413 -0.21674624 -0.2590422 0.039143536 -0.01688607
0.057691924 -0.04399249 -1.0284513 -0.020105876 -0.0007336854 0.17249753 -0.013484044 -1.0294218
-0.025321243 -0.090874456 -0.018050369 -0.045952648 0.11901315 -0.9007629 0.5391049 -0.12919465
-0.26089734 -0.10824354 -0.10489176 -0.0064610094 -0.0060944553 0.098224364 -0.02151121 -0.4571641
0.03256265 0.038591087 -0.045090396 -0.200305 -0.2710151 -0.9026075 0.03865674 -0.069002986
-0.8201065 -0.23072663 -0.16255613 -0.17643441 -0.29212904 -0.03477433 -0.1485417 -0.49155343
-0.07588848 -0.016597137 -0.05979751 -0.6973958 -0.030460939 -0.36435884 -0.018572254 -0.010695316
-0.03468576 0.18768576 -0.0382099 0.02816791 -0.025234796 -0.9556922 0.038161144 -0.07913447
0.016276918 -0.054868326 -0.027775347 -0.04919557 0.058725044 -0.03838524 0.04110855 -0.0356533
-0.0033761978 -0.012405068 0.006346382 -0.029104881 -0.03696052 -0.50907135 0.0054577217 0.010624647
-0.05428969 0.021753091 -0.67992866 -0.0025649816 0.029154554 -0.10802714 0.03101599 0.50688213
-0.0583921 0.030035086 0.054826647 -0.031626627 -0.31656805 -0.052680016 -0.1537582 -0.09226438
-0.014213225 -0.010470596 -0.21765035 -1.1699618 -0.11073922 -0.37102258 -0.010353334 0.027512887
0.06163334 -0.09121559 -1.2329901 -0.07806766 -0.42781675 -0.084116615 0.0022958932 -0.2225696
0.49786955 -0.001157783 -0.11209965 0.021551378 0.032886475 -0.031752642 -0.025998518 -0.036900926
0.0539157 -0.24324018 -0.05748205 0.061061658 -0.010304652 -0.08666106 -0.0004732186 0.0013551238
0.00945206 -0.37191263 -0.20573184 -0.012541863 0.015183166 -0.032363895 -0.7464591 -1.0412475
0.53524446 -0.00030046006 0.13755734 -0.021285465 -0.03982002 -0.19187297 0.031236805 0.22011831
0.058876954 -0.295646 0.012014958 0.043776326 -0.10303528 0.0355338 -0.029791497 -0.00011835992
-0.033815347 -0.038120516 -0.33254668 0.051889844 -0.16760868 -0.05270914 -0.016728505 -0.18798085
-0.045943104 -0.0044568772 -0.058516894 -0.0031612813 0.011922056 -0.4742183 -0.1599965 0.005091779
-0.05777067 -0.185605 0.021023897 -1.5182118 -0.10528788 -0.08165412 0.032932706 -0.0098852655
-0.16865958 -0.9424833 -0.045118682 -0.005269766 -1.3332919 0.011142306 -0.18904407 -0.088963605
-0.05665552 -0.30835357 -0.023198731 0.08338589 0.021794565 -0.22673748 -0.40582186 0.0017329622
-0.050255362 -0.29097626 -0.020327209 -0.12859629 0.028507277 -0.004645481 -0.021671489 -0.021250881
-0.6584669 -0.24750113 -0.095849365 -0.06139507 -0.06800522 0.0140450075 0.00036484003 0.009406744
-0.04678122 -0.87455595 -0.023337446 0.02480868 -0.0416478 -0.04387982 -0.034972865 -0.048997365
-1.1224703 -0.027980799 -0.037503064 -0.04276999 -1.1220357 -0.015538633 0.115307294 0.076259404
0.051065557 -0.026437 -0.11811882 0.050199077 -0.008031517 -0.22646756 0.048521735 0.034730397
-0.024988193 -0.037119806 -0.08578333 -0.053223036 -1.5132257 -0.05812291 -0.06657893 -0.47340217
00000000: 3094 fb3e f642 72be eab3 88bc dfa5 163e
00000010: 3433 573d 8565 8fbf 8097 47bf 8a2c c9bd
00000020: e8b2 1f3d be6e b93e a41b 8abe 63b6 ee3d
00000030: f197 bdbf b8bd 5bbd 8f3b 47bd b18a 68bf
00000040: e4ee 503d d786 403d d45b 06be d01e 49bc
00000050: baf2 5dbe 2ea1 84be f954 203d a854 8abc
00000060: 5e4e 6c3d 7831 34bd 4ba4 83bf 14b5 a4bc
00000070: cb54 40ba 31a3 303e 2eec 5cbc 18c4 83bf
00000080: 7f6e cfbc 631c babd 5ede 93bc d838 3cbd
00000090: 2bbd f33d 6698 66bf c702 0a3f 9a4b 04be
000000a0: 5694 85be caae ddbd 7ed1 d6bd e0b6 d3bb
000000b0: ffb3 c7bb db29 c93d 4738 b0bc 6a11 eabe
000000c0: 6a60 053d b011 1e3d b5b0 38bd c11c 4dbe
000000d0: 7ec2 8abe 4911 67bf 8856 1e3d 7051 8dbd
000000e0: 80f2 51bf 9a43 6cbe 1d75 26be 39ab 34be
000000f0: f091 95be 876f 0ebd 511b 18be e4ac fbbe
00000100: 6b6b 9bbd b8f6 87bc 3cee 74bd 8888 32bf
00000110: 3889 f9bc 3e8d babe d724 98bc 683b 2fbc
00000120: a812 0ebd b230 403e fc81 1cbd 64c0 e63c
00000130: 34b9 cebc 3ea8 74bf dc4e 1c3d 4111 a2bd
00000140: 2c57 853c 9cbd 60bd 2089 e3bc 4b81 49bd
00000150: ac89 703d d739 1dbd 7061 283d 3209 12bd
00000160: 3343 5dbb a03e 4bbc 50f5 cf3b 5c6d eebc
00000170: ea63 17bd 8052 02bf b0d6 b23b 0013 2e3c
00000180: de5e 5ebd 8a33 b23c ce0f 2ebf 4019 28bb
00000190: 88d5 ee3c 553d ddbd 3f15 fe3c 07c3 013f
000001a0: 8e2c 6fbd 240c f63c e891 603d ec8a 01bd
000001b0: 3515 a2be 00c7 57bd ca72 1dbe 1bf5 bcbd
000001c0: 96de 68bc dd8c 2bbc bcdf 5ebe 4fc1 95bf
000001d0: 3fcb e2bd acf6 bdbe 08a1 29bc b562 e13c
000001e0: 3e73 7c3d 3dcf babd 9fd2 9dbf f0e1 9fbd
000001f0: cc0a dbbe 5545 acbd b276 163b 49e9 63be
00000200: c2e8 fe3e c0c0 97ba 8094 e5bd 848c b03c
00000210: f8b3 063d 0f0f 02bd d8fa d4bc 6d25 17bd
00000220: b6d6 5c3d f413 79be 4c72 6bbd ca1b 7a3d
00000230: d8d4 28bc 5b7b b1bd 531a f8b9 699e b13a
00000240: d0dc 1a3c 556b bebe 5eab 52be 637c 4dbc
00000250: d0c2 783c 0190 04bd f217 3fbf 9947 85bf
00000260: c805 093f 1187 9db9 d5db 0c3e db5e aebc
00000270: 511a 23bd 597a 44be 54e4 ff3c b266 613e
00000280: f628 713d ea5e 97be 63da 443c ce4e 333d
00000290: 2904 d3bd e48b 113d 4c0d f4bc 0038 f8b8
000002a0: f681 0abd 4224 1cbd 8f43 aabe 728a 543d
000002b0: 9ca1 2bbe 8ae5 57bd 380a 89bc 0d7e 40be
000002c0: d62e 3cbd ff0a 92bb 69af 6fbd 802d 4fbb
000002d0: ba54 433c becc f2be 1fd6 23be f0d8 a63b
000002e0: f0a0 6cbd 3d0f 3ebe 4f3a ac3c c454 c2bf
000002f0: 2ca1 d7bd 463a a7bd 72e4 063d cff5 21bc
00000300: 19b5 2cbe 9646 71bf 5ece 38bd 00ae acbb
00000310: 4fa9 aabf 388e 363c c594 41be 8d32 b6bd
00000320: 9e0f 68bd 85e0 9dbe 440b bebc 39c6 aa3d
00000330: 848a b23c df2d 68be e2c7 cfbe 9024 e33a
00000340: 91d8 4dbd d7fa 94be 3f85 a6bc bfae 03be
00000350: 1888 e93c 1e39 98bb 6888 b1bc 5416 aebc
00000360: 4991 28bf f070 7dbe ac4c c4bd 6679 7bbd
00000370: 5246 8bbd 081d 663c 0048 bf39 be1e 1a3c
00000380: aa9d 3fbd e6e2 5fbf 2c2e bfbc 933b cb3c
00000390: e296 2abd 53bb 33bd b53f 0fbd 76b1 48bd
000003a0: 1bad 8fbf fd37 e5bc d09c 19bd 962f 2fbd
000003b0: de9e 8fbf c095 7ebc 3b26 ec3d e42d 9c3d
000003c0: 1e2a 513d 6892 d8bc 48e8 f1bd 8c9d 4d3d
000003d0: a096 03bc 1de7 67be babe 463d 7641 0e3d
000003e0: 0ab4 ccbc f00a 18bd 2caf afbd 6600 5abd
000003f0: 61b1 c1bf 4a12 6ebd 895a 88bd c561 f2be

network.3.bias f4 [256]
0.16930808 0.118847094 0.06576092 -0.014468815 -0.014402549 -0.024894958 0.11894579 0.06449002
0.20474984 -0.014191744 0.21612711 0.0314174 0.043746654 0.057316717 -0.050673693 0.09428926
-0.053272173 -0.016318351 0.09094689 -0.027411768 0.09038027 0.07399117 0.036385495 -0.01984728
-0.0556303 -0.023115195 -0.0052621313 -0.014209684 0.07049994 -0.060809106 -0.08096621 0.05201708
-0.004330733 -0.05129901 0.105999745 0.115606956 0.1647732 0.22953686 0.07744081 0.2149765
-0.04722865 -0.016403602 -0.1230067 -0.045046207 0.04680142 0.055519477 0.095651336 0.09421693
-0.06385052 -0.06873561 0.15874375 0.028459314 -0.036355797 0.21962677 0.07666659 -0.04741245
0.1141005 -0.04325076 0.037631813 -0.06637248 0.17366561 -0.04273212 -0.06783178 -0.04347814
-0.071184814 0.14649664 0.07497113 -0.019959373 0.056437235 -0.045056526 -0.017753534 -0.032574937
0.049831424 0.050334573 0.12481347 0.019807437 8.896555e-05 -0.073847294 0.08626686 -0.055736452
-0.0133040305 -0.026391374 0.13864964 0.05528663 -0.07120856 0.004060504 -0.014982991 0.07252271
0.22203495 0.032189876 -0.042219922 -0.02644189 0.049636006 0.18865456 0.27984983 0.04230601
0.17402914 0.059785753 0.07396493 -0.028520158 0.102291554 0.11020623 0.07765603 0.15362416
-0.043455403 -0.0033917169 -0.07133489 0.070764884 0.10590517 -0.027576255 0.2487477 0.032909773
-0.050516315 -0.066092744 0.12993737 -0.029913232 0.08532004 0.12772991 -0.07052462 -0.058308873
-0.053418566 -0.038083874 0.20455706 -0.0057477364 0.095559366 -0.037972238 0.09182806 -0.13223931
0.12356019 -0.02499374 -0.025096009 0.10139464 0.06877013 0.21046145 0.22192478 -0.03132212
-0.009265512 -0.05838977 0.06492119 -0.0719214 0.05439279 0.09802345 -0.053172287 -0.009226132
-0.04661938 -0.045712464 0.15035999 -0.04884873 0.19301547 -0.061898623 0.19848494 0.06129015
0.05028329 0.05052381 0.24470513 -0.024893075 0.041256152 -0.029405909 -0.0066623646 -0.06705086
0.03716275 0.04414848 -0.006011638 0.078547314 -0.04503237 0.13729337 0.0009459788 0.13929589
0.05587064 0.043387894 0.14683826 -0.056905653 -0.073302574 -0.06804274 0.048682608 -0.022786869
0.043232128 0.1912014 -0.056967296 -0.060168285 0.19909899 0.062251218 -0.04686285 -0.009834421
-0.051410004 -0.014744975 0.17301048 0.23768182 0.25317678 0.01583285 0.074205525 -0.05992772
0.17498699 0.016144788 -0.062245034 -0.0480035 -0.018909987 -0.0018595136 0.08694605 -0.11524105
0.27453426 0.16074996 0.056218185 0.07192871 0.04556686 0.081885785 -0.075401336 0.12072268
0.21033971 -0.040705554 -0.05568085 0.096985206 -0.031587534 -0.06370812 0.014876349 -0.013999754
-0.060559873 0.059001643 0.06517517 -0.10485371 0.041533004 0.058806274 0.05825184 0.08322283
-0.00283701 0.06518509 0.06358816 -0.019626368 -0.011791043 -0.06298135 0.0959317 0.00048027898
0.187198 -0.06449601 -0.055097096 0.18909922 -0.030828381 -0.04460899 -0.03079704 -0.10709168
-0.04347159 0.048231598 0.055750683 -0.059321456 0.1986991 0.07837332 0.029324828 -0.06981628
-0.019440042 -0.0033084236 0.17725568 -0.06894166 0.06862501 0.13538048 -0.080378 -0.037902027
00000000: 195f 2d3e 1b66 f33d a9ad 863d 9c0e 6dbc
00000010: abf8 6bbc 83f0 cbbc da99 f33d 5813 843d
00000020: f1a9 513e 7d84 68bc 6d50 5d3e 88af 003d
00000030: b12f 333d efc4 6a3d 388f 4fbd ba1a c13d
00000040: ec33 5abd 10ae 85bc 5d42 ba3d a58e e0bc
00000050: 4a19 b93d af88 973d f508 153d c396 a2bc
00000060: 99dc 63bd 145c bdbc f56d acbb bccf 68bc
00000070: 4662 903d f812 79bd 9dd1 a5bd dd0f 553d
00000080: d2e8 8dbb e91e 52bd 6516 d93d 57c3 ec3d
00000090: 4eba 283e b60b 6b3e 4a99 9e3d cd22 5c3e
000000a0: d472 41bd d960 86bc f0ea fbbd 5f82 38bd
000000b0: d9b2 3f3d 6468 633d d9e4 c33d cef4 c03d
000000c0: 10c4 82bd 41c5 8cbd b98d 223e 8223 e93c
000000d0: d1e9 14bd d7e5 603e 6003 9d3d 8f33 42bd
000000e0: 86ad e93d b527 31bd d123 1a3d 4bee 87bd
000000f0: 66d5 313e e007 2fbd 63eb 8abd 2216 32bd
00000100: 58c9 91bd 3703 163e 778a 993d d781 a3bc
00000110: bb2a 673d 318d 38bd dc6f 91bc 4c6d 05bd
00000120: 091c 4c3d a02b 4e3d 349e ff3d 3543 a23c
00000130: 0493 ba38 403d 97bd aeac b03d e84b 64bd
00000140: 26f9 59bc b932 d8bc 2cfa 0d3e 3c74 623d
00000150: cbd5 91bd fa0d 853b 387b 75bc c986 943d
00000160: 215d 633e 88d9 033d ccee 2cbd aa9c d8bc
00000170: 204f 4b3d a92e 413e 7a48 8f3e 1149 2d3d
00000180: b234 323e e8e1 743d ed7a 973d 1ba3 e9bc
00000190: 3c7e d13d ceb3 e13d 200a 9f3d a74f 1d3e
000001a0: 4bfe 31bd 9147 5ebb 0718 92bd 2eed 903d
000001b0: cfe4 d83d 99e7 e1bc b8b7 7e3e 66cc 063d
000001c0: 32ea 4ebd a25b 87bd 4d0e 053e 980c f5bc
000001d0: 46bc ae3d a1cb 023e 366f 90bd 49d5 6ebd
000001e0: 6dcd 5abd d6fd 1bbd 6877 513e 8257 bcbb
000001f0: a1b4 c33d c788 1bbd 5a10 bc3d be69 07be
00000200: 200d fd3d acbf ccbc 2596 cdbc fea7 cf3d
00000210: 5bd7 8c3d 3583 573e 4040 633e a04b 00bd
00000220: 60ce 17bc 1d2a 6fbd 67f5 843d 874b 93bd
00000230: f9ca 5e3d 85c0 c83d 2fcb 59bd 3429 17bc
00000240: f7f3 3ebd fe3c 3bbd f8f7 193e 9b15 48bd
00000250: d9a5 453e 6989 7dbd a33f 4b3e 610b 7b3d
00000260: daf5 4d3d 0ef2 4e3d fb93 7a3e 90ec cbbc
00000270: 36fc 283d a9e4 f0bc f74f dabb f651 89bd
00000280: f837 183d 09d5 343d 46fd c4bb 6add a03d
00000290: dd73 38bd a296 0c3e 90fb 773a 95a3 0e3e
000002a0: 9dd8 643d 81b7 313d c55c 163e e715 69bd
000002b0: a91f 96bd fe59 8bbd 6a67 473d 87ab babc
000002c0: 2c14 313d 4dca 433e 8a56 69bd 0573 76bd
000002d0: 9be0 4b3e 22fb 7e3d 43f3 3fbd 8d20 21bc
000002e0: 4c93 52bd e894 71bc a929 313e dd62 733e
000002f0: 63a0 813e e5b3 813c 11f9 973d c576 75bd
00000300: ca2f 333e 1342 843c a6f4 7ebd 519f 44bd
00000310: 1ee9 9abc ecba f3ba c510 b23d 8003 ecbd
00000320: c18f 8c3e a39b 243e 0a45 663d 5c4f 933d
00000330: 51a4 3a3d bcb3 a73d 046c 9abd 743d f73d
00000340: 4b63 573e deba 26bd 9a11 64bd 2ea0 c63d
00000350: ee61 01bd 6779 82bd eebb 733c 395f 65bc
00000360: a10d 78bd b5ab 713d 8f7a 853d 8bbd d6bd
00000370: 831e 2a3d d9de 703d 7b99 6e3d bb70 aa3d
00000380: 21ed 39bb c37f 853d 823a 823d 7ac7 a0bc
00000390: 382f 41bc 5efc 80bd d777 c43d f4cd fb39
000003a0: d5b0 3f3e 7c16 84bd 7ead 61bd 3aa3 413e
000003b0: cd8b fcbc ebb7 36bd 134a fcbc e252 dbbd
000003c0: 440f 32bd 7f8e 453d d45a 643d 0efb 72bd
000003d0: c777 4b3e 3182 a03d 9f3a f03c d6fb 8ebd
000003e0: b940 9fbc 23d2 58bb 8382 353e 4931 8dbd
000003f0: 458b 8c3d 2ea1 0a3e 399d a4bd 283f 1bbd

network.6.weight f4 [256, 256]
-0.07478392 0.060249496 -0.18573317 0.019377176 0.045379907 0.098739095 -0.15635766 -0.20048986
-0.023900572 -0.052918933 -0.51187396 -0.70122385 -0.064171895 -0.020879915 -0.007974154 -0.16744247
0.020004362 0.021484725 -0.3757342 -0.01391534 0.09779313 -0.4777674 -0.0035266737 -0.038416013
-0.033070102 -0.041225854 0.026144981 0.00032888353 -0.46370718 0.024218194 0.042724513 -0.23118512
-0.04036236 -0.028251478 -0.03883607 0.013201528 -0.06857696 -0.22164963 0.10700828 -0.09918984
0.05089753 -0.01357775 -0.13986683 -0.036752902 -0.43318453 -0.40600616 0.052945346 0.08977106
0.06514176 -0.027335316 0.08585208 -0.9898117 0.043275904 0.044415433 -0.33970207 0.05586639
-0.115671635 0.0013910345 -0.062200293 0.0051830634 0.008493493 -0.03481423 -0.010251671 -0.058109183
0.056086168 0.050732013 -0.20470302 -0.06203359 -0.059213933 -0.057159644 0.013421886 -0.04658361
-0.020683585 -0.10606212 0.0343293 -0.37033424 -0.43728814 -0.053447537 0.033874054 0.055040196
0.023789564 0.05111075 0.007499567 -0.044279397 -0.058207765 -0.22447993 -0.029760841 0.13769965
-0.04447927 -1.0105634 0.052590743 0.050888814 -0.21159929 -0.023560014 -0.19981642 0.09225512
-0.3408933 -0.53805965 -0.028574679 0.05531124 0.0051221997 0.14232075 0.054770444 0.15357846
-0.040551946 -0.05204129 -0.043099515 0.0971026 -0.12788017 0.022983097 -0.08773441 -0.14764574
-0.05804995 0.0050042965 0.056957815 -0.06617291 0.120935105 0.008832008 0.025873847 0.007167168
0.018733922 0.018780187 -0.028327445 0.10843599 -0.06569953 -0.017702725 0.073518746 0.052674722
-0.06781183 -0.021255758 -0.060418013 -0.062378213 -0.05642972 -0.022175534 -0.09096876 -0.0015317973
-0.0074781477 0.043370165 0.058521595 0.24540477 -0.25026023 -0.0025115896 -0.07260906 -0.016507901
-0.04156533 0.019824835 -0.1486475 0.04895357 -0.22830479 -0.036036573 -0.36919913 -0.39852872
0.07425879 -0.12745827 -0.09541008 -0.045783356 -0.029818878 0.028965117 -0.8601679 -0.5701095
-0.68693024 -0.20461324 -0.00789496 -0.28890333 -0.051900208 0.08294517 -0.556975 0.022092717
-0.08097503 -0.049640596 -0.10559551 0.06572413 0.06295599 -0.041634146 0.16112764 0.028497128
-0.19001609 -0.1320172 0.034652438 -0.046559244 -0.04541942 -0.007988471 0.020893142 0.017880678
-0.025139635 0.002325051 -0.23437127 -0.3527307 -0.1253753 -0.5161056 -0.010648525 0.038596295
-0.026673403 -0.15151268 0.053787243 0.059524015 0.25600776 0.1074452 0.030499658 -0.02107922
-0.21067835 0.018388687 -0.00969925 0.060307577 -0.029237991 -0.40946072 0.049818106 0.03456351
-0.079193726 0.034667797 -0.02283971 -0.2968834 -0.04665164 0.01055561 -0.047036618 0.00037642068
0.048170067 -0.201175 -0.21815693 0.054798413 -0.45947593 -0.55262864 -0.48137802 0.05069259
-0.17999709 -0.07904383 0.09755547 -0.039552253 -0.31674752 0.021778248 0.007823298 -0.925238
-0.062066343 0.059297338 -0.012388529 -0.07778826 -0.018660352 0.04713317 0.021135986 0.11182323
-0.015315119 -0.11794246 -0.26872396 0.055849828 -0.3065944 0.0007657137 -0.27163613 0.05677724
0.00775803 0.0044450834 -0.0082049025 0.015574381 -0.2788355 -0.021586245 0.027805492 0.05140906
00000000: 5028 99bd 2dc8 763d d630 3ebe e2bc 9e3c
00000010: 48e0 393d b937 ca3d 391c 20be 374d 4dbe
00000020: 22cb c3bc 86c1 58bd 2c0a 03bf 6883 33bf
00000030: 8e6c 83bd 5b0c abbc 07a6 02bc 0a76 2bbe
00000040: 30e0 a33c bc00 b03c 3c60 c0be 2bfd 63bc
00000050: c447 c83d ee9d f4be c41f 67bb 1c5a 1dbd
00000060: 8474 07bd 71dc 28bd 002e d63c 006e ac39
00000070: 076b edbe 3c65 c63c e6ff 2e3d cbbb 6cbe
00000080: 0153 25bd a56f e7bc 9212 1fbd 394b 583c
00000090: 1472 8cbd 1ff8 62be 2827 db3d 0b24 cbbd
000000a0: ee79 503d 3675 5ebc 4039 0fbe 368a 16bd
000000b0: 5dca ddbe 0ae0 cfbe 38dd 583d e4d9 b73d
000000c0: 0b69 853d 50ee dfbc 37d3 af3d 4d64 7dbf
000000d0: 1342 313d f5ec 353d 6eed adbe 28d4 643d
000000e0: 40e5 ecbd 5f53 b63a bcc5 7ebd b0d6 a93b
000000f0: 4b28 0b3c 5e99 0ebd a0f6 27bc e503 6ebd
00000100: 9cba 653d 5fcc 4f3d ab9d 51be ef16 7ebd
00000110: 4f8a 72bd 3b20 6abd 78e7 5b3c 75ce 3ebd
00000120: 9f70 a9bc 1937 d9bd e19c 0c3d 739c bdbe
00000130: 3be4 dfbe ceeb 5abd 85bf 0a3d d471 613d
00000140: 55e2 c23c 8159 513d edbe f53b 505e 35bd
00000150: 446b 6ebd 11de 65be 02cd f3bc 2301 0d3e
00000160: e52f 36bd 245a 81bf 6469 573d ca70 503d
00000170: 7cad 58be ee00 c1bc ad9c 4cbe 41f0 bc3d
00000180: 9189 aebe 47be 09bf 7215 eabc 0a8e 623d
00000190: 20d8 a73b 88bc 113e f956 603d ac43 1d3e
000001a0: cc19 26bd 3f29 55bd 1e89 30bd badd c63d
000001b0: 05f3 02be 0c47 bc3c 19ae b3bd 7230 17be
000001c0: c9c5 6dbd 15fb a33b 994c 693d aa85 87bd
000001d0: d3ac f73d 20b4 103c 64f5 d33c 90da ea3b
000001e0: e277 993c e8d8 993c f50e e8bc b013 de3d
000001f0: 7a8d 86bd 4e05 91bc ff90 963d 73c1 573d
00000200: eee0 8abd 8e20 aebc e178 77bd 4c80 7fbd
00000210: da22 67bd 77a9 b5bc d44d babd 97c6 c8ba
00000220: 400b f5bb eaa4 313d 57b4 6f3d 634b 7b3e
00000230: 1c22 80be 7b99 24bb 0fb4 94bd 943b 87bc
00000240: 6840 2abd b167 a23c 0d37 18be 8a83 483d
00000250: bbc8 69be 169b 13bd ab07 bdbe f50b ccbe
00000260: fe14 983d 6c84 02be 5c66 c3bd 5487 3bbd
00000270: b846 f4bc 4148 ed3c f733 5cbf b2f2 11bf
00000280: a9da 2fbf 2286 51be dd59 01bc 23eb 93be
00000290: 5095 54bd 28df a93d ea95 0ebf c9fb b43c
000002a0: 3dd6 a5bd f053 4bbd 7542 d8bd 5f9a 863d
000002b0: 12ef 803d 9188 2abd a5fe 243e cf72 e93c
000002c0: 9493 42be 842f 07be b7ef 0d3d e8b4 3ebd
000002d0: b709 3abd 13e2 02bc 1828 ab3c 807a 923c
000002e0: a3f1 cdbc e25f 183b 06ff 6fbe 1e99 b4be
000002f0: 6262 00be 7f1f 04bf 2777 2ebc 2617 1e3d
00000300: 2e82 dabc 2426 1bbe 0350 5c3d 74cf 733d
00000310: 7313 833e 3b0c dc3d 6bda f93c 54ae acbc
00000320: 11bc 57be dfa3 963c 9ae9 1ebc 1405 773d
00000330: 8384 efbc d6a4 d1be 120e 4c3d 7892 0d3d
00000340: 5230 a2bd d2ff 0d3d 581a bbbc 1a01 98be
00000350: ca15 3fbd 70f1 2c3c 78a9 40bd 545a c539
00000360: fa4d 453d d200 4ebe 8864 5fbe 4d74 603d
00000370: 6e40 ebbe 1279 0dbf 2e77 f6be 09a3 4f3d
00000380: 2851 38be bbe1 a1bd 2acb c73d 8b01 22bd
00000390: bb2c a2be 4c68 b23c 4a2d 003c 66dc 6cbf
000003a0: 4739 7ebd c4e1 723d 42f9 4abc 744f 9fbd
000003b0: 98dd 98bc b60e 413d 6025 ad3c 9403 e53d
000003c0: 44ec 7abc d18b f1bd 3096 89be cac2 643d
000003d0: f1f9 9cbe 2dba 483a e413 8bbe 408f 683d
000003e0: 1337 fe3b 10a8 913b db6d 06bc b02b 7f3c
000003f0: 87c3 8ebe a3d5 b0bc 58c8 e33c 4e92 523d

network.6.bias f4 [256]
0.8519095 -0.06943013 1.4095398 0.8813173 0.18832317 0.61472315 0.57919985 1.0081171
1.50193 -0.014562158 1.0202475 -0.056030948 0.60469615 0.97509927 0.579026 0.9745388
1.0783446 -0.06525481 0.7943454 1.0310653 1.1042513 0.30543095 1.0272723 1.0408627
0.938626 1.0225805 0.77147305 1.1933929 0.14584242 1.0354426 1.1646104 0.9127785
0.6980639 1.059895 1.165705 0.87047094 1.4905276 0.90953076 1.1333137 0.6407102
1.4813889 1.0403025 0.9661575 1.1619552 1.00515 1.0926865 0.563959 1.1139255
1.1033478 0.9320834 0.35425556 0.67508847 1.5289536 0.025840672 1.5847136 0.4830943
1.2027007 1.1175922 0.94157636 1.0829561 1.4783713 1.5495005 1.2593362 0.9697797
-0.09223176 0.25655088 1.0308778 1.0553776 1.023399 1.0945977 1.1383297 -0.07654702
1.4254086 1.4484239 1.2764592 1.6368543 0.6176056 0.99622995 1.1387781 1.0468223
0.9765127 0.10051021 1.0827073 1.4888382 1.4569246 -0.064769536 -0.04385042 0.37963572
1.2224238 1.3289771 1.113386 -0.07391291 1.0556076 0.02226411 0.99702567 0.99275863
0.8876117 1.0726064 1.0312468 1.0076352 0.5369221 0.8973931 1.3057648 1.6138916
0.90726227 0.977201 1.1570781 0.9179937 1.1512926 1.0863286 0.39442664 0.92382026
1.0663261 0.93153596 -0.06920328 1.0943835 0.9581828 -0.086019546 1.012164 0.1243111
1.3635446 0.97052056 0.9800164 0.92615634 1.1397405 1.1229306 0.98611253 0.9603093
-0.06243258 -0.10607833 1.0472739 1.1951572 0.9615514 -0.03586136 0.991878 1.3901421
0.9370957 0.5612103 1.185649 1.6092898 -0.07047716 1.0264418 1.0355512 1.0673454
-0.13288492 1.1227845 1.092273 -0.07057806 1.005531 0.02570155 -0.097451486 0.93565273
1.2099552 1.0498304 0.98293394 1.0041336 0.96113914 0.93290764 1.4476576 1.0146577
0.9440424 0.6468438 1.5114883 1.0377572 1.0943441 0.9538286 -0.12198027 1.0045383
-0.089915246 0.8467958 1.050532 0.98869014 0.95355964 0.92619115 1.2528386 -0.07707912
0.8734556 0.47686478 1.5258783 1.3017259 1.1647668 0.9222917 0.83152884 1.004643
0.95061857 1.5028405 1.0787332 0.93091446 0.59212005 1.3037832 1.4486724 1.2386194
0.9826073 1.4116046 1.0013255 0.9904702 1.1023141 0.8029973 0.8046426 -0.08561947
1.0239276 0.095026925 0.9988555 1.0078392 1.315821 0.017704248 0.1993314 -0.116358005
1.0450411 0.19012995 1.4530839 0.95626366 -0.029110098 1.1421031 0.9416514 1.0324662
1.0146313 1.4735876 -0.10824868 1.0436791 -0.06871284 1.132788 1.3931224 1.1568522
-0.034378905 0.9386722 0.81016016 -0.10991928 -0.716032 0.9164955 1.0836252 0.7348566
1.0812378 0.94010454 -0.07623094 0.99468035 -0.111754626 1.3225881 -0.013456082 1.0053695
1.1505017 0.91343695 0.3821544 1.0848379 0.6059412 -0.7418552 0.90547884 1.0054941
1.3514708 1.055999 1.0379846 1.0619533 1.5288105 -0.105504856 0.99702996 1.5490751
00000000: be16 5a3f 6231 8ebd cd6b b43f 039e 613f
00000010: cad7 403e 7f5e 1d3f 7146 143f fb09 813f
00000020: 3e3f c03f 1e96 6ebc 7897 823f b580 65bd
00000030: 5ecd 1a3f 1ba0 793f 0c3b 143f 607b 793f
00000040: 3207 8a3f 50a4 85bd 385a 4b3f f3f9 833f
00000050: 1b58 8d3f 7261 9c3e a97d 833f fd3a 853f
00000060: cb49 703f ebe3 823f 427f 453f 19c1 983f
00000070: b757 153e 6289 843f f411 953f daab 693f
00000080: 51b4 323f a4aa 873f d235 953f 2fd7 5e3f
00000090: 9cc9 be3f 02d7 683f 6c10 913f 9505 243f
000000a0: 279e bd3f a228 853f 1956 773f f3ba 943f
000000b0: c1a8 803f 27dd 8b3f 9e5f 103f 1c95 8e3f
000000c0: 803a 8d3f 059d 6e3f fc60 b53e 99d2 2c3f
000000d0: c0b4 c33f d1af d33c e5d7 ca3f 2358 f73e
000000e0: 19f2 993f 430d 8f3f 260b 713f 4e9e 8a3f
000000f0: 453b bd3f 0856 c63f ee31 a13f 7b43 783f
00000100: 01e4 bcbd a35a 833e cef3 833f 9d16 873f
00000110: bdfe 823f c71b 8c3f cab4 913f afc4 9cbd
00000120: ca73 b63f f465 b93f 0463 a33f 7184 d13f
00000130: 671b 1e3f ed08 7f3f 7bc3 913f 46fe 853f
00000140: bcfc 793f 4cd8 cd3d 2796 8a3f 4092 be3f
00000150: 817c ba3f e4a5 84bd 7f9c 33bd 9d5f c23e
00000160: 6278 9c3f ec1b aa3f 6f83 8e3f a75f 97bd
00000170: 261e 873f 3963 b63c 133d 7f3f 6e25 7e3f
00000180: 853a 633f 2b4b 893f e5ff 833f 31fa 803f
00000190: ba73 093f 8ebb 653f 4d23 a73f 0094 ce3f
000001a0: 5742 683f d829 7a3f 231b 943f a301 6b3f
000001b0: 8e5d 933f d10c 8b3f 4af2 c93e 7c7f 6c3f
000001c0: 607d 883f 2479 6e3f 73ba 8dbd c214 8c3f
000001d0: 784b 753f 042b b0bd 978e 813f d196 fe3d
000001e0: a188 ae3f 0974 783f 5be2 7a3f 9518 6d3f
000001f0: 04e3 913f 31bc 8f3f df71 7c3f d5d6 753f
00000200: 4eb9 7fbd 983f d9bd 120d 863f e9fa 983f
00000210: 3c28 763f 5de3 12bd b7eb 7d3f 2df0 b13f
00000220: 81e5 6f3f 7aab 0f3f 59c3 973f 35fd cd3f
00000230: 5456 90bd 7262 833f f18c 843f c69e 883f
00000240: fc12 08be 67b7 8f3f 9acf 8b3f 3b8b 90bd
00000250: 3db5 803f 0f8c d23c a594 c7bd f086 6f3f
00000260: d0df 9a3f d860 863f 8fa1 7b3f 7387 803f
00000270: 370d 763f 09d3 6e3f d84c b93f 4ee0 813f
00000280: c3ac 713f 8e97 253f 7378 c13f 3ad5 843f
00000290: 7813 8c3f 1c2e 743f cbd0 f9bd b694 803f
000002a0: 7c25 b8bd 9cc7 583f d577 863f cc1a 7d3f
000002b0: 7c1c 743f dd1a 6d3f 045d a03f a8db 9dbd
000002c0: c99a 5f3f 9f27 f43e fb4f c33f f49e a63f
000002d0: 1417 953f 4f1b 6c3f 13df 543f 2498 803f
000002e0: bd5b 733f 145d c03f ee13 8a3f 6950 6e3f
000002f0: 2e95 173f 5ee2 a63f 196e b93f 158b 9e3f
00000300: 278c 7b3f 76af b43f 6f2b 803f 748f 7d3f
00000310: a118 8d3f 3b91 4d3f 0ffd 4d3f 4359 afbd
00000320: 0f10 833f 7a9d c23d feb4 7f3f e000 813f
00000330: d36c a83f 8008 913c 881d 4c3e 1b4d eebd
00000340: e8c3 853f 6db1 423e a7fe b93f b2cd 743f
00000350: 4d78 eebc 6f30 923f 1110 713f da27 843f
00000360: 70df 813f 859e bc3f 7cb1 ddbd 4797 853f
00000370: 51b9 8cbd 32ff 903f d651 b23f bc13 943f
00000380: e5d0 0cbd d24c 703f a866 4f3f 5c1d e1bd
00000390: e04d 37bf 739f 6a3f 3bb4 8a3f 901f 3c3f
000003a0: 0066 8a3f b1aa 703f f81e 9cbd 5fa3 7e3f
000003b0: 9cdf e4bd 914a a93f e676 5cbc f3af 803f
000003c0: a443 933f 01d7 693f bea9 c33e f8db 8a3f
000003d0: f61e 1b3f 39ea 3dbf 76cd 673f 08b4 803f
000003e0: fffc ac3f fa2a 873f aedc 843f 16ee 873f
000003f0: 10b0 c33f ee12 d8bd 5b3d 7f3f 1848 c63f

network.8.weight f4 [3, 256]
0.6742915 0.035689164 0.33877796 -0.18086818 -0.7467984 0.27383614 -0.7428552 -0.11243875
0.5519718 0.44420397 0.7064776 0.021271635 0.58932257 -0.121890925 0.6496602 -0.005015505
-0.089222595 0.0464717 0.64938045 -0.063526385 0.8470124 0.8323189 0.7391657 -0.11461244
-0.113090985 -0.15784867 1.0341463 0.7671735 0.37264982 -0.087919734 0.44133213 -0.16035496
-0.33504954 -0.09667745 0.6094539 -0.18224294 0.5903183 0.6384772 0.5213776 0.7799312
0.33104536 -0.20216843 -0.07991722 0.5579891 -0.0870117 0.5062894 0.579623 -0.19666883
0.7733268 -0.04225804 0.052417886 1.015858 0.25604162 0.3114119 0.27350342 0.86390173
0.40105146 -0.5018969 -0.49442643 -0.17328686 0.33103892 0.23920864 0.55675995 -0.031674612
0.040460788 0.16560426 0.64632607 0.75591123 -0.067977995 -0.20385377 0.69873977 -0.022930581
0.74627674 0.30014187 0.49129328 0.4520433 0.51900786 0.6565682 0.93540114 -0.076777376
0.5460985 0.39546078 -0.11379383 0.47989643 0.628091 -0.005980591 0.03529007 -0.17396875
0.25014526 0.440745 -0.14017552 0.00025028482 0.82118624 0.1606594 -0.07915619 -0.047979664
-0.025520252 -0.13701585 -0.1347065 -0.07939091 0.8994799 0.70003533 0.41457635 0.2976658
0.31242535 -0.22847721 0.4811132 -0.07228409 0.4594749 -0.14365879 -0.25797874 -0.13451229
0.61504626 -0.015660718 -0.07018542 -0.13657245 -0.26299402 -0.0015953907 -0.18345098 0.863227
0.74269897 1.0380057 -0.2632484 -0.050496664 0.8491296 0.57175034 -0.086848654 0.54050756
0.028135328 -0.03115163 -0.11475843 0.8068144 -0.07079817 0.047455292 -0.09607615 0.8378155
-0.11858319 -0.43614218 0.48693797 0.53420526 0.021057826 -0.09153969 -0.15950206 0.7791526
-0.19268383 -0.16432634 -0.10997643 0.011972282 0.73482794 0.41520828 -0.02730582 -0.12399525
0.50224376 -0.02438121 -0.19775206 -0.13590199 -0.18731947 0.7428142 0.31527707 -0.17300549
-0.13387682 -0.8420941 0.45632046 -0.07140728 -0.1699645 -0.0345352 -0.00336871 -0.21471322
-0.0036032323 0.5715205 -0.13891432 -0.08052975 -0.020979008 -0.17831804 0.78243273 0.05256302
-0.11235058 0.7205316 0.28675827 0.5598553 0.45007387 -0.18591101 -0.42529985 -0.16458642
-0.073291674 0.3809595 -0.11213785 -0.1604377 -0.51486987 0.34967768 0.7881124 0.681732
-0.17642969 0.29043087 -0.19564393 -0.049341306 -0.15174718 0.91171664 -0.30650225 0.0244434
0.24134636 -1.0523943 -0.076102056 -0.06057862 0.9766542 -0.053764563 -0.015032135 0.17512354
-0.072875 -0.4760242 0.7812756 -0.10659298 0.008222163 0.82287455 -0.17873465 0.70857567
0.6747035 0.43552828 0.012915665 -0.07772486 -0.017179841 0.13245928 0.5431553 0.43734738
-0.019567175 -0.0997086 0.99776685 0.03906062 -0.08214057 1.0843076 -0.46156964 -0.17945829
-0.14790837 -0.11365313 -0.010792546 -0.059148233 0.286166 0.29219753 0.39977446 -0.39175862
0.74014777 -0.18087892 -0.44456148 -0.07489968 0.77685183 -0.108058594 -0.25445205 -0.09930004
0.58765006 -0.089571096 0.6436874 -0.09418486 0.4269605 0.0025242756 -0.07854259 0.25735345
00000000: 5e9e 2c3f cd2e 123d 4e74 ad3e 8235 39be
00000010: 2e2e 3fbf 4034 8c3e c22b 3ebf 4a46 e6bd
00000020: 064e 0d3f b46e e33e b7db 343f da41 ae3c
00000030: d8dd 163f f3a1 f9bd 2250 263f 1b59 a4bb
00000040: 56ba b6bd 1c59 3e3d cc3d 263f 1f1a 82bd
00000050: ced5 583f da12 553f f739 3d3f edb9 eabd
00000060: 3f9c e7bd 15a3 21be e85e 843f 7c65 443f
00000070: f5cb be3e 430f b4bd 49f6 e13e 1734 24be
00000080: 9d8b abbe d4fe c5bd 2c05 1c3f e59d 3abe
00000090: 1a1f 173f 3e73 233f 0179 053f 92a9 473f
000000a0: c77e a93e 3e05 4fbe a4ab a3bd 60d8 0e3f
000000b0: 3133 b2bd 2f9c 013f 2c62 143f 8e63 49be
000000c0: bff8 453f c416 2dbd 23b4 563d a307 823f
000000d0: e317 833e 6171 9f3e a408 8c3e aa28 5d3f
000000e0: 9e56 cd3e 517c 00bf 7625 fdbe 1c72 31be
000000f0: ef7d a93e 1cf3 743e d287 0e3f 3dbd 01bd
00000100: 36ba 253d 2a94 293e a075 253f 6683 413f
00000110: 0c38 8bbd 0bbf 50be 9ce0 323f ead8 bbbc
00000120: fe0b 3f3f 32ac 993e cb8a fb3e 3872 e73e
00000130: b3dd 043f db14 283f 7376 6f3f 753d 9dbd
00000140: 1ccd 0b3f d679 ca3e bd0c e9bd fcb4 f53e
00000150: 92ca 203f d5f8 c3bb 528c 103d dd24 32be
00000160: 0a13 803e 54a9 e13e 2c8a 0fbe a938 8339
00000170: 4339 523f e683 243e a41c a2bd 5386 44bd
00000180: d90f d1bc e24d 0cbe 80f0 09be b497 a2bd
00000190: 5144 663f 8435 333f 5a43 d43e a767 983e
000001a0: 37f6 9f3e eef5 69be 7854 f63e ae09 94bd
000001b0: 4b40 eb3e 4a1b 13be ca15 84be 97bd 09be
000001c0: ac73 1d3f e84a 80bc 60bd 8fbd a6d9 0bbe
000001d0: 27a7 86be 6e1c d1ba 93da 3bbe 72fc 5c3f
000001e0: 8521 3e3f 5fdd 843f 7fc8 86be 97d5 4ebd
000001f0: 8f60 593f 3b5e 123f b5dd b1bd b45e 0a3f
00000200: 0f7c e63c b431 ffbc 7806 ebbd 638b 4e3f
00000210: a2fe 90bd 7b60 423d 93c3 c4bd 147b 563f
00000220: bedb f2bd 074e dfbe ef4f f93e adc1 083f
00000230: 7681 ac3c 2979 bbbd 8254 23be 8b76 473f
00000240: e94e 45be 2a45 28be 533b e1bd 6427 443c
00000250: af1d 3c3f 2e96 d43e 74b0 dfbc 39f1 fdbd
00000260: 0c93 003f 1abb c7bc 847f 4abe e429 0bbe
00000270: add0 3fbe 1229 3e3f ff6b a13e 5a28 31be
00000280: 0117 09be 7b93 57bf d6a2 e93e fb3d 92bd
00000290: 2d0b 2ebe c874 0dbd 93c5 5cbb c8dd 5bbe
000002a0: 3524 6cbb 2b4f 123f 8e3f 0ebe c8ec a4bd
000002b0: 2bdc abbc 0199 36be 834d 483f 524c 573d
000002c0: 1018 e6bd c274 383f fbd1 923e ad52 0f3f
000002d0: 1570 e63e 755f 3ebe e7c0 d9be 5889 28be
000002e0: f219 96bd 200d c33e 87a8 e5bd c849 24be
000002f0: 83ce 03bf f408 b33e bcc1 493f fd85 2e3f
00000300: fca9 34be 5bb3 943e e256 48be 1c1a 4abd
00000310: 9d63 1bbe 4366 693f dded 9cbe 863d c83c
00000320: 8023 773e dbb4 86bf 65db 9bbd 4921 78bd
00000330: 0206 7a3f 3b38 5cbd 5849 76bc 9653 333e
00000340: 7d3f 95bd 72b9 f3be ad01 483f 6c4d dabd
00000350: 40b6 063c e8a7 523f 3706 37be 3765 353f
00000360: 5eb9 2c3f 90fd de3e 3a9c 533c 362e 9fbd
00000370: bdbc 8cbc 68a3 073e 3a0c 0b3f ffeb df3e
00000380: 574b a0bc 0634 ccbd a66d 7f3f 07fe 1f3d
00000390: 5139 a8bd 97ca 8a3f db52 ecbe eac3 37be
000003a0: 4b75 17be f9c2 e8bd 38d3 30bc 6b45 72bd
000003b0: 5a84 923e ea9a 953e 3daf cc3e 9694 c8be
000003c0: 537a 3d3f 5338 39be 909d e3be 0165 99bd
000003d0: c3df 463f d34d ddbd 8a47 82be d25d cbbd
000003e0: 3c70 163f 0d71 b7bd b3c8 243f fee3 c0bd
000003f0: 919a da3e 516e 253b f0da a0bd d5c3 833e

network.8.bias f4 [3]
-0.65785795 -0.55162185 -0.2255673
00000000: 6169 28bf 1737 0dbf 1dfb 66be
