mountaincar_cl_project/mountaincar_cl/runs/periodic/egp/seed_2/online_stream_model.pth (torch, 536437 bytes, 8 tensors)

network.0.weight f4 [256, 2]
0.41532347 2.083839 0.34401268 -0.6452877 0.21819243 2.2751062 0.6872972 -0.2768574
0.0008521433 2.4180799 0.38568124 2.8116057 -0.2316401 1.5451472 0.68699867 -0.33686796
-0.5019413 -0.36671358 0.026857723 2.9515698 0.08014721 0.69207996 0.22642279 -0.13444561
0.004638016 -0.021949649 0.7923616 4.119325 0.31036496 2.9653556 0.5100026 1.690145
0.0104804635 0.37556082 0.48290497 -0.06785399 0.2828132 0.46841007 -0.3001191 -0.24158338
0.87449753 0.429869 0.3393324 -0.2796892 0.3723696 3.2978508 -0.2548166 -0.77181906
-0.47973096 0.84903914 -0.40647042 1.3056244 0.082710944 2.4754257 0.10100164 -3.6894195
-0.3676173 2.7353196 -0.11907395 1.7832568 0.39378875 0.60907036 0.3022912 0.07918835
0.74259704 0.8726391 0.44744116 0.054572523 -0.22706318 -0.06161791 0.48394808 1.8447992
-0.18855442 1.4229187 0.5705466 3.678493 0.6307947 0.082972646 0.292323 -0.24084543
0.14679442 2.561437 -0.16552459 2.4645452 0.5424793 -0.46344796 0.08495949 2.1254497
-0.009363818 2.7676957 0.6426459 -0.033339143 0.7021313 -0.10987948 0.22677605 0.91451526
0.024077417 2.047943 -0.15204662 0.6141332 0.60367507 -0.4298202 -0.31037998 1.9338157
0.46451893 3.2524571 0.03795556 0.060489107 0.028843459 2.4015784 -0.18488425 2.6608562
-0.009886017 2.2142472 0.8042612 0.12246532 0.028829852 2.061007 -0.24918991 2.287972
-0.37739047 2.41901 0.7883826 2.5892863 0.061769478 2.5946028 -0.005212547 2.0873654
0.13879317 0.2984212 0.10689071 3.0124817 -0.58673596 -0.36317787 -0.3883273 -1.2068251
-0.3782853 1.2447497 0.5186767 2.1700227 0.29832408 0.5737869 -0.32976437 1.9624697
0.6212024 0.6157673 0.058327377 0.5514752 0.07775459 2.9904063 0.5118007 -0.4965092
0.201298 0.20990574 0.47368258 0.6276445 -0.16001256 2.8205953 0.19668199 2.706684
-0.14945301 2.9669783 0.627853 0.09057838 -0.32508588 0.6228354 0.50049275 -0.5490637
-0.47493756 0.7171971 0.2155298 0.23579806 0.6952434 0.21781105 0.2834581 3.6284604
0.46554857 -0.64732426 0.24189669 -0.18812996 0.14021447 2.8993356 0.052012157 2.2935505
0.048007622 2.4018075 -0.19957267 3.0275266 -0.13656035 2.076344 -0.12937887 2.4284704
-0.12720223 2.6599898 0.28683966 2.2727532 0.21677136 0.55016774 -0.27048802 0.3720569
0.3161096 -0.39376628 -0.18689209 0.56522435 0.83559275 -0.70896745 0.08337623 2.920218
0.07853995 3.2444947 0.13279805 2.9755669 0.0364558 0.15681717 -0.060756497 2.0007796
0.10505125 2.4272094 -0.0015997855 2.595808 0.88477325 0.0012763471 0.28656232 0.40718657
0.022944093 -0.423423 0.81795084 1.171475 0.17527056 0.6937607 0.48109978 -0.24630095
0.13068953 -3.4133823 0.1056598 2.5590296 -0.3190227 1.96697 0.25162256 1.3511124
0.49702114 -0.31769165 -0.18728177 2.3344615 -0.19532624 3.1094427 0.2899796 1.9220586
-0.015800953 -0.185502 0.29806608 -0.438431 0.3536287 -0.6631938 -0.47666544 -0.6659904
00000000: 47a5 d43e 9e5d 0540 6e22 b03e 9331 25bf
00000010: d66d 5f3e 579b 1140 b6f2 2f3f 41c0 8dbe
00000020: 5e62 5f3a d2c1 1a40 0378 c53e 59f1 3340
00000030: 1033 6dbe 62c7 c53f 25df 2f3f f579 acbe
00000040: 3a7f 00bf e2c1 bbbe ba04 dc3c 85e6 3c40
00000050: 3824 a43d 272c 313f 60db 673e 1cac 09be
00000060: 80fa 973b c0cf b3bc 36d8 4a3f 83d1 8340
00000070: 28e8 9e3e 63c8 3d40 888f 023f ac56 d83f
00000080: 40b6 2b3c 8249 c03e 523f f73e 08f7 8abd
00000090: e4cc 903e 72d3 ef3e 36a9 99be a261 77be
000000a0: 12df 5f3f ca17 dc3e fabc ad3e 6c33 8fbe
000000b0: 3aa7 be3e fd0f 5340 5277 82be ef95 45bf
000000c0: 4c9f f5be a15a 593f e41c d0be b31e a73f
000000d0: 5b64 a93d 606d 1e40 f3d9 ce3d 731f 6cc0
000000e0: 5638 bcbe 7a0f 2f40 0bdd f3bd c241 e43f
000000f0: ae9e c93e 09ec 1b3f eac5 9a3e 802d a23d
00000100: d71a 3e3f 4765 5f3f 0217 e53e 7087 5f3d
00000110: 4083 68be 1063 7cbd 0bc8 f73e 6122 ec3f
00000120: 6914 41be 3322 b63f 580f 123f 6e6c 6b40
00000130: c37b 213f 90ed a93d 5cab 953e 2fa0 76be
00000140: 4751 163e 95ee 2340 477f 29be 1cbb 1d40
00000150: ecdf 0a3f 0d49 edbe 3eff ad3d 5e07 0840
00000160: b36a 19bc ed21 3140 7184 243f a08e 08bd
00000170: e0be 333f 7e08 e1bd fb37 683e ac1d 6a3f
00000180: 013e c53c 8011 0340 1cb2 1bbe d537 1d3f
00000190: 738a 1a3f 6511 dcbe 20ea 9ebe 4687 f73f
000001a0: 6dd5 ed3e 4228 5040 4a77 1b3d 6dc3 773d
000001b0: 1e49 ec3c 76b3 1940 4c52 3dbe 784b 2a40
000001c0: f6f8 21bc 3ab6 0d40 10e4 4d3f 19cf fa3d
000001d0: 952c ec3c 8ae7 0340 a42b 7fbe 226e 1240
000001e0: 5339 c1be 0fd1 1a40 71d3 493f deb6 2540
000001f0: fe01 7d3d f90d 2640 03ce aabb 6597 0540
00000200: cc1f 0e3e aaca 983e 84e9 da3d 80cc 4040
00000210: 5434 16bf 73f2 b9be d6d2 c6be 3f79 9abf
00000220: 9cae c1be f553 9f3f ffc7 043f a7e1 0a40
00000230: efbd 983e b3e3 123f e0d6 a8be 3532 fb3f
00000240: 1f07 1f3f eda2 1d3f b0e8 6e3d 7b2d 0d3f
00000250: cc3d 9f3d d162 3f40 5f05 033f 7436 febe
00000260: 1021 4e3e 88f1 563e 8686 f23e 4fad 203f
00000270: 55da 23be a284 3440 0167 493e 503a 2d40
00000280: 360a 19be f9e2 3d40 f9ba 203f 2881 b93d
00000290: a871 a6be 2472 1f3f 4b20 003f 708f 0cbf
000002a0: 042b f3be 3b9a 373f d8b3 5c3e 0c75 713e
000002b0: 79fb 313f dc09 5f3e 6c21 913e b238 6840
000002c0: 625c ee3e 0bb7 25bf c4b3 773e 24a5 40be
000002d0: 6294 0f3e b78e 3940 b30a 553d 88c9 1240
000002e0: a4a3 443d 37b7 1940 c75c 4cbe ffc2 4140
000002f0: 7ad6 0bbe d2e2 0440 e57b 04be 0f6c 1b40
00000300: 4d41 02be 463d 2a40 a6dc 923e ca74 1140
00000310: 50f9 5d3e cbd7 0c3f 687d 8abe 3e7e be3e
00000320: 1ed9 a13e bc9b c9be a460 3fbe 8bb2 103f
00000330: 68e9 553f e47e 35bf 28c1 aa3d dae4 3a40
00000340: 8ed9 a03d cda5 4f40 36fc 073e b06f 3e40
00000350: ad52 153d ae94 203e cedb 78bd c60c 0040
00000360: 1c25 d73d 6657 1b40 e5af d1ba b821 2640
00000370: 8080 623f 1a4b a73a 4cb8 923e c27a d03e
00000380: 40f5 bb3c e6ca d8be 3a65 513f e5f2 953f
00000390: 207a 333e 4d9a 313f b652 f63e 5136 7cbe
000003a0: 7ad3 053e db74 5ac0 2a64 d83d 24c7 2340
000003b0: f156 a3be acc5 fb3f acd4 803e 40f1 ac3f
000003c0: 8e79 fe3e 7ba8 a2be cbc6 3fbe d167 1540
000003d0: 9a03 48be 1c01 4740 3578 943e 0406 f63f
000003e0: 0071 81bc 3cf4 3dbe 1e9c 983e 077a e0be
000003f0: d20e b53e 12c7 29bf 7e0d f4be 597e 2abf

network.0.bias f4 [256]
0.0079523735 -0.37471354 0.030425195 0.009522938 0.007508176 0.16789179 -0.11463543 -0.6080663
-0.65258664 0.03178876 -0.5363765 -0.3011196 -0.34564656 0.3452126 0.02589483 0.21839836
-0.10405958 -0.41113466 -0.30490446 -0.58184016 -0.1607063 -0.28838113 0.10593314 -0.3252257
-0.23883386 -0.15562096 0.00924539 0.049307074 -0.1438342 -0.080148794 -0.55409443 -0.3715931
0.1739045 -0.3005441 -0.6493354 0.19808605 -0.14278091 0.2407996 -0.703967 -0.00096216326
-0.13070694 -0.2764517 -0.024407014 0.016465124 0.0070271324 -0.4994619 0.0041954177 0.037987422
-0.13631092 -0.3092627 -0.40185705 -0.1570352 0.14955035 -0.04203025 -0.14492628 -0.07659158
0.010801105 -0.13930109 0.0038768838 -0.09244528 -0.1840708 0.32428202 -0.0026958273 0.014925588
-0.23812285 0.017193826 -0.6104618 -0.49914914 -0.46461964 0.22461893 -0.17179376 -0.12616825
-0.49646372 -0.31199938 0.015748484 0.15895535 -0.244973 -0.63314265 -0.06384478 0.06266614
-0.060685687 -0.43932062 -0.36661366 -0.6163223 -0.35510695 -0.3716551 -0.58952194 0.025064614
-0.22560129 -0.5127976 0.051977 -0.040579934 0.026992822 -0.07600416 -0.028700879 -0.05482357
-0.016872913 0.096513405 -0.30028695 -0.61779547 -0.18636358 -0.27496284 0.34965384 0.009382918
0.008288482 -0.15609519 -0.041280806 -0.06402923 0.021165974 0.010910166 0.37710038 -0.26008785
-0.65572834 -0.16541274 -0.41905642 0.13278945 0.06311212 0.036777794 -0.16149437 -0.015014998
-0.5122012 -0.06591933 -0.073565856 0.12736411 -0.52053154 -0.5057047 -0.24205813 -0.6847776
-0.42224294 -0.0011171587 -0.23928079 -0.5773109 -0.42607117 0.011651596 -0.3795042 0.011193929
-0.048369884 0.1832999 -0.5038562 -0.3819446 -0.08603204 0.0121440645 -0.12658562 0.25644276
0.048881695 -0.58323264 -0.064044684 -0.39722756 -0.06951798 -0.049001742 0.14975831 -0.09990079
-0.6441596 -0.16968499 -0.11256283 -0.6550155 -0.13629588 0.1774777 0.08772089 -0.45861062
-0.072621405 -0.6730216 -0.059132002 -0.16822325 -0.6066766 -0.061930656 0.07295575 -0.010912233
-0.08784093 0.102435336 0.023547247 -0.07650273 -0.50459933 -0.3977688 -0.11668805 -0.4622274
0.13915303 0.33616212 -0.040900633 0.0193867 -0.47816747 0.0430177 -0.40423885 -0.026029712
-0.6897185 0.031260148 -0.037345063 -0.5768198 0.10370633 -0.15270326 -0.33608264 -0.5695691
0.14873537 -0.38626528 -0.028338155 -0.40206483 -0.23142025 -0.054179408 -0.11634588 -0.2996566
0.012981257 0.12426556 -0.49241072 -0.43105158 -0.4919262 -0.042056225 -0.6257882 0.020684501
-0.009186896 -0.019076824 -0.10638932 0.069748275 -0.004687488 0.2259054 -0.5363108 0.022196583
-0.48053545 -0.10689466 -0.4881274 0.20133397 -0.45414138 -0.6077125 -0.035468303 -0.009334036
-0.124130316 -0.37567943 -0.39053005 -0.63855845 -0.45010486 -0.7068219 -0.23477024 -0.26199117
0.017912792 -0.34139302 -0.054348197 -0.53058296 -0.2398211 -0.40171131 -0.20127267 -0.4493704
-0.15571164 0.21100906 0.17329462 -0.0746589 0.009493496 -0.2235569 -0.27587414 -0.50917935
-0.39256015 -0.035280377 0.13093978 0.0015972652 -0.38214043 -0.66847944 -0.14492548 -0.1633063
00000000: ac4a 023c 74da bfbe 423e f93c 1906 1c3c
00000010: 2507 f63b d3eb 2b3e fbc5 eabd 3caa 1bbf
00000020: eb0f 27bf ee34 023d f84f 09bf 592c 9abe
00000030: 96f8 b0be b5bf b03e 6521 d43c d2a3 5f3e
00000040: 301d d5bd 3e80 d2be 701c 9cbe 7af3 14bf
00000050: 3190 24be b1a6 93be 79f3 d83d fc83 a6be
00000060: dd90 74be 1a5b 1fbe fa79 173c 37f6 493d
00000070: 4649 13be 0d25 a4bd 22d9 0dbf 7341 bebe
00000080: 0514 323e ebe0 99be d83a 26bf 12d7 4a3e
00000090: 2935 12be 2c94 763e 2e37 34bf af39 7cba
000000a0: 0ad8 05be 148b 8dbe 38f1 c7bc dee1 863c
000000b0: dc43 e63b 78b9 ffbe b779 893b b398 1b3d
000000c0: 1795 0bbe ae57 9ebe 35c0 cdbe d6cd 20be
000000d0: ba23 193e e927 2cbd 8e67 14be 0cdc 9cbd
000000e0: 1ef7 303c f2a4 0ebe 5113 7e3b f353 bdbd
000000f0: 0e7d 3cbe 4b08 a63e 7aac 30bb 748a 743c
00000100: 7ad6 73be 11da 8c3c 3947 1cbf 7a90 ffbe
00000110: a0e2 edbe 8102 663e b4ea 2fbe 4032 01be
00000120: 7e30 febe 62be 9fbe f702 813c 31c5 223e
00000130: 34da 7abe a315 22bf 0dc1 82bd 1b57 803d
00000140: 8e91 78bd a2ee e0be c9b4 bbbe 4cc7 1dbf
00000150: 94d0 b5be 9449 bebe e9ea 16bf 4e54 cd3c
00000160: 0604 67be b446 03bf d6e5 543d 2537 26bd
00000170: 0d20 dd3c 12a8 9bbd 1b1e ebbc ae8e 60bd
00000180: 1039 8abc d2a8 c53d 36bf 99be d827 1ebf
00000190: 18d6 3ebe eec7 8cbe d405 b33e cfba 193c
000001a0: 6acc 073c 6bd7 1fbe 1016 29bd c221 83bd
000001b0: 4464 ad3c 8ec0 323c 4d13 c13e 3c2a 85be
000001c0: d0dd 27bf f561 29be 908e d6be f5f9 073e
000001d0: ed40 813d 50a4 163d c85e 25be 7701 76bc
000001e0: 9e1f 03bf b700 87bd b2a9 96bd bd6b 023e
000001f0: 8e41 05bf dd75 01bf 16de 77be 964d 2fbf
00000200: 3a30 d8be a06d 92ba 0606 75be a6ca 13bf
00000210: 0026 dabe 56e6 3e3c 604e c2be be66 373c
00000220: 801f 46bd f8b2 3b3e b8fc 00bf 3e8e c3be
00000230: 9131 b0bd e6f7 463c a99f 01be 774c 833e
00000240: 2c38 483d bc4e 15bf dc29 83bd 6961 cbbe
00000250: 715f 8ebd 0db6 48bd 3e5a 193e c998 ccbd
00000260: a5e7 24bf e7c1 2dbe 5787 e6bd 19af 27bf
00000270: 2691 0bbe b7bc 353e 03a7 b33d 03cf eabe
00000280: 88ba 94bd 254b 2cbf 6634 72bd b742 2cbe
00000290: 284f 1bbf 00ab 7dbd d369 953d 39c9 32bc
000002a0: f2e5 b3bd 9ec9 d13d 28e6 c03c 77ad 9cbd
000002b0: 6c2d 01bf 5aa8 cbbe 25fa eebd 12a9 ecbe
000002c0: 227e 0e3e 711d ac3e 6c87 27bd dbd0 9e3c
000002d0: 5ed2 f4be 5433 303d 65f8 cebe 433c d5bc
000002e0: 6491 30bf a40a 003d 23f7 18bd 76aa 13bf
000002f0: fc63 d43d 3e5e 1cbe 0613 acbe 48cf 11bf
00000300: 164e 183e 90c4 c5be 6b25 e8bc 71db cdbe
00000310: 6ef9 6cbe 3aeb 5dbd c046 eebd 976c 99be
00000320: 57af 543c f17e fe3d 421d fcbe cbb2 dcbe
00000330: c0dd fbbe 2643 2cbd a833 20bf 8b72 a93c
00000340: a284 16bc 0047 9cbc a5e2 d9bd 2fd8 8e3d
00000350: 8099 99bb bf53 673e aa4b 09bf 9cd5 b53c
00000360: be08 f6be 96eb dabd d6eb f9be 7e2a 4e3e
00000370: 3885 e8be 0c93 1bbf 3647 11bd c9ed 18bc
00000380: 0938 febd 0e59 c0be 8ef3 c7be 9178 23bf
00000390: 2574 e6be 48f2 34bf 9c67 70be b523 86be
000003a0: d9bd 923c 11cb aebe 379c 5ebd 49d4 07bf
000003b0: aa93 75be 1bad cdbe 6c1a 4ebe e113 e6be
000003c0: df72 1fbe c212 583e 2574 313e c4e6 98bd
000003d0: 9c8a 1b3c 1aec 64be 603f 8dbe 9459 02bf
000003e0: a5fd c8be 2882 10bd 1415 063e 545b d13a
000003f0: e9a7 c3be 7821 2bbf 5867 14be c439 27be

network.3.weight f4 [256, 256]
0.027652467 0.041591756 -0.011204652 0.018884132 0.01694314 -0.08571532 -0.11286739 -0.0055539086
-0.022117607 -0.010473661 -0.034347817 -0.007800743 0.009521708 -0.015490416 0.011247874 -0.15977961
0.04130429 0.003129825 0.03804335 -0.017708138 0.025148228 0.035952523 0.11721565 0.05311025
-0.13104793 -0.035754018 -0.00278371 -0.43799502 -0.019364258 0.008284952 -0.024628878 0.0008682981
-0.40250662 0.01427713 -0.05143381 -0.09685391 0.036606193 -0.15920608 0.05666528 0.077988766
0.0014673261 0.05226215 -0.30711445 -0.12349759 -0.083493225 -0.015179642 -0.050322894 -0.25531247
-0.00017608884 0.036248975 -0.054874673 -0.058365494 0.07197166 -0.064267434 0.011805704 -0.029131595
-0.06859784 0.020585097 -0.05924687 0.02969594 -0.08531492 -0.02146595 0.06750207 -0.085584484
-0.054263808 0.028506828 -0.012112223 -0.087159686 -0.07640572 -0.16743158 0.0425731 0.021444077
0.05491223 0.040028095 -0.036717318 -0.43797755 0.010055445 -0.0063550174 0.038793713 -0.0779108
-0.04993308 0.037367374 0.05212309 0.0051284134 -0.018996304 -0.027669996 -0.027422719 0.0042311074
0.035053484 0.02590271 -0.15862696 -0.32777932 0.046391986 0.0010454922 -0.024214696 -0.012475614
-0.056718472 0.101315744 -0.022175834 -0.037174724 -0.034291677 -0.039170563 -0.20276313 -0.08654906
-0.08148496 -0.074872024 -0.084836565 -0.18082193 -0.11764478 -0.057275 -0.25131756 0.013717897
0.042827226 0.0406524 -0.06052918 -0.34968835 -0.33601663 -0.08333114 -0.057491645 -0.16723485
-0.05088205 0.021273958 -0.013282673 -0.10690729 -0.028782018 -0.05337914 0.044679925 -0.015750557
-0.3136002 -0.032912508 0.01061058 -0.023878772 -0.026626341 -0.03998321 -0.05933363 -0.0060043493
-0.051341176 -0.32044277 -0.011237942 -0.24990644 -0.028002791 -0.0025893836 -0.986916 -0.15674897
-0.02508056 -0.033661895 -0.041813463 -0.05136594 -0.058049288 0.056384835 0.08982993 -0.040198326
-0.0030117482 -0.024877187 -0.01834907 -0.0017650798 0.06502773 -0.13490057 -0.6889479 -0.097520195
0.029498227 -0.010391362 0.0018294406 0.0077947755 -0.009542204 -0.0015715236 -0.042649504 -0.082136184
-1.0226406 -0.4463763 0.12854333 -0.024066107 0.05332862 -0.04715781 -0.04405671 -0.21223557
0.07922694 -0.20355548 0.0045388117 -0.099483505 0.046128467 -0.11775364 -0.31129113 -0.11316333
0.03982663 0.04468084 -0.0557651 -0.032071225 -0.5360801 0.122169964 0.10911199 0.012347594
-0.005731927 -0.3447827 0.025353888 0.00782384 0.006414905 -0.095743395 -0.067598976 0.038840577
-0.1093096 -0.26745832 -0.062180772 0.013234615 -0.092375316 -0.14161316 -0.023751825 -0.023863878
-0.047614746 0.017395712 -0.049170513 -0.25517645 -0.08352559 -0.054363567 -0.052985042 -0.028421713
-0.046054013 0.08227079 -0.0045221 -0.18902405 0.042289086 0.01365865 -0.08655105 -0.004109695
-0.48365167 -0.28423944 -0.015500381 -0.017802581 -0.0008757768 0.0027717352 0.0049276724 0.16615172
-0.011922602 -0.5272856 -0.06632794 -0.04061471 -0.5208399 -0.019085826 -0.00017738173 0.01468977
0.31298354 -0.03445317 -0.4744767 0.024758667 -0.009373599 -0.039222598 -0.056374375 0.059636936
-0.19381154 0.0003821105 -0.2749553 -0.04455075 -0.37807843 -0.024510823 -0.014048914 -0.043881543
00000000: 6d87 e23c 1e5c 2a3d b793 37bc e5b2 9a3c
00000010: 57cc 8a3c 848b afbd 0527 e7bd 90fd b5bb
00000020: fc2f b5bc b899 2bbc 4cb0 0cbd 609d ffbb
00000030: f000 1c3c 84cb 7dbc 0149 383c 449d 23be
00000040: b02e 293d c01d 4d3b 58d3 1b3d a810 91bc
00000050: a803 ce3c f442 133d c20e f03d 228a 593d
00000060: 6e31 06be ce72 12bd e76e 36bb e240 e0be
00000070: cba1 9ebc 9bbd 073c 80c2 c9bc 809e 633a
00000080: 5915 cebe a0ea 693c 42ac 52bd 585b c6bd
00000090: 60f0 153d eb06 23be da19 683d 93b8 9f3d
000000a0: 4b53 c03a d610 563d 1b3e 9dbe 4eec fcbd
000000b0: 7ffe aabd 08b4 78bc 611f 4ebd 51b8 82be
000000c0: 7da4 38b9 ce79 143d 44c4 60bd a810 6fbd
000000d0: e165 933d a59e 83bd b66c 413c 62a5 eebc
000000e0: 067d 8cbd 14a2 a83c d9ac 72bd e644 f33c
000000f0: 97b9 aebd 5cd9 afbc 863e 8a3d eb46 afbd
00000100: ba43 5ebd 2787 e93c 5872 46bc c780 b2bd
00000110: 9a7a 9cbd 2f73 2bbe 2261 2e3d 7dab af3c
00000120: a6eb 603d 80f4 233d e664 16bd 983e e0be
00000130: 98bf 243c c03d d0bb 28e6 1e3d b38f 9fbd
00000140: a186 4cbd 880e 193d 057f 553d 400c a83b
00000150: 239e 9bbc 30ac e2bc 9ca5 e0bc 1aa5 8a3b
00000160: 3e94 0f3d ec31 d43c 1b6f 22be b1d2 a7be
00000170: 8605 3e3d e608 893a e65d c6bc 8566 4cbc
00000180: a151 68bd a17e cf3d 18aa b5bc 8644 18bd
00000190: 6e75 0cbd 5071 20bd 23a1 4fbe a240 b1bd
000001a0: 96e1 a6bd 8156 99bd cbbe adbd 6229 39be
000001b0: bfef f0bd 3199 6abd b2ac 80be 08c1 603c
000001c0: 9a6b 2f3d 2283 263d 72ed 77bd 5a0a b3be
000001d0: 5f0a acbe 84a9 aabd 5c7c 6bbd 9d3f 2bbe
000001e0: b269 50bd b946 ae3c 929f 59bc 36f2 dabd
000001f0: 44c8 ebbc 16a4 5abd 4c02 373d 5007 81bc
00000200: 3590 a0be 44cf 06bd 00d8 2d3c 6a9d c3bc
00000210: 7c1f dabc 6fc5 23bd d207 73bd 22c0 c4bb
00000220: 204b 52bd 1311 a4be 581f 38bc 79e7 7fbe
00000230: 1c66 e5bc a6b2 29bb 87a6 7cbf cd82 20be
00000240: bf75 cdbc 0ee1 09bd 9844 2bbd 1865 52bd
00000250: 17c5 6dbd c9f3 663d c1f8 b73d 00a7 24bd
00000260: c060 45bb 3ecb cbbc ca50 96bc 405a e7ba
00000270: 422d 853d 6023 0abe e45e 30bf abb8 c7bd
00000280: 44a6 f13c 8840 2abc d7c9 ef3a 516b ff3b
00000290: e856 1cbc 95fb cdba 3fb1 2ebd 0437 a8bd
000002a0: e3e5 82bf 6f8b e4be dda0 033e 4926 c5bc
000002b0: 1c6f 5a3d 8c28 41bd cf74 34bd 4854 59be
000002c0: bc41 a23d d970 50be 50ba 943b 02be cbbd
000002d0: 34f1 3c3d d228 f1bd 8d61 9fbe 2dc2 e7bd
000002e0: 4021 233d 4203 373d f269 64bd 1e5d 03bd
000002f0: 8c3c 09bf 3f34 fa3d 1b76 df3d 904d 4a3c
00000300: e4d2 bbbb 5c87 b0be f5b2 cf3c 902f 003c
00000310: 2034 d23b 1d15 c4bd 5571 8abd 4c17 1f3d
00000320: b6dd dfbd 4cf0 88be 44b1 7ebd 00d6 583c
00000330: 452f bdbd 0a03 11be 3093 c2bc 2e7e c3bc
00000340: ae07 43bd 7481 8e3c 0567 49bd 7da6 82be
00000350: 770f abbd 55ac 5ebd d806 59bd a7d4 e8bc
00000360: 22a3 3cbd 977d a83d 202e 94bb 858f 41be
00000370: 5237 2d3d 88c8 5f3c ad41 b1bd 9faa 86bb
00000380: 31a1 f7be d587 91be 4ff5 7dbc b8d6 91bc
00000390: 6394 65ba 00a6 353b 5078 a13b ad23 2a3e
000003a0: 0457 43bc 30fc 06bf f1d6 87bd 9c5b 26bd
000003b0: c455 05bf e159 9cbc 8cff 39b9 5cad 703c
000003c0: 613f a03e c41e 0dbd 9cee f2be b0d2 ca3c
000003d0: b993 19bc e0a7 20bd d1e8 66bd dc45 743d
000003e0: 8876 46be 0156 c839 f1c6 8cbe d97a 36bd
000003f0: 7f93 c1be ecca c8bc 6b2d 66bc 22bd 33bd

network.3.bias f4 [256]
0.16744459 0.14265943 0.1293362 0.11829104 0.15827645 -0.044914447 -0.014542983 0.17880534
-0.028340023 -0.26022214 0.148317 0.14186941 -0.016578723 -0.0018719992 0.12283101 0.14524393
-0.046088416 0.09336598 0.14387552 -0.08209615 0.12726524 -0.0057306685 -0.08521745 0.14926934
-0.02569439 -0.007286995 -0.074612916 -0.009566745 -0.07098537 0.1373168 0.13469496 -0.012476429
0.092076965 0.13110608 -0.020909997 -0.025827222 0.1672948 0.18499202 0.13146462 0.09544717
0.124969184 0.18258566 0.018022643 0.08757531 0.023787472 -0.02984058 -0.07134369 -0.06914372
-0.06767026 0.20432535 -0.052854534 0.13596922 -0.03302077 0.11676933 0.117331795 0.18487059
-0.05465071 -0.09811529 0.106765136 -0.058890212 0.16678211 0.15563846 0.14469522 -0.023321914
0.1576503 0.17426397 0.16468698 -0.049689785 -0.3138856 -0.031582322 0.17185318 0.09794928
0.13412425 -0.0336914 0.11905501 0.07140244 0.15518099 0.15206678 -0.04405231 -0.06364077
-0.044680674 0.11963935 0.19318184 0.11918423 0.21817422 0.1305901 -0.018504366 0.116495445
0.12520649 -0.008014832 -0.05145988 0.1385343 -0.015069759 0.17001761 0.10519596 0.107893415
0.14677155 0.18809038 0.17228507 0.2175961 0.12565657 0.20922932 0.16543353 0.098530516
-0.074201025 0.15672453 -0.018459002 0.115067884 0.16449134 0.09888361 0.16081205 -0.025675654
0.14621101 -0.052828096 0.1814548 -0.040877 0.1316707 -0.03371751 -0.08106803 -0.052710433
0.051435564 -0.07252216 0.16079399 0.14689524 -0.045852724 0.061206162 -0.08358018 0.107993744
-0.043606814 0.0032767688 -0.080779396 0.10838142 0.13555576 0.0053963456 0.12501304 0.12122536
0.15944442 0.12280294 0.09605028 0.1378653 0.12185203 -0.023740795 0.08867067 -0.0122297
0.17253222 0.013592801 0.11924732 0.14701784 -0.06499315 0.11636106 0.17213333 0.1573844
0.16195542 -0.030872654 0.19519655 0.12667951 -0.074352585 0.13881482 -0.07034516 0.1376239
-0.041977175 -0.043599032 -0.053905793 0.13862883 0.15897688 0.16323829 0.17244896 -0.10582552
0.12841548 0.17518342 -0.031197257 0.12874393 0.1372431 -0.02857917 0.09722642 0.18866472
-0.032437455 0.14242712 0.13239864 0.14337286 0.12936223 -0.05971267 -0.019276273 0.16482982
0.11833469 -0.06596836 0.16727538 0.14636295 0.10365275 -0.037840806 -0.013644571 -0.020985004
-0.05630569 -0.016810885 0.1556983 0.13546284 -0.05509539 -0.06779549 0.109516785 -0.053761616
0.12984045 0.13673411 0.126401 0.0622452 0.12670216 0.09547892 -0.23244753 -0.07597312
0.13548765 -0.06986359 0.029971391 -0.055918504 0.013623863 0.08751301 0.09470321 0.114665076
-0.011094844 0.1333225 0.10144205 0.13216063 -0.06218666 -0.016670812 -0.06511377 0.13117461
0.05847922 0.1767942 -0.013718746 0.090247825 -0.0325019 -0.05698275 0.13224642 -0.042689685
0.14494514 0.14943072 0.124846525 0.12552808 0.1504893 -0.07503323 0.2163198 -0.043386005
0.14416525 -0.04044005 -0.06286803 0.13431159 0.11791309 0.13661896 -0.030374 -0.07559518
0.16071646 0.13815252 0.14469977 0.10162123 0.096003495 -0.022880584 0.10042066 0.12985116
00000000: 9876 2b3e 5015 123e b570 043e 9342 f23d
00000010: 3913 223e 36f8 37bd b145 6ebc bf18 373e
00000020: 5629 e8bc d63b 85be 69e0 173e 3746 113e
00000030: 1ad0 87bc df5d f5ba d38e fb3d d3ba 143e
00000040: 35c7 3cbd aa36 bf3d 1b54 133e 0722 a8bd
00000050: d251 023e 55c8 bbbb 7d86 aebd 10da 183e
00000060: 0b7d d2bc bfc7 eebb a8ce 98bd d6bd 1cbc
00000070: c760 91bd c69c 0c3e 7aed 093e f069 4cbc
00000080: d992 bc3d ac40 063e 714b abbc 9c93 d3bc
00000090: 544f 2b3e 8c6e 3d3e a99e 063e ce79 c33d
000000a0: d8ef ff3d bcf7 3a3e 39a4 933c af5a b33d
000000b0: f2dd c23c 3b74 f4bc a41c 92bd 399b 8dbd
000000c0: b596 8abd aa3a 513e ff7d 58bd 843b 0b3e
000000d0: c940 07bd c224 ef3d a74b f03d b74e 3d3e
000000e0: 6cd9 5fbd abf0 c8bd aea7 da3d dd36 71bd
000000f0: eec8 2a3e b05f 1f3e fc2a 143e 990d bfbc
00000100: 156f 213e 4172 323e b4a3 283e 8487 4bbd
00000110: 9db5 a0be 775c 01bd 48fa 2f3e a299 c83d
00000120: de57 093e feff 09bd 1dd3 f33d 713b 923d
00000130: c4e7 1e3e 65b7 1b3e 3270 34bd 1856 82bd
00000140: 1503 37bd 7a05 f53d 76d1 453e dd16 f43d
00000150: 1069 5f3e 69b9 053e 7896 97bc 2a95 ee3d
00000160: 2136 003e a450 03bc 98c7 52bd efdb 0d3e
00000170: 27e7 76bc 1919 2e3e fb70 d73d 39f7 dc3d
00000180: 484b 163e c49a 403e 7f6b 303e 83d1 5e3e
00000190: 1eac 003e 3640 563e 6867 293e 5eca c93d
000001a0: b5f6 97bd 657c 203e 5537 97bc b6a8 eb3d
000001b0: 6b70 283e 7d83 ca3d eaab 243e c055 d2bc
000001c0: 57b8 153e 4662 58bd 49cf 393e a46e 27bd
000001d0: afd4 063e 5f1b 0abd ff06 a6bd e5e6 57bd
000001e0: 19ae 523d 8086 94bd 2ea7 243e b56b 163e
000001f0: 11d0 3bbd 50b3 7a3d 162c abbd d32b dd3d
00000200: 0f9d 32bd 0fbf 563b ab6f a5bd 14f7 dd3d
00000210: 21cf 0a3e d4d3 b03b 6b03 003e 0045 f83d
00000220: 6645 233e 1c80 fb3d 02b6 c43d 902c 0d3e
00000230: 8f8d f93d 0e7c c2bc f898 b53d 145f 48bc
00000240: 49ac 303e 57b4 5e3c f037 f43d d88b 163e
00000250: 211b 85bd b54e ee3d b843 303e 6029 213e
00000260: a4d7 253e a6e8 fcbc 9be1 473e 46b8 013e
00000270: 2b46 98bd 7925 0e3e 2011 90bd 48ed 0c3e
00000280: 42f0 2bbd e694 32bd 52cc 5cbd b7f4 0d3e
00000290: d6ca 223e f027 273e 7696 303e 0dbb d8bd
000002a0: 597f 033e 4863 333e 6491 ffbc 73d5 033e
000002b0: 7589 0c3e dd1e eabc a51e c73d 5331 413e
000002c0: 23dd 04bd 6ad8 113e 8293 073e 56d0 123e
000002d0: 8877 043e 4695 74bd 46e9 9dbc 26c9 283e
000002e0: 7559 f23d 6b1a 87bd 3d4a 2b3e 2be0 153e
000002f0: e547 d43d f6fe 1abd 7b8d 5fbc bee8 abbc
00000300: cca0 66bd fbb6 89bc 606f 1f3e c5b6 0a3e
00000310: b4ab 61bd 5dd8 8abd 564a e03d 2435 5cbd
00000320: e5f4 043e 0704 0c3e 446f 013e d3f4 7e3d
00000330: 36be 013e 748a c33d ba06 6ebe cc97 9bbd
00000340: 46bd 0a3e a414 8fbd 9086 f53c cd0a 65bd
00000350: a036 5f3c 053a b33d c2f3 c13d 86d5 ea3d
00000360: 26c7 35bc b285 083e d9c0 cf3d 1e55 073e
00000370: 70b7 7ebd 3a91 88bc 5e5a 85bd a352 063e
00000380: e887 6f3d 8a09 353e 97c4 60bc dad3 b83d
00000390: b620 05bd be66 69bd 9b6b 073e 61db 2ebd
000003a0: 806c 143e 5e04 193e 89af ff3d 6f8a 003e
000003b0: de19 1a3e 06ab 99bd f082 5d3e 86b5 31bd
000003c0: 0ea0 133e 77a4 25bd f4c0 80bd fa88 093e
000003d0: 6b7c f13d d7e5 0b3e e5d2 f8bc a5d1 9abd
000003e0: db92 243e db77 0d3e 2d2c 143e cb1e d03d
000003f0: 7b9d c43d 1070 bbbc 59a9 cd3d b4f7 043e

network.6.weight f4 [256, 256]
-0.07065976 -0.59241843 -0.37610605 0.095768064 -0.25910354 0.023144841 -0.13605334 -0.07736001
-0.02926967 -0.12076078 -0.5305449 -0.36871517 0.017293472 -0.0003781904 -0.4134131 -0.4803973
-0.01503192 -0.40975726 -0.29884243 0.057767272 -0.19502302 -0.025035465 -0.030046584 -0.21541655
-0.010773861 -0.09309758 -0.021164395 -0.0228794 0.009470381 -0.13238747 -2.6731459e-05 0.17247583
-0.12401801 -0.312919 -0.002208883 0.02735344 -0.1354434 -0.3412245 -0.066936865 -0.33877406
-0.22840735 -0.6526691 0.0029435984 -0.2549077 -0.10084557 0.010319963 -0.017510671 0.073913306
0.0034087747 0.08087177 0.042670038 -0.3026142 -0.03550513 -0.31333187 -0.34931964 -0.38915613
-0.039135285 -0.02751587 -0.23251222 0.034823682 -0.58304596 -0.7342999 -0.40780932 -0.060395494
-0.42412058 -0.49784124 -0.28524894 0.03504186 0.37946594 0.055304274 -0.23020233 -0.25072134
-0.33190233 -0.0113177 -0.30187014 -0.50732523 -0.35654324 -0.6929589 -0.018018223 -0.037174597
-0.040791456 -0.28870362 -0.4394596 -0.52617705 -0.39671394 -0.35278472 -0.16082278 -0.410809
-0.36636233 -0.13444388 0.014245423 -0.19551003 -0.051341325 -0.22517535 -0.14164035 -0.15883642
-0.5550351 -0.6462071 -0.23604548 -0.28238782 -0.14544262 -0.3687215 -0.15464239 -0.09809183
-0.022001714 -0.5140235 0.01539279 -0.33569965 -0.42961413 -0.21675223 -0.13468003 -0.028140642
0.017973917 0.040824577 -0.42923418 0.003763636 -0.23193291 -0.0096312165 0.05284712 0.018970719
0.15869401 -0.014221244 -0.3030719 -0.36379325 -0.004899227 0.025604285 0.052209787 -0.21780719
-0.025253633 -0.10130908 0.047622196 -0.3299751 -0.18574828 -0.014217628 -0.62616736 -0.104391806
-0.38941813 -0.55777425 -0.14104538 -0.3417412 -0.36627066 -0.05596111 -0.3098213 -0.0022141028
-0.68537754 0.077772036 -0.16583459 -0.2129437 -0.04684298 -0.33834934 -0.27015448 -0.34846595
-0.091411315 0.025916055 -0.18266176 -0.3364058 0.0057156095 -0.41066208 0.014292525 -0.4173832
0.043901283 -0.030925695 -0.035898935 -0.5824117 -0.5450136 -0.42662472 -0.271999 -0.017040098
-0.27267218 -0.5007789 -0.04168527 -0.4171297 -0.27011842 -0.12001688 -0.45771652 -0.6188046
-0.060232304 -0.25603506 -0.3074494 -0.5863168 -0.06150357 -0.01725205 0.005625114 -0.56497866
-0.09033672 0.060394846 -0.11074449 -0.25424296 -0.12246003 0.032455117 -0.00845737 0.0047289347
-0.010063916 -0.0070045963 -0.23119569 -0.416029 0.03518875 -0.0412196 -0.417319 0.04696109
-0.22209588 -0.43318477 -0.28125334 0.15360592 -0.5754913 -0.3661952 -0.07793144 0.02829579
-0.18461911 0.00598301 0.3269721 -0.00042279036 -0.06767344 -0.20044905 -0.13649413 -0.216009
0.030444337 -0.6525019 -0.15895389 -0.55577654 -0.03406924 -0.057193786 -0.057882547 -0.27519414
-0.37958232 -0.15593056 -0.026892701 -0.19109239 0.0009593364 -0.034674693 0.05594508 -0.12714708
-0.35908818 -0.5895099 -0.3083125 -0.3034035 -0.26879185 -0.044294283 -0.25620607 -0.0031637622
-0.23274243 0.036548384 0.002627477 -0.27676046 -0.05936398 -0.35923478 0.015063854 0.03298643
-0.12827966 -0.2222484 -0.38488558 -0.42723057 -0.17875668 0.013254021 -0.30606163 -0.16004422
00000000: 10b6 90bd bca8 17bf f990 c0be 0c22 c43d
00000010: 38a9 84be 409a bd3c 9151 0bbe ed6e 9ebd
00000020: f2c6 efbc 6e51 f7bd cad1 07bf 3cc8 bcbe
00000030: 0aab 8d3c db47 c6b9 e2aa d3be a3f6 f5be
00000040: 7148 76bc b4cb d1be e001 99be 609d 6c3d
00000050: 1db4 47be 2d17 cdbc 4124 f6bc 2896 5cbe
00000060: d984 30bc f2a9 bebd f460 adbc 946d bbbc
00000070: a829 1b3c 9590 07be 5f3d e0b7 819d 303e
00000080: 28fd fdbd eb36 a0be e8c2 10bb 5214 e03c
00000090: adb1 0abe fab4 aebe 3216 89bd cb73 adbe
000000a0: 9ee3 69be 5215 27bf 63e9 403b 4383 82be
000000b0: 1f88 cebd 1015 293c 8a72 8fbc dc5f 973d
000000c0: c065 5f3b 19a0 a53d c7c6 2e3d 40f0 9abe
000000d0: d46d 11bd 096d a0be 06da b2be 793f c7be
000000e0: 524c 20bd f668 e1bc af17 6ebe 47a3 0e3d
000000f0: 8042 15bf 14fb 3bbf 62cc d0be 4461 77bd
00000100: 5526 d9be 0ce5 febe 260c 92be 0e88 0f3d
00000110: 5c49 c23e bc86 623d 29ba 6bbe 8c5e 80be
00000120: 1aef a9be e06d 39bc b98e 9abe 11e0 01bf
00000130: d68c b6be c165 31bf f49a 93bc 6444 18bd
00000140: f114 27bd f6d0 93be d900 e1be 8ab3 06bf
00000150: 171e cbbe 33a0 b4be baae 24be 8f55 d2be
00000160: d893 bbbe a8ab 09be a265 693c c833 48be
00000170: 484b 52bd 5e94 66be 2b0a 11be 04a6 22be
00000180: c816 0ebf d46d 25bf e8b5 71be 2395 90be
00000190: e9ee 14be 10c9 bcbe 935a 1ebe 5fe4 c8bd
000001a0: f03c b4bc 0b97 03bf 0a32 7c3c d3e0 abbe
000001b0: 62f6 dbbe 4cf4 5dbe 90e9 09be 3487 e6bc
000001c0: 093e 933c ac37 273d 95c4 dbbe 56a7 763b
000001d0: d27f 6dbe 40cc 1dbc 3976 583d 7b68 9b3c
000001e0: af80 223e 3800 69bc 3d2c 9bbe 1c43 babe
000001f0: b289 a0bb 14c0 d13c eed9 553d d908 5fbe
00000200: b5e0 cebc 237b cfbd 7e0f 433d 7ff2 a8be
00000210: cc34 3ebe 0ef1 68bc 814c 20bf 5fcb d5bd
00000220: d061 c7be 4bca 0ebf 336e 10be b4f8 aebe
00000230: d487 bbbe 7a37 65bd e6a0 9ebe 7b1a 11bb
00000240: e774 2fbf f246 9f3d 8bd0 29be ea0d 5abe
00000250: 6dde 3fbd 203c adbe b051 8abe 216a b2be
00000260: db35 bbbd e84d d43c af0b 3bbe 623d acbe
00000270: 024a bb3b 4d42 d2be 322b 6a3c 40b3 d5be
00000280: d5d1 333d e257 fdbc c30a 13bd ef18 15bf
00000290: 0386 0bbf 8e6e dabe 7443 8bbe ad97 8bbc
000002a0: b09b 8bbe 0c33 00bf 2cbe 2abd 0692 d5be
000002b0: f64c 8abe 69cb f5bd d259 eabe fa69 1ebf
000002c0: 26b6 76bd 0717 83be 026a 9dbe dc18 16bf
000002d0: 2beb 7bbd 2c54 8dbc e052 b83b 71a2 10bf
000002e0: 7502 b9bd 9660 773d 02ce e2bd 222c 82be
000002f0: 53cc fabd a8ef 043d c890 0abc 2ef5 9a3b
00000300: 20e3 24bc d086 e5bb 90be 6cbe c101 d5be
00000310: 1422 103d e2d5 28bd d6aa d5be 465a 403d
00000320: 1a6d 63be 65ca ddbe 7000 90be df4a 1d3e
00000330: 6653 13bf f07d bbbe 859a 9fbd 93cc e73c
00000340: cb0c 3dbe 200d c43b e368 a73e f6a9 ddb9
00000350: 5f98 8abd 8442 4dbe 1ec5 0bbe 7731 5dbe
00000360: 6766 f93c 5d0a 27bf cfc4 22be 5f47 0ebf
00000370: 308c 0bbd 0844 6abd 4016 6dbd 3fe6 8cbe
00000380: 9d58 c2be 43ac 1fbe 154e dcbc b9ad 43be
00000390: fa7b 7b3a 0d07 0ebd ab26 653d d832 02be
000003a0: 68da b7be 1fea 16bf 23db 9dbe b457 9bbe
000003b0: 169f 89be ec6d 35bd 712d 83be 1f57 4fbb
000003c0: 0854 6ebe c2b3 153d c031 2c3b 8cb3 8dbe
000003d0: a527 73bd 9fed b7be 62ce 763c c71c 073d
000003e0: be5b 03be 1695 63be b90f c5be f7bd dabe
000003f0: fe0b 37be 6527 593c 1cb4 9cbe a2e2 23be

network.6.bias f4 [256]
0.35961667 1.521604 1.9818383 -0.05900581 -0.038627952 2.007116 1.6239165 1.990322
1.931342 0.3821437 0.531512 -0.0126010245 -0.020569494 -0.046623785 1.9737629 0.0058436017
-0.036298484 1.9132907 -0.044180278 0.27901652 1.9168648 -0.06093256 1.9214234 -0.03366165
1.9683374 1.8794392 -0.072981045 -0.051179968 -0.05336027 -0.08365086 -0.032809008 0.51554334
1.5952806 0.02844047 1.0256263 -0.0708554 1.9622061 -0.018885018 1.9873149 -0.035295747
2.01486 -0.0073523396 1.9315144 1.9800609 -0.015795501 0.04209106 0.021328717 -0.04487291
-0.012876666 -0.04608712 -0.07627429 0.17267106 0.35157993 0.0731181 1.9173871 0.35813075
1.9016418 1.9693727 0.10071304 1.9874173 -0.03978253 1.9048623 2.0216398 -0.059192102
-0.07945107 1.9762983 -0.09937621 -0.09212604 1.968265 1.9186988 -0.059828874 -0.031267058
0.1987183 1.8753132 1.9630474 1.48506 1.9243346 -0.073087186 -0.09811085 -0.08552658
-0.08519171 0.33115396 1.8948674 1.9882259 0.30556032 -0.05761987 1.8939214 1.9074132
1.861187 1.9024829 -0.08321058 -0.05433382 -0.023088338 1.9258525 -0.05981132 1.9010903
0.029049732 2.0019479 1.4586161 -0.066974185 2.0088878 2.0045717 1.9424745 2.0281355
-0.071771696 0.029074438 1.8668327 -0.04470479 -0.00061969017 -0.03838021 -0.048873097 1.9328125
2.0008268 1.9581752 0.039076153 -0.06323301 -0.06855169 2.0143828 2.015172 1.949484
-0.06928722 -0.040830262 1.9321849 -0.03395384 -0.037809927 1.9429753 1.8960955 2.0115073
1.8702437 -0.017177032 -0.046865754 1.9863398 1.8016267 2.0104797 1.8850552 1.8933434
1.991423 1.0290383 1.9227941 1.9812639 0.042580575 -0.05523989 -0.082051456 -0.0743693
2.010946 1.8126292 -0.031402543 0.40135947 1.971285 2.0085852 -0.01849558 -0.05038833
1.9365847 -0.018085256 -0.1043977 0.30338264 0.38866073 -0.061961874 0.41495612 0.50550234
0.19158971 0.3155237 -0.046377752 1.9660773 1.8435694 1.9240092 1.9465576 1.9534475
-0.07194314 -0.07927429 -0.06958337 1.899768 1.401355 -0.012107389 1.9760292 0.019347424
1.9543806 1.929572 1.8836305 0.53975856 0.007871831 1.8918802 0.45450434 1.9834018
1.9388796 1.9983366 -0.042267874 1.8705245 1.9788922 -0.024821524 0.48388436 1.9944221
0.35869488 1.9834551 1.9707918 1.5200033 1.8731669 0.13749768 -0.042045213 1.4436641
-0.038599074 -0.06219959 2.005279 1.9605987 1.9639093 -0.052611403 0.37001905 0.024031378
0.1863098 -0.03720946 1.9775591 2.0061328 1.9395795 1.8449639 1.8737673 0.07150247
-0.01949021 -0.0716204 -0.05612477 1.6444572 0.49031132 1.0643426 -0.037460107 1.9675567
-0.07102669 -0.05973337 1.9104031 1.9680647 1.94061 2.0198662 1.9466754 -0.028268637
1.9196361 1.9456011 0.38166842 -0.029545357 2.0207405 1.8642709 -0.04617155 1.9848477
1.8918868 0.35712108 1.9828176 -0.065678455 0.25993073 0.51356566 -0.0764571 1.9752986
1.3004403 1.9266974 0.23010015 1.4151778 1.9934845 0.38815492 -0.031077584 1.9786918
00000000: ad1f b83e ebc3 c23f e1ac fd3f 14b0 71bd
00000010: 5838 1ebd 9774 0040 7fdc cf3f dfc2 fe3f
00000020: 3736 f73f 57a8 c33e 2c11 083f 8774 4ebc
00000030: 5b81 a8bc 95f8 3ebd 43a4 fc3f af7b bf3b
00000040: b8ad 14bd b6e6 f43f 61f6 34bd 41db 8e3e
00000050: d35b f53f 6c94 79bd 34f1 f53f cce0 09bd
00000060: 7bf2 fb3f 7791 f03f 1677 95bd 16a2 51bd
00000070: 4c90 5abd 2451 abbd bd62 06bd a6fa 033f
00000080: 2832 cc3f fdfb e83c b947 833f a31c 91bd
00000090: 9229 fb3f c1b4 9abc 5660 fe3f 4692 10bd
000000a0: 77f3 0040 e5eb f0bb dd3b f73f a372 fd3f
000000b0: 9165 81bc ad67 2c3d 90b9 ae3c a8cc 37bd
000000c0: a7f8 52bc d9c5 3cbd b235 9cbd afd0 303e
000000d0: 4902 b43e f1be 953d f16c f53f ea5c b73e
000000e0: 0069 f33f 6814 fc3f a342 ce3d b163 fe3f
000000f0: 02f3 22bd 87d2 f33f 8c62 0140 6b73 72bd
00000100: 3eb7 a2bd 58f7 fc3f c185 cbbd 94ac bcbd
00000110: 1cf0 fb3f ec97 f53f 1f0f 75bd e311 00bd
00000120: cf7c 4b3e 430a f03f 2345 fb3f 7216 be3f
00000130: 9950 f63f bcae 95bd 57ee c8bd 8f28 afbd
00000140: fe78 aebd 038d a93e 048b f23f 307e fe3f
00000150: 6772 9c3e d002 6cbd 046c f23f 1e26 f43f
00000160: 603b ee3f 8f84 f33f 4f6a aabd 248d 5ebd
00000170: c123 bdbc 5682 f63f b7fc 74bd ed56 f33f
00000180: b4f9 ed3c ea1f 0040 efb3 ba3f c329 89bd
00000190: 9e91 0040 e74a 0040 01a3 f83f f9cc 0140
000001a0: 0afd 92bd 842d ee3c 60f4 ee3f 5f1c 37bd
000001b0: b472 22ba 9134 1dbd 282f 48bd 6666 f73f
000001c0: 8c0d 0040 7ca5 fa3f 510e 203d 4f80 81bd
000001d0: d464 8cbd a6eb 0040 94f8 0040 b188 f93f
000001e0: 75e6 8dbd a23d 27bd d651 f73f 2f13 0bbd
000001f0: 95de 1abd 6ab3 f83f 42b3 f23f 89bc 0040
00000200: 2564 ef3f d9b6 8cbc 4ef6 3fbd 6240 fe3f
00000210: b49b e63f b3ab 0040 7d49 f13f 1459 f23f
00000220: f3e6 fe3f 87b7 833f 1e1e f63f 0e9a fd3f
00000230: f868 2e3d 3943 62bd 980a a8bd ee4e 98bd
00000240: 57b3 0040 3c04 e83f f49f 00bd fd7e cd3e
00000250: 1153 fc3f a98c 0040 0b84 97bc fe63 4ebd
00000260: 02e2 f73f 8827 94bc 76ce d5bd f854 9b3e
00000270: 8afe c63e bccb 7dbd 2175 d43e 9a68 013f
00000280: 1830 443e 538c a13e 99f6 3dbd 6ca8 fb3f
00000290: 15fa eb3f ef45 f63f cd28 f93f 910a fa3f
000002a0: ed56 93bd 8f5a a2bd ba81 8ebd 992b f33f
000002b0: 9a5f b33f 125e 46bc 86ee fc3f 7d7e 9e3c
000002c0: 2529 fa3f 37fc f63f ce1a f13f 9e2d 0a3f
000002d0: daf8 003c 2129 f23f cbb4 e83e 1ce0 fd3f
000002e0: 352d f83f 7ec9 ff3f 1421 2dbd 596d ef3f
000002f0: 574c fd3f 8256 cbbc b1bf f73e 3949 ff3f
00000300: dba6 b73e dbe1 fd3f e842 fc3f 788f c23f
00000310: efc3 ef3f 31cc 0c3e 9a37 2cbd fcc9 b83f
00000320: 101a 1ebd ffc4 7ebd 7e56 0040 e6f4 fa3f
00000330: 6161 fb3f 0e7f 57bd 2373 bd3e 74dd c43c
00000340: ffc7 3e3e f268 18bd a820 fd3f 7b64 0040
00000350: 2444 f83f c727 ec3f 9bd7 ef3f e36f 923d
00000360: efa9 9fbc b7ad 92bd 16e3 65bd 937d d23f
00000370: 160a fb3e 613c 883f c56f 19bd e6d8 fb3f
00000380: 7176 91bd faaa 74bd 1788 f43f 8be9 fb3f
00000390: e965 f83f 7d45 0140 a92c f93f a193 e7bc
000003a0: a3b6 f53f 7509 f93f 0b6a c33e 1b09 f2bc
000003b0: d053 0140 6ea0 ee3f 611e 3dbd 7d0f fe3f
000003c0: 5929 f23f 93d8 b63e f8cc fd3f 6d82 86bd
000003d0: a415 853e 0a79 033f 8a95 9cbd 96d6 fc3f
000003e0: d474 a63f 059e f63f 609f 6b3e 8c24 b53f
000003f0: 802a ff3f 3ebc c63e 6b96 febc c645 fd3f

network.8.weight f4 [3, 256]
-0.39949396 1.4199679 0.39459395 -0.024514968 -0.009919856 0.37578425 1.1919162 0.34325466
0.3678133 -0.2816371 -0.30716127 4.1839005e-05 -0.008590498 0.04561813 0.33128616 0.026622549
0.08015332 0.34775367 -0.0091305515 -0.3912603 0.38376012 -0.058190357 0.62828 -0.00804577
0.34121683 0.42873058 0.032046303 -0.051713664 0.011583173 0.027326662 -0.002039143 -0.26399186
1.66947 -0.0030698096 0.5010911 0.057083067 0.34188187 -0.21517327 0.36829036 0.00132601
0.36081207 -0.4901995 0.34062222 0.38978857 0.06721691 0.26852193 -0.12348264 -0.049749807
0.0070282817 0.014427042 -0.005697552 -0.3080863 -0.3010054 -0.20844777 0.35121006 -0.37314662
0.5990948 0.32645962 -0.2681405 0.3445759 0.06306193 0.35134292 0.36593345 -0.021278743
0.061989877 0.3961553 0.039521337 -0.0030349963 0.36624783 0.34706718 0.0116466135 -0.023246387
0.07981775 0.3813554 0.38022697 1.3652068 0.30563205 -0.0021081588 -0.03259345 -0.005312062
-0.0054100794 -0.3255222 0.91888666 0.39701372 -0.13484855 -0.027500901 0.33502272 0.34572807
0.35824665 0.4203662 0.051874764 0.018138792 -0.060602292 0.30891564 0.007898999 0.34847903
-0.07646944 0.3653233 1.3265331 -0.03935939 0.33000675 0.39865118 0.36746752 0.34026682
0.053701524 -0.058227982 0.5083941 -0.057216562 0.16051695 0.03815581 0.04039128 0.37506783
0.3695778 0.35087347 0.024099065 -0.029049557 0.08368718 0.3729489 0.36154762 0.326568
-0.03359395 0.028354479 0.37932712 0.036224682 -0.018868012 0.39050984 0.3925945 0.37457678
0.3047568 0.043081332 0.06853706 0.39641055 1.703901 0.3405988 0.38610238 0.36601263
0.32145408 1.1780639 0.39236653 0.3397058 0.25844812 0.012088973 -0.05877967 0.028604914
0.35311073 0.38940167 0.016807951 -0.30640844 0.3597494 0.37891507 -0.013239895 0.011886686
0.386283 0.04154505 0.0013603149 -0.021545451 -0.2903601 0.002444678 -0.19960344 -0.20346521
-0.1286595 -0.33665308 -0.00092906284 0.3449498 0.39657974 0.3728872 0.3664961 0.38679555
-0.035852365 -0.025813445 -0.050228205 0.37270448 1.392872 0.06043476 0.34337538 0.10609311
0.32975745 0.38038182 0.31431305 -0.30721435 0.2469766 0.387086 -0.19554456 0.35797462
0.39656037 0.3642901 0.0922953 0.33416417 0.32315356 0.00905361 -0.21185385 0.35933107
-0.3300213 0.34743854 0.35780206 1.4962742 0.40369242 -0.5063787 -0.042671412 1.6853912
0.03529086 0.07597298 0.37956324 0.33913583 0.3776067 -0.0041166274 -0.31516126 -0.04019757
-0.1639746 -0.010355937 0.3806911 0.3801054 0.37210983 0.37751383 0.4156618 0.1358911
0.07188153 -0.043240357 -0.005704959 1.4204767 -0.25846544 0.87406385 0.010939052 0.3460172
0.117474 0.012530797 0.37658775 0.32183325 0.38225454 0.38623634 0.35682124 -0.13679482
0.3721607 0.382914 -0.3424138 -0.06621008 0.36940354 0.3827559 -0.053628217 0.3274934
0.30577838 -0.24665691 0.40010923 -0.025846185 -0.35511252 -0.071537636 0.013131881 0.34958375
1.174619 0.35150725 -0.33663532 1.5899103 0.34609666 -0.32364988 0.005881697 0.3832025
00000000: 798a ccbe 82c1 b53f 3808 ca3e 9dd3 c8bc
00000010: e486 22bc cb66 c03e b690 983f 13bf af3e
00000020: 0652 bc3e bd32 90be 3e44 9dbe 4a7c 2f38
00000030: 29bf 0cbc 14da 3a3d 579e a93e 8817 da3c
00000040: 6d27 a43d c50c b23e 4f98 15bc 4553 c8be
00000050: 357c c43e 0359 6ebd f5d6 203f 68d2 03bc
00000060: f9b3 ae3e 9382 db3e fc42 033d b5d1 53bd
00000070: 59c7 3d3c 2adc df3c 24a3 05bb f129 87be
00000080: 31b1 d53f dc2e 49bb 8247 003f efcf 693d
00000090: 240b af3e 6256 5cbe 8e90 bc3e 83cd ad3a
000000a0: 5cbc b83e 6efb fabe 0966 ae3e 5e92 c73e
000000b0: 05a9 893d b57b 893e 77e4 fcbd 74c6 4bbd
000000c0: 804d e63b 665f 6c3c 88b2 babb 7dbd 9dbe
000000d0: 611d 9abe 5573 55be ced1 b33e 130d bfbe
000000e0: 475e 193f b725 a73e b649 89be 416c b03e
000000f0: 9d26 813d 38e3 b33e a15b bb3e c250 aebc
00000100: 19e9 7d3d ded4 ca3e 20e1 213d cae6 46bb
00000110: d684 bb3e cab2 b13e 70d1 3e3c 356f bebc
00000120: 7d77 a33d 0441 c33e 1cad c23e 19bf ae3f
00000130: ce7b 9c3e 0929 0abb b680 05bd ce10 aebb
00000140: 0947 b1bb d9aa a6be 283c 6b3f 6245 cb3e
00000150: bd15 0abe 9249 e1bc 1988 ab3e 4503 b13e
00000160: 1b6c b73e 3d3a d73e a27a 543d ce97 943c
00000170: 1c3a 78bd 312a 9e3e ce6a 013c d86b b23e
00000180: 029c 9cbd a80b bb3e d6cb a93f 5037 21bd
00000190: a5f6 a83e 021c cc3e b424 bc3e 7437 ae3e
000001a0: 21f6 5b3d 7780 6ebd 1e26 023f ea5b 6abd
000001b0: 8e5e 243e 4449 1c3d 5471 253d e408 c03e
000001c0: 4d39 bd3e b0a5 b33e 676b c53c 56f9 edbc
000001d0: 2f64 ab3d 29f3 be3e c51c b93e ec33 a73e
000001e0: cf99 09bd a747 e83c 2a37 c23e 5560 143d
000001f0: 1791 9abc e8f0 c73e 2502 c93e 87c8 bf3e
00000200: 1509 9c3e 0d76 303d 285d 8c3d 53f6 ca3e
00000210: 6e19 da3f f762 ae3e 36af c53e 0266 bb3e
00000220: a195 a43e ccca 963f 44e4 c83e ebed ad3e
00000230: 5053 843e d410 463c f4c2 70bd da54 ea3c
00000240: eeca b43e a85f c73e d4b0 893c 91e1 9cbe
00000250: 1331 b83e 2801 c23e 25ec 58bc 60c0 423c
00000260: e3c6 c53e 242b 2a3d 984c b23a 1680 b0bc
00000270: 14aa 94be e436 203b d864 4cbe 2f59 50be
00000280: 51bf 03be cb5d acbe 5a8c 73ba 439d b03e
00000290: 800c cb3e 12eb be3e 60a5 bb3e 110a c63e
000002a0: eed9 12bd b876 d3bc 17bc 4dbd 1fd3 be3e
000002b0: a149 b23f 708a 773d e6ce af3e 5847 d93d
000002c0: f8d5 a83e 68c1 c23e a4ed a03e 334b 9dbe
000002d0: 6fe7 7c3e 2330 c63e d53c 48be 7348 b73e
000002e0: f609 cb3e 3b84 ba3e 5105 bd3d 9117 ab3e
000002f0: 6274 a53e 9855 143c 37f0 58be 3efa b73e
00000300: 8df8 a8be 77e3 b13e d531 b73e ea85 bf3f
00000310: c6b0 ce3e 09a2 01bf 38c8 2ebd e6ba d73f
00000320: 268d 103d b997 9b3d 1d56 c23e 36a3 ad3e
00000330: aa55 c13e c6e4 86bb d15c a1be 35a6 24bd
00000340: f5e8 27be f3ab 29bc f2e9 c23e 2d9d c23e
00000350: 2e85 be3e 7e49 c13e a0d1 d43e 0927 0b3e
00000360: a036 933d cd1c 31bd aaf0 babb 2ed2 b53f
00000370: 9555 84be a6c2 5f3f b639 333c 2b29 b13e
00000380: 3596 f03d f94d 4d3c 1cd0 c03e 54c7 a43e
00000390: deb6 c33e c5c0 c53e 46b1 b63e f113 0cbe
000003a0: d98b be3e 4e0d c43e dd50 afbe 2799 87bd
000003b0: 7622 bd3e 95f8 c33e 43a9 5bbd 37ad a73e
000003c0: fc8e 9c3e a193 7cbe 1edb cc3e 61bb d3bc
000003d0: 4fd1 b5be 5382 92bd 1a27 573c a4fc b23e
000003e0: ea59 963f c2f8 b33e 775b acbe 2e82 cb3f
000003f0: 9533 b13e 70b5 a5be 40bb c03b 1e33 c43e

network.8.bias f4 [3]
1.1300063 1.3520752 1.5163378
00000000: 0ca4 903f cd10 ad3f 5b17 c23f
