mountaincar_cl_project/mountaincar_cl/runs/periodic/fixed/seed_2/online_stream_model.pth (torch, 536437 bytes, 8 tensors)

network.0.weight f4 [256, 2]
0	0xbe98f68a	-0.29875594
1	0x3fcf552c	1.6197867
2	0x3f2f6e6e	0.6852788
3	0x3ec491ca	0.38392478
4	0xbe936e17	-0.2879493
5	0xbfb7ff78	-1.4374838
6	0xbd92bbb0	-0.07164705
7	0xbe5ef0cc	-0.21771544
8	0x3ec4aad9	0.38411596
9	0x40561368	3.3449345
10	0x3f70f761	0.9412747
11	0x3fcc536b	1.5962957
12	0xbd7033e0	-0.05864322
13	0xbe6f53d2	-0.23371819
14	0x3f478425	0.7793601
15	0x403316cf	2.7982671
16	0x3eebd3e2	0.4606009
17	0x403818af	2.8765066
18	0xbe14a31f	-0.14515351
19	0x3fdca2a3	1.7237133
20	0xbe28f910	-0.1650126
21	0x3ebe9cea	0.3722909
22	0xbd6c795c	-0.057732925
23	0x404b43d8	3.1760159
24	0x3d94f40e	0.07273112
25	0x403626aa	2.8461099
26	0xbf08a6e6	-0.53379667
27	0x3f2c028f	0.67191404
28	0x3e67edfc	0.22649378
29	0xbf098790	-0.53722477
30	0x3e0c7c54	0.13719302
31	0xc053f708	-3.3119526
32	0xbdff9290	-0.124791265
33	0x3e946f94	0.28991377
34	0xbddbfea4	-0.10741928
35	0x3fcb4015	1.5878931
36	0x3cd32950	0.025776535
37	0x4061f88e	3.5307956
38	0xbe4b56b9	-0.19857301
39	0x40250bda	2.5788484
40	0x3f2328d7	0.6373419
41	0xbf01d756	-0.507192
42	0x3e011544	0.12605768
43	0x3e9df1a2	0.30848414
44	0xbd55afd4	-0.052169636
45	0x3fea2260	1.829174
46	0x3efd1ab3	0.49434432
47	0x40553005	3.3310559
48	0xbe66aa12	-0.22525814
49	0xbff85410	-1.9400654
50	0x3f227747	0.6346325
51	0x4074bbdd	3.8239663
52	0xbb77fc1c	-0.0037839478
53	0x405a0ef8	3.4071636
54	0x3f3e179e	0.74254787
55	0xbe51b9cc	-0.20481032
56	0x3d0440bf	0.03228831
57	0x403ca6e6	2.9476867
58	0xbaa64400	-0.001268506
59	0xbed8ab8b	-0.42318377
60	0x3ea97645	0.33098045
61	0x40047696	2.069738
62	0x3dd1ea42	0.10249759
63	0x40113edc	2.2694616
64	0xbe9f6d24	-0.31137955
65	0xbdf55278	-0.1197862
66	0xbed0ff34	-0.40819705
67	0xbfae5b33	-1.3621582
68	0xbe7bb28f	-0.24579833
69	0x3ff94d71	1.9476758
70	0x3f611d70	0.87935543
71	0x3fad0e52	1.3519995
72	0xbdf5b8fa	-0.11998172
73	0x40122991	2.283787
74	0x3f2ca08e	0.67432487
75	0x3f83325b	1.0249742
76	0x3ef91eaa	0.48656207
77	0x406fac5d	3.7448952
78	0x3e7ae61c	0.24501842
79	0xbf2fcc65	-0.68671256
80	0x3f319d9b	0.6938111
81	0xbd89687b	-0.06709381
82	0x3dd6ac2a	0.104820564
83	0x4001f222	2.0304036
84	0xbef6f503	-0.48233804
85	0xbf147b8f	-0.58001035
86	0x3d06d6ec	0.03291981
87	0xc0132b09	-2.2995017
88	0x3f22c60d	0.6358345
89	0x4063d4e9	3.55987
90	0xbccf3100	-0.02529192
91	0xbf32bf21	-0.6982289
92	0x3f1794e1	0.59211546
93	0xbf0d3768	-0.5516267
94	0x3e69df61	0.22839119
95	0x40492ff1	3.143551
96	0xbe18a019	-0.14904822
97	0x3fcd0d59	1.6019698
98	0x3f03d501	0.51496893
99	0xbeedc433	-0.4643875
100	0x3ed2e242	0.41188246
101	0x3f2b69f3	0.6695854
102	0x3e6f27d2	0.23355034
103	0x40228d40	2.5398712
104	0x3f1c963f	0.6116676
105	0xbec201e9	-0.37892082
106	0x3f2a90bd	0.66627103
107	0xbd8d22b8	-0.06891388
108	0x3f41e11e	0.75734127
109	0x3fd434a2	1.6578562
110	0xbe762329	-0.2403685
111	0xbf614b56	-0.8800558
112	0x3d97c2e8	0.07410222
113	0xbf20a99b	-0.627588
114	0xbe6d7d5a	-0.23192349
115	0xbe0482a8	-0.12940466
116	0x3d69c978	0.0570769
117	0x402b5bff	2.67749
118	0xbecb25c2	-0.39677244
119	0xbe9088e4	-0.2822944
120	0xbea81037	-0.3282487
121	0x3fd9c7a3	1.7014049
122	0xbe5a0968	-0.2129265
123	0xc0251a28	-2.5797215
124	0xbce1c4c0	-0.027559638
125	0x400f06ab	2.234782
126	0x3f4c6622	0.7984334
127	0xbd4749b4	-0.048654273
128	0x3f1ea3ff	0.6196899
129	0xbd921611	-0.07133115
130	0x3e809a5a	0.2511776
131	0xbf09df31	-0.5385619
132	0xbeecd574	-0.46256602
133	0x3e58c1d4	0.2116769
134	0xbd0a2770	-0.033729017
135	0xbf194b00	-0.59880066
136	0xbd9c9ace	-0.07646714
137	0x4010f798	2.265112
138	0xbe676308	-0.22596371
139	0x3f61fe77	0.8827891
140	0x3f25eeb3	0.6481735
141	0xbed252e6	-0.4107887
142	0xbe954875	-0.29156843
143	0xbf1cbbb1	-0.61223894
144	0xbe56d1ed	-0.20978518
145	0x3eb0eff3	0.34558067
146	0xbf1b89a4	-0.607569
147	0x3ebcd35a	0.36879998
148	0x3edae446	0.42752284
149	0xbe3834d0	-0.17988896
150	0x3c02ab0e	0.007975353
151	0x4021a2a9	2.525553
152	0xbe3a3d2e	-0.181874
153	0x3fc7878e	1.5588243
154	0x3d3a7508	0.045521766
155	0x3f2f7cd1	0.6854983
156	0xbc131e63	-0.008979413
157	0x3f8339ba	1.0251992
158	0xbce65172	-0.028115008
159	0x401d642e	2.4592395
160	0x3f0033a7	0.50078815
161	0x4029c750	2.65279
162	0xbcdd4318	-0.027009532
163	0x40444bca	3.0671258
164	0x3e8e3aeb	0.27779326
165	0x3fdc2cbd	1.7201153
166	0xbe3624fc	-0.17787546
167	0x4012a9e3	2.291619
168	0xbe81683f	-0.25274846
169	0x402a9a37	2.6656625
170	0xbdf48b43	-0.119406246
171	0x3feaad51	1.8334142
172	0x3cd44c8d	0.025915409
173	0x401e5488	2.4739094
174	0x3f3fab17	0.7487044
175	0x3fe7ac9a	1.8099549
176	0xbeef1046	-0.46692103
177	0x400886d2	2.1332288
178	0x3d38a48b	0.045078795
179	0x3ff6b8d4	1.9275155
180	0xbe5da3d0	-0.21644521
181	0xbe82f8a1	-0.25580314
182	0xbf08fa56	-0.5350698
183	0xbf1bc297	-0.60843796
184	0xbebe3711	-0.37151387
185	0xbe7981f8	-0.24365985
186	0xbecbface	-0.39839786
187	0xbff19e34	-1.8876405
188	0x3f32aaa9	0.69791657
189	0xbee9460d	-0.45561257
190	0x3f136df7	0.5758967
191	0xbd3591b0	-0.04432839
192	0x3e588f66	0.21148452
193	0x4034911c	2.8213568
194	0xbed9b8ff	-0.42523953
195	0xc024b423	-2.5734947
196	0x3f08ef15	0.5348981
197	0x3fe59f8b	1.7939314
198	0x3f1e8600	0.6192322
199	0x40826724	4.0750904
200	0x3f981fca	1.1884701
201	0x3f73cd75	0.9523538
202	0x3e983996	0.29731435
203	0x3c8ff500	0.01757288
204	0x3da2b4da	0.07944651
205	0x40134bfd	2.301513
206	0x3e0a3794	0.13497764
207	0x3dca2600	0.09870529
208	0xbea1b61b	-0.31584248
209	0xc0319670	-2.774807
210	0x3ef2b870	0.4740634
211	0xc000612b	-2.0059307
212	0x3d23e920	0.040017247
213	0x3d9a65c8	0.075389445
214	0x3d93e6c3	0.07221749
215	0x4036962b	2.8529155
216	0xbdf0d4b8	-0.11759323
217	0xbdbe2630	-0.092846274
218	0xbee2fdc3	-0.4433423
219	0xbfd40409	-1.6563731
220	0xbca43f54	-0.020049728
221	0x3fcc3282	1.5952914
222	0x3eb6b22e	0.35682815
223	0xbf0a0efc	-0.53929114
224	0xbdcb1658	-0.09916371
225	0x3eb03c0a	0.34420806
226	0x3e91eaf2	0.28499562
227	0x40467732	3.101025
228	0x3e1ab2f4	0.15107328
229	0x3fa3e284	1.2803502
230	0x3ec2cb27	0.38045618
231	0x40586888	3.38138
232	0x3f007a65	0.5018676
233	0xbf13cca2	-0.5773412
234	0x3b91f522	0.004454271
235	0x3fddd333	1.7330078
236	0xbe47bf81	-0.19506647
237	0x3f9f0eac	1.2426353
238	0x3ece0faa	0.40246326
239	0xbeea159e	-0.45719618
240	0x3daea5b0	0.08527696
241	0xbf16207b	-0.5864331
242	0x3f002f7d	0.5007246
243	0x4038b546	2.886064
244	0x3f67d11c	0.9055345
245	0x3e85e24a	0.26149207
246	0xbea91c31	-0.3302932
247	0x401a40ff	2.410217
248	0xbcd3dddd	-0.025862629
249	0x3f91eaed	1.1399819
250	0xbdffb353	-0.12485375
251	0x40000121	2.000069
252	0xbe10f15a	-0.14154568
253	0x403a64eb	2.9124095
254	0x3ebf8226	0.37403983
255	0xbf210cdb	-0.6291024

network.0.bias f4 [256]
0	0xbde49858	-0.1116187
1	0xbe50b1f1	-0.2038038
2	0xbedb7858	-0.42865252
3	0xbec00fd2	-0.3751207
4	0x3e3e6797	0.18594204
5	0x3e88e706	0.26738757
6	0xbdaedee0	-0.08538604
7	0x3ebb0bae	0.36532348
8	0x3e2dd89e	0.16977164
9	0xbd687f29	-0.056761894
10	0xbf33fa9a	-0.7030426
11	0xbc9715b8	-0.018442973
12	0x3c871526	0.016489577
13	0xbf27393c	-0.6532171
14	0xbe370aa8	-0.17875159
15	0x3d942700	0.07234001
16	0xbf1af818	-0.6053481
17	0xbd0c6782	-0.0342784
18	0x3a115046	0.0005543273
19	0xbd850b61	-0.06496311
20	0xbea9a5b4	-0.33134234
21	0xbf122e6d	-0.5710209
22	0xbd415d9d	-0.047208417
23	0x3e3be0b9	0.18347444
24	0xbec92956	-0.3928935
25	0x3e9a236b	0.30105147
26	0xbb38809d	-0.0028152831
27	0xbd8dc058	-0.06921452
28	0x3c8b9e80	0.017043352
29	0xbec64af7	-0.3872907
30	0xbdf7bf3d	-0.12097023
31	0x3ca9da0b	0.020733854
32	0xbf1d5463	-0.6145689
33	0xbf0ec485	-0.55768615
34	0xbdb375d3	-0.087627076
35	0xbd1b5492	-0.03792245
36	0xbd30a0fd	-0.04312228
37	0xbd8889ad	-0.066668846
38	0x3dd0cdb5	0.101954855
39	0xbf304a9c	-0.68863845
40	0x3e993834	0.29925692
41	0x3cb50118	0.022095248
42	0xbe9a737d	-0.30166236
43	0xbe1b369c	-0.1515755
44	0x3e985c74	0.29758036
45	0xbf27d42f	-0.6555814
46	0xbef09048	-0.46985078
47	0x3d90f24f	0.07077467
48	0xbd68b0d9	-0.05680928
49	0x3e7464ba	0.23866549
50	0xbf03a1bc	-0.5141866
51	0x3dc2fa02	0.095203415
52	0xbf13b11c	-0.5769212
53	0xbf084b77	-0.5324015
54	0x3e764e3d	0.24053283
55	0xbe4a279c	-0.19741672
56	0xbe1fb0e8	-0.15594828
57	0xbe92ebe7	-0.28695604
58	0x3c005928	0.0078337565
59	0xbe7b1241	-0.24518682
60	0xbdd8aaac	-0.10579428
61	0xbed04fe3	-0.4068595
62	0xbd35be8d	-0.044371177
63	0xbdc2bb24	-0.095083505
64	0xbd8a5a20	-0.06755471
65	0xbe174d64	-0.14775616
66	0xbf2620f3	-0.64894027
67	0xbe4f0108	-0.20215237
68	0xbc9e8442	-0.019350175
69	0xbd98e14b	-0.07464846
70	0xbeeacab2	-0.4585777
71	0xbf15c1de	-0.5849894
72	0xbe8c3316	-0.27382725
73	0xbf02ab4f	-0.51042646
74	0xbed02b99	-0.40658262
75	0xbe382850	-0.17984128
76	0xbd85507a	-0.0650949
77	0xbb4a0f38	-0.0030831825
78	0xbdaf662a	-0.08564408
79	0xbc2a1b92	-0.01038255
80	0xbda62547	-0.08112579
81	0xbd5e8458	-0.05432543
82	0x3e03b1a2	0.1286073
83	0xbd7db500	-0.061940193
84	0xbdbdfba9	-0.09276516
85	0xbd5045bf	-0.050847765
86	0x3b122f38	0.0022305977
87	0xbd2be204	-0.041963592
88	0xbe2faef3	-0.17156582
89	0x3c16d068	0.009204961
90	0xbf141f3a	-0.5786015
91	0xbf1a5ac9	-0.6029478
92	0xbef4cf9b	-0.4781464
93	0xbe8f17bd	-0.27947798
94	0xbede5e84	-0.43431485
95	0xbf2d8bcb	-0.6779143
96	0x3d780d73	0.0605597
97	0xbe4d0e7c	-0.20025057
98	0x3e765fcb	0.2405998
99	0x3e9864b4	0.2976433
100	0x3d6bd717	0.057578173
101	0xbf266468	-0.6499696
102	0xbc37ecf3	-0.011225927
103	0xbe85d739	-0.26140764
104	0xbefcb0f2	-0.4935375
105	0x3e69bca2	0.22825864
106	0xbed639f7	-0.418411
107	0x3c65b598	0.014020346
108	0xbf203a2d	-0.6258877
109	0xbe9de9ea	-0.30842525
110	0xbdd8a6d3	-0.10578694
111	0xbe38afc0	-0.18035793
112	0xbf0a71e6	-0.54080045
113	0x3db5d4c7	0.08878475
114	0x3d10c788	0.035346538
115	0x3dee81ea	0.11645873
116	0xbf3001fe	-0.6875304
117	0xbca0d00c	-0.019630454
118	0xbe861609	-0.26188686
119	0xbe5578a8	-0.20846808
120	0xbef068c0	-0.46954918
121	0x3e24f453	0.16108827
122	0x3ed69925	0.41913715
123	0xbdf1464b	-0.117809854
124	0xbdcdb8bf	-0.10045003
125	0xbd195313	-0.03743274
126	0xbd3b7c05	-0.04577257
127	0xbf27e22d	-0.6557949
128	0xbdc5058e	-0.096202
129	0xbe658abb	-0.22416203
130	0xbe04187b	-0.12899964
131	0xbed977f1	-0.4247432
132	0x3e30b50d	0.17256565
133	0xbdb48d50	-0.08816016
134	0xbee37778	-0.44427085
135	0xbf0a124b	-0.5393416
136	0xbf1a6378	-0.6030803
137	0x3e085cf9	0.13316716
138	0x3e8cbe5b	0.2748898
139	0xbf25068c	-0.64463115
140	0xbf1b0126	-0.6054863
141	0x3e112c0a	0.14176956
142	0xbe108154	-0.14111835
143	0xbf2e869a	-0.68174136
144	0xbd4080ae	-0.04699772
145	0xbf15440b	-0.5830695
146	0x3c5a61a0	0.01332894
147	0xbeb53169	-0.3538926
148	0xbef51970	-0.4787097
149	0xbd52389b	-0.051323514
150	0xbb7ef209	-0.0038901588
151	0xbf3289a0	-0.6974125
152	0x3bd42506	0.00647414
153	0xbf0faf10	-0.561265
154	0xbf0f786e	-0.56043136
155	0x3e08fa12	0.13376644
156	0xbdc43249	-0.09579904
157	0x3e041362	0.12898019
158	0xbe152c83	-0.14567761
159	0xbefdf558	-0.49601245
160	0x3da4d10f	0.08047687
161	0x3d20d709	0.039267574
162	0xbc83fb72	-0.01611111
163	0x3d6688e6	0.0562829
164	0xbf199052	-0.5998584
165	0xbc8b7e05	-0.017027864
166	0xbee3f8b4	-0.44525683
167	0xbe0a1a20	-0.13486528
168	0xbe92b3c1	-0.28652766
169	0xbc6d22c0	-0.014473617
170	0xbe81ad41	-0.25327495
171	0xbc7983a9	-0.015229144
172	0xbf1b4551	-0.60652643
173	0x3db277b4	0.08714238
174	0xbeb1116c	-0.34583604
175	0xbf1190fc	-0.56861854
176	0x3e218f5b	0.15777342
177	0xbca79f51	-0.02046171
178	0xbdf6eea2	-0.12057234
179	0xbee2c870	-0.44293547
180	0xbd4b32d3	-0.049609017
181	0xbc834bda	-0.01602738
182	0xbd473599	-0.0486351
183	0x3e87a2c1	0.2649136
184	0xbe4305cc	-0.1904518
185	0xbf17c2f1	-0.5928183
186	0xbe3e7cf4	-0.18602353
187	0xbe63718a	-0.2221128
188	0x3dc93de0	0.09826255
189	0x3ec3c8e2	0.382392
190	0x3e217450	0.15767026
191	0xbee9ad95	-0.45640245
192	0xbef5c22f	-0.47999713
193	0xbf165e73	-0.5873787
194	0xbee479c9	-0.44624165
195	0x3ed2da48	0.4118216
196	0x3db62115	0.08893029
197	0x3e295279	0.16535367
198	0xbd227752	-0.039664574
199	0xbe863699	-0.2621353
200	0xbda2fec8	-0.07958752
201	0xbf213474	-0.6297066
202	0x3dbad3fc	0.09122464
203	0xbb91bf5e	-0.0044478616
204	0xbdb10cd4	-0.08645025
205	0x3d89eeb0	0.06734979
206	0x3e9d387f	0.30707166
207	0x3e1b8410	0.15187097
208	0xbc35674a	-0.011071989
209	0xbe199577	-0.14998423
210	0xbe13ade4	-0.14421803
211	0xbd064e1d	-0.03278934
212	0x3da5660e	0.08076106
213	0xbb7012e7	-0.003663236
214	0xbe26b624	-0.16280419
215	0xbea815c2	-0.328291
216	0xbe9472ef	-0.28993937
217	0xbf323f6c	-0.69628024
218	0x3d05a915	0.032631952
219	0xbdf613e0	-0.120155096
220	0xbeadcdde	-0.33946127
221	0x3e0b816e	0.13623592
222	0xbe949c8e	-0.29025692
223	0xbf1bd977	-0.608787
224	0xbd0be4cc	-0.034153745
225	0x3e1da9dd	0.15396829
226	0x3bf904a9	0.0075994325
227	0x3deab256	0.11459796
228	0x3e079e24	0.1324392
229	0xbf2a2e06	-0.66476476
230	0x3c2d991d	0.010595587
231	0xbec16de5	-0.37779155
232	0xbeaa8736	-0.33306283
233	0xbeaadec9	-0.33373097
234	0xbdd68fc1	-0.10476638
235	0x3e011e2a	0.12609163
236	0xbdf69d08	-0.1204167
237	0xbf34c6f2	-0.70616066
238	0x3cb7b839	0.022426711
239	0xbd96f338	-0.07370609
240	0x3d901a33	0.07036247
241	0xbe063a66	-0.13108215
242	0xbec1df4b	-0.37865672
243	0xbdfbdda3	-0.12298133
244	0xbf1523ab	-0.5825755
245	0x3e52d923	0.20590644
246	0xbd193ef0	-0.037413538
247	0xbd8b41ab	-0.067996345
248	0xbc2c48c7	-0.010515398
249	0xbf0f510a	-0.5598303
250	0x3e5d4fbf	0.21612452
251	0xbc084149	-0.008316346
252	0xbe9e33d1	-0.30898908
253	0xbee908d7	-0.45514557
254	0xbd8e2f8d	-0.06942663
255	0xbd51ce34	-0.05122204

network.3.weight f4 [256, 256]
0	0x3c4f8368	0.012665607
1	0xbd85d58a	-0.0653487
2	0xbe96b862	-0.29437548
3	0xbd276e96	-0.040876947
4	0xbcb3cfd7	-0.021949692
5	0x3d88c043	0.06677296
6	0x3d77863c	0.06043075
7	0x3ca7374b	0.020412108
8	0xbc5a89ff	-0.013338565
9	0x3c01f723	0.007932457
10	0xbd230d06	-0.039807342
11	0x3d18e30f	0.037325915
12	0x3d1fa487	0.038975265
13	0xbcf3a90f	-0.0297437
14	0xbc9e5e88	-0.019332185
15	0xbee19630	-0.44059896
16	0xbd688a80	-0.05677271
17	0x3d81fc36	0.063469335
18	0xbd54df73	-0.05197091
19	0xbce149bd	-0.027500981
20	0xbd2ed6ec	-0.042685434
21	0xbd3b8742	-0.04578329
22	0xbe12e4c9	-0.14345087
23	0xbcec46eb	-0.02884241
24	0xbe6c4fa0	-0.2307725
25	0xbd127f57	-0.035765972
26	0x3d009bd1	0.031398598
27	0xbe772892	-0.2413657
28	0x3d1c81c8	0.038209707
29	0x3d571f54	0.05252011
30	0x3e120260	0.14258718
31	0x3dbe1b8c	0.09282598
32	0x3bdb08e0	0.0066844076
33	0xbeb0eb01	-0.34554294
34	0xbd34f5da	-0.044179775
35	0xbed51c74	-0.4162327
36	0x3bbfa0f0	0.0058480427
37	0xbe9fb2c4	-0.31191075
38	0xbdcb3e38	-0.09923977
39	0xbd35d03c	-0.04438804
40	0x3d162d72	0.036664434
41	0x3db48b80	0.0881567
42	0x3c1e6d84	0.009669665
43	0xbeaa0991	-0.33210424
44	0xbd96eeb5	-0.073697485
45	0xbc00f020	-0.00786975
46	0xbbeff920	-0.007323399
47	0xbb8f9b8d	-0.004382557
48	0xbd6ca00e	-0.057769828
49	0xb9913fc0	-0.00027704053
50	0x3a833040	0.0010008886
51	0xbb524c28	-0.003208885
52	0x3d7f692e	0.062356167
53	0xbbeddb60	-0.0072588176
54	0x3c17655f	0.009240477
55	0x3e245595	0.16048272
56	0xbcda39ac	-0.026638828
57	0x3c80f654	0.015742458
58	0x3d0a91be	0.033830397
59	0x3c951901	0.0182004
60	0x3d0eff2d	0.034911323
61	0xbe8fc70a	-0.28081542
62	0xbea0c572	-0.3140064
63	0xbe2e6160	-0.17029333
64	0xbe671a6e	-0.22568676
65	0xbcf7dd80	-0.030256987
66	0xbd5721d6	-0.052522503
67	0x3d51e2d8	0.051241726
68	0x3c93685e	0.017994102
69	0x3d44b85a	0.048027374
70	0x3c9cf828	0.019161299
71	0x3c680990	0.014162436
72	0xbd17df07	-0.03707793
73	0x3cb5d362	0.022195522
74	0xbd0e850e	-0.03479486
75	0x3f26f608	0.65219164
76	0xbd9d11d1	-0.07669414
77	0xbe85f3a1	-0.26162437
78	0xbe299a37	-0.16562735
79	0xba6c4edd	-0.0009014437
80	0x3c9ace19	0.018897103
81	0xbe8793cb	-0.26479945
82	0x3d32a91a	0.0436183
83	0xbaf30889	-0.0018541972
84	0xbcc6433c	-0.024201982
85	0xbd888498	-0.06665915
86	0xbca48503	-0.020082956
87	0xbd267c6d	-0.040646005
88	0xbd69b730	-0.057059467
89	0x3cd86e8d	0.026419902
90	0x3cb75904	0.022381313
91	0xbd0c9b4f	-0.0343278
92	0x3c3f3902	0.011671307
93	0x3d8829b8	0.06648582
94	0x3d4818a0	0.04885161
95	0x3d29e0fc	0.041474327
96	0x3e755eed	0.23961993
97	0x3d8e8f66	0.06960945
98	0x3d1248b1	0.035713855
99	0x3c872353	0.016496336
100	0xbe65feb1	-0.22460438
101	0x3cd9112c	0.026497446
102	0xbe4e5aad	-0.20151778
103	0xbc9a1ee4	-0.018813558
104	0xbe085ab3	-0.13315849
105	0x3cc33ae7	0.023831798
106	0x3d3acb46	0.045604013
107	0x3c4a7275	0.01235639
108	0x3c4226a0	0.011850029
109	0x3dcd06a8	0.10011035
110	0xbea413ef	-0.32046458
111	0xbd7d52e7	-0.06184664
112	0xbd6f1028	-0.058365017
113	0x3cb45822	0.022014681
114	0x3dbbf6c4	0.09177926
115	0x3dfa348e	0.12217055
116	0xbc9f01fc	-0.019410126
117	0xbdec741f	-0.11545586
118	0xbdc0088f	-0.093766324
119	0x3cfaaff4	0.03060148
120	0x3d30c35e	0.043155067
121	0x3d78b2e1	0.060717467
122	0x3d4294d7	0.047505226
123	0xbda91ac4	-0.08257058
124	0xbe4ccb34	-0.19999391
125	0x3d53f73c	0.051749453
126	0xbc61947d	-0.0137683125
127	0x3d2a80f6	0.041626893
128	0xbea7def8	-0.327873
129	0x3d2f7841	0.042839292
130	0x3c9587ab	0.018253168
131	0x3d5d6fee	0.054061823
132	0x3b192da5	0.0023373154
133	0x3c803c68	0.015653804
134	0x3d0ad036	0.03388997
135	0xbb61320b	-0.0034362103
136	0xbd2aa364	-0.041659728
137	0xbdef73b5	-0.11691991
138	0x3dc76b1d	0.09737227
139	0xbce8f460	-0.02843684
140	0x3d555ace	0.05208855
141	0x3daa50fe	0.08316229
142	0x3e9ce823	0.30645856
143	0xbce9d850	-0.028545529
144	0xbe8f78df	-0.28021905
145	0x3d2e1d50	0.042508423
146	0xbda8130a	-0.082067564
147	0xbc93f274	-0.018059947
148	0xbd558bb2	-0.052135177
149	0xbe60a4de	-0.21937892
150	0xbe8461dd	-0.25855914
151	0xbd57b2cc	-0.05266075
152	0xbccb2146	-0.02479614
153	0x3cf5a0d0	0.029983908
154	0xbeb55759	-0.35418203
155	0xbd9a24b5	-0.075265326
156	0xbd3319c6	-0.04372575
157	0x3d01b39e	0.031665437
158	0xbce67b22	-0.028134886
159	0xbd11e394	-0.035617426
160	0x3deaf2e5	0.1147211
161	0xbe47c28b	-0.19507806
162	0x3d672047	0.056427266
163	0x3d896190	0.06708062
164	0x3c7232a0	0.014782578
165	0x3e67dfee	0.22644016
166	0xbc41b398	-0.011822604
167	0x3d049622	0.03236974
168	0x3d3eff60	0.046630263
169	0x3c42c385	0.011887436
170	0xbd23c291	-0.039980475
171	0xbe700b5e	-0.23441836
172	0x3d702c90	0.058636248
173	0xbcedc566	-0.029024791
174	0x3d1e4df4	0.03864856
175	0xbe9bd270	-0.3043399
176	0xbd3faf26	-0.046797894
177	0xbd8d0d14	-0.0688726
178	0x3d25781c	0.04039775
179	0x3d6b62fc	0.057467446
180	0xbe3f6705	-0.18691643
181	0x3d27426e	0.040834837
182	0x3cf3d26c	0.029763423
183	0x3d9f96d6	0.077924415
184	0x3c95d33c	0.018289201
185	0x3d3a68ea	0.04551021
186	0xbccb3bfc	-0.024808876
187	0x3d310f12	0.043227263
188	0x3da551c7	0.080722384
189	0xbc8e535e	-0.017373737
190	0x3ca2cdf4	0.019873597
191	0x3cc5d834	0.024150945
192	0xbd59acb4	-0.05314322
193	0x3d20dd66	0.039273642
194	0x3c745eb8	0.014915161
195	0xbd0ec780	-0.034858227
196	0xbe39de33	-0.18151169
197	0x3c8f4255	0.017487684
198	0xbc97240b	-0.018449804
199	0x3cd84d44	0.02640403
200	0xbcd54484	-0.026033647
201	0xbbfb8ee0	-0.007676944
202	0xbce39aec	-0.027783833
203	0xbd1c4638	-0.038152903
204	0xbe7fd838	-0.24984825
205	0x3a651136	0.00087382214
206	0xbc804153	-0.015656149
207	0x3d7228ba	0.05912087
208	0x3c28f634	0.010312606
209	0x3d69e2a8	0.057100922
210	0xbd6231f0	-0.055223405
211	0xbe8b0eae	-0.27159637
212	0xbe5d2887	-0.21597491
213	0x3b168f13	0.0022973462
214	0x3cff4c73	0.031164384
215	0x3d2b890a	0.041878738
216	0x3dd30c01	0.10305024
217	0xbd3a0064	-0.04541053
218	0xbdddbd49	-0.10827119
219	0xbd0957ea	-0.033531107
220	0x3d553b31	0.052058402
221	0x3d4afdc5	0.04955842
222	0x3b7c8859	0.0038533418
223	0x3d003f1a	0.03131018
224	0xbd3b9fe0	-0.045806766
225	0x3dbefad4	0.093251854
226	0x3d1b81c6	0.03796556
227	0xbb5aa213	-0.0033360764
228	0x3ccca8c8	0.024982825
229	0x3d06264e	0.032751374
230	0xbebdedcc	-0.37095487
231	0xbc1ccab1	-0.00956981
232	0xbe55bdd1	-0.2087319
233	0x3d02bbd2	0.0319174
234	0x3d460f9a	0.048354723
235	0xbd3434ca	-0.043995656
236	0x3cb81423	0.02247054
237	0xbd6f6c0e	-0.05845266
238	0x3de2a830	0.110672355
239	0x3ccd2d04	0.02504588
240	0xbf08e7c2	-0.53478634
241	0x3e9bdec8	0.30443406
242	0x3ab9cdc0	0.0014175698
243	0xbc80090b	-0.015629312
244	0xbc816c64	-0.015798755
245	0x3d4c6fcf	0.049911316
246	0xbe65993a	-0.22421733
247	0x3d9078da	0.070543006
248	0xbb8aebcf	-0.0042395364
249	0x3b0c6800	0.0021424294
250	0x3d4f27c2	0.050575025
251	0xbbbe2b9e	-0.0058035394
252	0xbb3e5640	-0.0029043108
253	0x3d960730	0.0732559
254	0xbb8b867c	-0.004257975
255	0xbae6e604	-0.0017616157

network.3.bias f4 [256]
0	0x3e93a743	0.28838548
1	0x3e9f18f6	0.3107373
2	0x3e5040ab	0.20337169
3	0xbca17a5a	-0.019711662
4	0x3e6e8cf4	0.23295957
5	0xbd94a299	-0.072575755
6	0x3d0eadcd	0.034833718
7	0x3e7c0d32	0.24614409
8	0x3e90dad5	0.28291956
9	0x3e661ee4	0.22472721
10	0x3e396684	0.18105513
11	0xbceeb7a8	-0.029140308
12	0x3e9effe8	0.31054616
13	0x3e904773	0.2817951
14	0xbd712cca	-0.058880605
15	0xbd813c6d	-0.063103534
16	0xbcb96024	-0.022628851
17	0xbcfff5ad	-0.031245077
18	0x3e8c49b4	0.2739998
19	0x3e9eb339	0.3099611
20	0xbd754fc6	-0.05989053
21	0x3e6aabfc	0.2291717
22	0x3e6f0aa0	0.23343897
23	0x3e974ef9	0.2955244
24	0x3d649151	0.055802647
25	0x3df2d8ab	0.118577324
26	0x3e906943	0.28205308
27	0x3e561af7	0.20908724
28	0x3e81e245	0.25367942
29	0x3e5e4a0d	0.21707936
30	0x3e8a8b64	0.27059472
31	0x3e993bcc	0.29928434
32	0xbc24fe7f	-0.010070442
33	0x3e8239c9	0.25434712
34	0x3d8f0e8c	0.069851965
35	0x3e359e26	0.1773611
36	0xbd43c4fb	-0.047795277
37	0x3e82c059	0.25537375
38	0x3e835b5b	0.25655636
39	0x3e86713a	0.2625826
40	0xbc272118	-0.010200761
41	0xbd7fdc88	-0.062466174
42	0xbc922cb5	-0.017843584
43	0xbd84c4ae	-0.06482826
44	0xbd6d2ad9	-0.05790219
45	0xbd8545da	-0.06507464
46	0xbc431668	-0.011907198
47	0x3e817c59	0.25290182
48	0x3e7fce83	0.24981122
49	0xbc12653d	-0.00893527
50	0x3e8db9d7	0.27680847
51	0xbb9374b0	-0.004499994
52	0x3e7f037c	0.24903673
53	0xbc04f891	-0.0081159035
54	0xbd0407f2	-0.03223414
55	0xbe32ccb7	-0.17460905
56	0x3e986da7	0.29771158
57	0x3e8b4abb	0.27205452
58	0xbc655dc7	-0.013999409
59	0x3e4fe0ec	0.20300645
60	0x3e3d4523	0.18483405
61	0x3e6f15ae	0.23348114
62	0x3e8a1a68	0.2697327
63	0x3e8d51ee	0.2760157
64	0x3d2e6570	0.042577207
65	0x3e84a3b9	0.2590616
66	0x3e9319d4	0.28730643
67	0xbc91909b	-0.017769149
68	0xbd5a3d1f	-0.053280946
69	0xbc40684f	-0.011743619
70	0x3e929bbf	0.2863445
71	0x3ea004cf	0.3125367
72	0x3e92066a	0.2852052
73	0x3e89b10d	0.26892892
74	0x3dee2f82	0.11630155
75	0xbc0fc1ee	-0.008774264
76	0x3ea3393c	0.31879604
77	0x3ca97747	0.020686759
78	0xbd918818	-0.07106036
79	0x3e2c3fdb	0.16821234
80	0x3e8ec30d	0.27883187
81	0x3ea4588d	0.3209881
82	0x3e897bd7	0.26852295
83	0x3e577855	0.21041997
84	0x3d846104	0.06463817
85	0x3e9a1136	0.30091256
86	0xbc24cb51	-0.01005824
87	0x3e9cd064	0.3062774
88	0xbd52d291	-0.051470343
89	0x3e7e68b6	0.24844632
90	0x3e8e3ce1	0.27780822
91	0x3e6ea44f	0.23304866
92	0xbc19dd15	-0.009391089
93	0x3e4f9814	0.20272857
94	0x3e82072e	0.25396103
95	0x3e809ff2	0.2512203
96	0x3e7ec4dd	0.24879785
97	0x3e7cd45c	0.24690384
98	0xbd7afdcd	-0.0612772
99	0x3e9750cd	0.29553834
100	0x3e9a5e99	0.30150297
101	0x3e303955	0.1720937
102	0x3e921231	0.28529504
103	0x3e9bef8a	0.3045619
104	0x3e43aba6	0.19108447
105	0xbd0f3638	-0.034963816
106	0xbd5db2be	-0.05412554
107	0x3e8983e3	0.26858434
108	0x3e708b73	0.23490696
109	0xbd28873d	-0.0411446
110	0xbd08d9db	-0.03341089
111	0x3e798883	0.24368481
112	0x3e2d6ec6	0.16936788
113	0x3e7623a6	0.24037036
114	0xbc77ab74	-0.015116561
115	0x3e89b546	0.26896113
116	0xbd7b5346	-0.061358713
117	0x3e919c29	0.28439453
118	0xbc05db65	-0.0081699835
119	0x3e8e369e	0.27776045
120	0x3e3ac6a4	0.18239838
121	0xbd006b96	-0.031352602
122	0x3e8185c0	0.25297356
123	0x3e97bc3e	0.29635805
124	0x3e397d46	0.18114194
125	0xbd8022bd	-0.06256626
126	0x3e464466	0.1936203
127	0xbd049c21	-0.03237546
128	0xbd21e8f1	-0.03952879
129	0xbce5b8e6	-0.028042268
130	0x3e76a869	0.24087681
131	0x3e73817f	0.23779868
132	0x3e808609	0.2510226
133	0x3e849dc2	0.2590161
134	0xbd61976d	-0.05507605
135	0x3e88891a	0.266671
136	0x3ea2bb53	0.31783542
137	0x3e6a7872	0.22897509
138	0x3e56954f	0.20955394
139	0x3e78e3df	0.24305676
140	0x3e12277d	0.14272876
141	0x3e6cd2eb	0.23127334
142	0x3e997ae9	0.29976586
143	0x3a29174f	0.00064503116
144	0xbd5e956f	-0.05434173
145	0x3e83e046	0.25757045
146	0x3e7f0400	0.2490387
147	0xbd5742ad	-0.05255382
148	0x3e939ca9	0.2883046
149	0x3e013dd0	0.12621236
150	0xbc87617d	-0.016525978
151	0x3e8673f7	0.2626035
152	0xbd455499	-0.04817638
153	0x3d385b3a	0.045008875
154	0x3e6b2a39	0.22965325
155	0x3e90d060	0.28283978
156	0xbca8c48d	-0.020601535
157	0xbc7f01dd	-0.015564409
158	0x3e7c1793	0.24618368
159	0x3e83eebb	0.25768074
160	0xbc34c184	-0.011032466
161	0xbb3fb2ea	-0.0029250928
162	0x3d8d0476	0.068856165
163	0x3e82828e	0.2549023
164	0x3e7829b4	0.24234658
165	0x3e4a1a26	0.19736537
166	0x3e639c36	0.22227558
167	0x3e9cf806	0.30657977
168	0x3e81d620	0.25358677
169	0x3e96c7f8	0.2944944
170	0xbcc52a49	-0.024068015
171	0x3e7794c6	0.24177846
172	0xbc482b88	-0.01221741
173	0x3e92b505	0.28653732
174	0x3e8fc396	0.28078908
175	0xbd70489a	-0.05866299
176	0xbd157271	-0.036486093
177	0x3e594312	0.21216992
178	0x3e989c16	0.29806584
179	0x3e801460	0.25015545
180	0x3e452323	0.19251685
181	0x3d0fc1fe	0.035097115
182	0xbc611d96	-0.013739964
183	0xbcb298bb	-0.021801343
184	0xbd82b812	-0.06382765
185	0xbd810470	-0.062996745
186	0xbdb648ad	-0.089005806
187	0xbd89f3e9	-0.06735975
188	0xbb22fb3d	-0.0024868988
189	0x3dc59542	0.09647609
190	0x3e81ee4e	0.25377125
191	0x3e8155b2	0.25260693
192	0x3d87092c	0.06593546
193	0x3e8fe046	0.28100795
194	0x3cdc93ca	0.02692594
195	0x3e9f2112	0.31079918
196	0x3e9386a6	0.28813666
197	0xbd047c6c	-0.03234522
198	0xbd0b71e4	-0.03404416
199	0x3e7caa99	0.24674453
200	0xbb827ac2	-0.003981919
201	0x3e42d93e	0.19028184
202	0x3e4b8c35	0.19877703
203	0x3e9315dd	0.28727618
204	0x3e9330dc	0.28748214
205	0x3e8b1c26	0.27169913
206	0xbd175f78	-0.03695628
207	0x3e60572b	0.21908252
208	0x3e7a831f	0.24464081
209	0xbd3400ad	-0.043945957
210	0x3e95cbd7	0.2925708
211	0xbd736f09	-0.059432063
212	0xbd7fc3ff	-0.062442776
213	0xbd1ea4c4	-0.03873135
214	0x3e97e620	0.2966776
215	0x3e8a05ac	0.26957452
216	0x3e85ba5d	0.26118746
217	0x3ea0fb13	0.31441554
218	0x3e847380	0.2586937
219	0x3e890ce6	0.26767653
220	0x3e92bf97	0.28661796
221	0x3e83a58c	0.2571224
222	0xbd15445b	-0.036442142
223	0x3e855063	0.26037893
224	0x3e91eeca	0.28502494
225	0x3e375f53	0.17907457
226	0xbd44bcce	-0.04803162
227	0xbd88fbff	-0.066886894
228	0x3e95c506	0.2925188
229	0xbd05163d	-0.03249191
230	0x3e841238	0.2579515
231	0x3e86de21	0.26341346
232	0x3e53252e	0.20619652
233	0x3e8bb73e	0.2728824
234	0xbcde5294	-0.027138986
235	0xbd395606	-0.045248054
236	0xbbe8f6b8	-0.0071094893
237	0x3e6d63ca	0.23182598
238	0x3e888f90	0.2667203
239	0xbc9a5311	-0.018838437
240	0x3e721c9d	0.23643728
241	0xbda0d8b9	-0.078538366
242	0x3e9201f4	0.28517115
243	0x3e645de7	0.22301446
244	0x3e89c71b	0.26909718
245	0x3e51a058	0.20471323
246	0xbe28db4d	-0.16489907
247	0xbd8709f5	-0.06593696
248	0x3e897b5b	0.26851925
249	0xbcef9275	-0.02924464
250	0x3e87da1c	0.26533592
251	0x3e89eed9	0.2694004
252	0x3e6fcb7b	0.23417465
253	0x3d678d73	0.05653138
254	0xbc05ee83	-0.008174541
255	0xbd179633	-0.037008476

network.6.weight f4 [256, 256]
0	0x3dbceb5d	0.092245795
1	0x3cc1d35d	0.023660356
2	0xbdc7880c	-0.09742746
3	0x3d943158	0.07235974
4	0xbc33825d	-0.010956374
5	0xbd5880d8	-0.05285725
6	0x3b98e3ea	0.0046658413
7	0x3d951a6d	0.07280431
8	0xbd5c58e4	-0.05379571
9	0x3d344bfb	0.044017773
10	0x3c088869	0.008333304
11	0xbc4f96b4	-0.012670208
12	0x3d48b7df	0.04900348
13	0xbcb3ce5f	-0.021948991
14	0xbcb960d7	-0.022629185
15	0x3d6e6010	0.05819708
16	0x3c8aae28	0.016928747
17	0x3b461f40	0.0030231029
18	0xbc84a79e	-0.016193207
19	0xbd0b9ed2	-0.03408701
20	0xbda7ec99	-0.08199424
21	0xbcb37d18	-0.021910235
22	0xbd286c90	-0.04111916
23	0x3c083b68	0.008314945
24	0x3bb59143	0.005540998
25	0xbc88a2d5	-0.016679207
26	0xbd860a4f	-0.06544935
27	0xbc53d625	-0.012929474
28	0x3ca6fe1e	0.020384844
29	0x3db21ecc	0.0869728
30	0x3d784662	0.060613997
31	0xbd8d68ce	-0.069047555
32	0x3ba0e350	0.0049099103
33	0x3d2fc704	0.042914405
34	0x3c8b91a8	0.017037228
35	0xbd40ef14	-0.047103003
36	0x3d06f744	0.032950655
37	0xbcbf0be3	-0.023321098
38	0xbd9ce46e	-0.07660757
39	0x3b8c7822	0.004286782
40	0xbd698592	-0.05701215
41	0x3c7efe78	0.0155636
42	0x3bb611d0	0.0055563226
43	0xbd56ecc6	-0.0524719
44	0xbd3e5092	-0.046463557
45	0x3d1aa4e8	0.037754923
46	0xbd359736	-0.04433366
47	0xbd4732a0	-0.048632264
48	0xbcee4c8e	-0.029089238
49	0x3c68c020	0.014205962
50	0x3ba3d697	0.0049999463
51	0x3d89beca	0.06725843
52	0x3bfee140	0.0077783167
53	0x3d3e041a	0.04639063
54	0xbd013e1e	-0.03155338
55	0xbd84a42f	-0.06476628
56	0xbd74b60f	-0.059743937
57	0xbd164121	-0.036683206
58	0xbd2055d0	-0.039144337
59	0xbcba3891	-0.022732051
60	0x3d573d88	0.052548915
61	0x3c64cde5	0.013965105
62	0xbcbefeca	-0.023314852
63	0x3cd8cc87	0.026464714
64	0x3db91b71	0.09038437
65	0x3c3816e1	0.0112359235
66	0x3d066ff2	0.032821603
67	0x3ba21764	0.004946636
68	0xbd553de4	-0.052060977
69	0x3c691e78	0.014228456
70	0x3cb35120	0.02188927
71	0xbc82b315	-0.015954534
72	0x3d633a75	0.05547567
73	0xbb38a9e5	-0.0028177437
74	0x3dec236d	0.115301944
75	0xbc99d7fc	-0.018779747
76	0x3d2c7bb7	0.04211017
77	0x3cf4776c	0.029842101
78	0x3cfd918c	0.030953191
79	0x3c951f82	0.0182035
80	0x3d4b617b	0.04965351
81	0x3d7b51ef	0.061357435
82	0x3bf1d351	0.007379927
83	0x3ad8c48d	0.0016538069
84	0x3dee27c3	0.11628678
85	0x3d9c1dec	0.07622895
86	0x3d1d6e88	0.03843549
87	0x3d08a83f	0.033363577
88	0xbbd29eb0	-0.0064276084
89	0xbda89094	-0.08230701
90	0xbd4baedd	-0.04972731
91	0xbc9388bb	-0.018009534
92	0x3cb0d58c	0.021586202
93	0x3d56c91a	0.05243788
94	0xbca2c0f4	-0.019867398
95	0x3b8285ee	0.003983251
96	0xbd2bcc2c	-0.04194276
97	0xbd7ba68c	-0.06143813
98	0x3d121846	0.03566768
99	0xbcaefe82	-0.021361593
100	0xbd5e28be	-0.054238074
101	0x3b40bd9b	0.0029409889
102	0x3a902ac5	0.0010999074
103	0xbc61d309	-0.013783225
104	0x3d25d177	0.040482964
105	0x3d4aa49e	0.049473397
106	0x3d363c2e	0.044490986
107	0xbcd8c273	-0.026459908
108	0xbd4b8697	-0.0496889
109	0xbd3d1c64	-0.046169654
110	0xbce7b6c0	-0.028285384
111	0xbc4fd85c	-0.012685861
112	0xbc6c1630	-0.014409587
113	0xbce96ec9	-0.02849521
114	0x3d4510f6	0.04811188
115	0x3d7c11a1	0.06154025
116	0x3d448290	0.047976077
117	0x3d7b1c5d	0.061306346
118	0x3d01011c	0.0314952
119	0x3c6d763a	0.014493519
120	0xbd81c944	-0.063372165
121	0x3a7d7080	0.0009667948
122	0x3bce2e5f	0.006292149
123	0xbd82127e	-0.06351183
124	0x3e019017	0.12652622
125	0x3c9ecc20	0.019384444
126	0xbd91dd97	-0.07122343
127	0xbd28971a	-0.041159727
128	0xbd09156e	-0.033467703
129	0xbd6f1505	-0.058369655
130	0xbb67e0e1	-0.003538184
131	0x3cc00eef	0.02344462
132	0xbd3c2ff9	-0.045944188
133	0x3d2fca43	0.0429175
134	0x3b481a40	0.0030533224
135	0xbc731472	-0.0148364175
136	0xbcfa7a32	-0.030575845
137	0xbc81e3c3	-0.015855676
138	0xbc1ba11c	-0.009498861
139	0xbb614706	-0.0034374609
140	0x3d66fd31	0.056393806
141	0xbd524eef	-0.05134481
142	0x3d940145	0.07226805
143	0x3d75b45c	0.059986457
144	0xbd434e04	-0.047681823
145	0x3cb2c233	0.021821117
146	0x3d24653d	0.04013561
147	0xbd119ab6	-0.035547934
148	0xbbd51ad7	-0.0065034437
149	0xb8ae6b83	-8.316992e-05
150	0xbc646f96	-0.01394262
151	0x3c81fb2d	0.01586684
152	0xbd442a53	-0.047891926
153	0x3dc6ccf2	0.09707059
154	0xbd644619	-0.055730913
155	0xbc8d7cee	-0.017271485
156	0xbc8c2ff4	-0.01711271
157	0x3d6f0372	0.058352895
158	0x3c370730	0.011171147
159	0x3d1084a0	0.03528273
160	0x3d6be573	0.057591867
161	0x3ca8a188	0.020584837
162	0x3dd95774	0.106123835
163	0xbced267d	-0.028949017
164	0xbc80520a	-0.01566412
165	0x3bdd9c92	0.0067630494
166	0xbb5f8034	-0.0034103515
167	0xbc105898	-0.008810185
168	0x3d6085ca	0.05481509
169	0x3deccf55	0.11562983
170	0x3d12ebb1	0.035869304
171	0xbd4b3cd4	-0.049618557
172	0xbd1b90ca	-0.03797988
173	0x3c414d88	0.01179827
174	0xbce2902c	-0.027656637
175	0x3d7e0804	0.062019363
176	0x3d39a606	0.045324348
177	0x3b8f9697	0.0043819654
178	0xbd87636f	-0.06610762
179	0xbd4ada81	-0.049524788
180	0xbd914b6d	-0.070944645
181	0x3dd37d99	0.1032669
182	0xbd1e5f4a	-0.038665093
183	0x3c6692e0	0.014073104
184	0xbd502452	-0.050815888
185	0xbd2015b4	-0.039083198
186	0x3cb0a7ed	0.021564448
187	0x3ce1c7de	0.027561124
188	0xbd0e04de	-0.03467261
189	0x3c4e7c6f	0.0126029095
190	0xbcaba430	-0.020952314
191	0xbc6be971	-0.0143989185
192	0x3dc1a53e	0.094553456
193	0xbd87eb6a	-0.066366985
194	0x3dd58f07	0.10427671
195	0x3d02e245	0.03195407
196	0xbd1dac0b	-0.03849415
197	0xbd0a97e3	-0.033836257
198	0x3c3be220	0.011467487
199	0xbdcfa366	-0.10138588
200	0x3d480e2a	0.048841633
201	0xbc6ea848	-0.014566489
202	0xbc65141b	-0.013981844
203	0xbde7f31a	-0.11325665
204	0xbcae99ea	-0.021313626
205	0xbd35348d	-0.04423957
206	0x3d2b0bb4	0.041759208
207	0xbd4a46cb	-0.04938392
208	0xbdacbabb	-0.084340535
209	0xbd48b490	-0.049000323
210	0xbcaeac40	-0.02132237
211	0xbba31e40	-0.0049779713
212	0xbd371692	-0.04469926
213	0x3bd77470	0.0065751597
214	0xbb70351e	-0.0036652754
215	0x3bea7530	0.007155083
216	0xbb10a5e1	-0.0022071528
217	0x3cb6907f	0.022285698
218	0xbd8ea6f4	-0.069654375
219	0x3d1ef452	0.03880722
220	0xbcf59f28	-0.029983118
221	0x3d9060f1	0.0704974
222	0xbca51c28	-0.020155028
223	0xbce2ac27	-0.02766998
224	0xbd6e9b37	-0.058253493
225	0x3c2ac5f3	0.010423171
226	0x3c32e328	0.010918416
227	0x3d330ef6	0.04371544
228	0x3d76a9f3	0.06022067
229	0x3d2c912e	0.04213064
230	0x3d4b1412	0.049579687
231	0xbd7f3af6	-0.06231209
232	0x3c8468a9	0.016163187
233	0xbd1ce714	-0.03830631
234	0xbd24bb74	-0.04021783
235	0x3d2af2f8	0.04173562
236	0xbd2d5e4a	-0.04232625
237	0xbd9f7de5	-0.07787684
238	0x3bf8e81e	0.00759603
239	0x3b2daa20	0.0026499107
240	0x3c2164c8	0.009850688
241	0x3cad1d6a	0.02113219
242	0x3ba22c90	0.00494916
243	0xbd99154c	-0.07474765
244	0x3bcd5957	0.0062667537
245	0xbb2a8217	-0.002601748
246	0x3d83fe61	0.06445003
247	0xbd3d3d3a	-0.04620097
248	0xbd0151e6	-0.031572245
249	0xbd7fe280	-0.062471867
250	0x3d1d5ce7	0.038418677
251	0x3d5e32ab	0.05424754
252	0x3b143224	0.0022612894
253	0x3dbc2323	0.09186389
254	0x3d7aca66	0.06122818
255	0xbca2dcb4	-0.01988063

network.6.bias f4 [256]
0	0x3d1e355e	0.038625114
1	0x3eefebe7	0.46859667
2	0x40084026	2.1289153
3	0xbd80b5bb	-0.06284662
4	0x3e0f1c63	0.13975672
5	0xbd75c9d8	-0.060006946
6	0x400cfdc4	2.2029886
7	0x3b1dac62	0.0024059047
8	0x40076ebd	2.116134
9	0x400be18c	2.1856413
10	0x4010c796	2.2621818
11	0xbb2cf7e6	-0.0026392876
12	0xbc1d29be	-0.009592472
13	0x3f2f00f8	0.68360853
14	0xbd329863	-0.04360236
15	0xbc051076	-0.0081216
16	0x400b5ded	2.1776078
17	0x3f3b00d2	0.73048127
18	0x3f0c23e7	0.5474228
19	0x3f3774cf	0.7166261
20	0x400b1b1f	2.1735303
21	0xbe5306e3	-0.20608096
22	0x3e7a006b	0.24414222
23	0x40094ce9	2.1453192
24	0x4009983c	2.1499166
25	0xbd0fe93d	-0.035134543
26	0xbc9cdbac	-0.019147716
27	0x3e3f0ad0	0.18656468
28	0x3c2a8ecd	0.010410023
29	0x400f01a7	2.2344759
30	0xbd4831ff	-0.048875805
31	0xbd8bfa01	-0.06834794
32	0xbcac53aa	-0.021035988
33	0xbd5ecdfc	-0.05439566
34	0x400a9154	2.1651201
35	0x400a998b	2.1656215
36	0xbcdadab9	-0.026715623
37	0x3b74b122	0.0037337025
38	0xbd29cafe	-0.041453354
39	0xbd030681	-0.031988624
40	0x3f008a3a	0.50210917
41	0x4009819e	2.1485362
42	0x3f34d571	0.70638186
43	0x400438a9	2.0659583
44	0x400a8bac	2.164775
45	0x400ee78a	2.232882
46	0xbd2b462d	-0.04181497
47	0x3ec22915	0.37921968
48	0x4009a1a0	2.1504898
49	0xbd96272a	-0.07331689
50	0x401123e1	2.2678149
51	0xbd786dd5	-0.06065162
52	0x400c89be	2.195907
53	0xbd47213c	-0.04861568
54	0x4007ef93	2.1239974
55	0xbd757cd8	-0.059933513
56	0xbd90d8b2	-0.07072581
57	0xbd1679ff	-0.03673744
58	0x400f17b4	2.2358217
59	0x400f258e	2.2366672
60	0x400c1133	2.1885498
61	0x3f484966	0.78237
62	0x400e880b	2.2270534
63	0xbd738ab6	-0.059458457
64	0xbd27ad90	-0.040937006
65	0x4006a988	2.1040974
66	0x400a8e31	2.1649287
67	0xbd3f4211	-0.046693865
68	0xbbd8fced	-0.006621948
69	0x3e2a13c8	0.16609108
70	0xbce45858	-0.027874157
71	0x400a8c04	2.1647959
72	0x3ec1252b	0.3772367
73	0x3f46715b	0.77516717
74	0x3aa967f2	0.0012924655
75	0x3f31be9d	0.6943148
76	0x400c03ff	2.187744
77	0x400f9ae3	2.2438285
78	0xbce61803	-0.028087622
79	0xbd85a9f3	-0.06526556
80	0x40093b21	2.144234
81	0xbd7e2754	-0.062049225
82	0xbd4e1fef	-0.050323423
83	0x400bd1ac	2.1846724
84	0x3f36581d	0.712282
85	0x400a45ef	2.1605184
86	0xbd0a6aed	-0.03379338
87	0x3f2b03c6	0.6680263
88	0xbcfdae66	-0.030966949
89	0xbd2bcec4	-0.041945234
90	0xbd0a708a	-0.033798732
91	0x400d0481	2.2034
92	0x400839b5	2.1285222
93	0x400b4104	2.1758432
94	0x40074135	2.113355
95	0x400eb197	2.2295892
96	0x3f4e91b6	0.8069109
97	0x400f9e5e	2.244041
98	0xbcc6cf85	-0.024268875
99	0x3f458a28	0.77163935
100	0xbd81ea88	-0.063435614
101	0xbd47873d	-0.048712958
102	0x40049f58	2.0722256
103	0xbd852c7d	-0.06502626
104	0xbd9c8e6e	-0.07644354
105	0x400dc383	2.215058
106	0x400e2d0c	2.2214994
107	0x3f3a0921	0.7267018
108	0x40104f7a	2.2548509
109	0x400c1025	2.1884854
110	0xbd9e7d70	-0.07738769
111	0x3d896332	0.06708373
112	0xbd28b50f	-0.041188296
113	0x3e782695	0.24233468
114	0x4008c34e	2.1369205
115	0x400c20dc	2.1895056
116	0x400f23af	2.236553
117	0xbd5e26ca	-0.05423621
118	0x400a6b52	2.1628003
119	0x3f35ce7f	0.71018213
120	0x3e8278c6	0.25482768
121	0x400fd713	2.247502
122	0xbd9289b6	-0.071551725
123	0x3f4780ca	0.7793089
124	0x3f116786	0.5679859
125	0x3e08dd5f	0.13365696
126	0x400f8c61	2.242943
127	0x400c1aa6	2.1891265
128	0xbd88035d	-0.066412665
129	0xbd463bb0	-0.048396766
130	0xbd481f21	-0.04885781
131	0x3ea147a2	0.31499964
132	0xbd79db5e	-0.06100022
133	0x400f467a	2.2386765
134	0xbd30b4fe	-0.043141358
135	0x400d245b	2.205344
136	0x3f3da80f	0.7408456
137	0x400dae24	2.2137537
138	0x3f388a71	0.72086245
139	0x400cda64	2.2008295
140	0x40096d6a	2.147303
141	0x3f1a144b	0.60187215
142	0x3f15e0f6	0.5854639
143	0x40090329	2.1408179
144	0xbcbaff4f	-0.022826819
145	0xbd16e162	-0.036836036
146	0x3e033882	0.12814525
147	0x3dcf5661	0.10123897
148	0xbd000006	-0.031250022
149	0x3df9f6c6	0.122052714
150	0x3f3d985b	0.740606
151	0x3f3335c5	0.7000392
152	0x3f2e7914	0.681535
153	0xbd4ca964	-0.04996623
154	0x3f44a2f1	0.7681113
155	0x400a9c42	2.1657872
156	0xbdc69881	-0.096970566
157	0xbc9ef32a	-0.019403059
158	0x3f1bf0e0	0.6091442
159	0xbd86b20c	-0.065769285
160	0x3e258cad	0.16166945
161	0x400bcdbf	2.1844327
162	0x400769ae	2.1158252
163	0x40069c7a	2.1033006
164	0x400c9dd0	2.197132
165	0xbc5c345f	-0.013440221
166	0x400c3c68	2.191187
167	0xbc92dc6a	-0.017927367
168	0x40060128	2.0938206
169	0x400d2fb6	2.206037
170	0x400a16da	2.1576447
171	0x3f0aac47	0.54169124
172	0xbd45665d	-0.048193324
173	0x3ead58ae	0.3385672
174	0x400cd81e	2.2006907
175	0x400ef4ab	2.2336833
176	0x3f3ed28b	0.74540013
177	0x3f674fb5	0.90356
178	0x400fcf1e	2.2470164
179	0x3ef7c764	0.4839431
180	0x400fa3fe	2.2443843
181	0x3b11e0f3	0.0022259324
182	0x3f48efb6	0.7849077
183	0xbd28dc67	-0.041225817
184	0x400fdf67	2.2480104
185	0xbca6ca08	-0.020360008
186	0xbdc873cd	-0.09787712
187	0x400c438f	2.1916234
188	0x400ecae3	2.2311332
189	0x400f0255	2.2345173
190	0xbd67ea13	-0.056619715
191	0x400bc19f	2.1836927
192	0x3f6b9b02	0.920334
193	0x3f3475a9	0.70492035
194	0x3b8ce978	0.0043002926
195	0x3c6e35ff	0.014539241
196	0xbb857070	-0.0040722415
197	0x400aef8f	2.1708715
198	0x400bf195	2.18662
199	0x400e33e0	2.2219162
200	0x400ac68c	2.1683683
201	0x400ba077	2.181669
202	0x3f2a99b4	0.6664078
203	0x400cfaeb	2.2028148
204	0x3d80043e	0.06250809
205	0x3ef343a6	0.4751255
206	0xbc8e9ef0	-0.017409772
207	0x400d1d08	2.204897
208	0x3f912434	1.1339173
209	0x3f9699b9	1.1765662
210	0xbd735d37	-0.05941507
211	0x3f1a90f7	0.6037745
212	0xbb572344	-0.0032827416
213	0xbd0e0cf0	-0.034680307
214	0xbd175ed3	-0.036955666
215	0x40097c57	2.148214
216	0x400a8cb4	2.1648378
217	0xbca4fc8f	-0.02013996
218	0x400f2989	2.23691
219	0x3df04c6d	0.11733327
220	0x400a3b27	2.1598604
221	0xbcf1a070	-0.029495448
222	0x3f312047	0.69189876
223	0x3f51fbe4	0.8202498
224	0xbd19355b	-0.0374044
225	0xbd3c42ae	-0.04596203
226	0xbd233e8d	-0.039854575
227	0x3f3071a1	0.68923384
228	0xbd9824f1	-0.07428921
229	0x400deb45	2.2174847
230	0x3d14554f	0.03621417
231	0x400a1ef8	2.1581402
232	0x400cbc57	2.1989954
233	0x400a8d41	2.1648715
234	0x3f11fdc2	0.5702783
235	0x3f159613	0.5843212
236	0xbc825fd1	-0.01591483
237	0x400b2dbf	2.1746671
238	0x400a0cbb	2.157027
239	0xbd3cca1c	-0.046091184
240	0xbd03a796	-0.032142244
241	0xbcbc7813	-0.023006475
242	0x3f2e7ae0	0.6815624
243	0x400a958d	2.1653779
244	0x400b3ec4	2.175706
245	0xbdbc133f	-0.091833584
246	0xbc87cef6	-0.016578179
247	0x400ee841	2.2329257
248	0x400a6e0e	2.1629672
249	0xbc1681ad	-0.009186191
250	0xbd887fde	-0.06665014
251	0x400c3195	2.1905262
252	0x400efa2d	2.2340195
253	0xbc0e4ff4	-0.0086860545
254	0xbd244f03	-0.040114414
255	0xbd922e33	-0.07137718

network.8.weight f4 [3, 256]
0	0x3d933761	0.07188297
1	0x3e95ed2e	0.29282516
2	0x3ec64ec3	0.38731965
3	0x3d1fe26f	0.039034303
4	0x3e53096c	0.20609063
5	0xbd26dc99	-0.040737722
6	0x3eca0ef7	0.39464542
7	0xbd083870	-0.033256948
8	0x3ecc85ac	0.39945734
9	0x3ec28f31	0.3799987
10	0x3ecf76f9	0.40520456
11	0xbb30f7bb	-0.0027003128
12	0x3b63ef9b	0.0034780267
13	0x3f052bc5	0.5201991
14	0xbd0d22fc	-0.03445719
15	0x3cc36dbc	0.023856036
16	0x3ec0ee9e	0.3768205
17	0x3e8ab2f5	0.27089658
18	0x3ef1bab5	0.4721276
19	0x3f3ea54b	0.7447097
20	0x3eace93e	0.337717
21	0xbc2934d7	-0.010327539
22	0x3d901f08	0.07037169
23	0x3ed27c93	0.41110668
24	0x3ed4208f	0.4143109
25	0xbd27e66d	-0.040991236
26	0x3d0d4621	0.03449071
27	0xbd32ad98	-0.043622583
28	0x3d20d2cf	0.039263543
29	0x3ebfcd64	0.37461388
30	0x3cda7b5b	0.026670149
31	0x3d595a66	0.053064726
32	0x3d402f09	0.046919856
33	0xbc94803c	-0.018127553
34	0x3ee7977e	0.45232767
35	0x3ec1be2e	0.37840408
36	0x3d315fe7	0.04330435
37	0x3c67ab15	0.01413991
38	0xbd0c6eca	-0.034285344
39	0xbd241782	-0.04006148
40	0x3f6d1ebc	0.9262502
41	0x3eafee01	0.3436127
42	0x3f51384a	0.81726515
43	0x3ee3d6ed	0.44499913
44	0x3ee5a3c3	0.44851503
45	0x3eb75d8c	0.35813558
46	0xbaa97f11	-0.0012931545
47	0x3eae5cf8	0.34055305
48	0x3eb77818	0.35833812
49	0xbd6ef368	-0.0583376
50	0x3ebd6e0f	0.3699803
51	0xbd4e38d6	-0.05034717
52	0x3ec652c0	0.38735008
53	0x3d4cb2d2	0.049975224
54	0x3ec6a64b	0.38798746
55	0xbb441f1b	-0.0029925767
56	0xbd3d7689	-0.046255622
57	0xbd15059f	-0.036382314
58	0x3ed0abca	0.40756065
59	0x3ec36812	0.38165337
60	0x3ec745a6	0.38920325
61	0x3f15e8f1	0.58558565
62	0x3eae9887	0.34100744
63	0x3d532cb0	0.05155629
64	0xbcf70cb0	-0.030157417
65	0x3eda5e45	0.42650047
66	0x3ebf015d	0.37305728
67	0xbc914bb8	-0.0177363
68	0xbaa6b384	-0.0012718295
69	0x3b838e43	0.0040147617
70	0x3c610618	0.013734363
71	0x3ec52fee	0.3851313
72	0x3e8b71fb	0.27235398
73	0x3f3bc96e	0.7335423
74	0x3dbebe0d	0.09313593
75	0x3ee6636c	0.44997728
76	0x3ea9af98	0.3314178
77	0x3ecd8edb	0.40148053
78	0x3d468c59	0.04847369
79	0x3b22f7a7	0.002486685
80	0x3eccfc60	0.40036297
81	0xbb311844	-0.002702252
82	0x3be73974	0.0070564095
83	0x3edc6798	0.43047786
84	0x3f27f4e0	0.65608025
85	0x3fcf3bff	1.6190184
86	0xbd07a904	-0.03312017
87	0x3e8750f0	0.26428938
88	0xbca1f37a	-0.019769419
89	0xbbf777cc	-0.0075521227
90	0xbc75da63	-0.015005681
91	0x3ec8878d	0.39165917
92	0x3eca4588	0.39506173
93	0x3ecf9691	0.4054456
94	0x3ed8cea8	0.42345166
95	0x3ed0c637	0.40776226
96	0x3f27cb18	0.6554427
97	0x3ea6447e	0.3247413
98	0x3c405e63	0.011741254
99	0x3f88b7bb	1.068107
100	0x3d5167ff	0.05112457
101	0xbcc4c1e7	-0.024018241
102	0x3ed2c991	0.41169408
103	0xbcde3cb8	-0.027128562
104	0x3b9d5e47	0.0048024985
105	0x3ed290f0	0.41126204
106	0x3eac9755	0.33709207
107	0x3eba7a05	0.3642122
108	0x3ebd1226	0.3692791
109	0x3ec14240	0.37745857
110	0xbae27dcb	-0.0017279921
111	0x3c8bde4a	0.01707377
112	0xbccd8e17	-0.025092168
113	0x3e36b1c1	0.17841245
114	0x3fa065b9	1.2531043
115	0x3eb70228	0.35743833
116	0x3ed1a401	0.40945438
117	0xbcb2fa39	-0.021847831
118	0x3eab0b39	0.33407
119	0xbe0f9dad	-0.14024992
120	0x3ebe7670	0.37199736
121	0x3eb67134	0.35633242
122	0x3c22e00c	0.009941112
123	0x3ec802cf	0.39064643
124	0x3f06dd26	0.52681196
125	0x3e14b5b8	0.14522445
126	0x3ec3d50a	0.38248473
127	0x3edc191d	0.4298791
128	0xbc3ea9cb	-0.0116371615
129	0xba1c3541	-0.0005958863
130	0x3d0c1fdd	0.034210075
131	0x3ed0d2c1	0.40785792
132	0x3c38c510	0.011277452
133	0x3ec6a375	0.38796583
134	0xbceb0548	-0.028689042
135	0x3eb71b0e	0.3576283
136	0x3ef0444e	0.46927112
137	0x3ecdf9d9	0.4022968
138	0x3f48efae	0.7849072
139	0x3eddeb92	0.43343788
140	0x3ec3c8b9	0.38239077
141	0x3ee488b6	0.44635552
142	0x3f38e879	0.72229725
143	0x3eb88330	0.36037588
144	0x3d07a9ec	0.033121035
145	0x3c95289f	0.018207846
146	0x3d58ca3b	0.052927237
147	0x3ce2e88f	0.027698783
148	0x3cdefda8	0.027220562
149	0x3e17a47d	0.14808841
150	0x3f2b89e9	0.6700731
151	0x3f50e033	0.815921
152	0x3f8acc20	1.0843544
153	0x3c76911f	0.015049248
154	0xbe87ebfa	-0.26547223
155	0x3eb9a439	0.36258104
156	0x3c58f4d8	0.013241969
157	0xbcc1020a	-0.023560543
158	0xbe96b6c9	-0.2943633
159	0xbc9b2778	-0.018939719
160	0x3d91c7a7	0.07118159
161	0x3ea48700	0.32134247
162	0x3ed2ed43	0.4119664
163	0x3ed2d276	0.41176194
164	0x3ebdd417	0.37075874
165	0x3f2537b1	0.64538103
166	0x3ebca435	0.3684403
167	0xbcb20e12	-0.021735225
168	0x3ed2443d	0.41067687
169	0x3ed098e7	0.40741655
170	0x3ec99dce	0.39378208
171	0x3f32f20f	0.699006
172	0xbd320e11	-0.043470446
173	0x3ea93f15	0.3305594
174	0x3eabf9c2	0.33588988
175	0x3ecda19c	0.4016236
176	0x3f662519	0.89900357
177	0x3f293683	0.66098803
178	0x3eb56bb4	0.35433733
179	0x3eeeb267	0.46620485
180	0x3ebbf51e	0.36710447
181	0xbcb0a1ad	-0.021561468
182	0x3f92af89	1.1459819
183	0xbd2d2144	-0.042268053
184	0x3eb8cfeb	0.3609613
185	0xbd4056ac	-0.046957657
186	0x3d352b90	0.044230998
187	0x3ecde477	0.40213367
188	0x3ecae0a9	0.39624527
189	0x3eacc612	0.33744866
190	0xbcbb90c9	-0.022896187
191	0x3eb54373	0.35403022
192	0x3f6832a3	0.90702266
193	0x3ef03d49	0.46921757
194	0x3cc9eeda	0.024650026
195	0x3caea945	0.021320948
196	0x3d6ea0c9	0.058258805
197	0x3ed49b34	0.4152466
198	0x3eb647fa	0.3560179
199	0x3ecf818c	0.40528524
200	0x3f03eacf	0.51530164
201	0x3ec7a189	0.3899043
202	0x3f7fee73	0.9997322
203	0x3eb7d9ec	0.3590845
204	0xbaf14ad1	-0.0018409138
205	0x3ead2a4f	0.3382134
206	0x3ceb69d7	0.028736992
207	0x3ead9621	0.33903602
208	0x3f1991df	0.59988207
209	0x3f85d8c6	1.0456779
210	0xbc39412c	-0.011307042
211	0xbbfed8db	-0.007777316
212	0x3cc323d3	0.023820793
213	0x3c821417	0.01587872
214	0x3cc48cc4	0.023992904
215	0x3ec3957a	0.3819998
216	0x3eba2ca1	0.36362174
217	0xbd22b366	-0.03972187
218	0x3eb81b05	0.35958114
219	0x3d46d356	0.04854139
220	0x3ec83369	0.39101723
221	0x3c486547	0.012231178
222	0x3f4a7898	0.7909026
223	0x3f99a2ea	1.2002842
224	0xbd0e1b6a	-0.034694113
225	0xbb873edb	-0.004127366
226	0xbd4c02ba	-0.049807288
227	0x3f4ba3b8	0.7954669
228	0x3d501756	0.050803505
229	0x3edfdd3b	0.43723473
230	0x3da24408	0.07923132
231	0x3fb0e001	1.381836
232	0x3ece107c	0.40246952
233	0x3ec96468	0.39334416
234	0x3f3be6f9	0.7339931
235	0x3ec4f740	0.38469887
236	0xbd5b8073	-0.053589296
237	0x3eb6fb46	0.3573858
238	0x3ebc709f	0.36804673
239	0x3db09982	0.08623029
240	0xbb72e25c	-0.003706119
241	0xbcab3783	-0.020900493
242	0x3dd2a3d9	0.10285158
243	0x3f06743e	0.5252112
244	0x3ee82a6f	0.45344874
245	0x3cb57faa	0.022155602
246	0x3d285087	0.04109242
247	0x3eba47c8	0.3638289
248	0x3eb0055b	0.34379086
249	0x3d4f4261	0.050600413
250	0x3d396aaf	0.045267757
251	0x3ebb0141	0.36524394
252	0x3ed1520a	0.40882903
253	0x3d733b5b	0.059382778
254	0xbc7fb6d2	-0.015607553
255	0xbca1c96c	-0.019749366

network.8.bias f4 [3]
0	0x3f9b3daf	1.2128199
1	0x3fb6d67a	1.4284203
2	0x3febfad8	1.8435926
