cl_rl_framework/mountaincar_cl/runs/trained_model.pth (torch, 536353 bytes, 8 tensors)

network.0.weight f4 [256, 2]
000000 31 a0 1c bf 10 af 46 bd 11 76 0a bd 13 dc 24 40
       -0.6118193 -0.048506796 -0.033804003 2.5759323
000010 bd d4 18 bf 44 e6 96 3f 07 48 ac be cf ff 9f 40
       -0.5969961 1.1789021 -0.33648703 4.9999766
000020 c0 c5 51 3e f0 7b ce 3d 0e 86 c5 3e 00 be e0 3f
       0.20485592 0.10082233 0.38578838 1.7557983
000030 06 82 a0 bd 78 45 88 40 ac 2e 6b 3f 3f 9d 78 bf
       -0.078373 4.25848 0.9186809 -0.9711494
000040 3d 9d fb be 11 1d 07 c0 32 c6 cf 3e 40 11 fd 3d
       -0.491434 -2.111149 0.405809 0.12356806
000050 a2 1d 5c 3e d1 bf 99 3f e9 a3 a1 3e 36 db 92 3e
       0.21495679 1.2011663 0.31570366 0.2868287
000060 06 ae a3 3e 80 f3 d7 3d 6d f8 cc be 0c d3 5c bf
       0.31968707 0.10544491 -0.40033284 -0.8625953
000070 74 c1 d0 be 92 75 0d 40 7f 4e 45 3f a6 ab 8d 3f
       -0.40772593 2.210301 0.770729 1.1068008
000080 d4 09 39 be a8 31 be 3d ee e1 2b 3f 4f ae 2a 3e
       -0.18070155 0.09286815 0.67141616 0.16668056
000090 5a 6e a8 3e ce 47 96 3e 56 ca 2d 3f 96 5b eb 3e
       0.32896692 0.29351658 0.67886865 0.45968312
0000a0 8d 9d 30 3f 0f f8 06 bf d0 ce 0c 3d fa 5d f4 3e
       0.68990403 -0.5272226 0.03437692 0.47727948
0000b0 b6 d7 21 3f 36 10 b7 3e e0 eb 04 3f 8f de 26 3f
       0.63219774 0.35754555 0.51922417 0.6518335
0000c0 5d d6 13 3f 95 3d 6d 3f 69 53 11 3c d1 82 83 c0
       0.5774897 0.9267209 0.008869984 -4.109719
0000d0 8b 5d f0 be 76 bb 70 40 2d 8d b7 be fa 4b e9 3f
       -0.46946368 3.7614417 -0.35849896 1.8226311
0000e0 47 66 9c 3e ad ee bc bf 20 51 0f bd d5 46 e5 be
       0.3054678 -1.4760338 -0.034989476 -0.44780603
0000f0 ca b1 7b 3e 51 0a 39 c0 fa 12 bd 3e e2 7f ab 3e
       0.2457954 -2.8912547 0.3692854 0.33496004
000100 80 03 99 3b d4 1d 64 3e 4e 70 e9 3e 11 fd 01 3f
       0.0046696067 0.22277004 0.45593494 0.50776774
000110 12 98 6d be 49 a5 30 40 c0 72 bf 3e 73 eb 96 3f
       -0.23202541 2.7600882 0.37392235 1.1790603
000120 be 4f 6d be b4 5a 0e bf 78 aa 25 3e bb ea 24 3f
       -0.2317495 -0.5560715 0.1617831 0.6442067
000130 e0 d1 34 3d 14 4e 87 3e c6 01 5e 3f 69 08 9c bf
       0.044145465 0.26426756 0.86721456 -1.2190067
000140 ee e4 e4 3e 00 f8 07 be 50 31 d2 3e 59 4d ee 3f
       0.4470591 -0.13278198 0.41053247 1.8617355
000150 f1 f5 06 bf de 56 26 3f 93 67 46 be 44 a3 52 3f
       -0.52719027 0.649763 -0.19375448 0.82280374
000160 0e 84 d1 be 73 d2 ae bf b4 2c 61 be 44 19 57 bf
       -0.40921062 -1.3657974 -0.21989709 -0.8402293
000170 1c 35 85 3e c1 2e 1f 3f 05 2d 8a 3d 44 d2 50 40
       0.26017082 0.62180716 0.06746868 3.2628336
000180 ac 26 79 3e d3 1a 98 be 82 62 e0 3e 65 a7 01 3f
       0.24331158 -0.29707965 0.43825155 0.5064605
000190 30 d7 df bd a6 ec ba 3e 0c 4d 12 3f cf 6f e5 3f
       -0.10929716 0.36508673 0.57148814 1.7924746
0001a0 83 59 6f 3e 64 af 6b 3f 0c 27 30 be 52 40 b9 3e
       0.2337399 0.920645 -0.17202395 0.36181885
0001b0 5b 4d 8e 3e b9 98 11 40 40 22 26 3c b4 7e 79 3e
       0.27793393 2.2749465 0.010140002 0.2436474
0001c0 f7 05 fc be d2 67 07 c0 ea 45 9e be c0 4b 27 3c
       -0.492233 -2.1157117 -0.30912715 0.010210931
0001d0 82 51 dd 3e 79 da 16 3f a9 6f 0c 3f 1e 82 11 40
       0.43226248 0.5892711 0.5485788 2.2735667
0001e0 be 86 20 bf 78 43 0a be 80 69 f0 bc 70 43 9e be
       -0.627056 -0.135023 -0.029347181 -0.30910826
0001f0 1a 65 92 be c0 ab d3 bc 84 cc 09 3f e5 1f 10 bf
       -0.2859276 -0.025838733 0.5382769 -0.5629867
000200 cc fd 6f 3e af dc 0b 3f 82 05 8c 3d e9 89 03 40
       0.2343666 0.5463361 0.06836988 2.0552924
000210 6b 69 e0 3d 55 cd d5 3f 16 b2 9c 3e 08 34 e7 bd
       0.10957607 1.6703287 0.3060462 -0.11289221
000220 af 5b b3 3d 43 28 8d 3f 6e d4 87 3e 77 e6 c9 be
       0.08757722 1.1027912 0.26529258 -0.39433643
000230 67 14 e8 be cc 37 05 3e 8a 84 7b be 85 6d 98 3f
       -0.45328066 0.13009566 -0.24562278 1.1908423
000240 1c 61 0e bf b5 58 14 3f 5a 13 bf 3e 3a 36 be 3e
       -0.5561693 0.57947856 0.37319452 0.37150747
000250 e2 df a4 3e f0 c5 17 bd 5e bf 03 3e dd 91 80 40
       0.3220206 -0.037054002 0.1286597 4.0178056
000260 ab e9 26 3f 1e 43 bd 3e b5 30 41 3e 2e d1 bb 3f
       0.652003 0.3696527 0.18866237 1.4673212
000270 82 d5 aa 3e d9 37 27 3f ce 6c 56 3f 53 1c 46 bf
       0.3336602 0.6531959 0.8375977 -0.7738697
000280 a1 1c a4 be 73 ed 1f c0 a2 cf 10 3f 39 82 2d 3f
       -0.32053092 -2.4988678 0.5656682 0.6777683
000290 a2 6f 83 be 68 39 8b be 02 58 23 3f 6f d7 13 3f
       -0.25671107 -0.27192235 0.63806164 0.577506
0002a0 e8 3c 88 3e fa 8f 2d bf fb 5e 3f 3e 1e 0e 8f 3f
       0.26608968 -0.67797816 0.18688576 1.1176183
0002b0 fc 63 11 3e 78 6e 40 3e f6 e8 a2 bd a4 bc 6f 40
       0.14198297 0.1879214 -0.0795459 3.7458887
0002c0 c7 cf 11 3f 5c 7c 90 3e f7 f4 63 bd b3 d0 01 c0
       0.5695767 0.2821988 -0.05565354 -2.028363
0002d0 22 9c 89 be ce 39 72 c0 b9 20 01 3f ff 89 4e bf
       -0.26876932 -3.784778 0.50440556 -0.80679315
0002e0 2f fe 0a 3f 01 71 a0 be 45 6e 32 3e 0b 8d ca 3e
       0.54294103 -0.31336215 0.17424877 0.39560732
0002f0 46 0c e3 3e 73 ab 40 bd ee a3 bf 3e ac f2 1f 40
       0.443453 -0.047038507 0.37429756 2.4991865
000300 d0 e5 30 3c 54 75 5f 40 e5 fb f6 3e a2 b3 5b 3f
       0.010796979 3.4915361 0.48239055 0.8582097
000310 17 d3 8e be f4 05 9c 3f 83 b9 e8 3e 6e 7e 22 bf
       -0.27895424 1.2189317 0.45454034 -0.63474166
000320 06 42 b1 3d 4a 87 7c c0 b8 51 33 be a0 27 a8 bc
       0.08655171 -3.9457574 -0.17511642 -0.020526707
000330 38 1d 38 3f 5d 3b cb be af bb 1c bf 1c dd 34 bf
       0.71919584 -0.39693728 -0.6122388 -0.70649886
000340 06 2e c4 3d d3 50 27 c0 80 0e 00 3f 4b 8b 9e 3f
       0.09579091 -2.614308 0.50022125 1.2386259
000350 b0 f0 5f 3e 10 0f eb 3d dc 8d 08 bf 80 ce e9 bd
       0.21869159 0.11477482 -0.5334146 -0.1141634
000360 9c 40 7b be 72 d0 0e 40 db 17 88 3d de 7d 65 40
       -0.24536365 2.2314725 0.06645175 3.5858073
000370 24 51 11 bf 4b c6 04 bf ea d1 b3 be 20 be 3f 40
       -0.56764436 -0.5186507 -0.3512109 2.9959793
000380 62 fc 84 bc ff a9 fa 3f b0 b7 68 be 21 64 1f 3f
       -0.016233627 1.9583129 -0.22726321 0.6226216
000390 be 8a 25 3f 84 18 69 3f 93 29 2b 3f dc 5a 18 bf
       0.6466483 0.9105303 0.6686031 -0.5951364
0003a0 2d 2b 41 be d0 b3 4e c0 80 71 eb 3e f8 e4 fb 3e
       -0.18864127 -3.229725 0.4598503 0.49198127
0003b0 85 46 93 bc c4 b2 52 3e 40 c8 cc bc fc 09 cf be
       -0.017977962 0.20576006 -0.02499783 -0.40437305
0003c0 5e d5 17 bf a4 40 2f be 65 63 20 3f 44 7d 9e be
       -0.5930995 -0.17114502 0.62651664 -0.30954945
0003d0 e0 bd fb 3d 0a 2b a1 be 40 bd eb bd 00 a6 22 3e
       0.12292075 -0.3147815 -0.11510706 0.15883636
0003e0 00 54 67 ba 07 4c 2f bf 8a f4 99 3e ce 8e e8 3e
       -0.00088244677 -0.68475384 0.3006938 0.4542145
0003f0 ba 3a bd 3e 80 26 51 be b8 34 42 bf 76 0f be be
       0.36958867 -0.20424843 -0.7586169 -0.3712117

network.0.bias f4 [256]
000000 7f 18 1a bf a5 18 5b bb 97 f3 9c be f3 56 1c be
       -0.6019363 -0.0033431437 -0.30654594 -0.15267543
000010 c2 c8 77 be 5e 15 51 3e 59 a1 05 bd 2e 50 f0 3e
       -0.24197677 0.20418307 -0.032624576 0.46936172
000020 ff c7 9c be b0 6b 1d be 4f 80 03 3e 99 10 3e 3e
       -0.30621335 -0.15373111 0.12841915 0.18561019
000030 9b a5 1b bf 58 d6 8a be 1a b1 33 be ea 28 ca 3e
       -0.6079957 -0.27116656 -0.17548028 0.3948434
000040 06 f2 93 bd bf f9 b5 3e af 65 ac be 19 25 60 3e
       -0.07223897 0.35542104 -0.33671328 0.21889152
000050 0a 07 2c bf 70 f6 bd be 6b 60 b2 3e 87 c8 86 3e
       -0.6719824 -0.3710208 0.34839186 0.26324865
000060 68 82 94 3e 95 63 59 3b f0 0c 7b be 87 e7 1f be
       0.29005742 0.0033170928 -0.24516654 -0.15615664
000070 10 74 54 3e 08 fb 87 be c2 21 16 3e 38 7b 23 be
       0.207474 -0.2655871 0.14661315 -0.15964973
000080 c0 ad 76 bd ac ee e3 be a3 7a c9 bd ad 25 46 3e
       -0.060224295 -0.4451803 -0.09837844 0.1935031
000090 30 e0 0d bf c6 fb 70 be 9e 06 a6 be 42 6b 00 3f
       -0.5542021 -0.23533544 -0.32426924 0.5016366
0000a0 45 49 29 bf bc 76 58 3e b3 98 63 be 4a a9 a7 bd
       -0.66127425 0.21139044 -0.22226219 -0.08186586
0000b0 c1 88 1c be 4a f5 af bd 04 61 14 3e 21 20 01 3d
       -0.15286542 -0.08591707 0.14490134 0.03152478
0000c0 cb 7e 22 bf db ee 15 bf 14 3f fa be eb 87 95 3e
       -0.6347472 -0.5856759 -0.4887625 0.2920526
0000d0 32 f3 05 3e 61 f7 2c bf 96 02 35 3e c4 7b 4f be
       0.13081053 -0.6756497 0.17676768 -0.20262057
0000e0 e2 06 6e be 55 da fa be ba 36 72 be e0 fe 8e 3e
       -0.23244813 -0.489947 -0.23653689 0.2792883
0000f0 a2 6a 30 bf 25 98 a1 be 7e 45 2c bf 80 ca 81 3e
       -0.6891271 -0.3156139 -0.67293537 0.25349808
000100 e0 2e a7 bc b0 7c 96 3d 32 35 a6 3d 35 24 e3 be
       -0.020408094 0.07348001 0.08115615 -0.4436356
000110 ec 57 8f 3d 02 9a 2c bf 4a 43 21 bf 38 78 d1 bd
       0.06999192 -0.674225 -0.629933 -0.10228008
000120 e6 36 1b bf 7a 02 23 bf c4 d2 28 be 1c 17 96 3d
       -0.60630643 -0.63675654 -0.1648665 0.073286265
000130 fa f4 55 be 45 1f e0 3d 0a a6 e5 be 17 88 e2 3e
       -0.20894232 0.10943464 -0.4485324 0.44244453
000140 45 6b 1f be 59 70 f3 3d 5b e6 88 be 4d 4f 0a 3e
       -0.15568264 0.11886663 -0.26738247 0.13506813
000150 1b d2 01 bf 04 3c f6 3d f0 1c e5 be cf 46 07 bd
       -0.5071122 0.12023166 -0.4474864 -0.033026513
000160 ef a2 e5 be 7f ba 3a bc 0a bc 02 be df 66 99 3e
       -0.4485087 -0.011397003 -0.12767044 0.29961297
000170 10 3c eb be 46 53 c6 ba 3f d2 4f 3e e6 7e 49 3e
       -0.45944262 -0.0015131019 0.20295046 0.19677314
000180 fd de 78 3c a9 ad 8c 3e a5 a3 e6 bd 7e f1 8b 3e
       0.015189883 0.27476242 -0.112616815 0.2733268
000190 0b a0 1a 3d b8 18 3f be 4e a6 b5 3e 8a 6f ec be
       0.037750285 -0.18661773 0.35478443 -0.46178848
0001a0 e5 cc 89 3d 33 53 81 3e e0 53 e1 bd 23 bb 02 bf
       0.06728534 0.25258788 -0.11002326 -0.510668
0001b0 c2 db d0 bd 58 0b 62 3d 31 87 8f be 44 bb 19 be
       -0.101981655 0.0551866 -0.2803283 -0.15012842
0001c0 39 09 c1 3c bc 25 2b bf ab 5b 54 3e 30 86 49 bd
       0.023563968 -0.66854453 0.20738094 -0.049200237
0001d0 4f 40 ce bd 9d 83 db 3c de 20 8c 3c 68 3e e7 bd
       -0.1007086 0.026796157 0.017105516 -0.112912
0001e0 c5 0a 1d bf 3b 6c df be 38 3c cc bd 00 df e7 bd
       -0.6134456 -0.4363726 -0.09972423 -0.11321831
0001f0 a8 4c 1f be 20 63 ab bc 00 19 d7 bc 9d d9 0d bf
       -0.15556586 -0.02092129 -0.026257038 -0.55410177
000200 b9 a1 b8 be ff 8a 25 be 54 87 36 3e e8 37 c0 bd
       -0.36060885 -0.16166304 0.17825061 -0.09385663
000210 7f 20 84 3c fe cb 20 bd 94 44 1b be 9a 5f 9f 3d
       0.016128777 -0.039257042 -0.15162879 0.077819064
000220 d1 36 83 be 98 b6 ae be 23 d7 9b 3e 3f bd 4c bc
       -0.2562776 -0.34123683 0.30437574 -0.012496292
000230 64 5d 3d be 3c 9e 80 be c5 05 f4 3d b7 c6 20 3e
       -0.18492657 -0.25120723 0.11915163 0.15700804
000240 a6 ae a1 3e 12 ae 98 3e 12 f5 79 3e 8a b1 26 bf
       0.3157856 0.29820305 0.24409893 -0.65114653
000250 71 3b 32 bf 61 94 f9 bd b9 cf ff 3d 45 74 21 bf
       -0.6962195 -0.12186504 0.12490792 -0.6306804
000260 ed 31 1f bf c4 ec fa bd 8f 67 89 be 44 c1 08 bf
       -0.62185556 -0.12252191 -0.2683682 -0.534199
000270 5d d9 49 3e 50 04 16 bf c3 9c e8 be 80 a8 39 bc
       0.19711824 -0.5860033 -0.454321 -0.011331677
000280 16 23 db bd 28 29 1b 3e 82 55 29 3e a7 bf 59 3e
       -0.107000515 0.15152419 0.16536525 0.21264516
000290 b9 05 8b be 03 09 f4 3c f5 25 88 3e 8b 4f 0c bf
       -0.27152804 0.029789453 0.2659146 -0.5480887
0002a0 38 00 9e bd da 7f c8 be cd 04 d7 be 5d 83 2f bf
       -0.077148855 -0.39160043 -0.4199585 -0.6855982
0002b0 16 c4 07 bf a1 95 38 3e 79 75 7c bd db 08 12 3d
       -0.5303358 0.18025829 -0.06163547 0.035652976
0002c0 f9 a0 50 3b b5 a0 94 3e dd 77 eb 3d 7c c0 07 3d
       0.0031834228 0.2902886 0.114974715 0.03314255
0002d0 dc 06 a6 bc a2 51 8e be 81 1c ea 3c 77 78 88 3e
       -0.020266943 -0.27796656 0.028578045 0.26654407
0002e0 30 15 fd be 07 3f 8c 3e 8f c6 37 3e 20 2d 9d be
       -0.49430227 0.27391836 0.17946838 -0.3069849
0002f0 64 db b5 be 10 67 04 be 60 80 82 3c 27 9a 29 3d
       -0.35518944 -0.1292994 0.015930355 0.041406777
000300 64 eb f5 3d f9 dc 13 bd cc 4d 64 be cd 02 00 3e
       0.12007788 -0.036099408 -0.22295302 0.12501068
000310 7e 86 2a bf 7f 2f 68 bd f6 3f 70 3e a3 3e 2b be
       -0.6661147 -0.05668592 0.23461899 -0.16723113
000320 fb 58 04 3e 8a 66 cb bd a4 7e 1c be 17 2b 2a 3e
       0.12924568 -0.09931667 -0.15282685 0.16618
000330 1b 13 17 3e 70 77 8a 3c e8 04 0b be 6d b2 7e be
       0.14753382 0.016902655 -0.1357609 -0.24872752
000340 9c cd 9e 3e a5 06 24 bf e8 80 1e 3d 25 8c 9d 3d
       0.31016243 -0.6407264 0.038697153 0.07692746
000350 b4 bc 1b 3d 80 3a 2b be 94 7d 0e bf 62 0b 77 be
       0.03802176 -0.16721535 -0.55660367 -0.24125436
000360 b7 b0 f0 3d 49 4c 20 bd 13 43 90 3e 7f 67 28 bc
       0.11752456 -0.03913525 0.28176174 -0.010278582
000370 0f c7 7a 3e 8a 79 17 bd 76 3b c0 be e1 ad fb be
       0.24489997 -0.036981143 -0.37545365 -0.49156097
000380 de c6 5c 3e 94 0a 4e bc 8b 81 44 3c b6 0d 14 bf
       0.21560237 -0.012575764 0.011993776 -0.5783342
000390 67 de 21 be 84 0e 7d be 4a 01 8e 3e bc 94 c8 be
       -0.15807496 -0.24712569 0.27735358 -0.39175975
0003a0 42 f6 a4 be ab b7 30 bf e0 ba 29 bf a4 5b 08 bf
       -0.3221913 -0.69030255 -0.66300774 -0.5326483
0003b0 c7 34 60 bc c0 ba 09 be 80 9c b3 bb 1b d3 29 bf
       -0.013684458 -0.13450146 -0.0054813027 -0.66337746
0003c0 96 64 3b be c1 f2 75 3e 14 52 61 be 70 9b 28 bf
       -0.18300089 0.24018385 -0.22003967 -0.6586218
0003d0 bb 88 23 bf f4 9f 04 bf 92 e9 3d 3e c1 a5 71 3e
       -0.6388051 -0.5180657 0.18546131 0.23598386
0003e0 e2 92 2b bf 34 ff b8 be 39 21 88 3e 6d fc e1 be
       -0.67021 -0.36132205 0.26587847 -0.44137898
0003f0 61 70 55 3e fd 31 39 3e 35 8d 15 bf d8 0b 9a bd
       0.2084365 0.18085475 -0.5841859 -0.0752179

network.3.weight f4 [256, 256]
000000 a0 00 5a bd 0c 57 7e bd 74 8a c5 bc 6a d0 23 bd
       -0.053223252 -0.062094733 -0.024113871 -0.03999368
000010 50 fd da 3c fc aa 90 bc 9a b2 b3 3c dd ef d6 bc
       0.026732117 -0.017659657 0.02193575 -0.026237423
000020 98 0e 5d 3d 00 21 5e bc 0b 42 23 bd a1 7e 9c bd
       0.053968996 -0.0135576725 -0.039857905 -0.0764134
000030 10 f7 28 bc d4 5d 11 3d 38 09 16 3c 85 e0 84 3c
       -0.010312811 0.035489872 0.009157471 0.01622034
000040 30 b9 9d bd a7 40 8a 3c 80 fa 53 3d 04 e1 66 3c
       -0.07701337 0.016876532 0.051752567 0.014091734
000050 9e 19 68 3d 04 12 52 bd 0d db 3c bd 6b b9 e6 bc
       0.056665055 -0.051286712 -0.04610734 -0.028164586
000060 e0 a7 62 bd b7 d2 27 bc a1 b8 29 3d 1c 83 f7 3c
       -0.05533588 -0.010243109 0.04143584 0.030213885
000070 a3 d9 0e 3d 0c ef dd 3c 82 89 b8 3c 64 a5 a3 3c
       0.034875523 0.027091525 0.022526506 0.019976325
000080 c0 50 59 3b 38 45 0d bd a0 bf a6 bd c8 82 2c bd
       0.0033159703 -0.03448984 -0.08142018 -0.04211691
000090 c0 ea 67 bc 64 bb fb bc 70 8f a6 3c 6a 08 88 bc
       -0.01415509 -0.030729003 0.020332068 -0.016605575
0000a0 b6 50 2b bd 90 46 5c 3d 76 cc 3c bd d3 7c 18 bd
       -0.04182502 0.05377823 -0.046093427 -0.037228417
0000b0 25 29 7b bd 04 9e d1 3c 76 05 af bd 86 0e 60 bd
       -0.061318535 0.025588043 -0.085459635 -0.05470135
0000c0 68 5c 2c 3d 08 7d 7d bc 92 30 34 bd 68 a2 fe bc
       0.042080313 -0.015471704 -0.043991633 -0.0310833
0000d0 97 35 34 3d de 11 31 bd 3e 57 13 3d ee 34 73 bd
       0.04399642 -0.04322993 0.035971873 -0.05937665
0000e0 fe d6 65 3d f0 9e 4b 3c 9a 20 14 bd 7d 13 50 3d
       0.056113236 0.01242803 -0.036163904 0.050799835
0000f0 a0 40 14 bb 88 a1 a8 bc d0 6d 5b bc 78 80 bf 3c
       -0.0022621527 -0.020584837 -0.013392881 0.023376688
000100 3c cd 60 3d 48 37 0f bd 5f 6f 50 bd 26 c5 3f 3d
       0.054883227 -0.03496483 -0.05088746 0.046818875
000110 5a bd be 3c b0 78 0f bd 80 4a 56 bc 68 13 42 3d
       0.02328365 -0.035027206 -0.013079286 0.04738179
000120 68 50 7a 3c a2 3e 02 bd b0 2f 6c bd 4c 05 96 bc
       0.015277959 -0.031798013 -0.057662666 -0.018313073
000130 e8 62 5d bd 27 d4 e0 bc 80 74 18 3c 41 d2 95 bc
       -0.054049402 -0.027444912 0.0093051195 -0.018288733
000140 66 99 26 3d 70 52 06 bc d0 b3 5b bc fe 90 6c 3d
       0.040673636 -0.008198366 -0.01340957 0.057755463
000150 ea d4 08 bd d8 a2 bf 3c e8 e7 40 bc 0b ae d2 3c
       -0.033406176 0.02339308 -0.011774041 0.025717756
000160 b6 3b 38 3d 7c 58 75 bd 9d b5 de 3b 20 54 fa 3a
       0.04497882 -0.05989884 0.0067965523 0.0019098558
000170 14 77 13 bd 30 75 a3 3b 18 10 c2 bb 9f 91 5e 3d
       -0.036002234 0.004988335 -0.0059223287 0.054338094
000180 64 2c 63 bd 02 48 86 3b 2f 24 2a 3d fa 6e 15 bc
       -0.055462256 0.0040979395 0.041538414 -0.009120697
000190 b7 79 0b bc c0 b6 a2 3c 93 7e 9e bc ac dd 38 3d
       -0.008512906 0.019862533 -0.019347465 0.045133278
0001a0 70 a2 b2 3c ca 56 72 bd 28 27 26 bd f0 6a 80 bc
       0.021805972 -0.0591648 -0.040564686 -0.015675992
0001b0 2d 5c f9 ba 79 56 27 bd b3 6a 50 bd cb e3 d9 3c
       -0.0019024663 -0.04085395 -0.050883006 0.026597878
0001c0 26 89 59 bd dc f6 6e bd aa 81 47 3d 64 94 fa 3c
       -0.05310931 -0.058340892 0.04870764 0.030588336
0001d0 5d f8 db bc 1c 8d 07 3d b7 4a 3e bc 48 e7 83 bc
       -0.026851827 0.033093557 -0.011614493 -0.016101494
0001e0 a8 a0 96 bc 60 d9 af bb c8 2e 7c 3c 80 bc 36 3a
       -0.018387154 -0.0053664893 0.015392013 0.0006970838
0001f0 7e fb 65 bd 94 6a e8 3c 80 dd eb 3c 58 be 10 3d
       -0.056148045 0.028371133 0.028792143 0.035337776
000200 72 9a 23 3d c5 d1 12 bd 79 d6 5f bd b0 6c 7e 3d
       0.039942212 -0.035844583 -0.054647896 0.06211537
000210 e2 de 5c bd 42 22 1f bd 6a 44 01 bd fb b3 42 3d
       -0.053923495 -0.03885103 -0.031559385 0.047534924
000220 2f 3c 8c bd b7 ed 9e ba 3c a3 d4 bc 79 d4 ba bc
       -0.068474166 -0.0012125288 -0.025956742 -0.022806393
000230 54 0b 18 3d 7e e0 49 3d 87 21 a3 3c b2 b7 09 bd
       0.03712018 0.049286358 0.019913448 -0.03362245
000240 07 73 70 bd 2a 23 33 3d b4 a0 6c 3c 00 a5 7c 3d
       -0.05870345 0.043734707 0.0144426115 0.061680794
000250 f4 3e 24 3d f8 01 11 bd 26 fc ba 3c de 60 3f bd
       0.0400991 -0.03540227 0.022825312 -0.04672324
000260 78 fb c8 3c f2 a2 33 3c 63 c8 e0 3c 80 dc 35 3d
       0.024533972 0.010964142 0.027439302 0.04439974
000270 a2 b7 27 bc 82 49 0e bd d0 fd 87 bb 78 a3 d6 bc
       -0.010236653 -0.03473807 -0.00415013 -0.026200995
000280 9e 07 97 b9 b8 1c 92 bb 6d 79 a4 3d dc e6 55 3d
       -0.0002880664 -0.00445899 0.08030973 0.052222118
000290 32 91 14 bd cb 67 19 bd 30 96 cd 3c 4c 9a 0b 3d
       -0.03627128 -0.0374525 0.025096029 0.034082696
0002a0 e2 3a 7c bd c0 72 86 3c cb ea 5b 3d b8 83 68 bd
       -0.061579593 0.016412139 0.053690713 -0.05676624
0002b0 04 b5 e0 3c 8b df 59 bd 4e 7f 5b 3d 5d 8d 00 3c
       0.027430065 -0.053191703 0.053588204 0.007846204
0002c0 64 65 1a bd e9 89 0f bd b7 fa 6c ba 65 d2 56 bc
       -0.03769435 -0.03504363 -0.0009040045 -0.013111685
0002d0 ed 64 7d bd 60 b7 42 3d 8d 3c 70 bd 75 45 5e bd
       -0.06186383 0.04753816 -0.058651496 -0.054265458
0002e0 c8 04 75 bd 79 03 08 3d 99 75 fe bc 36 20 2e 3d
       -0.059819013 0.033206437 -0.031061934 0.042511187
0002f0 90 1b 24 bd dd 79 9d bd 8a 7f 23 bd 42 e7 44 3d
       -0.04006535 -0.07689259 -0.039916553 0.048072107
000300 19 63 3b bd 83 30 b6 3c 38 c8 16 3c 3c 72 a9 bc
       -0.045748804 0.022239929 0.009203009 -0.020684354
000310 68 bf fb 3c 97 da 45 3d f8 58 9c bd d5 ba 61 bd
       0.030730918 0.048304167 -0.07634157 -0.055109818
000320 66 0c 5d 3d 04 a8 3f 3d 18 6b 63 bc 42 89 09 3d
       0.053966902 0.04679109 -0.013880514 0.033578165
000330 a7 62 38 3d da 11 2c bd 20 ee 56 bb 6d ff 3e 3d
       0.045015957 -0.042009212 -0.0032795742 0.04663031
000340 bd e7 be bc 34 77 e4 bc a2 16 de 3b a8 44 91 bc
       -0.02330386 -0.027888872 0.0067776004 -0.017732933
000350 93 fa 34 3d 52 78 8c bc 18 d0 c8 bc 68 4a 06 bc
       0.04418428 -0.017147217 -0.02451329 -0.008196451
000360 be 7f 83 bd 9e 1d e2 3c aa 57 22 bc 88 62 39 3d
       -0.06420849 0.027602013 -0.009908596 0.045259982
000370 a0 ba 8d bd ba 46 68 bd 98 7a 88 bc b2 8f 4d bd
       -0.069203615 -0.056708075 -0.01666002 -0.050185867
000380 59 8f ec 3c a2 59 1f 3d 13 f0 38 3c 18 b8 f9 bc
       0.028876947 0.03890384 0.011287707 -0.03048329
000390 73 0e 55 bd 26 d4 34 3d 89 66 6e 3d ec d8 d6 3c
       -0.052015733 0.044147633 0.058203254 0.026226483
0003a0 bf 1a f0 bc 28 7b 30 3c 00 21 5e 3c 68 ed 77 3d
       -0.029309629 0.01077155 0.0135576725 0.060529143
0003b0 12 0d d7 3c 26 40 11 3d c6 f2 00 3d ea 18 41 bd
       0.02625135 0.035461567 0.031481527 -0.0471429
0003c0 ad 2c 96 bd 27 6d 11 3b 6c 66 00 bd 30 12 1c 3c
       -0.0733274 0.0022190304 -0.031347677 0.009525821
0003d0 2e a6 56 3d d0 c2 3a 3d 71 1a 8a bb 44 88 38 bd
       0.052404575 0.045595944 -0.004214578 -0.045051828
0003e0 d0 01 92 3b 30 ae f5 bc 08 e0 da bb 44 eb 78 3d
       0.0044557825 -0.029990286 -0.0066795386 0.06077124
0003f0 ff a8 f9 3c 22 9e 2b bd 88 e4 d0 3c 00 0e 41 bd
       0.030476091 -0.041898854 0.025499597 -0.047132492

network.3.bias f4 [256]
000000 67 d8 ba bb e0 99 a8 3d 09 8a 49 3e a0 9f 7a 3c
       -0.0057020667 0.08232474 0.19681562 0.015296847
000010 b4 cd dc 3b 9b 12 76 3e f2 9a 29 3d 97 0d 07 3e
       0.006738389 0.24030535 0.041407533 0.13188778
000020 b2 5c 86 3d 63 06 78 3c 3c a0 af bc 62 50 8f 3c
       0.06560649 0.015138241 -0.02143871 0.017494384
000030 fc 7d 8e 3d 96 7c 58 3e 96 ae 7f 3e 54 71 13 3c
       0.06957623 0.21141276 0.24968943 0.0089991875
000040 2e 61 14 3e 21 6f f7 3d 3c 3c d0 bc 3b 84 86 3d
       0.14490196 0.12081743 -0.025419347 0.0656819
000050 fa 6c 82 bc 47 89 b0 3c ac 0f 83 3e e9 ad 04 3d
       -0.015921105 0.021549834 0.25597894 0.032392416
000060 23 ec 01 bd ec b0 86 3d 3b a8 9c 3d 9a 58 65 3d
       -0.03171934 0.06576714 0.07649275 0.0559927
000070 83 9e 3c bc 25 e5 32 bc 96 0e 20 bd ad dc 1b 3e
       -0.0115124015 -0.01091889 -0.03907641 0.152209
000080 ee f3 b4 3c fd e5 57 3c 09 b1 b7 3c 2c 2d a0 3d
       0.022088971 0.013177392 0.022423284 0.07821116
000090 89 70 06 bd 5f 49 cc bc 0b ff 04 bc fb 77 25 bd
       -0.032822166 -0.02493733 -0.008117448 -0.040397625
0000a0 8e 7a a9 3d a9 b9 7f bd ac cf 85 3b 98 00 51 3d
       0.082753286 -0.06243292 0.0040835943 0.051025957
0000b0 97 8f c3 bc f9 fa 2a 3d 82 4e d2 3c 2e d3 51 3d
       -0.02387218 0.041743252 0.025672201 0.051226787
0000c0 4d 28 62 bc 47 f8 24 bd 86 66 1b bd 81 5a 80 bc
       -0.013803554 -0.04027584 -0.03793957 -0.015668156
0000d0 b9 e3 d5 bb 7f 29 73 bb 2d d0 5f 3c 8d 7d 8f bd
       -0.006527391 -0.003710359 0.013660473 -0.07006369
0000e0 7b 9b 45 bd 59 07 87 3d be 41 17 3e 0e 64 0a bd
       -0.04824398 0.06593198 0.14771172 -0.033786826
0000f0 fe e7 3b bd ff 49 03 ba 8d e2 a0 3c 1d f5 d1 bc
       -0.045875542 -0.00050082797 0.019639278 -0.025629574
000100 68 a5 bd 3c 28 3d 41 bd 38 f9 d1 3c 00 d5 5f 3d
       0.02315016 -0.047177464 0.025631532 0.054646492
000110 40 e7 50 bd 57 a1 d0 bd 87 c7 a1 3b 5e ef b9 3c
       -0.051001787 -0.10187023 0.0049371156 0.022697147
000120 ef 5e 0b be b8 10 db 3a 60 4d bf 3d cc e3 82 3d
       -0.13610433 0.0016713357 0.0934093 0.06391105
000130 51 4a d7 bc 50 d6 28 3e 13 3d 93 bd a8 c8 94 bb
       -0.026280554 0.16488004 -0.07189383 -0.0045405217
000140 ab ab 76 3d 28 51 21 3e 6d b1 83 bd 51 c2 23 3d
       0.06022231 0.15753615 -0.06430326 0.039980236
000150 89 84 6e bd 89 2d 86 bd 17 16 b3 3b 0d d5 a3 3d
       -0.058231864 -0.06551654 0.00546528 0.079996206
000160 be b0 84 3e 20 7c 4f ba 1b d6 a5 3c 0d a9 73 bd
       0.25916094 -0.00079149194 0.020243695 -0.05948739
000170 44 3d 50 bd 6b c3 be 3c 12 54 9c bc 5e f7 81 3e
       -0.050839677 0.023286542 -0.019083057 0.2538404
000180 92 dc 02 3e dc 24 71 3e 6e 34 cf bc 63 52 4d 3e
       0.12779453 0.23549217 -0.025293555 0.2005096
000190 42 42 a6 bc d8 ae 60 bd 5d 69 88 3e 9f 0a 7a bd
       -0.020295266 -0.054854244 0.26642886 -0.061045285
0001a0 b8 66 2a bd 7e 2c e2 3b 1f 4a 98 bd 66 21 28 bd
       -0.041601866 0.0069022765 -0.074360125 -0.041047476
0001b0 61 b5 bd bc 8d 6b 89 3d 32 c3 a9 ba 02 4a 72 3e
       -0.023157777 0.06709967 -0.001295185 0.23661044
0001c0 2c c6 77 bb 3b f7 be bc e7 c9 a3 bd d0 6a 38 bd
       -0.0037807329 -0.023311248 -0.07997494 -0.04502374
0001d0 44 c0 93 3c 3a 1d 67 bd 9a 8c 66 3e 36 6e 4d 3d
       0.018036015 -0.056424357 0.22514573 0.050153933
0001e0 81 99 e1 3c b1 f5 30 bc 8a aa 28 bd 06 79 1b 3d
       0.027539017 -0.010800765 -0.041178264 0.037957214
0001f0 3b a2 7f 3e 46 40 07 3e f5 d5 59 3e f9 91 14 3e
       0.2496423 0.13208112 0.21273024 0.14508809
000200 25 36 03 bc 3d 33 f5 bc 1e 66 12 bd 7a fb 84 bc
       -0.0080085145 -0.029931659 -0.035741918 -0.016233195
000210 6b 88 36 3c 20 8f 27 bd f0 45 ae 3b 3f a4 7d bd
       0.011140923 -0.04090798 0.005318396 -0.061924215
000220 77 0d f4 bb de 73 5a bd fc e0 0d bd ff c4 fb 3c
       -0.007447894 -0.053333156 -0.03463839 0.030733583
000230 fd ab f5 3b 2b e2 aa 3d 4a 5b 44 bd 1a 2e 03 bd
       0.0074973092 0.08343919 -0.047938623 -0.032026388
000240 e5 8a 99 3b bb 40 b5 3c 40 b4 35 bd 68 ff 5a 3e
       0.004685747 0.022125592 -0.044361353 0.21386492
000250 a7 34 cd 3c 59 a1 78 bc 73 6c 87 bc 0c 0d 14 3e
       0.02504952 -0.015175187 -0.016531205 0.14458102
000260 4f 46 8b 3e 2d e8 a7 3c 92 f9 93 bc fc fb 33 bc
       0.2720208 0.020496452 -0.01806334 -0.010985371
000270 5e 91 91 bd 2a 59 17 bd 9a b3 88 bb a0 10 07 3c
       -0.07107805 -0.036950268 -0.004171801 0.00824371
000280 22 20 01 3d ee ca 89 bd 1d 42 d0 bb b2 77 2d bd
       0.031524785 -0.06728159 -0.0063555376 -0.04235048
000290 57 42 de 3c c2 4b 13 bc 32 97 1d 3e f5 6e a8 3c
       0.027131243 -0.00899023 0.15389708 0.020560721
0002a0 7e a1 48 bd e7 47 52 3d ef 35 36 3d 6c 18 44 bc
       -0.048982136 0.051338103 0.04448503 -0.011968713
0002b0 45 03 89 bd 30 b2 17 bc dc 8d 65 bc 5a ce 69 bd
       -0.06690077 -0.009258792 -0.014010873 -0.057081558
0002c0 b6 8d 67 bd 1c 28 f9 3b 68 10 3c 3c 91 46 50 3c
       -0.05653163 0.0076036584 0.011478521 0.012712137
0002d0 23 f3 64 bd 17 a8 46 3d aa 8f ee bc 1f a8 10 3e
       -0.055895936 0.048500147 -0.029121239 0.14126633
0002e0 f4 bc 56 bd b5 21 1f bc c2 52 94 3e ff 34 16 3e
       -0.052426293 -0.009712626 0.2896939 0.14668654
0002f0 2a 2a 97 b9 9d 96 22 bc 6d 64 df 3c 2a fd 09 3d
       -0.0002883238 -0.009923604 0.027269566 0.0336887
000300 89 6c 06 bd f6 2a b4 bb c7 60 82 3c ce c5 a2 bc
       -0.03281835 -0.0054982854 0.015915288 -0.019869711
000310 39 1d 95 bb 87 3d 74 bd 1f 41 75 3b 17 86 2a bd
       -0.0045506028 -0.05962899 0.0037422848 -0.041631784
000320 53 f1 ac bc fd 8e 48 3d 4b 9d bf bc 06 08 6c 3d
       -0.021111166 0.04896449 -0.023390433 0.05762484
000330 b7 62 57 bd 28 aa c3 3d db bf 8b bd 78 8a 04 3e
       -0.052584376 0.09553939 -0.06823703 0.12943447
000340 4c 45 a2 bd 6d d9 25 bd 4b 39 90 bb dd 1a 62 3b
       -0.079233736 -0.040490557 -0.004401361 0.0034500875
000350 1b f6 09 bd a0 ad 6c bc b4 82 4d bd fe b9 e9 bc
       -0.03368197 -0.014445692 -0.050173476 -0.02853107
000360 10 ee 97 3e fa 8e 8a 3d e1 08 58 3d 01 78 23 3c
       0.29673815 0.06765552 0.052742843 0.009977342
000370 9c e0 00 3c ee 22 dd bc 94 88 fb bb 60 a7 0c bd
       0.007866051 -0.026994195 -0.0076761935 -0.03433931
000380 7f 3b 97 bd d7 f7 73 bd 5b 59 86 bd a6 c0 71 bd
       -0.07384395 -0.05956253 -0.06560012 -0.059021614
000390 e5 e9 04 3d a5 40 3a 3e 26 f1 93 3c 16 a2 7a 3e
       0.03244962 0.18188722 0.018059324 0.24475893
0003a0 15 63 bf 3d 52 3a ce bc 9a 77 86 bd aa 9b e3 bc
       0.0934507 -0.025174294 -0.06565781 -0.027784187
0003b0 85 d5 57 bd cf 07 88 bd cd 48 7f 3d 3a 3c 9c 3e
       -0.052693862 -0.06642114 0.062325288 0.305147
0003c0 c1 25 90 3d f2 75 1b bd 56 a2 2f bd 28 69 22 3e
       0.07038451 -0.03795428 -0.042879425 0.15860426
0003d0 ef 22 15 3e c9 87 53 3e cf ef a3 bd a5 b1 28 3c
       0.14564107 0.20657267 -0.08004724 0.01029626
0003e0 f8 af eb bc 52 a8 3f bd f0 b2 60 bd 94 68 54 3d
       -0.028770432 -0.046791382 -0.054858148 0.051857546
0003f0 e6 31 77 bd 33 c5 d0 3d eb 6b 7b bd c4 ac f0 3d
       -0.06035032 0.10193863 -0.061382215 0.117517024

network.6.weight f4 [256, 256]
000000 8c 04 6e 3d fd 2d 8e 3d 69 af da 3d 70 93 f9 bc
       0.058109805 0.06942365 0.10677988 -0.030465811
000010 5e dc 95 3b 40 69 c2 3d 89 ab 3b bc 0d 05 d8 3d
       0.004573389 0.09492731 -0.011454471 0.10547838
000020 b4 9f 57 bc e1 8f 31 3d 29 a9 1a 3d 6e 98 4f 3d
       -0.013160635 0.043350104 0.03775898 0.050682478
000030 a7 bc 62 3d a8 91 75 bc 5c 3a f7 3d bd 7b 2c bd
       0.055355694 -0.01498834 0.12071678 -0.042110194
000040 53 7b 42 bc 1e 4e a5 3d 71 ff 19 bd 6b 9b 21 3d
       -0.011870223 0.0807154 -0.037597124 0.03945486
000050 96 6f c8 3c 56 02 19 3c bc f3 fd 3d 31 5f 33 bc
       0.02446727 0.009338936 0.12400004 -0.010947988
000060 f5 23 b7 ba 31 e5 0f 3d 7b bb 87 3c 4b 24 64 bc
       -0.0013972508 0.035130683 0.01656889 -0.013924669
000070 42 a0 2c bd 46 a2 ee bc 48 d6 03 bd 1e 2b b1 3d
       -0.04214502 -0.029130112 -0.032186776 0.08650802
000080 18 1d c4 3b ea 1d ac 3b b4 66 a9 3c 5c 3d 9a 3d
       0.0059849136 0.0052525895 0.020678855 0.075312346
000090 a2 df b0 3c 78 ea 90 3d 10 bf 88 3d b4 bc 24 bd
       0.021591011 0.07075971 0.06677067 -0.040219024
0000a0 6f 7b 42 3d c8 44 94 bb d0 91 b6 3b 3c bd 8f 3d
       0.047480997 -0.004524801 0.0055715814 0.070185155
0000b0 58 96 32 bb 90 e5 8d 3c 02 e4 81 3c 99 80 41 3c
       -0.0027250256 0.017321378 0.015855793 0.011810445
0000c0 09 24 6d 3c c8 b7 18 bd 9f 94 b8 bb 6c 09 8f 3d
       0.0144739235 -0.037284642 -0.0056329514 0.06984219
0000d0 6f f5 a9 bc 82 16 35 bd 69 3c 38 3d 07 63 dd bc
       -0.020746915 -0.04421092 0.044979487 -0.027024759
0000e0 eb 08 28 3d 97 61 61 bd 11 e0 97 bb 89 df ad bc
       0.04102413 -0.05502471 -0.004634865 -0.021224754
0000f0 4b 7d 5c bd c8 9a df 3c 8b 8b fc bb 68 e7 f4 bb
       -0.053830426 0.027295485 -0.0077070645 -0.007473875
000100 af 4b a1 3d 85 f1 64 bc 84 65 4c bd 09 cd 72 3c
       0.078757636 -0.013973598 -0.0499015 0.014819392
000110 7d 3f af 3c cb c4 fb bd 3d 5c 8a bd 72 2d 3e bd
       0.021392578 -0.12293395 -0.06755874 -0.04643006
000120 c8 fd 5d bd 54 8e f2 3c 69 0e 5a 3c b8 a0 e3 3d
       -0.054197103 0.029608883 0.0133091 0.11114639
000130 e1 79 78 3d 0b 82 1c 3d af 9d 54 3d 12 8d 4d bb
       0.060663108 0.038209956 0.05190819 -0.0031364602
000140 76 99 bc 3d 55 0b 52 3d 21 63 2a 3d 3a 0f 29 bc
       0.09208958 0.05128034 0.041598443 -0.010318572
000150 3a b3 38 bd 22 82 7e 3d 3a cc 06 3d 2c 4c 71 3d
       -0.0450928 0.062135823 0.03290961 0.058910534
000160 eb 25 21 3d d9 f1 bb ba 5e cd 90 3d cb 86 31 3b
       0.039342802 -0.0014339044 0.07070421 0.00270884
000170 41 8e 99 3c 89 af 4f 3c f2 4e fb 3c ee 0a a3 3c
       0.01874459 0.012676128 0.030677292 0.019902673
000180 0e 04 f8 3d 2d 4f ad 3d f5 4f 50 bd ac 82 13 3e
       0.12110148 0.08462367 -0.050857503 0.14405316
000190 3b 36 2e bd d8 42 f5 bc 55 d5 cb 3c 16 56 a8 bc
       -0.042532187 -0.0299391 0.024881998 -0.020548861
0001a0 38 af 0e 3b 41 d8 57 3d d3 d9 55 3d e0 20 e8 bb
       0.002177192 0.05269647 0.052209686 -0.007083997
0001b0 f9 3b 52 3d bc 4b 30 3d 30 5d 59 3d 96 c6 f6 3d
       0.051326726 0.043040976 0.053067386 0.12049596
0001c0 25 63 60 bd e3 a3 c2 bb 49 04 05 be 1f 21 81 3d
       -0.05478205 -0.005939947 -0.12989916 0.063051455
0001d0 bf 64 c7 bc 8c dd 77 3d 3a af 02 3d 96 a5 2f 3b
       -0.024340032 0.060514018 0.03190539 0.0026801578
0001e0 0f fc 86 3c 49 55 33 bb b0 95 b2 3c 0e 21 8d 3d
       0.016477613 -0.0027364066 0.021799892 0.0689107
0001f0 47 b6 4f 3d a9 00 6e 3d d6 7f d1 3d 56 28 8b 3d
       0.050710943 0.0581061 0.10229461 0.06794803
000200 7d 5e 02 bd b5 f5 ad 3b ca 8c a0 bb 74 66 57 3d
       -0.031828392 0.0053088316 -0.004899596 0.05258794
000210 09 f5 3b 3d f5 6d 5c 3d f8 1b e0 3c 00 1e ff 3c
       0.04588798 0.0538158 0.027357087 0.031142235
000220 86 c5 32 3d e2 46 53 3b a0 e4 3e 3d b9 e1 ff 3a
       0.043645404 0.0032238294 0.046604753 0.0019522227
000230 d5 61 ac bc 3a 32 8c 3b c4 f0 4b 3d 17 db ad 3c
       -0.021042744 0.0042784484 0.04979016 0.021222634
000240 86 e9 8c ba f3 f2 9e 3d 29 a3 a9 bc 4c 19 d5 3d
       -0.0010750748 0.07761183 -0.020707684 0.104052156
000250 fb f9 a1 bc ee 22 8a 3d f4 af 47 3d c3 b7 5c 3d
       -0.01977252 0.067449436 0.048751786 0.053886186
000260 50 f5 65 3d 42 43 bf 3c 67 99 79 bc d7 ab 1f 3d
       0.05614215 0.0233475 -0.015234328 0.03898224
000270 bd 29 29 3d 68 f6 1e 3d 3d d4 ac 3d 1c 1a 9a bd
       0.04129957 0.03880921 0.08438919 -0.07524511
000280 e4 07 a1 3d 32 e0 c7 3b ec c5 b8 3c 53 4f 1b 3b
       0.07862833 0.006099724 0.022555314 0.0023698404
000290 8c 19 81 bd fa 0f 0b 3d b8 8d c8 3d b3 51 f4 bc
       -0.06303701 0.033950783 0.09792656 -0.029824113
0002a0 10 30 7b 3c 8f dc 56 3b 08 b4 42 3d 06 47 86 3d
       0.015331283 0.0032785272 0.047534972 0.065565154
0002b0 6b b5 86 bc 01 a8 88 bc f5 e3 80 3d 99 09 10 3d
       -0.016443929 -0.016681673 0.06293479 0.035165403
0002c0 13 23 36 3d a6 fb cb 3c cc 39 d3 bb 1e 4f 9b bc
       0.044467043 0.024900269 -0.006446099 -0.018958624
0002d0 09 d0 05 bd bf 8f 65 3d d1 81 1a bd 36 c2 9c 3d
       -0.0326691 0.05604529 -0.03772146 0.0765423
0002e0 39 78 0a bd 51 3a 64 3c 40 43 9b 3d b5 20 10 3d
       -0.03380606 0.013929919 0.07581186 0.03518744
0002f0 08 c5 54 3d ce 81 92 bc e0 ce a6 ba 1e 0b ac 3d
       0.051945716 -0.017884161 -0.0012726448 0.08400558
000300 36 63 b1 bb c2 cc cf 3c 78 f0 82 bd 53 82 51 3d
       -0.005413438 0.02536619 -0.06393522 0.051149677
000310 0e 59 34 bd 9e 8f 02 bd 13 b8 80 3c 51 e9 9c bd
       -0.04403024 -0.031875245 0.015712773 -0.07661689
000320 9b 67 25 3d f6 0a b0 3d 36 6e bb 3d 9f ab 17 3d
       0.04038201 0.08595841 0.091518804 0.037028905
000330 fe 46 e7 3c d2 f2 84 3c 13 2c 1e 3d 7a 5a 32 3d
       0.028232094 0.016229067 0.03861625 0.043543316
000340 49 bd a2 3b d2 fe 13 3c 22 cc 1b bd f5 cf 6c 3c
       0.004966412 0.009032922 -0.038036473 0.014453878
000350 16 6e 46 bd b1 01 4e 3d 4e ed 47 3d 1c 64 d3 3c
       -0.04844483 0.05029458 0.048810296 0.025804572
000360 bc b9 c8 3d 92 b3 08 3d 72 71 11 ba fb e8 6b bd
       0.09801051 0.033374377 -0.00055482157 -0.057595234
000370 63 e6 3e 3d 1b 75 85 3c 35 bc 23 bc 5d 23 b8 3c
       0.046606433 0.016291192 -0.0099936025 0.0224778
000380 09 16 f3 bb 50 96 30 3d cb 94 a0 bc f6 20 7d 3d
       -0.0074183983 0.0431121 -0.0196022 0.061799012
000390 95 af da 3b a9 ac 11 3d 50 fd b6 3c be 06 f0 3d
       0.006673763 0.035565052 0.022337586 0.11720036
0003a0 ff 0c 19 3d 0d bb 2e bd b3 57 7e 3d 6f 41 3a 3d
       0.03736591 -0.042658854 0.062095355 0.04547256
0003b0 13 f2 09 3d 4d 12 4a 3d 9e 93 12 bd a3 b0 6e 3d
       0.033678126 0.04933386 -0.03578531 0.058273923
0003c0 27 6c 94 3c ff f2 43 3d 78 d1 a1 3c 96 18 74 3d
       0.018117977 0.04783916 0.019753203 0.05959376
0003d0 53 fc b6 3d a5 e5 f1 3d d6 f6 6a be e8 c6 50 3d
       0.08934846 0.11811379 -0.22945723 0.05097094
0003e0 96 8a fd b9 b1 fe 5f 3d 8f 97 95 3c 3f f2 76 3d
       -0.00048359175 0.054686252 0.018260745 0.060289618
0003f0 a6 da e4 bc 13 9a dd ba 00 c0 46 3d af b4 b9 3d
       -0.027936291 -0.001690688 0.04852295 0.09067666

network.6.bias f4 [256]
000000 36 f5 ab 3e 76 92 93 3e bb e6 48 3d e5 f5 d8 3c
       0.3358552 0.28822678 0.049048167 0.02648444
000010 2f 08 f7 3e c8 53 ea 3e e4 be f4 3e 91 94 75 3e
       0.4824843 0.45767045 0.47801888 0.23982455
000020 66 44 56 bb 0c 71 13 bd d6 2e 8b bd 40 9f ea bb
       -0.0032694577 -0.03599648 -0.067960426 -0.0071600974
000030 c4 7b d0 3e c0 e3 7a 3e 03 05 b8 bc 2f 56 b9 bc
       0.40719426 0.24500942 -0.022463327 -0.022624103
000040 22 61 71 3e 0d ed 77 bb 9b a1 be 3c 8f 8d 48 bd
       0.2357221 -0.0037830502 0.023270419 -0.048963126
000050 ab 1f c7 3e c2 bd d7 bc fb 47 bd 3e ec 47 24 3c
       0.38891348 -0.0263356 0.3696898 0.010026913
000060 7e f4 d3 3e 20 e8 a6 bd 1d 83 00 3f 9a 58 e3 3e
       0.4139747 -0.08149743 0.50200063 0.44403535
000070 da 7e e9 3e be 03 8e bd 28 79 00 3f 33 49 98 bb
       0.45604593 -0.069343075 0.5018487 -0.004647398
000080 cc c1 1d 3e b2 94 54 bc 78 16 a4 3e 38 1c 99 be
       0.15405959 -0.012974905 0.32048392 -0.29904342
000090 15 1d 19 bd 14 0d 5c bd da 94 df bc df f8 e1 3e
       -0.03738125 -0.05372341 -0.027292658 0.44135186
0000a0 d6 9a a7 bd 1f 34 01 3e a5 07 a2 3e c3 57 7a bd
       -0.081838295 0.12617539 0.31646457 -0.061118852
0000b0 9d 42 de 3e ec 33 da 3e 82 6c 02 bd d6 ce 87 3e
       0.43410197 0.42617738 -0.031841762 0.2652499
0000c0 4c c6 7a bd a1 66 0f 3e a7 0d 9d 3e 93 84 af bc
       -0.061224267 0.14003994 0.30674478 -0.021425521
0000d0 0d 58 66 bd ac 4e e9 bc 0e 54 71 be 50 59 04 bd
       -0.056236316 -0.028479896 -0.2356722 -0.032311738
0000e0 2f f8 46 3d 80 54 51 bb 66 ba 88 3e 74 be e5 3e
       0.04857653 -0.0031941235 0.2670471 0.44871867
0000f0 f9 a0 8a 3e 1e bb e5 3e f3 a9 db bc c1 07 7f 3e
       0.27075937 0.44869322 -0.026814437 0.24905302
000100 d4 ea 48 bd 96 b7 d5 3e 40 1f fd 3e fe 89 bb 3e
       -0.049052075 0.41741627 0.49437904 0.36628717
000110 7f c3 e0 3e 9d 49 5d 3e b1 f8 7f bd 65 0d be 3e
       0.43899152 0.21610112 -0.06249303 0.37119594
000120 1a 20 3f bd 10 85 f0 3e ed 03 e2 3e e0 57 05 bd
       -0.046661474 0.4697652 0.4414362 -0.032554507
000130 14 d7 e8 3e a6 37 d7 3e 74 a0 d2 3e 13 1d a3 3e
       0.45476592 0.42034644 0.4113804 0.3185812
000140 05 b4 8d bd 5d 6c 7f 3e 6c 94 96 bd d2 09 de 3d
       -0.069191016 0.24943681 -0.07352528 0.10841717
000150 cd 15 59 3e 9b ed b8 3e a9 d3 ad 3d 19 c8 07 3e
       0.21199723 0.3611878 0.084876366 0.13259925
000160 96 76 04 bd 16 8a d2 3e e7 2f c6 3e e9 5c 45 3d
       -0.032339655 0.41120976 0.38708422 0.04818431
000170 0b f8 f0 3e 6b 1e a6 3e f9 1c f0 3c 40 e3 13 bd
       0.47064242 0.32445082 0.02931069 -0.036105394
000180 28 aa 23 3e 3a fa d0 3e e2 b9 19 bd b6 8c 24 3e
       0.15982878 0.40815908 -0.037530787 0.16069302
000190 e6 3c a7 bd 44 8c d6 3e 58 11 b8 3b b8 f4 c7 3e
       -0.08165912 0.4190389 0.005617302 0.39053893
0001a0 0d 41 ef 3e cc 3e c5 3e 66 97 65 bd c9 63 bd 3c
       0.46729317 0.38524473 -0.056052588 0.02311887
0001b0 f1 90 6c bd c5 ca 0e 3d c9 5a ad 3c aa 1a 03 3e
       -0.057755414 0.034861345 0.021161454 0.1280314
0001c0 83 87 21 3e 0e f2 8b bd a5 31 dd 3e b3 dd 12 bc
       0.1577435 -0.06833278 0.43201938 -0.00896399
0001d0 0a 14 05 3f 6d 52 6e 3e 5b 7b 3d bb c2 d9 64 bd
       0.519837 0.2327363 -0.0028912637 -0.055871733
0001e0 be e2 b4 3e 60 eb 1d ba 80 22 a6 3e 6c 9a d1 3e
       0.3532924 -0.00060241483 0.32448196 0.40938127
0001f0 87 09 38 3e 18 08 d3 3e 3a e3 c1 3e d0 32 37 bd
       0.17972384 0.41217113 0.37868673 -0.044726193
000200 d6 90 39 3c f1 5f c3 3e 41 a8 86 bd d4 17 67 bc
       0.0113260355 0.38159135 -0.06575061 -0.014104802
000210 fc ab de bc ca 43 d6 3e ed 28 94 bd 0b 1f c6 3e
       -0.027181618 0.41848594 -0.072343685 0.3869556
000220 e1 87 87 bd ea 53 86 bc 37 9c 22 3e 86 ad c6 3e
       -0.06617714 -0.016397435 0.15879904 0.38804263
000230 2a f6 b9 3e e9 00 02 3e 1c 71 76 bd 6c 42 f6 3e
       0.3632062 0.1269566 -0.060166463 0.4809755
000240 e8 35 ef bc da 55 92 bd 24 88 83 3e 2e 7f 1e 3e
       -0.02920051 -0.07145281 0.25689805 0.15478203
000250 c6 c3 33 bc 64 78 d0 3e b2 4b ec 3e 0b 77 cd bc
       -0.010971969 0.4071685 0.461515 -0.025081178
000260 72 cd be 3e 94 2c 52 3e b7 86 f2 3e 2c a2 d1 bb
       0.37266117 0.20524818 0.47368404 -0.006397506
000270 6f d0 99 bd 10 70 06 bd 89 ff cd 3e 91 6d 86 bd
       -0.07510459 -0.032821715 0.4023402 -0.06563867
000280 e4 f6 24 bd 71 23 8f be 2d 90 55 3e 6d f1 cf 3e
       -0.040274516 -0.27956727 0.2085578 0.4061388
000290 68 ad eb 3e ae 2f 97 3e 63 fe f2 3e 2b c7 cd 3e
       0.46030736 0.29528564 0.47459707 0.40191016
0002a0 00 11 63 bd df c1 75 3e 07 04 c7 3e 4e 35 0b bd
       -0.055436134 0.23999737 0.3887026 -0.033986382
0002b0 1e 6a ce 3a 54 cb b0 bd bc 99 21 bd d5 24 9e bd
       0.0015748178 -0.08632532 -0.039453253 -0.07721869
0002c0 30 c7 c8 3e 67 7b 5d 3e 52 38 3a 3d ca 61 81 bd
       0.39214468 0.21629106 0.045463867 -0.0631748
0002d0 ec 82 d6 3e 1d fc 12 3d 30 11 eb 3e c3 7a e0 3e
       0.4189676 0.035884965 0.4591155 0.4384366
0002e0 dd d3 90 3e e4 78 d5 3e 06 fe f3 3e 32 27 30 bd
       0.2828664 0.41693795 0.47654742 -0.04300613
0002f0 aa d7 7f 3e 27 8e b0 3e 38 25 f0 3e 57 64 11 3e
       0.24984613 0.34483454 0.46903396 0.14198433
000300 9b 04 e2 3e f9 d5 b5 3e a7 8e c4 3d 5d d7 7a bc
       0.4414414 0.3551481 0.09597521 -0.015310136
000310 05 05 d1 3e fb 0c 14 3e 7a be 00 3f 35 9e ad bc
       0.40824142 0.14458077 0.50290644 -0.021193603
000320 bc ba a4 bd ac b3 8c bd 4d 5c 64 bd dd 70 c3 3e
       -0.08043429 -0.06870207 -0.055752087 0.38172045
000330 34 76 76 bd 90 9f 5d 3e 58 bb 8e bd 67 55 df 3e
       -0.06017132 0.216429 -0.06969327 0.43619844
000340 d6 95 9a 3e a8 6b 9e 3c 88 ca 9a bd 08 15 b2 3e
       0.3019244 0.019338444 -0.07558161 0.3478167
000350 dc 22 5b bd 44 40 02 be e5 84 e6 3e 90 22 23 3c
       -0.05350004 -0.12719828 0.45023265 0.009956971
000360 93 cd 91 bd a2 09 d5 bb ae c1 fe bc 1e e8 87 bd
       -0.07119288 -0.0065013925 -0.031098213 -0.0663607
000370 54 81 e8 3e 9c 52 0e bd 1d 07 03 3f 11 6a cf 3d
       0.4541117 -0.03474675 0.5118273 0.101276524
000380 4e f6 04 3e d9 e4 aa 3e cf 5a 6b bd 2a 56 be 3e
       0.12984583 0.33377722 -0.05745965 0.37175113
000390 97 66 c5 bc 32 e9 7d 3c c4 19 91 3e 70 7e c5 3e
       -0.02409677 0.015497493 0.2833997 0.38573027
0003a0 3a 1e 6e 3e 72 70 e5 3e 45 04 b7 3e 9d 3e f0 3e
       0.23253718 0.4481235 0.35745445 0.4692277
0003b0 72 84 06 bb 1a d3 55 bd 17 d7 95 bd d7 b9 d5 3e
       -0.002052572 -0.052203275 -0.07316416 0.41743347
0003c0 fb ae 37 3e a0 e7 14 3d 65 6d 52 bd 4c 00 d2 3d
       0.17937844 0.036353707 -0.051373858 0.10253963
0003d0 5b 04 a1 3e a5 02 76 bd 5d 7b 1c be cd ad 09 bd
       0.31448635 -0.060061116 -0.15281434 -0.033613015
0003e0 a8 47 41 bc 09 33 fb 3e be a3 fd 3c 9f 74 ea 3e
       -0.011796869 0.49062374 0.030961867 0.457921
0003f0 ac f5 bd 3e 07 4f d7 3a 1f c6 c3 3e 52 c7 be 3e
       0.37101495 0.001642675 0.38237092 0.37261444

network.8.weight f4 [3, 256]
000000 e3 01 f8 3d 23 45 b4 3d 14 20 ff 3c 55 d1 88 3c
       0.12109735 0.08802249 0.031143226 0.01670138
000010 44 85 ea 3d 36 d3 bc 3d 51 04 08 3e 50 04 d9 bd
       0.114512 0.09219973 0.13282897 -0.10596526
000020 d0 1d a4 bc 58 25 46 bc 1a 31 11 bd 56 7d 25 bd
       -0.020033747 -0.012093864 -0.035447218 -0.040402733
000030 4d 8e c3 3d 6a fc ab be 1e 37 20 bd 88 0a ef bc
       0.09548626 -0.33591014 -0.039115064 -0.029179826
000040 2c 45 ba be 50 c9 eb 3c b4 38 1a bd 9c 14 b8 bc
       -0.363809 0.028782517 -0.037651733 -0.022470765
000050 de 9e 41 be 78 fd 4e bd 8c 38 95 bd f3 0c 47 3b
       -0.1890826 -0.050534695 -0.07286176 0.0030372709
000060 1b 4b b4 3d 73 e6 7e bc 9e 68 06 3e 95 b6 f5 3d
       0.08803388 -0.015557873 0.13125846 0.119977154
000070 ad 41 14 3e eb e6 a3 3c 7e 4d 13 3e 9b 40 a0 3c
       0.14478178 0.020007571 0.1438503 0.019562056
000080 99 67 bc 3d 97 46 34 bc 70 ba 6b 3d 80 1b 24 be
       0.09199447 -0.011003158 0.057550848 -0.16026115
000090 48 5c bd 3c bd 72 20 3d ef 4b 2e bd 57 f6 dc 3d
       0.023115292 0.039171923 -0.042552885 0.10789173
0000a0 ba 57 90 bd 9d e6 1d 3f 9d b0 45 be 00 46 dc 3c
       -0.070479825 0.6168001 -0.19305654 0.026888847
0000b0 69 1f e5 3d 07 00 be 3d e0 d8 39 bd f4 a7 ac be
       0.11187632 0.09277349 -0.045372844 -0.33721888
0000c0 bc 31 86 3c 30 8c f9 be 0c ba e2 be d2 c7 32 3d
       0.016381137 -0.48739767 -0.44282568 0.043647595
0000d0 5c 6b 9f bb 7e 9d d4 bc 34 bd 90 be 5e 0d f3 bc
       -0.004865093 -0.025954004 -0.2826935 -0.02966946
0000e0 85 8d 81 3d a6 4b 7f bc f0 d4 f0 be a9 81 f9 3d
       0.06325821 -0.015582001 -0.47037458 0.12182934
0000f0 4c e4 75 bc 61 ca f3 3d 39 76 90 3c 2f de 42 be
       -0.0150080435 0.11903835 0.017634498 -0.19030069
000100 fc 10 3a 3b 29 42 e4 3d 6e 35 03 3e 94 45 a0 be
       0.002839147 0.111454315 0.1281335 -0.31303084
000110 09 4e bd 3d 8f 82 15 bf 59 a1 db bc b9 4d cd 3d
       0.092434 -0.5840234 -0.026810335 0.1002459
000120 3f de 7a bc 6a e6 ce 3d 61 0e db 3d 4b 7e 86 bc
       -0.015311777 0.10102542 0.10696102 -0.016417643
000130 3e 55 0e 3e c5 cb c0 3d 8c 3e 0c 3e 08 3e af 3d
       0.13899705 0.09413866 0.13695735 0.085567534
000140 54 35 f0 3b e3 26 80 3d 67 ab 71 bc 7d 95 8e 3d
       0.007330576 0.06257417 -0.014750338 0.069621064
000150 a7 a1 01 3d 41 17 51 be bb 78 cf 3e fb 5d d7 bd
       0.031648304 -0.20419027 0.40521798 -0.10515972
000160 89 49 2e bc d2 ce 0a 3e c1 1f 92 3d b2 01 a2 bd
       -0.010637649 0.13555458 0.07134963 -0.079104796
000170 4d 98 b6 3d 57 c4 83 3d fa 43 f2 3b 86 eb 3f bc
       0.08915768 0.06433933 0.0073933573 -0.011713868
000180 e4 c3 94 3d 5c 53 cf 3d 9d 39 9b bd 77 99 97 3e
       0.07263926 0.101233214 -0.07579348 0.29609272
000190 b0 1a 16 3d 59 85 1a 3e a9 a8 93 3c aa 1a 04 3e
       0.036646545 0.1508993 0.01802476 0.12900797
0001a0 3d 6c 1c 3e f6 2b 82 3d 47 f9 07 3c e5 a0 4d 3c
       0.15275665 0.06356041 0.008299178 0.012550567
0001b0 8c 23 09 bd b4 3e 45 3d 14 75 a2 3c a0 07 2f 3f
       -0.033481166 0.0481555 0.019831218 0.6837101
0001c0 6d 9e df be ab 86 ba bc 1c 0a a0 3d 22 07 ee bc
       -0.43675557 -0.022769293 0.07814428 -0.029056136
0001d0 51 6d 13 3e 1d a3 b6 be a7 4a c6 bb 99 3e 2d bc
       0.1439717 -0.3567132 -0.0060513797 -0.0105740065
0001e0 9d bb ac 3d cf ee a2 3c c6 69 a3 3d c8 27 b1 3d
       0.08434222 0.019889263 0.07979159 0.08650166
0001f0 51 a5 43 3e bf 97 e1 3d 71 28 bf be 97 c5 0a bd
       0.19106032 0.110152714 -0.37335542 -0.033879843
000200 18 1f c7 3b 35 b6 c5 3d 3e 15 a3 bc 08 89 4d bc
       0.0060767047 0.09653894 -0.01990759 -0.012544878
000210 84 cc 24 bd b4 2a 80 3d f8 cf a9 3c f9 78 af 3d
       -0.040234104 0.06258145 0.02072905 0.085679956
000220 0a 31 69 3c fe 5a e0 bb f2 79 ff bd 00 f3 03 3e
       0.014232883 -0.0068467846 -0.12474431 0.12885666
000230 d5 98 d9 3d 28 bf 6e 3c 4d 1c d9 ba 8f 8c cb 3d
       0.106248535 0.014571942 -0.001656422 0.09938919
000240 5e 1d 4b bd cd f9 d8 bb c0 29 57 bc cc 8d 5d 3d
       -0.049588554 -0.0066215754 -0.013132513 0.054090306
000250 9c 31 9a bc 8e f5 ec 3d c9 07 1c 3e bb d0 da bb
       -0.018822484 0.11570273 0.15237345 -0.0066777146
000260 2b 25 d6 3d a2 03 99 be 4a 28 ff 3d 75 23 86 3d
       0.10456308 -0.29885584 0.124588564 0.06549732
000270 ae 1d 36 3d 09 ca a6 3b cc d5 9b bd fc 4b 80 bc
       0.0444619 0.0050900024 -0.07609138 -0.015661232
000280 a4 e0 11 3d 20 b5 29 be 80 05 05 bf 58 a2 c9 3d
       0.035614625 -0.16573 -0.5196152 0.09845418
000290 e3 66 04 3e 51 20 9c 3d 74 f2 05 3e 8f 47 89 3d
       0.12929873 0.07623351 0.1308077 0.06703102
0002a0 3b a2 32 3d 56 b4 fb be fd 11 a5 3d c9 18 12 bd
       0.043611746 -0.49161023 0.080600716 -0.03566817
0002b0 00 5f 40 3c 3a 59 46 bd 6d 4d aa bc 71 be 83 bd
       0.0117414 -0.048424937 -0.020788873 -0.06432808
0002c0 dc 3d ad 3d 5b 16 9e be 84 5d 19 bd 46 5f 41 bc
       0.08459064 -0.3087643 -0.0374427 -0.0118025
0002d0 c4 75 0a 3e 9d e1 eb bc ec 4a e3 3d 6d 41 03 3e
       0.13521487 -0.028794104 0.110982746 0.12817927
0002e0 d2 b9 cb 3b 03 f9 e7 3d c8 51 c8 3d 38 c5 15 bd
       0.00621722 0.11326792 0.097812235 -0.036565036
0002f0 df 16 c3 bc 9e 75 c0 3d d9 90 bf 3d f3 71 e2 be
       -0.023814617 0.09397434 0.093537994 -0.4422756
000300 99 b3 e6 3d b4 b1 cd 3d 69 0f 59 be 79 7c e7 bc
       0.11264724 0.1004366 -0.21197285 -0.028257595
000310 7d b9 8d 3d c1 ef 33 bf e1 f0 ef 3d d7 88 30 bd
       0.06920145 -0.7028771 0.11715866 -0.04309925
000320 ac 19 38 bd 43 d9 57 bd 5b b1 25 3d 18 25 81 3d
       -0.044946358 -0.05269743 0.040452342 0.06305903
000330 b4 4d 37 3d 0f 29 4f 3f 9b c0 39 bd 5d b3 cf 3d
       0.044751838 0.80922025 -0.0453497 0.10141633
000340 f4 11 76 3d 52 a9 b2 bb f1 ef 32 bc 39 b9 d9 be
       0.060075715 -0.0054523135 -0.010921464 -0.42524126
000350 88 37 d7 bb 02 2f 22 be 75 06 ca 3d e3 3a 44 3b
       -0.006567899 -0.15838245 0.09864513 0.0029942326
000360 60 a3 4d 3c 51 3e 0c 3d 9c 3e 9e 3c 5f a5 0a 3d
       0.012551159 0.034239117 0.019316964 0.033849116
000370 ce e9 d6 3d ed ae 8b 3d 1d 7a 06 3e 7c 61 dd be
       0.104938135 0.06820474 0.1313252 -0.43238437
000380 dc 75 a1 be 1c 72 89 bd de 63 e1 bb e5 22 a1 3d
       -0.31535232 -0.06711218 -0.00687836 0.07867984
000390 ea 7e 23 bd fe 9b 0b 3d e5 99 fe be f7 6e 1a 3e
       -0.039915957 0.034084313 -0.49726787 0.15081392
0003a0 ff ee 0f 3d 08 16 f7 3d 09 86 c5 3d a9 4f e3 3d
       0.035140034 0.12064749 0.09644706 0.11099178
0003b0 ba 6c 36 bd 26 91 ec bc 0d 8d 8b 3d 02 56 16 3e
       -0.044537283 -0.028877806 0.06814013 0.14681247
0003c0 55 f8 57 be d1 3e b6 bc cf 44 c5 3c bd 39 a7 be
       -0.21090825 -0.02224675 0.024080662 -0.32661238
0003d0 35 eb d6 be a8 38 1a 3c fd 2e e7 3d c6 85 a2 bc
       -0.41976324 0.009412922 0.11288259 -0.019839179
0003e0 98 da ca 3b c1 e0 18 3e 90 5b 17 bd 78 ee 0a 3e
       0.006190609 0.14929487 -0.036952555 0.13567531
0003f0 fe f6 04 3e 07 48 70 3b 5c ed 0a 3e fc 11 61 be
       0.12984845 0.0036664025 0.13567108 -0.21979517

network.8.bias f4 [3]
000000 f4 71 8c 3e 88 ce 93 3e eb 45 ac 3e
       0.2743069 0.28868508 0.33647093
