mountaincar_cl_project/mountaincar_cl/runs_mountaincar_No_EWC/abrupt/egp/seed_0/online_stream_model.pth (torch, 535757 bytes, 8 tensors)

network.0.weight f4 [256, 2]
00000000: 72d9 2c3f f145 013f dc93 ca3e 047e 0a3f
00000010: 2b75 d23d b0b2 f3bd d7c1 683c 92f3 1ec0
00000020: 60d5 d83e 355f e93f 6921 2d3f 92d9 913f
00000030: 99db 2c3f cbe7 b0bf 072c 9cbe 2876 9d3d
00000040: fca4 37be d73b 13bf a624 f3bd ecca 383f
00000050: ae61 e03e 7acf eb3f 4441 673d 6069 f4bf
00000060: 41b2 f03e a171 fc3d 2081 6b3c ed7c 2440
00000070: 4205 32bd 51e8 813f 2bd3 093d 8b1c 8c3f
00000080: b24b 8f3e 4ea3 d63e b055 5abd 1f8b d4bf
00000090: 31d0 0b3f 4362 c83f 22e3 ca3e b659 9abf
000000a0: 1eaf f3be c660 2ec0 fb07 233f 7c5e 9d3f
000000b0: 0d34 783e d5b6 ce3f ddd7 bd3e a8d2 a73e
000000c0: 1e9d f7be e094 febd a9ea d83e 542a 1240
000000d0: d095 443d 517f dfbf c153 04bf 960a 82bf
000000e0: eff6 d8bd c17f 34bc faed a53e f34b adbe
000000f0: 3421 443e b36d 80bf cf88 303f 528c b33e
00000100: 2a55 b63e 3d8f 1d40 39dc 0a3f 4259 3b3e
00000110: 9b29 e83d aa6f 44bf 5e58 903d 6fdb 0e3f
00000120: 4803 3b3e ef5a 92bf 0926 9c3e c07d 69bf
00000130: 7611 1d3e e975 20bf 2a45 8f3e 5ce8 94be
00000140: 1d00 e5be eb88 1b3f 2ded 793e 1cac 1a40
00000150: ad94 963d 87c9 ae3f d6a9 3c3d 0fb6 d2bf
00000160: ef9f 933e 3382 ccbf 916f 9a3d 5586 acbf
00000170: 1429 e7be 4acc 0d3e 1592 813e 884c ba3f
00000180: 0ae8 ebbe dceb e7bf 6c17 f23e 6d99 563f
00000190: 1dab 043f 9b8f 8abf 60a6 983d 80ce ac3d
000001a0: c219 a03e b592 bbbf dcf5 1e3f 7225 9e3e
000001b0: 185e 2cbe 0a88 cc3e 8f10 443c 613c 05c0
000001c0: 126b 4e3e cca8 85bf 4500 e63d e624 c93e
000001d0: 3a6b abbe bfd5 7cbf ad79 2fbe df18 abbf
000001e0: e69f b43e bc29 2640 20d8 cdbe eda5 013f
000001f0: 0022 853e d2b0 a6bf 073b 1c3f 443e 11bf
00000200: 8031 d9be 9e4a 49bb 7e67 54be 39ff 9dbf
00000210: 3ed1 eb3e ece8 e4be 80c4 20bd e807 adbe
00000220: a8a7 c9be cfe9 5e3d e94e 15be bcaf 8ebf
00000230: 834f 633e bb35 aebf 165e 4b3f fa82 0940
00000240: e045 853c 31a8 12c0 cf92 59be 9386 b03d
00000250: 9015 3b3e c439 863e 3afd cb3e 5ba3 2f40
00000260: 1890 c03e edc7 8ebe ddaa 843e 7d39 223f
00000270: 0044 b0ba a889 f8be 723e 103f 2c35 2340
00000280: 0035 dc3e d64d b3bf 05f4 1a3f 879e 523f
00000290: 617f e7be 5ccc 94be 2b89 e23d 75e7 2240
000002a0: fbf2 00bf b126 753e 687e 15be 365c e13f
000002b0: ea29 8a3c b1b4 2240 423e 05bf 75b1 01c0
000002c0: 2369 b23e 9349 d83f a8a9 f33e a450 5abf
000002d0: 3f90 ed3e 1d0d a03f 981c b4be a1a2 f4bf
000002e0: a4cb 7abe 7ec3 87be 65a6 3f3f c9f4 ab3f
000002f0: c556 d63e bd06 be3f 15e3 bfbe 5e41 9fbe
00000300: 441f 6f3f c112 8e3f cb10 9cbe 6d89 3a3f
00000310: a8ef e7bd 34a4 e1be c110 133f 25b1 c5be
00000320: be45 e83e ca75 22bf d048 40be 1123 7b3d
00000330: 4a96 e53d 21d6 bbbf da14 ea3e e49f 20be
00000340: 2f51 c53c 4e08 b9bf b931 1dbf bfb2 25bf
00000350: 024a d33c f277 cebf b8e4 64bd 14bc d93e
00000360: 969b b23e 97b4 1b3f 5035 ca3e 21ca c1bf
00000370: 6d34 b63e 0b81 edbf 6955 b73d 522f aabf
00000380: 4d0c cb3b 8487 e03f c66a 2b3f ee6f b13d
00000390: 99c7 11be 2964 0cc0 85a2 cb3e bbe9 9dbf
000003a0: a298 5f3c a8d9 0a40 853d 2c3f d3f5 e83f
000003b0: 2cd8 e7be a0c9 e13e fb52 1f3f 5ac0 bf3e
000003c0: 1511 d8bc 04b5 323f a18a 0abf b176 1b3f
000003d0: c64f 0d3f f0ef a33f 8867 ff3d 4cd4 4440
000003e0: 9983 463e 8e72 babe 3aa1 b839 2c00 a73f
000003f0: 60c6 b5be 82c6 a2be 5887 1d3f 7635 833f
0.67519295 0.5049735 0.39565933 0.54098535 0.10276254 -0.11899316 0.014206371 -2.4836164
0.42350292 1.823218 0.67629105 1.1394522 0.6752258 -1.3820738 -0.3050234 0.07688552
-0.1793403 -0.57513183 -0.118722245 0.72184634 0.43824524 1.8422692 0.056458727 -1.9094658
0.47010997 0.123263605 0.0143740475 2.5701249 -0.043462045 1.0149022 0.03364865 1.0946211
0.27987438 0.41921467 -0.053304374 -1.6604956 0.5461455 1.5654987 0.39626414 -1.2058628
-0.4759454 -2.7246566 0.6368405 1.2294459 0.24238606 1.6149546 0.37078753 0.32777905
-0.48362058 -0.124307394 0.42366531 2.2838335 0.047994435 -1.7460729 -0.516903 -1.015948
-0.10593974 -0.011016787 0.32408124 -0.33847007 0.19153291 -1.0033478 0.68958753 0.35067993
0.3561185 2.4618676 0.54242283 0.18295768 0.113360606 -0.76732886 0.07048105 0.5580358
0.1826297 -1.1434001 0.3049777 -0.91207504 0.15338692 -0.62679917 0.27982455 -0.29083526
-0.4472665 0.60755795 0.24406882 2.4167547 0.073525764 1.3655251 0.046060406 -1.646181
0.28832957 -1.5977234 0.07540811 -1.3478495 -0.45148528 0.13847461 0.25306764 1.4554605
-0.4607547 -1.8118854 0.47283494 0.8382786 0.518236 -1.0825075 0.074536085 0.08437824
0.31269652 -1.4654146 0.620939 0.30887944 -0.16832769 0.3994754 0.0119668385 -2.0818102
0.20158032 -1.0442138 0.1123052 0.39285964 -0.33480245 -0.9876365 -0.1713626 -1.3366965
0.35278243 2.5962973 -0.40203953 0.5064381 0.26002502 -1.3022711 0.6102757 -0.56735635
-0.42420578 -0.0030714641 -0.20742604 -1.2343513 0.46058077 -0.44708955 -0.039249897 -0.33795094
-0.39385724 0.054422196 -0.14580883 -1.114738 0.221983 -1.3610147 0.7944044 2.1486192
0.01626867 -2.2915156 -0.2124741 0.08619418 0.18269944 0.26215947 0.39841634 2.7443454
0.37609935 -0.27886906 0.25911608 0.6336897 -0.0013448 -0.48542523 0.56345284 2.5501204
0.43009186 -1.4008129 0.60528594 0.82273144 -0.4521437 -0.29062164 0.11061319 2.545377
-0.5037076 0.23940541 -0.14599001 1.7606266 0.01686569 2.5422785 -0.5204812 -2.026456
0.34845838 1.6897453 0.47590375 -0.852793 0.46399114 1.2504002 -0.35178065 -1.911213
-0.24491745 -0.26516336 0.7486327 1.3434078 0.41863075 1.4845806 -0.37477937 -0.3110456
0.9340708 1.1099473 -0.30481562 0.72865945 -0.11325008 -0.4407059 0.5744744 -0.38611713
0.4536571 -0.6346098 -0.18777776 0.06131274 0.11210306 -1.4674722 0.45719033 -0.15685993
0.024086563 -1.4455659 -0.61403996 -0.6472587 0.025792126 -1.6130354 -0.055882186 0.42526305
0.34884328 0.60822433 0.394938 -1.513981 0.35586873 -1.8555006 0.089518376 -1.3295691
0.0061965347 1.7541356 0.669598 0.08663927 -0.14236297 -2.1936133 0.3977243 -1.2336954
0.01364723 2.1695347 0.6728137 1.820002 -0.45282114 0.4409914 0.62235993 0.3745144
-0.026375333 0.6980746 -0.5411778 0.60727984 0.5519985 1.2807598 0.12470919 3.0754576
0.19386138 -0.36415523 0.00035215338 1.3046927 -0.3550291 -0.31792074 0.61534643 1.025069

network.0.bias f4 [256]
00000000: 8dfb d23d a968 253d 8ed6 56bd 11a6 48bc
00000010: c622 7cbd 7378 ee3c cbf0 a13e 5c25 34bf
00000020: 09f2 0abf 14ef 7fbd a642 b93c 5fcb a33c
00000030: 3c24 83be 03e2 b13b 00f7 c6bc 8c94 c3bb
00000040: ff87 e3be 4ce6 88bd 8c71 88bd 3058 e3bc
00000050: 7062 c2be dd27 fbbd 70ef f93d 3384 683d
00000060: e240 23bf 9562 ea3d 8864 e33d 2958 e0be
00000070: fb12 09be 9a5c 95bd 0b9a e3bc fe4c f5be
00000080: 563d 7abd 3ec1 813e 4ffc 2ebc 9f0d a0bd
00000090: 6c66 cabc be14 e0bc e86b b3bd 868d 0c3e
000000a0: ee8e 28bf 36ec 2dbd c115 663d a2a5 cf3d
000000b0: b7c8 133e 4fb4 0f3d 58ec 83be 2a68 7bbc
000000c0: 0610 f3be ddd1 2d3d 002d b53b 31d7 23bf
000000d0: 0420 1c3e a9e3 22bb f1e2 99be 87aa 28bb
000000e0: 5e87 06bd bbf5 b2bd d87f 4bbe 20f7 fabd
000000f0: adb4 c2bb ca7a 25bf 04ce ffbc 3969 2bbf
00000100: 54ef 80be 6e3f 53be 4306 d1be 77ee e0be
00000110: 646a f2be a59e 75be d68c 17bd 3263 323e
00000120: 0730 46bc 3d28 84be fa82 00bf 377c b03d
00000130: cf7a 563d cd20 f7bc b320 c2be 2c3f 1a3e
00000140: 63e9 a23c 2d70 43be 7a96 21bf d654 473d
00000150: 6496 1bbf e82b e9bd f3f8 c63b 39ad b6be
00000160: 58ca 6abd 17ee 1b3d 2f51 5e3e b42e 72be
00000170: 9e99 fbbe 127c 29be 511e f73c 4980 01bf
00000180: d6e2 c03d a48e 48be d6f2 e3be 47a3 13bf
00000190: 6bd9 08bf 798c d0bc 8f35 043e e9cc 03bf
000001a0: 1ec5 a43d f47d cabe 5912 893b a02e ab3c
000001b0: 7510 90be 0ce4 f4bc ef27 313e 2294 393d
000001c0: 7f2d 5dbd a460 763e f912 07be 2c6a 9c3c
000001d0: d4b3 66bd cfa1 e5bd 88a0 89be a88c 0dbf
000001e0: 03a8 6a3c 2326 b5be 4ebc d0bd d022 41bd
000001f0: 8581 f2bd c7d7 86b9 5ec6 7bbe 8878 a13c
00000200: e7b6 2dbe c655 533e 2b3d bebc 541e 3ebe
00000210: f15c 1bbd 4270 76bc 5398 ddbd a645 c4be
00000220: ebec 18bd 4888 7fbe 81db 99be bebc ac3d
00000230: 2e71 9ebe d80e 68be a3df 573d 87bd 8e3c
00000240: 7575 013c 544c c6bd 3825 7ebe 23fd c43d
00000250: 3ed7 03be 5889 b63d ad55 e2bd c1c9 c73d
00000260: 0761 61be af9c 3b3d fa64 11be db0c 8abe
00000270: 9a76 22bf 39ba 2fbf debd a93d 72ed 20bf
00000280: c67b a53d e261 053e 70b3 c0be cfb0 c63d
00000290: 7f4c b0be 5870 04bf 62df 02be 282a b2be
000002a0: 3624 1fbc 4211 9bbd d9b4 1cbf 5c3f 0dbd
000002b0: 8083 17be c338 26be 92d7 3cbe 1eda d1bc
000002c0: f827 e3bd a39c 1bbd 792f a83d 1f7e e9bc
000002d0: 863e 4dbd d605 083c 203a b03d b9a9 56be
000002e0: 36e4 febe 76f7 38be 629b 83be c8d4 98be
000002f0: 0b93 8fbd fe8c 03bf 322f f6bb 157e 013e
00000300: 9d8f 00bc b417 703e 1bd1 193a e532 8ebd
00000310: fc84 1abf 9661 13bf 5eb5 b93d f390 c9bc
00000320: eab9 c4be 9191 d63d 5697 6d3e e8d4 fcbd
00000330: 22da a43d b3fb ca3d dac1 08bd 4679 4b3c
00000340: 4cab 0fbd 5c8f eabd a057 19bf bb49 163d
00000350: 98be 14bf 467c 823d 860b 1bbf 2d7c 823d
00000360: 4cf6 15bd 3258 7cbe 0e6b 76bb 9e58 babe
00000370: deb0 b4be c28e d13d b5ca 0bbf 4291 15bf
00000380: 7aca 21bf d22a 2fbd 8382 873d 3c98 39be
00000390: 6767 66be 7bc7 d7be de35 b83c ebdf fe3d
000003a0: 0d9e 13bf bf55 d3bd 8e46 92bd fe5d 0bbf
000003b0: b944 f1be f019 af3c b617 2fbd ce82 6bbe
000003c0: e4b3 4bbe f190 cc3d fdad 10bd ed93 313e
000003d0: 50e6 6cbe 00be d8be ca20 f9be 71fd 22bf
000003e0: 9b07 2c3c fb1d 393d ff28 debe e748 b13d
000003f0: cbe9 10bf d7ca 12bf 8ad8 80bb 4a61 20bf
0.10301886 0.040383015 -0.05245071 -0.012246625 -0.0615566 0.029110169 0.31629023 -0.70369506
-0.54275566 -0.062483862 0.022614788 0.019994436 -0.25613582 0.005428554 -0.0242877 -0.005968636
-0.44439694 -0.06684551 -0.06662282 -0.027752012 -0.37965727 -0.12263463 0.12203872 0.0567667
-0.6377088 0.11444584 0.11103159 -0.4381726 -0.13386147 -0.07293053 -0.027783414 -0.47910303
-0.06109365 0.25342745 -0.010680272 -0.07815098 -0.024707042 -0.02735364 -0.08760816 0.13725862
-0.65843093 -0.042461596 0.05617309 0.10139014 0.14432035 0.035084065 -0.25766253 -0.015344659
-0.47473162 0.04243647 0.005529046 -0.6400023 0.15246588 -0.0024854934 -0.30055955 -0.0025736408
-0.03284394 -0.087382756 -0.19872987 -0.122541666 -0.0059419484 -0.64640486 -0.031226166 -0.6695743
-0.25182593 -0.20629665 -0.4082509 -0.43931934 -0.47346795 -0.239863 -0.036999546 0.17420653
-0.012096412 -0.2581195 -0.50199854 0.08617442 0.052363213 -0.030167008 -0.37915573 0.1506316
0.019886678 -0.1908576 -0.63120234 0.04866489 -0.6077635 -0.113853276 0.0060721575 -0.35679033
-0.057321876 0.038068857 0.21710657 -0.23650628 -0.49140638 -0.16551235 0.030165823 -0.5058637
0.094182655 -0.19585663 -0.44521207 -0.57671016 -0.53456753 -0.025457608 0.12911056 -0.51484543
0.080454096 -0.3954922 0.0041830954 0.020896256 -0.28137556 -0.029893897 0.1730039 0.045307286
-0.053998467 0.24060303 -0.13190831 0.019093595 -0.05632384 -0.11212503 -0.26880288 -0.5529275
0.014322284 -0.35380659 -0.10192166 -0.04715234 -0.1184111 -0.00025719238 -0.2458739 0.019710794
-0.16964303 0.20638189 -0.023222527 -0.18566257 -0.037930433 -0.015041413 -0.10820069 -0.38334388
-0.037335318 -0.24954331 -0.3005028 0.08434437 -0.30945724 -0.22661912 0.05270351 0.017424358
0.007901539 -0.09682527 -0.24818885 0.096185945 -0.12875077 0.08912915 -0.110514976 0.097552784
-0.22009669 0.045803722 -0.14198676 -0.26962933 -0.6346222 -0.6864353 0.082881674 -0.6286231
0.080802485 0.1302562 -0.376369 0.09701692 -0.34433362 -0.5173392 -0.12780526 -0.34797788
-0.009713223 -0.07571651 -0.6121345 -0.034484252 -0.14796257 -0.1623259 -0.18441609 -0.025616702
-0.11091608 -0.037991177 0.0821218 -0.028502522 -0.050108455 0.008302173 0.086048365 -0.20963182
-0.49783486 -0.18063149 -0.25704485 -0.2984984 -0.07010468 -0.5138701 -0.0075129503 0.12645753
-0.00784674 0.23446542 0.0005867646 -0.06943301 -0.6035917 -0.5757078 0.09067796 -0.02460525
-0.3842309 0.10476983 0.23202261 -0.12345296 0.08049418 0.09911289 -0.033387996 0.012419051
-0.03507547 -0.11453125 -0.5989933 0.03669141 -0.58103323 0.063713595 -0.6056446 0.06371341
-0.03661184 -0.24643019 -0.003760043 -0.36395735 -0.3529119 0.10232307 -0.5460618 -0.5842477
-0.6319958 -0.042765446 0.0661669 -0.18124479 -0.22500382 -0.4214438 0.022486623 0.12445053
-0.5766304 -0.10319089 -0.071423635 -0.54440296 -0.47122744 0.021374673 -0.042747222 -0.22999117
-0.19892842 0.09988583 -0.03532218 0.17341585 -0.23134732 -0.42332458 -0.4865783 -0.6366797
0.01049986 0.045194607 -0.43390653 0.08656483 -0.5660674 -0.5734076 -0.0039320635 -0.6264845

network.3.weight f4 [256, 256]
00000000: 3b92 cc3d 0e5b 153e f157 9e3d a45d 01bf
00000010: 6aa3 ff3c 614f 773d 93a9 643c 1848 79bc
00000020: 2c6a 38bd f3d3 4abc a41e 343e ad82 48bf
00000030: d82a 27bd 11d1 113e 74ac 833b 0ed8 2b3e
00000040: 58d5 5bbc 7803 31be 1e25 5bbd 050a 6e3d
00000050: aa88 91be 5f18 adbd 4f24 443d d398 d43d
00000060: 44db 443d ee53 8b3d ef3e 20be 1721 31be
00000070: 8258 4dbd 57d6 a23d 0eee 9c3d e017 efbc
00000080: 52a2 e2bd 4266 583d 1e61 91bc 1c70 6dbd
00000090: e9d6 c23b 6463 bc3d 5608 3a3d 6f83 d53d
000000a0: e850 97bc 87ee 393d 3519 f23d 158c 36be
000000b0: 93a6 a0bc aae4 41bf 8b09 19be 074e bbbd
000000c0: 156c 49be ae34 9c3d 6681 773d 0e5b 263d
000000d0: c6b4 65bd 8a1e 053d 88c7 443d 9a5c 14bf
000000e0: 79d0 1a3d 6417 8f3d ff52 fd3b 7cf0 543d
000000f0: 0deb 2d3e 88b0 05bc 7569 13bd 601a fe3c
00000100: 7a09 f8bc 698f fb3d 00fc 6b3c 70d2 23bc
00000110: 00d8 34bd f20b 1fbe 830e 613d 9399 9c3d
00000120: 049c 2abf b3af fbbc 18d1 55bc 68da 083e
00000130: 218c d73c 65df 4d3c b2a7 5f3d 6835 183e
00000140: ca28 b73c a70c 80bd 262d 663d fded 0d3e
00000150: 9fdc b9bd 7c70 08be cf72 c83d b9c8 93be
00000160: 148e fbbc e396 9cbc 20d8 e23c 4b0f aabc
00000170: 267f 44bd 323e 36be 4663 783d f8bc 203d
00000180: 5650 6b3d 7e12 9bbd 1cf4 04bd 36b1 09bd
00000190: 485b c33c 4c60 a0bd 48b4 0fbd 0627 7c3d
000001a0: df71 87be a8cf 6fbd 0f36 75bf bd4a 8a3c
000001b0: 8413 5e3d 532c 553d 6807 21bc 47e2 38bf
000001c0: ecc0 14be e0dd 853d 1b8e bfbd 625b dd3b
000001d0: 0e24 d23d 90ca 81bd 5953 8a3c 983a 293c
000001e0: c0d0 9f3b 5dd4 a8bd 7f0f d8bd c0e1 383e
000001f0: a0f3 823d 7fb9 183e c383 713d 1499 d23d
00000200: 8449 f83c 34e9 1f3e 2d39 ab3c 3bfc 45bd
00000210: 3564 233e 469c 10bf 24d2 70bd 7094 edbb
00000220: ed03 39bc 3876 493c eca8 d23c a0b4 e83d
00000230: b861 30bd 3809 15bd ccc6 1abf 12e3 09bf
00000240: 27ad 0f3e 73f7 903d 4924 8ebd 5fb6 98be
00000250: 6ee1 d6bc 3b01 6dbe c500 d43d 85e8 8bbe
00000260: 7b2c 203e 938b 77be 3238 1fbe 80fc 5bba
00000270: 00c0 3d38 20bc 283d da2d 83be 8af5 393d
00000280: 28c3 9cbe ae07 833d b8e8 f5bc dcbc c33d
00000290: 9e61 24be 5297 78bd 3110 0fbd 3058 b8bb
000002a0: eab2 113d e072 003d a08b 5b3b 05f4 12bd
000002b0: b0d1 8f3c 1eda 91bc 2fb3 1bbe 974a 053d
000002c0: a252 28bd f99e b23d 0af0 403d 89db ba3d
000002d0: c15a c2bc a41b 943d db30 15be 7006 3fbe
000002e0: 580f 433d 0e45 a8bd 8980 1abe 9811 e73c
000002f0: d049 04bc c485 8bbe ed6c a6be 00cd 5bbe
00000300: cba9 ca3d b875 813d f465 453e 85d6 153d
00000310: 0009 2d3c 2eb6 5d3d 4a32 60be b6e0 043d
00000320: fc3b 01bd 4d78 80be cdc1 303d fcf6 29bd
00000330: 1855 e8bd 05c5 89be d6c1 1f3d 775b 323c
00000340: 4002 0a3d 191e 0ebe 12dc 2fbd 6b6f b03d
00000350: 2a98 e6be 51f7 0dbe 8025 293b a23d 23bf
00000360: 63ae e23d 24c2 dd3c 89d2 01bf 55ee b6bd
00000370: 62db dbbd 6bf4 8cbe f01f 243d 846b 263d
00000380: c8b0 123d a0ce 353b 5d40 84be 0015 f9ba
00000390: 1eb6 1fbd 5f9a 26be 2bcb c03c a0e6 123e
000003a0: 5022 953c 8d04 29bd 8a64 bbbd 148b 843d
000003b0: 14c7 d4bc 78f9 833d d0d1 e7bc 3e2d 34be
000003c0: 105d 663d 5354 013e 9910 293e cc7b 073e
000003d0: e09a 15bd 7ead 10be 24ce ac3c c86b 8e3c
000003e0: b247 643e 9807 ab3d de24 1ebd 7a28 99be
000003f0: 8aaf 2ebd 8830 04bd 04cf 2c3c 12c3 20bd
0.09988829 0.14585516 0.07731617 -0.5053351 0.031205852 0.060378436 0.013956445 -0.015214942
-0.04502313 -0.012379634 0.17589813 -0.78324395 -0.040812343 0.14239909 0.0040183607 0.16781637
-0.013417564 -0.1728648 -0.053502195 0.058115024 -0.2842458 -0.08451914 0.04788619 0.103807114
0.04806067 0.06803118 -0.15649007 -0.17297779 -0.050133236 0.07951038 0.07662593 -0.02918619
-0.110661164 0.052831896 -0.017746504 -0.057968244 0.0059460294 0.09198645 0.045418106 0.104254596
-0.018471196 0.045393493 0.11821214 -0.17826875 -0.019610679 -0.7573954 -0.14945047 -0.09145742
-0.19670136 0.07627235 0.06042614 0.04061418 -0.056080602 0.032499827 0.04804185 -0.579538
0.03779647 0.06986883 0.007730841 0.051987156 0.16984196 -0.008159764 -0.035989244 0.031018436
-0.030277956 0.12283213 0.014403343 -0.009998903 -0.044151306 -0.155319 0.05494548 0.076464795
-0.6664431 -0.030723428 -0.01305034 0.13364565 0.026311936 0.012565468 0.054603286 0.14864123
0.022358317 -0.06252413 0.0561954 0.13860317 -0.09075283 -0.1332416 0.09787523 -0.28864077
-0.030707397 -0.019114917 0.027690947 -0.020759245 -0.04797282 -0.17797163 0.06064155 0.039242715
0.05744966 -0.075718865 -0.032459363 -0.033616267 0.023847237 -0.07830867 -0.03508404 0.061560653
-0.26454064 -0.058547646 -0.9578561 0.016881341 0.05421783 0.052044224 -0.009828426 -0.7222027
-0.14526719 0.0653646 -0.09353276 0.0067552784 0.10260783 -0.06337464 0.016885446 0.010328911
0.00487718 -0.0824363 -0.10549831 0.18054867 0.06394124 0.14914511 0.05896355 0.102831036
0.030308492 0.15616304 0.020901287 -0.04833625 0.15956195 -0.56488454 -0.058794156 -0.007250361
-0.01129244 0.012296252 0.025715314 0.113625765 -0.04306194 -0.036385745 -0.6045959 -0.53862107
0.14030896 0.07078447 -0.069405146 -0.29826638 -0.02623054 -0.23145 0.10351709 -0.27325836
0.15641968 -0.24174337 -0.1554878 -0.00083918124 4.5239925e-05 0.041195035 -0.2562092 0.04540018
-0.30617642 0.06397949 -0.030018196 0.095575064 -0.16052863 -0.060691185 -0.03492755 -0.005625747
0.035571016 0.031359553 0.003349997 -0.035877246 0.017556041 -0.017804202 -0.15205072 0.032541838
-0.04109443 0.08721728 0.04710392 0.09123904 -0.023724915 0.072318345 -0.14569418 -0.186548
0.047622055 -0.08216296 -0.15088095 0.028206632 -0.008074239 -0.27250493 -0.3250498 -0.2146492
0.09895667 0.06321281 0.19277173 0.036581535 0.010561228 0.05412882 -0.21894184 0.032440864
-0.031551346 -0.25091782 0.043153573 -0.04149531 -0.11344355 -0.26908126 0.039003216 0.010886065
0.033693552 -0.13878669 -0.042934485 0.08615001 -0.45037967 -0.13863875 0.0025809705 -0.6376592
0.11068418 0.027070113 -0.50711876 -0.08932177 -0.10735203 -0.27530226 0.04006952 0.04062988
0.035813123 0.0027741566 -0.25830355 -0.0019003451 -0.03899204 -0.16269825 0.023534378 0.14345789
0.018204838 -0.041264106 -0.09150036 0.064718395 -0.025973834 0.06444067 -0.028298289 -0.17595384
0.056241095 0.12629823 0.16510238 0.13230819 -0.036524653 -0.14128682 0.02109439 0.017385378
0.22292975 0.08351058 -0.038609378 -0.29913694 -0.042647876 -0.032272846 0.010547403 -0.039248534

network.3.bias f4 [256]
00000000: ea27 e43e 5f6b a43b 545e a93e a09d 99bd
00000010: 3378 b33e 24a9 afbd 49f6 eb3e 6f1d 6dbd
00000020: 9f29 7c3e c2b1 05be 14fa a43e f391 86bd
00000030: ec88 c43c 5b91 00bc 28f8 863e f5bc 88bc
00000040: f60a a03e d072 06bd 0573 983e d2c3 9d3e
00000050: 74f7 973e 0f9b 8d3c 61f9 9a3e e77f 8f3e
00000060: 118f 19bd 5d4f 903e f59a 6f3e 1096 87bd
00000070: cacc 7d3e 32a4 8a3e 742e 923e 1dee f7bc
00000080: 99a8 983e 9f78 b13e 63f7 413c b268 613e
00000090: 9b30 863e f3cd e13e 75a1 723e 8acf 953e
000000a0: 30a1 803d 9f65 9d3e e5ac 763c af5b c7bc
000000b0: 060e 003e fe6d a93e 8e60 7d3e 048e 973e
000000c0: 8ca6 8ebd e4be 833e f0bd 39bd 3c4b 923e
000000d0: 602e 663e ef44 8a3e 2a1b af3e 4609 63bd
000000e0: 8394 96bd 1602 ee3d f567 5c3e 6516 963e
000000f0: a644 03bc 8b8c 90bd 3c33 043d 19d8 da3e
00000100: b7d5 cb3d 791e d43d 0e3c 8e3e 97f0 923c
00000110: 61ec cf3e a547 363d 6ff6 5f3d 053c a63e
00000120: 3774 76bd 4fcf a03e f4d9 79bd 1955 9d3e
00000130: 50e9 883e 9ff7 4abc dd49 f7bc 1cc0 a93e
00000140: a09d a03e 922b 903e 834b 953e 9fc3 a13e
00000150: 2a44 703d e022 55bd 3c45 e8bc 6993 953e
00000160: 9667 68bd 4af3 9e3e e319 ac3e 7ada 893c
00000170: 7621 cc3e c615 fa3b 8406 673e dcd2 883e
00000180: d55b 933e 71f3 a23e dc0c 3fbd 7306 5fbd
00000190: 0bdb a33e 43dd 4bbd 117e 95bd b9c6 67bb
000001a0: 5d3e 953e 6c8d 853e 0989 1a3e a3ae c6bc
000001b0: e0df 9b3e 2948 933e da8d 9a3e eb33 2b3c
000001c0: 8362 9b3c cdc8 813a 3b10 f43d 244b 17bb
000001d0: 9a60 ee3e d5a9 853e 9837 8a3e 6725 243c
000001e0: e425 a13e 5b36 ad3e d60b 9a3e 40ba 2cbd
000001f0: 47bb a73e ff2b 9e3e b981 55bd 7bb9 573c
00000200: 77d8 e53e c8a3 ed3e 8243 46bd 0bdc 6c3e
00000210: 9d0e 48bb 478a 8f3e 1eea ac3e 2913 853c
00000220: ad18 6abd e4b5 9d3e bf9a 8a3e 5e29 8a3e
00000230: ac80 b339 d80a 823e b90e 48bc 06dd 983e
00000240: a55d 853e eabc 383b 5d2d 8d3e d5ca d5bc
00000250: 5323 23bd c08b 37bd d8b8 823e 161e 31bd
00000260: e606 823e a010 ad3e 896b 4bbc b64b a1bc
00000270: e864 d83e 27cd b53e 991c e13b 94a0 51bd
00000280: 0f33 833e 29b4 94bd 8fe4 803e 1c5a 9a3e
00000290: 3f69 a23e 79c1 993e 2b32 f13b 2d9e 803e
000002a0: 6bd5 dd3e c99f 963e e5dd 9a3e 6b56 eabb
000002b0: 9c2d 863e e9d6 7f3e 7db0 cd3d 09f7 793e
000002c0: 02bd 853e 28cf 9d3a 1b81 31bd 8c2e 11b9
000002d0: 633f 9d3e 70d6 863e 8a05 52bb 1121 8dbd
000002e0: f949 9b3e 613b 903e ea6f 713e adb6 42bd
000002f0: ff01 8c3e 5b02 a93e cf64 883e 1622 973e
00000300: a02a ad3e c03f 903e 2aa7 a13e dd72 943e
00000310: 29ed 8dbd 9293 9d3e 6e04 8a3e 814d 803e
00000320: 5d24 813e b942 e4bc c3f1 823e ab20 aa3e
00000330: 3a5c 893e 576f dc3e 3d24 eb3e fdde f73b
00000340: 179e 493b 1c42 62bd 0b2b 873e e969 9f3e
00000350: 4fd1 e63b 1427 10bd 87a0 c5bc a395 71bd
00000360: dd0d b3bb 6678 293e 3876 80bc 0610 9fbc
00000370: 7637 763e 6bf4 993e 72fb 7e3e ae11 c73c
00000380: 8738 033e 9d56 513a 835d e43e 0284 56bb
00000390: 20f4 583c 3fa0 983e 53ea b43e 47ea 9b3d
000003a0: 7d3b a53e 165f 83bc 4890 903e 3f74 73bd
000003b0: 4da5 7ebd 5904 a63e eb67 6c3e f922 9c3e
000003c0: e921 9e3e 1e77 71bd cb34 fcbc eb08 723e
000003d0: ce62 8d3e 9c1a f03e e9cf 94bd ad17 74bd
000003e0: 0c7f b23e 2a45 873e 5f51 ff3a 6c6b 8e3e
000003f0: b932 233b d893 8e3e 0dab 953e 6184 edbc
0.44561702 0.0050176824 0.3307978 -0.07500768 0.35052642 -0.08577183 0.46086338 -0.0578894
0.24625252 -0.1305609 0.32222044 -0.06570806 0.02399107 -0.007847155 0.26361203 -0.016691664
0.31258363 -0.032824337 0.29775253 0.30813462 0.2968098 0.017285852 0.30268386 0.2802727
-0.037489954 0.2818555 0.23398955 -0.06620419 0.24785152 0.27078396 0.28551066 -0.030264908
0.2981613 0.3466234 0.011838767 0.22012594 0.26208958 0.4410244 0.23694403 0.29259902
0.06280744 0.30741593 0.01505587 -0.02433571 0.1250535 0.3309173 0.24743864 0.29600537
-0.0696536 0.25731575 -0.045347154 0.28573024 0.22478628 0.27005717 0.34200412 -0.055428766
-0.07352545 0.116214916 0.21524031 0.2931396 -0.0080119725 -0.070580564 0.032275423 0.42742994
0.09952872 0.10357375 0.27780193 0.017936988 0.4061003 0.04450192 0.054678377 0.32467666
-0.060169425 0.31408164 -0.060998872 0.30728987 0.26740503 -0.012388139 -0.030186588 0.3315438
0.31370258 0.28158242 0.29159173 0.3159456 0.058658756 -0.052035213 -0.028353326 0.29214028
-0.056739412 0.3104499 0.336135 0.01682781 0.3986928 0.00763199 0.2256108 0.26723373
0.28781 0.31826356 -0.046643123 -0.05444951 0.32003054 -0.04977156 -0.07299436 -0.003536625
0.29149142 0.2608446 0.15091337 -0.024253195 0.3044424 0.2876599 0.3018635 0.01044939
0.018967872 0.0009901762 0.11917158 -0.0023085559 0.46558076 0.26106134 0.2699554 0.010018683
0.3147422 0.33830532 0.30087155 -0.04216981 0.3276007 0.3089294 -0.052125666 0.013166781
0.44891712 0.46414018 -0.048404224 0.23130815 -0.0030526288 0.28035185 0.33772367 0.016244488
-0.05715244 0.30802834 0.27071187 0.26984686 0.0003423741 0.25398898 -0.012210541 0.29856128
0.26048008 0.0028188773 0.27573672 -0.026097694 -0.03982861 -0.04481101 0.2553165 -0.043241583
0.25395888 0.33801746 -0.012415775 -0.019689422 0.42264485 0.3550808 0.006869864 -0.05117853
0.25624892 -0.07260925 0.25174376 0.30146873 0.3172092 0.3003042 0.007360717 0.2512068
0.43326887 0.2941878 0.30247417 -0.007151415 0.26206672 0.24984325 0.10043428 0.24410643
0.26120764 0.0012039887 -0.043336015 -0.00013845618 0.30712423 0.26335478 -0.0032046759 -0.068910725
0.30329874 0.28170303 0.23577848 -0.047537494 0.27345273 0.3300961 0.2663941 0.29518193
0.33821583 0.28173637 0.3157285 0.28993884 -0.0693 0.3077665 0.26956505 0.2505913
0.25223055 -0.027863847 0.25575075 0.3322805 0.26828176 0.43053696 0.45926085 0.007564424
0.0030764395 -0.055238828 0.26400027 0.3113549 0.0070439945 -0.035193518 -0.024124397 -0.058980595
-0.005464299 0.16549835 -0.015681371 -0.01941682 0.24044594 0.3006929 0.24900606 0.024300423
0.12814532 0.00079856237 0.44602594 -0.0032732491 0.013241798 0.29809758 0.35335025 0.07613044
0.32271948 -0.016036551 0.28235078 -0.059437033 -0.06216936 0.32425192 0.23086517 0.30495432
0.30885246 -0.05895149 -0.030786892 0.23636214 0.27614444 0.468953 -0.07266218 -0.05959289
0.34862554 0.26419955 0.0019479207 0.2781633 0.002490206 0.2784717 0.29232064 -0.028993787

network.6.weight f4 [256, 256]
00000000: 5b7a 89bd 21e2 dd3c bce7 573d e094 543c
00000010: cbc1 44bc 4461 5cbd 0332 41bc 2531 013e
00000020: 5b07 d0bd 45ab 63bd ca9b de3b c403 53bd
00000030: 7e91 d03d 2ebe 83bd 0918 233e 18c2 46bd
00000040: ce02 f03c f064 48ba 97f0 c4bc 5222 85bd
00000050: 180b b4bd cac3 d93c f8d7 f5bd 4b99 0bbe
00000060: d06a 6bbd a231 3ebc d705 9abd c188 203d
00000070: 9a4e febd 312e 69bd 4c3a a6bc d042 d4bb
00000080: bba6 fc3c a829 283d b603 0abd f1c4 593c
00000090: c882 00bc ad86 d2bd 16a8 3ebd 58d2 363d
000000a0: 559b 98bd 8909 c3bd a052 2bbd be05 173d
000000b0: 0165 c0bd 044b 23bd 3dfe 1ebd 56ed b4bd
000000c0: 7d34 4cbd b6ab 72bd 809c cd3c 7293 a63d
000000d0: 9bf3 32be 41c7 a0bd 005a e73c 5447 523d
000000e0: 68f1 533c acbd e03d c29a 2d3c 73ab c63d
000000f0: 708e 56bc 670e c338 16c1 b5bd 5100 4e3d
00000100: 8ce6 72bd 49ac 5f3e 8bec 843d 10dc 78bd
00000110: dae7 d8bd 7573 973e 8785 b7bd 01fe da3d
00000120: 34bc 5bbd 4645 6abc b08e eebb 0b5d 86bd
00000130: 187e 04bd e199 373d 14df 7e3d a706 44bd
00000140: 0602 cdbc cf18 03be 249b b13d f990 303c
00000150: d1a3 07bd 9a46 b43c 1a90 7bbd 627d dcbd
00000160: 9c65 3fbd 8a4e c73c 1221 0fbd 7c9d 16bd
00000170: a25f e43d e230 523d cc5d 5bbd 6c90 d6bd
00000180: b4d6 13bd 2c32 aebd 67dd 1ebd d7ca 2939
00000190: e055 3bbd 00a5 373d 9aee 1abd ce85 82bd
000001a0: 5d9a d03d f99c 1abd 335b 30bc ee6d 423d
000001b0: ea31 2abe dcac 963c b4b2 25be 62d5 3c3d
000001c0: 7441 583d 4b00 ebbc 7009 3d3e e393 d43a
000001d0: 866a d43d 8850 b0bd 1dd2 153c 8893 123c
000001e0: 47ba e13c 63b1 f43d ff26 9b3c 3813 343c
000001f0: 980d e5bd 16be 323c ccee 673d 3652 aa3e
00000200: 17cd 64bc 4cd3 b93d 3564 78bd f9c2 2bbd
00000210: 6198 66bd 6d6a 37bd d861 a3bc 26be 2abd
00000220: 5c17 d73c 7ba3 55bc d3e8 aebc c21b e2bd
00000230: c526 523d 1201 293c 7814 593c d75f 64bc
00000240: b29e 283e b4d2 f63c 9a1d 9ebd f27d 633d
00000250: 4c73 c03c d1f2 20bc 90dd 0a3c 2834 443c
00000260: f059 2dbe 693f b23c 3fb8 e5bd 0a56 34bd
00000270: 2775 133e 0d0b 433d 6a67 be3c 889f 4fbd
00000280: df78 16bd 2a5b 293d 20b4 5e3d 77c2 c1bd
00000290: 8476 8f3d d0d4 383c 4a78 603d 05c1 d3bd
000002a0: a7a6 6cbd 6440 d1bc 26ce 61be f206 ff3c
000002b0: 1dc3 08be d483 e3bd 1c5a 263d a7dd aebd
000002c0: ed46 b9bd f6fd 76bd 2476 773d c5cb 41bd
000002d0: 74c2 5f3d 05a3 09be 0ad1 30bd 2ea4 9b3c
000002e0: 2a5f a9bd 9af6 18be ae26 ecbd 7896 3e3c
000002f0: 5c64 38bd ee4e b03d 0afc ad3c c2ea b33d
00000300: abb7 3abe eb5e 113e c373 debd f1ff 5dbd
00000310: c237 26bb 439f 17be 6a44 27be 37bc b43d
00000320: e996 fcbd 1dc2 ffbc 455c 99bb a993 6abd
00000330: 193f 90bd 88a8 ca3c 83b6 a7bd a3fa 78bd
00000340: fcbf 4bbd 3aa9 24bc e111 a9bd 605b 8dbc
00000350: f1bc 53bd 01cf babc 6809 7cbc cecc 183d
00000360: 9d81 263d d03e 01bd fdef 2c3c e17b 6abd
00000370: daa2 eebd f15f 8f3d 2670 acbd 24dc 103d
00000380: 7ab1 73bc 909c 08bd 97b3 0d3c 3fc9 443c
00000390: ba49 263d 8ec9 e8bc d4e7 f1bd 643b 94bd
000003a0: 2059 94bd 48b4 4cbd 4a46 d3bc c81c 4cbc
000003b0: 26c0 58bc 7f06 1e3c ab55 f8bd f938 9cbd
000003c0: 9dee e2bd a4cb 0fbd 636f e1bc 08a9 1ebe
000003d0: 3f98 a9bd 2c59 663c 8f74 33bd 7e0a 74bd
000003e0: af67 623d ffe2 11be 42fa 913c 10ec 05bd
000003f0: 458e 0d3d 2aa2 3d3d 907a 1ebe d3e1 f1bc
-0.067127906 0.027085366 0.052711233 0.012974948 -0.0120090945 -0.053803697 -0.011791709 0.12616403
-0.10157653 -0.055583257 0.006793474 -0.051517263 0.101840004 -0.06432758 0.15927137 -0.048524946
0.029298212 -0.00076444354 -0.024040503 -0.06500687 -0.087911785 0.026582617 -0.120040834 -0.13632695
-0.05747491 -0.011608513 -0.07520645 0.03919292 -0.12417336 -0.056928817 -0.02029147 -0.0064776912
0.030841222 0.04105535 -0.033694945 0.013291583 -0.007843681 -0.102795936 -0.046547018 0.044634193
-0.07451502 -0.09523303 -0.041826844 0.03687071 -0.09394265 -0.039866462 -0.03881668 -0.08834331
-0.049854744 -0.059245788 0.02509904 0.08133592 -0.1747574 -0.07850505 0.028241158 0.051337555
0.012935974 0.10973677 0.010595979 0.0970067 -0.013095483 9.301007e-05 -0.08874719 0.05029327
-0.059301898 0.21843065 0.064904295 -0.060756743 -0.10591097 0.29580274 -0.08961015 0.10692979
-0.05364628 -0.014298743 -0.0072801933 -0.06560715 -0.032346815 0.044824485 0.062224463 -0.047857907
-0.025025379 -0.12802432 0.08672169 0.010776752 -0.033115212 0.022006322 -0.061416723 -0.107661024
-0.04672776 0.024329443 -0.034943648 -0.036771283 0.11151053 0.05131615 -0.05355625 -0.10476765
-0.03609343 -0.08505663 -0.038785364 0.0001619266 -0.045736194 0.04483509 -0.037825204 -0.063731775
0.101856925 -0.037747357 -0.010763931 0.04746812 -0.16620603 0.018392973 -0.16181451 0.046101935
0.052796796 -0.028686663 0.18460631 0.001621839 0.1037188 -0.0860911 0.009144333 0.008946307
0.027554644 0.11947896 0.018939493 0.01099091 -0.111842334 0.010909578 0.05662422 0.33265847
-0.013964913 0.09073505 -0.06064244 -0.041933987 -0.056297664 -0.04477923 -0.019944116 -0.041685246
0.026256256 -0.013039465 -0.021351254 -0.11040451 0.051306505 0.010315197 0.013249509 -0.013938866
0.16466787 0.030129768 -0.0772049 0.055540033 0.023492478 -0.009823517 0.008475676 0.011975326
-0.1692884 0.021758752 -0.11216783 -0.044027366 0.14400159 0.04761796 0.023242671 -0.05068925
-0.036736365 0.041346706 0.054371 -0.09460919 0.07005027 0.011281207 0.054802217 -0.1033955
-0.05777612 -0.0255434 -0.22051296 0.031131241 -0.1335568 -0.111091286 0.04061328 -0.085383706
-0.09046731 -0.06030079 0.060415402 -0.04731347 0.054628804 -0.13441093 -0.043168105 0.018999185
-0.08270104 -0.14937821 -0.11530815 0.011632554 -0.045017585 0.08608805 0.021238346 0.08785011
-0.18234126 0.14196365 -0.108619235 -0.054199163 -0.0025362824 -0.14806847 -0.16334692 0.08824962
-0.12333471 -0.03122049 -0.004680189 -0.057269726 -0.07043285 0.024738565 -0.08189108 -0.0607859
-0.049743637 -0.010050112 -0.08255363 -0.017255485 -0.05169386 -0.022803785 -0.015383102 0.037304692
0.040650953 -0.031554043 0.010555265 -0.057247046 -0.11652155 0.07000721 -0.08419828 0.035366192
-0.014873857 -0.033352435 0.008648775 0.012010871 0.040597655 -0.028416421 -0.11811796 -0.0723789
-0.07243562 -0.049976617 -0.025790352 -0.012458034 -0.0132294055 0.0096451035 -0.12125715 -0.07628054
-0.11080668 -0.035106316 -0.027518934 -0.15494168 -0.08280992 0.014059346 -0.04381233 -0.05958032
0.05527466 -0.14246748 0.017819528 -0.03269583 0.034559507 0.04629723 -0.15476441 -0.029526627

network.6.bias f4 [256]
00000000: 3130 ab3e 283a 433f 45d7 04be 247a 9c3e
00000010: a347 1f3e ccd4 8a3f b7f5 853f 9b42 c1bd
00000020: 44f8 563f 3cde 243f 2fa1 8a3e 4ab6 963f
00000030: 7a53 913f d9e9 bbbd 05f7 b5bd 30d8 ad3e
00000040: f589 883f 9d3a 8e3f f884 0cbe 89eb 913f
00000050: b700 113f 7cfa 8f3f 5e53 963f 4656 8cbd
00000060: 3727 7f3f 3385 953f 2924 85bc 73aa a83e
00000070: 6432 8c3f 0760 883f 3bab d73e 150e 933f
00000080: 7403 b5bd fef7 f9bd 28bd 883f e8ec 853e
00000090: 71e3 283f 49ce a53e 15fc d23e a365 6bbd
000000a0: d8ab 1cbd 297c acbc 5dc1 423f 6844 2e3f
000000b0: 167c 983f 7d62 1d3f 56aa 813f 9de3 3abd
000000c0: 745e afbc 0913 8f3f a8a9 523c f686 c13e
000000d0: 88b7 abbd 0c61 933f a23b 283f bdfa 723f
000000e0: 78a8 b13e e70a 073f 6bb3 e7bc da09 8e3f
000000f0: 3c8c 833e af79 0c3f ba53 ddbd 47b3 8d3f
00000100: dab7 c53e 3c12 483e 42fa 013f ca9c 093f
00000110: 83ab cb3e 1879 293f 9a49 8d3f a45b bc3e
00000120: b775 d13e c7f3 953f e8b7 863f fdc2 1e3f
00000130: 6885 233f 7624 933f 2dbe 543f 1612 863f
00000140: 034a 953f 998b 953f f2f0 023f 5940 43bd
00000150: d7e0 943f ea25 72bd 7f08 183f fad6 a9bd
00000160: 653d c8bd 8c0f 8c3f 57a2 823e c0db cabd
00000170: 25cf 8e3f 841c 3b3f 31ac 8b3e 5d8c 8e3f
00000180: 65ed 323e 128f 6abd c196 773f e6d3 b93e
00000190: d8dc 89bd f3eb c1bd 121c acbd c6b8 1f3f
000001a0: 417c 093e bdaf 503f e505 d63e bb94 853f
000001b0: 99f3 ca3e f45a 273f 4beb 8a3f a47e 483e
000001c0: 0105 3a3f cde5 933e 76c0 31bd dafb 0ebd
000001d0: 559f 473f 8f6e 303f 1b60 9e3e ceb6 44bd
000001e0: c114 663e 0eea 8abd 6979 a2bd 44bc b33e
000001f0: 4763 493f 4ab6 893f 27f9 5abd 23e6 aa3e
00000200: 6523 4c3e d71c 973f 0cf8 423f 6a38 403f
00000210: bf71 8b3f 8440 393f 6e81 4d3f d1fa ba3e
00000220: 7147 0e3f 3281 dcbd f335 923f c27d 8b3f
00000230: cf68 96bc 8229 9abd ad68 8b3f bbc5 953f
00000240: e8bc 36bd 8f53 fd3e dd4c 253f 508b 9cbd
00000250: d0fa 263f d06b 223f 203d 903f 5452 0e3f
00000260: 29f7 4b3f 7c1b 443f 2bcc 943f e83f 8f3f
00000270: 414a 3e3e 3fc2 943f 6cb2 a63e 7c84 843f
00000280: 83eb 253f 5509 20bd f737 013f c6bd fb3e
00000290: 2b41 bb3e 1731 f23e 413f 443f 9021 1c3f
000002a0: 67b9 f2bd f56a 893f 847e 403f 92b0 8f3f
000002b0: 2d8a 8d3e 38a7 80bc eab4 8ebd d1fd ed3e
000002c0: 33a8 a73e a0fa 8a3f b4a3 8c3f df50 833f
000002d0: bf42 8c3e 31b3 8a3f 21e9 99bd 97f2 213f
000002e0: 5c6f 8e3f e7bc 413f 34b6 343f 2c9e 933f
000002f0: c0cb 8b3f 3a98 25bc a92e 293f d54c 913f
00000300: 1aba 8a3f 9d66 8cbd 9ff4 853f af01 3a3f
00000310: 7912 923f 832f 923f 49fd 8e3f fde3 e53e
00000320: 5942 023f 0847 a03e d0c4 8d3f 0248 c63e
00000330: a59f 113f 3921 bf3e 519b 2d3f 5b50 d13e
00000340: b934 5c3e 65fb 573e e560 323f 0db7 0d3d
00000350: 3109 983e 956a 113f d239 023f 3c3b bdbc
00000360: 16a5 8d3f 0ed0 943f 1819 8a3f 3038 753f
00000370: 3921 243f c785 903f 50fd 433f 7bae 823f
00000380: 05ce 353e b1bb 403f 11ff c5bd c53d fc3e
00000390: 5b65 3b3f 36ea 823f dbc7 b8bd 53cb 1a3f
000003a0: 03ae 89bd eb8b 98bd 580c ac3e eff7 883f
000003b0: 32e5 eb3e 01e1 913f aa7d 383f 57f4 2a3f
000003c0: 05a7 dbbc 8da2 933f 72f4 3b3f 9926 be3e
000003d0: e834 453f c482 7f3f 59b8 403f 0e19 8a3f
000003e0: 0656 313e e29b f33e 51fa 2f3f 25a5 8a3f
000003f0: 4218 d43e 732b 423f 0154 903e 45eb fc3e
0.33435205 0.76260614 -0.12972744 0.30561936 0.15554671 1.084619 1.0465611 -0.09436532
0.83972573 0.644016 0.27076098 1.177438 1.13536 -0.09175462 -0.08885006 0.33954
1.0667101 1.1111637 -0.13722599 1.1400005 0.56641716 1.1248317 1.1744192 -0.06852393
0.9966921 1.1681274 -0.016252594 0.32942542 1.0952878 1.0654305 0.42122826 1.1488672
-0.08838549 -0.12205504 1.0682726 0.26157308 0.6597205 0.32383946 0.41207948 -0.057469975
-0.03824982 -0.021055298 0.760763 0.6807313 1.1912868 0.61478406 1.0130107 -0.045627225
-0.021407343 1.1177684 0.012857832 0.3779828 -0.08384615 1.1513991 0.6571599 0.94913846
0.34698844 0.5275101 -0.028283795 1.1096756 0.25692928 0.54873174 -0.10806985 1.1070336
0.3861683 0.19538206 0.5077249 0.53754866 0.3977929 0.662004 1.1038086 0.36788666
0.40910122 1.171502 1.0524874 0.6201628 0.63875437 1.1495502 0.83102685 1.0474269
1.1663212 1.1683227 0.51148903 -0.04766879 1.1631116 -0.05911819 0.59387964 -0.08292957
-0.09777335 1.0942245 0.2551448 -0.09905195 1.1156965 0.73090386 0.2727981 1.1136585
0.17473371 -0.05726535 0.9671441 0.36294478 -0.06731576 -0.09468832 -0.084037915 0.62391317
0.13426305 0.81518155 0.41801372 1.0436014 0.39638975 0.6537316 1.0853056 0.1957956
0.72663885 0.28886262 -0.043396436 -0.034908153 0.77977496 0.689187 0.30932698 -0.0480259
0.22468854 -0.06782924 -0.079333134 0.35104573 0.7866711 1.0758755 -0.053460266 0.33378705
0.19935377 1.1805676 0.7615974 0.7508608 1.0894088 0.7236407 0.8027562 0.36519483
0.5557776 -0.107668296 1.1422714 1.0897753 -0.018360524 -0.07527448 1.089132 1.1700968
-0.04461375 0.49477813 0.6457041 -0.07643759 0.6522646 0.6344576 1.1268654 0.5559437
0.7967401 0.7660444 1.1624807 1.1191378 0.18583013 1.1621779 0.32558 1.0352931
0.6481249 -0.0390714 0.5047602 0.49168223 0.36573157 0.47303078 0.7665902 0.6098871
-0.11851769 1.0735766 0.7519305 1.122576 0.27644482 -0.015704736 -0.069681 0.4648271
0.32745513 1.0857735 1.0987458 1.0259055 0.27394673 1.0835935 -0.07515169 0.6326079
1.1127734 0.7567887 0.7059052 1.1532645 1.0921555 -0.010107094 0.6608682 1.1351572
1.0838044 -0.068555094 1.0465277 0.7265882 1.1411887 1.142075 1.1171046 0.44900504
0.5088249 0.31304193 1.1075687 0.38726813 0.56884223 0.37330034 0.6781512 0.4088162
0.21504487 0.21091993 0.696791 0.0345984 0.29694512 0.56803256 0.50869477 -0.023099534
1.1066005 1.1625993 1.0788908 0.9578886 0.64113194 1.1290826 0.765584 1.0209497
0.17754371 0.75286394 -0.09667791 0.49265876 0.7320153 1.0227726 -0.090224944 0.604665
-0.06722643 -0.07448562 0.33603168 1.0700663 0.460733 1.1396791 0.7206675 0.66779083
-0.02681304 1.1533982 0.7341987 0.37138823 0.77033854 0.9980891 0.7528129 1.0788896
0.17317972 0.47579867 0.6874133 1.0831648 0.41424757 0.7584755 0.2818909 0.49398246

network.8.weight f4 [3, 256]
00000000: 7c48 883e bb0f af3e a6d1 163e adc7 b13e
00000010: e0f7 ccbe fa4d d2bd 2f67 d2bd 24d4 ecb8
00000020: 0040 8a3e 6b1d 9e3e 3959 9b3e e258 01be
00000030: a8a8 13be eb66 253b e317 52bc 6ddd 1bbe
00000040: 91c0 17be 7779 37be 5c29 3e3d 3326 15be
00000050: 43aa 493d 4ca4 e6bd fd2e 09be 805d c7bb
00000060: ab6a 54bf 350e 2fbe 5434 aabc e4ae 933e
00000070: 1256 09be c4d4 03be ebc7 37be b6c8 40be
00000080: 71e4 0fbc e504 8f3c 7748 23be 0107 c9bd
00000090: 7520 8b3e 850b 88bb 39ac b03e a2ea b73c
000000a0: bce2 053c 52ff cdbd 33ce 833e 2c67 963e
000000b0: b54e 3fbe 4eb4 713e c6d6 a8bd bd08 f1bc
000000c0: ab9a 44bc 97b1 07be 2ebc 13be 5753 483d
000000d0: e541 07bd 91c1 3bbe a2d3 db3e 554c 29be
000000e0: 2e60 d53d f344 2a3e 478d aabc 11bd 17be
000000f0: 83cc 003d 0ac1 8d3e 3b61 983d 3d5a 36be
00000100: 0a11 a53e cf07 87bd c895 c23e 294c 7a3e
00000110: c642 83be cf86 c73e c9ca 17be eb83 c13d
00000120: 4a55 6b3e aa31 25be 89cd 20be 7a62 d03e
00000130: aa77 8b3e 6240 fcbd afa5 a13e b5b5 39be
00000140: e1f0 09be 35ee fdbd cef5 8a3e 8bd3 6c3c
00000150: 7716 17be 2183 0fbd 73d8 903e ad76 b53c
00000160: 9d5c 373d f71d e4bd af99 4a3d 6ddb df3b
00000170: 81ee 32be ad4e a03e 3696 973e 5574 22be
00000180: be7a e1bd 83b2 4f3c 10af 96bd bbb7 5dbe
00000190: dfeb 05bd 5402 1e3d 087c 2c3d c133 823e
000001a0: 42ba e33e 1a5c ac3e e8cb ab3e b52e 15be
000001b0: 368c a23e a71a 813e 9574 29be a0df e83d
000001c0: d46e 9c3e f1e3 863e a574 4e3a 722d 8b3c
000001d0: 722e 973e 9a1b a43e a437 ca3e 2416 e33a
000001e0: cac5 6e3e 6956 fc3c 6839 1b3d 9a93 c13d
000001f0: a181 d43e 3e07 a6bd bff6 b03d 630b 6a3e
00000200: 59d8 5c3e f060 42be a8b4 9f3e ba7e a53e
00000210: 4ac2 23be 416c d33e 53fa 6e3e a1dc d73e
00000220: a933 fe3d e10b e93c 2fd8 25be eadf 32be
00000230: 0367 d2bc 2738 02bd 95fa cdbd 1af1 31be
00000240: e63e eabc 4394 c23e cb3e b23e fe1b 5b3d
00000250: cd90 a63e 601e e13e 111a 1ebe 7a7c 0f3e
00000260: 1a17 833e a55a a43e 60f6 02be fe02 17be
00000270: cf3e 853e c5c6 1bbe 8c34 b5bd 88db eebd
00000280: 9f88 543e b1fa 533c 1916 b43e 2f23 223e
00000290: fe8b 49bd 9173 a73e f386 943e 9bc5 a43e
000002a0: 81ce c63c 9730 1fbe 89e8 da3e f2a4 f1bd
000002b0: e515 7b3e 7b2e f6bd d971 80bc 97ac 7a3e
000002c0: 620b 3a3e f7f9 11be dfb8 0abe 6833 21be
000002d0: 44c2 893e 4210 12be 5d9b 6d3a f492 c83e
000002e0: d3e0 ebbd 0984 a33e de32 9e3e 2a5b 2cbe
000002f0: e5f7 1fbe a193 eabc e64a c63e ce43 cdbd
00000300: d36c d7bd a063 5a3c a310 06be 06ba b53e
00000310: f501 0bbe 5784 2fbe 06ab f5bd 4819 893e
00000320: 675b b93e db0c 6f3e dd4f 9ebd b94c 00be
00000330: 3eb9 ad3e cbed d83e 254c bb3e 0cdc abbd
00000340: 5390 fb3e 81a0 823e 9738 a63e 9923 62bd
00000350: 068c af3e 9cc5 9c3e 9425 323e 9690 90bd
00000360: e2d3 f6bd 42e4 3cbe 562b 09be e438 19bf
00000370: d0e1 a63e aa93 0ebe 0804 993e 081c bebd
00000380: 4011 743e dd87 b73e abe9 10bd 5358 ae3e
00000390: 3560 ac3e a73a 10be 0df9 2cbd a795 713e
000003a0: a4e9 cebc d924 cd3c 3878 acb9 911c fabd
000003b0: 5aa8 853e 814f 0abe 49dc 913e e1aa 9a3e
000003c0: 1fe5 17bc c040 27be 1a5f ce3e 6fcb 523e
000003d0: 27bd ab3e 1ab6 e3be ceda 863e ed2f 1bbe
000003e0: bec6 a0be ad0f 603e 63c3 963e 86ab 30be
000003f0: 5253 683e 92fe 983e 1574 a83e d0a4 e6bd
0.266178 0.3419169 0.14728412 0.34722653 -0.40032864 -0.10268779 -0.10273587 -0.00011292871
0.27001953 0.3088182 0.3034151 -0.12631562 -0.14419806 0.0025238346 -0.012823078 -0.15221186
-0.14819552 -0.17917429 0.046426162 -0.14565353 0.04923464 -0.11261806 -0.13396831 -0.006084144
-0.8297526 -0.17095263 -0.020776905 0.28844368 -0.1341174 -0.12874132 -0.17947356 -0.18826565
-0.008782492 0.017458389 -0.15945612 -0.09815789 0.271732 -0.004151764 0.34506395 0.022450749
0.0081717335 -0.10058464 0.25743255 0.2937559 -0.18682368 0.23603937 -0.0824409 -0.029423112
-0.011999766 -0.13251339 -0.14427254 0.048907604 -0.033021826 -0.18335558 0.429349 -0.16533025
0.104187354 0.16627865 -0.02081932 -0.14818217 0.031445038 0.2768634 0.0744042 -0.1780786
0.32239562 -0.06593286 0.380049 0.24443115 -0.25636882 0.38970038 -0.1482345 0.094489895
0.22981754 -0.16132227 -0.15703405 0.40700132 0.27239734 -0.123169675 0.3157172 -0.18135722
-0.13470794 -0.1239895 0.2714066 0.014454733 -0.14754663 -0.035037164 0.28290138 0.022151316
0.044766057 -0.11138528 0.04946297 0.0068315775 -0.17473795 0.31310025 0.2960679 -0.1586469
-0.11009739 0.012676838 -0.07357609 -0.21652119 -0.032695647 0.03857644 0.042110473 0.2543011
0.4447804 0.33664018 0.33554006 -0.14568599 0.31747597 0.25215647 -0.16548379 0.11370778
0.30553305 0.2634578 0.0007875658 0.016989443 0.29527622 0.32052308 0.39495575 0.0017325324
0.23317638 0.030802922 0.037896544 0.09451981 0.4150515 -0.0810685 0.08640813 0.22855906
0.21566905 -0.18982291 0.31192517 0.32323247 -0.15992084 0.4129353 0.23337679 0.42160514
0.12412197 0.028448047 -0.16195749 -0.17468229 -0.025683885 -0.031791832 -0.1005756 -0.17377129
-0.028594445 0.3800374 0.34813532 0.053493492 0.3253235 0.43968487 -0.15439631 0.14012328
0.25603563 0.32100406 -0.12789297 -0.14747235 0.26024482 -0.15212543 -0.08847913 -0.11662966
0.20755242 0.012938187 0.3517311 0.15833734 -0.049205773 0.32705358 0.29009208 0.3218201
0.02426839 -0.1554588 0.42755535 -0.11799039 0.24520071 -0.12020584 -0.015679287 0.244799
0.18168405 -0.1425551 -0.13547085 -0.15742266 0.26906025 -0.14264014 0.00090639835 0.39174616
-0.11517491 0.31936672 0.30898184 -0.16831651 -0.15621908 -0.028634848 0.38729018 -0.10022698
-0.105188034 0.0133294165 -0.13092284 0.35493487 -0.13574965 -0.17140327 -0.11995511 0.267771
0.36202547 0.23344748 -0.077300765 -0.12529267 0.3393039 0.42368922 0.3658153 -0.0839158
0.49133548 0.2551308 0.3246505 -0.05520973 0.34286517 0.30619514 0.17397147 -0.070588276
-0.12052132 -0.18446448 -0.13395438 -0.59852433 0.32594156 -0.13923517 0.29885888 -0.0928269
0.23834705 0.35845843 -0.035379093 0.3405176 0.3366715 -0.14084874 -0.0422297 0.23592244
-0.025257893 0.025041984 -0.00032895966 -0.1221248 0.26105005 -0.13506891 0.28488377 0.30208495
-0.009270935 -0.16333294 0.40306932 0.20585416 0.3354275 -0.4447487 0.2633881 -0.15155001
-0.31401628 0.2188098 0.29445943 -0.17252931 0.22688034 0.29881722 0.32901064 -0.11261904

network.8.bias f4 [3]
00000000: 7f2e 65bf f207 3fbf 14a1 3cbf
-0.8952407 -0.746215 -0.73683286
