mountaincar_cl_project/mountaincar_cl/runs_mountaincar_No_EWC/abrupt/egp/seed_0/online_stream_model.pth (torch, 535757 bytes, 8 tensors)

network.0.weight f4 [256, 2]
00000000: 8a9d c7be 1aca 643d 805e 013d 2e17 b63e
00000010: 2578 06bf 1bfc f63d 0273 e63e e9d7 ddbe
00000020: d410 533e a1eb 17bf 0878 f13d 5469 2cbf
00000030: 6366 1f3f 1362 643f 3b52 1fbf 22c3 143e
00000040: 93cf 30bf 4b45 53bf 96d8 5dbe 19d7 c6be
00000050: fcf0 c73d a785 02bf 00f2 903d 1af1 f23e
00000060: 1544 acbe 67b1 053f 77ca 14bf 60a0 ae3c
00000070: 84a6 2bbe 109a 2dbf 99db 64be 9a54 643d
00000080: dbf8 993e 6d0b 5bbf 2f30 92be d2b0 07bf
00000090: 650a a83d 635e 36bd b7f6 ddbe dc1a 54be
000000a0: b012 f1be 9329 d5be f1c1 21bd 81a5 aebe
000000b0: 6add bbbe 2b4d d9be 2ca3 0fbd 281c 31bf
000000c0: 00c2 e9ba 9870 fb3d 5c83 fbbe beea d1be
000000d0: 6f35 043e eb1b 66bf 24e0 313f b734 c9bd
000000e0: 7ae0 823e f7b1 fb3d a92f 3e3f 7f37 12bf
000000f0: eab2 873e a277 f8be 7e66 d7be 7ead 053e
00000100: 3b8d 063f 0886 123e d492 33be a2a9 88be
00000110: 6ab5 e43e 68b2 c7be 480a c93d c7d4 07bf
00000120: b81c 83bd a054 d4be 7b44 05bf c911 9cbc
00000130: 7041 da3e d33a a23b f889 8e3e 61e3 20bf
00000140: 0c90 5cbd b962 3ebe a199 343f ff80 153f
00000150: d264 cb3e d4fc 39be e826 b43e 7650 7fbf
00000160: 689c e6be 786e aabe 1e4d a2be 6382 14bf
00000170: b424 2dbe 386d 29be e1e8 a7bd 4801 91bf
00000180: 3ab6 02bf e5c3 95bf f5d7 073f bd71 b6be
00000190: 9b7e 973d fcb9 8abf a897 03be 4e02 dc3e
000001a0: 5157 11bf 3b84 32bf 86b8 213e 6196 a7be
000001b0: c685 b03e 00f3 79bd 9c17 1e3f 12b7 61be
000001c0: f32f 1bbf 1abf 2bbf cfb7 04bf 0869 e0be
000001d0: c3ba 283f 44ca 093e 05ce 303f 9164 93be
000001e0: 82d4 31bf acc0 14bf bd5c 043f 5702 153f
000001f0: f689 223e 2ba5 aabe 9884 10bf 3a4a f7be
00000200: cf70 213f 2645 c53e 8dab ffbe 82ac 83bf
00000210: 3f75 b43e ebb5 2bbe 80ce a1bb 6335 a8be
00000220: 00a0 943a 4a5b a03e 9440 693e 8646 d13e
00000230: c949 d6bd 19c2 10bf 5296 933e 1e31 403e
00000240: c33c 1d3f b8a4 d03d f0d1 1ebf 9dac 80bd
00000250: c75b a43d 2fc3 8abf 98a2 d23d 379f 1a3f
00000260: 970f 323f e458 033e ab78 153f fdf5 76bf
00000270: ad59 c13e 68b4 b4bd 71fa 1b3f bde6 6ebf
00000280: d6ce b9be fdab 1d3f 066a 11bf e510 95bf
00000290: 02ba 19be f315 12be c595 adbe 640f 533e
000002a0: 1c6e 34be 90f9 50bd 40e8 06bc 756b dbbe
000002b0: 7986 823e 3776 cdbe 7f8c 263f 58c7 b63d
000002c0: ee47 3cbf bd35 b43e df24 1a3d ffa6 4bbf
000002d0: f1aa 7dbe 118f 64be dca2 51be 0079 ffbb
000002e0: 6b14 ebbe 82d9 acbe 0c59 09bf 4261 953c
000002f0: 8edf a13e fc5e c9be ead3 bcbe 31b9 8dbf
00000300: 771d 00bf 6c36 d5bc 4d1b 1e3f ae39 cdbe
00000310: 434a 8c3e 7168 1dbe 98d9 b7bd 420d be3e
00000320: 9684 5d3d 6aec 08bf 706f db3d 401a a83d
00000330: 5b50 12bf 361e 2dbf a77a 24bf 7519 e8bc
00000340: 87a4 183f 5458 1b3e 4634 123f 3ec6 6ebf
00000350: a64d 17bf f924 3cbf 07fc 033f a6b5 5dbf
00000360: fc91 cabe c86c 31be 3516 1fbf acb8 733e
00000370: b09a b03e 0d4d 90be 4a2c 1abf 90b9 89bf
00000380: 4252 e03e 00b0 f7bd 2657 b43e 3c41 0fbe
00000390: 5e60 1dbd df96 75bf 4f82 b43e 1a1a 36bf
000003a0: baf7 2fbf eeff b4be 64f8 08bf fada fd3e
000003b0: 328d 133f 4cae f63d c056 93be 2956 8abf
000003c0: 215e d03e 6701 6fbf 685a 81be f85e 533e
000003d0: c50e 333f eba9 233f a0f8 7abe 17be 243f
000003e0: 0093 ce3b 1a33 28bf cd18 50be 7478 293f
000003f0: 88d8 f0be eaeb 47bf b8c2 533e b0fa 003e
-0.3898738 0.0558568 0.031584263 0.3556456 -0.52527076 0.12059804 0.4500962 -0.4332879
0.20611888 -0.59343916 0.11790472 -0.6734822 0.62265605 0.8921215 -0.6223485 0.14527562
-0.69066733 -0.8252761 -0.21664652 -0.3883598 0.09762761 -0.5098519 0.07077408 0.4744957
-0.33645692 0.5222382 -0.58121437 0.021316707 -0.1676274 -0.67813206 -0.22349395 0.055744745
0.30072674 -0.8556431 -0.28552386 -0.5300418 0.082051076 -0.044523608 -0.4335229 -0.20713371
-0.4708457 -0.4163328 -0.039491598 -0.34110644 -0.36692363 -0.42441687 -0.035067722 -0.6918359
-0.0017834306 0.12277335 -0.49123657 -0.40999407 0.12911008 -0.8988635 0.69482636 -0.09824508
0.25561887 0.122898035 0.74291474 -0.5711593 0.26503688 -0.48528773 -0.42070383 0.13054463
0.5255925 0.14308941 -0.17536479 -0.2669192 0.44669658 -0.390033 0.09816414 -0.5305905
-0.06401962 -0.41470814 -0.5205762 -0.01905145 0.4262805 0.00495086 0.27839637 -0.6284695
-0.05384831 -0.18592347 0.7054692 0.5839996 0.39725357 -0.18162853 0.35185933 -0.9973215
-0.45041203 -0.33287406 -0.3169946 -0.58011454 -0.16908532 -0.1654557 -0.08198715 -1.1328516
-0.51059306 -1.1700407 0.530639 -0.3563365 0.07397195 -1.0838008 -0.12850821 0.42970508
-0.5677386 -0.6973302 0.15793046 -0.32731918 0.3447706 -0.06102276 0.61754775 -0.22042492
-0.6062004 -0.6708847 -0.5184297 -0.43830132 0.65909976 0.13456064 0.6906436 -0.28787664
-0.69464886 -0.58106494 0.5170401 0.58206695 0.1587294 -0.33329138 -0.5645232 -0.48298818
0.6306276 0.3852932 -0.4993557 -1.028702 0.35245702 -0.16768615 -0.004937947 -0.3285323
0.0011339188 0.31319648 0.22778541 0.40874118 -0.10463292 -0.5654617 0.28825623 0.18768737
0.6142084 0.101876676 -0.6203909 -0.06282923 0.08025318 -1.0840815 0.102849185 0.6039919
0.6955504 0.12826878 0.5838725 -0.964691 0.3776373 -0.08823472 0.6092902 -0.9332083
-0.36290616 0.6159056 -0.56802404 -1.1645781 -0.15012363 -0.14266185 -0.33903328 0.2061134
-0.17620128 -0.05101925 -0.008234084 -0.4285542 0.2549322 -0.40129253 0.6505813 0.089247406
-0.73547256 0.3519725 0.03763282 -0.7955169 -0.2477224 -0.223202 -0.20472282 -0.0077964067
-0.45914015 -0.33759695 -0.536515 0.018234853 0.3161587 -0.3933028 -0.36880428 -1.1072141
-0.5004496 -0.026026927 0.6176041 -0.4008307 0.27400407 -0.15371872 -0.089770496 0.3711949
0.054081522 -0.5348574 0.107146144 0.08208132 -0.5715386 -0.67624223 -0.6424965 -0.028332451
0.5962605 0.15170413 0.5711101 -0.93271244 -0.5910286 -0.73493916 0.5155644 -0.866053
-0.39564502 -0.17326653 -0.6214326 0.23800915 0.34493017 -0.28183785 -0.6022383 -1.0759754
0.43812758 -0.12094116 0.3522274 -0.13989729 -0.03842198 -0.95933336 0.35255668 -0.7113358
-0.68737376 -0.3535151 -0.53504014 0.49581128 0.5763732 0.12044963 -0.28777122 -1.0807544
0.40696815 -0.93361515 -0.25264287 0.20641696 0.6994441 0.6393115 -0.24508905 0.64352554
0.006304145 -0.65702975 -0.20321961 0.6619942 -0.470402 -0.7809435 0.20679748 0.1259563

network.0.bias f4 [256]
00000000: d8fb edbd 86ea 12bf 97dc febd 881e 08bf
00000010: 80cc cbbb 7003 09be bead 453e 8194 d2bd
00000020: 41a1 54be 3796 833c a539 103f 0a75 a8be
00000030: 26b4 27bf 2e3d 523e 9b26 16bf 2017 43be
00000040: 8602 253f 875c d63e c89c ee3e c372 25bf
00000050: c2eb 2ebf 4c2d 8b3e 48aa bebe 4f19 de3d
00000060: 5585 03bf 7a98 933e f15e 053f 5915 193f
00000070: db61 603e ec3c d83c b869 893e 1170 ff3d
00000080: a82b b4be d496 c1be 366f 92be 63d0 22bf
00000090: ac96 31bf 6199 05bf ac3a 0a3f f0f8 86bd
000000a0: 97df 913e b7a0 463e 20e7 09bf 0231 c93e
000000b0: 85cd e8be 6824 27bf 62d5 153f 4600 1c3f
000000c0: 3218 093f fdce b6be e5ed 5e3e c075 07bf
000000d0: d6a0 43be 5f82 873e 2eb6 0dbf 28cc 173f
000000e0: 4c50 a93e 5211 2a3d 01f0 17bf e098 cfbe
000000f0: 7cb9 c6be 51d1 a53d 6aef fc3e 18ab a83e
00000100: 345a 48be e573 753e dd7a 823e d2ee 83be
00000110: 7041 94be 684a e2be ec97 1d3e 47ea a53e
00000120: 00b3 59bc 6d95 f1bd 0317 003f 43bf 34bf
00000130: 4141 99be 3ce2 133f 6f9b aa3e 689c 043f
00000140: 6983 51be f91e 0a3e f643 043f 9b1c c1be
00000150: 76f1 0fbf a847 90be 5663 0b3f 3355 82be
00000160: df69 d1be 631a cf3e 9b5d 133f 5c37 1fbf
00000170: ac93 fa3d a245 91bd e96c b53a cdb7 a53d
00000180: 0615 acbd f837 e4be a383 043f e5f8 a3be
00000190: c80f cf3e c271 22bf 4e63 833e ceef 95bc
000001a0: 4b7f 04bf eff2 023f cdbe 5f3e b098 0c3f
000001b0: 5232 9bbd 41af 25bf 27d2 1f3f 38b0 60be
000001c0: 94f0 a3be f0d3 22be 687c d33e 6bd9 033f
000001d0: 1c6c 67be 73bc 1cbf ffe6 dc3e 9178 10bd
000001e0: ba40 003f 72dc 9dbe 42b2 5c3e 779c f7be
000001f0: 783f cfbe f547 55be 5ee7 983e 48ec 8dbd
00000200: 1c20 0fbf 93a0 263f ad62 d03e 8cdb 893e
00000210: 4b93 0c3f ced4 cabe 1e92 1fbf 63da 673d
00000220: cb89 03bd 2355 9b3e 1dc0 8fbe 52a1 b93e
00000230: a725 9e3e c9e9 c2be 776e 843e 8367 12bf
00000240: e9ce 20bf 00a9 0ebe d0ff d0bd 1f1e 5b3e
00000250: b8f5 23be 4bcd 113f 23f1 ce3d 2c8b 18bf
00000260: 9699 2e3e fea7 a23d 7fc7 143e 8355 79bc
00000270: 5581 06bc e09a bcbc 37ad 453e e2df 203f
00000280: 2117 0a3f 35bf 91be 227d 05be 0747 0a3f
00000290: 0032 96bd 6b3f 143f 47b9 e23d 00b5 15bf
000002a0: b638 82be 0a4d 29bf 6faa 0bbf a353 a73e
000002b0: 6b35 cb3e 922a 61be 9620 873e b668 75be
000002c0: f73b a33c d098 543e 175d d4bd 15a9 a93d
000002d0: 08fd 70be 7eaf d23e f1a0 113f 9753 c3be
000002e0: a046 213f 9a57 34bf 3b05 2ebf f652 8d3d
000002f0: 5073 2cbd ee0d f5be d302 103f a40d f3be
00000300: cc0b 2fbf c614 17bf 2c4a 603e 9321 fdbe
00000310: 5e15 c23e b165 82be f049 00bf bb19 123f
00000320: 4844 84bd e6cf 033f 3c45 053f c08b 85bc
00000330: 6fdd de3e dfaf 27bf 9b57 173e 7773 f53d
00000340: 411b 85be 2fc3 d33d 2f51 3fbe 39eb 003f
00000350: fc2a 26bf 380a eebe 5c68 e83e b4be f63e
00000360: ea2b 133e b0b5 cfbe fd58 05bf d080 763e
00000370: a831 23bf 91b5 283e 05c1 04bf 08e7 cc3d
00000380: 73c8 fc3e 2e18 13bf 951a fa3e b8b7 06be
00000390: c1e4 be3e 9624 86be 590b 733e fa20 183f
000003a0: 71b7 063f 21e2 a23e 2c25 55be d7ef 713e
000003b0: 4ad2 5cbe 50a8 023f c7da a23e 0856 3cbd
000003c0: 4c12 22bf 5279 8c3d 345d c0be 1c8b 003f
000003d0: 4b5c 74bd 0ee5 1bbf 3f4d 603e a883 eebd
000003e0: 3028 93bc 3f74 9b3e aa6a 403e 784d 2a3e
000003f0: aaba fbbe ac8c 91be 1cec 2ebf a2a8 eabe
-0.11620301 -0.57389104 -0.12444418 -0.53171587 -0.0062194467 -0.13380218 0.19304559 -0.10282231
-0.20764638 0.016062839 0.5633796 -0.32901794 -0.6550926 0.2053115 -0.5865266 -0.1905179
0.64456975 0.41867468 0.4660399 -0.6462824 -0.6832849 0.27182996 -0.3723929 0.10844671
-0.51375324 0.28827268 0.52097994 0.597982 0.21912329 0.026396237 0.2683847 0.12472547
-0.35189557 -0.37810385 -0.28600472 -0.6359922 -0.6937053 -0.5218716 0.53995776 -0.0659045
0.28490898 0.19397245 -0.53868294 0.39295202 -0.454693 -0.65289927 0.5852872 0.6093792
0.53552544 -0.35704795 0.21770437 -0.5291405 -0.19104323 0.26466653 -0.5535611 0.5929589
0.33069074 0.041520424 -0.5935059 -0.40546322 -0.38813388 0.080965646 0.49401408 0.32943034
-0.1956566 0.23969992 0.25484362 -0.25768143 -0.28956175 -0.44197392 0.15389985 0.32405302
-0.013287306 -0.11796079 0.50035113 -0.7060434 -0.29932597 0.5776708 0.3332171 0.51801157
-0.20460285 0.13488378 0.516662 -0.37717137 -0.56227815 -0.2817967 0.5444845 -0.25455627
-0.40901086 0.4044982 0.57564706 -0.62193847 0.122351974 -0.070933595 0.0013841662 0.08091698
-0.084024474 -0.4457395 0.5176336 -0.3202583 0.40441728 -0.6345483 0.256617 -0.018302824
-0.51756734 0.5115194 0.21850128 0.5492048 -0.07577957 -0.6472054 0.6243004 -0.21942222
-0.32019484 -0.1590116 0.41305852 0.5150363 -0.22599834 -0.6122505 0.43144986 -0.03527123
0.50098765 -0.3083225 0.21552375 -0.4836156 -0.4047811 -0.2082823 0.2986402 -0.06929833
-0.5590837 0.65088767 0.40700284 0.26925313 0.5491225 -0.39615482 -0.6233233 0.056604754
-0.03211383 0.30338392 -0.28076258 0.3625589 0.308881 -0.3806899 0.25865528 -0.57189196
-0.6281572 -0.13931656 -0.10205042 0.21398209 -0.16011703 0.5695388 0.10104587 -0.5958736
0.17050776 0.07942198 0.14529227 -0.0152181415 -0.008209546 -0.023023069 0.19304357 0.6284162
0.5394154 -0.28466192 -0.13036016 0.5401463 -0.073337555 0.5790927 0.11070495 -0.5847931
-0.25433892 -0.6613318 -0.54556936 0.32680997 0.39689192 -0.21988896 0.2639205 -0.23965725
0.019926054 0.20761418 -0.10369318 0.08284203 -0.23534024 0.41149515 0.568862 -0.3814971
0.6299839 -0.7044617 -0.6797673 0.06900589 -0.042102158 -0.4786219 0.5625431 -0.47471344
-0.68377376 -0.5901607 0.21903294 -0.49439678 0.37906927 -0.2546821 -0.5011282 0.5707051
-0.06458336 0.514891 0.5205877 -0.01630199 0.43528315 -0.65502733 0.14779513 0.11984914
-0.25997356 0.10339963 -0.18683313 0.5035892 -0.6490934 -0.4649217 0.4539212 0.4819237
0.1437222 -0.40568304 -0.5208891 0.24072576 -0.63747644 0.16475512 -0.51857024 0.10005003
0.4937168 -0.5745877 0.48848405 -0.1315602 0.372839 -0.26199788 0.23734798 0.5942532
0.5262366 0.31813148 -0.20814961 0.23626648 -0.21564594 0.51038074 0.3180754 -0.045980483
-0.6330917 0.068590775 -0.37571108 0.50212264 -0.05965833 -0.60896385 0.21904467 -0.11646205
-0.017963499 0.30362126 0.18790689 0.16631114 -0.4916585 -0.28427637 -0.68329024 -0.45831782

network.3.weight f4 [256, 256]
00000000: c9de e83d 5499 9ebc 5cb3 943d 58e3 55bc
00000010: 489f 70bd 543d 8e3c a26a a5bd fff9 1bbc
00000020: a924 373c 61a1 c73d baa6 e43c 909c c13b
00000030: 4c6b 563d 0186 83bc 00a2 50ba ac6e 1ebc
00000040: 7eb5 dcbc 0ae4 b1bc bb5c f4bc 3c46 523d
00000050: 643b cf3c a08e 033d 63f2 3bbd e76a 633a
00000060: 502d ee3b c8e0 edbb 89b4 69bb 21db be3c
00000070: 934d 423b 8210 3ebb 4cdb 7b3d f565 233c
00000080: 66b9 0a3d c25e 51bd f44c afbc 0847 283d
00000090: a42b 28bd a8e3 963b eb95 06bd b014 7cbd
000000a0: 0d0a 0cbc 8823 ec3d ae77 613d 8f60 0abc
000000b0: 8f47 d2bc 7480 583d b7d9 8c3c 0894 233c
000000c0: 27da 383d 849f 5abd 6015 a43d 4066 b9bc
000000d0: 369f 743d 0815 4a3c ecf5 bc3c d57b 3b3d
000000e0: bc35 a2bc fbbf 933c 7260 35bd 7ca3 583d
000000f0: 4c42 05be 09a2 f23c a2b9 473d 286f 053d
00000100: 1cef bdbc 2322 5fbc 2652 013e 3896 ce3c
00000110: f06c 773d 882b 04bd 7e00 3b3d f643 f2bc
00000120: f870 203d 982b 6e3d e0c9 95bc 4c4a 7dbd
00000130: 0eac 5c3d 223b 2f3d 0dce 92bc 7480 873c
00000140: 1656 44be 92d8 f33c 5ee6 8c3c c061 b53b
00000150: 0e64 7c3d 92ce 22bd e6de 76bc c826 0d3c
00000160: 27c8 42be a2c1 623d e838 e93b 1a9b 0b3d
00000170: 39cb 8abc a7c2 983c e73e 98bc 5999 d53a
00000180: 2502 513d 1835 033c 2f14 33bc 44c5 5f3d
00000190: 753a 18bd 384b 1b3d f168 933c 2cb2 3f3d
000001a0: c0e3 e63a ce52 f03c 711d 42bc 731a 9bbb
000001b0: b624 f03b 3c7d b03c cb1d a13c 97a7 3d3d
000001c0: 0c72 05bd 7cfa 90bc c618 88bb 75c7 fe3c
000001d0: 3acc 343d 7e92 033d 9118 dd3c c34c 233d
000001e0: 9ea0 b33c 403b 9abc d181 52bd 90e1 2fbc
000001f0: 8cfd b53c 5632 5a3c 23a7 2bbd eed3 1f3d
00000200: 1c13 373d 90fe 493d eb25 bc3b aa7b 5c3d
00000210: c575 4bbd 9070 06bc 307b 8bbc 35f8 803d
00000220: 192a 2f3d 7d60 bc3c 28cc 92bc e7a4 4e3d
00000230: 7c3a 33bd 7cd7 31bd 6194 bb3c e5e5 213d
00000240: 80ff ce3a d836 353d 8045 943a 5c12 02bd
00000250: 0283 063d b902 273b 8477 2bbd 6001 af3c
00000260: be0c 8d3b b9f5 79bd f9a9 f8bc 63c3 d7bc
00000270: b564 04bd f6b9 713d 6298 a23d 09e5 143d
00000280: d2eb 58bd e09e 003d a5b2 763c 997e 50bd
00000290: 387f 7f3d 571e 42bd 7870 e73c 2eeb 62bd
000002a0: ba60 a1bc 1660 47bd 409e cb3c 4309 11bc
000002b0: a56a 12bd ea8b 293d 0a26 ab3d 9838 a53c
000002c0: 597e 83bd 554f 2a3d 584e 30bc 9da4 013d
000002d0: e0fc 46bc 290c 1d3d e759 62bd af32 16be
000002e0: 672c 17bd b8f2 41bc a001 5ebb d1dc d1bb
000002f0: c075 363d 74f2 e73c 1e86 12bb 3e3e 3f3d
00000300: 422d 393d 541d 9f3c fe00 243c f4c3 c4bc
00000310: 1af9 18bc 7cfd 9b3c d271 22bd 1e12 f3ba
00000320: 406f ddbb ff9e 9c3c 8aeb 353d 0292 133d
00000330: 285c 883c a4cb 7a3d 54e5 74be 34dd 873c
00000340: 4e12 1d3d cd28 ccbd 3978 08bd 3d40 953d
00000350: de5a 05bd 6618 23bd 463d d1bc afc0 833d
00000360: 752a 5b3d 982c 29bd b66a 4ebd 28a9 443c
00000370: 56a7 67bd b15e 8f3a 3031 f4bb ad04 a53c
00000380: fa67 003d f42b 48bd 80a9 0cbd d2cf 2b3d
00000390: 8d50 3cbc 10c4 4dbd 2aa7 c83d 2557 863c
000003a0: 696d 5ebd f64b 263d 7c47 0b3d e426 6dbe
000003b0: 800e 1d3b 1d72 d4bb 7bb8 f83c 273b 043d
000003c0: 163a 5b3d 24a6 adbc 9650 2b3d 806e 7b3d
000003d0: a023 633d 9835 893c 4397 f2bc 40f6 98bb
000003e0: de66 c33d baac 08bc 76ca 3fbe bad1 933d
000003f0: 58b8 e4bc bcdb 043d e0af a2bb 84e5 8fbc
0.11370618 -0.019360222 0.072607726 -0.013054691 -0.058745652 0.017363228 -0.08076979 -0.009520053
0.011178174 0.097475775 0.027911533 0.0059085563 0.05234842 -0.016055109 -0.000795871 -0.009669941
-0.026942011 -0.021715183 -0.029829374 0.051336512 0.025296874 0.03211844 -0.045885455 0.00086752925
0.0072685853 -0.007259462 -0.0035660586 0.023297848 0.0029648289 -0.0029001539 0.061488435 0.009973039
0.033868216 -0.05111576 -0.021398999 0.041083366 -0.041057244 0.0046047755 -0.032857817 -0.061543167
-0.008547318 0.115302145 0.055045776 -0.008445873 -0.025668887 0.052856877 0.017193658 0.009984024
0.04512992 -0.053374782 0.080118895 -0.022631764 0.059722148 0.012334116 0.023066483 0.045772392
-0.019801013 0.01803588 -0.04428143 0.052890286 -0.13013572 0.02961828 0.048761018 0.03257671
-0.023185305 -0.013618979 0.12628993 0.025218114 0.060406625 -0.032268077 0.045654766 -0.029573422
0.039170235 0.058147043 -0.018284738 -0.061838433 0.05387502 0.042781003 -0.017920518 0.016540743
-0.19173464 0.029766355 0.017199691 0.0055353343 0.061618857 -0.039747782 -0.015067792 0.008615203
-0.19021665 0.055360444 0.0071173795 0.034083463 -0.016942607 0.018647505 -0.018584682 0.0016296312
0.051027436 0.008008264 -0.010930105 0.054631487 -0.037165124 0.03791353 0.017994376 0.046800777
0.0017615482 0.02933636 -0.01184784 -0.0047333776 0.007328595 0.021544091 0.019667527 0.046302404
-0.032579467 -0.017697565 -0.004153344 0.031100968 0.044140078 0.032122128 0.026989253 0.039868128
0.021927174 -0.01882708 -0.051393334 -0.010734931 0.022215627 0.013317665 -0.04190744 0.03902047
0.04469596 0.049315035 0.005741825 0.053828873 -0.04967286 -0.008205548 -0.017026514 0.06297342
0.042764757 0.022995228 -0.017919615 0.050450232 -0.043756947 -0.043418393 0.022897901 0.039525885
0.0015792698 0.044241756 0.0011312217 -0.03175579 0.032839783 0.00254838 -0.041862026 0.02136296
0.0043044975 -0.061025355 -0.030354487 -0.026338285 -0.032322604 0.059015237 0.07939221 0.036351237
-0.05295927 0.031401515 0.015057241 -0.050901983 0.062377185 -0.047392216 0.028251871 -0.055400066
-0.019699443 -0.04867562 0.024855733 -0.008852306 -0.035746235 0.041393198 0.08356865 0.020168588
-0.06420583 0.041579563 -0.010760866 0.031651128 -0.012145251 0.038341675 -0.05526152 -0.14667772
-0.03690758 -0.011837654 -0.003387548 -0.006404497 0.04454589 0.028313853 -0.0022357772 0.04669022
0.045209177 0.019423164 0.010010002 -0.024019219 -0.009336734 0.01904177 -0.03965933 -0.0018544828
-0.006757647 0.019118784 0.04441408 0.036027916 0.016645506 0.061229363 -0.23915607 0.01658497
0.038347535 -0.0996872 -0.03331778 0.07287643 -0.03255736 -0.03981819 -0.025541913 0.06433236
0.053507287 -0.041302294 -0.050394736 0.012003221 -0.05655607 0.0010938254 -0.0074521527 0.020143831
0.03134916 -0.048870042 -0.034341335 0.04194624 -0.011493814 -0.050235808 0.09797509 0.016398976
-0.05430356 0.040599786 0.03400372 -0.23159367 0.0023964942 -0.00648333 0.030361405 0.032282975
0.053522192 -0.021197386 0.0418249 0.061384678 0.055453897 0.016749188 -0.029613143 -0.004668027
0.09541105 -0.0083419625 -0.18729576 0.072177365 -0.027919933 0.032436118 -0.0049648136 -0.017565496

network.3.bias f4 [256]
00000000: 198c ab3e 966b ac3e dc7e 923e 1b96 ba3e
00000010: 48e8 923e 6295 52bd 93a3 8f3e cee9 b43e
00000020: 5c70 aa3e 1cbd d83c f521 adba 4985 1dbd
00000030: eeca 7d3e ef1e a03e 1aee 3c3d 9c60 a13e
00000040: 7b57 813e 8e45 b83e 0d34 8f3e 24af 9b3e
00000050: ae99 673c ebb7 a93b 28d6 ae3e 5352 ab3e
00000060: c75d dbbc c691 8f3e 6cdb 113c 098a 8a3e
00000070: cfd2 96bc d7f8 9e3e 128a d83c 9649 8e3e
00000080: 818f b13e ee52 36bd 4ac8 853e 84d2 84bd
00000090: ad28 933e b24b 9d3e c828 983e 67d7 acba
000000a0: c9d5 a53e e158 963e 2299 14bc edc2 973e
000000b0: 1473 81bc 1655 713e dcc9 983e a217 eabb
000000c0: 0402 923c 517d 993c 5ec7 b33e 0f00 7c3e
000000d0: c326 5a3b 9862 cabc 47a9 143d 8203 07bd
000000e0: 69df 143d 1ae2 9b3e 43a5 a73e ce60 803e
000000f0: 11a2 a43e 0ed7 fcbc e5fb 1ebd 01cb 493c
00000100: 1e92 f0ba 94c6 833c a09a 6f3c 02c0 8c3e
00000110: f858 a13e 78a6 a63e 6357 aa3e 9510 9e3c
00000120: 06fa 973e f7ac e93d 5a79 b73c 0e6b 903e
00000130: 147e b43e adb5 77bd b71f 923e fa0d 923e
00000140: 8047 aa3e 0b7a 903e 7bbd 933e 67fc b03e
00000150: b862 5cbd fab1 8d3e fd10 e9bc 7a9c b43e
00000160: a4ee 8d3e 1c7d c63c fa92 88bd c0bf 8a3e
00000170: 1c80 a13e fb51 233b 66a9 b83e b266 8a3e
00000180: 6f53 893e ecd0 08bd d19f 803e a24a 9d3e
00000190: 6de7 943e 880b ac3e 4924 f83b 80e0 763e
000001a0: c999 9bbd 04b8 b13e f2d4 ce3c 84c3 a83e
000001b0: e49c 1cbd bfc9 033d 06f9 ab3e 1be1 033d
000001c0: 0f81 a23e 54ba fb3b b8ee 17bd 7ac2 543c
000001d0: 616d 2b3b a88b b63e 2d8a 9b3e bc8f a03e
000001e0: b6c0 b73e 49df 783e 4672 333d 9836 b03e
000001f0: a03e 583c 5ceb ba3e 9f5a 84bc 3bd2 313d
00000200: 122c 153d fd3b a93e 8a64 5e3c 63f2 893e
00000210: b612 3c3d ae0d 9e3e 68e7 a23e 7c41 19bd
00000220: ce49 6b3d 23c4 a63e b930 803c acff 97bd
00000230: 3758 a83e fc13 47bb c33a 1ebd 101c b23e
00000240: cc10 7f3e c91e a53e fbc7 82bd 2a13 46bd
00000250: 9114 aa3e 4910 2ebd 5865 9e3e a93e a33e
00000260: 6c50 8f3e 7021 0e3d 41eb 14bd de0f 573d
00000270: 7404 9d3e 4088 9d3e 0993 34bd c528 a93e
00000280: 455c 9e3e 53e7 8f3c 21a3 413c 32ef 3f3c
00000290: 5c23 2e3b 6b93 efbc 200a 9ebc 48dd 883e
000002a0: 7ccf 883e 446a b83e df59 94bd 4ff4 993e
000002b0: 7e29 13bd 24d9 56bd c491 05bc 5e7d 2fbc
000002c0: 5a64 8e3e cca2 a23e 0a96 8a3e 3749 83bd
000002d0: 146e b33e fde1 c5bc 14f5 a43e 229f 66bc
000002e0: e540 9a3e 6c9e b53e faaf 2dbd f4c0 a33e
000002f0: 1664 26bd b412 903e 2593 b1bc ccbb 8f3e
00000300: b0be afbc eb94 aa3e 85f9 7abc cedb 9c3e
00000310: 7fc4 923e fd53 833e 06bb 9f3e 8335 923e
00000320: 1304 123d 7a9f 983e 9464 1dbd 80af 89bd
00000330: b093 d33c 0af5 feba 58df 22bd 8df3 243d
00000340: 3641 74bd fc20 9e3e ffe4 bb3c 0a89 4ebd
00000350: ca33 6e3e 9a88 633d 6284 3fbc 4a9c 2a3c
00000360: b929 8c3e 566b e43c 264e 8a3e ad2b 893b
00000370: eb13 1d3c 6520 9cbd a331 823e 3eda b43e
00000380: 1a16 d2bc e3a6 503d 6fc7 313c fd56 bb3e
00000390: 4329 f43d 5c1b d2bb 0307 903e 563f 633d
000003a0: 792b b13e 9c2e b33e 543c 013d f246 2fbc
000003b0: 463b 823e 7a35 9a3e ed5b b63e 8a78 363d
000003c0: ec5f b53e 01f7 9e3c 23ee ab3e 9e18 93bd
000003d0: 6b1d 803c 8857 e63c f060 943e 32f9 83bd
000003e0: 95ee a03c d9ff b33e c3b2 ab3e 24ed a13c
000003f0: 956e 843e f8e3 933e 95e5 913e e9c7 ab3e
0.33505324 0.33675832 0.2861241 0.36442646 0.28692842 -0.051411994 0.28054485 0.3533463
0.33288848 0.026457362 -0.0013208973 -0.03845719 0.24784443 0.312736 0.04612551 0.3151902
0.25262055 0.35990566 0.279694 0.3040706 0.014135761 0.0051793954 0.34147763 0.33461246
-0.026778115 0.28040904 0.008902412 0.27058437 -0.018411068 0.31049225 0.026433025 0.27790517
0.34679797 -0.04451268 0.2612937 -0.06485465 0.2874197 0.30721813 0.29718614 -0.0013186753
0.32389668 0.29364684 -0.009069713 0.29640904 -0.015801944 0.23567614 0.29841506 -0.0071439305
0.017823227 0.018736513 0.35113043 0.24609397 0.0033287264 -0.024705216 0.036294248 -0.03296233
0.036345873 0.3044594 0.32743272 0.25073856 0.32154897 -0.030864265 -0.038814444 0.012316466
-0.0018354093 0.0160859 0.014624268 0.2749024 0.3151319 0.3254888 0.33269796 0.019295016
0.2968294 0.114099436 0.022396732 0.28206676 0.3525244 -0.060475994 0.28539822 0.28526288
0.33257675 0.2821811 0.288555 0.34567568 -0.053805083 0.27674848 -0.028450483 0.35275632
0.2772113 0.024229579 -0.066686586 0.2709942 0.31543052 0.002492069 0.3606674 0.27031475
0.26821467 -0.03340237 0.2512193 0.30721003 0.29082814 0.33602548 0.007572685 0.24109077
-0.075976916 0.34710705 0.025248025 0.32961667 -0.03823556 0.032174822 0.33588427 0.0321971
0.3173909 0.007682124 -0.037092894 0.01298582 0.0026157724 0.35653424 0.30378857 0.3135966
0.35889214 0.24303927 0.04381015 0.34416652 0.013198525 0.3650769 -0.016156493 0.043413382
0.03641898 0.3305358 0.013573775 0.2694274 0.04591628 0.30869812 0.31817174 -0.037415966
0.057443433 0.32571515 0.015648233 -0.074218124 0.32879803 -0.0030376902 -0.03863026 0.34787035
0.24908751 0.3225005 -0.063857995 -0.04835812 0.33218816 -0.042496 0.30936694 0.31883743
0.27991045 0.034699857 -0.036357168 0.052505367 0.3066746 0.30768013 -0.044085536 0.33038917
0.3092977 0.017566359 0.011818678 0.011714743 0.0026571369 -0.029245099 -0.019291937 0.26731324
0.26720798 0.36018574 -0.07243704 0.30069205 -0.035928242 -0.052453175 -0.008152429 -0.010711042
0.27810937 0.3176483 0.27067596 -0.06410449 0.3504492 -0.024155611 0.3221823 -0.014076026
0.30127636 0.3547243 -0.042404152 0.3198315 -0.040622793 0.2813927 -0.02167661 0.28072965
-0.021453232 0.3331674 -0.015318279 0.30636448 0.2866554 0.25650015 0.31197375 0.2855645
0.035648417 0.2980917 -0.038425997 -0.06722927 0.025827259 -0.001945169 -0.03976378 0.04027133
-0.059632502 0.3088454 0.022936342 -0.05042366 0.23261943 0.055550195 -0.011689277 0.010413239
0.27375582 0.027883213 0.27012748 0.0041861148 0.009587268 -0.07623366 0.25428495 0.35322756
-0.025645304 0.050940406 0.010850771 0.36589804 0.119219325 -0.006411953 0.2813035 0.055480324
0.3460348 0.34996498 0.031551674 -0.010698067 0.25435847 0.30118924 0.3561701 0.04454855
0.35424745 0.01940489 0.3358012 -0.0718243 0.015639028 0.02811791 0.28980207 -0.064440146
0.019645015 0.35156134 0.33534822 0.019766398 0.25865617 0.28884864 0.2849547 0.33550957

network.6.weight f4 [256, 256]
00000000: 27ef d8bc fb4c 063d b7b7 70bd 5a3f 3ebd
00000010: 63bc 74bd 70b1 1fbd dabf a8bc 69e1 b83c
00000020: 5891 0ebb 689c c63c b397 653d b855 e8bc
00000030: 8e64 4abd d27c c1bb 7836 1e3d 2dea 7dbd
00000040: 52d6 4e3d 47a4 4ebc 857f 47bc 5b91 223c
00000050: 824e 5f3d c064 323c a7de 17bc 31cd 493a
00000060: 9e72 7bbd 9382 cf3c 748f e0bc 045d 8b3b
00000070: 7dee 50bc 3ac9 a83c 740a acbc a203 033d
00000080: ceef 54bd 8290 153d fc9f 99bd 0dfa 03bd
00000090: e0c5 9cbd 3238 1d3d 553f 2dbd e8e8 9f3c
000000a0: 36aa 713c 2367 0dbd 107b 03bc 8bab 8bbc
000000b0: 3b19 47bc a013 103d 023b b5bb 486a 92bc
000000c0: 2c91 7b3d 19c1 ff3c 292b e83c adcc 31bd
000000d0: 5fd3 a63b 3235 273d de4e e53b 542b 843c
000000e0: f985 3dbd 404d 97bd 67fc 4b3c 7739 d5bc
000000f0: aa66 643c 2833 96bc 981c 6cbd 8fc4 53bd
00000100: ddaf 253d 70a1 7dbd 0a60 1fbd db27 f7bc
00000110: a5f0 b63c 6540 9bbc bf0c b93c 36c7 0ebd
00000120: 1218 dfbb e909 2cbd cd90 9b3c 72b9 e03c
00000130: 98fb 4c3c 940e 7ebc 2af5 b03c 8365 5dbd
00000140: 7c04 8bbd 47ce efbc 45b4 b73c 3523 9abc
00000150: cddc a6bc 10d6 6dbb 689c 2b3d 8d33 e5bc
00000160: b82e 7f3c 6f36 183d 6ecf 29bd 5982 71bd
00000170: 1564 35bd 4ea2 b4bb c766 92bd 98c6 53bc
00000180: 2d9d 9dbd 28f7 523d 87aa 48bb c730 8abd
00000190: 1244 1ebd f669 41bd a860 523d 952a bcbb
000001a0: 7091 26bc 3460 54bd 2a71 3dbd 1bed 1a3d
000001b0: a804 073d ec8f 293d cf12 55bd 089f 793c
000001c0: 1322 4ebd 6509 553c f0fd f1bb 27ab 253d
000001d0: f660 2ebd 6e55 1d3d ca68 8e3c 0039 5cbd
000001e0: 6c30 0fbd 82be 96bc 29b1 87bd d477 78bc
000001f0: 30bc 6a3d 6a47 a33c e473 00bd 2e65 1d3c
00000200: 32ff 723d cbab fcbc bab7 023d 91ee 61bd
00000210: cfad 383d 466a 35bb d435 803c f160 0fbd
00000220: 78d3 e7bc 19cd 173b 12b4 373d 90a3 8cbc
00000230: dfe3 033d 0e3c 55bd 2dbd eb3c 6c91 06bd
00000240: bd4c 82bd 6360 c3bb 74b6 983a 9c2b 093d
00000250: 6171 c83c 7454 10bd 7016 02bc fb10 35bb
00000260: bb59 29bd d050 c3bb f8ff 7c3c c44e 2fbd
00000270: 1f5f 543c 281d 4f3c a7b9 9b3c 32c4 3a3d
00000280: a0b9 003d c4d5 80bc 0994 6b3c 39a0 f0bc
00000290: b4ec 473d fd14 803c d425 cc3b 570b 273d
000002a0: 3410 43bd 03de 04bd 2e3f 6b3d 38f8 49bd
000002b0: 608a b8bc 7037 03bc 80d1 76ba 2041 bf3c
000002c0: fe87 28bd 94b5 943c 775e eabc 7ce5 1a3d
000002d0: ec97 4b3c 824f d53b 4eed 0f3b dff7 80bc
000002e0: dd8e b53c dbda 2a3d 62b4 1fbd 794b 5abc
000002f0: 3dd3 673d d937 02bd 0346 923c 0bd3 92bd
00000300: 4037 e13c f1cf 42bd 522a 7abd ff00 00bd
00000310: 2b69 0c3d 415f d0bc a6aa c03c 5165 95bc
00000320: b85d e83c 0a3f 3cbd 6ef9 51bd fea8 1f3d
00000330: 90c0 e4bc 9648 173d 70ec 9d3b 88b0 903b
00000340: fac9 2dbd 4fd2 90bd 14aa fbbc 8841 3f3c
00000350: 6d91 533d ec77 87bc 9432 453d e977 1cbd
00000360: 28b2 dabc 69ce e33a e54a 303c 1f18 7cbb
00000370: 5057 71bc 8cfe 003d a8a0 ae3c 0c2d 9dbb
00000380: 0597 14bc 38b8 07bc d4a4 adbc 0af4 92bd
00000390: a348 41bd 1c8a debc 5d81 133d 8380 1fbd
000003a0: 3c9d 203b e90f 1eba 901a 403d d8ba 0fbd
000003b0: f3ac 68bd da34 2b3c 1cda 16bb d813 febc
000003c0: 9270 6bbc 1c07 8abc 6bba 903a 9000 c93c
000003d0: dd40 86bd 7811 a9bc d5fb 8abd 786c 4bbc
000003e0: 1fdc debc 3ade c73a 1b29 e9bb 8c53 4bbd
000003f0: bda2 ef3c 801d ccbc 5603 9ebd d7e0 05bd
-0.026481224 0.032788258 -0.058768954 -0.046447136 -0.059749972 -0.038987577 -0.020599294 0.022568421
-0.0021754112 0.024244502 0.056052875 -0.028361186 -0.049412303 -0.0059047723 0.038626164 -0.061990906
0.05049736 -0.012612409 -0.012176399 0.009922351 0.05451823 0.0108882785 -0.009269393 0.00076981174
-0.061388604 0.025330817 -0.027412154 0.0042530317 -0.012752173 0.020603765 -0.021001078 0.031985886
-0.051986508 0.036514767 -0.07501218 -0.03222089 -0.07654929 0.03838367 -0.042296726 0.019520238
0.014750054 -0.034522187 -0.008024946 -0.017049571 -0.0121520115 0.035174966 -0.005530716 -0.017872944
0.061417744 0.031220006 0.028340893 -0.043408085 0.0050911154 0.040822215 0.006997927 0.016133942
-0.046270344 -0.07387781 0.012450314 -0.026028378 0.013940493 -0.01833494 -0.057644457 -0.051701125
0.04045092 -0.061921537 -0.03890995 -0.030170372 0.022331545 -0.018951604 0.022589086 -0.03485795
-0.0068082893 -0.04200164 0.018989945 0.027432177 0.0125111565 -0.015506405 0.021601278 -0.054051887
-0.06787965 -0.029273165 0.022424826 -0.018815616 -0.020368958 -0.0036290921 0.041897207 -0.027978683
0.015575103 0.037161287 -0.041457586 -0.0589622 -0.0442849 -0.0055125123 -0.071485095 -0.012925766
-0.076959945 0.051505238 -0.003061922 -0.06747585 -0.038639136 -0.047220193 0.05136171 -0.005742381
-0.010166511 -0.05184956 -0.0462505 0.037823778 0.032963425 0.04139702 -0.05201989 0.01523567
-0.050325464 0.013002728 -0.007385008 0.040446427 -0.042572938 0.03841155 0.017383952 -0.053765297
-0.034958288 -0.018401388 -0.066255875 -0.015165288 0.057308376 0.019931514 -0.031360522 0.009606643
0.059325404 -0.030843636 0.031913497 -0.055159155 0.04508763 -0.0027681752 0.015650667 -0.03500456
-0.028299078 0.002316302 0.044849463 -0.017167836 0.032199737 -0.052059226 0.02877673 -0.03285353
-0.06362293 -0.005962418 0.0011651055 0.033488855 0.024468126 -0.03523679 -0.00793992 -0.002762853
-0.04134534 -0.0059605613 0.015441887 -0.042799726 0.012962132 0.012641229 0.019009424 0.045597263
0.031427026 -0.015726931 0.014378556 -0.029373275 0.048809722 0.015635008 0.0062300954 0.0407823
-0.047622874 -0.03243829 0.0574333 -0.049308985 -0.02252692 -0.008008823 -0.0009415373 0.023346484
-0.041145317 0.01815299 -0.028609497 0.03781651 0.012426358 0.006509722 0.0021961513 -0.015743194
0.02216285 0.041712623 -0.038990386 -0.013323658 0.056597937 -0.03179154 0.01785565 -0.071691595
0.027492166 -0.04756159 -0.061075516 -0.03125095 0.034279983 -0.025436046 0.023518872 -0.018236788
0.028365001 -0.045958556 -0.051263265 0.038979523 -0.027923852 0.036934458 0.0048194453 0.0044155754
-0.042428948 -0.07071363 -0.030720748 0.011673339 0.05165236 -0.016536675 0.04814394 -0.038200293
-0.02669628 0.0017380241 0.010760044 -0.0038466526 -0.01473029 0.031492755 0.021316841 -0.00479663
-0.009069209 -0.008283667 -0.02119676 -0.07175453 -0.047188412 -0.027165465 0.036012042 -0.038940918
0.0024507781 -0.00060295925 0.046900332 -0.035090297 -0.056805562 0.0104496125 -0.0023018187 -0.031015322
-0.014370101 -0.016849093 0.0011041885 0.024536401 -0.065553404 -0.020638213 -0.067863144 -0.012415998
-0.027204571 0.0015248724 -0.007115496 -0.049640223 0.029252404 -0.02491641 -0.0771548 -0.032685127

network.6.bias f4 [256]
00000000: ab98 973c 9fb5 203f 7b0a 9f3c 82ba 1d3f
00000010: c308 0b3c 10a6 2d3f 8915 91bc 3327 03bc
00000020: e2ac 143f 106c 623d 36d2 82bd 4bcb 483d
00000030: dc1d 23bd c285 093f 932a 1b3f e757 1a3f
00000040: 935c 65bb 3940 1fbc e58d 2f3f d44d a1bd
00000050: f585 203f 00bd 19bc e579 fcbc e0b4 193f
00000060: 42e2 9bbd 0c61 d63c 2549 183f da81 2a3f
00000070: 860a 3dbd 56de 03bd 77fa 7e3c ecd5 193d
00000080: 23b7 213f 62c2 0d3f eeff 143f fc81 143f
00000090: e407 283f 4d92 2d3f f8cc 413d 3101 263f
000000a0: 31bf 1a3f b7cc 293f 7f2a 233f 6bf5 153f
000000b0: 6c87 3c3d 6bea 263f 7482 1d3d 3160 0c3f
000000c0: dca1 243f 1ecb 0f3f 2c5a 533d 6dc3 0f3f
000000d0: bafc 75bd bf92 193c 51b3 91bb d0a3 17bb
000000e0: 2260 d13e 0a2f 1e3f da87 cebc 26e3 2ebd
000000f0: 0afe 11bd a20e 89bd 3f56 3f3d 7e62 68bc
00000100: 0ad2 293f 289b 163f d9ef 15bd 0be7 53bd
00000110: 0406 16bd cb8b 0e3f 0afa 303f 6d27 2a3f
00000120: 93af 95bd a552 b2bc a1a4 253f 16f7 8cbb
00000130: 5d83 51bd ba29 6c3c 99a2 1e3f a6ff 2c3f
00000140: aa6f f73e 9633 b23c a424 f83c 2e31 1b3f
00000150: 698d a73c ad96 163f 62b1 0a3d 5c1b 3e3d
00000160: fecf 16bd d757 333c 9c81 393d 79f9 963b
00000170: d985 2a3f f81d 75bd 820f 1bbd d38f 1d3c
00000180: 36be dc3e 02ac 0b3f 0fd9 21bc 10f1 40ba
00000190: afcd 3bbd 4026 1f3f e816 163f 5cc4 08bd
000001a0: 0f6c 38bd d537 f63c 5b53 993d 4369 ec3c
000001b0: a9d8 82bc ffa1 7cbd 9089 043f 263d 8f3d
000001c0: ed1b 9bbd 1060 253f 44dc 87bd df6c 4dbd
000001d0: bcd1 1e3f 49cd 103f 066f 273f fc78 0f3f
000001e0: 2b59 083f b8a4 313f 1c7f af3c 3539 3ebd
000001f0: bd46 033d b420 c4bb 52c0 813c 3dc8 7e3c
00000200: 423b 193f 65cf 1a3f 7dc1 8abd ef05 c8bc
00000210: 4043 3b3d 6a4a aabb b88d 1f3f 4652 82bb
00000220: a1f5 4ebd 630b 8ebc 2e00 503c a065 1f3f
00000230: 96d1 083f 2cb2 223f be61 0b3d 8304 293f
00000240: 6f27 4c3d 9876 413d c07f 2a3f 2ce4 143f
00000250: d83e 2a3f 6ff9 1f3c 362d 113f 9b9a 253c
00000260: 9042 65bd fd9e 52bd c338 cebc 4e13 0e3f
00000270: 0904 6a3c 8d26 113f 9185 283f 969a 8cbb
00000280: ce61 043c becb 1e3f d8de 2c3f 24a4 043d
00000290: a61f fb39 d6c8 6ebc 4b90 9ebc 6c08 343d
000002a0: 7db9 1c3f 75a5 e0bc a441 1c3f 35b9 173f
000002b0: 6524 8dbd ee8f d93e e4e4 013f d349 483d
000002c0: 613e 3b3c 4ee9 693b 5723 d03b 16c2 253f
000002d0: 7abd b7bc eb91 163f c134 1e3f 62c2 19bd
000002e0: 6823 78bd 59e9 133f 9c39 703c eb06 0f3f
000002f0: 7462 0b3f ebdf 133f 87e7 273f bf5d 4fbb
00000300: 5cc4 c3bc 26ce 47bd 7f3c 7fbc 8cf3 343f
00000310: b067 4abd fce3 84bd adb1 293f 48eb 2d3f
00000320: 2a7f 26bd 4a03 56bd 29ac b6bc 2d0d 84bd
00000330: c8b1 063c 814d 4d3b 4af3 0d3f 80b9 093d
00000340: 467d 293f c151 153d 9e6d 53bd 1949 45bd
00000350: 28f1 123f c0fb 523d 7a72 1d3f 2385 d83c
00000360: b9f8 103f 43c8 01bd ae96 ed3c ba67 1a3f
00000370: 67e2 7ebd d1f7 09bc c3af 1d3f a157 1d3f
00000380: 2e8f 42bc e5a1 76bd da64 323f d75b 183f
00000390: d911 f2bb e0fd fcbc 2f5e 2b3f af34 293f
000003a0: b339 163f 4a39 84bd d389 793c 407d 313b
000003b0: b190 163f c5ff 273f 2af9 25bd 8dfe 183f
000003c0: fb75 57bd 2c05 7ebc d3f4 aebb 0aa8 41bc
000003d0: 2004 f23e 8c0d 9c3b a137 433d 5ba4 19bd
000003e0: 3b67 313f c693 0bbc a1ac 9cbd 505b 233f
000003f0: 7483 e33b f163 32bd dc55 193f 5e91 4dbd
0.018505415 0.6277713 0.019414177 0.61612713 0.008485976 0.67831516 -0.017710464 -0.008004951
0.580763 0.055278838 -0.06387751 0.049022 -0.039823398 0.53719723 0.6061184 0.6029038
-0.0034997805 -0.009719902 0.6857589 -0.07876173 0.627044 -0.00938344 -0.030819843 0.6004162
-0.07611515 0.026169322 0.5948661 0.6660439 -0.046152614 -0.032194458 0.015562645 0.037557527
0.6317007 0.5537473 0.5820302 0.5801084 0.6563704 0.6780136 0.047314614 0.6484557
0.60447985 0.66327995 0.6373672 0.58577603 0.046027586 0.65201443 0.038454488 0.54834276
0.6430948 0.5616931 0.051599666 0.5615757 -0.060055472 0.009373366 -0.004446425 -0.0023138411
0.40893656 0.61790526 -0.025211263 -0.042697094 -0.03564266 -0.06692244 0.04671311 -0.014183639
0.6633612 0.588305 -0.03660569 -0.05173401 -0.03662683 0.5568206 0.6913153 0.6646641
-0.07308879 -0.021767924 0.6470433 -0.004301916 -0.05115067 0.014414245 0.61966854 0.6757759
0.4832738 0.021753114 0.03029091 0.6062192 0.020453172 0.58823663 0.03386057 0.04641281
-0.03681945 0.010946236 0.04528962 0.004607376 0.66610485 -0.059843034 -0.037856586 0.00961681
0.4311387 0.5455934 -0.009878411 -0.000736014 -0.045850452 0.6216774 0.586287 -0.033390388
-0.045024928 0.03005592 0.07486602 0.028858786 -0.015972452 -0.06167793 0.51772404 0.06994085
-0.07573686 0.64599705 -0.06633809 -0.050152656 0.6203878 0.5656324 0.65403783 0.5604398
0.5326106 0.69391966 0.021422915 -0.046441276 0.032049883 -0.005985344 0.015838776 0.01555067
0.59856045 0.6047271 -0.06775186 -0.024416892 0.04571843 -0.005196859 0.6232562 -0.003977093
-0.05052722 -0.017339414 0.012695355 0.6226444 0.534448 0.6355312 0.03402876 0.6602251
0.049842294 0.04723224 0.6660118 0.5816066 0.6650214 0.009764059 0.5670961 0.010107662
-0.055971682 -0.051421154 -0.02517355 0.55498207 0.014283189 0.5669945 0.65828806 -0.004290889
0.008079959 0.62029636 0.6752753 0.0323831 0.0004789803 -0.01457425 -0.019355914 0.043953344
0.6122053 -0.027422646 0.6103766 0.5926698 -0.06891707 0.42492622 0.50739884 0.04889853
0.0114284465 0.003569204 0.006351869 0.64749277 -0.022429217 0.58816403 0.61799246 -0.037538894
-0.06058064 0.57777935 0.014662173 0.5586993 0.544471 0.57763547 0.6558766 -0.003164157
-0.023897342 -0.048780583 -0.015578388 0.70684123 -0.04941529 -0.06488797 0.66286737 0.67937136
-0.040648617 -0.05224923 -0.02229889 -0.064478256 0.008221097 0.0031326714 0.55449355 0.033624172
0.6620678 0.03645492 -0.05161821 -0.048165414 0.57399225 0.05150962 0.615028 0.026430672
0.5662952 -0.031685125 0.029002514 0.60314524 -0.062227633 -0.0084209 0.61596316 0.61461836
-0.011874957 -0.06021299 0.6968514 0.59515136 -0.0073873815 -0.030882776 0.6694059 0.66096014
0.5868179 -0.064562395 0.015230614 0.0027082711 0.5881453 0.6562465 -0.040520824 0.59763414
-0.05260275 -0.015504163 -0.005339244 -0.011819849 0.47268772 0.004762357 0.047660474 -0.037510257
0.6929814 -0.008519119 -0.07650114 0.63811207 0.0069431607 -0.043552343 0.59896636 -0.05018746

network.8.weight f4 [3, 256]
00000000: 0c88 0d3c e565 c6bd 1969 91bc 61d4 95bd
00000010: 7972 adb9 4f25 69be 4cb6 60bc 2dec 293d
00000020: f36a cebd 82aa da3c deab 3bbc 6b3f d83b
00000030: 8c18 03bc 83b9 94be c428 aabd f171 94bd
00000040: a6f1 f33b dde5 22bc 8876 88bd 3251 423c
00000050: ec8b afbd 6f05 3f3d 5d0e 8f3c 0939 9cbd
00000060: 60fb 163d 17c5 1abb e123 a2bd 400d 8abd
00000070: c1e1 3d3d 5d05 7fbd 7c39 1fbc 12ac a43b
00000080: f107 b5bd 1042 bdbd e041 a0bd 84d1 47bd
00000090: 7931 38bd 77da 9bbd 9693 113d 812a b9bd
000000a0: e721 a7bd a8c4 f7bd 2bd6 37bd 92cf d9bd
000000b0: 6c83 d43c 7cc7 f1bd b864 363d ef80 81bd
000000c0: 353f debd 2ab1 86bd 1ad7 e63c 8757 d7bd
000000d0: b541 aebc 73a1 0bbd b681 5f3d 2253 90ba
000000e0: f537 93be fc1b 71bd b0f8 aabc 06d8 383d
000000f0: f8f2 473c 1a56 a33c c865 dcbb 7bfa d8bc
00000100: 71eb 3cbd 02a7 c2bd 0782 43bd fbee 1f3d
00000110: 62fa b5bc 36f5 0bbe d10f e4bd 3219 53bd
00000120: 7c9e 35ba c74c 0c3c 1a4e b2bd 4a31 fabc
00000130: b999 40bd e513 3a3d 9f4e 4fbd c888 b7bd
00000140: 4b08 8dbd 1a86 51bc 30b7 edbc 7ece 98bd
00000150: 2dd3 233d 7659 49bd b8fd f0bc 62f0 283d
00000160: 2054 e63c 67f4 883c 6fff 33bc b68b 2a3c
00000170: 7cf1 a5bd b413 213d d8fc 82bc 8a2c 90bd
00000180: 9891 6fbe 01ee c3bd 0e35 0c3c 782f 78bc
00000190: b13d 9e39 3279 f3bd d5a8 87bd 0061 ecbb
000001a0: c4ff a73b 0e48 223d 1b37 b8bc 6d81 0c3d
000001b0: d877 19bd 4d65 603c 7e31 e0bc 9424 3bbc
000001c0: bd6b 813c 35bc eabd b497 f63a 50a2 5bbb
000001d0: e8f8 e7bd f430 35bd cb1a 8bbd 92d5 2cbd
000001e0: a465 7dbd f104 bebd 8e1a 3d3d 69d0 51bd
000001f0: b4c4 523d 299b d13c ce46 28bd 2f78 fabc
00000200: 7f63 84bd a6ed a8bd 72b0 203d 728c 6d3d
00000210: 59ed 84bc bb21 823c d810 74bd 6b76 59bd
00000220: a2dc 513d 557d b3bc efb0 0d3d f32d a1bd
00000230: c940 7ebe e7e7 dabd 89fd 4d3d 6754 ebbd
00000240: 4dad 743c 4020 ef3c 80e4 85bd a52a b5bd
00000250: bbfe cbbd 4726 3e3d afe2 51bd 043f b5bc
00000260: 009e 783b 7638 2f3b 88f3 983c 3cc0 51bd
00000270: db92 80bd 38ea 75bd 3ffd 4abd 8c0b 56bd
00000280: 6612 36bc 2549 85bd d06f d6bd a7f0 043a
00000290: d29a 7ebc 33a3 da3c 5058 183d 5837 813b
000002a0: 5396 bebd eade c2bb 2860 acbe 48a0 b3bd
000002b0: 6f64 0abd ef80 29be 5405 a7bd ceba b43c
000002c0: 2cf8 303d 454c c23c fab7 1ebd defc 45bd
000002d0: 4cbd 673c 5696 a9bd 8fbb 3abd bc6d 06bd
000002e0: 114e 233a 1bad dbbd afbf e23b ba04 94bd
000002f0: df6a b9bd da0e 4bbd de00 d6bd 7215 18bd
00000300: cc48 3c3d 742c 283d cf87 4abd 858d 8cbd
00000310: 7abd f1bc 904e b2bc 0ded 3fbd ff29 bcbd
00000320: 73cf 68bb 32de 393d 448d e33b bb50 3f3d
00000330: de16 523d 3b1d fa3b a45d 2ebd 1b9f e6bb
00000340: 8b42 8fbd c6ef 43bc 8a04 1ebd a963 f23c
00000350: 023e 74bd 0c68 00bc 4d24 e5bd a416 493c
00000360: 2b3f b4bd df80 2f3c 2633 313d fcad abbd
00000370: 2241 423d 23c9 e0bb 5da0 acbd 8385 88bd
00000380: f969 b63c 16f7 ed3c 1e76 a6bd c7de edbd
00000390: f171 6e3c b3ec 833c fd15 b2bd 8a61 9abd
000003a0: f865 aabd 5726 1abd aa1a 48bd 588c eb3c
000003b0: e774 08bd 1c76 d9bd 7bef 293d 7520 c8bd
000003c0: be5b 293d 5656 8db9 bcee fc3c c33d c9bc
000003d0: 10e8 87be 6277 1abd e874 793c 6f48 c43c
000003e0: 4bf1 83bd 53c8 3abd 26dc 81bb 81ae 93bd
000003f0: c008 f4bb a670 14bd 3121 e0bd 7ceb 80ba
0.008638393 -0.096874036 -0.01775031 -0.07315899 -0.0003308242 -0.22768138 -0.013715338 0.041485
-0.10078993 0.026692633 -0.011454551 0.006599357 -0.008001458 -0.29047784 -0.08308557 -0.07248295
0.007444578 -0.009942499 -0.06663233 0.011860179 -0.0857161 0.04663604 0.017462904 -0.07628066
0.036860824 -0.002361601 -0.079169996 -0.067408085 0.046357874 -0.062260974 -0.009718295 0.005025395
-0.08839405 -0.09241116 -0.07825065 -0.048783794 -0.044969056 -0.07610028 0.03554114 -0.0904131
-0.08160763 -0.12098056 -0.04488198 -0.10635294 0.025941573 -0.11805627 0.044529647 -0.0632342
-0.108518995 -0.0657676 0.02817874 -0.105147414 -0.021271566 -0.034089517 0.05456706 -0.0011011104
-0.2875363 -0.05886458 -0.020870537 0.04512789 0.012203924 0.019938517 -0.0067260005 -0.026486626
-0.046122972 -0.095045105 -0.047731426 0.03904627 -0.022214118 -0.1366776 -0.11135829 -0.0515377
-0.0006928218 0.008563227 -0.08706303 -0.030541081 -0.0470216 0.04542913 -0.05061209 -0.08961636
-0.068863474 -0.01278832 -0.029018015 -0.0746126 0.039996315 -0.049157582 -0.029417858 0.041244872
0.028116286 0.016718103 -0.010986193 0.010409286 -0.081027 0.03932543 -0.015989706 -0.07039745
-0.23395383 -0.0956688 0.008557571 -0.015148036 0.00030182072 -0.118883505 -0.06623999 -0.0072137117
0.005126925 0.039619498 -0.022487214 0.034303118 -0.037467808 0.013696027 -0.02736735 -0.011422295
0.015798444 -0.11461679 0.0018813522 -0.0033513494 -0.11326772 -0.04423614 -0.0679222 -0.042195864
-0.06186451 -0.09278286 0.046167903 -0.051224146 0.051457122 0.025586681 -0.04108315 -0.030574886
-0.0646429 -0.08248453 0.03923077 0.057995267 -0.016226457 0.015885225 -0.059586376 -0.053091448
0.051235802 -0.021910349 0.034592565 -0.07870092 -0.24829401 -0.10688763 0.050290618 -0.11490708
0.014933896 0.029190183 -0.065377235 -0.088460244 -0.09960695 0.046423223 -0.051241573 -0.022124775
0.0037935972 0.0026736534 0.018670812 -0.05120872 -0.062780105 -0.06003782 -0.04955792 -0.052257106
-0.011112785 -0.06508092 -0.10470545 0.00050712604 -0.015539842 0.026689148 0.037193596 0.003943365
-0.09306016 -0.0059469836 -0.3366711 -0.087708056 -0.033787187 -0.1655309 -0.08155313 0.022061732
0.043205425 0.023718009 -0.038749672 -0.048336856 0.014144253 -0.082806274 -0.045589026 -0.032819495
0.00062295893 -0.107263766 0.006919823 -0.07227464 -0.09053587 -0.04957471 -0.10449384 -0.037129827
0.045967862 0.04105802 -0.049445923 -0.0686293 -0.029509295 -0.021765977 -0.04685693 -0.091876976
-0.003552404 0.045377918 0.0069443304 0.04670785 0.05129134 0.007632879 -0.04256977 -0.00703801
-0.06995114 -0.011959022 -0.038578548 0.029588537 -0.059629448 -0.007837307 -0.111885644 0.012273464
-0.08801111 0.010711878 0.04326167 -0.08382794 0.047425397 -0.006859915 -0.08429024 -0.0666609
0.022267329 0.029048484 -0.08127998 -0.11614757 0.014553533 0.016104078 -0.086956 -0.07538135
-0.0832023 -0.03763422 -0.048853554 0.028753445 -0.03331461 -0.10618231 0.041488152 -0.09771816
0.041347258 -0.0002695794 0.030875556 -0.024565583 -0.26544237 -0.03771151 0.0152256265 0.02396032
-0.06442507 -0.0456012 -0.0039630113 -0.07211018 -0.007447332 -0.036240242 -0.10943831 -0.0009835805

network.8.bias f4 [3]
00000000: a78d d6be 6ffb 06bf c2fd d5be
-0.41904947 -0.5272741 -0.41795164
