mountaincar_cl_project/runs/progressive/egp/seed_2/online_stream_model.pth (torch, 536437 bytes, 8 tensors)

network.0.weight f4 [256, 2]
000000 97 22 d4 3c 56 b1 e2 bf 3b ac 1b 3f 48 dd f4 3f
       0.0258954 -1.7710369 0.6080968 1.913003
000010 36 7b a2 3e b5 d8 34 bf 20 59 94 3e 59 7d 26 c0
       0.31734627 -0.7064317 0.28974247 -2.6014006
000020 c4 c1 4f be 72 2d 71 be 86 fc b2 3e ba 6f 93 3e
       -0.2028876 -0.23552492 0.34958285 0.28796178
000030 27 41 b6 be c5 55 3a 3f 00 d0 d2 39 be cb 98 be
       -0.35596582 0.72787124 0.00040209293 -0.29842943
000040 91 27 d7 3e 65 f1 1a 3f 86 1a 47 3e 06 f4 12 40
       0.42022374 0.6052459 0.19443712 2.296144
000050 8c 75 61 be 37 d2 04 3f 14 00 19 be d2 67 98 be
       -0.22017497 0.5188326 -0.14941436 -0.2976671
000060 e3 05 5b 3f 44 fd ae 3f 58 13 24 3e fc 7c fa bf
       0.8555586 1.367104 0.16023004 -1.9569392
000070 14 60 12 3e 80 bc 08 40 8e 0f 4b 3e cb bf d6 3f
       0.14294463 2.1365051 0.19830152 1.677728
000080 a2 34 31 3f 0d 33 73 3f 66 e2 f2 3e 13 d5 2a bf
       0.69220936 0.9499977 0.47438353 -0.66731375
000090 ab e7 25 3f 8d 8c c1 be 3b cf ec be 72 24 d2 bf
       0.6480662 -0.37802544 -0.46251854 -1.6417372
0000a0 3d 13 ea 3d 14 18 99 bf 94 33 24 be e2 5d 88 be
       0.11429451 -1.1960473 -0.160353 -0.26634127
0000b0 e0 10 a7 3d 4b 2e 26 3f d9 ca 60 be eb 97 2e c0
       0.081575155 0.6491439 -0.2195238 -2.7280223
0000c0 df 4a c2 3e 94 26 f8 bf a5 1d 93 3e 2e 64 0c 40
       0.37947747 -1.9386773 0.28733554 2.1936145
0000d0 d3 e8 9c 3e ec ea 4e bf a8 37 e9 3e 71 a1 cf 3f
       0.3064638 -0.8082721 0.45550275 1.6221143
0000e0 f8 8a cb bd fb 0c b7 be 20 2d a3 3e 2d 8a 18 c0
       -0.099386156 -0.3575209 0.31870365 -2.3834336
0000f0 e0 07 ad bd 50 11 32 bd 62 92 f0 be 4f 97 08 bf
       -0.08448768 -0.04347354 -0.4698668 -0.5335588
000100 f6 9a ef bb 5e f0 f9 bf c9 78 bd be 4f ad 4b bf
       -0.007312174 -1.9526479 -0.37006214 -0.7956132
000110 b9 8d 1c be d8 a7 13 3f b2 de ff be 0f 41 12 bf
       -0.15288438 0.57677984 -0.4997459 -0.5713052
000120 5b b2 2c 3f f5 27 09 3f 71 bb 03 3f 12 9f c6 3f
       0.6745965 0.53576595 0.5145789 1.5517294
000130 27 54 cc be 3d 69 f6 be b2 8a a7 3b b5 8f eb bf
       -0.39907953 -0.48127165 0.0051129693 -1.8403231
000140 0c e3 68 3e a7 7d 12 3f 6c 56 91 3e f1 d7 2d 3f
       0.22742862 0.5722298 0.28386247 0.67907625
000150 02 b2 bf 3d f0 d5 15 c0 2d 5a 07 3e a6 91 7b bf
       0.09360124 -2.3411827 0.13217993 -0.98269117
000160 be 64 9d bd 7c 77 f2 bf 62 3e fe 3d 36 6d b8 3f
       -0.07685231 -1.8942714 0.12414242 1.4408329
000170 9e 5a 00 3e 3c b2 f0 3f 28 4c b5 bd cf 6d a7 be
       0.12534568 1.8804393 -0.08852416 -0.32700965
000180 88 55 99 3e b0 cd 92 bd 97 21 7f 3d 9e 8e 37 c0
       0.29948068 -0.07168138 0.062287893 -2.8680797
000190 82 52 18 be 50 e2 3d c0 2a c5 46 bf 28 bd 7d 3e
       -0.14875224 -2.966938 -0.776446 0.24779189
0001a0 20 5a 65 be b8 9e 6d be 87 3d 0c bf aa 38 1c 3f
       -0.22397661 -0.23205078 -0.54781383 0.6102396
0001b0 c2 eb f7 3e 2c f7 32 3e 64 a2 2a 3f 48 92 2b bf
       0.48422056 0.17477101 0.6665404 -0.6702008
0001c0 ad 6d 48 3f dc b7 25 3f c3 4c 3c 3e 73 94 b7 bf
       0.7829235 0.6473367 0.18388657 -1.4342178
0001d0 7f b7 05 3f 73 62 19 40 fd 00 96 3d b9 1f eb bf
       0.5223312 2.3966339 0.07324407 -1.8369056
0001e0 82 fa 92 3e c3 1e d0 bf b8 0b 85 3e ac a7 7c be
       0.28706747 -1.6259388 0.25985503 -0.24673337
0001f0 15 f8 44 bc 50 14 f5 bf 38 1b 5f 3e 3d f4 99 3f
       -0.012022038 -1.9146824 0.21787727 1.2027661
000200 56 5c 2f 3e c1 94 ee bf df cf 0a bf b5 2e 93 3e
       0.17125067 -1.8639146 -0.54223436 0.28746572
000210 59 16 76 3d 04 af 0c c0 38 8c 22 3e a2 72 e8 3e
       0.060079906 -2.198182 0.15873802 0.45399958
000220 b1 dc b5 3e fa 27 93 bf 6c 0c 13 3f 70 9b 93 3f
       0.35519937 -1.1496575 0.5744083 1.1531811
000230 56 b1 e8 3e b3 dd 07 3f f9 33 e2 3d c3 40 d1 bf
       0.45447797 0.5307266 0.11045069 -1.6347889
000240 21 64 5d bd 38 ae c2 bf e0 26 5f bd 06 5c 2a bf
       -0.05405057 -1.5209417 -0.054480433 -0.66546667
000250 7e dd e7 3e 07 f7 b8 be 2a 5b ea 3d 93 76 b9 3f
       0.45286173 -0.36125967 0.114431694 1.4489311
000260 73 4d 29 3e fd 34 74 3e c3 32 13 3f 28 76 46 be
       0.16533451 0.23848338 0.5749933 -0.1938101
000270 34 09 02 3e 00 e7 6a 3f 65 6b 2e 3e 62 e8 ae bf
       0.12698823 0.9175873 0.17033155 -1.3664668
000280 e9 20 b3 3c bc 5b 35 c0 9c 41 b0 bc 8d 3c bf bf
       0.021866279 -2.833724 -0.02151566 -1.4940354
000290 09 ce 79 be 69 fc e8 bf 45 83 cd 3c 5f e1 28 c0
       -0.24395002 -1.820203 0.025087008 -2.6387556
0002a0 4d 96 a1 bd 6f c5 45 c0 4d de 5e 3f 97 0f e4 3e
       -0.07889996 -3.0901754 0.87057954 0.44543144
0002b0 9f d3 6f 3d e2 1b 11 c0 2e ec ab 3e 62 44 ff 3e
       0.058551427 -2.2673268 0.33578628 0.4985686
0002c0 8a 96 58 3d 1c 13 fb bf d6 11 ee 3e d9 1d 28 3f
       0.05287794 -1.9615207 0.46497983 0.65670544
0002d0 25 9c 0f 3f a3 74 c8 be 3e 2c 66 be 12 0f b2 3e
       0.5609763 -0.39151487 -0.22477815 0.34777123
0002e0 6c d2 6d 3e c5 29 5a 40 b5 e5 ab 3e d2 89 12 3e
       0.23224801 3.4087994 0.3357369 0.14310387
0002f0 6a 98 7d 3e e4 8a 1d 40 e8 f0 31 3f 0d 9f 2f 40
       0.24765173 2.4616022 0.6950822 2.7440827
000300 33 34 03 3f 09 a9 1e bf 89 99 82 3d f2 c9 2c c0
       0.51251525 -0.6197668 0.06376941 -2.6998258
000310 41 7e 16 bf 2f 67 8e bf eb 24 84 3d 43 4e 08 c0
       -0.587864 -1.1125239 0.06452354 -2.1297767
000320 1a 68 9f 3d b6 69 b7 be 1e e8 2c 3e 82 b5 16 c0
       0.07783528 -0.3582284 0.1688542 -2.3548284
000330 a0 6c b4 be f1 5d f0 bd f3 72 16 bf a8 8b a4 bf
       -0.35239124 -0.11736668 -0.5876915 -1.285512
000340 4c 15 b7 bd 45 75 f5 be d1 88 08 bf aa dd 39 3e
       -0.08939609 -0.47941032 -0.53333765 0.18150964
000350 25 e1 0a 3e 05 c1 ef bf f9 56 0b 3f a8 b9 bf 3e
       0.13562448 -1.873078 0.54429585 0.37446332
000360 bc 91 45 be c6 ed 13 bf ee 99 82 bd dd d7 21 c0
       -0.19293875 -0.5778469 -0.06377016 -2.5288002
000370 fb db 24 3f e6 16 cd 3e 41 3f 32 3f ec e2 66 3e
       0.64398164 0.40056533 0.6962777 0.22547501
000380 c7 71 0f 3e 2f e6 14 40 d0 31 2c 3e 68 06 36 c0
       0.14008246 2.3265493 0.16815877 -2.844141
000390 70 52 44 3d 0a 4e 20 bf 52 f8 c8 3e 2e e2 f4 3e
       0.04793018 -0.6261908 0.39251953 0.4782881
0003a0 f5 06 fe be 99 0a 94 3e d7 59 a4 bd 7e ab 06 c0
       -0.49614683 0.28914335 -0.08024948 -2.104217
0003b0 24 a4 7f bc d0 18 17 40 6c 48 09 3e 18 04 83 3d
       -0.015603099 2.3608894 0.13406533 0.06397265
0003c0 cb bf 97 be 67 aa 3e be 9a ea 08 3e d6 17 94 bf
       -0.29638514 -0.18619691 0.13370743 -1.1569774
0003d0 64 68 e4 3d 75 49 d5 3f 03 72 9c be 32 83 c2 bf
       0.111527234 1.6663042 -0.30555734 -1.5196288
0003e0 cf 78 f1 3d eb 0c cb 3f a9 51 d0 3e 8f 58 43 3f
       0.117906205 1.5863317 0.40687302 0.76307005
0003f0 36 01 a0 3e d1 9d 0f 3f ae 39 96 3d af 56 f8 bf
       0.31250924 0.56100184 0.0733522 -1.9401454

network.0.bias f4 [256]
000000 b6 6a be 3d bd 05 1f be 06 ed 7a be d2 6c 1d 3e
       0.09297697 -0.15529533 -0.2450448 0.15373543
000010 7e e6 0d bf 00 ba 02 bf b7 ec 55 be b1 af 32 bf
       -0.5542983 -0.51065063 -0.20891081 -0.69799334
000020 bf 8c 03 bd 18 a5 90 bd db 20 2b bf 78 8b 1d bf
       -0.032116648 -0.07062739 -0.6684701 -0.6154094
000030 14 b2 65 be 41 b8 38 3e 2c 55 5f bd 67 ec 77 bd
       -0.22431213 0.18039037 -0.054524586 -0.060528185
000040 ab 50 af bd e1 0f 93 be c0 c5 1a bf 1f 38 a3 be
       -0.08560308 -0.28723052 -0.6045799 -0.31878754
000050 60 ec f9 3d aa d4 15 bf 88 2b 7d be ba 5e 5f be
       0.12203288 -0.58527625 -0.24723637 -0.21813479
000060 bc e6 59 3e 09 7b 8d bd c1 5f 87 bc 9c 55 45 3d
       0.21279424 -0.06908233 -0.016525151 0.048177347
000070 c0 70 06 bf 66 6b 2e 3e b8 47 5c be 2a 67 17 bf
       -0.5251579 0.17033157 -0.21511734 -0.5914179
000080 e0 48 b4 3d d5 e1 01 bf 2b 5f 41 be 5a 94 21 bf
       0.08802962 -0.5073522 -0.1888396 -0.6311699
000090 b5 ec d2 3a 84 b8 92 be dc 44 02 bf 82 ec ba 3d
       0.0016092273 -0.286564 -0.5088632 0.091271415
0000a0 89 82 12 bf 02 20 fc be 3b 45 14 3d 39 12 02 3e
       -0.5723043 -0.4924317 0.036198836 0.12702264
0000b0 58 df 8c 3d e6 1a 3f bd 19 2e 48 bd e6 86 1f be
       0.06878537 -0.04665651 -0.048872087 -0.15578803
0000c0 bb 4e 29 be 2a ea 87 3b 44 63 29 be 7c 78 23 bf
       -0.1653394 0.0041477876 -0.16541773 -0.6385572
0000d0 08 a0 25 bf 66 66 2e bf 61 3f 08 bf da 72 52 be
       -0.64697313 -0.68125 -0.5322171 -0.20551625
0000e0 f6 5a 66 be 30 ed 35 3e d3 82 e0 bd ef 0a f7 3d
       -0.22495636 0.17766261 -0.10962453 0.12062632
0000f0 b9 05 88 3e 69 1f 1d bf 3b 65 b1 3d ed 60 2e bd
       0.26566866 -0.61376053 0.08661886 -0.042572904
000100 38 f7 a2 3d 8e ce 2d bf 19 33 85 3c 88 9d 10 be
       0.079573095 -0.678933 0.016259717 -0.14122593
000110 16 79 4a 3e f7 fa a2 3e 0f 83 e0 bd 13 03 0d 3e
       0.19772753 0.31832096 -0.109624974 0.13770704
000120 2f 82 78 3d ac 34 1b bf 60 b3 e5 be a1 ce 32 bd
       0.060671028 -0.60627246 -0.44863415 -0.043654088
000130 a0 b4 ee bd 24 fe a4 be ed e5 ce bc 80 65 a6 3d
       -0.11655545 -0.32225144 -0.025256122 0.08124828
000140 b8 f4 fd bc 82 11 85 3d 0c bb c9 be 50 04 d7 bc
       -0.03100048 0.0649748 -0.39400518 -0.026247174
000150 ce ed e3 bd de ac cd bd bc 11 56 3c c7 3b cf be
       -0.11129342 -0.100427374 0.013065752 -0.40475294
000160 a9 45 60 3c ca af a3 be 0b d7 07 be d1 b2 17 bf
       0.013688483 -0.31970054 -0.13265626 -0.5925723
000170 59 1b c1 bd 2b cc 34 be 7a 54 9a bd 4e da 1c be
       -0.09429044 -0.17656009 -0.07535644 -0.15317652
000180 df 02 35 bf eb 44 24 3c fa 9e f9 be 1b ab ac 3c
       -0.70707506 0.010026197 -0.48754102 0.021077683
000190 97 a7 26 bd d5 88 a0 3d 5f e6 86 be 14 8a e6 be
       -0.04068717 0.07838599 -0.26347634 -0.4502722
0001a0 15 72 25 be 6f 06 24 bf 28 7e 81 3d f2 10 2d be
       -0.161568 -0.64072317 0.063228905 -0.16900995
0001b0 47 89 c4 be 2d 63 ae bd 32 72 2f bf 22 3f 01 bf
       -0.38385984 -0.0851501 -0.68533623 -0.5048696
0001c0 3a dc 57 bd 10 c0 a3 3d 94 c2 2b bf 0f 5c 84 be
       -0.05270026 0.079956174 -0.6709378 -0.25851485
0001d0 ec b6 1e bf fa 2f ab 3d 92 d9 27 bc 51 3a a8 be
       -0.61997867 0.0835876 -0.010244744 -0.32856992
0001e0 6c 9d c6 be fb 60 0c 3e 46 7d 77 3d 46 c6 eb be
       -0.38791978 0.1370887 0.060422204 -0.46049708
0001f0 4b ad 2b bd da 5b 00 bc 8c 83 2c bf 29 08 df 3c
       -0.041913312 -0.007834399 -0.67388225 0.02722557
000200 36 8d 23 bf 5a 8f b9 3d d5 88 91 be aa 5c c4 bd
       -0.63887346 0.09060545 -0.28424707 -0.09587987
000210 78 16 2f bf 11 8b 04 be 99 aa ab 3d 6e 40 f5 3c
       -0.6839366 -0.12943675 0.08382148 0.029937949
000220 96 14 b0 3d c6 67 8a 3e 9e 04 1e bd 1c fc 76 bd
       0.085976765 0.27032298 -0.038578622 -0.060299024
000230 4d e9 65 bd 97 00 3c 3e d4 7c e4 be 9e de 25 3e
       -0.056130696 0.183596 -0.44626486 0.16198203
000240 96 06 ce be 13 21 46 3e b9 ba 2a bf 3f 9f 5f bd
       -0.402394 0.19348554 -0.66691166 -0.05459523
000250 39 ca 58 bd ad c8 da bc eb df 27 bf db 25 37 bd
       -0.05292723 -0.026707018 -0.65576047 -0.044713836
000260 17 76 01 3e 22 97 74 be 8b ae ba 3e 93 3c e5 bd
       0.12642704 -0.23885778 0.3646129 -0.11193194
000270 18 3a bf be 39 e6 ef be 92 57 bd bd 4e 53 2f bc
       -0.3734901 -0.46855333 -0.09245218 -0.010701014
000280 46 4b 4c bd bc 48 e7 be 20 97 48 be c6 b7 d0 3b
       -0.049876474 -0.4517268 -0.195889 0.0063695638
000290 ca f4 1f bf c2 81 22 be f4 dd 24 bf 74 1a 7b be
       -0.62482893 -0.15869811 -0.64401174 -0.2452181
0002a0 96 7a 74 be a8 3a 2d bf 39 f5 20 bf f7 1a aa 3d
       -0.23874888 -0.6766763 -0.6287418 0.083059244
0002b0 98 ae d7 be a8 37 d3 bc f9 3b a2 3d e7 3c 2b be
       -0.42125392 -0.025783375 0.07921595 -0.16722451
0002c0 5b fb a7 be 71 cb 02 bf 6a c7 2c bf 2b dd c8 3d
       -0.32808957 -0.51091677 -0.6749178 0.098078094
0002d0 6f fa 27 be 37 2a 96 3d e7 cc 98 3c 0c d9 8d be
       -0.16404127 0.073322706 0.018652393 -0.27704656
0002e0 cc 32 07 bf ed b4 74 be 9f 31 f1 bc 3a 32 57 be
       -0.52811885 -0.23897143 -0.029442606 -0.21015254
0002f0 bd e8 76 bd 17 5a 8f 3d 04 b4 9b 3e 85 63 98 bd
       -0.06028055 0.06999605 0.3041078 -0.07440857
000300 b5 aa 4a bd b8 fc b6 be 6b c3 82 be 58 96 f4 bc
       -0.049479205 -0.35739684 -0.25539717 -0.029856846
000310 59 82 74 ba 29 d8 d1 3b f4 6f 95 be 77 8b 45 be
       -0.00093272846 0.006403942 -0.29186976 -0.19291483
000320 14 fe 3c be 0d 08 0b 3e 2a a6 79 be 8d b6 5d 3e
       -0.18456298 0.1357729 -0.24379793 0.21651669
000330 7e 5a c9 be 0a d3 f6 be 17 ea a2 be 72 bf 28 bf
       -0.39326853 -0.48207885 -0.3181922 -0.6591712
000340 16 2e 08 bf 3c f9 4e be b0 6f 3d bd 19 0c cf bc
       -0.5319532 -0.20212263 -0.04624909 -0.025274323
000350 33 8d 1e bf 59 f8 af be c5 6b c9 be ee 46 dd 3d
       -0.619342 -0.34369162 -0.39340034 0.108045444
000360 18 cc e5 3d 0d b9 1a bf 62 04 b5 be 14 14 2b bf
       0.112205684 -0.60438615 -0.35354906 -0.6682751
000370 7a c7 bc be 38 b5 5e bd 3d 8c b8 bc b9 0f f3 3d
       -0.3687094 -0.054372042 -0.022527808 0.11868233
000380 1d e2 8c 3d 5c b5 cb 3d 1d c6 a6 3d 07 f2 54 3d
       0.06879065 0.09946701 0.08143256 0.051988628
000390 d3 bc 18 be b7 71 19 bf db 4e af be b8 ca a8 bd
       -0.1491578 -0.5993914 -0.3423985 -0.082417905
0003a0 82 1f 31 be ed ee dd be 06 59 10 bf e4 32 2c bd
       -0.17297176 -0.43346348 -0.5638584 -0.04204072
0003b0 f8 81 db 3c 58 e3 f9 bd 40 d9 a8 bd 61 e1 c4 bd
       0.026795372 -0.122015655 -0.08244562 -0.096133
0003c0 99 dd 1d 3e 92 79 e0 be ab 8c 79 3d 45 d8 ac 3c
       0.15416564 -0.4384275 0.060925167 0.02109922
0003d0 a0 7d 81 3e 63 6d 4f bd d9 ee a4 be 2e e4 94 be
       0.25291157 -0.05064143 -0.32213476 -0.29080337
0003e0 8b 2d db bc 1b d1 2c bf df 99 d9 be 0b d8 16 be
       -0.026755115 -0.6750657 -0.42500207 -0.14730851
0003f0 58 24 e2 bd f1 64 91 be 78 8c 83 be ba 38 23 3e
       -0.11042088 -0.28397325 -0.25693107 0.15939608

network.3.weight f4 [256, 256]
000000 2e ba 86 bd 1a a8 c2 bd 30 1e f2 3b c7 b0 14 bf
       -0.0657848 -0.09504719 0.0073888525 -0.5808224
000010 80 38 19 3b c0 5c 5f 3d 73 88 82 3b 9c f3 17 bd
       0.0023379624 0.054531813 0.003983551 -0.03709756
000020 0a 89 74 3d c2 d8 04 be 70 c3 ac bb 24 5e 0d bd
       0.059701003 -0.12973312 -0.0052723214 -0.034513608
000030 64 55 dd 3b ce 57 8c bd 50 e8 82 bd 07 ad 45 bd
       0.006754564 -0.06852685 -0.06391966 -0.048260715
000040 c6 b0 a6 bc 62 b4 01 bd a8 03 ab bc 69 89 bb be
       -0.020347964 -0.031666167 -0.020875767 -0.36628273
000050 e0 81 0d be a8 c9 c6 3c 44 83 49 bd 03 b5 60 bf
       -0.13819075 0.024266079 -0.04919745 -0.877762
000060 63 03 67 bf d3 73 22 be f6 b5 d7 3c 7d b9 e7 bd
       -0.9023954 -0.15864496 0.026331883 -0.11314676
000070 18 2c 32 bd 5f eb 47 bf b8 8b e2 3c 62 96 06 bd
       -0.043499082 -0.7809352 0.027654514 -0.03285826
000080 94 24 79 bb c3 13 42 3d c2 34 09 3d df c4 26 3d
       -0.0038016187 0.047382127 0.03349758 0.040715095
000090 0e c7 18 3d 70 40 f5 3c c5 bf aa 3c e3 3f a8 bc
       0.03729921 0.029937953 0.020843396 -0.020538276
0000a0 2e 77 73 bd 4c 67 5b bd 63 e6 03 bf e5 8b 0d be
       -0.05943983 -0.05356531 -0.5152342 -0.13822897
0000b0 01 30 83 3d a3 40 36 be 42 78 6c be 66 38 0c 3c
       0.064056404 -0.17798094 -0.2309275 0.008558368
0000c0 5d a8 23 3d c1 70 09 bf cb 3e 5d bf 16 a9 ff be
       0.039955486 -0.53687674 -0.8642394 -0.4993369
0000d0 e2 70 2d bd cf 73 cc 3c 80 9d 04 bc e3 75 23 3d
       -0.04234398 0.024957566 -0.008094192 0.039907347
0000e0 f6 8c 0b be 8f 71 24 bd 6c 9f 35 be c0 90 0f bd
       -0.13627991 -0.04014736 -0.17736596 -0.035050154
0000f0 a7 30 e2 bd 32 1d 4f 3d 94 59 8c 3b c9 91 6f ba
       -0.11044436 0.050564952 0.0042831395 -0.000913885
000100 44 b1 09 bf 07 7d 3d 3c ac 17 1d bf d0 a3 e6 3b
       -0.5378611 0.011565453 -0.61364245 0.007038571
000110 67 43 6a bf 88 f9 8b bf 5e 98 66 3d 43 47 f7 bc
       -0.915091 -1.0935526 0.056297652 -0.030185347
000120 93 fe 89 3d e4 1c dd bc 40 d2 66 3d f0 df 7d be
       0.06738009 -0.026991315 0.056352854 -0.24792457
000130 44 d9 16 bd 30 47 55 bd 73 e1 49 be 42 84 1c bf
       -0.036828294 -0.052069843 -0.19714908 -0.6113931
000140 db 41 4a bf f5 b1 15 3d aa 44 de bd 5c 0d 5a bf
       -0.7900674 0.036546666 -0.108529404 -0.85176635
000150 01 69 78 bf 19 26 b2 3c 72 1d b5 be 44 17 4a bd
       -0.97035223 0.021746682 -0.35374027 -0.049338594
000160 70 6b 9e be 2e 82 16 3d 22 b8 29 3d 68 d2 85 3c
       -0.30941343 0.036745243 0.04143537 0.016335681
000170 2f 24 20 be 01 84 47 bd ed 62 c8 bd 2d 96 48 be
       -0.15638803 -0.048709873 -0.097844936 -0.19588538
000180 b6 06 6b 3d 7b 9d 2b bf ca a9 d3 bd ba 49 ea be
       0.057379447 -0.6703717 -0.10335119 -0.45759374
000190 1a 18 d5 3c 51 d5 c3 be ab fd cd be 48 67 e8 be
       0.02601247 -0.38248685 -0.40232596 -0.45391297
0001a0 c6 3a 30 3b a7 58 87 3b 93 2c f3 bd ad 33 1d bd
       0.00268905 0.004130441 -0.11873736 -0.03837936
0001b0 20 c4 7e 3b 92 eb 13 bf 82 cd 4c 3d 80 95 20 bb
       0.0038874224 -0.57781327 0.050000675 -0.0024503171
0001c0 53 af 80 be 8b c0 e7 be a0 23 22 bc b0 c4 c7 3c
       -0.25133762 -0.45264086 -0.009896189 0.02438578
0001d0 c1 5d fc bc ba e1 bb bb 1a 29 e4 be 9c ae e2 3c
       -0.030806424 -0.005733696 -0.44562608 0.02767115
0001e0 3e e8 67 bc 31 19 21 be 59 35 f6 be 10 e5 aa bd
       -0.014154492 -0.15732266 -0.48087576 -0.083444715
0001f0 ec c0 75 bd 32 3f e2 3a e0 7c 64 bb a7 7a c6 be
       -0.059998438 0.0017261265 -0.003486447 -0.3876545
000200 7c df 01 3d 15 8e 28 bf c7 d0 e0 bd d7 bf 0f bf
       0.031707272 -0.658418 -0.10977321 -0.561521
000210 f8 64 36 bc 94 4e 63 bf ba ec ba 3b e1 8f 11 be
       -0.011132471 -0.88791776 0.0057044895 -0.14215042
000220 fe 9e 40 bd 97 0f 36 bd 08 7e be bd 20 12 93 be
       -0.047026627 -0.04444846 -0.09301382 -0.28724766
000230 92 c2 55 bc 84 1c 11 bd cc fb 8f be a4 7c 48 bf
       -0.013046877 -0.035427585 -0.28121793 -0.78315187
000240 aa 71 63 3d 1d 75 15 bd 08 ff 1c bd 04 d3 a9 bd
       0.05552832 -0.03648864 -0.038329154 -0.08292201
000250 43 38 6e 3c d2 e5 b5 3c 04 25 49 bd 23 6e 4a bf
       0.014539781 0.022204313 -0.049107566 -0.79074305
000260 b1 71 80 bd 1a 91 99 bd 34 18 5c bf 73 68 7e bf
       -0.06271685 -0.07498379 -0.8597443 -0.99378127
000270 40 9e 7f bc 7c ca 3f bd a5 25 38 bd ae b9 0f be
       -0.015601695 -0.046823964 -0.044957776 -0.14035675
000280 92 71 83 bd 08 03 6c 3d 2a 58 48 bd f8 68 c8 be
       -0.06418146 0.05762008 -0.048912205 -0.39142585
000290 30 31 15 bd 74 b3 95 bd f8 aa 6c bd 6e e2 bc bc
       -0.036423862 -0.073096186 -0.057780236 -0.023057189
0002a0 ff a5 64 bd 38 80 bc 3b 00 9a 4f bb ad c5 e5 3c
       -0.05582237 0.0057525896 -0.0031677485 0.02804836
0002b0 9f c0 79 3c 5e ae 6d bd 1a e4 5b 3d 42 df 1e bd
       0.015243678 -0.058027618 0.05368433 -0.038787134
0002c0 00 ae 81 bc a9 03 6e bf d0 d3 e6 bc 66 50 15 be
       -0.01583004 -0.92974335 -0.028177172 -0.14581451
0002d0 44 16 44 3d 26 95 b7 3c 9a f3 a9 be 20 fe 7a 3c
       0.047872797 0.022409987 -0.33193666 0.015319377
0002e0 10 55 01 bc 20 10 12 bd 4d e3 9e be 7c 9d 56 3d
       -0.007893816 -0.03565991 -0.31032792 0.052396283
0002f0 21 9f 95 bd df 4d a0 3d 26 d3 91 bf bc e7 5d bd
       -0.07305742 0.07827353 -1.1392562 -0.054176077
000300 e2 87 80 3a 94 df 89 bf 66 a7 34 bf 85 e9 a7 bd
       0.0009806121 -1.0771356 -0.7056793 -0.08198837
000310 29 03 1d bd 8e ef bf 3c b3 5a 19 bf e8 80 d7 bc
       -0.038333092 0.023429658 -0.5990402 -0.026306584
000320 3a 0f c1 bd c4 9b 06 bf 03 40 6e be 90 c3 16 bd
       -0.09426732 -0.5258143 -0.23266606 -0.036807597
000330 e8 00 99 3c 08 6b 75 3c 27 47 4f 3d a0 17 5c bb
       0.01867719 0.0149791315 0.050604966 -0.0033583418
000340 ac 63 60 3d cc 86 82 be 7a df 3f bd e8 9c 37 bf
       0.054782555 -0.25493467 -0.046843983 -0.71723795
000350 78 b3 9c 3c d4 15 80 bc eb 17 7c be 71 e6 33 bd
       0.019128546 -0.015635408 -0.24618499 -0.043920938
000360 e3 00 bc bc 6b 51 2e bf e5 8a 1e bd 70 f7 28 bc
       -0.022949642 -0.68092984 -0.03870668 -0.0103129
000370 40 5c ed 3b 1c 99 ef bd 3a cb ff bd 01 d7 ca bd
       0.007243663 -0.11699125 -0.12489934 -0.0990429
000380 1c d5 a6 bc ec 58 3b bf 91 3c 18 bd 8b de 9a be
       -0.02036529 -0.7318256 -0.037167136 -0.30247912
000390 9b ed ae bd 8c fe dc bc 97 4b 33 bd c0 4a 2a 3c
       -0.085414134 -0.026976846 -0.04377326 0.010393798
0003a0 de 28 00 be 1c fd ae bc 96 33 44 3d 7c 9c a1 3c
       -0.1251559 -0.021360926 0.04790076 0.019727938
0003b0 72 54 ae be 40 de 4d 3d c0 21 c9 3b 5c 11 35 bf
       -0.34048802 0.050260782 0.0061380565 -0.70729613
0003c0 1a d4 48 bf 1a 33 80 bf a2 f4 de bd 1d 24 be bd
       -0.7844864 -1.0015595 -0.10886504 -0.09284232
0003d0 72 6b d7 bd 2c d9 84 bd 42 6a 36 bd 65 20 35 bf
       -0.105185404 -0.06486735 -0.04453493 -0.70752555
0003e0 a0 cc 0a bd 3a d6 3c bd 46 10 04 3d ce b3 54 bf
       -0.03388655 -0.04610274 0.032242082 -0.8308686
0003f0 10 23 6c bc e8 06 0b 3c c0 f2 80 bd 31 ed d7 bd
       -0.014412656 0.008485533 -0.06296301 -0.105432875

network.3.bias f4 [256]
000000 56 c7 3c 3e db af e5 bc c6 5a 17 3e 28 b6 41 3d
       0.18435416 -0.028037956 0.14780721 0.04729286
000010 3b 29 22 3e ed 4d 72 bc c7 2a 9c bd 64 68 00 3e
       0.1583604 -0.014789087 -0.07625347 0.12539822
000020 62 da 46 3e d3 06 80 bd bd 40 60 3e 41 22 fa 3d
       0.19419244 -0.062513016 0.21899696 0.12213565
000030 64 76 0a 3e 08 12 9b bd da 9f 64 3e ae 9b 05 3e
       0.13521725 -0.075717986 0.22326604 0.13047668
000040 30 0f 8c bc 89 71 ad 3e e8 58 3c bd 02 ef a2 3d
       -0.017097086 0.33875683 -0.045983225 0.07955743
000050 18 11 0b 3e 36 0c 4e 3e c9 b6 6c 3e 53 87 ac 3d
       0.1358074 0.20121846 0.23116602 0.084242485
000060 b2 2c a3 3d 2f 7e 9e bd df 41 8f ba 8f c6 e3 3c
       0.07967509 -0.07738911 -0.0010929665 0.027804641
000070 bb 72 96 3e 97 49 5d 3e 11 98 bf 3d 5e f9 87 bd
       0.29384407 0.21610104 0.09355176 -0.0663936
000080 7a e0 01 3e c4 6f ac 3d 5c cf 94 3d fa 06 21 3e
       0.12683287 0.08419755 0.07266113 0.15725318
000090 57 29 04 3e 6e 42 05 3e 5d cd 9f 3d 23 b6 13 3e
       0.12906395 0.13013622 0.07802842 0.14424948
0000a0 f7 78 0f bd 00 65 e3 3c 47 c9 a0 3e 23 88 d0 bc
       -0.03502747 0.027758121 0.31403562 -0.02545554
0000b0 08 78 4c bd 05 cc d2 bc 7b 47 0a 3e 4f c0 2c 3e
       -0.04991916 -0.02573205 0.1350383 0.16870235
0000c0 41 1b 64 bc 4b 50 0a 3d 58 ee f1 bc 3d ba 5b bd
       -0.013922513 0.03376798 -0.029532596 -0.053644408
0000d0 52 da f0 3d fa 72 5f 3e b4 e9 91 bd a1 80 40 3e
       0.11760391 0.21821204 -0.071246535 0.18799068
0000e0 5d 43 81 3e ff ed 1c 3e 20 7e d8 bc fe c3 2a 3d
       0.25246707 0.15325163 -0.026427329 0.04169082
0000f0 ac 1e d2 bc c3 c3 a3 bc 08 b0 32 3e a9 1e 10 3e
       -0.025649391 -0.019990807 0.17449963 0.14074196
000100 a5 d2 c0 bc 1e 39 4d bd 03 b1 92 3e 84 6a 6d 3e
       -0.023537943 -0.0501033 0.28650674 0.23185164
000110 9b 7e 58 3e 0d d5 a4 bd 1f 40 7b 3e 27 f9 bb bc
       0.21142046 -0.08048449 0.24536179 -0.022945954
000120 a3 5a 94 bd cc d6 e7 3d 79 6c e4 bc 07 db 4e 3e
       -0.0724385 0.11320266 -0.027883755 0.2020074
000130 f4 5d 1d 3e 50 eb 63 bd bb aa cc bb f8 2c 88 3e
       0.15367872 -0.055644333 -0.0062459386 0.26596808
000140 b9 aa 90 3c 69 10 57 3e 77 6b a2 bd 14 a8 00 bd
       0.017659532 0.21002354 -0.079306535 -0.03141029
000150 03 74 80 bd 95 e8 be bc 90 b9 ae 3e 5e f5 a4 bc
       -0.062721275 -0.023304263 0.34125948 -0.020136531
000160 86 13 76 3e b5 0d 3e bd ea 13 70 3e af 3d 7d 3e
       0.24030885 -0.04639979 0.23445097 0.24730562
000170 60 d6 80 bc 88 30 70 3e 93 90 97 3d 0b 2a 8c bc
       -0.015727222 0.23456013 0.07400622 -0.017109891
000180 a2 54 ae bb a7 5b 8e 3e 96 06 5e bc 00 b5 28 3e
       -0.0053201476 0.278043 -0.013551375 0.16475296
000190 d4 e9 0c 3e 2c 1e 26 bc 27 17 1a bd 5f 94 16 bd
       0.13761073 -0.0101390295 -0.037619736 -0.03676259
0001a0 da 7b aa 3d 6d e6 2d 3e 02 c7 2f 3e 8b 2e 16 3e
       0.08324404 0.16982432 0.17165759 0.14666192
0001b0 00 8c d5 3d 33 ef 96 3d b9 2e 5e 3e 03 b6 58 bd
       0.104270935 0.073698424 0.21697511 -0.052907955
0001c0 2c 39 34 3e 31 01 3e 3d 9e 36 5f bd 11 fd 2a bd
       0.17599934 0.046387855 -0.054495446 -0.04174525
0001d0 f2 e6 71 3d 17 04 7b 3e dc a9 42 3e 14 32 2f 3e
       0.059058137 0.24513279 0.19010109 0.17108947
0001e0 ec 11 9b bd 55 70 1d bd 20 38 0c 3e c7 ac 52 3e
       -0.07571778 -0.038437206 0.13693285 0.20573722
0001f0 d3 8e 49 bd 99 c1 ea 3d 8b b7 09 3e 9c fc ef 3d
       -0.049208473 0.11462707 0.13448922 0.11718103
000200 da eb 0b 3e 2d bb 76 3e 14 2b 79 bc ea fe f0 3d
       0.13664189 0.2409484 -0.0152080245 0.11767371
000210 ba d8 8f 3e ad 62 69 bd 9e 4d 3c 3e 39 e2 85 bd
       0.28095037 -0.05697887 0.18388984 -0.06537289
000220 b1 a0 58 bd 1e 8b e0 bb 51 65 52 3e f7 a5 8b 3e
       -0.052887622 -0.0068525216 0.20546462 0.2727506
000230 60 2d 08 3e 95 97 73 3e e7 af 8e bd 96 fb 31 bd
       0.13298559 0.23788293 -0.069671445 -0.04345282
000240 b3 06 81 3e be ef 85 3e d0 75 69 bd df b3 86 3e
       0.25200424 0.2615947 -0.05699712 0.26309106
000250 2a 0b 8f 3e 8d 50 de bc 2e 61 11 3e 80 07 1c 3e
       0.27938205 -0.027138019 0.14197227 0.15237236
000260 a5 49 a4 bd 9c 94 18 bc 75 03 89 bc 75 87 fe bc
       -0.08021859 -0.009312775 -0.016725281 -0.03107045
000270 b6 c8 4e 3e ca 96 84 bc fe 91 90 bd d3 4c 8b 3e
       0.20193753 -0.016185183 -0.07059096 0.2720705
000280 74 d6 15 bd 77 9b 90 3e dc 4c 4b 3e 39 d5 e2 3d
       -0.03658147 0.2824361 0.19853538 0.11075825
000290 52 91 1b bc 82 6d 0d 3e a5 31 67 bc 68 ae ee 3d
       -0.009495096 0.13811305 -0.014110957 0.11654359
0002a0 b0 71 01 3e aa fe 3d bc 22 dd 86 3d e5 41 2a bd
       0.12641025 -0.011596361 0.065851465 -0.04156675
0002b0 ef c5 72 3e 42 7a 79 bd 79 e0 83 bd b8 f3 dd 3d
       0.23708318 -0.06090761 -0.06439299 0.10837501
0002c0 ba 14 6c bc 8c 7a 94 3e 1c 2b de 3d 35 09 f0 3c
       -0.0144092385 0.28999746 0.10848066 0.029301265
0002d0 28 6a 20 3e e9 fd d0 bc 31 ba e4 3d 94 7c 81 3e
       0.15665495 -0.025511699 0.11168326 0.25290358
0002e0 29 93 35 bd 9a 80 ec 3d dd 09 7b 3c 00 b3 fe bd
       -0.044329796 0.11547966 0.015322176 -0.12436485
0002f0 45 d0 73 3e ed c4 87 bd 19 ad 89 bd 48 32 c3 3d
       0.23809917 -0.066293575 -0.06722469 0.09531075
000300 54 cc f6 bc 10 8e 50 3e 01 91 2a 3e 9f c0 0b bc
       -0.030126728 0.20366693 0.16656877 -0.008529811
000310 04 74 0d bd 51 e5 86 3d 46 c0 62 bd 62 15 e2 bc
       -0.03453447 0.065867074 -0.055359147 -0.027598087
000320 79 1c 80 bd a2 23 84 3e a2 35 1b 3e b0 b7 ba 3d
       -0.06255431 0.25808436 0.15157178 0.09117067
000330 18 bd 80 bc ca 3a 26 3e 18 de 80 bd 82 9b b1 bd
       -0.015715167 0.16233364 -0.06292361 -0.08672239
000340 66 d9 9b 3e de 83 06 bd 8d 58 8f 3d 7f 83 ed 3d
       0.304393 -0.032840602 0.069993116 0.115973465
000350 ea a2 bf 3d 45 9d ba 3d 49 e3 51 3d e2 77 7f 3b
       0.09357245 0.09112028 0.051242147 0.0038981368
000360 fe 6c 28 3d d9 dc 9c 3e d5 10 42 3e f6 0a ed bc
       0.041119568 0.30637243 0.18951733 -0.02893589
000370 58 60 bf bc 19 b6 cf bc b1 69 63 bc 33 1d 02 3e
       -0.02336137 -0.025355386 -0.013880179 0.12706451
000380 3f 75 03 3e 76 ac 4d bd 0f 8e 1a 3e 06 2e 09 3e
       0.12837695 -0.0502133 0.15093254 0.13396463
000390 e8 d1 a9 bd e6 6d fc 3d 83 55 38 bd 2a b2 d4 3d
       -0.082919896 0.12325649 -0.045003425 0.103855446
0003a0 f9 64 8d bd 1a 8b 35 bd f5 29 5f bd 9a 11 23 3e
       -0.06904025 -0.04432211 -0.054483373 0.15924683
0003b0 33 16 80 bd c7 88 c5 3d 33 20 08 bd 17 f7 b0 3d
       -0.06254234 0.09645229 -0.033233833 0.08640879
0003c0 7b 84 b4 3d 0f 3c 28 3e e9 7d 13 bc ef 2e 90 bc
       0.08814331 0.1642916 -0.009002187 -0.017600505
0003d0 10 67 8c 3e 24 a4 ff bb f2 c7 93 bd 89 6d 42 3e
       0.2742238 -0.0078015495 -0.07215871 0.18987097
0003e0 a9 70 03 3e 5d 89 8d 3e 1c af 47 bd 77 ac 66 bb
       0.12835945 0.27643862 -0.04875098 -0.0035198012
0003f0 fc 0f 29 bc 2f e5 48 3e 59 97 a7 3e c7 77 44 3e
       -0.010318752 0.19618677 0.32732657 0.19186316

network.6.weight f4 [256, 256]
000000 9a 4c c0 3b b5 86 df 3c e2 a1 a5 bf c7 3f 44 be
       0.0058685066 0.027285913 -1.2940028 -0.19164954
000010 51 36 4d 3d b7 f4 87 bd 71 c7 85 3e d0 c6 ce 3d
       0.05010063 -0.066384725 0.26128724 0.10096514
000020 25 71 82 3e ec 8b 20 3d a8 b2 c7 3d af 11 7a bc
       0.25476947 0.03919594 0.09750873 -0.015263005
000030 0f 7e 31 bd 55 69 10 bd 87 48 6e 3e fc a5 84 3d
       -0.04333311 -0.035256702 0.23269854 0.064769715
000040 bf 33 b5 3c 8e 51 2b 3e 6b 75 6e bd 08 f1 80 3e
       0.022119401 0.1673033 -0.058217447 0.25183892
000050 ce 76 d0 bb f1 26 68 3d f8 f0 8f be 0b 17 13 bf
       -0.006361819 0.056677762 -0.28113532 -0.57457036
000060 7c c0 cd 3d 38 a3 30 bd 4b c2 9e 3c 31 8d cb 3c
       0.10046479 -0.043124408 0.019379755 0.024847599
000070 0a fb 4f bf e7 69 89 3e 6f 9b 26 bf 5e 12 3c bd
       -0.8124243 0.2683861 -0.6508092 -0.045915954
000080 a9 15 fc bc ba 81 f3 be 46 76 c0 bd 4f a9 d6 3c
       -0.030772047 -0.4755991 -0.09397559 0.02620378
000090 de 4f 52 3d 67 25 4a 3e 76 71 f9 be 1f 42 6c 3d
       0.0513457 0.1974083 -0.48719376 0.057680245
0000a0 ea b9 44 3d 25 20 2e 3d 83 51 16 3e 4b 1e 89 3d
       0.048028864 0.042511124 0.14679532 0.06695231
0000b0 be 8b 68 bc 24 90 4b bd 6f ec be be 51 fa 2b 3d
       -0.014193473 -0.04969801 -0.3728976 0.041986767
0000c0 cf ac 56 bd ab 7c bd be 77 ac 5d 3d e4 17 13 3d
       -0.052410897 -0.37009177 0.054119553 0.035911456
0000d0 ff 55 0d 3d b0 6f d2 3d cc e5 82 3d 6c 1d 93 bd
       0.03450584 0.10275209 0.063914865 -0.07183346
0000e0 35 84 44 3d aa 22 9d 3c e3 1f 22 3d 86 b4 11 3d
       0.047977645 0.019181568 0.03958119 0.03557255
0000f0 34 88 8a bd 24 20 21 bd c8 ec 13 3e 75 42 99 3d
       -0.0676426 -0.039337292 0.14445794 0.07483379
000100 c6 2d 3e bd 3e 25 78 3d 46 63 38 3c 7c 4f fc 3c
       -0.04643037 0.060582392 0.011254137 0.03079962
000110 d1 ba 94 3d 73 53 63 3e 56 ae a2 be 59 a9 f9 3c
       0.07262195 0.22199802 -0.31773633 0.030476259
000120 06 83 d6 3c 55 53 45 bd 70 1e 76 bc 7a b0 02 bf
       0.026185524 -0.048175175 -0.015021905 -0.5105053
000130 1e fd 34 bc fc 43 67 3d 55 c3 72 3d 80 94 8a 3d
       -0.011046676 0.05646132 0.059268314 0.067666054
000140 2c bb 87 3e db bd 4d 3e 24 7f a1 3c b7 4d e6 bc
       0.26509988 0.20091955 0.019713946 -0.02811323
000150 70 d6 1b bd d7 6f 41 3b dd dd 3a 3e 43 4e 26 3d
       -0.0380463 0.0029516125 0.18248697 0.04060198
000160 17 b5 70 bc 10 d2 8e bc f7 d9 88 bd 3f a0 62 bd
       -0.014691613 -0.01743415 -0.066821985 -0.055328604
000170 7b 12 47 bd c3 32 49 be c3 a0 2b 3e 70 e2 a7 bc
       -0.04860161 -0.1964827 0.16760544 -0.020493716
000180 a3 0c bc bc cf 12 12 3e 2a 48 ad bc 05 1b 13 bf
       -0.022955244 0.14264987 -0.021152575 -0.57463104
000190 4b aa 1b 3e 97 7c eb bc 76 7e 2d bd 4f ed 04 bd
       0.1520168 -0.028745933 -0.04235693 -0.032452878
0001a0 60 d6 bb bc 39 a5 ff 3d c7 8b f8 bc 9e 38 09 bd
       -0.02292937 0.124826856 -0.030340089 -0.03350126
0001b0 c1 5c 71 bd 14 ef 95 bd ea df 02 bf 3e 67 40 3d
       -0.058926348 -0.07320991 -0.51122916 0.04697346
0001c0 aa 4a b5 bf 46 41 ec 3d 58 9e 08 bd 6b 18 71 3d
       -1.4163411 0.115358874 -0.033354133 0.058861177
0001d0 27 39 b9 3a e3 93 ba 3d ad 3d 4a 3e 10 58 0b 3e
       0.0014131413 0.091102384 0.1975009 0.13607812
0001e0 1b 36 88 bd 77 7b 71 bd e4 a6 ed 3d 5b 3f 3b 3d
       -0.06650945 -0.058955636 0.116040975 0.045714717
0001f0 f9 ea 64 bc a7 1e 55 bf 3b 7d 27 3e 22 16 1f bc
       -0.0139720375 -0.83249897 0.16356365 -0.009709867
000200 9c a1 87 bf 91 55 8c 3d 3a 00 d3 b9 19 f3 a7 bb
       -1.0596194 0.06852258 -0.00040245225 -0.005125415
000210 88 5a 9b be ac 87 ce 3c bc 77 6f bf 38 c9 30 bc
       -0.30342507 0.025211178 -0.93542075 -0.010790162
000220 94 26 00 3c 8d 44 4a bd 58 21 4d bf 9f 8e f6 be
       0.007821698 -0.04938178 -0.80129004 -0.48155686
000230 9d e4 e8 3d e8 27 14 bf 66 e3 03 3e 44 34 20 3d
       0.113717295 -0.5787339 0.12879714 0.039112344
000240 2d ed ca be a3 e2 51 3d f7 41 46 bd b2 a5 85 3e
       -0.39634076 0.05124153 -0.048402753 0.26102978
000250 05 ea 2c bf ff 1a 0b bd 11 2b 56 3e f2 97 9f 3d
       -0.67544585 -0.033961292 0.20914866 0.07792653
000260 46 02 6f 3d 22 ee a3 bd 42 75 04 bd e6 a2 65 bd
       0.058351777 -0.080044046 -0.03233839 -0.056063555
000270 18 e8 a1 bd 75 b1 e0 3c f2 04 84 3c f6 66 28 bf
       -0.079055965 0.027428368 0.01611564 -0.65782106
000280 0b 30 98 3b 27 b6 a2 3c fa f0 3d 3e c5 fc f9 3d
       0.004644399 0.019862248 0.18548957 0.12206415
000290 e7 93 10 bd 4c a6 52 3e b2 53 1c 3e 48 dd 68 3b
       -0.0352973 0.2057125 0.15266302 0.0035532285
0002a0 96 54 cd bd 31 85 33 bd 1b 03 84 bc 8a a5 67 3d
       -0.10025899 -0.043828193 -0.016114762 0.056554355
0002b0 58 00 81 bf b6 53 94 3d ae 8c d6 3c 67 42 3d 3d
       -1.007823 0.07242529 0.026190128 0.046205904
0002c0 25 a6 49 bd 4b 69 e4 be fd 83 95 3d 73 f6 87 3c
       -0.049230713 -0.44611582 0.073005654 0.016597008
0002d0 09 44 7c bf b2 ac 0b bd 1f b5 9e bc 03 e0 56 3e
       -0.98541313 -0.034100242 -0.019373475 0.20983891
0002e0 0a b9 3d bd e8 49 e5 3d 20 9b 5e 3d a7 f5 39 bd
       -0.046319045 0.11195737 0.054347157 -0.045400288
0002f0 87 61 7b be 86 cd b5 3a c0 61 b2 ba a1 47 53 bf
       -0.24548922 0.0013870455 -0.0013609454 -0.8253117
000300 3e 7c 46 bd 47 99 c8 bd 58 8a 36 bf 50 8c 0a bd
       -0.04845833 -0.0979486 -0.71304846 -0.03382522
000310 c5 69 a6 bc 4d 91 4f be c8 97 20 bb 8f 63 e3 bc
       -0.020314107 -0.20270272 -0.0024504531 -0.027757434
000320 f2 8e 37 3d 6f 24 a6 bd e6 1e 25 3e 15 a8 c3 bc
       0.044814058 -0.08112418 0.16125068 -0.023883859
000330 89 2d 02 3d e2 0a 81 3b 21 c8 6e bd 43 e1 71 bd
       0.031781707 0.003938065 -0.058296327 -0.059052717
000340 65 38 2a be 14 37 25 bd 3a 04 3a bd 8a 8c a4 3d
       -0.16623075 -0.04033573 -0.045414187 0.08034618
000350 82 75 b7 bd 00 4f 0b bb 45 07 9b 3d ea 62 01 3c
       -0.0895796 -0.0021256804 0.07569746 0.007897118
000360 00 78 a3 3e 15 d3 32 3e 4e 31 0e 3e 4d dc ef bc
       0.3192749 0.17463334 0.13885996 -0.029279852
000370 40 62 cd 3c 6c c5 7a 3b 09 8b 97 ba c7 7a c9 3d
       0.025071263 0.0038264645 -0.0011561821 0.09837871
000380 20 34 e5 3c 00 76 b7 b9 cc 90 f2 bd 8a 29 96 bc
       0.027978957 -0.00034992397 -0.11844024 -0.018330354
000390 c4 27 e3 bc 39 7d 59 bf fb 4f 1d bd 84 cb 9e bd
       -0.027728923 -0.849567 -0.038406353 -0.07753661
0003a0 19 88 d9 3d 05 7e 06 ba 0f 2e 5e 3c 5b af 36 bb
       0.10621662 -0.0005130473 0.013560786 -0.0027875516
0003b0 f6 88 53 bd 45 85 9a 3c ac ef b7 3d bf 93 6b bd
       -0.051644288 0.018862376 0.08981261 -0.05751395
0003c0 ac 2a 9e bd da 39 e9 b8 53 8c 6c 3d de f1 ef 3c
       -0.07722983 -0.000111210815 0.05775101 0.029290136
0003d0 ca 81 7e bd 36 2b 34 bd e1 e0 50 3b 5c 68 c5 3c
       -0.062135495 -0.04398652 0.003187232 0.024097614
0003e0 9e d0 01 bf 0e 93 2f bf b1 e3 39 bd 87 07 72 bd
       -0.5070895 -0.6858376 -0.04538316 -0.05908921
0003f0 ec 07 97 bb c9 11 dd 3d d4 59 f0 3d 64 14 0f bd
       -0.0046090987 0.10794408 0.11735883 -0.034931555

network.6.bias f4 [256]
000000 e2 be 8e 3f fa 1e 45 3f dc 3b ab be 80 85 34 3f
       1.1152003 0.7700039 -0.33444107 0.70516205
000010 cc 0c 9c 3f 43 52 8f 3f 32 91 86 3f 2e 03 8c 3f
       1.2191405 1.1196979 1.051306 1.093847
000020 8f c6 4f bf a6 33 8e 3f b7 59 5f bf 08 cd 18 3f
       -0.8116235 1.1109512 -0.8724627 0.5968785
000030 fd 59 86 3f a9 9f 79 3f ac 5b 88 3f 26 2c 89 3f
       1.0496212 0.9750925 1.0652976 1.0716598
000040 71 94 b0 3f a4 01 97 3f bb 0f 9b 3f 14 88 98 3f
       1.3795301 1.1797376 1.2114176 1.1916528
000050 a0 d4 aa 3f 99 86 65 3f d6 72 8b 3f af fa 59 3f
       1.3346138 0.89658505 1.089442 0.8514814
000060 8d 14 70 3f 5f f8 18 3f 17 ae 2c 3e 89 04 3c 3f
       0.9378136 0.59753984 0.16863285 0.7344442
000070 14 2b 35 3f c6 7c 95 3f 79 76 96 3f a1 cc 89 3f
       0.70768857 1.1678703 1.1754905 1.0765573
000080 2f 43 82 3f b6 05 94 3f 85 64 d4 3e b9 24 46 bd
       1.0176753 1.1564243 0.4148294 -0.048374865
000090 15 20 76 3f 98 ac 96 3f e7 ba b0 3f de f2 5a 3e
       0.96142703 1.1771421 1.3807038 0.21381709
0000a0 1e 7e 97 3f 7b 17 9d 3f 9d b4 a8 3f 96 b9 a7 bd
       1.1835363 1.2272791 1.3180119 -0.081896946
0000b0 cc 20 8f 3f da f8 83 3f d7 c0 8e 3f 3b 43 94 3f
       1.1181884 1.0310318 1.11526 1.1583017
0000c0 4b e6 95 3f b4 7e 89 3f 24 ba f5 3d d2 ed 82 3f
       1.1710905 1.0741792 0.11998394 1.0228827
0000d0 d3 74 67 3f 07 65 87 3f 5d e3 7a 3f dd fc 96 3f
       0.90412635 1.0577706 0.9800318 1.1795918
0000e0 56 32 62 3e 59 50 8d 3f 8b 9a 83 3f 95 2f 8d 3f
       0.22089514 1.1040145 1.0281538 1.1030146
0000f0 16 51 8f 3f c1 7d 86 3f 3a 22 64 3f e1 df 9e 3f
       1.119662 1.0507127 0.89114726 1.2412072
000100 c4 c8 7d 3f d4 69 4b 3e d7 18 b4 3f 43 9f 1c 3e
       0.9913447 0.19864589 1.407008 0.15295129
000110 41 59 88 3f 66 77 a7 3f 45 ec 63 3f 4b cc 81 3f
       1.0652238 1.3083313 0.89032394 1.014047
000120 e7 9d 85 3f 67 ff 8a 3f 38 43 76 3f d3 20 9c 3f
       1.0438813 1.0859193 0.9619632 1.2197517
000130 a8 4a 88 3f b1 b5 69 3f 33 12 91 3f 0c fa 8c 3f
       1.0647783 0.91292864 1.1333679 1.1013808
000140 c2 ea 92 3f cb ff 87 3f 1c d7 87 3f a9 bf 67 3f
       1.1477892 1.0624937 1.0612521 0.90526825
000150 e5 72 83 3f fb 61 d4 bd ed 7c 76 3f ba ba 49 3f
       1.0269438 -0.10370251 0.9628437 0.7880055
000160 3f e2 a2 3f 2a 5f 9d 3e bb 3e c0 bd 97 29 9f 3f
       1.2725295 0.30736667 -0.09386965 1.2434567
000170 72 d4 66 3f 0a 97 9d bd b0 99 67 3f 24 dc 33 3d
       0.90167916 -0.07694824 0.90468884 0.043911114
000180 62 95 7f 3f 73 c8 97 3f f5 1c 89 3f 18 c4 98 3f
       0.99837315 1.1858047 1.0711962 1.1934843
000190 3f 45 81 3f 09 9c 87 3f 45 a1 93 3f a2 b9 65 3f
       1.0099257 1.0594493 1.153359 0.8973638
0001a0 d1 ce 71 3f 23 c6 df bd 89 80 92 3f 7c 62 9a 3f
       0.944562 -0.109264635 1.1445476 1.2061305
0001b0 95 4c 90 3f 5c 67 72 3f da e3 1d 3f 95 77 ea be
       1.1273371 0.94688964 0.616758 -0.4579436
0001c0 93 26 87 3f 51 11 9c 3f 8a 65 3e bd c9 08 9c 3f
       1.0558647 1.2192785 -0.046483554 1.2190181
0001d0 e6 e9 da bd 9b 97 7c 3f dd 19 82 bd 3b 49 9d 3f
       -0.10689144 0.9866883 -0.06352589 1.2287973
0001e0 e6 c4 69 3f 2e f4 89 3f 37 78 c1 bd 68 d8 6f 3f
       0.9131607 1.0777643 -0.09446757 0.93689585
0001f0 88 97 69 3f 96 7f a2 3f 16 6c 6c 3f 1d 4e ba bd
       0.91246843 1.2695186 0.92352426 -0.0909693
000200 8b 4c 8b 3f e2 23 b0 3f f4 9c 6c 3f 70 b5 67 3f
       1.0882734 1.376095 0.9242699 0.90511227
000210 20 ee 9b 3f 63 65 4e 3f 78 da 4d bd 33 22 a8 3f
       1.2182045 0.80623454 -0.050257176 1.3135437
000220 2c 10 a3 3f 9f db 98 3f fd f3 9c 3f 2b 0c e1 3c
       1.273931 1.1942023 1.2261959 0.027471622
000230 a7 04 9c 3f e8 3c 52 3e 81 17 60 3f 43 eb 9c 3f
       1.218892 0.20531046 0.87535864 1.2259296
000240 83 9a 73 3f cd 6e ae 3f b0 8d 8e 3f 53 f2 84 3f
       0.9515764 1.3627564 1.113699 1.0386451
000250 f2 fe 48 3f 63 c6 91 3f 21 58 88 3e 98 3b 60 3f
       0.78514016 1.1388668 0.26629737 0.8759093
000260 e1 54 72 3f 11 b4 98 bd 98 f6 43 3f 01 62 7b 3f
       0.94660765 -0.0745622 0.7654815 0.9819642
000270 a7 2d b9 3e d0 e8 9c 3f a5 70 f2 bd f9 de 27 be
       0.36167642 1.2258549 -0.118378915 -0.16393651
000280 f3 4b a3 3f c7 f8 84 3e 50 c2 a7 3f ee e7 89 3f
       1.2757553 0.25971052 1.3106174 1.0773904
000290 b7 85 99 3f e6 07 94 3f 1a 9a 39 3f c5 aa 18 3e
       1.1993932 1.156491 0.72500765 0.14908893
0002a0 a2 16 9c bd f1 b3 76 3e 4b 7e 5c 3f ca ae 87 3f
       -0.07621504 0.2409208 0.8613021 1.0600216
0002b0 de d0 89 3e a2 8b cb 3f 65 fe 81 3f d3 1a 72 bd
       0.26917166 1.5901988 1.015576 -0.059107613
0002c0 ee a5 8b 3f c4 18 94 3f ff 27 a8 3f ed 0e 17 be
       1.0910013 1.1570058 1.3137206 -0.14751787
0002d0 25 0c 54 3f 81 3c 85 3f 3c 58 81 3f a1 73 ad 3f
       0.8283103 1.0409089 1.0105052 1.3550912
0002e0 ef 8b a6 3f 08 a4 c4 bd ff 5c 3f 3f fe 65 96 3f
       1.3011454 -0.09601599 0.74751276 1.1749876
0002f0 fa 8d b7 3f bb 4b c9 bd 1d 38 c4 3f 1c d2 6c 3f
       1.4340203 -0.098288976 1.5329624 0.925081
000300 67 41 61 3f 73 47 7f 3f 78 ba f3 bd 7b 73 67 3f
       0.8799042 0.997184 -0.119008005 0.90410584
000310 bd 58 8f 3f c9 67 6b 3f e8 f0 6d 3f a2 05 84 3f
       1.1198956 0.9195524 0.9294572 1.0314219
000320 b1 9a 6e 3f 04 ce 34 3f 39 0f 77 3f 6b ad 75 3f
       0.9320479 0.70626855 0.965076 0.9596774
000330 d7 0b 92 3f 6b ad 7e 3f bb 59 7b 3f b3 6f 9e 3f
       1.1409863 0.99483365 0.9818379 1.2377838
000340 16 46 98 3f 53 f5 87 3f 80 62 8c 3f 17 71 8f 3f
       1.1896389 1.0621742 1.096756 1.1206387
000350 05 25 a2 3f f3 94 63 3f f5 ac 98 3f 2f e0 7b 3f
       1.2667547 0.88899153 1.1927782 0.9838895
000360 4b b4 83 3f e6 77 bb 3e 5d b1 91 3f 8e bf 55 3f
       1.0289396 0.36614913 1.1382252 0.83495414
000370 07 07 b6 3f a4 f9 8e 3f 73 38 79 bd ad 8d 56 3f
       1.4220895 1.1169934 -0.06084485 0.8380993
000380 00 5e 92 3f d2 da 8b 3f 44 1e 91 bd d1 d7 9d 3f
       1.1434937 1.0926154 -0.07085851 1.2331487
000390 4c 4c 78 3f aa 19 b8 3f c8 02 95 3f 36 ff 96 3f
       0.9699142 1.4382832 1.1641474 1.1796634
0003a0 ec 9d cd 3e 5b 56 e7 be f5 cc 94 3f 4a b6 9e 3f
       0.40159547 -0.45183071 1.1625048 1.239938
0003b0 65 8c 5d 3f bf 25 a0 3d 92 85 73 3f 64 67 60 3f
       0.8654235 0.078196995 0.9512569 0.8765776
0003c0 9b 0e 80 3f be 22 ac 3f 2a ff 86 3f b3 14 b4 bd
       1.0004457 1.3448102 1.054662 -0.087930106
0003d0 54 54 58 3f cb 5a 8d bd 3f 6d 31 3e be f7 f9 bd
       0.84503675 -0.06902083 0.1732683 -0.12205456
0003e0 a5 84 9d 3f 65 c3 92 3f 45 e2 82 3f d1 cf a5 3f
       1.2306105 1.146588 1.0225302 1.2954046
0003f0 47 0a 9e 3f c8 d8 fb 3e 5d 94 8a 3f b5 0e 9d 3f
       1.2346886 0.49188828 1.0826527 1.2270113

network.8.weight f4 [3, 256]
000000 28 a6 b7 be 43 b6 95 be 9d bd 1c bf ac f9 24 3e
       -0.35868955 -0.29240617 -0.61226827 0.16110867
000010 db ae 7f be f2 09 58 3e 44 a7 cf 3e ef f2 eb 3e
       -0.24969046 0.21097544 0.405573 0.4608378
000020 15 68 ed 3c 8d b5 8c 3d 82 a1 6f 3d 45 2a 46 3f
       0.028980294 0.068705656 0.058503635 0.7740825
000030 54 27 36 3f 1d c7 eb bd 90 ea 57 be cb 82 7e be
       0.7115376 -0.11512587 -0.21085572 -0.24854581
000040 96 25 74 3f 86 25 05 3f 65 36 8b be ba 85 a3 be
       0.9536985 0.5201038 -0.27189937 -0.31937963
000050 ab ed 4b be 96 f6 20 3d 49 2e 6c be 42 f2 1f be
       -0.19914882 0.039297663 -0.23064531 -0.15619758
000060 0c e6 33 3f 4b 86 40 3f 8d 05 15 3e 5b 99 f3 ba
       0.702729 0.75204915 0.14552899 -0.0018585132
000070 50 42 4c 3f 36 fa 3e be 54 dd 48 3e 45 93 36 3f
       0.79788685 -0.18650135 0.1961568 0.71318465
000080 be cd 09 3f a3 57 39 be 1c c2 1c 3f ee 31 96 bd
       0.5382956 -0.18099837 0.6123369 -0.07333742
000090 b4 01 0d 3f bc 18 4b be cd 67 52 3f 61 ef a4 be
       0.55080724 -0.19833654 0.8218964 -0.32213882
0000a0 f2 de 1e 3f bc 0a 60 be 1d 9d 28 3f 5e 5f ab bc
       0.6205894 -0.21879095 0.65864736 -0.020919498
0000b0 52 86 95 3f ee da 17 3f 49 23 23 be 01 c6 c9 3d
       1.1681616 0.59318435 -0.15931429 0.098522194
0000c0 e8 4b 65 be d3 63 01 3f 9a 62 c1 be 44 55 0d 3f
       -0.22392237 0.50542945 -0.3777054 0.5520823
0000d0 fd 14 33 3f 31 62 4a 3f e2 94 bd 3e a0 de b6 be
       0.699539 0.7905608 0.3702765 -0.35716724
0000e0 de 99 39 bf 88 29 56 be a8 68 00 3f 66 1d 0d be
       -0.7250041 -0.2091428 0.5015969 -0.13780746
0000f0 ea 13 b6 be 95 59 db 3e 8b d5 13 be 2a 15 b1 be
       -0.35562068 0.42841783 -0.14436929 -0.3458646
000100 d5 b3 aa 3f b1 c3 c1 3e 44 5e 17 3f 58 73 fe 3e
       1.333613 0.37844613 0.5912821 0.49697375
000110 5c 28 dd 3e d8 cd 01 3f 2c 5b fb 3e 1f 41 ce 3e
       0.43194854 0.5070472 0.49092996 0.40284058
000120 0a b5 80 be bc 0b be be 02 f7 be bd ef 86 a1 be
       -0.25138122 -0.37118328 -0.09324457 -0.3154826
000130 a7 2b 10 3f 75 d5 da 3e 57 43 3c be 8c 03 56 3e
       0.5631661 0.4274098 -0.18385063 0.2089979
000140 0f d7 af 3e 0f 98 79 be 75 77 03 3f 5a 51 9f bd
       0.34343764 -0.24374412 0.5135415 -0.077791885
000150 40 1d a5 be a2 b2 f5 3c 69 fb 3f be 20 ba c8 3e
       -0.32248878 0.029992405 -0.18748249 0.39204502
000160 4e b1 6b be 53 be d1 be fd 43 a4 3c b7 96 a5 be
       -0.23016855 -0.40965518 0.02005195 -0.3234155
000170 29 4b e2 3e 6e 10 51 3d ea 9f 40 bf 62 67 03 3f
       0.44197968 0.05104106 -0.7524401 0.51329625
000180 93 7e 17 be 7c 63 0e be bb 24 18 be 03 86 86 be
       -0.14794378 -0.13905138 -0.14857762 -0.26274118
000190 54 97 76 3e 1b 2d 5d 3e 0d 4c 2a 3f f4 29 61 3d
       0.24081165 0.21599238 0.66522294 0.05497165
0001a0 28 e2 68 3e 14 5d c3 bc 6f 75 8a be ce db 5b be
       0.22742522 -0.023848094 -0.2704272 -0.21470568
0001b0 32 95 d4 3e fd 6e 45 3f bd 2f e9 3e c0 20 16 bf
       0.41520077 0.7712248 0.45544234 -0.5864372
0001c0 d4 97 03 3f ed 70 3b 3f 9b a7 ab be db 6a 22 3f
       0.51403546 0.73219186 -0.3352631 0.634443
0001d0 d1 e9 66 bd d5 0d 93 3f 2d 71 bb 3d c9 3d 98 be
       -0.05637533 1.1488596 0.09152446 -0.29734638
0001e0 2e a8 28 be 9b 75 b6 be 45 d2 24 bd 45 6c 98 bd
       -0.16470405 -0.356366 -0.04023959 -0.07442526
0001f0 af e1 17 3f 09 c6 81 3f 43 0d 5d bf cb 0d c7 bc
       0.5932874 1.013856 -0.8634836 -0.02429857
000200 13 a3 9d be 08 e7 1d 3f 3e a9 0a be b4 e8 58 be
       -0.30788478 0.6168065 -0.13541123 -0.21182519
000210 33 1d f0 bd df a1 e8 bd 8a 62 15 bd 0a a6 51 be
       -0.11724319 -0.113589995 -0.036470927 -0.20473495
000220 e4 14 ae be 57 63 b2 be 80 b6 4f be aa d8 e3 be
       -0.34000313 -0.34841415 -0.20284462 -0.4450124
000230 f9 39 63 3e 0d fc ac be 9e fa 0f 3f e3 fe 6d be
       0.22190084 -0.3378605 0.56241786 -0.23241763
000240 c3 e1 19 3f 8c 8f fb 3e 89 86 25 3f 10 ec 05 be
       0.6011011 0.49132955 0.6465841 -0.13078332
000250 1e 75 43 3f 88 0a a5 3f 4e 93 a1 3e 83 33 b1 bd
       0.7635058 1.2893839 0.31557697 -0.08652403
000260 97 aa f9 3d 16 d2 05 3c 5b 7a db 3e 53 06 8e 3f
       0.121907406 0.008167764 0.42866787 1.109568
000270 44 82 10 3f 06 06 9e be c2 df e0 bc ec 93 7f 3c
       0.5644877 -0.3086397 -0.027450446 0.015599232
000280 bd 14 9e be 76 47 1c bf 40 64 59 be 73 3a ed 3e
       -0.30875197 -0.6104654 -0.21229649 0.46333656
000290 98 95 3d 3f e0 e3 ae be 8e ca 31 3e 9f f4 62 3d
       0.74056387 -0.3415823 0.17362425 0.05540907
0002a0 27 55 f9 bc db e0 4e 3e 2a 0c 89 3e 54 58 fe 3e
       -0.030436112 0.20202963 0.26767093 0.49676764
0002b0 cd 8f 21 bf 80 8e 0f 3f 6d e4 24 3f 88 7f b0 3a
       -0.6311005 0.5607681 0.6441105 0.0013465742
0002c0 2b 30 24 bc 3f 3a 80 3d 1c 19 55 be a4 49 7f 3d
       -0.01002125 0.062611096 -0.2081036 0.06232609
0002d0 91 08 ef 3e 70 39 29 be 48 a5 1c 3f 51 b0 7c be
       0.46686223 -0.16525817 0.611897 -0.24676634
0002e0 5f c9 a7 be 5d ff 8a 3c 16 67 23 3f 64 d1 58 be
       -0.3277082 0.01696747 0.6382917 -0.21173626
0002f0 02 74 36 3f a8 c5 0a bc e1 c6 39 3f c9 35 8e 3f
       0.71270764 -0.0084699765 0.7256909 1.1110164
000300 4f 3d f5 bd da 2a a8 3d b7 63 27 39 e5 97 2f be
       -0.11974584 0.08211298 0.00015963508 -0.17147787
000310 2c 3b aa be 85 a0 0d be c8 bb 21 bf 28 39 0c be
       -0.3324827 -0.13830765 -0.63177156 -0.13693678
000320 b7 56 1f 3f 12 ee 92 be c5 53 fb 3d 3e 6b 18 3f
       0.6224169 -0.28697258 0.12271837 0.5953864
000330 94 20 9a be 58 eb d9 3e 93 52 96 be a6 8b a6 be
       -0.3010298 0.42562366 -0.29359874 -0.32528418
000340 6c c6 aa be f3 14 1a be 3c 59 5b be a3 57 44 3f
       -0.3335451 -0.15047054 -0.21420759 0.76696223
000350 5b 86 5d 3f ad aa 97 3e 75 b1 07 3f 6d 41 18 3f
       0.86533135 0.29622403 0.5300515 0.5947483
000360 5f fd d9 bd 1d a2 d7 3e c8 57 d2 3d 26 83 c5 3e
       -0.1064403 0.4211587 0.10270649 0.3857662
000370 79 f3 43 3f 88 16 68 be c3 70 23 bd ec b2 51 3e
       0.76543385 -0.22664845 -0.03990246 0.2047841
000380 15 59 25 be 1d 8d 87 bf 86 ab ac bd 62 d2 cd 3e
       -0.16147263 -1.0589939 -0.08431153 0.40199572
000390 72 3f 7c bf b3 22 59 3f f8 7d 8b be a1 b3 5d 3e
       -0.9853431 0.8481857 -0.27244544 0.21650554
0003a0 bc 34 20 3f 21 ad de bc 93 35 29 3f 76 22 26 be
       0.62580466 -0.027182164 0.6609737 -0.16224083
0003b0 82 fa 3b be c9 fa 4b 3f 45 b6 50 bd 62 14 e5 3e
       -0.1835728 0.7967954 -0.050955076 0.44742113
0003c0 5f 24 30 be b2 8c 40 3f 02 5a a8 3f d7 c1 5f 3b
       -0.17201374 0.75214684 1.3152468 0.0034142637
0003d0 e7 a6 11 bd 30 82 03 bd 82 60 98 be 39 c2 40 3e
       -0.03555956 -0.03210658 -0.2976113 0.1882409
0003e0 64 a5 1e be 9a a6 30 3f be 79 0f bf 1c 58 3b 3f
       -0.15492779 0.69004214 -0.5604514 0.7318132
0003f0 e3 72 a4 be 26 56 fa be cd de 58 be 81 42 b4 be
       -0.32118902 -0.4889385 -0.21178742 -0.35206988

network.8.bias f4 [3]
000000 c5 ac 35 bf eb 36 29 bf 7d fc aa bd
       -0.7096675 -0.66099423 -0.083489396
