mountaincar_cl_project/runs/periodic/egp/seed_0/online_stream_model.pth (torch, 536437 bytes, 8 tensors)

network.0.weight f4 [256, 2]
00000000: 6cc3 953e 0441 b93f bde2 9e3e 8aa5 12c0
00000010: 3232 dbbd 2537 2ebf de90 85bd 0cb6 43bf
00000020: 005e 9cbb 0b6b dcbe a8e8 a13d 80bb 48bd
00000030: c064 08be 0a64 d1be 4cf2 5bbe da00 e33e
00000040: 7e2a 5bbe c0ea d73d 4b3c d03e 61f4 323f
00000050: 7732 b6be 4a96 e0be 04d7 353e 3fc4 a43f
00000060: cf67 37be dd94 3b40 b574 eabe 7965 3abf
00000070: 31a7 a13e 1d3f 4a3f 1657 d63e 38a0 2fbe
00000080: e422 8e3c d3c9 e5bf 50c3 283e 0046 ec3d
00000090: 1750 19bf 7ca9 0dc0 3148 15bf 8ad9 763f
000000a0: 6ef4 d93d d63c bcbf 4d71 b2be f052 8abe
000000b0: 0ad0 083f 95a3 f53f 834f 1bbc 0490 bebf
000000c0: 7e5c f03d f5c7 d1bf be50 ab3d 376b d63f
000000d0: ad64 56bd 9d64 32c0 72dc 1c3e be42 12c0
000000e0: c44f 483e 05c0 10bf 7054 bf3d a467 1fbe
000000f0: f2ba ca3e 0072 d13a db9c cf3e 6d73 b63f
00000100: f113 15bf 2767 3e3e d832 17be b17d e5be
00000110: f66c 173e f040 dabf 401f aa3d f2e6 b03e
00000120: 6e9e ad3e 7409 e0be ad68 6dbe c6e3 6abe
00000130: 5009 4dbd 0124 01bf a04e e13d a09d 673e
00000140: 4b9a b63b e9eb ac3f 2410 3cbe 55e6 03bf
00000150: 16c5 a83e 3bdf 74bf a502 d63e 60f3 1ac0
00000160: 13b7 d8be 3bad d23e 101b 8a3e c0c6 0cbd
00000170: a080 a6bc c09d a73c 6be5 0c3f 470c 04bf
00000180: a99c c13d d0c1 bebf d612 c73e 00f8 b0bc
00000190: 027b cd3e 1b63 a0be 3137 a13e 2670 6e40
000001a0: 3975 04bf 52b1 75bf aeac 093f c3be adbf
000001b0: af9c cfbe f158 1bc0 a86a d43e 9cac e03f
000001c0: ddfb 9bbe 8796 96be 8011 723c 16ff d5be
000001d0: 7b15 993e 3f29 be3f a3e1 14bf c758 6bbe
000001e0: 89d8 da3c 33b3 9cbe e67a 743e 7cfa 063e
000001f0: e6a8 ad3d 62de c5bf 3827 93be 2fab 703f
00000200: 066c a2bc cc0a debf 4035 6e3d 726d 23bf
00000210: 1433 7bbe b30b 1ac0 a152 85be a69c 9bbe
00000220: 077f 29be 0862 34c0 c8bf 933e 448a 0540
00000230: 9cd9 08be c05c c6bc 3375 d9be 124c f2be
00000240: e2d5 e23d 671c 18c0 66ea f13c 583f c83f
00000250: d7af 89be 2a9f c13d 15dd 803c 76be fdbf
00000260: 5317 8cbd 2d94 28c0 920e 503e 1e56 12c0
00000270: 4987 223f 0a69 58be 2098 ee3e afb0 6e3f
00000280: c8a5 813e 8aed e1bf 6fc0 033e 067c 0240
00000290: 3a37 fbbe 7bfc 06bf 6693 be3e 2a4b b13f
000002a0: 8732 1ebe a700 2ac0 ba38 ef3e 9c45 1dbf
000002b0: 06bb f13e efc6 0b3f 032e c7be 21d6 1ac0
000002c0: bad5 a5be 6808 b43f 68ec 43be 82d7 7dbe
000002d0: e4e9 00be d653 f53e c88a 11bf 1a47 6dbf
000002e0: 05cc 5c3f 9dc2 fe3f 7b39 8f3d 6ae3 04c0
000002f0: e9e0 403d 71a5 b8bf d60d 82be 181e f1bd
00000300: 8fe9 acbd 17fc 23c0 8057 a43b 8e4b 943e
00000310: ad57 fb3e 3c07 903f 2086 cabd e827 f7bd
00000320: a81e 053f 5b20 8cbf 5ea5 f63e f077 a23f
00000330: 78ca 963d dc3c 21c0 6ddd 7e3e 4bf4 8140
00000340: 7507 a6be d9ed 0dbf a81f 353f bc80 483f
00000350: d00a 163d f01b d73d a86f d43d 61e6 a53f
00000360: ff2f c43e b3d6 7c3f 0d25 3e3c 14a3 04c0
00000370: dade a8be b86e efbe 6800 0b3f 30be 113f
00000380: 5367 c2bd fa67 8fbf b960 083e b209 0bc0
00000390: 7203 e2be 0814 73bf 7eb1 603f 9e6a bf3f
000003a0: 93ed 723d 13f7 0ec0 7e74 ff3c cac4 c3bf
000003b0: d8a5 2b3e 1d9e 1c40 8715 103d a5b5 10c0
000003c0: 483a 04be 25ba 143f 92b9 bd3e 314f 723f
000003d0: 8520 0f3f b436 e7be 7fa4 8239 ac51 f4bf
000003e0: 9c66 44be f989 96be 6d2f e4be 4004 1b3e
000003f0: 625f cb3e cccd e73f 31ee f3be 3997 773e
0.29250658 1.4472966 0.31032363 -2.2913537 -0.10702933 -0.68052894 -0.06521772 -0.76449656
-0.004771948 -0.43050417 0.07905704 -0.04900694 -0.13319683 -0.40896636 -0.21479148 0.44336587
-0.21402928 0.10542822 0.40671 0.6990414 -0.35585377 -0.4386466 0.17757803 1.287239
-0.17910694 2.930961 -0.45792165 -0.72811085 0.3157287 0.79002553 0.41863316 -0.17150962
0.017350622 -1.7952217 0.16480756 0.11536789 -0.5988783 -2.2134695 -0.5831328 0.9642569
0.106423244 -1.4706066 -0.34852067 -0.270164 0.5344244 1.9190546 -0.009479406 -1.48877
0.117363915 -1.6389147 0.0836501 1.6751469 -0.052342106 -2.787391 0.15318468 -2.2853236
0.19561678 -0.56543 0.09342277 -0.1556688 0.39595753 0.0015979409 0.4054936 1.4253975
-0.58233553 0.18594037 -0.14765489 -0.44822457 0.14787659 -1.7051067 0.08306742 0.34551197
0.33909935 -0.43757212 -0.23184462 -0.22938451 -0.05005771 -0.5044556 0.11001325 0.22618723
0.0055725924 1.3509494 -0.18365532 -0.51523334 0.32962865 -0.9565312 0.41798893 -2.4211044
-0.42327175 0.4114779 0.26973772 -0.03436923 -0.020325005 0.020460963 0.55037564 -0.51581234
0.09453709 -1.4902897 0.38881558 -0.02160263 0.4013291 -0.3132561 0.3148742 3.725595
-0.5174137 -0.95973694 0.53779113 -1.3573841 -0.40549228 -2.4273036 0.41487622 1.7552676
-0.30465594 -0.29411718 0.01477468 -0.41796178 0.298992 1.4856337 -0.58156794 -0.22983085
0.02671458 -0.30605468 0.23875007 0.1318149 0.084794804 -1.5458491 -0.2874086 0.94011205
-0.0198269 -1.7347045 0.058156252 -0.63838875 -0.24531204 -2.406964 -0.26039603 -0.3039295
-0.16552363 -2.8184834 0.28857255 2.086564 -0.13364261 -0.024214149 -0.42472228 -0.47323662
0.11075951 -2.3767335 0.029530715 1.5644331 -0.26891968 0.09454186 0.01573042 -1.9823749
-0.06840386 -2.634044 0.20318058 -2.2865062 0.6348768 -0.21133819 0.46600437 0.9323835
0.25321794 -1.7650616 0.12866376 2.0388198 -0.49065572 -0.52729005 0.3722183 1.3851063
-0.15448962 -2.6562898 0.46722966 -0.6143434 0.47213 0.54600424 -0.38902292 -2.4193194
-0.32389623 1.4065065 -0.1913315 -0.24789241 -0.12589222 0.47915524 -0.5685239 -0.9268662
0.8624881 1.9903141 0.069933854 -2.0763803 0.04708949 -1.4425489 -0.2540118 -0.11773318
-0.08442985 -2.5622613 0.0050153136 0.28963894 0.4909033 1.1252208 -0.098888636 -0.120681584
0.519999 -1.0947374 0.4817304 1.2692852 0.073628366 -2.5193396 0.24889155 4.061071
-0.32427564 -0.5544105 0.7075143 0.78321433 0.036631405 0.105033755 0.10372859 1.2960931
0.38317868 0.98765105 0.011605513 -2.0724535 -0.32982522 -0.4676416 0.54297495 0.5693083
-0.09492364 -1.1203606 0.13318147 -2.1724668 -0.44143254 -0.9495244 0.8777083 1.4954412
0.0593086 -2.2338302 0.031183477 -1.529443 0.16762483 2.4471505 0.03517678 -2.2610867
-0.12912858 0.58096534 0.3705564 0.94652086 0.55908996 -0.45158923 0.0002491809 -1.9087424
-0.19179767 -0.2940214 -0.44567433 0.1513834 0.3972121 1.8109679 -0.47642663 0.2417878

network.0.bias f4 [256]
00000000: 5f74 66bd 3193 58bd e33a 4cbe a381 fbbd
00000010: 8fc8 21bf 951c b5be 2c67 27bf 1d46 b7be
00000020: 78c4 0bbf ec53 fcbc 944a e7be 41a0 61bc
00000030: 9e2a 1fbe 6851 c6be de86 2a3d 4419 02bf
00000040: 3c3f c13d 1cd8 a6be 7e37 02bf 662b d8be
00000050: 4bf2 473d babc debe a92c 3fbe ef45 8f3d
00000060: 9408 133e e60e 42bd 93d4 9dbd 105f 3e3e
00000070: 71f3 18bf 68ca 0abe 5b32 9abe 286b 073d
00000080: ee69 eabe 8b0d 83be 9ca4 263e 4981 cbbe
00000090: 9014 07bf c95c 97be e00a c7bd c33f 14bf
000000a0: 9a13 6cbd 3a3e 10bf 95f6 26bd 75bf 573e
000000b0: 6561 b7be f05e 66be 0052 15bf 4d59 8ebe
000000c0: c3ff f63d 2dfb dfbe d4f6 c1be f357 06be
000000d0: 9ad5 d7be ff58 e8bd 11f8 a7be cb98 03be
000000e0: ccda 54be ea55 14bf b9a9 243e 6fee 37bf
000000f0: ce86 c4bc ab8c 15be e377 e93d 5da4 4ebe
00000100: 3a6d 9f3d 7780 03bf 1b12 56be 9614 41be
00000110: 0a64 24be 8f38 69bd 32e1 6fbe 9aef 27bf
00000120: 3c1a 213d 08c4 5abd 6b12 a6be 264a 83bc
00000130: a158 aebd 573d 5d3e fff7 15bf 0193 21be
00000140: d2aa fd3d 676b 80bd 952d 2ebf 317c 96bd
00000150: 2bae 16be 2232 75be 57d1 e7be 771e a9be
00000160: cac0 81be 90a5 15bf 8504 d0be 2867 43bf
00000170: b8b4 55be df0d df3c 4316 b93d c9cd f9be
00000180: d6bf c4bd 456a 99be 9d6f 92bd 403c 08bf
00000190: 723a 8d3e 80ad 25be cb2a 6b3c 4750 03be
000001a0: 7a32 1abf 8026 77be d871 cabe a389 debb
000001b0: f842 a6bc 9d84 99bc c809 31bf 960d 92bd
000001c0: b127 bfbd b89f 313e b1d0 1cbf 248f 7ebe
000001d0: 469c 6a3c 2fd2 ae3d d1a7 94bd f904 ab3c
000001e0: 68f5 5fbe 02f7 473e 88eb 34bf bbe2 ba3d
000001f0: 576f efbe 00c9 20bf 5fc5 a0bd 7050 18bf
00000200: a390 6fbd 6e22 21bd 7298 933d 959a d2bc
00000210: 273b 19be 0634 95bd 1947 b03d eae2 c9bd
00000220: 113e 71bc c8cb 42be 9523 04be 7162 14be
00000230: 1ce8 3fbd 4b6f 0f3c d0e8 7abb b11b 1fbf
00000240: 1378 2cbf bd64 a2bd 86cd 01bf 9664 afbd
00000250: 150f d3bd 5249 30bf d20c 86be f9d3 e7bd
00000260: 0f79 013e ec74 0fbf 0643 abbe 091b fcbe
00000270: ae3a 8ebe fce4 dfbd bf54 9c3b b412 23bf
00000280: 3190 60bd 82e7 dbbd b9a4 32bf 8875 88bc
00000290: dc82 12bf a60f 423c 9c0a 1fbe 86eb e8bc
000002a0: 86d2 9cbe b74d 483e 49dd 5fbe f5d7 09bf
000002b0: 540e 903e b487 c5bc 739c e1be 14de 61be
000002c0: ffab e7be e48e f4be 0442 89bd 60e7 64be
000002d0: 446e 95bd ab6e a3be 3fad 13bf 800d 3fbe
000002e0: bb77 5dbd e562 74be e72e 17be 06f7 11bd
000002f0: 1add a0be dc3d 30be 2e3b 1d3e 263c 67be
00000300: 55c6 c6be 60c6 0ebe b89e d3bd 38e2 b0be
00000310: aee8 cb3d ceb6 bebe 62c4 0ebf adc6 84be
00000320: 06e0 1fbf e809 01bf 6748 73be 4fc0 26be
00000330: 5a5e eebe 2f64 3fbe c9af 3cbd a142 b2bc
00000340: ab33 1f3d a908 19bf 1f23 3a3d a399 cdbe
00000350: e4a8 1ebe 1ac7 7cbe c68a b0be fd31 213e
00000360: 0c09 1abe ca75 e83c 263c c8bd 3e35 31bf
00000370: 31c6 8abd 31bf a6bd 51b6 4abe 50e3 0e3d
00000380: 1b65 f2be 2c02 143e bdae 88bc afee 0dbf
00000390: e580 91bd fce3 96be 4c6d 09bb 324b a0bc
000003a0: c7ad 96bd 8a88 00be 8c08 073c a134 fabe
000003b0: fce0 8fbe 5635 2cbd ddd0 6a3e 5b84 08be
000003c0: 43b8 e93c 1ec8 933d c342 b2be a35b 80be
000003d0: eebc c3bd e180 2ebf af77 d3be 42a3 69bd
000003e0: 2f5b e73d 9ee6 d0bd 4da3 16bf 5c44 50be
000003f0: 78bd bd3c 6cde 4cbc 5a6d cbbe e06e 86bd
-0.056263324 -0.052874748 -0.19944339 -0.122805856 -0.63196653 -0.3537337 -0.653918 -0.3579568
-0.5459666 -0.030801736 -0.45174086 -0.013771118 -0.15543601 -0.38733983 0.041632526 -0.508198
0.09435889 -0.32586753 -0.50865924 -0.4222061 0.048815053 -0.43503362 -0.1866938 0.06995761
0.14358741 -0.04737749 -0.07706561 0.18590951 -0.5974646 -0.13553774 -0.30116543 0.033061177
-0.45783943 -0.2559627 0.16273731 -0.39747074 -0.5276575 -0.29562977 -0.09718871 -0.5790979
-0.05763588 -0.5634495 -0.040762503 0.21069129 -0.35816494 -0.22497153 -0.5832825 -0.27802506
0.120605014 -0.4374632 -0.37883627 -0.13119487 -0.42155153 -0.113451 -0.32806447 -0.12851255
-0.2078659 -0.57943594 0.16080369 -0.71848196 -0.023990061 -0.14604442 0.1139982 -0.20179887
0.07784505 -0.51367897 -0.20905344 -0.18855509 -0.16053787 -0.056938704 -0.23425749 -0.6559998
0.03933166 -0.053409606 -0.32435927 -0.016026568 -0.08512998 0.2160543 -0.58581537 -0.15778734
0.12386097 -0.06270485 -0.680383 -0.073479064 -0.14714877 -0.23944905 -0.452769 -0.33031055
-0.253424 -0.58455753 -0.40628448 -0.7632928 -0.2086972 0.027228294 0.09037449 -0.48789814
-0.09606902 -0.2996389 -0.07150195 -0.53216934 0.27583653 -0.16179466 0.014353464 -0.12823592
-0.6023327 -0.2413578 -0.3953998 -0.00679131 -0.020295605 -0.018739993 -0.6915555 -0.071314976
-0.093337424 0.17346084 -0.6125594 -0.24859291 0.014319485 0.08536183 -0.07258571 0.020876395
-0.21870959 0.1952782 -0.7067189 0.09125277 -0.46764633 -0.628067 -0.078501455 -0.5949774
-0.058487546 -0.039339475 0.07206811 -0.025708476 -0.14963971 -0.07285313 0.08607311 -0.098577335
-0.01472427 -0.19023049 -0.12904198 -0.14490677 -0.046852216 0.008754562 -0.003828574 -0.6215163
-0.6737072 -0.079293706 -0.5070423 -0.08564107 -0.10305611 -0.6886188 -0.26181656 -0.113197275
0.12643836 -0.56037784 -0.33449572 -0.49239376 -0.27779144 -0.10932347 0.0047708447 -0.63700414
-0.05482501 -0.10737516 -0.69782597 -0.016657606 -0.57230926 0.011844551 -0.15531391 -0.028432619
-0.30629367 0.19560896 -0.21861757 -0.5384515 0.28135931 -0.02411256 -0.44064674 -0.22057372
-0.4524841 -0.47765267 -0.067020446 -0.22353888 -0.07296422 -0.3192037 -0.5768623 -0.18657494
-0.054069262 -0.2386585 -0.14763986 -0.03563597 -0.31418687 -0.17211097 0.15354607 -0.22581539
-0.3882319 -0.13942862 -0.103330076 -0.3454759 0.099564895 -0.37248844 -0.55768406 -0.25932828
-0.6245121 -0.5040574 -0.23758088 -0.16284297 -0.4655636 -0.18690561 -0.04606608 -0.021760287
0.038867634 -0.5977884 0.04544365 -0.40156278 -0.15494114 -0.24685326 -0.34480876 0.15741725
-0.15042514 0.028376479 -0.097770974 -0.69221866 -0.06776083 -0.081419356 -0.1979611 0.03488475
-0.47342762 0.14453954 -0.016684884 -0.5544233 -0.07104663 -0.29470813 -0.0020969687 -0.019567106
-0.07357364 -0.12552086 0.008241784 -0.48868278 -0.28101337 -0.042043053 0.22931238 -0.1333174
0.028530246 0.07215904 -0.3481656 -0.25069913 -0.0955752 -0.68165404 -0.4130225 -0.05704046
0.11296689 -0.10200237 -0.5884293 -0.20338577 0.023161635 -0.012504201 -0.39731866 -0.065641165

network.3.weight f4 [256, 256]
00000000: 508b d13b fb7f f5bd 3a27 803b 0077 b83b
00000010: 004c 39bc f0da 2f3c 74a2 a33c 28cd 19bc
00000020: d4e6 7a3d 5902 0dbe 603b 533b a7d7 ef39
00000030: 35c4 9fbf 4ddf d2bd 0df1 20bd 608d 963c
00000040: 66ee 1fbd f0d6 a53c c0b7 34be d5bf 973c
00000050: 04c9 45be 4c8d be3c 1e12 01bd 6992 b33c
00000060: 0ef2 cd3c bdc7 00bc 1091 94be 750b 87ba
00000070: c0f4 5e3c 0080 a63a 540d 12bd 4a40 25be
00000080: d100 f4bc 3ca4 b43c a25e 283d 9a13 3ebd
00000090: b81c 2a3c daf2 1abc 288e 693d 9078 8cbb
000000a0: b4d1 50bf 8844 e23c f02d eebd 19ca 82be
000000b0: d27e 03be 2851 fe3c f8d9 8a3c 2cac 64bd
000000c0: daad 573d 6ede 6bbd ae0d 3cbd c786 dcbe
000000d0: c77d 33bd 7f32 38bb fc20 563d ca66 5fbd
000000e0: bd3f 8c3c 10a9 83bb ffaa d7bf 3f83 9b3c
000000f0: 5409 ddbc dcf6 40bd e66c a8bd c184 0bbd
00000100: a740 0fbe 08b6 8c3c 3287 09bd d664 ffbc
00000110: d8e0 5dbe d411 c5bd 4814 373d 08e7 39bd
00000120: ef75 48be 6701 a8bf b0e4 5e3c b335 53bd
00000130: ea87 9ebe 040f 883d cadc 253d 2e99 b8ba
00000140: 9113 84be 2d65 b0bd 6c58 463d bb2f a53d
00000150: c4ab 6bbe c4db 16bd 4481 b7bc 4fe4 893c
00000160: a9c5 fbbd 8011 8fbb d876 01bd 4da9 febc
00000170: 7465 7d3d 1869 f4bd 5483 8abd caae 3bbd
00000180: ca35 96be f0f9 60bc 8cae 863c 142a 07bd
00000190: 266f 32bf 90dd 31bc bb42 84be 3fa0 90bf
000001a0: bc10 c4bc 53b6 a23c ee4e 3a3d a26b a3bd
000001b0: 7538 3c3d 69a5 8bbe 2874 9c3c bf7b 03be
000001c0: 5511 d8bd a52c a73d 19de 0cbe c855 513d
000001d0: 9a49 8abe ae74 29bd 276b a93c fb09 db3d
000001e0: 805c abbb a311 c9bf f61f 343d c213 87bd
000001f0: 00fb 32bd 26bf 24bd b420 0a3d 1cfe 313c
00000200: ae5e a4bd fca5 693c a128 413b 4b50 4dbe
00000210: b497 00bd 723b 7c3c 203e 97bd b222 513c
00000220: 0d39 90be 648e 6d3d 5870 84bd 45db c6bd
00000230: 31c2 f3be 1e34 25be 9279 2fbe 2cb2 d4bd
00000240: 2333 4cbd 08f4 83be d902 bf3c 8046 5bbd
00000250: e9c7 bcbd d8fc 1d3d c6a4 23bd 7ab4 c93c
00000260: 9042 98bd c036 123d 6efd 58bd 79d5 80be
00000270: 0c00 69bd 021e 99be 2d36 47be 5c36 92bc
00000280: 4829 c33a 929b 80be 204a 8ebc e374 08be
00000290: 165f 433d 0d3b d2bd b264 4fbd 3743 86be
000002a0: 2f0a 1cbe e375 003e 9be2 b43c 8c42 1ebe
000002b0: 45b9 72bf c47c 4bbd a8be 7e3c 5d0a 89be
000002c0: b852 41bd 165b 22bd 9083 ec3c a78b 913c
000002d0: b53f 8fbf 901e cabc f69f 7cbe 70f0 ef3c
000002e0: d2af 5dbd acdc 05be 0c4a df3c c505 adbd
000002f0: 5cc3 6f3d 1c92 f83c d2e7 89be 10b1 103c
00000300: 6c0c a9bd d058 4cbf d0ea 513d cf71 ad3c
00000310: fc92 35bd d845 053d b7f4 92bd 809f 393c
00000320: 8052 fbba b077 583d dbee dbbb a6b5 4ebd
00000330: 9e7c 76bd 9884 9bbc 9b46 83bf a09b 3fbe
00000340: 2552 76be e9e5 b03b 8f63 07be b2a6 1d3d
00000350: 20cd c3bb d083 2f3c ec39 49bd 9918 1dbf
00000360: bfe7 b6be ba9e 47be 4054 a0bd 3c7b c9bc
00000370: b4b1 46be 1489 9bbe 18f5 46bd 0afd 2cbe
00000380: b84f 4abc fe88 2abc 7cb6 9ebf 89fc 833b
00000390: 7301 93bc fbb7 15bd 40ee a4be 4638 e6bc
000003a0: dcfb 32be 6119 adbd 5abb 87be fa94 47be
000003b0: 8b26 a4be 6be0 11be 7e42 673d 7439 3fbd
000003c0: 787e 8cbe 58a8 bbbd b73b 6d3c 4478 eb3c
000003d0: 4c23 ca3d bcd8 973c 0007 d5bc b3b8 05be
000003e0: 8807 47be 0e79 09bf 5032 373d 20e0 d3bc
000003f0: c41b 20be 9119 64bd ca15 2cbd 139e 3cbd
0.006394781 -0.11987301 0.003910926 0.0056294203 -0.011309624 0.010733351 0.019974925 -0.009387292
0.06125529 -0.13770427 0.0032231435 0.00045746306 -1.2481753 -0.102964975 -0.039292384 0.01837796
-0.039045714 0.020244092 -0.1764822 0.01852409 -0.19314963 0.023260735 -0.03151142 0.0219204
0.025139835 -0.007860121 -0.29016924 -0.0010303097 0.013608158 0.0012702942 -0.035657242 -0.16137806
-0.029785546 0.02205097 0.041105874 -0.046405412 0.010382824 -0.009457314 0.057020336 -0.004286833
-0.8156998 0.027620569 -0.11629856 -0.25544813 -0.12841347 0.031044558 0.016949639 -0.05582826
0.052656032 -0.057585172 -0.045911483 -0.43071577 -0.043821122 -0.002810627 0.05227755 -0.054541387
0.017120237 -0.0040179566 -1.6849059 0.018983481 -0.026981987 -0.047110423 -0.08223896 -0.03406215
-0.13989507 0.017176643 -0.033576198 -0.031176012 -0.21667802 -0.09622541 0.044697076 -0.045386344
-0.19576238 -1.3125428 0.013604328 -0.051564883 -0.3096307 0.06643489 0.040493764 -0.0014083737
-0.25796178 -0.08613048 0.04842417 0.080657445 -0.23014742 -0.03683068 -0.022400506 0.016832499
-0.1229356 -0.0043661 -0.03160748 -0.031086588 0.06186433 -0.119341075 -0.0676333 -0.04582099
-0.29337913 -0.013731465 0.016440652 -0.032999113 -0.6970085 -0.010856047 -0.2583216 -1.1298903
-0.02393376 0.01986233 0.04548543 -0.07979514 0.04595228 -0.27274635 0.019098356 -0.12840174
-0.10550181 0.08162812 -0.13756599 0.051107198 -0.2700928 -0.04137104 0.020680977 0.10695263
-0.0052295327 -1.5708507 0.043975793 -0.065955654 -0.043696404 -0.040221356 0.033722594 0.010863807
-0.08025871 0.014260765 0.002947368 -0.2005016 -0.031394675 0.015395032 -0.07384896 0.01276462
-0.28168526 0.057997122 -0.0646674 -0.09709791 -0.47609094 -0.16133162 -0.17136219 -0.10385546
-0.049853455 -0.2577212 0.023316788 -0.05353403 -0.09217817 0.03857121 -0.039952062 0.02462219
-0.07434571 0.035696745 -0.052976064 -0.25162867 -0.05688481 -0.29905707 -0.1945426 -0.017848186
0.0014889622 -0.2511869 -0.01736933 -0.13325839 0.047698103 -0.10265169 -0.05063314 -0.26223156
-0.1523826 0.1254497 0.02208071 -0.15455073 -0.9481395 -0.049679533 0.015548386 -0.2676572
-0.047198027 -0.039637648 0.028871328 0.017766787 -1.1191317 -0.024672776 -0.24670395 0.029289454
-0.054122753 -0.13072461 0.027256988 -0.08448366 0.05853592 0.030343108 -0.26934677 0.0088312775
-0.082543224 -0.7982302 0.051249325 0.021172432 -0.04432963 0.03253731 -0.07175582 0.011329532
-0.0019174367 0.052848518 -0.0067118234 -0.050466202 -0.060177438 -0.018984124 -1.0255922 -0.1871171
-0.24054773 0.005398501 -0.13221572 0.03848905 -0.0059753805 0.010712579 -0.049127504 -0.6136566
-0.35723683 -0.19494143 -0.078285694 -0.024594896 -0.19403726 -0.3037802 -0.048573583 -0.16893402
-0.012348108 -0.010408638 -1.239944 0.0040279073 -0.017945027 -0.03655241 -0.3221302 -0.028103005
-0.17478889 -0.08452106 -0.26510125 -0.19490424 -0.32060656 -0.14245765 0.056459896 -0.04668565
-0.27440238 -0.091629684 0.014479569 0.02874387 0.098700136 0.018535964 -0.026004314 -0.13058738
-0.19436467 -0.5370034 0.044725716 -0.025863707 -0.15635592 -0.055688445 -0.042012967 -0.04604919

network.3.bias f4 [256]
00000000: 4576 1d3e f841 053e 37ce 3d3e cd89 46bb
00000010: 733e e23d 3c41 753e 4a0f 1e3e 2e2b fbbc
00000020: 874c 29bd dd67 c43d f47a 293e ea40 c23d
00000030: ddc0 11bd b165 80bd b064 dd3c 7b7d 7a3d
00000040: ac0e f33d df97 7a3e 06e6 143e bb90 55bd
00000050: 6950 063e 9849 a13d 603f a4bd 76b4 d0bc
00000060: fe06 503e c32e d73d 1bc0 073d b526 6cbc
00000070: 203f 09bd 011e 203e ce33 84bd b7a6 a4bc
00000080: 6e0c 593e 6e47 263e 8f93 42bd fefb 7abc
00000090: 3a5f babd 7f80 e33d 9193 583e cd90 b33d
000000a0: 8489 f93d 96c9 8dbd 5abe 3b3e 0553 443e
000000b0: 2380 013e e364 b13d b1c4 173e e9b1 4dbd
000000c0: d3a6 6dbd 68e5 2d3e b1b9 133e b6b0 95bd
000000d0: 3454 02bd 2d7f 803c 05f8 c03d 5026 90bd
000000e0: 7490 863d 4447 c43d f0ff 533e c032 2cbd
000000f0: 81f0 8fbd 0984 c83d f265 183e 52a3 033e
00000100: e507 90bd 35c8 d13d a2e3 123e 8c09 23bd
00000110: a354 83bc 1978 f03d 1b3b ec3d a783 84bd
00000120: 0bdf d03d ab16 93bd 4964 be3d 33e5 4bbd
00000130: 829e 3f3e 37f8 3a3e 3eaf 81bd ef09 b23d
00000140: 636d ba3d e76a 7f3d 399f 303e be68 fabc
00000150: 284e ddbc b2d8 1e3e 7903 d5bc 3713 cc3d
00000160: 2d92 153e 55ea 553e a190 88bd 96e9 6ebd
00000170: a858 7c3e 1d05 8c3d 8c23 673e 3dc0 7b3e
00000180: 6bcc 173e 1270 21bd ac9a 3f3e 4b8e a0bb
00000190: 85f8 30bd 7c29 4f3e aecf 6b3e ab50 92bc
000001a0: 6208 7dbd 0f67 203e 3c86 1cbd 9012 d9bc
000001b0: 5768 983c eec7 583d 8169 613e 70bd 69bd
000001c0: 8fb0 91bd 4f05 4d3e 6db8 88bd 5911 b73d
000001d0: ff8a a13d f01f 4e3e ccc7 483e 9d36 61bd
000001e0: 208e aa3d 69a4 053e 37c3 0c3e e716 b33d
000001f0: b0ca 503e 61f1 f13d 0a84 e53d 62f9 5fbd
00000200: 666b 2c3e 7537 983d 033d 6d3e f377 343e
00000210: c445 8f3d d8c0 483e 3eb9 c6bc 1b2d 93bc
00000220: 2aa9 e5bc 50e3 b2bd f0e8 023e 4cbc 423e
00000230: 5601 483e 1470 3b3e 5aa3 063e 6edb febc
00000240: 1a0f 9a3d ef85 293e f310 a23d 092a a3bd
00000250: ee36 fd3d 3250 8c3e 4979 1dbd 29fa e13c
00000260: 48f3 133e 0e8a 40bd c7ce 403e ec29 a8bc
00000270: 2425 f6bc 8c05 83bc 591b 13bd cb39 55bd
00000280: 175b b73d 9b14 e6bd cc7b 103e bc8b 2f3e
00000290: cb88 4abd 63f5 cbbc f0cd 6b3e e85f 603e
000002a0: 3998 f3bc c11e 84bd 8b52 ad3d ba7a dd3d
000002b0: 339e 07bd e228 7d3e b0fe ee3d 51a7 84bd
000002c0: ef2f 90bd b31e ee3c 31f2 6c3d 570d b13d
000002d0: 1f85 2fbd 5bf3 193e 48fa 9dbc 7f12 2c3e
000002e0: 8e3e 98bc f550 463e d293 5fbc 8b01 9abd
000002f0: 3a57 56bd 7ce0 713e 4f7d f23a 9152 76bd
00000300: b24e 2d3e b6e1 183e c181 01bc 5c79 ba3d
00000310: a2eb 183e 98b3 c83d c194 2f3e dceb 92bb
00000320: d03f 88bd a88d 1ebd 6251 793d 26a1 29bd
00000330: e1ed 6ebd 6185 0a3e c68c 463e 4874 95bc
00000340: ef3a 333e 6a1f 323e 973d 76ba 3346 9a3d
00000350: c04b 56bd 0322 433e 8e4e 163e 6873 ed3d
00000360: 36c6 f9bc fd97 7dbb 5e50 fd3d 3f64 c83d
00000370: 66a5 23bd 32c1 5f3e f352 69bd bc72 1f3e
00000380: 8fb5 123e c135 9e3d d513 dc3d c926 823e
00000390: 57ae 20bd f129 8b3d c3f4 babc d493 873d
000003a0: 9ce8 4d3e 05cf b9bd bd25 2b3e ca77 01bd
000003b0: d0b0 7abd 76dc 0d3e fed3 5ebd d11f 6dbc
000003c0: e2aa 573e 2e56 07bd 5390 1c3e 0617 e53d
000003d0: be5f 26bd 1ba9 ea3d ef24 2a3e f86c d53d
000003e0: 39c7 e83d 1a02 433e 7004 0a3e dc5d 50bc
000003f0: 5c54 673e 9883 cdbd 312e 4a3e 8550 d13d
0.15377147 0.13013446 0.18535696 -0.0030294538 0.110470675 0.23950666 0.1543552 -0.030660238
-0.041332748 0.09590123 0.16550809 0.094850376 -0.03558432 -0.06269396 0.02702555 0.061154824
0.11868033 0.24471997 0.14540872 -0.05213998 0.13116612 0.07875365 -0.080199 -0.025476675
0.20315167 0.10506966 0.03314219 -0.014413525 -0.033507466 0.15636446 -0.064551935 -0.020099027
0.21196148 0.16238186 -0.047504004 -0.015318869 -0.09100194 0.11108493 0.21150042 0.08767853
0.12184432 -0.06923215 0.18334332 0.19172294 0.12646537 0.08661821 0.14821126 -0.050218496
-0.058020424 0.16982043 0.14426304 -0.073090956 -0.031818584 0.015685642 0.09422306 -0.070385575
0.06570521 0.09583905 0.20703101 -0.042040586 -0.07028294 0.09790809 0.14882639 0.1285527
-0.07032756 0.102432646 0.14344648 -0.039804026 -0.016031569 0.11741657 0.11534711 -0.06470423
0.10198792 -0.07182058 0.092964716 -0.04977913 0.1871281 0.18258749 -0.06332253 0.08693301
0.09102895 0.06235781 0.17248239 -0.030567523 -0.027014807 0.1551235 -0.026002632 0.099646024
0.14606543 0.20890172 -0.06668211 -0.058328234 0.24643195 0.06836913 0.22572154 0.24585052
0.14824073 -0.03941352 0.18711346 -0.004899775 -0.043205757 0.20230669 0.23028442 -0.017860731
-0.061775573 0.15664314 -0.038213953 -0.02649811 0.01860444 0.052925043 0.22012903 -0.057065427
-0.07113754 0.20021556 -0.066758014 0.08938856 0.078878395 0.2012937 0.19607466 -0.054983724
0.083278894 0.13050999 0.13746344 0.08744603 0.20389819 0.118136175 0.11206825 -0.05468119
0.16837844 0.074324526 0.23167805 0.17623882 0.069957286 0.19604814 -0.024258252 -0.017965844
-0.028034765 -0.08734763 0.12784171 0.19017142 0.1953176 0.18304473 0.13148251 -0.031110492
0.07522412 0.16554998 0.07913389 -0.07967002 0.12363993 0.27404934 -0.038445745 0.027585106
0.14448273 -0.04700666 0.1882888 -0.020527802 -0.030047007 -0.015993856 -0.035914753 -0.05205707
0.08952921 -0.11234399 0.14109725 0.17143148 -0.049446862 -0.024897283 0.23027778 0.21911585
-0.029735671 -0.06451178 0.084630094 0.10814424 -0.033109855 0.24722627 0.116696715 -0.064772256
-0.070403926 0.029067373 0.05784816 0.086451225 -0.042851564 0.15034239 -0.019284382 0.1680393
-0.018584516 0.1936682 -0.013646083 -0.075198255 -0.05232928 0.2362079 0.001850048 -0.060137335
0.16924551 0.14929852 -0.007904471 0.09105179 0.14933637 0.0979988 0.17146589 -0.004483683
-0.06652796 -0.038709313 0.06086863 -0.04141345 -0.058332328 0.13527443 0.19389638 -0.018243924
0.1750295 0.17394796 -0.0009393333 0.07532921 -0.052318335 0.19055943 0.14678404 0.115942776
-0.030490022 -0.0038695328 0.123688444 0.097847454 -0.039952658 0.21851042 -0.056963872 0.15571111
0.14327072 0.077250965 0.1074597 0.25420216 -0.039228763 0.06795109 -0.02282179 0.06619993
0.20108265 -0.09072689 0.16713615 -0.03160838 -0.061203778 0.1385363 -0.05440139 -0.014472918
0.2106128 -0.03304117 0.1528943 0.11186032 -0.04061865 0.114580356 0.16615652 0.10421175
0.11366124 0.1904377 0.13478255 -0.01271769 0.22590774 -0.10034865 0.19744183 0.10220436

network.6.weight f4 [256, 256]
00000000: 7816 373d 7ae7 81be 9639 7e3e d053 373f
00000010: 6c8d a13d bb9d f2be f016 3c3e 94d8 003e
00000020: adf6 e23c 17d3 8e3c 4d7e c23e 5abb 59bd
00000030: beed 453d eedc 443d 423c 0d3f 6a6e 0d3f
00000040: 9929 d8bd 6934 d83c fbd0 3f3e fb61 93bc
00000050: d88c 40be a4de 5fbd f8c1 54bc ad3d 9abd
00000060: 4244 bdbc d254 23be d935 28bf 4140 893d
00000070: 7667 94bc 35f6 c63d 8528 3e3d 18dd 69bd
00000080: 9a07 4b3a 5b27 97bf 83ec 43bd 3ebc 913c
00000090: 03b7 3e3f 5876 afbd 9048 8bbd 1545 153e
000000a0: bbce a7bf 622b fc3b 1006 7d3e f9a8 783e
000000b0: e709 383d 35cf ce3c 11a6 8c3c 9adf ab3c
000000c0: a1c0 093d d86b 183d 10f6 ecbc ee46 833c
000000d0: b5db d63c a4f8 5fbd 9f48 13bf f26f 823d
000000e0: 745c 8e3e b13b 6fbf 84ca 123e c2d8 093b
000000f0: 5acb 713e 5bb6 fbbc 8c75 d43d c8e9 513e
00000100: 38c4 313c 6de5 b23d 7f23 b0bd 9bea 013f
00000110: 3ec7 20bd f05a 853e 61e1 8b3d 97d6 063b
00000120: 2bb6 2a3e 9a63 913c 8c6a 01be c0f3 a93c
00000130: 4148 6f3d 8bf0 3e3e 7b3a 533d 2b4d 843c
00000140: ad2b 08be d3e0 b4bd d375 75bd 5820 fb3c
00000150: d6b6 703d 8078 c0bc 8079 28bd c035 5cbd
00000160: 5ad6 0fbc c094 5dbe b133 7ebd c22c 96bc
00000170: cd88 853e 9cce 0b3e c6d5 1b3e 1544 a13d
00000180: 22cf d53d 4e19 9a3d 2806 7f3d 15e1 c33c
00000190: 80ea 03bd 63dd 9bbf 7001 37bd 6806 70bd
000001a0: 4a57 eebc afd3 9c3e fcf3 c63c 5830 2dbd
000001b0: bf10 3a3f a0a3 b23e a80e 9d3e deea 373d
000001c0: 0f5e bc3c f9b1 e13c 6ea0 3bbd d75e 1d3d
000001d0: bd7d 3ebf 5d2d 3a3c 219c d73d 0349 4d3d
000001e0: 8893 d6be 54c3 1bbd 0998 1f3d 8a70 793d
000001f0: b2a3 953d 48fc 8dbd 42b7 8a3d 8c72 8f3c
00000200: ae76 823e c225 9dbd 179d 573e cc08 1abe
00000210: ac6e 9b3d 4bf5 af3d 9d14 733d 5bdb 353d
00000220: d963 f63c 8336 173d 9a3d 47bc e101 aa3e
00000230: 7107 be3d dff4 023d 8e2e 693c 4d79 fa3c
00000240: e301 7c3e 7d91 053e 8fb0 29bf 666a b2bb
00000250: 8537 0c3e 4762 4abc 69c9 073d 4902 033e
00000260: 9825 fb3d 04c8 31bd 919d a73e b2a4 e83c
00000270: 7e5f 3dbc 2cb5 5abd 5cd6 113d 7b2e 543d
00000280: 8476 9bbe 5552 7ebe 8920 b33c 77fe 5ebf
00000290: 8a15 693d 79db 3ebd 9447 483e d850 85bc
000002a0: 5cf3 efbc 50a8 05bd 6c46 15be 905c 953e
000002b0: 297e cfbc 16c9 863d e143 24be c58e 36bd
000002c0: bef8 713d 88f8 c5bb c308 483c 9f10 71bc
000002d0: dab7 f73a dee5 6fbf 5f7d 333d c977 633e
000002e0: e59c 543e 0f7c 533e 3024 913c 44db b8bd
000002f0: c7ed 89bc 3693 e03d 3ded 0a3f 13b6 3ebc
00000300: a64b 9bbf 708d 923e d430 d8bc ca99 03be
00000310: aa5f 89bf 19e2 6f3e 87f2 fdbb 8ed3 0f3d
00000320: cfdc 8f3c 1fc4 b83b dbac 0bbf 2cc3 0bbc
00000330: 80ca 9e3c 4a6e 8c3e 745a b63d c22b 843c
00000340: b3a6 c33d c7aa 443e 3e44 373e d755 8abd
00000350: 25b1 253d 0229 a43e cee2 3cbd 47d8 c73e
00000360: 87fc cfbc f9dd bcbe 240a 383e 5965 14bc
00000370: 2a7f 1bbd 2432 183e 7a81 08bd 5e50 e73d
00000380: 5263 b83e 719a d6bd 148a 033e 4410 bdbe
00000390: c73d d33c 7af5 48bd 56a7 a63d a82f 3b3b
000003a0: e330 473e 7eed 07bd 4bb2 cbbc ce5e 313d
000003b0: 06a2 ccbe 9edd 93bb 8ee1 bebc 7fbb e03c
000003c0: 66ba e93c a1b4 0fbd 59e0 8dbf df77 c3bc
000003d0: 09cc e4bc 8aaa 943c c4c1 853e 8851 1b3d
000003e0: 8d8b 253d 148f 8f3e 4960 9c3c 5655 4cbd
000003f0: 2494 ad3e 177b 8c3b e0ff 573e 122d b73e
0.044699162 -0.25371915 0.24826655 0.7161226 0.07888302 -0.47385964 0.18368125 0.12582618
0.027705515 0.01743464 0.37986985 -0.053157188 0.04832243 0.048062257 0.5517007 0.55246603
-0.10554809 0.026392179 0.18732063 -0.017991057 -0.18803728 -0.054655686 -0.012985699 -0.07531295
-0.023103837 -0.15950325 -0.65707165 0.067017086 -0.01811574 0.09714929 0.04642536 -0.057095617
0.0007744968 -1.1808885 -0.047832977 0.017789956 0.74498004 -0.08567494 -0.068009496 0.14577134
-1.3109964 0.0076956013 0.24709344 0.24283208 0.04493132 0.025245288 0.01716903 0.020980645
0.03363097 0.037212223 -0.028925925 0.016025033 0.026227811 -0.05468048 -0.57532686 0.06369008
0.2780491 -0.93450457 0.14335066 0.0021033739 0.23612729 -0.030726602 0.10373983 0.20499337
0.010850005 0.08735166 -0.0860052 0.50748605 -0.039252512 0.26045942 0.06830097 0.0020574683
0.16671054 0.017747689 -0.126383 0.020746112 0.058418516 0.18646447 0.051569443 0.016150078
-0.13297911 -0.08831944 -0.05992682 0.030655071 0.058768116 -0.023494959 -0.041131496 -0.053762197
-0.008779133 -0.21638775 -0.062061016 -0.018331889 0.26080933 0.13653034 0.15218267 0.07874314
0.10439898 0.07524358 0.06226173 0.023911038 -0.03220606 -1.2176937 -0.044679105 -0.05859986
-0.029094357 0.30630252 0.024286263 -0.042282432 0.726818 0.3489046 0.30675244 0.04490172
0.02299407 0.027550684 -0.045807295 0.038420524 -0.7441061 0.0113633545 0.10527826 0.050118458
-0.41909432 -0.038028076 0.03896335 0.06089834 0.07306613 -0.069328845 0.06773235 0.017510675
0.2548117 -0.07673217 0.21056019 -0.15042418 0.07589468 0.08591708 0.05934583 0.044398647
0.030076908 0.03691722 -0.012160683 0.33204558 0.09278763 0.03197181 0.014232291 0.030575419
0.24610095 0.1304378 -0.6628503 -0.0054448126 0.13693054 -0.012352533 0.033151064 0.1279384
0.1226303 -0.04340364 0.327374 0.028398845 -0.011558412 -0.053395435 0.03560482 0.05180214
-0.30363858 -0.24836095 0.0218661 -0.8710703 0.056905307 -0.046596024 0.19558555 -0.0162739
-0.029290847 -0.03263122 -0.14577645 0.29172182 -0.025328713 0.06581323 -0.16041519 -0.04456975
0.05907511 -0.00604159 0.01220912 -0.014713435 0.0018899397 -0.93710124 0.043820735 0.22213663
0.20762976 0.20652793 0.01771745 -0.090261966 -0.016837014 0.10965578 0.54268247 -0.01164009
-1.2132461 0.28623533 -0.02639047 -0.12851635 -1.0732319 0.23426093 -0.007749859 0.035113864
0.017561344 0.005638614 -0.5456063 -0.008530419 0.019383669 0.27427894 0.08903971 0.016134147
0.0955328 0.19205771 0.17897126 -0.06754654 0.04045214 0.32062536 -0.046114735 0.39032194
-0.02538897 -0.36888102 0.17972618 -0.009057366 -0.03796307 0.14862877 -0.033326603 0.11294626
0.36013275 -0.10478676 0.12845641 -0.36926472 0.025786294 -0.04906223 0.081373855 0.002856234
0.19452243 -0.033185475 -0.02486529 0.043303303 -0.39967364 -0.004512503 -0.023300912 0.027433155
0.028531265 -0.03508437 -1.108409 -0.02386087 -0.027929323 0.018147726 0.26124394 0.03791955
0.04041629 0.28038847 0.019088881 -0.04988607 0.33902085 0.0042871344 0.21093702 0.35776573

network.6.bias f4 [256]
00000000: 301e 3a3f dd48 7d3f d720 6dbd 6cb2 403f
00000010: 7db1 a7bd 299e 4f3f f4b6 293f de2f 383f
00000020: b198 373e c1c2 4e3f f49b 6b3f 1429 abbd
00000030: 3815 cf3f 8436 553f f576 583e 79c4 853e
00000040: 4387 093f 7332 b9bd a59e c6bd 89b1 12bd
00000050: c356 e33f 6d27 393f 1dcb 533f f373 de3e
00000060: d0ad c23e 3990 bcbd 68ab 4a3f cd41 d63f
00000070: fb96 4b3f a7ed 693f 1685 543f a0e5 613e
00000080: 810d 663f d2c5 3c3f 2fa4 503f 0cc5 2c3f
00000090: 47c8 5c3f 0904 583f d787 7d3f 9091 1f3f
000000a0: 2652 6c3f b814 66be d659 e6bd 3866 8f3f
000000b0: 83e3 3c3f c327 543f 734b 463f aa36 483f
000000c0: e4b9 b9bd f9f8 ecbd baed 6c3e b95b 953f
000000d0: 9bfa 7a3e 7061 343f 93ac d93e 3fc3 553f
000000e0: b226 813f 2dc9 703f 3caa 323f 66b3 f03f
000000f0: 488a 5c3f 5517 9fbd d305 733f c015 2b3f
00000100: cd8d 663f efc6 45be e687 fcbc c155 4f3f
00000110: d779 363f 54d3 2c3f 90c5 613f 1ae0 573f
00000120: 0eeb de3e c6e4 de3f e6b3 703f 85b3 213f
00000130: e244 233f 3e60 743f 404e 1a3f 5a71 223f
00000140: 6209 413f f98d 4f3f 2bd8 bf3f 09d7 05be
00000150: 4786 373f 52b8 6f3f 0141 ab3f b812 303f
00000160: 9b4f 703f 541f 1f3f 4598 2a3f ec55 823f
00000170: ea0b 623f 1c3b 6b3f 625c 5b3f 3790 5f3f
00000180: 1a49 493f e9c5 803f 414d 4b3f a007 393f
00000190: 1cab 823f f70c 2c3f b085 693f 8cea 453f
000001a0: ab7a 3f3f f168 d83e abeb 413f a402 553f
000001b0: 7320 603f 2453 55bd 8d91 4d3f be64 743f
000001c0: 5812 423f d0d6 403f 0666 363f 61ee 6c3f
000001d0: 601d 773f ef1e 3e3f 4d26 443f 4f82 173f
000001e0: b4d5 2a3f b01b 133f 3d72 8dbd 6a96 693f
000001f0: 7394 78bd d8a9 663f 556e 473f 51eb 603f
00000200: 983a fe3e 6735 623f e409 383f 8a1d d73f
00000210: c5b7 743f f2ec a6bd 134d 39be 3055 323f
00000220: e796 e73f 0e1b 633f 1a56 773f 625c 603f
00000230: abad e03f 576e 7e3f c870 ecbd 8254 e03f
00000240: 0a35 03bf 8274 543f 882e 7d3f 2e51 4f3f
00000250: 741c 673f 0169 203f 9d7c ab3f a007 5e3f
00000260: fda6 4f3f 2e6e 053f ae06 503f 4948 bfbd
00000270: b6f2 503f 6de3 7b3f 0bb1 593f 9587 b53f
00000280: e0b5 523f fedb 683f 23d2 9abd c491 3fbc
00000290: 456b 483f 09ef 1a3f a979 783f 4bc7 40bd
000002a0: 348a e73f 1fdd e53f de81 823f 9021 2f3f
000002b0: 9961 acbd b6b2 75bd f902 733f 9bd8 4c3f
000002c0: ab98 793f f287 783f 88e6 4f3f 99d0 703e
000002d0: 4ea5 f63f b59f 453f 9320 213f 1bdb 803f
000002e0: c931 84bd df2e 233f 87d4 753f bdd7 81bd
000002f0: c493 c33f c339 983f 7383 1d3f fd2b 643f
00000300: 088d 603f 9009 443f 8ab6 bebd b55e 513f
00000310: 55ea fc3e 3ef3 053f a1b3 cfbd da07 563f
00000320: f9c8 3d3f 826d 563f 4272 b3bd f74b 3f3f
00000330: 2e78 423f 6582 533f 9c9e 3fbe 050b 543f
00000340: e156 c0bc 7cfb fcbd b230 a03f faad 6b3f
00000350: 9625 473f 18bd 3c3f c979 373f 9b5c c53f
00000360: d368 b63f 61e0 4e3f fac5 453f 07e2 6e3f
00000370: 9d29 503f 625f b23f 27b7 723f fbdd 00be
00000380: 363e 463f 10c5 273f 145b fd3d b532 bb3d
00000390: 30dd fe3e 80cd 993f 47b0 8d3f 8148 5a3f
000003a0: ae88 2b3f 154c 2f3f 4320 553f 2605 4b3f
000003b0: c1aa 513f 2c77 87bd 5d91 433f c2d7 683f
000003c0: acd7 423f e7ff 8f3f 768b aa3f 015e 633f
000003d0: 0032 483f ab54 aa3f d207 6dbe c5c9 503f
000003e0: e23c c83f a3d4 803f 87c1 503f 7cad 503f
000003f0: 32df 6a3f 1e01 2e3f 2d19 893e 2aed 643f
0.7270231 0.98939306 -0.057892647 0.7527225 -0.0818815 0.8110071 0.6629479 0.7194804
0.17929341 0.8076592 0.9203484 -0.083574444 1.617835 0.8328631 0.21139129 0.2612646
0.5372202 -0.090428255 -0.09698228 -0.035813842 1.7760853 0.72325784 0.827318 0.43447837
0.38023233 -0.09207196 0.79167795 1.6738831 0.7952725 0.91378254 0.83015573 0.22060251
0.89864355 0.7373935 0.81500524 0.6748817 0.862431 0.8438116 0.990354 0.62331486
0.9231285 -0.22468841 -0.112476036 1.120307 0.73784655 0.8287317 0.77458876 0.7820841
-0.09068659 -0.11570925 0.2313756 1.1668617 0.24509661 0.7046118 0.42514476 0.83501047
1.0089934 0.9405697 0.6979101 1.8804748 0.861485 -0.07768122 0.9493076 0.6683006
0.9006012 -0.19314168 -0.03082652 0.80990225 0.7127966 0.6750996 0.8819208 0.84326327
0.43538707 1.7413566 0.94024503 0.6316455 0.6377698 0.95459354 0.6027565 0.6345421
0.7540494 0.8107601 1.4987844 -0.1307031 0.71689266 0.93640625 1.3379213 0.6877856
0.9387147 0.6215718 0.66638595 1.0182471 0.8829943 0.9188707 0.8568784 0.8732943
0.7862717 1.0060397 0.79414755 0.7227726 1.0208468 0.6720728 0.91219616 0.77311015
0.7479655 0.42267564 0.75750226 0.83207154 0.87549514 -0.052081242 0.8030022 0.9546622
0.7580924 0.7532778 0.71249425 0.9255124 0.965292 0.7426595 0.7662094 0.5918321
0.66732335 0.5746412 -0.06906555 0.9124514 -0.060688447 0.9010291 0.7790273 0.87859064
0.49654078 0.88362736 0.7189009 1.680589 0.9559291 -0.081506625 -0.18095808 0.69661236
1.8092927 0.8871316 0.96615756 0.87640965 1.7552999 0.99387115 -0.11544949 1.752579
-0.51252806 0.82990277 0.98899126 0.80983245 0.9027779 0.62660223 1.3397404 0.86730385
0.8111418 0.52121246 0.8126019 -0.09339959 0.8162035 0.983939 0.8503577 1.4182001
0.8230877 0.9096068 -0.07559612 -0.011692468 0.7828868 0.6052099 0.9706064 -0.04706506
1.8089051 1.7958106 1.0195882 0.6841059 -0.08417053 -0.059984885 0.9492641 0.80018014
0.9749858 0.97082436 0.8121114 0.23517074 1.9269197 0.7719682 0.6294033 1.0066866
-0.06454808 0.63743395 0.96027416 -0.06339977 1.527947 1.1892627 0.615287 0.8912962
0.87715197 0.7657709 -0.0931216 0.81785136 0.4939753 0.52324283 -0.10141683 0.8360573
0.74134785 0.83760846 -0.08762027 0.7472529 0.7596463 0.8262084 -0.18712848 0.82829314
-0.023478927 -0.12352654 1.2514861 0.9206234 0.77791727 0.73726034 0.71670204 1.5418886
1.425074 0.80811125 0.77255213 0.9331364 0.81313497 1.3935359 0.9481072 -0.12584679
0.77438676 0.6553507 0.123708874 0.09140531 0.49778128 1.2015839 1.106942 0.8526688
0.6700543 0.68475467 0.8325235 0.7930473 0.81901175 -0.06614527 0.7639368 0.9095422
0.7611034 1.124997 1.332381 0.88815314 0.78201294 1.3307089 -0.23147514 0.81557876
1.564358 1.0064892 0.815453 0.81514716 0.9174682 0.67970455 0.2677702 0.89424384

network.8.weight f4 [3, 256]
00000000: becf bbbe fb6e 753f 6d66 12bc 49b4 0dbd
00000010: f06f 653e e67f b1be fa93 00be 0e6e 0fbe
00000020: 54ab b73e 659a 86be 5bc2 2c3f 8b2e 1e3c
00000030: c517 943f 0d3b 183c a15f de3e 8058 893f
00000040: 56cf 613f 83ac eabc 91ab 81be 362f 9cbc
00000050: 012a b73f 19e9 93bc 40b5 b1be d5b3 57bf
00000060: 6fb9 573f 4594 1cbd 30cd 18bd 8da6 903f
00000070: 1578 d8bd 1ab0 063f facf 27be 9466 d63e
00000080: ce3f 5bbe cbd3 b1be 09c0 8fbe c543 b7bd
00000090: 0d5a 85be e6fc 84be a98d acbe 0c7a 49bd
000000a0: fe45 423f 417c 223f 3d5f 37be aea3 823f
000000b0: f3d7 22bd edb8 76be a314 a73b cecd abbd
000000c0: 00b0 4bbc df99 123d 819b 593f c52f 0b3f
000000d0: 48ee 493d 6438 aa3a 04d0 f33e b339 b0bd
000000e0: 7976 333f bbaa 2c3f d9c1 88bd c99e 8f3f
000000f0: 1ef9 e03e 2229 ad3c 4b7e 373f 6807 5a3b
00000100: 1f2f 8b3e 99a1 073f 90cb b03c 8564 d13e
00000110: 3fc5 d33d 8733 64bf 4fbf fabd 3945 35bc
00000120: 725e d0be ebb9 a53f bea0 09bd 3e94 41be
00000130: 2d58 ad3d 96ef 9b3e 6073 5b3c fd18 14bd
00000140: ddf2 82be e40f b6be 68e0 fd3e 9efb 88bc
00000150: 9f10 98be e1b5 8ebc d9c8 683f ff0f 18bd
00000160: b1a1 f63e 98b4 82bf 00e4 ebbd 986c d63e
00000170: a397 4ebd 8e95 0dbe aeab dd3e 91bc 3cbd
00000180: eb48 0d3f ca5d 003f 901d 9fbe 1fae 823c
00000190: 3425 1f3f 6020 0abe e14a 2e3f c170 073f
000001a0: 336a cd3e 9b36 8bbd 45bb f3bd 9bf8 87bd
000001b0: fbca 6ebf 526a 83bc dade 95be 690e 003f
000001c0: 07b1 003a a485 fd3c 54f1 273b 248c dd3e
000001d0: 1cfc c83e 978a 7abe 8481 90be f432 0d3f
000001e0: e95f 873e cc32 d6bd bd83 7ebc 57c5 02bd
000001f0: 7032 143c 568e 063f 7dea 6cbd 9ab7 36be
00000200: d48e a93e c121 72be 29cc 40be daae 0e3f
00000210: 0d5a 043f 93e2 f83b aaed c6bd c5a8 edbc
00000220: 8d44 6f3f 9484 0dbe 90ef 76be cf23 6f3e
00000230: 1e04 7d3f 28f8 d43e 2636 713a ef31 743f
00000240: 82a4 e6be e214 e9bd 77c6 f43e 22ec 76be
00000250: 2c33 28bf 60cf 84bd fd3a 433f 00f2 eebd
00000260: 87e6 d2bd 33c7 343f 2fca 8abe ecb3 793b
00000270: eba7 223f 14a3 1b3f cdee 313f 0495 ea3e
00000280: 908e 913e d217 d23e ab53 513c 9ecf bf3e
00000290: 64d3 b8bd 31d6 50bc 991d 333f 9907 e2bc
000002a0: 4536 7d3f 64b9 503f 3243 b53e 89b5 98bd
000002b0: 751a 7fbc 5a7b 1b3b 52e3 bd3e 8ab7 db3c
000002c0: 3044 bc3e 51c0 fa3e 6c0a f9bd b824 c53e
000002d0: 4e9f a23f afef f43e 48c5 6dbc 1c46 183f
000002e0: 7299 1dbc 11f5 053d 2c65 423f 7f90 da3c
000002f0: d275 2e3f b224 bb3e 3237 493f 5974 153f
00000300: 74ae 83bd 5b02 74be cf96 bbbc bb4e c43d
00000310: 77a1 853f 8ea2 bbbd 027b e6bb 1589 bebe
00000320: 78df b8bd 31b1 74be 7cdd 7e3b 62c8 43be
00000330: ec94 0bbe 7004 ac3e d41d debe f159 a5bd
00000340: 2f05 c6bc 5145 00bd c162 0f3f 7408 9d3e
00000350: 6099 9dbe 7569 d5bd f5ba 0dbc 9589 223f
00000360: abd4 303f e241 5e3e 2fbd c0bd 68bf 193f
00000370: 98ba 893d 6c90 373f a5cd 033f f8de 263d
00000380: 4b29 9abe 9df6 14bc 9d06 9e3e 7cdc 89bf
00000390: ac03 34be 48fa d13e ad8c fb3e 9933 78be
000003a0: d1d6 75bd b684 793c ce78 71be f40b bcbe
000003b0: 8f10 093b 3142 dd3c f56d e83e 26f5 c93e
000003c0: 8c52 12be bb8a 9e3e 3174 7d3f 3b6c 563d
000003d0: d9a2 2ebe 4506 103f 25b2 cdbe 3b82 9b3e
000003e0: 3c47 573f 3f3d 233f 5d64 95bf 8f87 133c
000003f0: 418f a6bc 314d 403d 7ef4 ea3e e3d7 293f
-0.36681932 0.9587247 -0.008935553 -0.03459576 0.22405982 -0.3466789 -0.12556449 -0.14006826
0.358729 -0.2628967 0.6748406 0.009654651 1.1569754 0.009291423 0.43432334 1.0730133
0.88206995 -0.028646713 -0.25326207 -0.01906548 1.4309694 -0.018055486 -0.34708595 -0.84258777
0.84267324 -0.03822734 -0.037305057 1.1300827 -0.10569779 0.5261246 -0.1638793 0.41875136
-0.21411058 -0.34731898 -0.280762 -0.08948473 -0.26045266 -0.25974196 -0.33701828 -0.04918866
0.7588805 0.63470846 -0.17907424 1.0206201 -0.039756726 -0.24093981 0.0050988956 -0.083888635
-0.012432098 0.035791274 0.85002905 0.54369766 0.04929951 0.0012986776 0.4761964 -0.08604755
0.7010265 0.67448014 -0.066775985 1.1220332 0.4394006 0.021137778 0.7167708 0.0033268575
0.27184388 0.52980953 0.021581441 0.40897003 0.10340356 -0.89141124 -0.122435205 -0.011063867
-0.40697056 1.2947363 -0.03360056 -0.18904206 0.08464084 0.30456227 0.013394207 -0.036156643
-0.25575915 -0.35559 0.4958527 -0.016721543 -0.2970018 -0.017420711 0.9093147 -0.03712463
0.48170236 -1.0211363 -0.11518097 0.41879725 -0.05043758 -0.13826582 0.43295044 -0.04607827
0.5518939 0.5014311 -0.31077242 0.015952168 0.6216614 -0.13488913 0.68083006 0.52906424
0.40120086 -0.067975245 -0.11900953 -0.066392146 -0.93278474 -0.016041908 -0.29271585 0.5002199
0.00049091916 0.030947514 0.002562602 0.4327098 0.39254844 -0.2446693 -0.28223813 0.55155873
0.2644036 -0.104589075 -0.015534339 -0.03192648 0.009045228 0.5256094 -0.057840813 -0.17843476
0.33116782 -0.23645689 -0.18827881 0.5573555 0.51699907 0.007595369 -0.097132996 -0.02901114
0.93463975 -0.13820106 -0.24114823 0.23353504 0.9883441 0.41595578 0.0009201489 0.9538869
-0.45047385 -0.11380936 0.47807667 -0.24113515 -0.6570308 -0.06484866 0.76261884 -0.116672516
-0.10297876 0.70616454 -0.2710738 0.0038101627 0.6353747 0.6079571 0.69505006 0.45816815
0.2842908 0.41033798 0.012776296 0.37463087 -0.090246946 -0.01274638 0.6996704 -0.027591513
0.98910934 0.81532884 0.35402828 -0.074565 -0.015570273 0.0023724646 0.37087494 0.026820917
0.36770773 0.4897485 -0.12160191 0.38504577 1.2704866 0.47839114 -0.014512368 0.5948198
-0.009619104 0.032704417 0.75935626 0.02668023 0.6814853 0.36551434 0.78599846 0.5838066
-0.06429759 -0.23829024 -0.02289906 0.09585329 1.04399 -0.09161864 -0.0070337066 -0.3721396
-0.09026998 -0.23895718 0.003888934 -0.19119409 -0.13631028 0.33597136 -0.43382132 -0.080737956
-0.024172394 -0.031316105 0.5601006 0.30670512 -0.30781078 -0.10420505 -0.008650531 0.63491184
0.69074506 0.2170482 -0.09411084 0.6005769 0.06725043 0.71704745 0.51485664 0.040739983
-0.3010963 -0.009092 0.3086442 -1.0770411 -0.17579526 0.41011262 0.49130765 -0.24238433
-0.060019318 0.015229395 -0.2358124 -0.3672787 0.002091441 0.027009102 0.4539639 0.39444846
-0.14289302 0.30965218 0.9900542 0.05234931 -0.17054309 0.56259567 -0.40174976 0.30372795
0.8409307 0.6376533 -1.1671253 0.009004488 -0.02033198 0.046948615 0.45889658 0.6634504

network.8.bias f4 [3]
00000000: 321a edbe 9214 9fbe 63de 2abe
-0.46309048 -0.3107038 -0.16686396
